logs/20250602_145846/checkpoint_episode_100.pt (torch, 686893 bytes, 19 tensors)

cnn.0.weight f4 [32, 1, 3, 3]
0	0xbe06414e	-0.1311085
1	0x3e792b1e	0.24332854
2	0xbe385578	-0.18001354
3	0x3db374a0	0.08762479
4	0x3e82a6e2	0.25517946
5	0x3e544208	0.20728314
6	0xbdd5525b	-0.10416099
7	0xbd74eacb	-0.05979423
8	0xbe8789c7	-0.26472303
9	0xbcee64d6	-0.029100817
10	0xbc4ff8ab	-0.012693564
11	0xbe62a2a6	-0.22132358
12	0x3e2fdbd6	0.17173705
13	0xbcab8e40	-0.020941854
14	0xbdea355b	-0.11435958
15	0x3d265c0b	0.040615123
16	0xbda1890b	-0.07887467
17	0xbe9839d2	-0.29731613
18	0xbe353cab	-0.17698924
19	0xbe071d23	-0.13194709
20	0xbe93b668	-0.28850102
21	0xbdf81f64	-0.12115362
22	0x3e5cac58	0.21550119
23	0xbdbcff26	-0.09228353
24	0x3e4c80ca	0.19971004
25	0xbe1c34d8	-0.15254533
26	0xbe95b24f	-0.292376
27	0x3da62eb0	0.08114374
28	0xbe292aab	-0.16520183
29	0x3db055ab	0.0861009
30	0xbe6903a0	-0.22755289
31	0x3e517d2b	0.20457904
32	0xbe45f62b	-0.19332187
33	0x3ea0594a	0.31318122
34	0xbe9e3a2f	-0.30903766
35	0x3e3d56de	0.18490168
36	0xbdc4634b	-0.09589251
37	0xbdbbe300	-0.09174156
38	0x3e5bd8a3	0.21469359
39	0x3e8bf273	0.27333412
40	0xbe6c44c3	-0.23073106
41	0xbe011620	-0.12606096
42	0x3db1d52b	0.08683237
43	0xbe9b7fdb	-0.30370983
44	0x3e7c7150	0.246526
45	0x3e240031	0.16015698
46	0x3e836edc	0.25670516
47	0x3c99f565	0.018793771
48	0x3ea36863	0.31915578
49	0x3e0918e7	0.13388406
50	0xbe129c89	-0.14317526
51	0xbc0c1aae	-0.008551283
52	0x3e4a527c	0.19758028
53	0x3cb67e73	0.022277093
54	0xbd2d8672	-0.042364545
55	0xbd89a364	-0.067206174
56	0x3bd08c19	0.006364357
57	0x3e99612f	0.29956958
58	0xbea514f8	-0.3224256
59	0x3dd69685	0.10477928
60	0xbd39a038	-0.045318812
61	0xbc2e6aeb	-0.010645608
62	0xbd7c3ea5	-0.06158318
63	0x3da14e91	0.078763135
64	0xbd1791ca	-0.03700427
65	0x3ea5bb08	0.32369256
66	0x3e625d3a	0.22105876
67	0x3e523f2e	0.20531914
68	0xbdead3fc	-0.11466214
69	0x3e1bf917	0.15231739
70	0x3e6cc588	0.23122227
71	0xbe40bce8	-0.18822062
72	0xbd979ec4	-0.07403329
73	0x3ea7b8fb	0.32758316
74	0x3e149523	0.14510016
75	0xbdf632f0	-0.12021434
76	0x3e28f3e1	0.16499282
77	0x3e0c51cb	0.13703077
78	0x3e85b524	0.26114762
79	0x3ea99635	0.3312241
80	0x3dd780b7	0.10522597
81	0xbe9e976f	-0.3097491
82	0xbcb96948	-0.02263321
83	0xbdeea9a7	-0.11653452
84	0x3e7a2cde	0.24431178
85	0x3db898c4	0.09013513
86	0xbe5b3d2f	-0.21410058
87	0x3dc3a65d	0.09553216
88	0xbbd2cd77	-0.0064331847
89	0x3d478573	0.04871125
90	0xbea24cce	-0.31699222
91	0x3d884f9c	0.06655809
92	0xbe2a6894	-0.16641456
93	0x3e882d22	0.26596934
94	0xbea052a4	-0.3131305
95	0x3e4a0d13	0.1973155
96	0xbe7929e8	-0.24332392
97	0x3e8b7696	0.2723891
98	0xbd2f8223	-0.042848717
99	0xbbb9d708	-0.0056713857
100	0x3df58e09	0.11989982
101	0x3c962a97	0.018330855
102	0xbc370233	-0.011169958
103	0x3de1e815	0.11030594
104	0xbe5f6a2e	-0.21817848
105	0x3e1dc2c4	0.15406328
106	0xbd964d29	-0.07338936
107	0xbd536eb7	-0.051619258
108	0xbe5b8fbe	-0.21441552
109	0x3ea51970	0.3224597
110	0xbc3514d6	-0.011052331
111	0xbe085ade	-0.13315913
112	0xbe0a8b46	-0.13529691
113	0xbe1ccd3e	-0.15312669
114	0xbe336656	-0.17519507
115	0x3e07b956	0.13254294
116	0xbe1b9426	-0.15193233
117	0x3e92b306	0.2865221
118	0x3d68c2ab	0.056826275
119	0xbe071873	-0.1319292
120	0xbe173dce	-0.1476967
121	0xbdb9b7e6	-0.09068279
122	0x3e532298	0.20618665
123	0x3ddbf28b	0.10739621
124	0xbdd3e640	-0.10346651
125	0x3e9fba20	0.3119669
126	0x3e383ea0	0.1799264
127	0xbe341170	-0.17584777
128	0xbe3779c3	-0.17917542
129	0xbc35e1ab	-0.011101167
130	0xbd1a20ab	-0.03762881
131	0xbe1b1938	-0.15146339
132	0xbda1030b	-0.078619085
133	0x3db85056	0.08999698
134	0x3da73f0b	0.08166321
135	0x3c66ba9e	0.014082579
136	0x3d0f07a3	0.034919392
137	0xbe2e9cdb	-0.17052023
138	0xbe36ff50	-0.17870831
139	0x3d5e13e4	0.054218188
140	0x3e69be4f	0.22826503
141	0x3d83238b	0.06403264
142	0x3e2e5e9e	0.17028281
143	0x3e5edb19	0.21763267
144	0xbe81c18c	-0.25342977
145	0xbe49a79c	-0.19692844
146	0x3e6b7009	0.22991957
147	0x3ea47a29	0.3212445
148	0x3e041001	0.1289673
149	0xbe9a782a	-0.30169803
150	0xbe9e1a27	-0.30879328
151	0x3e14f00f	0.145447
152	0xbd1886aa	-0.0372378
153	0xbe6ad45c	-0.22932571
154	0x3eaa933f	0.33315465
155	0x3e9d5c8a	0.30734664
156	0xbe3b2839	-0.18277062
157	0x3e8dc8a3	0.27692136
158	0x3cdbffe4	0.026855417
159	0xbe96ad25	-0.29428974
160	0xbe686002	-0.22692874
161	0x3d402649	0.04691151
162	0x3c8c9dab	0.017165026
163	0x3e799638	0.2437371
164	0xbe90f7a3	-0.28313932
165	0xbc932696	-0.017962735
166	0x3e5955b6	0.21224102
167	0x3b69e400	0.0035688877
168	0x3d8ec7d6	0.069717094
169	0x3b643400	0.0034821033
170	0x3ea747c6	0.32671946
171	0x3e1b8c83	0.1519032
172	0xbe6b1fab	-0.22961299
173	0xbe12c0ab	-0.1433131
174	0x3e2a4546	0.16627988
175	0x3df6c0cb	0.12048491
176	0xbd254196	-0.04034575
177	0x3e9cfd62	0.30662066
178	0xbe940d08	-0.28916192
179	0x3a745800	0.00093209743
180	0xbe60685a	-0.21914807
181	0x3e8e8e15	0.27842775
182	0x3db9f356	0.09079616
183	0xbe30a997	-0.17252193
184	0x3e3028e8	0.17203104
185	0x3e9c70db	0.30554852
186	0xbd79f158	-0.06102118
187	0x3dab86f1	0.083753474
188	0x3e9b6a6f	0.3035464
189	0xbe5fbc73	-0.21849231
190	0x3e73b623	0.23799948
191	0x3e56f21d	0.20990796
192	0xbe0a41f1	-0.13501717
193	0xbe462996	-0.19351801
194	0x3e431714	0.19051772
195	0xbdd48c2d	-0.10378299
196	0xbea5b9b0	-0.3236823
197	0x3d18531d	0.037188638
198	0xbe723346	-0.23652372
199	0xbe76591b	-0.24057429
200	0x3ea53c7a	0.32272702
201	0xbdf7ac4d	-0.12093411
202	0x3e1fc0d5	0.15600903
203	0x3e0bfcc0	0.13670635
204	0xbe174038	-0.14770591
205	0x3ea0909c	0.31360328
206	0xbde5d319	-0.11221904
207	0xbe6a8eb7	-0.22906004
208	0xbe14e1d8	-0.14539278
209	0xbce95f22	-0.028487746
210	0x3e8985d6	0.2685992
211	0xbea70c60	-0.3262663
212	0x3d97178e	0.073775396
213	0x3d6ab1ca	0.05729846
214	0xb996a9eb	-0.00028736828
215	0x3df38b65	0.11891822
216	0x3e846492	0.2585798
217	0xbe74aaf8	-0.23893344
218	0x3e099156	0.13434348
219	0xbea62b48	-0.32454896
220	0x3ea4715f	0.32117745
221	0xbe416f78	-0.18890178
222	0xbcade078	-0.0212252
223	0x3ea31aa7	0.31856272
224	0xbd8981b0	-0.06714189
225	0x3def58be	0.11686848
226	0xbe726958	-0.23672998
227	0xbd847f96	-0.064696476
228	0x3d1a7f78	0.03771922
229	0xbdb2887c	-0.087174386
230	0x3d070763	0.03296603
231	0xbe1b78a4	-0.1518274
232	0xbe844ce7	-0.25839922
233	0x3e1be25e	0.15223071
234	0x3e829d17	0.25510475
235	0x3d1c0a0b	0.038095515
236	0x3d3e67b6	0.046485625
237	0xbe0b7566	-0.13619003
238	0x3c3a732b	0.011379997
239	0xbdba022b	-0.09082445
240	0xbda64f96	-0.081206486
241	0xbda126d6	-0.078687355
242	0xbe0dd938	-0.13852394
243	0xbc2525f4	-0.0100798495
244	0x3e9baab2	0.30403668
245	0x3da303e6	0.07959728
246	0x3e58c183	0.21167569
247	0x3e1a8fc3	0.15093903
248	0x3d830636	0.06397669
249	0x3d15d440	0.03657937
250	0x3d4f40d6	0.05059894
251	0x3d813da0	0.06310582
252	0x3cfef564	0.03112287
253	0x3ea88dac	0.32920587
254	0x3d5e7f0b	0.054320376
255	0x3e9cd1f7	0.3062894

cnn.0.bias f4 [32]
0	0xbe7652d0	-0.24055028
1	0xbe170a1e	-0.14749953
2	0xbcc6ce1d	-0.024268204
3	0xbea63e86	-0.32469577
4	0xbe4cf8e3	-0.20016818
5	0x3ba3f17f	0.005003154
6	0x3d152f2c	0.03642194
7	0x3e6529ea	0.2237927
8	0xbe0976d0	-0.1342423
9	0x3d867067	0.06564408
10	0x3dad8ee8	0.08474523
11	0x3ce162c6	0.02751292
12	0xbea492aa	-0.32143146
13	0xbe7bd9f8	-0.24594867
14	0xbe6d9b7b	-0.23203842
15	0xbd3d3d06	-0.046200775
16	0x3e1caa7c	0.1529941
17	0x3df304d7	0.118661575
18	0xbe5f27b3	-0.21792488
19	0xbe46b148	-0.19403565
20	0x3d36ff56	0.0446771
21	0x3ded14d4	0.11576238
22	0x3e9564c1	0.29178432
23	0x3b2ad9d0	0.0026069768
24	0xbe1c5740	-0.15267658
25	0x3d8fb1cf	0.07016336
26	0xbe8a2af8	-0.26985908
27	0xbe316f75	-0.17327674
28	0xbe282745	-0.1642123
29	0x3e865ffb	0.26245102
30	0xbd77eb23	-0.06052698
31	0xbe653138	-0.22382057

cnn.2.weight f4 [64, 32, 3, 3]
0	0x3bb12067	0.005405474
1	0x3ce9bb11	0.028531583
2	0xbc484722	-0.012223991
3	0x3c7253a8	0.014790453
4	0x3cb11797	0.021617694
5	0x3d23ed4d	0.04002123
6	0x3c3e1ef5	0.01160406
7	0x3cca8ac1	0.024724366
8	0xbd203d10	-0.039120734
9	0xbd43da70	-0.04781574
10	0xbd3911c8	-0.045182973
11	0xbd3ad675	-0.04561468
12	0xbd1ab3dd	-0.037769187
13	0xbd5d3f74	-0.05401559
14	0x3d5a3b01	0.053278927
15	0xbabbcfba	-0.0014328875
16	0x3c0b8167	0.008514739
17	0x3d399cf3	0.045315694
18	0x3c4275ff	0.011868953
19	0x3d3c2a7e	0.04593896
20	0xbc2675d2	-0.0101599265
21	0x3baa6bd7	0.005200844
22	0x3ccb9cd2	0.024855051
23	0xbd3356d8	-0.043783993
24	0xbd1cf2a9	-0.038317356
25	0x3d492a41	0.049112562
26	0xbd44f836	-0.048088275
27	0x3d4fd4f4	0.050740197
28	0x3d02d6d3	0.031943154
29	0x3b8752b2	0.004129731
30	0x3cac3bb8	0.02102457
31	0x3cf56776	0.02995656
32	0xbce7d645	-0.028300414
33	0x3c25f621	0.0101294825
34	0x3d4dd6dd	0.050253738
35	0xbd6ef0d7	-0.05833515
36	0xbd23692e	-0.03989523
37	0x3d502497	0.050816145
38	0xbba00aa7	-0.0048840824
39	0xbd2f5039	-0.042801116
40	0x3c72b7be	0.014814315
41	0xbd507015	-0.05088814
42	0x3d20478f	0.039130744
43	0xbd564ba4	-0.05231823
44	0x3d3a8ce1	0.04554451
45	0x3d220b62	0.039561637
46	0x3d4da4c1	0.05020595
47	0x3d63f309	0.0556517
48	0xbd0c9c31	-0.034328643
49	0x3d0caaaa	0.034342445
50	0xbd275444	-0.040851846
51	0xbd014b65	-0.031566042
52	0xbc153351	-0.009106473
53	0xbc336ece	-0.010951711
54	0x3d1e4dd4	0.03864844
55	0xbd5a7026	-0.05332961
56	0xbd702355	-0.058627445
57	0xbd12cf1c	-0.035842046
58	0xbd41df37	-0.047332015
59	0xbcb3f4b3	-0.021967268
60	0x3c4e653b	0.012597377
61	0xbaf7017f	-0.001884505
62	0x3d538ea6	0.051649712
63	0xba743daf	-0.0009317053
64	0x3caf5cdf	0.02140659
65	0x3d43f6ff	0.047842976
66	0xbd4b6d08	-0.049664527
67	0xbcc41502	-0.023935799
68	0x3d3f7dcc	0.04675083
69	0xbd2d15cd	-0.04225712
70	0x3d3e6f71	0.046492998
71	0xbc1ef2ba	-0.009701425
72	0xbd58e56a	-0.05295316
73	0x3d3d6159	0.046235416
74	0x3d5b9c31	0.053615753
75	0xbcac4bbf	-0.021032212
76	0x3ceca2bd	0.028886193
77	0xbd0d23e8	-0.03445807
78	0xbcd6bc78	-0.026212916
79	0x3cd28f48	0.025703087
80	0x3d207353	0.03917248
81	0xbd575f3b	-0.052581053
82	0x3ce0d1a9	0.027443724
83	0x3c827ec6	0.01592959
84	0xbd0fbeed	-0.03509419
85	0xbd5ef7a6	-0.054435395
86	0x3d1a6b8c	0.03770022
87	0x3cabcf0f	0.020972757
88	0xbd62cc60	-0.05537069
89	0xbc9089e9	-0.017643886
90	0xbd228fe3	-0.039688002
91	0xbcf60b21	-0.030034604
92	0xbd3bdc6d	-0.04586451
93	0xbd3c8e21	-0.046033982
94	0x3cfeac74	0.031088091
95	0xbc40a137	-0.011757187
96	0x3d619620	0.05507481
97	0xbd14e66f	-0.03635257
98	0x3ca2ed36	0.019888502
99	0x3c61d6e1	0.013784141
100	0x39e2afc8	0.00043237046
101	0x3d6cdadd	0.05782591
102	0x3cb614bb	0.022226682
103	0xbb575282	-0.0032855575
104	0xbc8ccfb7	-0.01718889
105	0xbd25bbf6	-0.040462457
106	0xbcadaa9e	-0.02119952
107	0x3d226bb1	0.039653484
108	0x3d0059ed	0.03133576
109	0x3d3a821c	0.04553424
110	0x3cdcd446	0.026956689
111	0xbbeaa1a8	-0.007160384
112	0x3d473379	0.048633073
113	0xbcc92b0b	-0.024556657
114	0x3c9cb583	0.01912952
115	0x3d267e1f	0.040647622
116	0xbd60a265	-0.05484237
117	0xbd705245	-0.05867221
118	0xbc8f784e	-0.01751342
119	0x3c967a71	0.018368931
120	0xbc3ee4db	-0.011651243
121	0x3c5c6e11	0.013453976
122	0x3d045fa7	0.032317784
123	0x3cea04f9	0.028566824
124	0x3d1d2f5b	0.03837524
125	0x3d450ad7	0.04810604
126	0xbd4432f5	-0.04790016
127	0xbc8dfe67	-0.017333223
128	0xbc14cf59	-0.009082639
129	0xbd44c0ba	-0.04803536
130	0x3bc30ed2	0.0059526945
131	0xbcd70ccd	-0.026251221
132	0x3c183115	0.009289046
133	0x3d4c3c96	0.049862467
134	0x3d702883	0.058632385
135	0x3bae17f0	0.005312912
136	0x3d5e2cf7	0.0542421
137	0x3d064198	0.0327774
138	0xbb2b3f53	-0.0026130273
139	0x3d4500e4	0.048096552
140	0xbb0d19d8	-0.0021530297
141	0x3caae962	0.020863239
142	0xbcd4406d	-0.025909627
143	0xbc2f32d0	-0.010693267
144	0xbd41ab16	-0.0472823
145	0xbcc6b75e	-0.024257358
146	0x3d0f2177	0.034944024
147	0x3c6d243e	0.014473973
148	0x3d223d97	0.039609518
149	0x3c331e41	0.010932506
150	0xbc1ca27e	-0.0095602255
151	0x3d4f6176	0.050630055
152	0x3d2ebf1c	0.042662725
153	0x3cea35c4	0.02859009
154	0x3d11b258	0.035570472
155	0xbcd1b9f1	-0.02560136
156	0xbd1a711e	-0.037705533
157	0xbc808a4a	-0.015690941
158	0xbcebee56	-0.02880017
159	0xbd360deb	-0.044446867
160	0xbd5d6802	-0.054054268
161	0xbc824cb4	-0.015905716
162	0x3d19dc76	0.037563764
163	0xbcd75cc3	-0.02628935
164	0xbc828cd8	-0.0159363
165	0xbd328074	-0.043579534
166	0xbca2806b	-0.019836625
167	0x3d04f85d	0.03246342
168	0x3d2c9ec5	0.042143602
169	0xbd683b50	-0.05669719
170	0xbd399acd	-0.045313645
171	0x3d5adba3	0.05343212
172	0xbbab4ad1	-0.0052274247
173	0xbd5338cb	-0.051567834
174	0xbd02be06	-0.0319195
175	0x3d2a1c16	0.04153069
176	0x3d58a705	0.052893657
177	0x3bfffc6b	0.007812073
178	0x3c588857	0.0132161
179	0xbd0d26f0	-0.03446096
180	0x3c846726	0.016162466
181	0x3cfa64e9	0.030565696
182	0xbcfe938b	-0.031076213
183	0xbd1951c4	-0.037431493
184	0xbcb4fa1f	-0.022091923
185	0xbd6ceda9	-0.057843838
186	0x3d2a5460	0.041584373
187	0xbd016783	-0.031592857
188	0xbd6574f9	-0.056019757
189	0x3d01728b	0.031603377
190	0xbd4aa8f8	-0.049477547
191	0x3c52e439	0.012871795
192	0x3cd1e19d	0.025620276
193	0x3d36cf9f	0.044631597
194	0x3d43da3b	0.047815543
195	0xbce377f8	-0.027767166
196	0x3cf755ca	0.030192275
197	0x3bb2e0c4	0.005458923
198	0xbd0f2d20	-0.034955144
199	0x3c07f5cd	0.00829835
200	0x3d3cf094	0.04612787
201	0x3d517065	0.05113258
202	0xbd54765e	-0.051870696
203	0x3bde1d49	0.0067783934
204	0xbcf39f2c	-0.029738985
205	0xbc971dd7	-0.018446846
206	0x3d239732	0.039939113
207	0xbd2733a6	-0.04082074
208	0x3d57ce23	0.05268682
209	0xbaaa570a	-0.001299591
210	0xbd3d908a	-0.04628042
211	0xbd169d55	-0.036771137
212	0x3cedc4e3	0.029024547
213	0x3bb8b7e2	0.005637155
214	0xbd3c34bb	-0.045948725
215	0x3cb6276c	0.022235595
216	0xbcadc78d	-0.021213317
217	0xbd456dee	-0.04820054
218	0xbd1f6e45	-0.03892352
219	0x3bd44373	0.006477767
220	0x3d285e8b	0.04110579
221	0xbd49a9e5	-0.04923429
222	0x3b0bfd78	0.0021360796
223	0x3afd3b8d	0.0019320116
224	0x3d07a05a	0.033111908
225	0x3d62e697	0.05539569
226	0xbc5dfb41	-0.013548673
227	0x3b87ff58	0.0041503124
228	0x3d66e6e5	0.056372542
229	0x3d20e175	0.039277513
230	0xbc4f60e6	-0.01265738
231	0xbd0016fd	-0.031271923
232	0xbd0ae89d	-0.033913244
233	0xbc957a47	-0.018246783
234	0xbc628f49	-0.013828107
235	0x3b9dfc90	0.0048213676
236	0x3d495d7e	0.049161427
237	0x3b2a12b0	0.002595108
238	0x3c9f771a	0.019465972
239	0xbb73190f	-0.0037093794
240	0x3d0e75ac	0.03478019
241	0x3be9800a	0.007125859
242	0x3d634c77	0.055492844
243	0xbcdb6af9	-0.026784407
244	0x3d0b8495	0.034061987
245	0xbb3c1c91	-0.002870355
246	0x3d054cf2	0.032544084
247	0xbc939857	-0.018016977
248	0x3d521395	0.051288206
249	0xbd1234db	-0.03569494
250	0xbcdf77cc	-0.027278803
251	0x3c9a7967	0.018856717
252	0x3c1fa207	0.00974322
253	0xba8a53ac	-0.0010553501
254	0xbc884713	-0.016635453
255	0x3b6bcc0e	0.003597978

cnn.2.bias f4 [64]
0	0xbc894198	-0.01675491
1	0xba1bec2e	-0.0005947974
2	0xbd30cccc	-0.04316406
3	0xbc2a7ed3	-0.010406214
4	0xbd646d4e	-0.055768304
5	0x3d3d64a0	0.04623854
6	0x3b8173e6	0.0039505837
7	0xbd5dfb6d	-0.054194856
8	0x3ca418be	0.02003133
9	0xbc0a97b6	-0.008459022
10	0xbc527ac6	-0.012846654
11	0x3b027bf6	0.0019910312
12	0x3d12d65a	0.035848953
13	0x3d1fb34b	0.038989346
14	0x3d55c2e2	0.052187808
15	0xbd3ee1c9	-0.046602044
16	0xbb1af1eb	-0.002364273
17	0xbcfbc91e	-0.030735549
18	0xbbed1966	-0.0072356937
19	0x3b3f0ed9	0.0029153137
20	0x3d10b167	0.035325434
21	0x3cff8ac7	0.031194104
22	0x3cda8eb8	0.026679382
23	0x3d154343	0.0364411
24	0x3d0e5218	0.03474626
25	0xba3fb848	-0.0007313532
26	0x3d345354	0.04402478
27	0x3cc963ce	0.024583723
28	0x3d287d30	0.041135013
29	0x3b22f6fa	0.0024866448
30	0xbbbe1436	-0.005800749
31	0xbc97dc86	-0.018537771
32	0xbc45310f	-0.012035622
33	0xbd1bdbdf	-0.038051482
34	0xbd0d7f48	-0.034545213
35	0xbd015ed4	-0.031584576
36	0x3c0e5bad	0.008688849
37	0x3d4399fc	0.047754273
38	0x3c2411b7	0.010013989
39	0xbbf0a909	-0.0073443693
40	0xbd2ce122	-0.04220689
41	0x3ce723a6	0.02821524
42	0x3b16e174	0.0023022564
43	0x3d02fac7	0.03197744
44	0x3d2674f7	0.04063889
45	0x3cb4903c	0.022041433
46	0xbd70e55e	-0.05881249
47	0x3d788f9b	0.060683828
48	0x3d66d0b4	0.05635138
49	0xbd651eb7	-0.055937495
50	0x3d34555c	0.044026718
51	0x3c32615f	0.010887473
52	0x3d46c0fa	0.04852388
53	0x3c602486	0.013680583
54	0x3d57344c	0.05254011
55	0x3caf7348	0.021417275
56	0xbd2c6b14	-0.042094305
57	0x3c131140	0.008976281
58	0xbbe565b3	-0.007000649
59	0x3c1133bf	0.008862435
60	0xbce37550	-0.0277659
61	0x3d25643e	0.0403788
62	0xbd407e3e	-0.046995394
63	0x3ccfb50f	0.02535489

state_net.0.weight f4 [32, 4]
0	0x3db913ae	0.09036957
1	0x3e32b6e8	0.17452586
2	0xbec2e2f6	-0.38063782
3	0x3e88953d	0.2667636
4	0xbd82c2ce	-0.06384812
5	0x3eb437c5	0.351988
6	0xbef378e3	-0.47553167
7	0x3d818b31	0.06325377
8	0x3e309fd8	0.17248476
9	0xbe794bde	-0.24345347
10	0xbe92b8fa	-0.2865675
11	0x3ef3def6	0.47631043
12	0xbde388db	-0.111100875
13	0x3efc046e	0.4922213
14	0x3efb041c	0.49026573
15	0x3eb3be23	0.35106
16	0x3d99d200	0.075107574
17	0x3e0caa68	0.1373688
18	0xbeb2f412	-0.34951836
19	0x3de0b5a0	0.10972142
20	0xbe7c85f7	-0.24660479
21	0x3e07f260	0.13276052
22	0xbeeef3fe	-0.46670526
23	0x3e39b3b5	0.18134959
24	0xbde4ccc3	-0.11171868
25	0x3ee3d2e4	0.44496834
26	0x3eedfb1b	0.4648064
27	0xbdaa31ab	-0.08310255
28	0x3df18ca6	0.11794405
29	0xbe4a2f3d	-0.19744582
30	0x3ee8114f	0.45325705
31	0xbc9ffefd	-0.019530768
32	0xbea31396	-0.3185088
33	0xbd8ddef6	-0.06927292
34	0x3e0ea060	0.13928366
35	0x3efac852	0.48980957
36	0x3dc8ae65	0.09798888
37	0x3d1272d2	0.035754032
38	0x3ea91dd2	0.33030564
39	0x3e385be8	0.1800381
40	0x3dbf6e80	0.09347248
41	0x3ec402b0	0.382833
42	0xbe546dd8	-0.20745027
43	0xbe591058	-0.21197641
44	0xbe865cf8	-0.26242805
45	0x3ee92fe0	0.45544338
46	0x3ebd373f	0.36956212
47	0x3eaa0afd	0.33211508
48	0xbed0aa7c	-0.4075507
49	0xbee78f59	-0.45226553
50	0x3ed5ea9b	0.41780552
51	0xbe8c5dc3	-0.27415285
52	0x3ea88142	0.32911116
53	0x3d78d95b	0.06075416
54	0x3e1f41a3	0.15552382
55	0x3e9a07cd	0.30084077
56	0xbe3e36d1	-0.18575598
57	0xbe50d687	-0.20394336
58	0xbe9621f1	-0.2932277
59	0xbd496809	-0.04917148
60	0xbe85af20	-0.26110172
61	0x3ec038f6	0.37543458
62	0xbe698ad8	-0.22806871
63	0xbe05eefc	-0.13079447
64	0xbe80526d	-0.25062886
65	0x3ee810bf	0.45325276
66	0x3e925b0a	0.28585082
67	0xbe1c6d5c	-0.15276092
68	0x3e5aa1a1	0.21350719
69	0x3e8e81f6	0.27833527
70	0x3ee6f3df	0.45107934
71	0x3eb8c7af	0.36089846
72	0xbe477f77	-0.19482218
73	0x3dd01d8c	0.101618856
74	0x3ef06ad6	0.4695651
75	0x3eb5aaaa	0.3548177
76	0xbeebd7f6	-0.46063203
77	0x3dae3320	0.08505845
78	0xbea87010	-0.32897997
79	0xbcb02220	-0.021500647
80	0x3e8dca4f	0.27693412
81	0xbe80153e	-0.25016207
82	0xbd6795e5	-0.056539435
83	0x3efdabc2	0.49545103
84	0xbefdfda8	-0.49607587
85	0x3ee89a6f	0.45430323
86	0xbec42f54	-0.38317358
87	0x3e7cc1f0	0.24683356
88	0xbe72465d	-0.23659654
89	0x3e88b50e	0.26700634
90	0x3dfa16c9	0.12211377
91	0xbd1d8663	-0.03845824
92	0x3dc90c8d	0.09816847
93	0xbe1f75f8	-0.15572345
94	0xbe8a86d1	-0.27055982
95	0x3db2f047	0.087372355
96	0xbefaf314	-0.4901358
97	0x3eba2e07	0.3636324
98	0x3e7bfe1c	0.24608654
99	0xbe0d6b58	-0.1381048
100	0x3d6cd44b	0.057819646
101	0x3ed0bacc	0.40767515
102	0x3df2321a	0.11825962
103	0x3e9139c7	0.28364393
104	0xbeda0bf1	-0.42587236
105	0x3e9a3c47	0.30124113
106	0x3ecbec55	0.39828745
107	0xbcae3f30	-0.021270365
108	0x3c9d52ec	0.01920458
109	0x3e9b1978	0.3029287
110	0x3dd71d59	0.105036445
111	0xbdc2950e	-0.09501086
112	0x3ec243e2	0.37942415
113	0xbe925ac2	-0.28584868
114	0xbde84c4a	-0.11342676
115	0xbe4f1a08	-0.20224774
116	0x3e17931e	0.14802215
117	0x3eb57ebf	0.35448262
118	0xbdddd285	-0.10831169
119	0xbefc11b3	-0.49232253
120	0x3e286023	0.16442923
121	0xbe5a87a6	-0.21340808
122	0xbe6bc03d	-0.23022552
123	0x3e89c786	0.26910037
124	0xbeee77cb	-0.4657577
125	0x3e780504	0.24220663
126	0xbed9095b	-0.4238995
127	0x3d8c99bd	0.06865261

state_net.0.bias f4 [32]
0	0x3e9940c9	0.2993224
1	0x3e5f81b5	0.21826823
2	0xbe14ca7a	-0.14530364
3	0x3dc4ed53	0.096155785
4	0xbef6fa76	-0.48237962
5	0xbdcc1dfa	-0.09966655
6	0x3ee2f4c4	0.44327366
7	0x3cd454fa	0.025919426
8	0x3e154277	0.14576136
9	0x3c6919b6	0.014227321
10	0xbefedfc8	-0.49780107
11	0xbddb577d	-0.107100464
12	0xbd5ca287	-0.053865936
13	0xbce8fdbe	-0.028441306
14	0x3ebf476a	0.37359172
15	0xbe85b606	-0.26115435
16	0x3e60b0ab	0.21942393
17	0xbeb00754	-0.3438059
18	0x3e050422	0.12989858
19	0xbd61b4c0	-0.055104017
20	0x3efb2661	0.49052718
21	0x3ce480f6	0.027893525
22	0x3c889fc6	0.016677748
23	0x3e8cf0c5	0.27527443
24	0x3ee49a44	0.44648945
25	0x3ee245d9	0.44193915
26	0xbe8f6ee9	-0.28014305
27	0x3ed7629e	0.42067426
28	0x3ea2ee70	0.31822538
29	0x3e5168f3	0.20450191
30	0xbdeee994	-0.11665645
31	0x3e8a7baf	0.27047488

state_net.2.weight f4 [32, 32]
0	0x3db93165	0.090426244
1	0x3d865296	0.06558721
2	0xbdba09ca	-0.09083898
3	0xbd171b94	-0.036891535
4	0x3d31b335	0.043383796
5	0xbd55f4ca	-0.052235402
6	0xbd10a2e1	-0.035311583
7	0x3e0bb882	0.13644603
8	0x3e32c69d	0.17458577
9	0xbe2369c0	-0.15958309
10	0x3c85a9c8	0.01631631
11	0x3dc2b3fd	0.09506986
12	0xbda41716	-0.08012216
13	0xbe25d572	-0.16194704
14	0xbc840db8	-0.016119823
15	0xbe28db70	-0.16489959
16	0xbe12a757	-0.14321648
17	0x3d0b4e73	0.034010362
18	0x3e224748	0.15847504
19	0xbdbf31d2	-0.09335674
20	0x3e0eb53a	0.1393632
21	0x3d4b8693	0.049688887
22	0x3d292c53	0.041302036
23	0xbe13cbf6	-0.14433274
24	0x3c320148	0.010864563
25	0x3b86efd2	0.0041179443
26	0x3d7b5f0a	0.061369933
27	0x3d925458	0.071449935
28	0x3d348ea2	0.044081338
29	0xbd8f6816	-0.07002275
30	0x3cfea590	0.031084806
31	0xbd611007	-0.054946925
32	0x3c8a44b4	0.016878463
33	0x3dace121	0.084413774
34	0xbe02a632	-0.12758711
35	0x3c53233e	0.01288682
36	0xbe00241c	-0.12513775
37	0xbe0a7b55	-0.1352361
38	0xbe1399b0	-0.14414096
39	0xbd68b96a	-0.05681745
40	0x3d172515	0.0369006
41	0xbe2d187a	-0.16903868
42	0xbe2187b4	-0.15774423
43	0xbc1bcc2e	-0.009509129
44	0xbd12a967	-0.035806086
45	0xbd3ca9c7	-0.04606035
46	0x3ce18827	0.027530743
47	0xbbb07c96	-0.0053859456
48	0xbe1a17e7	-0.1504818
49	0x3db2c845	0.08729605
50	0x3e326cb6	0.17424282
51	0xbc3460d0	-0.01100941
52	0x3c5fa4ab	0.0136501
53	0xbe0c4b4e	-0.13700601
54	0xbe2d2b1c	-0.16910976
55	0xbe198a07	-0.1499406
56	0xbd083802	-0.03325654
57	0xbd93b46d	-0.07212148
58	0x3bdbcbab	0.0067076287
59	0xbdb379c7	-0.087634616
60	0x3e0b6b08	0.13615048
61	0x3d8b9b9b	0.06816789
62	0x3c349304	0.011021379
63	0xbd830a81	-0.06398488
64	0xbd7bc54a	-0.061467446
65	0x3cfc8863	0.030826753
66	0x3c528386	0.01284874
67	0xbd91f1b6	-0.07126181
68	0x3d85d733	0.065351866
69	0x3a44a896	0.0007501928
70	0x3e04e09c	0.12976307
71	0xbdb2cc3f	-0.08730363
72	0xbd21777f	-0.0394206
73	0x3ce9b68f	0.028529434
74	0xbdd8e1d6	-0.1058995
75	0x3d81d6ef	0.063398235
76	0x3dde4208	0.10852438
77	0xbcc04126	-0.023468565
78	0x3dd8cdea	0.1058615
79	0x3d57dd58	0.052701324
80	0xbe0600d9	-0.13086261
81	0xbdcfd892	-0.101487294
82	0xbd4f56e2	-0.050619967
83	0xbe28a77b	-0.16470139
84	0x3dfd7459	0.12375707
85	0xbde30aaf	-0.11086022
86	0x3da64a0f	0.08119594
87	0xbe0f53e4	-0.13996845
88	0x3d069507	0.032856967
89	0xbdb73da7	-0.08947306
90	0xbcbaaef6	-0.022788506
91	0xbd8ea003	-0.069641136
92	0xbe28ec43	-0.16496377
93	0x3e3150cd	0.1731598
94	0x3d3b5d92	0.045743532
95	0xbdae5e42	-0.08514072
96	0x3bf87332	0.0075820917
97	0x3df890cb	0.12136992
98	0x3d857637	0.06516688
99	0x3db29ff4	0.08721915
100	0x3d96c0ce	0.07360993
101	0xbdb50446	-0.08838706
102	0x3c9ccdf7	0.01914118
103	0xbe2477cc	-0.16061324
104	0x3bb05b54	0.005381981
105	0x3e2dd961	0.16977455
106	0xbd908dd9	-0.07058305
107	0x3d9c5258	0.07632893
108	0xbdd7678f	-0.10517799
109	0xbd48b89e	-0.04900419
110	0x3e0c375f	0.13692997
111	0x3e2557f4	0.16146833
112	0x3dad785f	0.084702246
113	0xbc39e928	-0.011347093
114	0x3e02e341	0.12782003
115	0x3baa9b55	0.0052065053
116	0x3e0dc51a	0.1384472
117	0xbde2588e	-0.11052047
118	0x3e0a1421	0.13484241
119	0xbdb8c1d1	-0.090213425
120	0xbd79f69b	-0.061026197
121	0xbca803df	-0.020509658
122	0xbbe23f39	-0.0069045094
123	0x3d047067	0.032333758
124	0x3c44f18f	0.012020483
125	0x3e1e43fa	0.15455619
126	0x3d2a3259	0.04155192
127	0xbe04b544	-0.12959772
128	0xbde568fb	-0.11201664
129	0xbe23d0ea	-0.15997663
130	0xbd7a0155	-0.061036427
131	0x3e1c3954	0.15256244
132	0xbd0df29d	-0.034655202
133	0x3d986953	0.07441964
134	0xbd7e651c	-0.062108144
135	0x3e01611d	0.12634702
136	0xbe0a3ae7	-0.13499032
137	0xbe1fb547	-0.15596496
138	0xbdced156	-0.100985214
139	0xbd0522e5	-0.03250398
140	0x3c8625db	0.016375473
141	0xbe2c1fe8	-0.16809046
142	0xbdf0c44b	-0.1175619
143	0xbd5a87b9	-0.05335209
144	0x3e0c347e	0.13691899
145	0xbd961a16	-0.07329194
146	0xbd878997	-0.0661804
147	0x3dd85812	0.10563673
148	0x3e104f76	0.14092812
149	0xbc2e6d0d	-0.010646117
150	0xbe2ea702	-0.17055896
151	0xbd931c00	-0.07183075
152	0xbd91ebc2	-0.07125045
153	0x3d6a7a52	0.05724556
154	0x3d8a30d9	0.06747598
155	0x3ce5fac7	0.028073682
156	0x3de8bef5	0.11364547
157	0xbe241d80	-0.16026878
158	0x3e15b5ba	0.14620104
159	0xbdbcfc58	-0.09227818
160	0x3e20f3d8	0.15718019
161	0xbcf8764b	-0.030329844
162	0xbdb19e7d	-0.08672807
163	0xbba3df17	-0.0050009596
164	0xbe14028b	-0.14454095
165	0x3df6cb88	0.12050539
166	0x3d2fcca0	0.042919755
167	0xbe06de15	-0.13170655
168	0xbdb40479	-0.087899156
169	0xbe3187e6	-0.17336997
170	0x3d5fb11c	0.054612264
171	0x3debbdbe	0.115108
172	0xbbf05643	-0.007334502
173	0x3de251e2	0.11050774
174	0x3d9c0d51	0.076197274
175	0xbd66c8c2	-0.0563438
176	0x3ce8c375	0.028413514
177	0x3e332992	0.17496327
178	0x3cd358bb	0.025799146
179	0xbb9ed4c3	-0.0048471405
180	0x3dce8049	0.10083062
181	0x3d9edc2d	0.07756839
182	0xbe242a87	-0.16031848
183	0xbe29fe94	-0.1660102
184	0xbcfcf0f7	-0.03087662
185	0x3d187d9d	0.03722917
186	0xbe2140a5	-0.15747316
187	0xbd1f174e	-0.038840584
188	0x3e281f9d	0.1641831
189	0xbdc0140b	-0.09378823
190	0xbcae111c	-0.021248393
191	0x3dafd0e4	0.085847646
192	0x3e0f0485	0.13966568
193	0xbdcd3efc	-0.10021779
194	0xbe0dba1a	-0.13840523
195	0x3dae5457	0.0851218
196	0x3d649149	0.055802617
197	0xbd843fc6	-0.06457476
198	0xbe22b601	-0.15889741
199	0x3dd90d6d	0.10598264
200	0xbd68479e	-0.056708924
201	0x3e344c46	0.17607221
202	0xbdd9e2e4	-0.10638979
203	0xbda40dfa	-0.08010478
204	0xbdd1ab33	-0.10237732
205	0x3c593e11	0.013259427
206	0x3db753dc	0.08951542
207	0x3d8c1d98	0.06841582
208	0x3ca74b72	0.020421717
209	0x3dd70b59	0.10500211
210	0xbe1e62b2	-0.15467337
211	0xbe2700ff	-0.16308974
212	0x3dfe6861	0.124222524
213	0x3cc3dddb	0.0239095
214	0x3df3fac1	0.11913062
215	0x3d85f66b	0.06541141
216	0xbd7a6b6a	-0.061137594
217	0x3e334c0f	0.17509483
218	0xbd4ec977	-0.0504851
219	0x3dd55640	0.104168415
220	0x3d1adc38	0.037807673
221	0xbdc0374d	-0.09385548
222	0x3dec4390	0.11536324
223	0x3e156408	0.1458894
224	0x3e15a3d0	0.14613271
225	0x3d817eca	0.06323011
226	0xbd821227	-0.063511185
227	0x3d505114	0.050858572
228	0x3da10f0e	0.078641996
229	0xbd7c787c	-0.06163834
230	0xbd2ff2af	-0.04295605
231	0xbd2dcbe6	-0.04243078
232	0x3e31d0ba	0.17364779
233	0xbe305c18	-0.17222631
234	0xbe1755a9	-0.1477877
235	0xbdddd49c	-0.10831568
236	0xbbf69659	-0.007525247
237	0xbde00865	-0.10939101
238	0xbe3435a0	-0.17598581
239	0x3b970d04	0.004609706
240	0x3dea1c83	0.114312194
241	0xbd8096fc	-0.06278798
242	0x3db6dfd6	0.08929412
243	0xbce30ae5	-0.027715156
244	0x3dc00b43	0.09377148
245	0xbddaaec8	-0.10677868
246	0xbc32ad4f	-0.010905578
247	0x3da113ca	0.078651026
248	0x3d6468a7	0.055763867
249	0x3d8e08db	0.06935283
250	0xbe1c178c	-0.15243357
251	0xbe27e4ad	-0.16395827
252	0xbcc0bbb2	-0.023527
253	0xbe33463a	-0.17507258
254	0xbe14e09b	-0.14538805
255	0x3e2a1cf2	0.16612604

state_net.2.bias f4 [32]
0	0x3e35b050	0.17743039
1	0x3c5f5a11	0.013632313
2	0xbd8cb5b6	-0.06870596
3	0x3d98d346	0.07462172
4	0x3d49ce58	0.04926905
5	0xbe061d8e	-0.13097212
6	0x3e10c11b	0.14136164
7	0x3e11c342	0.14234641
8	0xbaad5d8e	-0.0013226734
9	0xbdd3cbce	-0.10341607
10	0xbdc2886a	-0.09498675
11	0x3dffb13b	0.12484976
12	0x3d1b6fe7	0.037948515
13	0x3e21c749	0.15798678
14	0x3d455efe	0.048186295
15	0xbe20b58f	-0.15694259
16	0x3dc97924	0.09837559
17	0x3e1be138	0.15222633
18	0x3e0412eb	0.12897842
19	0x3e3367e6	0.17520103
20	0xbd07e1fc	-0.0331745
21	0xbc3e5b52	-0.011618452
22	0xbc794863	-0.015215012
23	0x3da21d1b	0.07915708
24	0xbd328cd0	-0.04359132
25	0xbdb652ca	-0.089025095
26	0x3d919a37	0.07109492
27	0x3e2bee1b	0.16790049
28	0xbd52ff40	-0.051512957
29	0xbe14a7dd	-0.1451716
30	0x3c8034ce	0.01565018
31	0xbe2aaa94	-0.16666633

shared_net.0.weight f4 [128, 1056]
0	0xbbd4ce82	-0.006494344
1	0xbcbcc53e	-0.023043271
2	0x3b52b31f	0.0032150222
3	0xbcd41dff	-0.02589321
4	0x3cf65b38	0.030072793
5	0xbcbc3cf5	-0.022978285
6	0xbc8bf243	-0.017083293
7	0x3a72b9d1	0.0009259256
8	0x3cbb926e	0.022896972
9	0xbadbe7a5	-0.001677741
10	0xbbe86190	-0.0070917085
11	0x3cb90438	0.02258502
12	0xb950a5d4	-0.00019898202
13	0xbc8e9d38	-0.017408952
14	0xbbbd0f83	-0.0057696714
15	0xbc68199e	-0.014166264
16	0xbcf5e5e5	-0.030016849
17	0xbbfb2429	-0.0076642227
18	0xbc62599c	-0.01381531
19	0xbc22d4eb	-0.009938459
20	0xbbbc18b7	-0.005740251
21	0x3ba6cffa	0.0050907107
22	0xbcf3f974	-0.029782034
23	0x3c6ee525	0.0145809995
24	0xbc6f51e5	-0.0146069275
25	0xb9c95f35	-0.00038408642
26	0x3cd0c7b8	0.025485858
27	0xbc39bc42	-0.011336388
28	0xbba3a3c2	-0.0049938867
29	0x3caf762b	0.021418652
30	0x3ca0b28f	0.019616393
31	0x3c9d2e4f	0.01918712
32	0x3c12fcde	0.008971421
33	0x3cbe8522	0.023256842
34	0x3cd2263a	0.025652993
35	0xbc718431	-0.01474099
36	0xbcf9d70e	-0.030498054
37	0xbc932ae9	-0.017964797
38	0xb91b84b6	-0.0001483139
39	0x3bdac7fb	0.0066766716
40	0xbc5b1850	-0.013372496
41	0xbcf5088a	-0.029911298
42	0x3ae0a31d	0.0017138455
43	0xbc1d2bdb	-0.0095929755
44	0x3c5cfe44	0.013488356
45	0x3a190797	0.0005837618
46	0x3c590839	0.013246589
47	0xbc305a6b	-0.010763745
48	0xbca1230d	-0.019670034
49	0xba2fc7c9	-0.00067054905
50	0x3ce9cf19	0.028541135
51	0xbc06c068	-0.008224584
52	0x3ca0a6d6	0.019610804
53	0x3cd206c7	0.025637997
54	0xbc98fac8	-0.01867427
55	0xbafeeda1	-0.0019449481
56	0xbc5d5bd8	-0.013510667
57	0x3cbf9fec	0.023391686
58	0xbccc51d8	-0.02494137
59	0x3ce7c895	0.028293887
60	0xbca7ac48	-0.020467892
61	0xbcc34468	-0.02383633
62	0x3cb38b18	0.021916911
63	0x3bd61df7	0.006534334
64	0xbcd79718	-0.026317164
65	0xbcf01915	-0.029308835
66	0xbc035402	-0.0080156345
67	0x3cc94252	0.024567757
68	0xbbbac369	-0.0056995642
69	0xbca77dd4	-0.020445742
70	0xbc43fd91	-0.01196231
71	0x3ccba2af	0.024857847
72	0x3c9eec23	0.019399708
73	0x3c86a706	0.016437065
74	0x3c51cadd	0.012804714
75	0x3ca3a9c2	0.019978408
76	0x3c89ca6a	0.016820151
77	0xbc804908	-0.015659824
78	0xbbdfda2a	-0.006831427
79	0xbbc6a692	-0.006062337
80	0x3c9f9d44	0.01948417
81	0x3bf72a51	0.0075428863
82	0x3cb09518	0.021555468
83	0x3bafe0de	0.0053673824
84	0x3cfbebbd	0.030752057
85	0xbcafccf1	-0.021460028
86	0xbb14583f	-0.0022635607
87	0x3ceac8da	0.028660227
88	0x3b25c193	0.0025292381
89	0x3be87122	0.0070935646
90	0xbc242db2	-0.01002066
91	0xbc533c82	-0.012892844
92	0x3c92bef8	0.017913327
93	0xbb9637ff	-0.004584312
94	0x3cf0a02d	0.029373253
95	0xbb891b82	-0.0041841874
96	0x3bf05101	0.007333875
97	0x3b7e4861	0.0038800465
98	0x3ce0d491	0.02744511
99	0x3c3017e7	0.010747886
100	0x3c8c1f7e	0.01710486
101	0x3b1d4be7	0.002400154
102	0x3c1b8250	0.009491518
103	0xbc02cbe3	-0.007983181
104	0xbc8e765b	-0.01739042
105	0x3cc23966	0.02370901
106	0xbcd64a70	-0.026158541
107	0xbc919b57	-0.017774267
108	0x3c9f5d30	0.019453615
109	0xbcd6b5b0	-0.026209682
110	0x3cbf5f7d	0.023360962
111	0xbbf3aaec	-0.007436147
112	0xbcc4e069	-0.024032788
113	0xbbc49376	-0.005999024
114	0x3c37d95b	0.011221255
115	0x3c48a16f	0.01224552
116	0xbce4ca27	-0.027928425
117	0xbcaf579d	-0.021404082
118	0x3cb02b2d	0.021504963
119	0x3babf726	0.0052479682
120	0x3c88718b	0.016655704
121	0x3c882b73	0.01662228
122	0xbce65b00	-0.028119564
123	0x3cbe7a88	0.023251787
124	0xbc0bd9fe	-0.00853586
125	0xbc58a48c	-0.013222825
126	0xbc6b2720	-0.01435259
127	0xbca525d1	-0.020159634
128	0x3cc9af9c	0.02461987
129	0x3c37b0e7	0.01121161
130	0x3cb9fa59	0.022702383
131	0x3bdc750c	0.0067278203
132	0x3ce44c3b	0.02786838
133	0xbb11d0e9	-0.0022249764
134	0x3c808fa2	0.01569349
135	0x3abed742	0.0014560001
136	0xbbb26f31	-0.005445384
137	0x3cba65f8	0.0227537
138	0x3aae742d	0.001330977
139	0xbc4ebb4b	-0.012617896
140	0xbb57305d	-0.0032835223
141	0xbc6af442	-0.014340462
142	0x3b2b1ea9	0.0026110804
143	0x3c405e17	0.011741183
144	0x3ca13849	0.01968016
145	0x3c9d0a93	0.019170081
146	0xbce40d02	-0.027838234
147	0xbc627ff0	-0.013824448
148	0x3c7f50ff	0.015583276
149	0x3cb1bdbd	0.02169692
150	0x3a5df18e	0.00084664754
151	0xbcabee41	-0.020987632
152	0x3b9a0c0d	0.0047011436
153	0x3c1fac3d	0.009745655
154	0x3c06338b	0.008191
155	0xbc750c98	-0.014956616
156	0xb9581749	-0.0002060804
157	0xbb385623	-0.0028127513
158	0x3b1a86b6	0.002357883
159	0xbcb4ee6b	-0.022086343
160	0x3c5a36e3	0.01331875
161	0x3ce56d6d	0.02800628
162	0xbc1d7710	-0.009610906
163	0x3c59b98d	0.013288868
164	0xbbb320ef	-0.0054665725
165	0xbcbc4379	-0.022981392
166	0x3a7b1078	0.0009577344
167	0xbbc9c634	-0.006157661
168	0x3bbcef63	0.005765842
169	0x3c17bcc0	0.00926131
170	0x3b1ca639	0.0023902787
171	0xbcc0f258	-0.023553059
172	0xbcc121f5	-0.023575762
173	0xbca1c06e	-0.019745078
174	0x3cf5eaed	0.030019248
175	0xbcf4e75f	-0.029895483
176	0xbcb8f25f	-0.022576509
177	0xbce2df69	-0.02769442
178	0x3c95a753	0.018268263
179	0x3cca50cc	0.02469673
180	0xbc666961	-0.01406321
181	0x39d45b1c	0.00040503673
182	0x3c9d1d15	0.019178906
183	0x3ceb3b0f	0.028714685
184	0xbbb98ec2	-0.00566277
185	0xbaf33bcd	-0.0018557251
186	0x3c687836	0.014188817
187	0x3aef6fde	0.0018267592
188	0x3cdeb633	0.027186489
189	0x3c8a7ec2	0.016906146
190	0x3c9f4e01	0.019446375
191	0xb839aefb	-4.42704e-05
192	0x3cf3b223	0.029748028
193	0xbc1cfa4f	-0.009581163
194	0xbca3c7c7	-0.019992722
195	0xbba894c5	-0.005144688
196	0x3ce0ce32	0.027442072
197	0xbc67bc38	-0.014143996
198	0x3c7ceeaa	0.015437761
199	0xbbb022f0	-0.0053752586
200	0xbcf45ed3	-0.029830372
201	0x3c235836	0.009969762
202	0x3ba3ee1b	0.0050027496
203	0x3c7f34fa	0.015576595
204	0xbc940941	-0.018070819
205	0xbcba7d83	-0.022764927
206	0x3cfbec2a	0.03075226
207	0xbcb7d478	-0.02244018
208	0xbcacdb9f	-0.021100817
209	0x3b93e78f	0.004513688
210	0xbc2eb0f0	-0.010662302
211	0x3c0abc6f	0.008467778
212	0xbcb24f1a	-0.021766234
213	0x3c33d767	0.010976649
214	0x3bbe76f8	0.005812522
215	0xbc75e977	-0.015009276
216	0x3ce52585	0.027971992
217	0x3a41765a	0.00073800015
218	0xbcaaccf2	-0.020849679
219	0x3bf3d51c	0.007441176
220	0xbc3e905f	-0.0116311
221	0xbcde7b73	-0.027158475
222	0xbcbd527b	-0.023110619
223	0xbb0d771e	-0.0021585892
224	0x3cd040aa	0.02542146
225	0xbc0047db	-0.007829632
226	0xbb837262	-0.004011438
227	0x3c953c1d	0.01821714
228	0xbcad57e4	-0.021160074
229	0xbc55c233	-0.013046789
230	0xbc8539a5	-0.016262839
231	0xbce7441f	-0.028230725
232	0x3b0c619b	0.0021420482
233	0x3ba1fe04	0.004943611
234	0xbcaa1523	-0.020762032
235	0x3c77dbc1	0.015128077
236	0xbcb798ea	-0.022411782
237	0x3cd8e8a4	0.02647812
238	0xbcc9dfdf	-0.024642883
239	0x3c9a8871	0.018863888
240	0xbcd9ad51	-0.026571902
241	0x3c47b848	0.012189932
242	0xbc884d43	-0.016638404
243	0xbb5d6637	-0.0033782849
244	0xbc7a7ed6	-0.015289029
245	0x3c81d51a	0.015848685
246	0xbbf0df5c	-0.0073508453
247	0x3c18365d	0.009290305
248	0xbc5c8393	-0.013459104
249	0xbcae69a9	-0.021290617
250	0xbba2ee33	-0.004972243
251	0xbba67856	-0.005080263
252	0xbc61e5f7	-0.013787738
253	0xbc9ffb45	-0.019528994
254	0x3cd7013d	0.026245708
255	0x3cec033e	0.02881014

shared_net.0.bias f4 [128]
0	0xba8a4cee	-0.0010551491
1	0xbc9667fd	-0.018360132
2	0xbc98dd96	-0.018660348
3	0xbbcf109c	-0.0063191187
4	0xbb6a357f	-0.0035737453
5	0xbccccbbc	-0.024999492
6	0xbcd62dc4	-0.02614487
7	0xbba81c8a	-0.0051303552
8	0x3c45724a	0.012051174
9	0x3d0ccc9a	0.03437481
10	0x3b60c5a4	0.003429749
11	0xbcbe6f0c	-0.02324631
12	0x3ccff916	0.025387328
13	0xbcf38651	-0.029727133
14	0x3c264fb2	0.010150837
15	0xbcdbe0ed	-0.026840651
16	0x3d049f27	0.032378342
17	0xbc899263	-0.016793435
18	0x3c5cc24c	0.013474058
19	0xbc292b9c	-0.010325339
20	0x3c943627	0.018092228
21	0x3cdc6792	0.026904855
22	0xbcdd2e2f	-0.026999561
23	0xbc62192f	-0.01379995
24	0xbcc03d28	-0.023466662
25	0xbcdda0ac	-0.027054153
26	0xbbf12d2f	-0.0073601226
27	0x3d07293d	0.032998312
28	0xba68f165	-0.0008886068
29	0xbcf1c58c	-0.029513143
30	0x3c31b069	0.010845282
31	0x3c183f5f	0.009292453
32	0xbc99e50c	-0.018785976
33	0xbc01d06f	-0.00792323
34	0xbcc84dab	-0.024451097
35	0xbad51c1e	-0.001625899
36	0xbcbc61f8	-0.022995934
37	0x3c8e7e47	0.017394198
38	0xbc29e947	-0.010370559
39	0x3cc0dd89	0.023543136
40	0x3c258200	0.010101795
41	0x3bb5b88d	0.005545682
42	0x3c143d8d	0.009047878
43	0x3ce3a418	0.027788207
44	0x3ba4407b	0.0050125695
45	0x3b53fe2b	0.003234754
46	0xbce83bff	-0.02834892
47	0xbb35e0a6	-0.002775231
48	0xb8f63ac5	-0.00011741141
49	0x3cb270dd	0.021782333
50	0x3a03991e	0.00050200697
51	0x3ca1f3ae	0.019769516
52	0xbcb90515	-0.022585431
53	0x3bebe7c3	0.007199259
54	0x3ca0d055	0.01963059
55	0x3c65b738	0.014020734
56	0xbbb58e1e	-0.0055406233
57	0x3d25de1a	0.040495016
58	0xbcefdd66	-0.029280376
59	0xbc237410	-0.009976402
60	0x3bc76898	0.0060854666
61	0x3d00ebd0	0.03147489
62	0xbc5a3346	-0.013317889
63	0xbca34a51	-0.019932898
64	0xbaf9d52c	-0.0019060723
65	0x3ce2e8e6	0.027698945
66	0x3c6e2b36	0.0145366695
67	0x3b07c048	0.0020713974
68	0xbb9571a3	-0.0045606657
69	0x3ce05dcb	0.027388474
70	0x3bb1d818	0.0054273717
71	0xba53fb08	-0.0008086418
72	0x3bd5de4e	0.006526745
73	0x3c49dd5c	0.012320843
74	0xbcc2ca63	-0.023778146
75	0x3ab96f74	0.0014147596
76	0xbc87f4e3	-0.016596263
77	0x3b1b0005	0.0023651135
78	0x3cdb49e8	0.02676864
79	0x3c015f2e	0.007896228
80	0xbbd2f2ca	-0.006437634
81	0x3cb9ca9b	0.022679618
82	0x3ca7fc5b	0.020506075
83	0x3be73029	0.0070553017
84	0xbc5a9680	-0.013341546
85	0xbb9c814a	-0.0047761546
86	0xbcc5ac88	-0.02413012
87	0x3c06526e	0.008198364
88	0x3ab601ac	0.0013885996
89	0xbc4e08ac	-0.01257531
90	0x3c59dd7a	0.013297433
91	0x3bba094f	0.005677379
92	0xbcdd5570	-0.027018279
93	0xbca4a3ac	-0.020097576
94	0x3a8ff783	0.0010983798
95	0xbcb6da51	-0.022320898
96	0xbcec9c78	-0.028883204
97	0x3b61d30b	0.0034458067
98	0xbcc666f5	-0.024219016
99	0x3c3d5003	0.011554721
100	0x3a744d4f	0.0009319381
101	0xbc94c988	-0.018162504
102	0x3d1d11cb	0.038347047
103	0xbc0eab99	-0.008707904
104	0xbcf9f496	-0.030512135
105	0xbbf29315	-0.0074027875
106	0xbce0197b	-0.0273559
107	0x3c3a8bab	0.0113858385
108	0x3cca56b7	0.024699552
109	0xbba7996b	-0.0051147244
110	0x3c280e08	0.010257252
111	0x3cb586ee	0.022159066
112	0xbc8ae008	-0.01695253
113	0x3c8cfe0f	0.017210988
114	0xbcb28852	-0.021793518
115	0xbcc649c9	-0.024205105
116	0x3c2c1f3f	0.0105054965
117	0xbca4b423	-0.020105427
118	0x3c42b28d	0.01188339
119	0x3c806500	0.01567316
120	0x3cf9c988	0.030491605
121	0xbc5206bd	-0.012818989
122	0xbb386fac	-0.0028142733
123	0xbc567331	-0.013088987
124	0xbce6db65	-0.028180787
125	0x3cee1dad	0.029066885
126	0xbc67ea3e	-0.014154969
127	0xbc174a47	-0.009234018

shared_net.2.weight f4 [64, 128]
0	0x3cda8f04	0.026679523
1	0x3d6947e2	0.05695332
2	0xbd06d57b	-0.032918435
3	0xbd8cdc95	-0.0687801
4	0x3bf2beaa	0.007407983
5	0x3dafac9f	0.08577847
6	0x3c36b323	0.011151108
7	0x3d212b76	0.03934809
8	0x3d93f89c	0.07225153
9	0xbc3ff234	-0.011715461
10	0x3dadeeae	0.0849279
11	0x3cb46e18	0.022025153
12	0xbd287878	-0.041130513
13	0x3cd13105	0.02553607
14	0x3d89f813	0.067367695
15	0x3cd41a97	0.025891585
16	0x3bc5e967	0.0060397866
17	0xbd12f49d	-0.035877813
18	0xbda9eab2	-0.08296718
19	0x3db061ed	0.08612428
20	0xbd60d92a	-0.054894604
21	0xbd629810	-0.0553208
22	0xbc998986	-0.018742334
23	0xbd14c66c	-0.036322042
24	0x3d3ae71e	0.045630567
25	0xbd873916	-0.06602685
26	0xbdabc610	-0.08387387
27	0xbd652f09	-0.05595306
28	0xbd4ae808	-0.04953769
29	0xbcc8d37d	-0.024514908
30	0x3c537f1f	0.012908726
31	0xbc309f3d	-0.010780153
32	0xbd8c2ad0	-0.06844103
33	0xbd8f810c	-0.070070356
34	0xbdac78ae	-0.08421455
35	0xbb96704e	-0.0045910245
36	0xbd5d2bb6	-0.053996764
37	0xbd8d5e5f	-0.069027655
38	0x3cfc79ef	0.030819861
39	0xbc9ab403	-0.018884664
40	0xbd986381	-0.07440854
41	0xbdaa6c6d	-0.08321462
42	0x3d952bca	0.07283743
43	0xbd704124	-0.058655873
44	0xbb4fa8d0	-0.0031686313
45	0x3c6a9b54	0.01431926
46	0x3d888ec6	0.06667857
47	0x3c02796d	0.0079635205
48	0x3c7119b7	0.014715604
49	0xbcdaa4f2	-0.02668998
50	0x3d57fd85	0.05273201
51	0xbb9ffdce	-0.004882551
52	0x3d0ec14d	0.034852315
53	0xbda6264c	-0.08112773
54	0x3b744816	0.0037274412
55	0x3d8f78e1	0.07005478
56	0x3d6b398e	0.057427935
57	0x3d0e7e9c	0.034788713
58	0x3ce13769	0.027492242
59	0x3daabc0c	0.08336648
60	0xbc97e7bc	-0.018543117
61	0x3d0806a3	0.033209454
62	0xbdaa88cd	-0.08326874
63	0x3d34c5e0	0.04413402
64	0x3ca1f003	0.019767767
65	0xbc1dd8a2	-0.009634169
66	0x3cdcfd1c	0.02697616
67	0x3d926a2a	0.071491554
68	0x3d81cead	0.063382484
69	0x3d887d42	0.06664516
70	0xbd6f5bbb	-0.05843709
71	0xbd3be9ea	-0.045877375
72	0xbcefcbb5	-0.02927194
73	0xbd778e2b	-0.060438316
74	0x3d6bcab9	0.05756638
75	0x3d94d571	0.07267273
76	0x3d702688	0.058630496
77	0x3d0f43ce	0.034976773
78	0xbda2adb9	-0.07943291
79	0x3ced2dfd	0.028952593
80	0x3d5cae67	0.05387726
81	0x3c347bd1	0.011015848
82	0x3cea6c0d	0.028615976
83	0x3c23ca4b	0.009996961
84	0xbda53562	-0.080668226
85	0x3c09c088	0.008407719
86	0xbce4ce84	-0.027930506
87	0x3caf67ae	0.021411743
88	0x3b545a7b	0.0032402563
89	0x3d9cca98	0.07655829
90	0xbcb0bd00	-0.021574497
91	0xbda6724c	-0.08127269
92	0xbd09e114	-0.033661917
93	0xbd8afdd3	-0.067866944
94	0x3d08dc2f	0.03341311
95	0x3b0b315d	0.002123914
96	0xbc420838	-0.01184278
97	0xbca0a56a	-0.019610126
98	0x3c7fe672	0.015618907
99	0xbd5ff1da	-0.054674007
100	0xbd924dbd	-0.07143734
101	0x3d94ab41	0.072592266
102	0xbcdeec7c	-0.027212374
103	0xbd9aad17	-0.075525455
104	0xbd9f2d89	-0.07772357
105	0x3b82ccee	0.0039917147
106	0x3d22740b	0.03966145
107	0x3cc0f609	0.023554819
108	0x3d3846b2	0.044989295
109	0x3d999fe6	0.07501201
110	0xbcd69d34	-0.026198007
111	0xbda4ed8d	-0.08053122
112	0xbd60c1e3	-0.054872405
113	0x3d13b704	0.03606321
114	0xbd8a5e45	-0.06756262
115	0xbc989afa	-0.018628586
116	0xbd5ddf3c	-0.05416797
117	0xbd170b54	-0.036876038
118	0x3a824d6f	0.000994129
119	0xbac3e431	-0.0014945326
120	0x3b2e4426	0.0026590913
121	0x3be0612a	0.0068475204
122	0xbc18c637	-0.009324602
123	0xbcfe187e	-0.031017538
124	0xbd9f5943	-0.07780697
125	0x3d70eabd	0.058817614
126	0xbd5b02b7	-0.053469386
127	0xbd2277a1	-0.03966487
128	0xbc4beef9	-0.012447112
129	0x3d71c27b	0.05902336
130	0x3cc0b6ba	0.02352463
131	0xbcbd5f38	-0.023116693
132	0x3d7ce411	0.06174094
133	0x3d871b80	0.06597042
134	0xbcd7542a	-0.02628525
135	0x3d17b136	0.037034236
136	0x3bf528f1	0.0074816872
137	0x3db0a700	0.08625603
138	0xbcf2ad84	-0.029623754
139	0x3d18eeab	0.037336987
140	0x3d1dc0cd	0.038513947
141	0xbd19a1c7	-0.0375078
142	0x3d8ddd93	0.069270276
143	0x3d825018	0.06362933
144	0x3ce92143	0.028458243
145	0x3bfd86b2	0.007737004
146	0xbbae05a6	-0.005310732
147	0xbd669a5b	-0.05629955
148	0x3c35e876	0.011102786
149	0xbd422d92	-0.04740674
150	0xbd8697a1	-0.0657189
151	0x3d7799db	0.060449462
152	0xbd513ca1	-0.05108321
153	0xbb9658a7	-0.004588205
154	0xbd82bc57	-0.06383579
155	0x3da089d8	0.078387916
156	0x3cd7bb8f	0.026334552
157	0x3d1e038a	0.038577594
158	0xba068d44	-0.00051327446
159	0xbc0daac0	-0.008646667
160	0x3d54d606	0.05196192
161	0xbd9968e6	-0.07490711
162	0x3ccddbe5	0.025129268
163	0xbda996a6	-0.08280687
164	0xbd430b96	-0.04761847
165	0x3d91ff92	0.07128824
166	0xbd64ba5b	-0.055841785
167	0x3d9d2cef	0.07674586
168	0xbd785ed5	-0.060637314
169	0xbd67c998	-0.05658874
170	0xbd331a59	-0.0437263
171	0x3d37dd35	0.044888694
172	0xbcc7d8eb	-0.024395427
173	0x3d301990	0.04299313
174	0xbd5db4f7	-0.05412766
175	0xbd08f628	-0.033437878
176	0x3a0f7720	0.0005472768
177	0x3a3c9488	0.0007193764
178	0x3d4f6a58	0.050638527
179	0x3d8db68f	0.06919586
180	0xbd497984	-0.049188152
181	0xbcea0566	-0.028567027
182	0xbcedf89d	-0.029049212
183	0x3d0c4ca7	0.03425279
184	0xbdaabcc8	-0.083367884
185	0xbc20e39c	-0.009819891
186	0x3d8b4aaa	0.068013504
187	0x3d5c207d	0.05374192
188	0xbda2cc7f	-0.07949161
189	0xbd324de4	-0.043531314
190	0xbd8d7fc1	-0.06909133
191	0xbd20291f	-0.039101716
192	0x3d7e8004	0.062133804
193	0xbdaa8238	-0.083256185
194	0xbc2f7f6c	-0.010711532
195	0xbdb2260b	-0.08698662
196	0x3d605a3d	0.054773558
197	0xbd6f2871	-0.058388177
198	0xbd88e952	-0.06685127
199	0x3d896443	0.067085765
200	0x3d96b343	0.0735841
201	0x3c14ef7e	0.0090903025
202	0x3d24868d	0.04016738
203	0x3d88502e	0.06655918
204	0x3d30fb00	0.043208122
205	0x3b454427	0.0030100436
206	0xbc3123d0	-0.010811761
207	0x3d34efcf	0.04417401
208	0x3cfc5faa	0.030807335
209	0x3d0f2e89	0.03495649
210	0x3da5c731	0.08094633
211	0xbd9c89f6	-0.076435015
212	0xbd94eee2	-0.07272126
213	0x3d073d8c	0.03301768
214	0xb9f7a548	-0.00047234655
215	0x3c887979	0.016659485
216	0xbd847940	-0.06468439
217	0xbc97e85a	-0.018543411
218	0x3ce90255	0.028443495
219	0xbdad59e2	-0.084644094
220	0x3d2e1fe9	0.0425109
221	0x3d6c7909	0.057732616
222	0xbc51b321	-0.012799055
223	0xbc68e32f	-0.014214321
224	0x3aada116	0.001324686
225	0x3ae3e0fb	0.0017385775
226	0xbd4ad5e3	-0.049520385
227	0xbcfcb9dc	-0.030850343
228	0x3d8eba81	0.069691665
229	0x3d8975e2	0.067119375
230	0xbc8e1c00	-0.017347336
231	0x3ceb2f1d	0.028708989
232	0xbd8861a1	-0.06659246
233	0x3d6051c8	0.054765493
234	0x3d93d5b4	0.07218495
235	0x3be8c2ea	0.0071033137
236	0xbcf3def7	-0.029769404
237	0x3cab7b37	0.020932777
238	0xbd00ab36	-0.03141328
239	0x3d577f38	0.05261156
240	0xbd0ffa48	-0.035150796
241	0x3d0e32a2	0.034716256
242	0xbbed1c84	-0.0072360653
243	0xbd46f97f	-0.04857778
244	0xbcda0acf	-0.026616482
245	0xbc16ead3	-0.00921126
246	0xbdad3b0e	-0.084585294
247	0xbd9b1d07	-0.07573896
248	0x3d826102	0.06366159
249	0x3b5dd5a7	0.003384927
250	0xbc616385	-0.013756637
251	0xbd0c5843	-0.03426386
252	0x3d0dc67a	0.03461311
253	0xbdb22698	-0.086987674
254	0x3bb4190a	0.005496149
255	0xbca9a84b	-0.020710131

shared_net.2.bias f4 [64]
0	0x3d86dd79	0.06585211
1	0x3d593080	0.05302477
2	0xbd868bd5	-0.065696396
3	0x3d5b27d5	0.053504784
4	0x3c70250e	0.014657272
5	0x3c85e37f	0.01634383
6	0xbd7d759c	-0.06187974
7	0x3d2ba2ef	0.041903432
8	0x3d1a09eb	0.037607115
9	0x3cb13f04	0.021636494
10	0x3d29e9f5	0.041482884
11	0x3d82edc3	0.06393006
12	0xbd982f90	-0.07430947
13	0x3cc9a5f7	0.024615271
14	0x3de2f5b8	0.110820234
15	0x3d40a00e	0.04702764
16	0x3cb5863f	0.02215874
17	0xbd31d89b	-0.04341946
18	0x3c04c9b3	0.0081047295
19	0xbd2ae02a	-0.041717686
20	0x3d5afbc4	0.05346276
21	0x3cdd5caa	0.027021725
22	0x3cadd02d	0.02121743
23	0xbda26f53	-0.0793139
24	0x3db8cad6	0.09023063
25	0x3da7005b	0.08154365
26	0xbd59f95a	-0.053216316
27	0x3d7456c7	0.05965307
28	0xbda2cd77	-0.079493456
29	0xbd791fc0	-0.060821295
30	0x3d8d7670	0.06907356
31	0xbd9e69ea	-0.07735045
32	0xbc86a98e	-0.016438272
33	0x3db111e7	0.08645993
34	0xbd93eff4	-0.07223502
35	0x3dbbb3a8	0.09165126
36	0x3d3e0da1	0.046399716
37	0x3d4fd40b	0.05073933
38	0xbd0642f8	-0.03277871
39	0x3d2de9f8	0.042459458
40	0xbb7c8f31	-0.0038537497
41	0xbd6e2d6b	-0.058148783
42	0x3d68ce4e	0.056837372
43	0xbc9d245d	-0.019182378
44	0xbd3939f9	-0.045221303
45	0x3d5489f5	0.05188938
46	0xbc9bc5e2	-0.019015256
47	0x3d8f1cec	0.06987938
48	0x3d5c516c	0.053788587
49	0xbc06741a	-0.008206392
50	0x3dbf5016	0.09341447
51	0xbb34cecb	-0.0027589079
52	0x3da9e0e8	0.082948506
53	0xbd29cdb6	-0.041455947
54	0xbd9a8f3b	-0.0754685
55	0x3d8e0a8e	0.06935607
56	0xbdaff0b2	-0.08590831
57	0xbda2f236	-0.07956354
58	0xbda9243b	-0.082588635
59	0xbd4857cd	-0.04891186
60	0x3b2304bc	0.0024874648
61	0xbc55ad51	-0.01304181
62	0x3db0858c	0.08619222
63	0x3dc659a0	0.09685063
