logs/20250602_192306/checkpoint_episode_4400.pt (torch, 740270 bytes, 39 tensors)

shared_net.0.weight f4 [128, 30]
-0.08384512 0.07405025 -0.031121276 -0.007319915 -0.09332228 -0.030198378 0.3011916 0.40646154
0.34771156 0.21659385 0.13363655 0.16470358 0.5853998 0.36194345 0.062648855 -0.14183405
0.55417764 0.53940076 0.4342733 0.18982057 -0.071309656 0.30243775 0.23476842 0.24867755
-0.24416725 -0.24484701 0.11526582 0.078598775 -0.22337013 -0.49417257 0.05400217 0.016678123
-0.14950013 0.07224783 0.025107415 -0.05902139 -0.17397347 -0.23819841 -0.053576402 0.00837389
-0.33597496 -0.043198466 -0.098170094 0.08644839 0.18490411 -0.41507703 0.0072627906 0.19005118
-0.09619322 0.069888555 -0.2902213 -0.09496771 -0.22765957 0.19043301 0.14407139 -0.15077092
-0.028991131 0.13936484 0.04180494 0.016226577 -0.07740867 0.02043799 -0.090903714 -0.0024114086
-0.20330799 -0.08623603 0.11594102 0.15046552 0.32866818 0.0134243015 -0.26994964 -0.010606417
0.17468286 -0.13793755 0.05400107 0.0996895 -0.21962906 -0.11683737 -0.04331138 0.0038484342
0.16764836 -0.11105428 0.13160126 0.10622852 -0.0876176 0.034962 0.09602375 -0.026958168
0.08161846 -0.050777595 0.012106048 -0.06426601 -0.13685961 0.054969415 0.1266447 0.09086008
0.12585707 0.09280342 0.025855819 -0.06321446 0.016499562 0.31671318 0.27673337 0.3504737
-0.028683115 0.11922288 0.28478932 0.13958961 0.21425267 -0.21537447 0.17813537 0.25505197
0.15667191 0.1105344 -0.11282401 0.10167845 0.19277173 -0.205844 -0.20107868 -0.36469302
-0.08409282 0.028310608 -0.18654525 0.09117287 0.044838328 0.37311637 0.3840692 0.290963
0.49867383 0.323632 0.2528658 0.33283484 0.5425877 0.23947267 0.09887207 0.2766143
0.5648748 0.48107192 0.42943186 0.29255477 0.30217654 0.44257635 0.6825611 0.17460473
0.05967629 0.271327 0.24012628 0.15910508 -0.27626085 -0.5739228 0.15574418 -0.046888225
-0.1418088 0.17781274 -0.32439432 0.39724663 0.42178613 0.3607319 0.30755913 0.576602
0.22540659 0.19766577 -0.08831137 0.21182579 0.25791922 -0.2687545 0.20575747 -0.08667127
0.016570138 0.3144751 -0.36331096 -0.034088288 -0.01628464 0.07195275 0.35397518 -0.9731301
-0.26755068 -0.14582044 0.024727186 0.40797588 -0.36091417 -0.10644512 -0.22365887 -0.27783144
0.28129882 -0.1825401 -0.22121073 -0.17695373 -0.21248561 -0.18734926 -0.045544386 -0.21577254
-0.12772715 0.0147534385 -0.06739338 -0.39366946 -0.2036377 -0.23617126 -0.11476339 -0.3039037
-0.26360527 -0.34696227 -0.028624522 -0.26758486 0.074811764 0.05006552 -0.060591996 0.18019377
-0.14898787 0.030967556 -0.13901412 -0.00020654849 -0.010006811 0.006240811 0.041724376 -0.82884485
-0.4219973 -0.18588772 0.32876056 0.6438984 -0.87005883 -0.5040921 -0.17191237 0.3968024
0.5821817 -0.35329095 0.2657098 0.2093089 0.5882248 0.376691 -0.027823165 0.13847357
0.3774193 0.50917673 0.3146047 -0.097301275 0.13886853 0.28773102 0.28489125 0.5166949
-0.14054513 0.06929523 0.076196425 -0.009374915 0.040881928 0.29112095 0.2791835 0.48639596
0.577731 0.7198941 0.1495069 0.031562284 0.16876341 0.19390053 0.39905486 0.15008563
00000000: feb6 abbd a8a7 973d 0cf2 febc e6db efbb
00000010: c01f bfbd 9762 f7bc c935 9a3e ba1b d03e
00000020: 4007 b23e c7ca 5d3e 05d8 083e 0ea8 283e
00000030: c3dc 153f a750 b93e 0b4e 803d f23c 11be
00000040: 96de 0d3f 2b16 0a3f 1259 de3e 5360 423e
00000050: cc0a 92bd 1fd9 9a3e 2267 703e 54a5 7e3e
00000060: fb06 7abe 2db9 7abe 7c10 ec3d 65f8 a03d
00000070: 24bb 64be 3004 fdbe 6131 5d3d 8fa0 883c
00000080: 9016 19be acf6 933d 11ae cd3c 6ac0 71bd
00000090: 1a26 32be 49ea 73be ee72 5bbd a432 093c
000000a0: e904 acbe e0f0 30bd 670d c9bd da0b b13d
000000b0: 8157 3d3e fa84 d4be b4fc ed3b c79c 423e
000000c0: f300 c5bd bb21 8f3d e397 94be 6e7e c2bd
000000d0: 971f 69be df00 433e 7387 133e b163 1abe
000000e0: cf7e edbc a8b5 0e3e a83b 2b3d 99ed 843c
000000f0: 7088 9ebd 926d a73c ba2b babd b908 1ebb
00000100: f82f 50be 849c b0bd 7c72 ed3d a213 1a3e
00000110: 3247 a83e 9af1 5b3c d736 8abe 8ac6 2dbc
00000120: 10e0 323e 803f 0dbe 3a30 5d3d 022a cc3d
00000130: 71e6 60be 6e48 efbd 4667 31bd 0336 7c3b
00000140: 03ac 2b3e 6d70 e3bd 7bc2 063e 578e d93d
00000150: db70 b3bd 5034 0f3d 1aa8 c43d 60d7 dcbc
00000160: 9427 a73d 2bfc 4fbd 7258 463c e69d 83bd
00000170: ed24 0cbe 9c27 613d 26af 013e da14 ba3d
00000180: ade0 003e b80f be3d 95cf d33c 9576 81bd
00000190: 172a 873c 3b28 a23e ffaf 8d3e 4a71 b33e
000001a0: daf8 eabc 202b f43d e8cf 913e 94f0 0e3e
000001b0: 0d65 5b3e 208b 5cbe 1e69 363e 2c96 823e
000001c0: 9a6e 203e dc5f e23d 4610 e7bd cb3c d03d
000001d0: f465 453e c5c8 52be 92e7 4dbe 0bb9 babe
000001e0: db38 acbd a6eb e73c b805 3fbe d7b8 ba3d
000001f0: 65a8 373d 1c09 bf3e b8a4 c43e 1af9 943e
00000200: 2d52 ff3e 18b3 a53e a077 813e 5469 aa3e
00000210: 07e7 0a3f 5338 753e 717d ca3d 64a0 8d3e
00000220: a39b 103f 0f4f f63e 7ede db3e bdc9 953e
00000230: e2b6 9a3e 5e99 e23e 53bc 2e3f 95cb 323e
00000240: 206f 743d 5feb 8a3e aae3 753e 71ec 223e
00000250: 1072 8dbe 9bec 12bf 677b 1f3e de0d 40bd
00000260: 5336 11be 8b14 363e 0317 a6be e963 cb3e
00000270: 5af4 d73e dab1 b83e 6478 9d3e 309c 133f
00000280: fcd0 663e e568 4a3e 97dc b4bd dce8 583e
00000290: fd0d 843e 319a 89be 16b2 523e b580 b1bd
000002a0: 19be 873c e102 a13e e503 babe 29a0 0bbd
000002b0: 5e67 85bc f75b 933d 3c3c b53e 0e1f 79bf
000002c0: 67fc 88be f451 15be ab90 ca3c 37e2 d03e
000002d0: bec9 b8be e6ff d9bd d506 65be ec3f 8ebe
000002e0: 6606 903e cbeb 3abe 1185 62be 5c33 35be
000002f0: d495 59be 7cd8 3fbe c08c 3abd 7af3 5cbe
00000300: e8ca 02be 68b8 713c 8a05 8abd 0b8f c9be
00000310: 6786 50be e1d6 71be 1109 ebbd 4499 9bbe
00000320: 45f7 86be 0aa5 b1be f97d eabc e200 89be
00000330: e936 993d 8111 4d3d 502f 78bd b784 383e
00000340: 4790 18be acaf fd3c b859 0ebe f094 58b9
00000350: 9bf3 23bc b87f cc3b 2ee7 2a3d 2d2f 54bf
00000360: 0810 d8be 5a59 3ebe 4e53 a83e 87d6 243f
00000370: 2dbc 5ebf 2e0c 01bf cc09 30be af29 cb3e
00000380: dc09 153f 8de2 b4be 1d0b 883e 1355 563e
00000390: e795 163f a5dd c03e 68ed e3bc 04cc 0d3e
000003a0: 1a3d c13e 6859 023f de13 a13e e445 c7bd
000003b0: 8d33 0e3e 7b51 933e 44dd 913e 1e46 043f
000003c0: 10eb 0fbe a8ea 8d3d df0c 9c3d 3e99 19bc
000003d0: cf73 273d ce0d 953e 24f1 8e3e e408 f93e
000003e0: 2ee6 133f fb4a 383f 5618 193e 7447 013d
000003f0: 51d0 2c3e dc8d 463e eb50 cc3e 0cb0 193e

shared_net.0.bias f4 [128]
0.01881202 0.060690753 -0.005779788 0.12584369 -0.056073885 0.07609334 0.14546487 0.045942727
0.027833555 0.12090913 0.20654419 0.043193858 -0.05349528 -0.14677732 0.10425277 0.022668064
0.09008958 0.04348923 0.09321067 0.040153287 -0.07693497 0.17969067 -0.16281737 0.16421413
0.03799046 0.19328924 -0.056675807 -0.03521949 0.15993936 0.1046989 -0.054745365 -0.08472952
-0.10191936 0.046673726 -0.0073991097 -0.0046333773 0.049798734 0.20128523 -0.010086627 0.14748059
0.1308791 0.13429348 -0.0946371 -0.09391375 0.03750859 0.0 0.16296324 0.10829926
-0.03603915 0.11598378 -0.18519273 -0.005141218 0.03361292 0.07968722 -0.16258183 0.14058174
-0.061732028 0.16626652 -0.09532026 -0.008754842 0.054610237 0.16989155 -0.050424196 -0.015701473
-0.13610452 0.07420735 0.009748801 -0.033316597 0.07785573 0.1503945 0.0 0.029641181
0.0 -0.06278182 0.18749215 -0.005448443 -0.1392989 0.14904185 0.15884745 -0.048013374
0.114726305 -0.09164657 -0.028853549 0.0 0.06910655 0.024508856 -0.07006285 -0.09218543
0.13509622 0.08154362 0.15089057 0.03141644 -0.06306382 0.0360837 -0.069003925 0.14497632
0.1464905 -0.05497666 -0.13086103 -0.11748247 0.1276676 0.073389225 0.048400164 -0.09828288
0.14160503 0.050003827 -0.059034407 -0.010800665 -0.116648376 -0.055223487 0.1273861 0.11208236
-0.120569766 0.045596696 0.039136656 0.06424357 -0.1493669 0.17582615 0.0 -0.07160157
0.12419887 0.09461949 0.0118864905 -0.038173195 0.0 -0.0049153254 0.0 0.118397966
00000000: aa1b 9a3c de96 783d 6064 bdbb 2bdd 003e
00000010: bbad 65bd d3d6 9b3d bef4 143e 712e 3c3d
00000020: 3203 e43c 359f f73d 5280 533e 0bec 303d
00000030: de1d 5bbd cb4c 16be 7a82 d53d 60b2 b93c
00000040: e380 b83d c321 323d 3ce5 be3d c677 243d
00000050: 1590 9dbd d500 383e 99b9 26be c027 283e
00000060: e29b 1b3d 9ded 453e e424 68bd 5042 10bd
00000070: 25c7 233e 606c d63d ad3c 60bd ac86 adbd
00000080: 19bb d0bd f32c 3f3d 3b74 f2bb 96d3 97bb
00000090: c2f9 4b3d b71d 4e3e 6142 25bc 2705 173e
000000a0: 2c05 063e 3b84 093e 19d1 c1bd da55 c0bd
000000b0: 9ba2 193d 0000 0000 d6df 263e 01cc dd3d
000000c0: ca9d 13bd e788 ed3d 2aa3 3dbe aa77 a8bb
000000d0: b4ad 093d 0e33 a33d da7b 26be a9f4 0f3e
000000e0: b9da 7cbd c541 2a3e 4537 c3bd 7870 0fbc
000000f0: fcae 5f3d 0df8 2d3e 9a89 4ebd 60a0 80bc
00000100: fc5e 0bbe 06fa 973d 6fb9 1f3c fc76 08bd
00000110: d372 9f3d 0401 1a3e 0000 0000 10d2 f23c
00000120: 0000 0000 c193 80bd f1fd 3f3e da88 b2bb
00000130: 5fa4 0ebe 6d9e 183e e8a8 223e aca9 44bd
00000140: a0f5 ea3d 32b1 bbbd 475e ecbc 0000 0000
00000150: bc87 8d3d ccc6 c83c 1d7d 8fbd b7cb bcbd
00000160: aa56 0a3e 5700 a73d 0f83 1a3e 86ae 003d
00000170: 9b27 81bd 80cc 133d ee51 8dbd ac74 143e
00000180: 9b01 163e 352f 61bd 6f00 06be a69a f0bd
00000190: 4cbb 023e 174d 963d 403f 463d 8948 c9bd
000001a0: e900 113e d0d0 4c3d 10ce 71bd 46f5 30bc
000001b0: 58e5 eebd 0632 62bd 8071 023e 708b e53d
000001c0: 48ed f6bd 9ac3 3a3d c24d 203d 2292 833d
000001d0: a3f3 18be c50b 343e 0000 0000 d8a3 92bd
000001e0: fa5b fe3d ddc7 c13d 8ebf 423c 7f5b 1cbd
000001f0: 0000 0000 bd10 a1bb 0000 0000 a27a f23d

shared_net.2.weight f4 [128, 128]
-0.21349342 -0.028960457 -0.010393126 0.030490797 -0.5057309 0.26527798 -0.0646161 -0.23656699
-0.038574368 -0.03820093 0.13048258 -0.054627173 -0.19032396 -0.002004599 -0.4502334 0.067473195
0.16694963 0.06491797 0.13656461 -0.14516625 -0.061691705 -0.11216052 -0.691436 -0.12830259
-0.109670974 0.12895964 -0.04282295 -0.3531531 0.16219765 0.019377332 0.19143362 -0.4199465
0.022935456 -0.11087551 0.010108005 0.13980812 0.22725691 0.06154512 0.045166835 -0.38869184
0.27226123 0.24127299 0.11841131 -0.19906704 -0.030791555 0.11842702 0.14509735 0.096720815
0.029151948 0.20043503 -0.12890273 0.011190932 0.16034965 0.1310598 0.2347147 0.047556333
-0.47440392 0.01945318 -0.27374855 -0.04917736 -0.106466174 -0.031409804 0.16356313 -0.021689804
-0.09911998 0.052880313 0.3139889 0.080859065 0.15853713 0.0063469205 0.14915074 0.07158868
0.37314776 -0.06496734 0.34865358 0.18794525 -0.09128158 0.10460182 -0.16519877 0.094141126
0.24972837 0.19229394 0.08254519 -0.20902748 -0.106827475 0.022898387 -0.081880525 0.013468467
0.15130995 0.12160022 0.029672187 0.2449445 0.08279517 0.12048505 0.07719102 0.053232558
0.076490864 -0.011442937 -0.0602557 -0.55961305 -0.032278977 0.1422402 0.26953015 -0.38614044
-0.029514233 0.15210338 -0.10994839 -0.015180951 -0.17161085 0.035062138 0.108200096 0.2756874
-0.55936915 -0.155715 -0.26103523 0.06723594 -0.35626718 -0.065694496 0.14980271 0.15582803
-0.35148475 -0.09652731 -0.08579584 -0.158196 -1.82359e-05 0.040439263 0.015661778 0.05489755
0.16390656 -0.2605763 0.31399536 -0.23865621 0.4685602 -0.40710112 -0.1968732 -0.1352088
0.04877604 -0.060286745 -0.1927063 0.106292136 -0.03192366 0.24629466 0.3881734 -0.09982227
-0.10317064 -0.16815215 -0.17998874 0.021771038 -0.05906067 -0.1472492 0.31780997 -0.07285609
0.009589382 -0.29230443 0.19523336 0.12164081 -0.16256993 -0.22771531 0.1238849 0.18011354
0.3796234 -0.03418748 -0.18266179 0.06535633 -0.40974706 -0.40306467 -0.13616413 -0.13242057
-0.18308572 -0.10673737 -0.20485082 0.19900873 0.071134076 -0.029596547 -0.26481026 -0.29970855
-0.05452244 -0.12947705 0.2031062 -0.01717295 0.15860799 -0.3133765 0.044504743 -0.30899778
-0.035300545 -0.21073298 0.25592968 0.30117303 -0.14008343 -0.34058648 0.021518754 -0.23144269
0.29153046 0.21185945 -0.08206968 -0.42327502 0.104200326 -0.06276046 0.18660232 -0.22673412
0.07653296 0.06481687 -0.26702982 -0.08564433 0.2384687 -0.34570292 -0.060444307 0.25097746
0.05605863 -0.09577287 -0.04776727 -0.15897876 -0.17061748 0.13149042 0.12261538 0.03538374
-0.19895725 0.0683465 -0.21873713 0.029191548 0.09537625 -0.44236362 0.06904039 -0.3273454
-0.13126233 0.120510824 0.23630942 0.23744653 -0.009472603 -0.3869145 0.18470135 0.0487537
-0.028066114 0.065279596 -0.05174336 0.054966103 0.036444608 0.17206244 0.06998899 -0.09081664
0.10625422 0.14941971 0.019456722 0.17564669 0.67490965 -0.19763058 0.08848793 -0.02303513
-0.048735093 0.6343382 -0.014945041 -0.006236673 -0.0122908205 -0.21454424 -0.009743783 0.09883503
00000000: 059e 5abe 7b3e edbc ee47 2abc d6c7 f93c
00000010: 9577 01bf 84d2 873e 7255 84bd 9e3e 72be
00000020: 2800 1ebd 9478 1cbd 3a9d 053e bec0 5fbd
00000030: 49e4 42be 975f 03bb fe84 e6be 632f 8a3d
00000040: d8f4 2a3e b6f3 843d 98d7 0b3e 76a6 14be
00000050: 71b0 7cbd 6ab4 e5bd f301 31bf c161 03be
00000060: 2d9b e0bd ff0d 043e 1e67 2fbd 7cd0 b4be
00000070: 2417 263e 36bd 9e3c 2d07 443e 3a03 d7be
00000080: 23e3 bb3c b312 e3bd 0c9c 253c dc29 0f3e
00000090: 09b6 683e bc16 7c3d dc00 393d 9e02 c7be
000000a0: d365 8b3e 4410 773e a181 f23d 3bd8 4bbe
000000b0: 923e fcbc de89 f23d 6694 143e 9015 c63d
000000c0: 11d0 ee3c d73e 4d3e 14ff 03be 2c5a 373c
000000d0: b332 243e 8a34 063e 0d59 703e 6eca 423d
000000e0: 12e5 f2be 465c 9f3c c528 8cbe 336e 49bd
000000f0: f00a dabd 91a7 00bd 187d 273e d1ae b1bc
00000100: 6bff cabd 0799 583d 27c3 a03e 7099 a53d
00000110: 8f57 223e d4f9 cf3b f9ba 183e 169d 923d
00000120: 390d bf3e 990d 85bd b982 b23e b874 403e
00000130: d6f1 babd 7b39 d63d de29 29be 10cd c03d
00000140: cbb8 7f3e b4e8 443e 740d a93d 4d0b 56be
00000150: 5dc8 dabd 6695 bb3c fab0 a7bd d8aa 5c3c
00000160: fff0 1a3e 8909 f93d 1613 f33c bbd2 7a3e
00000170: 8490 a93d dec0 f63d 5316 9e3d 620a 5a3d
00000180: 3ea7 9c3d 287b 3bbc aece 76bd cd42 0fbf
00000190: f636 04bd 6aa7 113e dbff 893e 33b4 c5be
000001a0: d5c7 f1bc fdc0 1b3e 9f2c e1bd 86b9 78bc
000001b0: c1ba 2fbe 519d 0f3d 0398 dd3d e626 8d3e
000001c0: d132 0fbf c173 1fbe 69a6 85be ffb2 893d
000001d0: a768 b6be d68a 86bd e265 193e 6291 1f3e
000001e0: cff5 b3be 1cb0 c5bd bbb5 afbd 22fe 21be
000001f0: 4cf9 98b7 a4a3 253d 214d 803c 41dc 603d
00000200: 1fd7 273e 426a 85be 00c4 a03e 4b62 74be
00000210: 1fe7 ef3e 8f6f d0be 2199 49be 2d74 0abe
00000220: 63c9 473d 3cef 76bd cd54 45be b1af d93d
00000230: 62c2 02bd ab34 7c3e aabe c63e 9e6f ccbd
00000240: 214b d3bd 1430 2cbe f84e 38be 2d59 b23c
00000250: 9ae9 71bd 7fc8 16be fdb7 a23e 9335 95bd
00000260: c91c 1d3c eda8 95be 41eb 473e d11e f93d
00000270: bb78 26be 342e 69be 5eb7 fd3d af6f 383e
00000280: 005e c23e 2c08 0cbd b10b 3bbe 8ad9 853d
00000290: 5eca d1be 7e5e cebe 9c6e 0bbe 4299 07be
000002a0: d37a 3bbe 1f99 dabd 6ac4 51be f2c8 4b3e
000002b0: beae 913d 7574 f2bc 3695 87be 6673 99be
000002c0: ec52 5fbd a295 04be 12fb 4f3e 49ae 8cbc
000002d0: 226a 223e e272 a0be 9b4a 363d f534 9ebe
000002e0: 4e97 10bd 63ca 57be 3709 833e 5a33 9a3e
000002f0: 0872 0fbe 5a61 aebe 1948 b03c 50ff 6cbe
00000300: 7b43 953e aff1 583e 2614 a8bd 81b7 d8be
00000310: fb66 d53d 8e88 80bd ae14 3f3e fd2c 68be
00000320: 50bd 9c3d b5be 843d 22b8 88be 4b66 afbd
00000330: 2431 743e f9ff b0be 7394 77bd 1e80 803e
00000340: bc9d 653d 9124 c4bd 9da7 43bd 54cb 22be
00000350: 59b6 2ebe 6da5 063e c61d fb3d 8aee 103d
00000360: 73bb 4bbe 40f9 8b3d a0fc 5fbe 1d23 ef3c
00000370: a054 c33d 7c7d e2be 0c65 8d3d d199 a7be
00000380: a269 06be 61ce f63d 19fb 713e 2f25 733e
00000390: fa32 1bbc a819 c6be 5a22 3d3e f6b1 473d
000003a0: e8ea e5bc 4fb1 853d d8f0 53bd 2324 613d
000003b0: f146 153d 2331 303e 6356 8f3d 13fe b9bd
000003c0: d09b d93d 7b01 193e b463 9f3c badc 333e
000003d0: e1c6 2c3f ac5f 4abe 2939 b53d 2bb4 bcbc
000003e0: 739e 47bd fd63 223f 0cdc 74bc 015d ccbb
000003f0: 705f 49bc 7cb1 5bbe 63a4 1fbc 056a ca3d

shared_net.2.bias f4 [128]
0.08701564 -0.15506057 0.098630905 0.06917706 -0.075648926 0.11856296 -0.027212273 0.040010776
0.010299847 0.014557235 -0.112161525 -0.04929052 0.0010289735 -0.04852096 0.039999332 0.11990755
-0.039583962 0.093372315 -0.0044632964 0.087634735 0.08037267 0.049043316 0.057954207 0.08971194
0.050202943 0.024095356 0.026833942 0.028005602 0.07720602 0.08429503 0.01978796 0.005631735
0.07102057 0.028440662 0.029441081 0.0946189 -0.09529151 0.06860821 -0.009043939 0.06612136
-0.023689624 0.0066139414 0.08497859 0.03125255 0.01547697 0.119167976 -0.050414782 -0.11313997
0.11302069 0.17657149 0.05641658 0.06635433 -0.014160925 -0.17773874 0.14292638 0.08284572
0.074651755 0.08766604 0.0130289635 0.0013461384 0.055169407 0.05838121 0.0521029 0.03060302
0.12135106 -0.10017335 0.06382591 0.048016455 -0.10021068 -0.09037304 0.0 0.089058876
0.0 0.024460675 0.028718133 0.024974657 0.0974378 -0.014346628 -0.010048303 0.07110366
-0.0056536556 0.09358699 0.056253552 0.122733 0.0666356 -0.006140949 0.06204633 -0.014051516
-0.036255717 -0.0065174196 0.0045902766 -0.0050376737 0.08077168 0.0013624079 -0.13002373 0.061121795
0.033993736 0.0442607 0.1091697 0.088537715 0.08597876 0.073873304 0.07738571 -0.091437854
-0.08871561 -0.076998025 0.04340902 0.054118756 -0.0419147 -0.009114825 0.13682444 -0.0091614025
0.03205158 0.08091518 0.059310913 0.059609786 0.0107173715 0.012969138 -0.017361673 -0.014543906
0.09616435 -0.030223638 -0.05934178 0.031144857 -0.08802446 0.018042991 -0.0138011575 0.09466083
00000000: 4235 b23d 33c8 1ebe 00ff c93d b4ac 8d3d
00000010: d3ed 9abd 23d1 f23d 46ec debc 57e2 233d
00000020: b1c0 283c 7881 6e3c f1b4 e5bd dbe4 49bd
00000030: 9fde 863a eabd 46bd 57d6 233d 1792 f53d
00000040: cb22 22bd fc39 bf3d d840 92bb d779 b33d
00000050: 6d9a a43d a5e1 483d 6461 6d3d e5ba b73d
00000060: 9aa1 4d3d a063 c53c dbd2 db3c 016c e53c
00000070: 311e 9e3d dfa2 ac3d 5c1a a23c 6b8a b83b
00000080: 3c73 913d 64fc e83c 6c2e f13c 8ec7 c13d
00000090: 3228 c3bd 7682 8c3d 082d 14bc a36a 873d
000000a0: be10 c2bc c3b9 d83b 4109 ae3d ad02 003d
000000b0: 1e93 7d3c 570e f43d bb7f 4ebd eeb5 e7bd
000000c0: 6477 e73d 28cf 343e 1215 673d c7e4 873d
000000d0: 3903 68bc 2501 36be 4b5b 123e 04ab a93d
000000e0: 05e3 983d 418a b33d 6f77 553c e970 b03a
000000f0: 51f9 613d 2321 6f3d da69 553d 2fb3 fa3c
00000100: e886 f83d af27 cdbd 29b7 823d e7ac 443d
00000110: 423b cdbd 8015 b9bd 0000 0000 8064 b63d
00000120: 0000 0000 c161 c83c 4a42 eb3c a797 cc3c
00000130: 788d c73d 1f0e 6bbc a3a1 24bc cc9e 913d
00000140: 4d42 b9bb 89aa bf3d 206a 663d 705b fb3d
00000150: 3f78 883d 043a c9bb 4b24 7e3d 5438 66bc
00000160: e080 14bd 1490 d5bb 086a 963b 1213 a5bb
00000170: 9f6b a53d d392 b23a f124 05be d95a 7a3d
00000180: 043d 0b3d b54a 353d 5d94 df3d 4353 b53d
00000190: a215 b03d e34a 973d 667c 9e3d c543 bbbd
000001a0: 88b0 b5bd 24b1 9dbd a8cd 313d a1ab 5d3d
000001b0: c0ae 2bbd 5956 15bc b51b 0c3e b519 16bc
000001c0: 8448 033d dcb6 a53d 00f0 723d 6429 743d
000001d0: ea97 2f3c 827c 543c 113a 8ebc 9049 6ebc
000001e0: d1f1 c43d 9097 f7bc 5e10 73bd 8023 ff3c
000001f0: 2b46 b4bd e5ce 933c 401e 62bc 8add c13d

shared_net.4.weight f4 [64, 128]
0.017296262 0.09599444 -0.074881166 -0.13169384 -0.08900394 -0.03257226 -0.121033706 -0.18451075
0.059818394 0.22213285 0.00087086397 0.047087107 0.044006687 0.042298198 0.13599457 -0.19814786
-0.0821997 -0.05070612 -0.14047876 -0.03236497 0.25417498 -0.09703913 -0.016831435 -0.163612
0.00046631254 0.087091856 0.25201938 0.18595283 -0.23668444 -0.10860267 0.15285027 -0.09690794
0.14467968 -0.008675231 -0.0541814 0.07849996 0.14711763 -0.13127476 -0.03044934 0.22364797
0.098407544 -0.0686958 0.100950204 -0.04212618 -0.19236657 0.06639143 -0.20801131 0.08753284
-0.10499095 -0.09913278 -0.056247085 -0.056662 -0.13422139 0.22684707 -0.124060735 -0.115335315
-0.066191666 -0.11094914 -0.030016217 -0.085880965 0.11984697 -0.17646983 -0.03892726 0.040108394
0.08425068 0.11860294 -0.06765046 0.009106165 0.07400561 -0.13427986 -0.24175876 -0.14163293
-0.21315749 -0.10965467 -0.0476833 0.07297453 -0.067756586 0.14950888 -0.011105271 -0.1084558
0.072713576 -0.18144196 -0.03801279 -0.097130165 -0.14602935 0.01104776 -0.01825752 0.3157765
0.07898683 -0.047724366 0.27327034 0.14276397 0.009232254 0.16206087 -0.17369863 -0.10722752
-0.22959575 -0.053214878 0.26824933 -0.045246825 -0.075192764 -0.06966374 -0.006713729 -0.17636324
0.18414804 -0.08584561 0.041344985 0.14903283 -0.15661396 0.037609044 -0.039412353 -0.06566201
-0.088949166 -0.043116022 0.004202321 -0.0070180884 0.048103463 0.13553846 -0.109572574 -0.096657254
-0.17667338 0.09808495 -0.08732665 -0.08614283 0.046779897 -0.16713469 -0.12427148 0.15261492
0.12507334 -0.121166244 -0.057375275 0.108247705 0.021080825 0.41576955 0.10867858 -0.41787302
0.013499258 -0.04931034 0.0566397 -0.097971044 -0.11637978 -0.033142436 -0.11441142 -0.051362824
-0.14039682 0.15417601 -0.055392653 -0.0152987195 -0.18928869 0.08463073 0.10504211 -0.12011926
-0.23683025 -0.036059555 -0.103739455 -0.15655322 0.094641306 -0.11650446 0.28369862 -0.06816736
0.11749768 0.04549285 0.11257603 -0.14448965 -0.08899584 -0.2763616 0.021033607 -0.13498832
0.14181833 -0.015792042 0.043547753 -0.016970456 -0.21822561 0.16855048 0.26055372 0.033100843
-0.123849034 -0.06363704 -0.04922692 -0.16028209 0.18770148 -0.121026 0.03838084 -0.06972759
0.20731153 -0.19338876 0.11616951 -0.038329724 0.37189493 0.057166986 -0.5482564 -0.12264541
0.18622163 0.094354376 0.0752687 0.1435442 -0.04272842 -0.12449293 0.13832243 0.04364948
-0.085675314 0.10071307 0.020386852 0.08499909 -0.116102315 0.051948953 0.080761686 0.2033806
-0.09030262 -0.07844639 0.24238221 0.094127044 -0.040813304 0.035555538 0.043571874 -0.113530144
-0.035731852 0.06643513 -0.016891446 0.05873425 0.031511378 0.049171172 0.23446992 -0.18733206
0.0879981 -0.070842125 -0.034604255 -0.020890653 -0.09690978 -0.18269971 0.18103339 0.09720618
0.06865175 -0.016556486 0.034989133 0.116534926 0.08870414 -0.039556224 0.23757525 -0.10121294
-0.16515388 0.17495318 -0.08809411 -0.08425467 0.0025887904 -0.06972634 -0.024088964 -0.01917603
-0.15722618 0.14377317 0.2858758 0.09500756 -0.24582298 -0.013356228 -0.18577585 0.020822091
00000000: e4b0 8d3c bc98 c43d 4c5b 99bd c0da 06be
00000010: b347 b6bd 7d6a 05bd 85e0 f7bd 63f0 3cbe
00000020: 2204 753d cb76 633e b14a 643a 69de 403d
00000030: 5b40 343d e040 2d3d 2942 0b3e 46e7 4abe
00000040: 5158 a8bd 38b1 4fbd aad9 0fbe 2191 04bd
00000050: 3923 823e 74bc c6bd 14e2 89bc e789 27be
00000060: 697b f439 375d b23d af08 813e 6b6a 3e3e
00000070: 685d 72be 146b debd c884 1c3e ac77 c6bd
00000080: e926 143e 8e22 0ebc 51ed 5dbd 96c4 a03d
00000090: 01a6 163e e46c 06be e570 f9bc f903 653e
000000a0: e589 c93d 62b0 8cbd fbbe ce3d 808c 2cbd
000000b0: befb 44be 3bf8 873d eb00 55be 6b44 b33d
000000c0: 7f05 d7bd 2106 cbbd 5863 66bd 6a16 68bd
000000d0: 5571 09be 994a 683e 8e13 febd ec34 ecbd
000000e0: 7f8f 87bd 4d39 e3bd 92e4 f5bc 5ce2 afbd
000000f0: 5472 f53d 82b4 34be 3172 1fbd b348 243d
00000100: 9f8b ac3d 19e6 f23d 538c 8abd 0632 153c
00000110: 4190 973d a980 09be 9c8f 77be 3908 11be
00000120: f545 5abe a192 e0bd 904f 43bd ac73 953d
00000130: f7c3 8abd db18 193e e2f2 35bc 131e debd
00000140: dbea 943d eccb 39be 4db3 1bbd 2eec c6bd
00000150: b888 15be aa01 353c cb90 95bc 75ad a13e
00000160: d9c3 a13d a07a 43bd 17ea 8b3e b830 123e
00000170: e142 173c 49f3 253e 0ede 31be 1a9a dbbd
00000180: 261b 6bbe d8f7 59bd fa57 893e bc54 39bd
00000190: aafe 99bd ddab 8ebd d7fe dbbb 9198 34be
000001a0: 4e91 3c3e d3cf afbd 5c59 293d 109c 183e
000001b0: 695f 20be f10b 1a3d d96e 21bd ce79 86bd
000001c0: fb2a b6bd 6d9a 30bd a0b3 893b fef7 e5bb
000001d0: 2308 453d 98ca 0a3e 9667 e0bd 3df4 c5bd
000001e0: dee9 34be c3e0 c83d 51d8 b2bd a76b b0bd
000001f0: 479c 3f3d 5b25 2bbe 0c82 febd 1647 1c3e
00000200: 3a13 003e 0226 f8bd 5602 6bbd f9b0 dd3d
00000210: b2b1 ac3c bfdf d43e e092 de3d 74f3 d5be
00000220: fe2b 5d3c a4f9 49bd 08ff 673d 0ba5 c8bd
00000230: 8658 eebd 5dc0 07bd 8950 eabd d361 52bd
00000240: 2fc4 0fbe 51e0 1d3e 68e3 62bd 7ba7 7abc
00000250: e5d4 41be e052 ad3d 5120 d73d 1601 f6bd
00000260: a183 72be 2fb3 13bd 5a75 d4bd 7d4f 20be
00000270: 4dd3 c13d e499 eebd f240 913e 549b 8bbd
00000280: a0a2 f03d b656 3a3d 438e e63d 18f5 13be
00000290: 7343 b6bd 457f 8dbe ac4e ac3c 613a 0abe
000002a0: d338 113e 505e 81bc 215f 323d a005 8bbc
000002b0: 8976 5fbe 7f98 2c3e 4c67 853e c094 073d
000002c0: 90a4 fdbd 2354 82bd 2ba2 49bd fd20 24be
000002d0: d134 403e 7bdc f7bd 3a35 1d3d 57cd 8ebd
000002e0: 7949 543e b407 46be 48ea ed3d a1ff 1cbd
000002f0: 0369 be3e ee27 6a3d 885a 0cbf 842d fbbd
00000300: e2b0 3e3e de3c c13d 7a26 9a3d 40fd 123e
00000310: ff03 2fbd 26f6 febd 65a4 0d3e ccc9 323d
00000320: 8a76 afbd a742 ce3d 5402 a73c 0114 ae3d
00000330: 0dc7 edbd 6dc8 543d 6266 a53d 0143 503e
00000340: 94f0 b8bd 80a8 a0bd 0b33 783e aec5 c03d
00000350: da2b 27bd afa2 113d 6c78 323d 7e82 e8bd
00000360: 905b 12bd 240f 883d ee5f 8abc 5393 703d
00000370: 1312 013d b667 493d e218 703e fad3 3fbe
00000380: 5938 b43d ad15 91bd 31bd 0dbd e022 abbc
00000390: a278 c6bd a215 3bbe d160 393e 0914 c73d
000003a0: 4a99 8c3d 78a1 87bc c450 0f3d dda9 ee3d
000003b0: 84aa b53d b505 22bd ed46 733e bb48 cfbd
000003c0: 191e 29be ed26 333e af6a b4bd b68d acbd
000003d0: b2a8 293b afcc 8ebd 3856 c5bc 0d17 9dbc
000003e0: e6ff 20be 4639 133e 505e 923e 5393 c23d
000003f0: 05b9 7bbe 15d4 5abc 063c 3ebe 1793 aa3c

shared_net.4.bias f4 [64]
-0.0039038628 0.06820903 -0.0026509804 0.015130718 0.14227846 0.01918516 0.04722019 0.0012942519
0.08984132 0.01430856 -0.014377724 -0.01679571 0.053206 0.03999317 0.102993585 -0.023376469
0.049265843 -0.014584322 -0.006612078 0.0 0.12100697 0.017483175 0.038081367 0.08625443
-0.005914562 0.040660102 -0.011020497 0.06727051 0.06923918 -0.011976331 0.11674316 0.08159027
-0.008396155 -0.029880775 0.032182056 0.077938765 0.012461656 0.06354106 0.011471241 -0.058665335
0.06617994 0.09272189 0.20269585 0.056105338 -0.0012859973 0.104772665 0.013070207 -0.010075398
0.06325907 0.0 0.025730528 -0.02610124 0.052980874 0.0161777 -0.0020575281 0.0006333533
0.024996085 0.024542911 0.13821256 -0.008573269 0.08409067 0.0036703676 0.05662741 -0.004588449
00000000: f3d7 7fbb 2db1 8b3d 12bc 2dbb d5e6 773c
00000010: 72b1 113e 322a 9d3c f569 413d e3a3 a93a
00000020: bafe b73d 736e 6a3c 8c90 6bbc 2897 89bc
00000030: 89ee 593d e1cf 233d 4dee d23d 0280 bfbc
00000040: fbca 493d 15f3 6ebc 21aa d8bb 0000 0000
00000050: 81d2 f73d e038 8f3c 35fb 1b3d 2aa6 b03d
00000060: f1ce c1bb 358b 263d 518f 34bc 1fc5 893d
00000070: 45cd 8d3d 5f38 44bc 0a17 ef3d cd18 a73d
00000080: 0790 09bc 87c8 f4bc 55d1 033d 5c9e 9f3d
00000090: f92b 4c3c d121 823d dff1 3b3c 104b 70bd
000000a0: 5989 873d f9e4 bd3d 808f 4f3e b6ce 653d
000000b0: e98e a8ba 0d93 d63d 6c24 563c 4813 25bc
000000c0: f98d 813d 0000 0000 d4c8 d23c 45d2 d5bc
000000d0: 7902 593d 1987 843c 98d7 06bb 9f07 263a
000000e0: 97c4 cc3c 370e c93c 9887 0d3e e576 0cbc
000000f0: bb37 ac3d 8d8a 703b 25f2 673d b35a 96bb

actor.0.weight f4 [32, 64]
0.0051919743 0.5694079 0.21535896 -0.16394699 0.38604397 0.12754504 0.068174094 0.21984147
0.0151381325 -0.052999485 0.21623969 -0.012266207 -0.09640933 -0.0005458346 0.27608702 -0.0841848
0.4811638 -0.29877827 -0.006761396 -0.17625076 0.2601878 0.097659394 0.08673079 0.15032893
0.1484983 0.3599598 -0.20403424 -0.15841869 0.0690112 0.29084966 0.10405569 0.36784846
0.041896343 -0.10251322 0.0049923174 -0.0071571153 -0.26028618 0.40052614 0.17364445 0.16678393
0.13786826 0.1885698 -0.022141198 0.044514194 -0.21620691 0.115610726 0.0029983588 -0.04329454
-0.12507096 -0.03780392 0.30555224 -0.009721493 -0.017454779 -0.056379925 -0.31135976 0.25455797
-0.055668384 -0.010555021 0.05800859 -0.060987517 -0.07014757 0.20700046 -0.05495015 0.19821683
0.05594837 0.25579473 0.11072444 -0.03890938 0.20236245 0.2454309 -0.0736102 0.09301154
0.43663833 -0.2839138 0.0073715006 0.3377635 0.24391897 0.249181 0.07560056 0.10669261
-0.21479487 -0.11822285 -0.010967397 0.30645806 0.010872472 0.05892595 0.16314197 -0.35458514
0.04060874 -0.16245346 -0.019566935 -0.21449608 0.1894737 -0.0648712 -0.198961 0.124199316
0.0124909915 0.16905473 -0.19409205 -0.104270704 0.30836052 0.09704708 -0.101227455 -0.10532216
0.10004394 -0.11645386 0.26889193 0.104118 0.13986218 -0.16135561 0.11370374 -0.18083474
-0.0059838477 0.36350814 0.07983818 0.28954414 -0.39185855 -0.06323192 -0.19800888 -0.18179643
-0.17350802 0.17014977 -0.095482945 0.1065205 0.3711382 0.1201048 0.102996595 0.03485807
0.19925733 -0.04337071 -0.29792172 0.2749382 0.014498865 -0.08840894 0.081255294 -0.041417267
0.19875285 0.054344766 -0.20397002 0.39110738 0.12223586 0.15847339 0.42229557 -0.25122705
-0.31763774 -0.19045587 -0.052396424 -0.047197282 -0.0017401548 -0.05753683 -0.16024561 -0.26144716
-0.067993455 0.1927756 -0.018647704 -0.016198244 0.19532691 0.32437813 0.048886556 0.05235595
0.053133875 -0.053256597 -0.11972998 -0.0739939 -0.077637225 0.02625563 -0.051845014 0.062105652
0.081083216 0.22598143 0.1893525 -0.022149736 -0.06432838 -0.17896794 -0.07134504 0.019865135
0.18525924 0.039106596 0.09023869 -0.030024998 0.57581437 -0.22152954 -0.19523168 0.16959059
-0.24725416 0.39231837 0.022950936 0.073280066 0.073913574 -0.061529253 -0.41003323 -0.26592627
0.016467214 -0.05626795 0.19284071 0.09870617 -0.27087194 -0.4883261 -0.054655537 -0.034191098
-0.087073594 -0.22009312 0.14364314 0.3126981 -0.3027071 0.19482979 0.016755102 -0.11157414
-0.26773378 -0.26655287 0.08723827 0.04212769 0.0014169953 0.08775245 0.14316314 0.123679146
0.2318372 -0.096040174 -0.2519962 -0.0823959 -0.13006034 -0.36343846 -0.03559757 0.38683614
0.03392263 -0.42900386 0.015759446 -0.26116678 -0.035045907 -0.09265863 0.006988716 -0.2438238
-0.08217802 0.1640033 -0.19797686 0.14689296 0.11587083 -0.021244496 -0.08895596 0.14239381
0.04681951 -0.09243877 -0.054493267 0.1889028 -0.019267447 -0.05793854 -0.10812088 -0.19504872
-0.10698898 -0.19969374 -0.25648928 -0.053971056 -0.12626833 -0.13693699 -0.03583003 0.018813727
00000000: 7021 aa3b b7c4 113f 0f87 5c3e b8e1 27be
00000010: 8ea7 c53e 2b9b 023e dc9e 8b3d 1f1e 613e
00000020: ee05 783c fd15 59bd f06d 5d3e 33f8 48bc
00000030: 4172 c5bd 5716 0fba 475b 8d3e 1569 acbd
00000040: 1a5b f63e 77f9 98be b38e ddbb 147b 34be
00000050: 5637 853e a601 c83d ea9f b13d d4ef 193e
00000060: f00f 183e a74c b83e 5aee 50be 8238 22be
00000070: be55 8d3d 3fea 943e 261b d53d a256 bc3e
00000080: 809b 2b3d 73f2 d1bd 9896 a33b 3c86 eabb
00000090: 3b44 85be c311 cd3e dacf 313e 68c9 2a3e
000000a0: 562d 0d3e 7118 413e 7561 b5bc 8454 363d
000000b0: 5865 5dbe 51c5 ec3d 1d80 443b 9e55 31bd
000000c0: 9a12 00be 49d8 1abd 5871 9c3e e646 1fbc
000000d0: 53fd 8ebc a3ee 66bd 8c6a 9fbe 6c55 823e
000000e0: 8804 64bd f8ee 2cbc 6a9a 6d3d 0cce 79bd
000000f0: 87a9 8fbd eef7 533e 6913 61bd 5af9 4a3e
00000100: 1e2a 653d 87f7 823e 7fc3 e23d 715f 1fbd
00000110: 1a38 4f3e 3d52 7b3e f2c0 96bd d67c be3d
00000120: 0f8f df3e 265d 91be a18c f13b 56ef ac3e
00000130: e5c5 793e 4e29 7f3e 77d4 9a3d a881 da3d
00000140: 30f3 5bbe d21e f2bd 99b0 33bc 12e8 9c3e
00000150: 7422 323c 565c 713d b00e 273e 2f8c b5be
00000160: 5a55 263d 335a 26be d64a a0bc dca4 5bbe
00000170: 6505 423e 31db 84bd 6fbc 4bbe 365c fe3d
00000180: 04a7 4c3c af1c 2d3e 11c0 46be e18b d5bd
00000190: 6ee1 9d3e 9fc0 c63d 5750 cfbd 25b3 d7bd
000001a0: d6e3 cc3d 5d7f eebd 34ac 893e d13b d53d
000001b0: 0838 0f3e 683a 25be 82dd e83d be2c 39be
000001c0: 2714 c4bb bd1d ba3e 3382 a33d 213f 943e
000001d0: afa1 c8be bd7f 81bd d7c2 4abe d828 3abe
000001e0: 16ac 31be be3b 2e3e 908c c3bd 6b27 da3d
000001f0: d305 be3e 81f9 f53d e1ef d23d 56c7 0e3d
00000200: 1d0a 4c3e 7ca5 31bd 3289 98be b3c4 8c3e
00000210: a68c 6d3c bf0f b5bd 2d69 a63d 27a5 29bd
00000220: de85 4b3e 9e98 5e3d 84dd 50be 3a3f c83e
00000230: cb56 fa3d d946 223e 2037 d83e d5a0 80be
00000240: 6aa1 a2be dd06 43be a29d 56bd f051 41bd
00000250: e815 e4ba bdab 6bbd 6d17 24be 67dc 85be
00000260: 2740 8bbd f866 453e 12c3 98bc 2eb2 84bc
00000270: c703 483e e414 a63e 453d 483d 3173 563d
00000280: e8a2 593d 9723 5abd fe34 f5bd 1d8a 97bd
00000290: 4400 9fbd 0c16 d73c 705b 54bd 7f62 7e3d
000002a0: f50e a63d ad67 673e 9fe5 413e 5d73 b5bc
000002b0: 99be 83bd 5f43 37be 591d 92bd 35bc a23c
000002c0: 99b4 3d3e 3d2e 203d 10cf b83d fcf6 f5bc
000002d0: 9268 133f a4d8 62be d0ea 47be 28a9 2d3e
000002e0: 3230 7dbe f4dd c83e 9a03 bc3c dc13 963d
000002f0: 0060 973d 1906 7cbd e0ef d1be 7d27 88be
00000300: 40e6 863c 3979 66bd 0978 453e 7626 ca3d
00000310: baaf 8abe e105 fabe 7cde 5fbd f70b 0cbd
00000320: a453 b2bd 1760 61be 3017 133e f719 a03e
00000330: 6dfc 9abe 7681 473e ff41 893c fc80 e4bd
00000340: 6714 89be 9e79 88be faa9 b23d 168e 2c3d
00000350: 79ba b93a 8eb7 b33d 5c99 123e 7e4b fd3d
00000360: bb66 6d3e b6b0 c4bd a505 81be 2ebf a8bd
00000370: 8a2e 05be 9b14 babe c2ce 11bd 630f c63e
00000380: 75f2 0a3d 65a6 dbbe f419 813c a7b7 85be
00000390: 4c8c 0fbd cfc3 bdbd 9901 e53b f2ac 79be
000003a0: f34c a8bd 7bf0 273e 72ba 4abe 1c6b 163e
000003b0: b04d ed3d f008 aebc 8b2e b6bd afcf 113e
000003c0: d1c5 3f3d 8a50 bdbd 5534 5fbd bc6f 413e
000003d0: c4d6 9dbc f650 6dbd 7b6e ddbd daba 47be
000003e0: 0a1d dbbd 847c 4cbe 9052 83be c110 5dbd
000003f0: 7c4c 01be 3639 0cbe 82c2 12bd 3f1f 9a3c

actor.0.bias f4 [32]
0.07917112 0.018684167 0.107581824 -0.022682775 0.0056610047 -0.10294141 -0.009257748 0.0
0.0077913003 -0.0031632371 -0.03311247 -0.027067645 0.016614255 0.0043991706 -0.0011876578 -0.05279039
0.0 0.018380983 0.029690351 -0.07364666 -0.0218846 -0.0051713344 0.07728581 0.06336032
-0.0049471604 0.023377959 -0.0025201405 0.0922505 -0.04636358 0.061973996 -0.015058293 0.03267266
00000000: 7824 a23d 8a0f 993c dc53 dc3d 3ad1 b9bc
00000010: f37f b93b f2d2 d2bd cfad 17bc 0000 0000
00000020: 2a4e ff3b 504e 4fbb f1a0 07bd f7bc ddbc
00000030: 9e1a 883c eb26 903b 2fab 9bba bc3a 58bd
00000040: 0000 0000 b793 963c 2e39 f33c 0fd4 96bd
00000050: 5547 b3bc 4c74 a9bb 0648 9e3d 0ec3 813d
00000060: ca1b a2bb 2283 bf3c f128 25bb d5ed bc3d
00000070: bde7 3dbd 72d8 7d3d 0fb7 76bc c4d3 053d

actor.2.weight f4 [9, 32]
0.4055837 0.008622776 0.19374107 0.11004404 0.040740643 0.056075126 0.23236111 -0.16775733
0.10520475 0.12831092 -0.36389732 0.35253853 -0.31879088 0.1709082 0.42897868 -0.06830124
-0.23242164 -0.41118982 -0.21788256 0.28582612 0.15706609 -0.15428907 -0.28831756 -0.42462835
0.09897009 0.02471876 0.76694274 0.24701372 0.2417307 0.004059846 0.6114991 -0.47652596
-0.14056824 -0.5996734 0.60194796 0.38420734 -0.1705038 0.028673245 -0.02919858 -0.10425403
-0.599182 -0.060588904 -0.5142794 -0.10056306 0.14951454 -0.082896166 -0.15869653 0.16948
0.16699466 0.1163492 0.15847984 -0.1691261 0.028654005 0.14552268 0.024903893 0.13696973
-0.18652794 0.25915703 -0.08334526 0.020314543 -0.23151165 0.3283031 0.10718859 0.25195953
-0.18536012 0.07736895 -0.04994699 -0.35675347 0.19424035 0.5563195 0.4756264 0.29683957
-0.09229085 -0.15973715 -0.24817552 0.17718057 -0.3603304 0.62241215 0.23594898 0.09342612
0.04569034 -0.23698577 -0.026146486 -0.3768207 -0.30246356 0.17699288 -0.3087471 0.54123414
0.20188077 -0.12066079 -0.31119388 0.43456993 -0.13724895 0.0026797627 0.10162794 0.058538362
0.032639164 -0.7479202 -0.15373963 0.0069341874 0.341188 -0.1859161 0.24297094 -0.13852741
0.3254756 -0.29398096 0.27518022 0.05194291 -0.20395501 0.1372799 0.13115719 -0.44461748
0.26558214 -0.14475979 0.35200575 0.12471801 0.31135592 0.028332828 0.19141586 0.33702037
-0.33027908 -0.01450637 0.15302719 -0.13362719 0.007823734 -0.016083278 -0.003000166 0.22977975
-0.14279234 0.15168965 0.44869518 -0.06479131 0.3113446 -0.098236635 -0.41537142 0.24298573
-0.054730743 -0.45081708 0.39440253 0.42219883 -0.28430676 0.04056233 0.08796697 0.34796655
-0.23666838 -0.17877182 -0.05434977 0.17257805 -0.17927577 -0.054603867 -0.43271992 0.23132485
-0.34842864 0.23119034 -0.2711822 -0.11591581 0.2826221 0.47172895 0.12245431 -0.20979759
-0.061034884 -0.035279468 0.11178306 -0.054334845 -0.20112962 0.32895005 0.49282622 0.013713161
-0.30928016 0.10861203 0.33623484 0.05966323 0.25788108 -0.36562395 0.29441753 0.1538443
-0.11819357 0.5372543 0.13367589 -0.18900506 0.16047755 0.35319805 -0.23241335 0.15622897
0.2842379 0.6687772 -0.25022447 -0.1553574 0.0043334654 0.36939916 -0.20187 -0.46108907
0.6074676 -0.24128188 -0.28958178 -0.13736428 -0.3388836 -0.069337696 -0.05107646 -0.1456346
-0.053782094 -0.08709139 0.37047216 0.31045496 0.056680445 -0.14274433 -0.3258248 0.23479006
0.33511895 -0.109530985 0.5026719 -0.24551776 -0.29104203 -0.25566286 -0.20495103 0.31168938
0.33170113 0.25369194 0.37677646 0.049112458 -0.042990543 -0.39785972 0.27041382 -0.07160969
0.26594678 0.0695031 -0.21114095 -0.019179795 -0.2832993 -0.23260728 -0.25210086 0.7188884
-0.19465138 -0.06634951 -0.14447284 -0.18822229 -0.025716111 0.34525624 -0.19832759 -0.6069245
-0.22745806 -0.18865836 0.17866568 0.3196512 0.30757245 0.22115141 0.36505595 0.25133672
-0.0071845003 0.47153762 0.20798263 -0.048940044 -0.33675575 -0.13942763 -0.17170921 -0.05765976
00000000: aba8 cf3e 8b46 0d3c 0f64 463e c55e e13d
00000010: a9df 263d 08af 653d 12f0 6d3e 94c8 2bbe
00000020: 9775 d73d f063 033e c050 babe ee7f b43e
00000030: 8f38 a3be 8f02 2f3e 18a3 db3e 85e1 8bbd
00000040: f0ff 6dbe 7987 d2be 9b1c 5fbe cd57 923e
00000050: efd5 203e f4fd 1dbe 5c9e 93be e368 d9be
00000060: d5b0 ca3d ff7e ca3c 5c56 443f 2af1 7c3e
00000070: 4188 773e 7508 853b 348b 1c3f 36fb f3be
00000080: 1ff1 0fbe 3284 19bf 4319 1a3f d3b6 c43e
00000090: 8c98 2ebe 27e4 ea3c dc31 efbc 2383 d5bd
000000a0: fe63 19bf 122c 78bd d1a7 03bf 01f4 cdbd
000000b0: 571a 193e 77c5 a9bd 5881 22be 2a8c 2d3e
000000c0: a600 2b3e 7d48 ee3d 8a48 223e 642f 2dbe
000000d0: cebb ea3c e603 153e 4003 cc3c cb41 0c3e
000000e0: 2e01 3fbe 3bb0 843e ebb0 aabd af6a a63c
000000f0: 6411 6dbe 5817 a83e b185 db3d d700 813e
00000100: 0bcf 3dbe 9d73 9e3d 3795 4cbd 64a8 b6be
00000110: f1e6 463e f46a 0e3f 4e85 f33e 5bfb 973e
00000120: fc02 bdbd 2392 23be b921 7ebe d36e 353e
00000130: 3a7d b8be 6756 1f3f 9c9c 713e 3256 bf3d
00000140: cb25 3b3d 66ac 72be 2831 d6bc a5ee c0be
00000150: 81dc 9abe 9f3d 353e 1a14 9ebe 528e 0a3f
00000160: d5b9 4e3e 011d f7bd ce54 9fbe f37f de3e
00000170: fd8a 0cbe f59e 2f3b 4f22 d03d ecc5 6f3d
00000180: a5b0 053d b377 3fbf ec6d 1dbe 2e38 e33b
00000190: 32b0 ae3e ca60 3ebe 60cd 783e 21da 0dbe
000001a0: bda4 a63e ac84 96be 6ce4 8c3e 17c2 543d
000001b0: 95d9 50be 1a93 0c3e 124e 063e e7a4 e3be
000001c0: 62fa 873e e93b 14be 193a b43e 286c ff3d
000001d0: 0b6a 9f3e 3f1a e83c 8502 443e ef8d ac3e
000001e0: 571a a9be 20ac 6dbc 29b3 1c3e 91d5 08be
000001f0: 1e2f 003c 14c1 83bc 6f9e 44bb 624b 6b3e
00000200: 2838 12be 8854 1b3e 60bb e53e 4eb1 84bd
00000210: 8f68 9f3e 4a30 c9bd 90ab d4be 40d1 783e
00000220: 582d 60bd 7fd1 e6be 21ef c93e 722a d83e
00000230: a890 91be b024 263d 0728 b43d ac28 b23e
00000240: 3259 72be f60f 37be dd9d 5ebd 4db8 303e
00000250: 1194 37be 4ea8 5fbd 778d ddbe 6ce0 6c3e
00000260: 3d65 b2be 29bd 6c3e 65d8 8abe 4565 edbd
00000270: d8b3 903e 7586 f13e 53c9 fa3d 2ed5 56be
00000280: b7ff 79bd 3481 10bd 84ee e43d 378e 5ebd
00000290: ecf4 4dbe 246c a83e b853 fc3e 2bad 603c
000002a0: f859 9ebe fc6f de3d f926 ac3e 6e61 743d
000002b0: fd08 843e 1033 bbbe e5bd 963e 5c89 1d3e
000002c0: 780f f2bd 7f89 093f 55e2 083e 8b8a 41be
000002d0: 3a54 243e 60d6 b43e c4fd 6dbe 7dfa 1f3e
000002e0: a187 913e fc34 2b3f 6c1d 80be 0316 1fbe
000002f0: beff 8d3b e321 bd3e 02b7 4ebe de13 ecbe
00000300: ff82 1b3f 9912 77be 1044 94be 39a9 0cbe
00000310: 2782 adbe ec00 8ebd 8d35 51bd 3d21 15be
00000320: 9d4a 5cbd f85c b2bd 87ae bd3e f4f3 9e3e
00000330: c129 683d 922b 12be 82d2 a6be ce6c 703e
00000340: b694 ab3e c851 e0bd 1baf 003f 0269 7bbe
00000350: 7603 95be 3ee6 82be afde 51be c095 9f3e
00000360: bbd4 a93e e9e3 813e d8e8 c03e 252a 493d
00000370: da16 30bd 45b4 cbbe ae73 8a3e 1aa8 92bd
00000380: 2d2a 883e a457 8e3d 5535 58be f21e 9dbc
00000390: 9b0c 91be 9a30 6ebe 5d13 81be 1209 383f
000003a0: b152 47be 40e2 87bd b0f0 13be 58bd 40be
000003b0: 98aa d2bc 6dc5 b03e 6316 4bbe 675f 1bbf
000003c0: c4ea 68be a82f 41be 23f4 363e 52a9 a33e
000003d0: 237a 9d3e 8475 623e 9de8 ba3e 35af 803e
000003e0: f56b ebbb 616d f13e 66f9 543e 5b75 48bd
000003f0: 406b acbe 1ec6 0ebe 8ad4 2fbe a42c 6cbd

actor.2.bias f4 [9]
-0.016149597 0.17133136 -0.03815119 0.038448267 -0.029034877 0.049802672 0.087732315 0.104313456
-0.119580366
00000000: 294c 84bc 7d71 2f3e 6c44 1cbd ee7b 1d3d
00000010: 8dda edbc e3fd 4b3d 00ad b33d 4ba2 d53d
00000020: 8de6 f4bd

critic.0.weight f4 [32, 64]
0.1301468 -0.04663243 0.20364287 0.13977398 0.10043862 0.401974 -0.13252725 -0.02886122
0.14008097 -0.16517994 -0.4319085 0.4453322 -0.0077063674 0.08821212 -0.020985525 -0.099100426
0.04169956 0.08888873 -0.06847965 -0.27574575 0.076088354 -0.2276818 -0.065499455 0.2592028
-0.043656543 0.3338369 -0.0070232605 -0.21525247 0.23350191 0.25604185 0.29715165 0.08407587
0.03432115 0.07963578 -0.08955958 -0.24560831 0.24087165 -0.094186254 0.08215286 -0.28720537
-0.00801563 0.09717391 0.23069747 -0.19060041 -0.27735502 0.108137764 -0.23016384 -0.3134765
0.12017292 -0.35590494 -0.023101026 0.13456675 -0.12569295 -0.21350072 -0.043555003 0.08609399
0.22223124 -0.16317268 0.43571582 -0.24681377 0.01226084 -0.059445005 0.45180303 0.14637664
0.24217843 -0.026894718 -0.17203102 -0.08067295 0.2475863 -0.13183688 0.47147608 -0.076767385
-0.30797568 0.019895934 0.18608552 -0.18964754 0.17823796 0.11675292 0.12895232 0.30466586
0.02495882 -0.441555 -0.14167324 0.054885138 0.3858676 0.11529121 0.19727407 0.12236606
0.012434003 0.015133377 0.18227427 -0.18916057 0.06854624 -0.044969026 0.09656156 -0.039855953
0.16642754 0.27771634 -0.15064119 -0.049104713 0.33957845 0.047000956 0.5613506 -0.3463447
-0.25821608 0.10285432 0.0155047495 0.24295111 -0.0049468256 -0.02631594 0.12548307 0.18140572
0.10244597 0.038938355 0.32110184 0.09055698 0.07091823 0.06581331 -0.14847377 -0.12543568
-0.042132575 0.04573688 -0.074389376 0.026796144 -0.1668693 0.24894835 0.06651665 -0.10177721
0.022676144 -0.3493788 0.09412146 -0.18761805 -0.19793162 0.06280455 -0.21821171 -0.042326998
-0.017023588 -0.29571632 0.043515768 0.06807602 0.26914626 0.08125012 -0.14624323 0.081689835
-0.16510257 0.13771445 0.30303627 0.047220327 0.032446146 -0.04760435 -0.005154352 -0.20011085
0.15712993 -0.1480341 -0.043646723 0.047499407 0.022970017 0.29065186 -0.25435427 0.3183557
-0.21599317 0.18129429 -0.05986841 0.09027587 0.035902098 -0.15210983 0.26516503 -0.18385653
-0.056628548 -0.014452483 -0.15181492 -0.42186347 0.08291457 0.017964961 0.3110762 0.15211484
0.10850462 0.06408468 -0.017405774 0.38348076 -0.21256125 -0.22231063 0.025200767 0.07884161
-0.30692202 -0.0077902433 -0.32891405 0.0028641373 -0.0058910926 -0.15004937 0.08524063 -0.10485313
-0.032618377 0.019784827 -0.2171049 -0.097701624 0.25157005 0.25608873 -0.009372662 0.16992712
-0.00022472776 -0.18875998 0.028331207 0.13991277 0.062233843 0.12415118 -0.03881749 -0.17420697
0.016074045 -0.05049892 -0.0013331583 0.0021610374 -0.06848542 0.21818428 -0.124093905 -0.15902251
-0.14115621 0.1771463 0.008732167 -0.16178825 -0.533404 -0.05382755 0.06017053 -0.123217456
0.16951199 0.2544077 0.0352679 -0.10380498 -0.18072198 0.2377604 -0.30492848 -0.3071649
0.058565058 -0.18693794 -0.04741386 -0.16541941 0.114955485 -0.016115604 0.11698642 0.0023754474
0.42563164 -0.16528077 -0.00016637235 -0.11959526 0.53009814 -0.102615856 -0.34748113 -0.0770322
0.0077935285 0.07581833 -0.24395946 0.11245174 -0.18042165 -0.2726661 0.11615607 0.119647846
00000000: 3445 053e a601 3fbd c287 503e e920 0f3e
00000010: c3b2 cd3d 89cf cd3e 39b5 07be 5e6e ecbc
00000020: 6371 0f3e ee24 29be 1c23 ddbe 9502 e43e
00000030: b285 fcbb 8ea8 b43d d6e9 abbc 2af5 cabd
00000040: 28cd 2a3d 4b0b b63d 0f3f 8cbd 8c2e 8dbe
00000050: 36d4 9b3d 6b25 69be 9424 86bd 3bb6 843e
00000060: 34d1 32bd acec aa3e 6123 e6bb 256b 5cbe
00000070: 201b 6f3e eb17 833e 4324 983e f82f ac3d
00000080: 5694 0c3d 1518 a33d 036b b7bd bf80 7bbe
00000090: 0fa7 763e b9e4 c0bd c23f a83d 950c 93be
000000a0: fd53 03bc 1d03 c73d f53b 6c3e c12c 43be
000000b0: 7a01 8ebe 5577 dd3d 12b0 6bbe fe7f a0be
000000c0: 381d f63d 2c39 b6be 5d3e bdbc decb 093e
000000d0: a7b5 00be ef9f 5abe bb66 32bd 0c52 b03d
000000e0: 9690 633e bd16 27be 2516 df3e c0bc 7cbe
000000f0: b1e1 483c 9b7c 73bd ba52 e73e c2e3 153e
00000100: 9ffd 773e 5052 dcbc e628 30be dc37 a5bd
00000110: 4387 7d3e 3f00 07be 5065 f13e 3838 9dbd
00000120: fdae 9dbe ccfc a23c 348d 3e3e f732 42be
00000130: 0384 363e 281c ef3d 140c 043e 2afd 9b3e
00000140: 7076 cc3c 7f13 e2be ca12 11be 3dcf 603d
00000150: 7090 c53e cc1d ec3d 3702 4a3e 0f9b fa3d
00000160: fdb7 4b3c fcf1 773c 1ba6 3a3e 4fb3 41be
00000170: f961 8c3d 7131 38bd 11c2 c53d ff3f 23bd
00000180: fb6b 2a3e d630 8e3e af41 1abe 0622 49bd
00000190: 3add ad3e 1384 403d acb4 0f3f 1854 b1be
000001a0: e634 84be 49a5 d23d a207 7e3c 2dc8 783e
000001b0: fb18 a2bb 8794 d7bc a27e 003e 6cc2 393e
000001c0: 31cf d13d d37d 1f3d 7667 a43e f075 b93d
000001d0: 943d 913d 21c9 863d 8209 18be 3672 00be
000001e0: 3593 2cbd 9856 3b3d 7559 98bd 9683 db3c
000001f0: c9df 2abe 51ec 7e3e e239 883d 9270 d0bd
00000200: 52c3 b93c c7e1 b2be c1c2 c03d f21e 40be
00000210: 96ae 4abe ac9f 803d e472 5fbe 135f 2dbd
00000220: 0d75 8bbc 2168 97be 973d 323d 716b 8b3d
00000230: 8acd 893e 7766 a63d c9c0 15be 004d a73d
00000240: a610 29be 0405 0d3e 9227 9b3e 1a6a 413d
00000250: 40e6 043d c7fc 42bd d7e5 a8bb dce9 4cbe
00000260: abe6 203e 4096 17be e8c6 32bd bd8e 423d
00000270: 9e2b bc3c 52d0 943e b93a 82be 85ff a23e
00000280: 502d 5dbe 36a5 393e 9438 75bd 8ee2 b83d
00000290: 140e 133d aec2 1bbe b6c3 873e e344 3cbe
000002a0: 56f3 67bd 1bca 6cbc 5f75 1bbe 7dfe d7be
000002b0: 1dcf a93d 412b 933c 6145 9f3e fec3 1b3e
000002c0: ac37 de3d d43e 833d 8e96 8ebc 9757 c43e
000002d0: a8a9 59be 66a5 63be d771 ce3c b677 a13d
000002e0: e224 9dbe 4c45 ffbb 6c67 a8be 40b4 3b3b
000002f0: 110a c1bb 8ba6 19be a492 ae3d 3dbd d6bd
00000300: d99a 05bd ca13 a23c bf50 5ebe ca17 c8bd
00000310: cacd 803e 101e 833e cb8f 19bc 6001 2e3e
00000320: e6a4 6bb9 4c4a 41be d916 e83c 4b45 0f3e
00000330: eae8 7e3d f942 fe3d 17ff 1ebd 5063 32be
00000340: b7ad 833c f5d7 4ebd 5fbd aeba 31a0 0d3b
00000350: 1542 8cbd b36b 5f3e f224 febd ccd6 22be
00000360: 418b 10be d765 353e 5d11 0f3c d2ab 25be
00000370: 2a8d 08bf 477a 5cbd 6075 763d 6f59 fcbd
00000380: 8d94 2d3e ba41 823e 1375 103d b597 d4bd
00000390: 2f0f 39be 7677 733e 961f 9cbe b844 9dbe
000003a0: eae1 6f3d a96c 3fbe 0935 42bd b563 29be
000003b0: c86d eb3d df04 84bc 9396 ef3d 65ad 1b3b
000003c0: 64ec d93e 5d3f 29be 3d74 2eb9 5cee f4bd
000003d0: 83b4 073f 4328 d2bd 0ce9 b1be 0fc3 9dbd
000003e0: db60 ff3b a446 9b3d 82d0 79be 194d e63d
000003f0: 74c0 38be e49a 8bbe 3ce3 ed3d ee09 f53d

critic.0.bias f4 [32]
0.1252007 0.00034604606 -0.016476523 0.028333686 0.012991521 -0.021895256 0.10822434 0.11492174
0.0077933352 0.03337912 0.0077648475 0.0 0.002626196 0.15909488 0.08842741 0.12672766
0.109680936 0.14560929 0.056464396 -0.098507784 -0.007858374 0.013824326 0.13130316 -0.021599177
-0.023478407 0.0044928077 0.10763571 0.05039072 0.009758021 -0.03400232 0.09059167 0.11946576
00000000: 9d34 003e 846d b539 c6f9 86bc 0c1c e83c
00000010: 63da 543c ae5d b3bc b9a4 dd3d 175c eb3d
00000020: 3c5f ff3b 8bb8 083d 4370 fe3b 0000 0000
00000030: 421c 2c3b c5e9 223e 6e19 b53d e5c4 013e
00000040: 66a0 e03d 9a1a 153e 3647 673d 73be c9bd
00000050: 69c0 00bc 6d7f 623c 5674 063e c2f0 b0bc
00000060: ca55 c0bc 6738 933b 1c70 dc3d 8066 4e3d
00000070: 1be0 1f3c 0446 0bbd 2088 b93d 77aa f43d

critic.2.weight f4 [1, 32]
0.56358635 -0.08881041 0.024164444 0.48954758 -0.28773564 -0.05166413 0.18848328 0.53395873
-0.029968575 -0.057971243 -0.24339405 0.46274394 -0.071683705 1.2397738 0.13877073 0.21224183
0.3438864 0.8092985 -0.4624288 -0.031134617 -0.33720887 -0.24372362 1.1330812 -0.2719306
-0.19023345 -0.07177654 0.27053532 0.034991194 -0.30524638 -0.08877923 0.3685394 0.46692878
00000000: 3247 103f 3be2 b5bd 83f4 c53c fba5 fa3e
00000010: 1652 93be c49d 53bd c301 413e 85b1 083f
00000020: a880 f5bc 4173 6dbd 4a3c 79be c6ec ec3e
00000030: e8ce 92bd e8b0 9e3f ea19 0e3e ec55 593e
00000040: e111 b03e 302e 4f3f 78c3 ecbe 060e ffbc
00000050: a4a6 acbe af92 79be ce08 913f 7d3a 8bbe
00000060: 8fcc 42be 94ff 92bd 9b83 8a3e ed52 0f3d
00000070: 4149 9cbe e3d1 b5bd 32b1 bc3e 4a11 ef3e
