logs/20250602_192306/checkpoint_episode_1300.pt (torch, 512430 bytes, 39 tensors)

shared_net.0.weight f4 [128, 30]
00000000: 908e b6bd 3e83 8d3d 9375 4bbd fba7 4ebc
00000010: 6944 c9bd 2fa7 423d a018 bd3e df06 d33e
00000020: d11f a83e 8655 323e 612f 3f3e ce9f 353e
00000030: 0963 fd3e f944 b03e cc84 5ebc 444a 15be
00000040: 5e60 043f 3c4b de3e b644 c63e 6e18 193e
00000050: 5e3e b6bd ac0f 9b3e ca5f 653e a5d7 813e
00000060: d5a0 82be 5f7e 8dbe 88fc ca3d 65be 5b3d
00000070: ac7a 6bbe 5681 fdbe 7de4 2c3d b246 823d
00000080: 02b3 05be 8ca0 773d 438a 933d 234c e83d
00000090: e527 2d3d 2413 bcbd e22e 5cbc e94c 37bb
000000a0: 1449 43be 7c86 20bd 53ab 3ebe dff9 98bc
000000b0: 97f9 393e 349e a1be a3f8 a0bd 1441 c73d
000000c0: 0da6 3bbe 87b3 6d3c 8604 2ebe 50d0 08be
000000d0: 875c 8ebe 071d 023e 5dd1 ad3d 55a2 533c
000000e0: 72cc 223d ddb3 193e 8088 2b3d 48e4 92bc
000000f0: 7088 9ebd 926d a73c ba2b babd b908 1ebb
00000100: f82f 50be 849c b0bd 7c72 ed3d a213 1a3e
00000110: 3247 a83e 9af1 5b3c d736 8abe 8ac6 2dbc
00000120: 10e0 323e 803f 0dbe 3a30 5d3d 022a cc3d
00000130: 71e6 60be 6e48 efbd 4667 31bd 0336 7c3b
00000140: 03ac 2b3e 6d70 e3bd 7bc2 063e 578e d93d
00000150: db70 b3bd 5034 0f3d 1aa8 c43d 60d7 dcbc
00000160: 9427 a73d 2bfc 4fbd 6f92 8c3b ccc4 8abd
00000170: 3a4b 0bbe f223 413d 8638 fc3d 7469 a93d
00000180: a761 2a3e 0fbb fd3d a222 ca3c 9ba4 83bd
00000190: 8b12 173d 70c7 563e 4d6c 1d3e 10f5 6e3e
000001a0: d42c fb3a ce50 f93d 058c 343e baaa 35bc
000001b0: 51c9 793d 78f1 f9bd 4017 173e bef6 263e
000001c0: c75d 0e3d 41d0 e33c fbaf 07bd 1fd7 b53d
000001d0: be27 7d3e 081a 02be 9fe4 9ebd f819 38be
000001e0: bee2 89bd d986 103d debb 3fbe 010f dd3d
000001f0: 5b39 543d 1d24 013f 4f02 ea3e ec2a 893e
00000200: a981 e63e 8035 8e3e ca22 af3e ab1c a73e
00000210: 44d4 d93e 847d 5d3e 7f86 8b3d 7849 923e
00000220: 5298 003f 9771 c03e 9a69 c93e 44b9 833e
00000230: 2181 8c3e 32d6 d93e 3c76 2b3f f42a 183e
00000240: abda 6c3d 0b58 8a3e 3d63 553e f4ea 0d3e
00000250: ec83 88be 05a0 00bf 89a5 163e c396 ccbc
00000260: b708 04be ad3e 2d3e b4de 9abe 329a aa3e
00000270: e1d2 9a3e 50af 953e 2bc5 9a3e c436 103f
00000280: b3ea 6d3e 144d 123e ded8 8abd 14d5 603e
00000290: c69e a03e 7128 ecbd 304c 1b3e 9a35 92bd
000002a0: 43ba ea3c 44f5 893e 49bf dabc b648 9bbc
000002b0: 2103 d9bc efcd 423d 9b44 853e b069 d2be
000002c0: f3ff 013d 7316 85bc 7b45 bb3c 0775 923e
000002d0: 9c2e 68be 5acb cfbd 643f 5dbe 681b 13be
000002e0: 2a93 923e d6bc e2bd d1ed c0bd cd93 08bd
000002f0: ddbd 9abd 0db1 7fbd da74 9e3c 4a05 d3bd
00000300: 93ba 82bd 1096 833d 89f1 18bd fa37 98be
00000310: a72b a0bd 9eda 0abe 2157 ddbc ec8a 6fbe
00000320: c73b 46be e120 82be 2f17 f23c f7c8 66be
00000330: ddbe c43d d963 ad3d bd0f 05bc 6469 413e
00000340: 52ef 22be 7314 3cbb 1936 2ebe f097 81bc
00000350: 24d2 42bd e6be cbbc 40e9 d53c 8b52 febe
00000360: 331d 41be 33e7 06be fc6b 953e a75d 103f
00000370: e911 1bbf c57d afbe bc7a 15be 8591 c63e
00000380: cae1 ea3e f46c 37be 95c4 af3e c2ed 423e
00000390: 409d 0a3f 6ba9 8c3e 987f 4d3d 20f7 3a3e
000003a0: ed67 b73e 929b f23e 5a21 443e 0ab8 c3bd
000003b0: c074 033e 554f 5c3e 5eec 373e d137 c03e
000003c0: e1de 4bbe 1243 dc3c adb9 593d e61a 8bbd
000003d0: 8efe c7ba 9285 503e a40a b93d 4c0b 9f3e
000003e0: 5677 d43e d328 0e3f 7c19 0a3e d950 8aba
000003f0: 6319 a73d 50c8 1e3e e0b2 933e 7c6d bd3d
-0.089139104 0.06909798 -0.049672674 -0.012613292 -0.09827501 0.04752272 0.3693285 0.4121618
0.32836774 0.17415437 0.18670417 0.17736742 0.4948962 0.34427622 -0.013581466 -0.14579111
0.51709545 0.43416774 0.38724297 0.14950725 -0.08898614 0.30285394 0.22399822 0.25359836
-0.2551333 -0.27635476 0.09911448 0.05364837 -0.22996014 -0.49512738 0.04221009 0.0636114
-0.13056567 0.060455844 0.07204106 0.11342647 0.042274375 -0.09183338 -0.013438912 -0.0027969426
-0.19070846 -0.039190754 -0.18620043 -0.018673835 0.18161617 -0.31566012 -0.07859924 0.097292095
-0.18325062 0.014508135 -0.16993913 -0.13360715 -0.27804968 0.12706386 0.084871985 0.012917121
0.039745755 0.15010019 0.041878223 -0.017931119 -0.07740867 0.02043799 -0.090903714 -0.0024114086
-0.20330799 -0.08623603 0.11594102 0.15046552 0.32866818 0.0134243015 -0.26994964 -0.010606417
0.17468286 -0.13793755 0.05400107 0.0996895 -0.21962906 -0.11683737 -0.04331138 0.0038484342
0.16764836 -0.11105428 0.13160126 0.10622852 -0.0876176 0.034962 0.09602375 -0.026958168
0.08161846 -0.050777595 0.004289917 -0.06775817 -0.13602915 0.04715342 0.123154685 0.08272067
0.16638814 0.12389194 0.024674717 -0.064278804 0.03688292 0.20974517 0.15373345 0.23335671
0.001916314 0.121736154 0.17631538 -0.011088068 0.060983006 -0.1220426 0.14754963 0.16305062
0.0347574 0.027809264 -0.033126812 0.08878922 0.24722192 -0.12705243 -0.0775845 -0.17978656
-0.06732701 0.03528485 -0.1872401 0.107938774 0.05181251 0.5044573 0.45704886 0.2679056
0.45020798 0.27775192 0.3420623 0.3263906 0.42544758 0.21629912 0.068127625 0.28571677
0.5023242 0.37586662 0.3933838 0.25727284 0.27442268 0.4254623 0.66977286 0.14860135
0.057825726 0.27020296 0.20838638 0.13859159 -0.26663148 -0.5024417 0.14711584 -0.024974233
-0.1289395 0.1691844 -0.30248034 0.33320767 0.30239013 0.29235315 0.30228552 0.56333566
0.23234062 0.14287215 -0.067796454 0.21956283 0.31371135 -0.11531151 0.15165782 -0.0713913
0.02865327 0.26944935 -0.02670254 -0.01895557 -0.02649075 0.047559675 0.26028904 -0.41096258
0.031738233 -0.016246056 0.02286028 0.2860491 -0.2267403 -0.10146208 -0.21606213 -0.14365923
0.28627902 -0.11071174 -0.0942036 -0.03334408 -0.07555745 -0.06242471 0.019342829 -0.10303743
-0.063832425 0.064251065 -0.03733972 -0.29730207 -0.07820826 -0.13559958 -0.027019085 -0.23392838
-0.19358741 -0.2541571 0.02955207 -0.225376 0.09606717 0.0846631 -0.008121428 0.1888786
-0.15911606 -0.0028698712 -0.17012824 -0.01581952 -0.047563687 -0.0248713 0.026112199 -0.4967235
-0.18858795 -0.13174133 0.29183948 0.563929 -0.60574204 -0.34275642 -0.145976 0.38782898
0.45875388 -0.17912656 0.34329668 0.1903601 0.54146194 0.27473006 0.05017051 0.18258333
0.35821477 0.47384316 0.19153348 -0.09556587 0.12837505 0.21514638 0.1796126 0.37542585
-0.1990924 0.02688745 0.05315559 -0.0679224 -0.0015258358 0.20363453 0.09035233 0.31063306
0.41497296 0.5553104 0.13486284 -0.0010552659 0.08159139 0.155061 0.28847408 0.09249398

shared_net.0.bias f4 [128]
00000000: e644 af3b 0ebf bb3d 6064 bdbb fa32 103e
00000010: 20fb 03bd 403b c33d 9106 183e 7e92 273d
00000020: 67f2 e13b af5a c63d 1089 553e 8ff1 133d
00000030: 81ab bfbc 52a3 0abe f2a1 9b3d ad13 e33c
00000040: 6be9 c93d 2475 253d 6dd1 0c3e 23e6 1f3d
00000050: fad2 94bd 932a 3b3e 62e1 30be bc1e 213e
00000060: 1022 883c 6f0c 483e e6d3 87bd 5c20 3cbd
00000070: eb39 233e ebc6 053e 19a1 1ebd 6146 b6bd
00000080: 4a81 c1bd c813 923d 3b74 f2bb 96d3 97bb
00000090: f9a5 7a3d 748a 4b3e 9e30 bebb 54e1 0f3e
000000a0: be85 f13d 5f13 273e ad33 97bd 2555 f7bd
000000b0: a9ed 473d 0000 0000 cc78 273e 86b7 033e
000000c0: d1bc b3bc 3572 053e 8972 1fbe aa77 a8bb
000000d0: 77d2 443d 321c 223d dc42 fcbd 4030 033e
000000e0: aedd a1bd ade7 2e3e 0872 e1bd 8457 473c
000000f0: 42d1 923d aa5a 273e 0456 3abd 60a0 80bc
00000100: f2fb 0dbe f26f dc3d d112 27ba c986 64bd
00000110: f22e 963d bdc9 183e 0000 0000 57a9 d73c
00000120: 0000 0000 1059 6fbd f084 363e 349b b53c
00000130: 5cdb e7bd adc0 2b3e e460 3c3e 4aa8 25bd
00000140: 2bee 063e 71a3 5cbd 475e ecbc 0000 0000
00000150: 75b3 883d 01b9 913c fda5 a1bd 0dca abbd
00000160: 2355 fb3d ee55 873d 6cb7 163e f49d 103d
00000170: eb4e 85bd 9e0b 5a3d 2b90 31bd 6201 133e
00000180: c1eb 203e 22e6 59bd 3bee edbd bba1 17be
00000190: 7c47 073e 9ce0 443d abec 303d 3aaf fabd
000001a0: f450 0b3e a16a 8c3d f7b9 52bd 46f5 30bc
000001b0: 0427 f7bd 8561 45bd a0b7 d23d dbf2 0a3e
000001c0: dd36 07be 4b2e 003d 914c 25bb 318a b63d
000001d0: cb49 20be a08a 2c3e 0000 0000 20f6 89bd
000001e0: ce76 063e 4018 843d c050 353d 49ab 20bd
000001f0: 0000 0000 e7d6 e23c 0000 0000 b21b 023e
0.0053487895 0.091673 -0.005779788 0.14081946 -0.032221913 0.095327854 0.14846255 0.04091119
0.0068953517 0.09685265 0.20853066 0.03611904 -0.02339721 -0.13538864 0.07599248 0.027719343
0.09858974 0.040394917 0.13751765 0.039037835 -0.07266803 0.1827796 -0.17273477 0.1573438
0.016617805 0.19535993 -0.06632213 -0.045929298 0.15940063 0.13064162 -0.038727853 -0.089001425
-0.09448488 0.07132679 -0.0073991097 -0.0046333773 0.06119344 0.19877034 -0.0058041355 0.140508
0.117930874 0.16315983 -0.07382903 -0.12076787 0.048810635 0.0 0.16354674 0.12862977
-0.02194062 0.13031848 -0.15571035 -0.005141218 0.048052277 0.03957767 -0.1231744 0.12811375
-0.0790361 0.17080565 -0.11008078 0.012166861 0.07168819 0.1634318 -0.045492187 -0.015701473
-0.13865641 0.107635394 -0.00063733483 -0.055792604 0.07333173 0.14920707 0.0 0.026325865
0.0 -0.058434546 0.17824149 0.022168733 -0.11321136 0.16772719 0.18396336 -0.040443696
0.13176791 -0.053866807 -0.028853549 0.0 0.06674854 0.017788412 -0.07892988 -0.083881475
0.12272098 0.06608187 0.14718407 0.035306886 -0.06509193 0.053233735 -0.04335038 0.14355996
0.15714933 -0.053197987 -0.116177045 -0.14807789 0.13210863 0.048065767 0.043194454 -0.12240453
0.136051 0.06856275 -0.05144688 -0.010800665 -0.120679885 -0.048188705 0.1028893 0.13569205
-0.13204522 0.03129415 -0.002522264 0.08913077 -0.1565315 0.16849756 0.0 -0.06736398
0.13131258 0.06449938 0.044266462 -0.03922585 0.0 0.027690364 0.0 0.12705877

shared_net.2.weight f4 [128, 128]
00000000: dec1 4abe f2eb 84bd ee47 2abc f92a 153d
00000010: 88a8 ffbe 63b5 5c3e 633f ceb9 1fcc 2ebe
00000020: a011 00bd c795 d23c 6f9f 033e a3c4 9c3c
00000030: 9729 5dbe 065d 10bd 2e14 b8be 7f6f 913d
00000040: a0de 253e 570f 973d d930 1a3e 2f1b f0bd
00000050: 49a1 9cbd 04c4 81bd 9fb2 e6be 3fd7 dfbd
00000060: 2423 adbd e058 0c3e 866a 81bd 6e8d 9cbe
00000070: 2629 1f3e 6e67 ab3c 933d 253e 831c d3be
00000080: bb66 acbc 59df 68bd 0c9c 253c dc29 0f3e
00000090: 12eb 5a3e 3096 a93d 12dd 383d b3da d2be
000000a0: 3f7f 8c3e 48b8 6c3e eb97 9d3c 111e 3cbe
000000b0: 32c5 963a de89 f23d 5837 343e 9a25 c63d
000000c0: 76e0 b53d 992c 503e c0e5 dabd 2c5a 373c
000000d0: aeb4 293e 3316 803d ef0a 423e 6ceb 2f3d
000000e0: 5699 fcbe 8ff4 e13c 3c03 97be 537b f6bc
000000f0: 4fb7 15bc df08 51bc 1e71 1a3e d1ae b1bc
00000100: 4941 0ebe 4906 7e3d 33e1 9b3e 5b02 833d
00000110: 04d5 403e 2b45 a03d f9ba 183e 62f3 933d
00000120: 390d bf3e e53e 9ebd 48eb b63e 16da 333e
00000130: 7b7a 0abe a50f ce3d f3aa 07be d95e bc3d
00000140: 0f19 813e 8ef2 483e 740d a93d 4d0b 56be
00000150: 3a4f afbd 53c3 763d 291a cfbd 62b0 babc
00000160: 29a1 273e 55f4 163e b90d 2c3d 866c 5e3e
00000170: 57de 7a3d fb4b 9c3d 41f0 253d 0c5c fd3c
00000180: 219f b73d 1334 e5bc f443 acbd 9722 efbe
00000190: b857 13bd 27d7 083e a72e 873e 9832 93be
000001a0: 2d30 d9bc abe0 7c3e d2be fabd 86b9 78bc
000001b0: 87ee 9fbd bebc 5e3c 4191 103e be7b 923e
000001c0: 3e94 d1be 5984 00be 47b0 3fbe 5320 9c3d
000001d0: 218b e8bd 9515 d5bc e265 193e a8e2 033e
000001e0: c97e c4be c81c 04be dec8 12bc a660 40be
000001f0: 4cf9 98b7 fa73 2d3d 214d 803c 72c4 a03d
00000200: b34b b13d ba7d 4abe 00c4 a03e 0610 93be
00000210: d2c3 c73e 48ef 84be cbb6 1bbe 6df7 d8bc
00000220: 0dfb 8a3d 0e10 9bbd 8f9c 49be 9f22 c93d
00000230: 7cae debc 8c0d 983e a3f5 983e 1ed7 b5bd
00000240: 2598 bfbd 6241 15be f838 17be 3925 62ba
00000250: 87c3 69bd 41a1 22be 0c4b 503e 021e edbd
00000260: 4777 053d 86d1 92be 6be2 513e 8318 313e
00000270: ce84 2ebe d01b 30be 0e93 023e 3df6 3f3e
00000280: 8f41 c93e 9641 c63c b10b 3bbe 8ad9 853d
00000290: 552a 8bbe 6372 c4be 9c6e 0bbe a27d 4fbd
000002a0: ffc4 17be bf27 f3bd d148 cabd ef65 203e
000002b0: 90e4 c63d 7574 f2bc 41a5 9dbe d637 79be
000002c0: c069 eebc 7635 fabd 4ded 493e 49ae 8cbc
000002d0: bd96 1c3e a28d 9cbe ea7e 7e3d ff90 42be
000002e0: b063 a6bc 132f 60be c8a0 8a3e 52fb 8e3e
000002f0: 50bc 8ebd 4385 afbe e8a7 463d 50ff 6cbe
00000300: 4a28 8e3e b713 503e a6b9 82bd 9f1c aebe
00000310: 4082 cc3d 555e 68bd ae14 3f3e 7f0e 4abe
00000320: 50bd 9c3d 0ef2 b43d 8486 7dbe 76de a3bd
00000330: ee60 663e a6d4 a5be 1208 49bd a88b 3f3e
00000340: b7a2 893d e766 88bd 9da7 43bd 54cb 22be
00000350: 236d 13be 95a9 5e3e ce84 0e3e 72dd ec3d
00000360: 03f5 57be 6367 943d 5fbb 57be 5812 1b3d
00000370: 94ac e43d c6cc a1be 47a4 883d 470b 1ebe
00000380: eae9 14be 9a17 143e 35f0 4d3e 9112 473e
00000390: c90c 7dbc c7a3 b3be c078 493e f9b8 6b3c
000003a0: 04c4 06bd 93b1 a03d a6cc 06bd 2324 613d
000003b0: e03a 993c 1ba1 453e fd6e 093e 8790 77bd
000003c0: 6c7d 533d 9f54 e83d a1f9 7d3c 6658 1c3e
000003d0: 5d2f 013f b326 46be 2939 b53d b376 58bb
000003e0: 739e 47bd 44ff 083f 19bf 82bc 9c00 783c
000003f0: 705f 49bc 5bc3 0abe 63a4 1fbc 603d a53d
-0.19800517 -0.064903155 -0.010393126 0.036417935 -0.49933267 0.21553569 -0.0003933861 -0.17070054
-0.03126681 0.025706185 0.12853788 0.019136732 -0.21597897 -0.035244964 -0.35952896 0.07101344
0.16198206 0.07375973 0.15057696 -0.11723935 -0.0764795 -0.06336215 -0.45058152 -0.10929727
-0.08453968 0.13705778 -0.06319146 -0.30576652 0.1554304 0.020923343 0.1613677 -0.4123269
-0.02104508 -0.056853626 0.010108005 0.13980812 0.21378735 0.08280599 0.045132704 -0.4118248
0.2744083 0.23117173 0.01923748 -0.18370844 0.001150286 0.11842702 0.17599237 0.09675141
0.08880703 0.20329513 -0.106883526 0.011190932 0.1657283 0.06254234 0.18949483 0.042949125
-0.49335736 0.027582435 -0.29494655 -0.030088102 -0.009137942 -0.012758463 0.15082213 -0.021689804
-0.13892092 0.062017713 0.3044525 0.06396934 0.18831259 0.07825693 0.14915074 0.07224156
0.37314776 -0.0772684 0.3572638 0.17563662 -0.13523285 0.10061578 -0.13248806 0.09197778
0.2521443 0.19623777 0.08254519 -0.20902748 -0.08560033 0.06024487 -0.101124115 -0.022789184
0.16370071 0.14741643 0.042005274 0.21721086 0.061247196 0.076316796 0.040512327 0.03092768
0.08965898 -0.027978932 -0.084113985 -0.46706077 -0.035972327 0.13363324 0.2640278 -0.28749537
-0.02651223 0.24695079 -0.12243427 -0.015180951 -0.07809167 0.013594804 0.1411791 0.28610033
-0.40933412 -0.12550487 -0.18719588 0.07623353 -0.11354662 -0.026011268 0.14980271 0.12879431
-0.3837798 -0.12901604 -0.008959023 -0.18786868 -1.82359e-05 0.042346932 0.015661778 0.07849969
0.086570166 -0.19774523 0.31399536 -0.28723162 0.39016587 -0.25963807 -0.15206449 -0.02648517
0.067861654 -0.075714216 -0.19688629 0.098210566 -0.02718281 0.29697835 0.29874906 -0.08878921
-0.09355191 -0.14575723 -0.14767826 -0.00086267624 -0.057071235 -0.15881826 0.20341128 -0.11577989
0.032584455 -0.2867548 0.20496528 0.17294507 -0.17042848 -0.1719811 0.1275141 0.18746276
0.3930783 0.024201196 -0.18266179 0.06535633 -0.27180734 -0.3836852 -0.13616413 -0.050656922
-0.14821242 -0.11872815 -0.0987717 0.15663885 0.097115636 -0.029596547 -0.3079014 -0.24337706
-0.02910316 -0.12217228 0.1971943 -0.01717295 0.15291877 -0.30576807 0.062132753 -0.19000624
-0.020311207 -0.21892957 0.2707579 0.27926117 -0.069695115 -0.34281358 0.04849997 -0.23144269
0.27765113 0.2032002 -0.06383066 -0.3400621 0.09985781 -0.056730587 0.18660232 -0.19732092
0.07653296 0.08835231 -0.24758345 -0.080014154 0.22497913 -0.323888 -0.049079962 0.18705618
0.067204885 -0.06660252 -0.04776727 -0.15897876 -0.14397101 0.21744378 0.13917848 0.11565675
-0.21089558 0.07246282 -0.2106757 0.03785929 0.11165729 -0.31601542 0.066719584 -0.1543399
-0.14542356 0.14462128 0.20111163 0.19440676 -0.015444943 -0.3508589 0.19674969 0.014387363
-0.03290178 0.078463696 -0.03291001 0.054966103 0.018704832 0.19299738 0.13421245 -0.060440566
0.051633283 0.11344265 0.015501411 0.15268096 0.50462896 -0.193507 0.08848793 -0.0033029735
-0.048735093 0.53514504 -0.015960263 0.015136864 -0.0122908205 -0.13551085 -0.009743783 0.08068347

shared_net.2.bias f4 [128]
00000000: 5164 c93d 9eba 02be 9c37 863d 59a6 a23d
00000010: 27fc adbd 35f6 fd3d c3b4 233d 787d 533d
00000020: ce13 823c 66a6 f43c 2b24 07be 15c2 f9bc
00000030: 3a28 03bd 60df 2bbd a997 3b3d 47f9 003e
00000040: 870c 0bbd cad7 543d d840 92bb 9092 9c3d
00000050: 31f6 833d be82 203d 2c4f 463d f3a2 483d
00000060: 836a 7c3c 0efb 613d a40a d8bb 757f 873c
00000070: d688 503d 57b9 823d dc0a 173c f880 5bbb
00000080: 32be 9d3d 35c8 c0bc f55f 193d d2c1 f33d
00000090: 1005 aebd ed5c 9b3d 78b2 3bb9 768e 813d
000000a0: 738e 2dbd 4a59 7c3c e078 b73d 837a 2c3d
000000b0: 631c f73c f000 eb3d 50ee 94bd dfa8 e1bd
000000c0: 106f 983d 5538 ed3d e736 a03d c60b 833d
000000d0: d518 003a f3e2 26be 327c cd3d 1f17 9d3d
000000e0: 4954 593d 6aa0 a73d c09d a1bb 64cb 02bb
000000f0: ccff 0d3d 8939 683d 0c24 9a3d 1cb3 793d
00000100: 0a94 953d 32ca e6bd 2292 d83d e02d 703d
00000110: 6136 d6bd 1fce 43bd 0000 0000 d4a5 943d
00000120: 0000 0000 2cbf d03c 382d d63c 87a7 e83c
00000130: 8222 eb3d d93a 2dbd 7401 c5bc 0a9a a13d
00000140: 218d f0bb 96a6 e43d 462c 413d 876d 893d
00000150: bd47 9b3c 043a c9bb 3c28 373d 5438 66bc
00000160: 8b28 09bd 5b0d 663d 2f1e 8bbc 4fd1 23bc
00000170: 1b74 3f3d bf9c 39bd 4409 14be e505 ae3d
00000180: 4fb7 f93c 775a 863d 2956 c43d ed45 1b3d
00000190: 0db5 9f3b 8576 b83d a635 8c3d 740a c5bd
000001a0: 21c3 ccbd 7ff5 64bd 31c4 2b3d c0cb a93d
000001b0: c0ae 2bbd 9a0a b9bc 0750 b03d 0000 0000
000001c0: bf13 08bb c8dc 953d 5d55 af3d 6b78 5a3c
000001d0: fc49 91bc a26f e6bc b8fb 7cbc 9049 6ebc
000001e0: 0d35 063e 5d56 e1bc c1d9 8bbd 2208 2f3d
000001f0: 9b9d abbd db27 d93c c5ca 023c f7fd cb3d
0.09833587 -0.12766501 0.065535754 0.079418845 -0.0849536 0.12400476 0.03996731 0.05163333
0.015878584 0.029864501 -0.1319739 -0.030488053 -0.032020785 -0.041961074 0.04579893 0.12595092
-0.033947494 0.051963605 -0.0044632964 0.07645142 0.06443442 0.039187185 0.048415348 0.048983525
0.015406254 0.055171065 -0.0065930653 0.016540268 0.050911747 0.06383007 0.009218898 -0.003349362
0.077022925 -0.023532966 0.037445027 0.11902203 -0.08497059 0.075860836 -0.00017900195 0.063260004
-0.04237218 0.015402148 0.08958602 0.042109024 0.030164903 0.11474788 -0.07272017 -0.11018538
0.074430585 0.1158301 0.07822972 0.0639873 0.0004886513 -0.16297512 0.10033454 0.076704256
0.053058896 0.081848934 -0.0049321353 -0.0019957656 0.034667775 0.056695495 0.07526407 0.060961828
0.07303627 -0.112690344 0.105747476 0.0586375 -0.10459591 -0.047803994 0.0 0.07258192
0.0 0.025481783 0.026144609 0.028400196 0.11481191 -0.04229245 -0.024048544 0.07890709
-0.0073410426 0.11164586 0.047161363 0.06710344 0.018955106 -0.006140949 0.044716105 -0.014051516
-0.03348593 0.05616508 -0.016982166 -0.0099986335 0.046741586 -0.0453155 -0.1445666 0.08497218
0.030482916 0.065602235 0.09586746 0.037908483 0.004873878 0.09006981 0.0684617 -0.096211344
-0.099981554 -0.055898186 0.04193515 0.08290815 -0.0419147 -0.022588063 0.08609014 0.0
-0.0020763723 0.07317501 0.08561204 0.013334374 -0.017735474 -0.028129403 -0.015440874 -0.014543906
0.13106175 -0.027507002 -0.06828643 0.042732365 -0.0837967 0.026508262 0.007982914 0.09960549

shared_net.4.weight f4 [64, 128]
00000000: e4b0 8d3c 4fca c43d cf47 99bd c0da 06be
00000010: b347 b6bd c375 04bd 85e0 f7bd 63f0 3cbe
00000020: 16c2 773d e435 653e b14a 643a 69de 403d
00000030: 9b7c 373d e040 2d3d 8f8c 0b3e d1bd 4abe
00000040: 5158 a8bd bef3 4dbd aad9 0fbe de8c 03bd
00000050: 75b2 823e 74bc c6bd 98d6 85bc e789 27be
00000060: fa93 d33a 6f0c b43d 642a 813e 6b6a 3e3e
00000070: 4b5c 71be 146b debd bdce 1d3e ac77 c6bd
00000080: 74b1 143e 08e6 f9bb d105 5dbd 96c4 a03d
00000090: 01a6 163e e46c 06be e570 f9bc f903 653e
000000a0: e12d cc3d 2c79 8bbd fbbe ce3d 808c 2cbd
000000b0: a8ab 44be 2e3e 883d 26c8 53be 6b44 b33d
000000c0: 76f0 d3bd 22f3 cabd 5863 66bd 6a16 68bd
000000d0: 5571 09be 994a 683e 8f59 fcbd ec34 ecbd
000000e0: 7f8f 87bd 4d39 e3bd b890 ecbc 5ce2 afbd
000000f0: 5173 f73d 0f24 34be 3172 1fbd 6232 283d
00000100: e70b ad3d d166 f53d c137 88bd 2c82 2a3c
00000110: 4190 973d a980 09be 9c8f 77be 3af2 10be
00000120: f545 5abe a192 e0bd 904f 43bd ac73 953d
00000130: f7c3 8abd db18 193e fa96 34bc 131e debd
00000140: ecf4 963d eccb 39be 4db3 1bbd 63b7 c3bd
00000150: b888 15be aa01 353c 3d68 8abc 75ad a13e
00000160: d9c3 a13d a07a 43bd 17ea 8b3e 2259 133e
00000170: 658e 313c 49f3 253e 75de 31be 018e dabd
00000180: d0f5 69be 56f7 59bd fa57 893e c476 34bd
00000190: aafe 99bd ddab 8ebd d7fe dbbb 9198 34be
000001a0: 4e91 3c3e ac28 adbd 5c59 293d 109c 183e
000001b0: 695f 20be 7f2e 1e3d 351b 1cbd ce79 86bd
000001c0: 7b04 b3bd 6d9a 30bd 76c5 8e3b fef7 e5bb
000001d0: 7e1b 453d 98ca 0a3e 9667 e0bd 3df4 c5bd
000001e0: dee9 34be c3e0 c83d 51d8 b2bd 0ebd aebd
000001f0: 479c 3f3d 5b25 2bbe 9b81 fdbd 611b 1d3e
00000200: d508 0a3e 39ea e3bd 2304 90bd 7c96 183e
00000210: 5f75 2d3c 2fd1 d03e d1e4 2d3e 5049 8fbe
00000220: c56b c13d 9a07 7dbd a433 df3d d5fd c6bd
00000230: a49f 45be b316 08bd 2e83 43bd 2e64 05bd
00000240: a4c4 0fbe 4b95 df3d 68e3 62bd 535e 96bc
00000250: 88dc 33be 8e44 793d dcb1 a33d 6978 94bd
00000260: 384b 56be de0b 8cba 16eb febd 1ae3 13be
00000270: b18a a43d ccac 16be f07f 5c3e a595 8ebd
00000280: 4b23 033e 5982 9ebc 3a21 b63d 5087 12be
00000290: 9a8d a2bc f53e 53be 69d5 b03c 4934 f9bd
000002a0: d04f 413e cfb5 523c f831 043b 2a43 2dbd
000002b0: 030e 44be bf7f 043e ffed 6d3e 4d57 f73c
000002c0: 14f1 27be 17b7 debd 5a9b aebc 2135 a0bd
000002d0: 5164 403e 043a f7bd aa04 da3c 242e 31bc
000002e0: f478 0f3e f3f2 1bbe cd30 b13d 089b f0bd
000002f0: 1d3f 9d3e f83e 953c f67b c6be 6eab c3bd
00000300: a7b0 173e e407 4a3d 4848 c43d 0df5 3d3e
00000310: 2eed 19bd 75fd 11be 65a4 0d3e 9468 abbc
00000320: 8a76 afbd 3ec7 40bd 8e5f 28bc 8600 ae3d
00000330: ee57 a1bd aa99 763d 0514 b23d f5c6 263e
00000340: 313d 67bd b095 3ebd a671 963e 9a53 5c3d
00000350: baa5 11bd afa2 113d 9553 753d 7e82 e8bd
00000360: b78b 12bd f513 3b3d cc15 35bc f7b0 a03d
00000370: 6b46 633b e203 9b3d f7f4 3f3e 3097 34be
00000380: 1375 053e 64ec 69bc 1f05 b03c f6ae a6bd
00000390: 5d7c 50bd d72d f1bd c40f 483e ca38 793d
000003a0: 22d0 973d b635 70bd 6657 743d 0a67 1e3e
000003b0: 84aa b53d 6b04 a8bd b878 523e 80da b2bd
000003c0: 0c1b 68be ec9d 933d 956d 66bd b50c ffbd
000003d0: 37a1 9ebb edf4 a6bd 649d 1ebd 0d17 9dbc
000003e0: 94cc 23be 1448 133e bebf 863e a47c 183e
000003f0: e072 29be 9747 82bd dcef e3bd 232f 2b3c
0.017296262 0.096089 -0.074843995 -0.13169384 -0.08900394 -0.03233887 -0.121033706 -0.18451075
0.06048783 0.22383839 0.00087086397 0.047087107 0.044796567 0.042298198 0.13627838 -0.19798972
-0.0821997 -0.05028128 -0.14047876 -0.032116763 0.25526777 -0.09703913 -0.016337678 -0.163612
0.0016142123 0.08791434 0.25227654 0.18595283 -0.23570363 -0.10860267 0.15410896 -0.09690794
0.14520818 -0.007626299 -0.053960625 0.07849996 0.14711763 -0.13127476 -0.03044934 0.22364797
0.09969688 -0.06810221 0.100950204 -0.04212618 -0.19206107 0.06652485 -0.2068182 0.08753284
-0.10348599 -0.09909655 -0.056247085 -0.056662 -0.13422139 0.22684707 -0.123217694 -0.115335315
-0.066191666 -0.11094914 -0.028877601 -0.085880965 0.12082542 -0.1759188 -0.03892726 0.041063674
0.08449536 0.11982501 -0.06651259 0.010407012 0.07400561 -0.13427986 -0.24175876 -0.14154902
-0.21315749 -0.10965467 -0.0476833 0.07297453 -0.067756586 0.14950888 -0.011022324 -0.1084558
0.07370934 -0.18144196 -0.03801279 -0.095564626 -0.14602935 0.01104776 -0.016895408 0.3157765
0.07898683 -0.047724366 0.27327034 0.1438947 0.010837172 0.16206087 -0.17370017 -0.10671616
-0.22847676 -0.053214394 0.26824933 -0.044058576 -0.075192764 -0.06966374 -0.006713729 -0.17636324
0.18414804 -0.08455023 0.041344985 0.14903283 -0.15661396 0.03861856 -0.038111884 -0.06566201
-0.08741089 -0.043116022 0.0043570353 -0.0070180884 0.04812192 0.13553846 -0.109572574 -0.096657254
-0.17667338 0.09808495 -0.08732665 -0.08532153 0.046779897 -0.16713469 -0.12378236 0.15342475
0.13479932 -0.11128659 -0.07032039 0.14901155 0.0105870655 0.40784594 0.16981818 -0.2798562
0.094443835 -0.061774828 0.108985215 -0.09716383 -0.1929918 -0.033224773 -0.047732525 -0.032566242
-0.14039856 0.10917147 -0.055392653 -0.018355524 -0.17564595 0.060856394 0.07992908 -0.07249529
-0.20927131 -0.0010684689 -0.12447183 -0.14442101 0.08034266 -0.14714354 0.2153318 -0.06962136
0.12806432 -0.019349264 0.08893056 -0.1430943 -0.019842912 -0.20629485 0.021586137 -0.12168176
0.18878102 0.012860729 0.0020171385 -0.04230038 -0.1914597 0.12939356 0.2323532 0.030192995
-0.16400558 -0.10874765 -0.021314312 -0.078226335 0.18788268 -0.120716125 0.026613552 -0.010814223
0.14010984 -0.15229397 0.08651886 -0.1174832 0.30712214 0.018218502 -0.3876645 -0.09554182
0.14813481 0.04932393 0.09584099 0.1855051 -0.037579708 -0.14256842 0.13832243 -0.02092389
-0.085675314 -0.047065012 -0.010276688 0.084961936 -0.078780994 0.06020514 0.08695225 0.16286834
-0.05645484 -0.046529472 0.29383582 0.053790666 -0.03555844 0.035555538 0.059894163 -0.113530144
-0.035777774 0.04567333 -0.01105256 0.07846253 0.0034679424 0.075691 0.1874579 -0.17635798
0.13032942 -0.014277551 0.021486817 -0.0813884 -0.050899852 -0.117763214 0.19537264 0.060845174
0.07412745 -0.058644973 0.059653662 0.15468994 0.08870414 -0.08203968 0.20553863 -0.08733082
-0.22666568 0.072078556 -0.05625685 -0.124535955 -0.0048409957 -0.08152185 -0.03872432 -0.01917603
-0.15996009 0.14382964 0.26318163 0.14891297 -0.16547728 -0.06361311 -0.11129734 0.01044825

shared_net.4.bias f4 [64]
00000000: dd05 2fbb a14e 983b 12bc 2dbb f512 cf3c
00000010: 0bb3 cf3d 3a52 823c 4fe2 6c3d ea4c bb3c
00000020: dca5 9c3d 4bbf aa3c a51b 0ebc 8920 adbc
00000030: 1956 9e3d 06a1 da3c f3f5 b33d 9513 acbc
00000040: abff 1b3d a6d7 4d3c 0d02 8abb 0000 0000
00000050: 3d73 c03d e958 8f3c ca29 3b3d aea7 593d
00000060: 81e3 b3ba dbf9 cd3c 29ee a2bb ae56 053d
00000070: 0fa5 d43c 5535 35bc b93a c73d 59cc ad3d
00000080: eb5d 833c 22ac ddbc acc1 193d b8ac 0dbb
00000090: 5260 7d3c 54b4 833c 3f2f 7e3c 58ea 3ebd
000000a0: 5d12 b33c 5b06 df3c 749b 0a3e 34e8 ab3c
000000b0: 7c3a 243b 278a 0a3d 6c24 563c 4813 25bc
000000c0: 8730 d73b 0000 0000 d4c8 d23c d108 983c
000000d0: ec0e 9c3d 1987 843c 98d7 06bb 016b a5bb
000000e0: d3af 483d 9cea 713c a9c6 973d e576 0cbc
000000f0: 7c34 503d b0a8 6e3b 4852 8d3c 89ba 4ebc
-0.0026706376 0.004648045 -0.0026509804 0.025277594 0.101415716 0.01590835 0.057833012 0.022863824
0.07648823 0.020843169 -0.008673583 -0.021133678 0.077312656 0.02668811 0.087871455 -0.021005431
0.03808562 0.012563622 -0.0042116703 0.0 0.0939698 0.01749845 0.04569415 0.053138427
-0.0013724418 0.025143554 -0.0049722386 0.032553367 0.025957612 -0.011060079 0.09727997 0.08486242
0.016035995 -0.027059618 0.037538216 -0.002161784 0.015464859 0.016077198 0.015514194 -0.046610206
0.021859342 0.02722471 0.13535863 0.020984747 0.0025059273 0.03382316 0.013070207 -0.010075398
0.006567064 0.0 0.025730528 0.018558891 0.076200336 0.0161777 -0.0020575281 -0.0050481563
0.048995804 0.014765408 0.07410938 -0.008573269 0.050831303 0.0036416464 0.017251149 -0.012617716

actor.0.weight f4 [32, 64]
00000000: 3920 aa3b 6bf8 083f 0f87 5c3e 573a 2fbe
00000010: 671c ae3e f60f bd3d bc42 133d db36 533e
00000020: d8dc 213c 593c 52bd 9891 5d3e a856 47bd
00000030: e6a3 efbd 81a5 00bd 7c90 813e 1769 acbd
00000040: b72f eb3e e837 86be 7b8e dcbb 147b 34be
00000050: 18be 723e 2302 c83d 59b4 8d3d 1533 023e
00000060: bb93 1e3e 81cd aa3e 83b9 4abe 2be6 25be
00000070: c986 9f3d e348 963e d340 ad3d 4ab0 a33e
00000080: 7be3 083d 84ea d1bd 149b 063d be29 0dbd
00000090: eec9 80be ea71 cb3e bcf3 313e 9062 2b3e
000000a0: eae4 f63d 1c85 433e d8ba 31bd 5168 203d
000000b0: 1e67 5dbe e840 cc3d 1d80 443b 9e55 31bd
000000c0: 561c b9bd 49d8 1abd 5871 9c3e 479c d0bc
000000d0: 6647 09bd a3ee 66bd 8c6a 9fbe 115c 7b3e
000000e0: 653a a0bd 3025 65bd 35ca 4d3d 0cce 79bd
000000f0: 33cc 55bd f261 353e 81fc 88bd f454 4f3e
00000100: 3a30 653d 7557 563e 7fc3 e23d 054f 62bd
00000110: ae08 433e 47af 863e 4255 7ebd 4ea3 cd3d
00000120: 8ac1 df3e 8d31 7bbe d108 d83b 34f5 b13e
00000130: b60e 813e 10b0 6e3e 6d54 053d a881 da3d
00000140: 7054 36be fedf 1cbe 9b6d 34bc 12e8 9c3e
00000150: 4417 7e3c b35c 713d 7b5e 293e 5c06 aebe
00000160: 5889 143d 7a2e 49be 2ffd e8bc d5f9 77be
00000170: d13d 163e 9d4d 8abd 1170 36be 0df2 de3d
00000180: 6e85 4e3d b51a 2d3e 32f0 68be 9daf f6bd
00000190: 4c21 913e dba8 d13d 3805 cfbd cf4d d7bd
000001a0: f76f b43d 48d7 fdbd 8f15 803e fe40 a23d
000001b0: f237 0f3e 36a1 38be 82dd e83d be2c 39be
000001c0: 12b6 8dbb bd1d ba3e 3382 a33d 573c 983e
000001d0: f979 c2be bd7f 81bd d7c2 4abe f9f7 39be
000001e0: fb4b 18be e61e 2f3e 9844 cfbd 6b27 da3d
000001f0: e383 a63e 1c81 213e eca9 c13d 0f21 543d
00000200: 1109 4c3e eb85 7dbd 3289 98be ec40 893e
00000210: 325c aabc a0d9 17be 188f 9a3d b1c6 a6bc
00000220: 7f04 463e 79e4 523d 3c1f 51be c242 bf3e
00000230: 500e 003e 63f9 113e 4f35 d23e d5a0 80be
00000240: 1322 8ebe f14e 10be a8eb 56bd f051 41bd
00000250: 930c f0bc dda9 6bbd b984 0abe 9648 93be
00000260: ba66 90bd ab1f 0c3e 8ce1 c0bb 973d 72bd
00000270: 565d 2d3e b606 a63e 5aed f03c db2b 8f3c
00000280: 1c7b b03d 6612 5abd 0daa d0bd 9202 11be
00000290: c62b 93bd 27f9 2b3d abde 52bd cc3c 7f3d
000002a0: e409 623d d0c5 513e db3e 163e c692 27bd
000002b0: c4be 83bd ce04 5bbe 591d 92bd 35bc a23c
000002c0: 7410 273e 3d2e 203d 10cf b83d 1e13 9abc
000002d0: eed4 143f a4d8 62be d0ea 47be dd3a 363e
000002e0: 2364 8abe 475b b13e a8f3 ee3b dc13 963d
000002f0: f7f5 a23d df0c 0cbd cebc d9be 2fe8 84be
00000300: 40e6 863c 3979 66bd 0978 453e 7626 ca3d
00000310: baaf 8abe e105 fabe 7cde 5fbd f70b 0cbd
00000320: a453 b2bd 1760 61be 3017 133e f719 a03e
00000330: 6dfc 9abe 7681 473e ff41 893c fc80 e4bd
00000340: 6714 89be 9e79 88be faa9 b23d 168e 2c3d
00000350: 79ba b93a 8eb7 b33d 5c99 123e 7e4b fd3d
00000360: bb66 6d3e b6b0 c4bd a505 81be 2ebf a8bd
00000370: 8a2e 05be 9b14 babe c2ce 11bd 630f c63e
00000380: 75f2 0a3d 65a6 dbbe f419 813c a7b7 85be
00000390: 4c8c 0fbd cfc3 bdbd 9901 e53b f2ac 79be
000003a0: f34c a8bd 7bf0 273e 72ba 4abe 1c6b 163e
000003b0: b04d ed3d f008 aebc 8b2e b6bd afcf 113e
000003c0: d1c5 3f3d 8a50 bdbd 5534 5fbd bc6f 413e
000003d0: c4d6 9dbc f650 6dbd 7b6e ddbd daba 47be
000003e0: 0a1d dbbd 847c 4cbe 9052 83be c110 5dbd
000003f0: 7c4c 01be 3639 0cbe 82c2 12bd 3f1f 9a3c
0.0051918295 0.53504056 0.21535896 -0.17112099 0.34006044 0.0923156 0.035952315 0.20626394
0.009879313 -0.051327083 0.21637571 -0.048666626 -0.11701183 -0.031407837 0.25305545 -0.08418482
0.4593484 -0.26214528 -0.006730852 -0.17625076 0.23705328 0.097660325 0.06919164 0.12714799
0.15486042 0.33359912 -0.1979733 -0.16201083 0.0778938 0.29352483 0.0845963 0.31970435
0.033420067 -0.102498084 0.032862738 -0.034463637 -0.2515406 0.39735347 0.17378134 0.16736817
0.12055381 0.19093746 -0.04339108 0.039161984 -0.21621367 0.099733174 0.0029983588 -0.04329454
-0.09038608 -0.03780392 0.30555224 -0.025465144 -0.033515356 -0.056379925 -0.31135976 0.2454684
-0.07823638 -0.055943668 0.050241668 -0.060987517 -0.052196693 0.17713144 -0.06688786 0.20247251
0.055954196 0.209318 0.11072444 -0.05525114 0.1904628 0.263056 -0.062093027 0.100409135
0.43702346 -0.24530621 0.006592848 0.34757388 0.25206536 0.2330935 0.032551218 0.10669261
-0.17805648 -0.15319821 -0.01101246 0.30645806 0.015508477 0.058926295 0.16539948 -0.33989227
0.036263794 -0.19646636 -0.02844104 -0.24216397 0.14672019 -0.06753085 -0.17816187 0.10886011
0.050420217 0.16904719 -0.22747877 -0.12045214 0.28345716 0.10237285 -0.10108417 -0.10512888
0.08810418 -0.12394577 0.25016448 0.079225525 0.13986185 -0.18030247 0.11370374 -0.18083474
-0.004324683 0.36350814 0.07983818 0.29733536 -0.37983683 -0.06323192 -0.19800888 -0.18161
-0.14872734 0.1710163 -0.10120505 0.1065205 0.32522497 0.15771908 0.09456238 0.05178934
0.19925334 -0.061895292 -0.29792172 0.26807344 -0.020795915 -0.14829111 0.07546824 -0.020358415
0.19337653 0.05148742 -0.20422071 0.3735562 0.1250546 0.1425529 0.41056296 -0.25122705
-0.27760372 -0.14092614 -0.052470833 -0.047197282 -0.02930287 -0.05753504 -0.13527192 -0.28766316
-0.070508435 0.13683955 -0.0058862623 -0.059140768 0.16930136 0.32426995 0.029410053 0.017476967
0.08617231 -0.053240202 -0.101886846 -0.14161137 -0.071860835 0.041985657 -0.051481884 0.06231384
0.055185214 0.20485616 0.14672415 -0.04091146 -0.0643287 -0.21388552 -0.07134504 0.019865135
0.1631487 0.039106596 0.09023869 -0.018807944 0.58137405 -0.22152954 -0.19523168 0.17795892
-0.27029523 0.34639952 0.0072922297 0.073280066 0.0795707 -0.034191962 -0.4252686 -0.25958392
0.016467214 -0.05626795 0.19284071 0.09870617 -0.27087194 -0.4883261 -0.054655537 -0.034191098
-0.087073594 -0.22009312 0.14364314 0.3126981 -0.3027071 0.19482979 0.016755102 -0.11157414
-0.26773378 -0.26655287 0.08723827 0.04212769 0.0014169953 0.08775245 0.14316314 0.123679146
0.2318372 -0.096040174 -0.2519962 -0.0823959 -0.13006034 -0.36343846 -0.03559757 0.38683614
0.03392263 -0.42900386 0.015759446 -0.26116678 -0.035045907 -0.09265863 0.006988716 -0.2438238
-0.08217802 0.1640033 -0.19797686 0.14689296 0.11587083 -0.021244496 -0.08895596 0.14239381
0.04681951 -0.09243877 -0.054493267 0.1889028 -0.019267447 -0.05793854 -0.10812088 -0.19504872
-0.10698898 -0.19969374 -0.25648928 -0.053971056 -0.12626833 -0.13693699 -0.03583003 0.018813727

actor.0.bias f4 [32]
00000000: eeef 713d 971f 823c ed04 b23d 3ad1 b9bc
00000010: 0856 91bc 9d7c b0bd 3466 b5bc 0000 0000
00000020: acf9 6e3c 4177 b93b f1a0 07bd f7bc ddbc
00000030: 1c17 c83c 650e af3c e453 09bc 926f 6abd
00000040: 0000 0000 0aec 093d 1753 00bc aee2 b4bc
00000050: af13 4a3b 4c74 a9bb 2f43 de3d 7b36 193d
00000060: ca1b a2bb d83d 91ba 846d cabb 05e8 553d
00000070: 1f18 04bd 4e45 3c3d 717c 00bc 68a5 623c
0.059066705 0.015884204 0.08692346 -0.022682775 -0.017741218 -0.08617518 -0.02214346 0.0
0.014585894 0.005659968 -0.03311247 -0.027067645 0.024425082 0.021369169 -0.0083818175 -0.057235308
0.0 0.03367237 -0.00783231 -0.022080746 0.0030834486 -0.0051713344 0.10852658 0.037405472
-0.0049471604 -0.0011081053 -0.006177606 0.052223224 -0.032249566 0.04596453 -0.007842169 0.013833381

actor.2.weight f4 [9, 32]
00000000: da69 c53e e7ad 41bc 7960 353e c55e e13d
00000010: 0a2f 213d 363c 2c3d 2861 843e 94c8 2bbe
00000020: 0dba b53d d612 f13d c050 babe ee7f b43e
00000030: edb9 a4be 2808 333e f58f cc3e 765f 9abd
00000040: f0ff 6dbe 6002 c2be 999b 59be 442a 8a3e
00000050: 059e 0d3e f4fd 1dbe cb50 8ebe d0e5 cebe
00000060: d5b0 ca3d 8479 503d 3627 283f 4834 623e
00000070: e0d5 5e3e 81cb 993c 39ad 1a3f 4ebf f7be
00000080: 6e94 54be edd7 15bf c65a 1b3f d3b6 c43e
00000090: fd0f 69be da86 1d3d bde1 c3bd 2383 d5bd
000000a0: 9131 0fbf 95a0 95bd d1a7 03bf 01f4 cdbd
000000b0: fc88 963d 9984 38be f3d5 2abe 8070 383e
000000c0: a600 2b3e 51f3 da3c 0aa4 3e3e f962 37be
000000d0: d0df 1c3c e603 153e 5b0a 98bd 8dfe ef3d
000000e0: 2e01 3fbe 5cbc 213e 1bab f7bc 97d0 063d
000000f0: 9c0f 74be 64fb 803e 4b8b e53d 021a 4f3e
00000100: 0437 46be e339 593d e50c 9bbd 64a8 b6be
00000110: 2221 103e 5986 053f 486f c03e 5bfb 973e
00000120: bb58 b9bd e130 4fbe b921 7ebe d36e 353e
00000130: 3d58 8cbe 85a9 213f 180a 433e 7f69 a43d
00000140: cb25 3b3d 6276 57be 2eee 0d3d 729b a6be
00000150: e5b4 9ebe 9f3d 353e 3cee 95be 86ff 033f
00000160: d5b9 4e3e dcd1 1fbe b5fc 9fbe 5cae ba3e
00000170: 7e45 05be 7174 47bd 14f9 ce3d 0845 833d
00000180: 8606 223d 163a 3dbf 0f93 18be 2e38 e33b
00000190: 7f4b b73e f5d2 38be b480 903e 21da 0dbe
000001a0: 7918 ac3e ff03 61be 6ce4 8c3e 17c2 543d
000001b0: 870a 58be fa89 fd3d 6405 1c3e 3817 e2be
000001c0: 62fa 873e 68f8 1cbe ca15 b03e 35a3 063e
000001d0: fa7f 9f3e 3f1a e83c 4e60 483e 0705 983e
000001e0: 571a a9be c7f5 4bbb 092b d83d 3e75 0cbe
000001f0: 00b7 09bb 1698 76bb dae3 61bc 7fb5 673e
00000200: f8d7 0fbe ac90 133e 1e2a da3e 4eb1 84bd
00000210: 00ae 713e 97d8 bdbd 6b27 e3be 40d1 783e
00000220: 1edc 50ba 7f6e f5be 21ef c93e 722a d83e
00000230: 7d6b 6ebe beb3 ac3d ce9c 3d3d 9281 aa3e
00000240: 3259 72be 6a29 0abe 9b1d e5bc 5923 813e
00000250: 577f 51be 4ea8 5fbd b7ec ddbe 39c8 6d3e
00000260: 3d65 b2be 5d81 3c3e dd85 7fbe 043f eabd
00000270: 9986 a03e bda7 e63e 765d fc3d 3564 4bbe
00000280: d446 66bd 6db0 b5bc e0b1 fa3d 378e 5ebd
00000290: 775f 13be 4bd2 bc3e 618b ff3e 2bad 603c
000002a0: 2cf0 8fbe 1c44 873d f926 ac3e 6e61 743d
000002b0: 904c 6d3e ce99 8ebe 3580 a13e b002 323e
000002c0: 780f f2bd dc4f 093f 21f5 0d3e 0aac 38be
000002d0: 621a 6c3e 60d6 b43e 8cfe 66be 84a3 2e3e
000002e0: a187 913e c4d7 2a3f 017d 00be 547e fbbd
000002f0: bce8 9e3c b6e1 c93e 2918 57be b376 ecbe
00000300: 3e05 143f aa31 80be 399c 97be 39a9 0cbe
00000310: 716d c3be 0cef afbd cb37 83bd 3d21 15be
00000320: 5fc4 22bd 215c e9bd 87ae bd3e f4f3 9e3e
00000330: 251b 093d c056 09be bc4b b1be d06f 573e
00000340: b694 ab3e 90a5 22be 3850 e73e 684c 61be
00000350: 4a13 91be 3ee6 82be d972 82be ed6f 883e
00000360: bbd4 a93e f62a 4e3e 4db1 993e 8957 a33d
00000370: d887 8dbd 3c7b debe f682 8d3e e0df ccbd
00000380: 01b4 843e f03a 683d f279 72be f21e 9dbc
00000390: 8686 71be b78b 71be d6aa 85be 1209 383f
000003a0: 3b99 70be c4b9 60bd b0f0 13be 58bd 40be
000003b0: 4c39 e9bc 6fcb 8a3e cd49 39be 28f1 15bf
000003c0: c4ea 68be 81ca 35be 7d4a 0e3e 1912 8a3e
000003d0: 4544 823e 8475 623e bc9f bf3e 73d7 743e
000003e0: f56b ebbb 8822 f53e 444a 0e3e f464 14be
000003f0: f84b b6be e6e5 dfbd f0bf 2abe faf9 56bd
0.3855732 -0.011821247 0.17712583 0.11004404 0.0393515 0.04204961 0.25855374 -0.16775733
0.08873377 0.11771171 -0.36389732 0.35253853 -0.321731 0.1748358 0.3995358 -0.07537739
-0.23242164 -0.37892437 -0.21250762 0.2698537 0.13829811 -0.15428907 -0.27796015 -0.40409708
0.09897009 0.050897136 0.6568483 0.22090256 0.21761274 0.018773796 0.60420567 -0.4838814
-0.20759746 -0.585326 0.60685384 0.38420734 -0.22760005 0.038458683 -0.095645405 -0.10425403
-0.5593501 -0.07306019 -0.5142794 -0.10056306 0.073503464 -0.18019332 -0.16683178 0.18011665
0.16699466 0.02672735 0.18617263 -0.17908849 0.009574845 0.14552268 -0.0742385 0.117184736
-0.18652794 0.1579451 -0.030232957 0.03291377 -0.2383408 0.25191796 0.11208209 0.20224765
-0.19356924 0.05303372 -0.07570819 -0.35675347 0.14075139 0.52158123 0.375849 0.29683957
-0.09050127 -0.2023349 -0.24817552 0.17718057 -0.2741107 0.6314929 0.19046819 0.08027934
0.04569034 -0.21041253 0.034650974 -0.3254047 -0.30997387 0.17699288 -0.2928332 0.5156177
0.20188077 -0.15607399 -0.31247488 0.3646115 -0.1301479 -0.04869503 0.10106102 0.06409651
0.039557002 -0.7391676 -0.14899848 0.0069341874 0.35799786 -0.18049224 0.28223193 -0.13852741
0.3361242 -0.2197418 0.27518022 0.05194291 -0.21097766 0.123798326 0.15236431 -0.4415834
0.26558214 -0.15329134 0.34391624 0.13148196 0.31152326 0.028332828 0.19567987 0.29691336
-0.33027908 -0.0031121837 0.10555083 -0.137166 -0.0021013618 -0.0037627271 -0.013787234 0.22627829
-0.1404723 0.14410657 0.42610258 -0.06479131 0.23601532 -0.09269827 -0.4436601 0.24298573
-0.00079673703 -0.47935864 0.39440253 0.42219883 -0.23283191 0.084327206 0.04629212 0.3330198
-0.23666838 -0.1349236 -0.027968219 0.2522228 -0.20458733 -0.054603867 -0.43344662 0.2322091
-0.34842864 0.18408723 -0.24953409 -0.114378005 0.3135269 0.4504985 0.12322514 -0.19862445
-0.05621989 -0.022178853 0.12240958 -0.054334845 -0.14391886 0.3687919 0.49911025 0.013713161
-0.28112924 0.06604788 0.33623484 0.05966323 0.23173738 -0.2785172 0.31543127 0.17383838
-0.11819357 0.5363748 0.1386304 -0.18034378 0.23056939 0.35319805 -0.2255804 0.17054564
0.2842379 0.6673548 -0.12547685 -0.122799546 0.019398086 0.39430016 -0.2100531 -0.4618431
0.578205 -0.2503789 -0.29611376 -0.13736428 -0.38169435 -0.085905164 -0.06407126 -0.1456346
-0.039738055 -0.11394525 0.37047216 0.31045496 0.033473153 -0.13411999 -0.34628093 0.21038747
0.33511895 -0.1588347 0.4517839 -0.22001803 -0.2833503 -0.25566286 -0.25478247 0.26647893
0.33170113 0.20133576 0.30018082 0.079756804 -0.06910676 -0.43453395 0.27638978 -0.10003638
0.25918582 0.056696832 -0.23679331 -0.019179795 -0.23586473 -0.23588453 -0.261069 0.7188884
-0.23495953 -0.05486466 -0.14447284 -0.18822229 -0.028469704 0.27108333 -0.18094559 -0.585711
-0.22745806 -0.1775303 0.13895603 0.26966932 0.2544271 0.22115141 0.37426555 0.23910312
-0.0071845003 0.47877908 0.13895518 -0.14491636 -0.35604835 -0.109325215 -0.16674781 -0.05248449

actor.2.bias f4 [9]
00000000: f3b7 b8bc d3ca dc3d 2253 49bd 176a 3c3d
00000010: 4d2b 21bd f724 613d fda8 493d f31e df3d
00000020: 0893 84bd
-0.022548651 0.10780873 -0.049151547 0.045999613 -0.039347935 0.054966893 0.049233425 0.10894575
-0.064733565

critic.0.weight f4 [32, 64]
00000000: 1471 053e 2727 a4bd c287 503e 5ad2 123e
00000010: 08b5 0d3e 1241 9e3e d856 c6bd fcdc 11bd
00000020: 3a29 143e df51 1fbe 5fd4 d9be a1aa b53e
00000030: b86c 9fbb 214e 9b3d b472 dabc 4bf5 cabd
00000040: 245e 473d 6d59 303d 5f4a 8cbd 8c2e 8dbe
00000050: f012 703d 4827 69be 2ab9 83bd c2d7 883e
00000060: 8b8a 28bd 99aa 893e ae56 043d 1ec7 53be
00000070: fffd 6c3e c93f 843e daa5 9d3e f6bd 8e3d
00000080: 5def c13c 4d8c a23d d5d3 2dbe cabe 66be
00000090: f209 6d3e 9cc2 a6bd 81ae a73d 9146 91be
000000a0: 27d5 9bbc e7ca a03d ca19 693e 4251 30be
000000b0: b215 8ebe 26d3 b83d 12b0 6bbe fe7f a0be
000000c0: dba7 1c3e 2c39 b6be 5d3e bdbc 70a8 f83d
000000d0: 51c2 00be ef9f 5abe bb66 32bd 3c5a a43d
000000e0: 484c 843e 5a84 1ebe 0341 db3e c0bc 7cbe
000000f0: 8107 9bbc 2046 a8bd 64a4 e13e 482d ac3d
00000100: 9ffd 773e 10b4 1e3c e628 30be 8ce6 aabd
00000110: 3cc4 5a3e a117 79bd e2d9 e13e 47f1 76bd
00000120: 4a25 a0be 22bd 153d df14 3d3e 322f e9bd
00000130: 1643 3b3e 73c4 fe3d e4ac 103e 2afd 9b3e
00000140: 6a4f bb3c dcdf c9be a011 11be 3dcf 603d
00000150: ce56 c03e 4a1e ec3d 0dc7 523e 6d34 d93d
00000160: c388 403c 51bf 793d 1505 1c3e 8757 4abe
00000170: e179 703d 3b99 3abd 3b34 a03d ff55 c7bc
00000180: dfc6 3d3e f336 8e3e eb5f 8dbd 258d d3bd
00000190: 8303 b43e f8fe 573d 10b8 0f3f 4db5 b1be
000001a0: d272 86be 84b4 c03d 9847 21bc 5c9c 7b3e
000001b0: f44a a1bb 69b5 0dbd a27e 003e 6cc2 393e
000001c0: 3bad 2b3d d37d 1f3d 7667 a43e c37e e33d
000001d0: 7666 9c3d 21c9 863d 8209 18be cbd7 ffbd
000001e0: fc83 afbd 82a0 273d 8988 a9bd 9683 db3c
000001f0: 4344 1bbe e952 8c3e cf89 883d 1201 8bbd
00000200: 52c3 b93c c7e1 b2be c1c2 c03d f21e 40be
00000210: 96ae 4abe ac9f 803d e472 5fbe 135f 2dbd
00000220: 0d75 8bbc 2168 97be 973d 323d 716b 8b3d
00000230: 8acd 893e 7766 a63d c9c0 15be 004d a73d
00000240: a610 29be 0405 0d3e 9227 9b3e 1a6a 413d
00000250: 40e6 043d c7fc 42bd d7e5 a8bb dce9 4cbe
00000260: abe6 203e 4096 17be e8c6 32bd bd8e 423d
00000270: 9e2b bc3c 52d0 943e b93a 82be 85ff a23e
00000280: 502d 5dbe 36a5 393e 9438 75bd 8ee2 b83d
00000290: 140e 133d aec2 1bbe b6c3 873e e344 3cbe
000002a0: 56f3 67bd 1bca 6cbc 5f75 1bbe 7dfe d7be
000002b0: 1dcf a93d 412b 933c 6145 9f3e fec3 1b3e
000002c0: ac37 de3d d43e 833d 8e96 8ebc 9757 c43e
000002d0: a8a9 59be 66a5 63be d771 ce3c b677 a13d
000002e0: e224 9dbe 4c45 ffbb 6c67 a8be 40b4 3b3b
000002f0: 110a c1bb 8ba6 19be a492 ae3d 3dbd d6bd
00000300: d99a 05bd 962e 1b3d bf50 5ebe a2bc 79bd
00000310: 8b44 123e 14ce b63d df71 b6bd 73e3 283e
00000320: 6352 57bb 601a 39be d916 e83c b7b6 353e
00000330: f1fb 183d 6843 183e ec11 74bb 5063 32be
00000340: 4b13 e3bc 9720 dcbd 5fbd aeba 31a0 0d3b
00000350: 8376 2fbe 0c6a 5f3e d431 0bbe 2ee8 1abe
00000360: 418b 10be d2d5 983d 5d11 0f3c e75a 10be
00000370: 6ff0 f7be 477a 5cbd 3912 6f3b 848c 55be
00000380: 8dd9 133e ba41 823e c1e3 283d c634 0abe
00000390: 09fe 1ebe 5f91 5c3e 961f 9cbe b844 9dbe
000003a0: 55d6 9b3d 7558 43be 7294 3ebd b48b 2fbe
000003b0: c86d eb3d 986f 8bb8 9396 ef3d 65ad 1b3b
000003c0: 3696 f03e 5d3f 29be 3d74 2eb9 e933 09be
000003d0: 46b5 f43e 4328 d2bd 0ce9 b1be 0330 82bd
000003e0: e828 e3bd aa3e 0a3c b7bd 7dbe 194d e63d
000003f0: 1c8d 26be 5969 8bbe 4c9c 093e 1ff5 aa3d
0.13031417 -0.0801528 0.20364287 0.14338055 0.13838589 0.3090902 -0.09684533 -0.035611138
0.14468852 -0.15558575 -0.4254484 0.35481742 -0.004865255 0.07583261 -0.026666023 -0.09910067
0.048673764 0.043054033 -0.06850123 -0.27574575 0.05861181 -0.22768891 -0.064318016 0.2672711
-0.04114775 0.26887968 0.032309227 -0.20681426 0.23143767 0.25829914 0.30790597 0.06969826
0.023673708 0.079369165 -0.16975339 -0.22533718 0.23148325 -0.081425875 0.08187581 -0.2837415
-0.019022537 0.078512006 0.22763744 -0.17218497 -0.27750927 0.09024648 -0.23016384 -0.3134765
0.15298407 -0.35590494 -0.023101026 0.12141502 -0.12574126 -0.21350072 -0.043555003 0.08025023
0.25839448 -0.15480176 0.42823038 -0.24681377 -0.018924477 -0.082165 0.44070733 0.08407074
0.24217843 0.009686485 -0.17203102 -0.083447546 0.2136392 -0.06081355 0.44111544 -0.060288694
-0.3127845 0.036557324 0.18464993 -0.11385955 0.1828731 0.124398135 0.14128453 0.30466586
0.022865016 -0.39428604 -0.1416688 0.054885138 0.37566227 0.11529215 0.20583744 0.106057025
0.011751357 0.06097347 0.15236314 -0.19759952 0.058709983 -0.04555629 0.07822462 -0.024332998
0.18532895 0.27776298 -0.069030605 -0.103296556 0.3515893 0.05273339 0.5614023 -0.34708634
-0.26259476 0.094094306 -0.009843729 0.24571365 -0.004922265 -0.034596834 0.12548307 0.18140572
0.041913252 0.038938355 0.32110184 0.11108162 0.076367304 0.06581331 -0.14847377 -0.12492331
-0.08570096 0.040924557 -0.08277995 0.026796144 -0.15162759 0.27407005 0.0666691 -0.067873135
0.022676144 -0.3493788 0.09412146 -0.18761805 -0.19793162 0.06280455 -0.21821171 -0.042326998
-0.017023588 -0.29571632 0.043515768 0.06807602 0.26914626 0.08125012 -0.14624323 0.081689835
-0.16510257 0.13771445 0.30303627 0.047220327 0.032446146 -0.04760435 -0.005154352 -0.20011085
0.15712993 -0.1480341 -0.043646723 0.047499407 0.022970017 0.29065186 -0.25435427 0.3183557
-0.21599317 0.18129429 -0.05986841 0.09027587 0.035902098 -0.15210983 0.26516503 -0.18385653
-0.056628548 -0.014452483 -0.15181492 -0.42186347 0.08291457 0.017964961 0.3110762 0.15211484
0.10850462 0.06408468 -0.017405774 0.38348076 -0.21256125 -0.22231063 0.025200767 0.07884161
-0.30692202 -0.0077902433 -0.32891405 0.0028641373 -0.0058910926 -0.15004937 0.08524063 -0.10485313
-0.032618377 0.037886225 -0.2171049 -0.06097091 0.1428396 0.08926025 -0.08908438 0.16493015
-0.0032855503 -0.18076468 0.028331207 0.17745481 0.037349645 0.14869463 -0.0037242128 -0.17420697
-0.02771916 -0.107484035 -0.0013331583 0.0021610374 -0.17135052 0.21817797 -0.13593227 -0.15127632
-0.14115621 0.07462658 0.008732167 -0.14097176 -0.48425624 -0.05382755 0.0036479367 -0.20854384
0.14438458 0.2544077 0.041232828 -0.13496694 -0.15526594 0.2153983 -0.30492848 -0.3071649
0.0760924 -0.19076712 -0.046528287 -0.17143136 0.114955485 -6.6488225e-05 0.11698642 0.0023754474
0.46989602 -0.16528077 -0.00016637235 -0.13398708 0.4779455 -0.102615856 -0.34748113 -0.06356814
-0.110917866 0.008437792 -0.24779402 0.11245174 -0.16264766 -0.2722881 0.13438529 0.083475344

critic.0.bias f4 [32]
00000000: 5a81 9f3d d8b5 023d c6f9 86bc 4445 42bb
00000010: c516 643c 3729 bcbc 0c8c 813d 6981 8a3d
00000020: 3c5f ff3b 6806 313d 88c6 783c 0000 0000
00000030: a48f 133d f9ba 903d 2436 333d 5d3c a63d
00000040: 07b8 803d b1c7 e43c ce7b 863d ab1e 2dbd
00000050: 84f8 713b 84fd 473d 9319 763d a0ce 41bb
00000060: 7ff5 59bc 230b 083d 9034 7c3d 234d 993c
00000070: 0fa4 053d b80b a53c 5598 333d 42d3 933d
0.07788344 0.0319117 -0.016476523 -0.0029643336 0.013921444 -0.022968872 0.0632554 0.06762964
0.0077933352 0.043219 0.015184052 0.0 0.03602566 0.07066912 0.043752804 0.08116982
0.062851004 0.027927252 0.065665826 -0.042265575 0.0036921808 0.048825756 0.060082983 -0.002957262
-0.01330316 0.033213746 0.061573565 0.01871354 0.03262716 0.02014719 0.043846447 0.072180286

critic.2.weight f4 [1, 32]
00000000: 08d9 103f 4da3 cbbd 83f4 c53c 796d cb3e
00000010: 9663 98be f040 62bd a860 443e 7f7b 083f
00000020: a880 f5bc 1225 9ebd 7d3b 7abe c6ec ec3e
00000030: ab3d bebd abfb 903f e41a 133e 3f32 4f3e
00000040: eab3 b73e 4084 2b3f 50d1 eebe 421e 86bd
00000050: f5ec a2be 717f 83be 8730 7b3f 6ab0 92be
00000060: 8aa5 48be 2a73 b0bd 714a 8d3e 9bf5 083d
00000070: 6a27 9ebe ded8 6cbd 1a28 bf3e ad35 ef3e
0.56581163 -0.099432565 0.024164444 0.39731959 -0.29763478 -0.05523771 0.19177496 0.5331344
-0.029968575 -0.07721914 -0.24436755 0.46274394 -0.09289106 1.1326803 0.14365727 0.20234011
0.3587945 0.6699867 -0.46644068 -0.0654874 -0.3182141 -0.25683168 0.9812092 -0.28650218
-0.19594398 -0.08615716 0.27595857 0.033437353 -0.30889446 -0.05782401 0.37335283 0.4672064
