logs/base_env_20250602_183057/checkpoint_episode_500.pt (torch, 450930 bytes, 39 tensors)

shared_net.0.weight f4 [128, 30]
000000 a2 17 48 3e 1e c9 63 3b 3a 12 8c 3e 01 2c 67 be
       0.19540265 0.0034757326 0.27357656 -0.2257538
000010 db 29 2e bd 69 24 f5 bd 93 f9 94 be f1 96 b4 3d
       -0.042520385 -0.11969835 -0.2909666 0.08817852
000020 85 5d e0 bc c9 eb a4 3d 38 29 22 be 0a c8 9b be
       -0.027388344 0.08052785 -0.15836036 -0.30426055
000030 ef 62 30 bd 1f fc 13 bc c2 35 ea 3d e2 21 29 bc
       -0.0430631 -0.009032278 0.11436035 -0.01032302
000040 39 fd 52 3d 2e 84 15 3e 6b 88 cc 3d 70 5f 8e 3c
       0.051511023 0.14601204 0.09986957 0.017379493
000050 68 cb c4 3d 2e 3c be bd 8c 38 39 3e 01 21 ff bc
       0.09609109 -0.09288822 0.18087977 -0.031143667
000060 c2 fa 10 3e 46 30 a4 3e d1 c0 07 3e 90 6a 50 3e
       0.14158157 0.3206808 0.13257147 0.2035315
000070 3a 17 3d 3e 96 ba 04 3e 0f b6 3c 3d 1b 21 d5 39
       0.18465891 0.12961802 0.046072062 0.0004065119
000080 a5 59 65 be e2 b7 4d 3d 14 61 99 3d f5 2a 26 3e
       -0.22397478 0.050224192 0.07489219 0.16227324
000090 cf 16 bf 3c 4b b0 65 3d 57 c6 d1 3d 84 4f ec bc
       0.023326306 0.05607633 0.102429084 -0.02884651
0000a0 13 70 86 3e f5 f0 23 bc 61 db 43 bc ee f1 1c ba
       0.2625738 -0.010006179 -0.0119541595 -0.0005986978
0000b0 be 9f c2 bc 77 ca 9d 3c 75 56 98 bd 52 10 39 3d
       -0.023757812 0.019261582 -0.07438365 0.04518158
0000c0 3e ca 04 3e 49 b9 3f bd 54 c8 2b be cf 2e e9 ba
       0.12967774 -0.04680756 -0.16775638 -0.0017790439
0000d0 9e 37 11 3d c3 61 f3 bd 8e 4b bd 3d 2b 33 38 bd
       0.03545343 -0.11883881 0.092429265 -0.044970673
0000e0 d0 a4 b1 bc d5 49 82 3e ca bb 84 bb 4d 7c 64 bd
       -0.021685034 0.25446954 -0.0040507065 -0.055782605
0000f0 2a 1a 70 bd af 06 cc 3d e1 80 38 bf f6 95 f8 bc
       -0.058618702 0.09962212 -0.72071654 -0.030344944
000100 3d de 73 3e 67 9d 1f be 6d 4c 97 3e 27 d6 eb bd
       0.23815246 -0.15587388 0.29550496 -0.11515456
000110 42 47 01 3e e6 93 e3 3c d0 80 6f bd 2d a0 3c 3e
       0.12624839 0.027780484 -0.058472455 0.18420477
000120 0a 6b 6c be fc 02 3e bd 3d ab 79 be 33 06 b3 bc
       -0.23087707 -0.046389565 -0.24381728 -0.021853542
000130 8b 71 db bd 0d de a8 3d 91 e3 db 3c 98 18 5d 3c
       -0.10715016 0.08245478 0.02684191 0.013494633
000140 eb a3 0b be 48 28 50 bd 0e a1 00 3d 74 fb e2 3d
       -0.13636748 -0.050819665 0.031403594 0.11083117
000150 68 18 9b bc 58 1c 4b be fe 24 c9 bb 6c 60 8c bd
       -0.018932536 -0.19835031 -0.006138443 -0.068543285
000160 de 74 df 3c 8b 4a e6 bd 29 1e 52 3e c5 eb 2e be
       0.027277406 -0.11244687 0.20519318 -0.17082126
000170 97 d6 af 3d d9 33 8a bd fa 59 cc 3d ee 25 12 be
       0.08585852 -0.067481704 0.09978099 -0.14272282
000180 f9 3e a8 be 9a 1e 82 be ac a0 14 be f8 d7 0e be
       -0.32860544 -0.25413972 -0.14514416 -0.13949573
000190 fb 9b cd 3d 34 93 d1 bd 8d 3a a2 be d1 40 71 be
       0.100395165 -0.10233155 -0.31685296 -0.23559882
0001a0 8f d5 16 be 3e 0e f3 3d be 4b 0d bd e6 ce 3a be
       -0.14729904 0.11867951 -0.03449606 -0.18242988
0001b0 e1 8c 09 be 87 e3 2f be a8 eb 41 3d 8b 56 6f 3d
       -0.13432647 -0.17176639 0.04734388 0.058432143
0001c0 60 8f 85 3e 28 27 d9 3a 70 ad cb ba 9a f1 07 bd
       0.2608595 0.0016567456 -0.0015539359 -0.033189394
0001d0 9a ad ef bb bd 77 69 bd 5c a8 ce 3d b5 99 aa bd
       -0.007314396 -0.056998957 0.10090706 -0.083300985
0001e0 24 3c c3 3d 50 5c 12 be 9a 1e 5a 3e 29 f6 4a 3e
       0.09532955 -0.14293027 0.21300736 0.19820465
0001f0 97 0e 87 be 38 75 52 3d 95 37 24 3d a3 05 8a be
       -0.2637832 0.05138132 0.04009207 -0.26957425
000200 89 5e b2 be 63 3c da be 90 fb 5f be 53 c4 b7 3b
       -0.3483775 -0.42624196 -0.21873307 0.0056081205
000210 70 30 88 3d 64 8b e5 be 66 2a af be db e5 44 bc
       0.06649864 -0.4483291 -0.34212035 -0.012017692
000220 71 3f 2b be 08 b1 56 be a2 92 37 3d 68 40 5e be
       -0.1672342 -0.2096597 0.044817574 -0.21704257
000230 5f ba 01 3e 27 d3 6e 3d 2c e2 7e be a1 ee 07 3d
       0.12668751 0.05830684 -0.24890965 0.03318656
000240 1c ba 39 be 97 0e bf 3c 8f fd ca 3d 69 bb 1a bd
       -0.18137401 0.023322387 0.09911644 -0.037776385
000250 95 47 62 bc d7 f7 63 3e 85 ec b1 3d 3d ed 86 bc
       -0.013811012 0.22262512 0.08687691 -0.016470546
000260 28 54 1a be e8 a5 bb bd a6 6f a5 3c 85 09 a0 3d
       -0.15071166 -0.091625035 0.02019484 0.07814316
000270 20 de 1b 3e b2 f8 25 be 36 d2 f7 bc e5 5e 57 be
       0.15221453 -0.16208151 -0.030251604 -0.21032293
000280 a7 87 b4 3d c2 46 4b 3e d2 4d e2 3d bc 16 22 3d
       0.08814936 0.1985121 0.11049999 0.039572462
000290 a7 17 4f be 0f 3a 6d 3c 57 80 31 3e a9 be 0d 3e
       -0.20223866 0.014479174 0.17334114 0.13842262
0002a0 79 7b 09 bd f0 4e 73 bb ed 87 0e bc d8 81 46 be
       -0.03356502 -0.0037125908 -0.008699399 -0.19385469
0002b0 79 de 7e bd 7d 6b 0c be 8e 81 36 be ae a8 43 3e
       -0.062223885 -0.13712879 -0.17822859 0.19107315
0002c0 fe 2e 27 3c ae 63 46 3d db 34 8d be 39 6e 5b be
       0.010204075 0.048434906 -0.27579388 -0.21428765
0002d0 0f c0 13 3e 0b 6d 67 3d f5 db e2 be be 89 1c be
       0.14428733 0.056500476 -0.4430844 -0.1528692
0002e0 f9 80 27 3e fb 34 4d 3e b5 e5 d1 3e cf 7d e2 3d
       0.16357793 0.20039742 0.40995565 0.11059152
0002f0 77 5e ef bd 49 67 13 3e f8 9c df 3c d6 59 94 3e
       -0.116879396 0.14394869 0.027296528 0.2897479
000300 9c af f2 3d 06 22 d6 3d 24 16 80 3e ea 92 a1 3e
       0.11849901 0.10455708 0.25016892 0.315574
000310 7e 1a 9f 3e 04 ac 25 3d 81 6c 7e 3d e6 1d b0 3b
       0.310749 0.04044725 0.062115196 0.005374658
000320 32 84 cb 3c e5 a6 c0 3e 90 7e 69 3e 93 e6 ef 3d
       0.02484331 0.3762733 0.22802186 0.117139004
000330 ad 2e 58 bd c6 be 9a bd 9d 84 2d 3e 95 33 09 be
       -0.05277889 -0.075559184 0.16945119 -0.13398583
000340 1e 5a 3e 3d 39 62 e3 bd 2b 00 d0 3b 1e 04 ba 3d
       0.04647266 -0.11102719 0.0063476763 0.090828165
000350 7e 8c 49 be 8a f0 bf bd 62 97 dd 3e 06 42 ea 3e
       -0.196825 -0.09372051 0.43279558 0.45753497
000360 67 b4 1e 3e 50 ae 56 3e 7c c7 8c 3e 0b 06 74 3e
       0.15498506 0.20964932 0.27495944 0.2383043
000370 e4 e4 85 3e 28 18 78 3e 3d 70 7b 3e 8f 1d 8b 3e
       0.26151192 0.24227965 0.24554534 0.2717099
000380 5a 34 0d 3e 95 98 02 3e 35 95 0d 3e 31 88 20 3f
       0.13789502 0.12753518 0.13826449 0.6270781
000390 57 cb 0d 3f 8f 2b 4b 3d 2c ae 10 3e a7 11 ab 3e
       0.55388397 0.049602088 0.14128941 0.33411905
0003a0 20 9d d2 3d 6e b8 92 3e dd a8 60 3e 0f e5 8f 3e
       0.102838755 0.28656334 0.21939416 0.28104445
0003b0 9f 36 78 3e 5c 28 a6 bd fa 49 4b 3e eb 93 cc 3e
       0.24239586 -0.08113167 0.19852439 0.39956602
0003c0 04 81 14 bd c4 81 1d be 0a 89 0a be 1b 4e 65 be
       -0.03625585 -0.15381533 -0.13528839 -0.22393076
0003d0 09 06 5c 3e 2b 85 e4 3d f2 b4 fb 3b 69 c3 0d be
       0.21486677 0.11158212 0.0076814825 -0.13844074
0003e0 5b fd b5 3d 88 ed 6d be ff ba ce bd 3c f5 45 bb
       0.08886214 -0.23235142 -0.100942604 -0.0030205986
0003f0 72 12 dc 3b e8 44 0e be fc 19 8a 3d 6a cd 72 bd
       0.006716066 -0.13893473 0.067432374 -0.05927793

shared_net.0.bias f4 [128]
000000 85 f7 2e bc 4f eb ed 3d 5d e2 22 3d 0c 58 44 bd
       -0.01067913 0.11617147 0.039766658 -0.04793553
000010 c7 98 a1 3d 3d b5 ae 3d 92 24 e1 3c d7 da 44 3d
       0.07890468 0.08530662 0.027483258 0.048060264
000020 43 fb 5f bc ec f3 c8 bc b2 b6 34 bd 01 52 21 3c
       -0.013670745 -0.024530374 -0.044119544 0.009846211
000030 d1 dc ae 3c 2c 6d 1e 3d 8a 1a 97 3d 48 12 06 bb
       0.021345528 0.038678333 0.07378109 -0.0020457674
000040 b9 32 64 bd e7 8d d1 3d a3 0e 30 bc 63 13 0b 3e
       -0.055712435 0.10232144 -0.010745677 0.13581614
000050 80 19 1f 3d 9f 83 5e bc df 11 ba 3d 0b c4 b4 3b
       0.038842678 -0.013581186 0.0908544 0.005516534
000060 00 00 00 00 f8 c7 8a 3c 07 27 2b bc e6 4f cf bc
       0.0 0.016941056 -0.010446317 -0.025306653
000070 1f a1 9a bc 44 bf 21 3e e2 c2 6c bd 7e 49 97 3d
       -0.018875657 0.15795618 -0.057803042 0.073870644
000080 3f 12 a1 bb 3a 01 e7 3d ce 04 4c 3e 81 2c c4 3d
       -0.004915505 0.11279531 0.19923708 0.09578801
000090 20 88 72 3d ce ed 21 3e 48 ec d8 bd 5e a4 9f ba
       0.05921185 0.15813372 -0.10591942 -0.0012179723
0000a0 54 cc 94 3d 66 c3 e5 bb e3 5d 94 bb 51 9c af 3c
       0.07265535 -0.0070118187 -0.0045277937 0.021436842
0000b0 98 7d 8b bd 27 aa 62 3c b7 cb 02 3e 76 cd 1e bc
       -0.068110645 0.013834513 0.12773024 -0.00969254
0000c0 39 c8 6e bb 05 94 83 3c 00 d2 b3 bd 30 10 94 3d
       -0.003643526 0.016061792 -0.08780289 0.0722965
0000d0 e5 06 21 3d 50 2e 86 bc cf f9 ae 3d ff 02 24 3d
       0.039313216 -0.016379505 0.08543741 0.04004192
0000e0 00 00 00 00 f9 1a c3 3c 35 26 d2 bc 1d 25 ee bc
       0.0 0.023816573 -0.025652984 -0.029070431
0000f0 6c 29 b8 bc 92 6e c7 3d 75 be 2e bd 5d 05 ed 3d
       -0.022480689 0.097378865 -0.042662103 0.115732886
000100 4f 48 84 3d 62 de 3f 3d 3e 59 15 3e 57 b9 45 3d
       0.06459104 0.04684294 0.14584824 0.048272457
000110 75 01 80 bd 78 d4 80 3d 32 18 8f bd dc 72 bc bb
       -0.06250278 0.06290525 -0.06987037 -0.005750997
000120 37 82 98 bd 5e b5 9a bc 52 67 2a 3d 49 d1 28 3d
       -0.074467115 -0.01888531 0.04160244 0.041215215
000130 ee cf 9b 3d 11 fa e7 3b cc 21 07 bb 94 dd 40 3d
       0.07608019 0.007079371 -0.002061951 0.047086313
000140 3d ca 87 bc 45 ce ee 3c cd ec 1e 3d cd 19 33 bd
       -0.016575927 0.029151091 0.03880005 -0.043725777
000150 11 8e e5 3c e8 99 d5 3d dd 9a df 3c 42 b1 92 bc
       0.028021844 0.10429746 0.027295524 -0.017906789
000160 9a ed cd bb fb 21 1d 3d 7e c8 50 3c fa bc 18 bc
       -0.006284428 0.038362484 0.012743114 -0.009322399
000170 0b dc e5 3d 7f e4 fb 3d a2 df 2d bd 22 13 46 bd
       0.112236105 0.122994415 -0.0424496 -0.04835809
000180 ad 25 15 3d c7 a1 ad 3d 29 6e 25 3e 19 2d 18 3d
       0.036412884 0.08478122 0.16155304 0.037152383
000190 dd 08 b0 bb f0 90 c1 3a 40 ab a7 38 7a ab c6 3d
       -0.0053721503 0.0014767926 7.995078e-05 0.09700675
0001a0 ea 6f a9 3c bc e6 2c 3c b3 f2 c8 3d 1f 85 59 3c
       0.020683248 0.010553058 0.09811916 0.013276367
0001b0 8d 46 5f 3d 21 69 27 3d f4 11 82 3d 00 00 00 00
       0.05451064 0.040871743 0.063510805 0.0
0001c0 20 a4 3b 3d 32 8e ac 3d 52 92 a0 3d 4e 78 1f bd
       0.04581082 0.08425559 0.078404084 -0.03893309
0001d0 f2 d9 8e 3c af 36 e5 3d 6a 8a 7f bc e9 56 41 bd
       0.017437909 0.11192071 -0.015596965 -0.047202025
0001e0 1a 9c 0b bc 00 00 00 00 3e 51 93 3c a2 bc d5 bc
       -0.008521104 0.0 0.017983075 -0.026090924
0001f0 c3 bf 33 bd d6 23 11 bd ac 69 55 3d 17 66 70 bc
       -0.04388405 -0.035434566 0.05210273 -0.014672778

shared_net.2.weight f4 [128, 128]
000000 b8 f3 ad bc a2 9b 37 3d 2e 1b 9b 3e 96 d4 bf 3d
       -0.021234378 0.044826157 0.30294174 0.093667194
000010 18 94 81 bd c4 c4 04 3e cc 9f a6 3d a2 0b 7e 3c
       -0.06327075 0.12965685 0.081359476 0.015505703
000020 16 d2 9a bd 34 57 11 be 42 91 98 bd 29 58 34 be
       -0.07559602 -0.14193422 -0.07449581 -0.17611755
000030 f1 f5 49 be e9 4e 92 3c e3 4e 60 be 55 7f a8 bd
       -0.19722725 0.017859893 -0.21905093 -0.08227412
000040 0c 34 87 3e 75 24 d6 3d a0 fa a9 3d 2e b2 e8 3d
       0.26406896 0.104561724 0.08299756 0.1136211
000050 b5 e5 92 3e 63 d9 45 bb 26 a6 a9 3d 46 d8 42 3e
       0.28690878 -0.0030189387 0.082836434 0.19027814
000060 5f d3 f8 bc 6f fa 4c 3d f7 cb 3e be 96 8a 77 bd
       -0.030374227 0.05004352 -0.18632494 -0.0604349
000070 96 0c e3 bc 3d 9b be bc 72 ca f6 bd ae ab b3 bd
       -0.027715962 -0.023267383 -0.12050332 -0.0877298
000080 8c e5 26 be 00 55 ad 3c 9c 6b fa bd 09 21 8d 3d
       -0.16298503 0.021158695 -0.12227556 0.068910666
000090 da f9 5d 3d a4 f1 d2 3d a2 16 9d bd f7 7c a9 be
       0.054193355 0.102999955 -0.076703325 -0.33103153
0000a0 6a 73 40 3d 3a c5 04 be 3a dd 06 3c 4b b1 c9 bd
       0.046985067 -0.12965861 0.008231455 -0.09848269
0000b0 60 29 9f 3d 38 1c 2b 3e f2 54 aa 3d 7a 05 bb 3b
       0.077715635 0.16709983 0.08316983 0.00570744
0000c0 1d 20 26 bd e7 ea bb bd 84 9b 8a 3c ce 7f 60 3e
       -0.04055797 -0.091756634 0.016919859 0.21923754
0000d0 cb 2a 14 bd 78 d0 bc 3d 30 43 6c 3d 2d dd 06 be
       -0.036173623 0.0921945 0.057681262 -0.1317031
0000e0 4a 0b 5c be 48 e8 a7 3c e6 75 d7 bc fe bb 0c bb
       -0.21488681 0.020496503 -0.026301336 -0.0021474357
0000f0 c8 ff 10 3e 02 52 ba 3d 34 64 db 39 f6 df 14 3d
       0.14160073 0.09097673 0.00041845592 0.0363464
000100 3b fc 98 3b fb 0f 2a 3e 82 d1 7c 3d cc 77 c0 3d
       0.00466874 0.16607659 0.06172324 0.093978494
000110 d8 ea 1b be b1 67 57 3e ef 14 70 be 1f bf 83 be
       -0.15226305 0.21035649 -0.23445486 -0.2573175
000120 3c cf 2e be ac 35 5f be 3c 58 09 3e c8 db 09 3d
       -0.17071241 -0.21797818 0.13412565 0.033656865
000130 41 03 b5 3e 0f a1 21 3e 21 ba 9c bd 02 b7 16 be
       0.35354045 0.15784095 -0.07652689 -0.1471825
000140 fb e0 a5 be 2b 0b 53 3e 6a 2d 4c 3d 3d c0 b1 bd
       -0.3239821 0.20609729 0.049847998 -0.08679245
000150 2b e3 17 3e cf 3a c7 3d 4f a2 90 3c 3a fe a5 3e
       0.14832751 0.09728014 0.01765552 0.32420522
000160 1d 3c 29 3d 0f 26 24 be 1f f6 db 3d a1 bb 64 be
       0.041317094 -0.16030143 0.10740303 -0.223372
000170 28 0a df b9 fb f4 25 3d 50 d1 27 3d 20 b9 44 3e
       -0.00042541442 0.040516835 0.0409711 0.19211245
000180 5c 76 6d be 2b 9f 8e be fb 8b bd 3d 29 e7 31 be
       -0.23189682 -0.2785581 0.09255215 -0.17373337
000190 ad 16 68 be 24 16 e1 bd 13 47 a1 3d 02 ef 9b 3e
       -0.226649 -0.10990551 0.078748845 0.30455786
0001a0 80 15 a1 3d ef f3 37 3d 4e cf b4 bd 30 d7 fe bd
       0.07865429 0.044910368 -0.08828603 -0.124433875
0001b0 83 6a da 3d f9 e7 83 be 0e 4e 35 bd e6 c2 e6 bd
       0.10664847 -0.2576292 -0.044263892 -0.11267643
0001c0 06 ad 9a 3d db 21 ca bd fa b3 28 3e e4 54 51 bd
       0.07552533 -0.09869739 0.16474906 -0.05110635
0001d0 c6 1f 24 be 91 c4 54 bd 96 00 df bc 76 63 f1 bd
       -0.16027746 -0.051945273 -0.02722196 -0.11786549
0001e0 f7 fc 59 bd e5 29 1e 3e db bf 26 3d ef c6 7b 3c
       -0.05321976 0.15445669 0.04071031 0.015367254
0001f0 16 7e 0d bd 30 dd dc 38 f8 c2 95 3d ee ef c1 bd
       -0.034544073 0.00010531617 0.07312578 -0.09469591
000200 d5 eb 80 bd 40 c7 df bd 40 be 81 3d 94 1c 71 be
       -0.062949814 -0.10926676 0.063351154 -0.23546058
000210 0e 31 c7 3d 15 cb f2 3c 24 5f 4d be ae b7 8d 3d
       0.09726153 0.029637853 -0.20055825 0.069198
000220 fb 33 04 be a9 12 ef bd c9 ba d3 bd 07 24 83 3e
       -0.12910454 -0.11673481 -0.10338361 0.25613424
000230 ce 9d 0e bb 67 44 a6 3c 36 a7 77 3c 24 59 0f be
       -0.002176154 0.020296289 0.01511555 -0.13998848
000240 c3 02 98 3a ab 13 b6 bd 8c dd c9 bc 44 32 62 3d
       0.0011597503 -0.0889047 -0.024641775 0.05522372
000250 15 f0 0f 3e bb 0d 0f 3e d2 d5 81 3e 7f da c8 bd
       0.14056428 0.13970082 0.25358444 -0.098073
000260 80 00 14 3d 2a 99 8c bd 38 42 05 3d 1c 94 1c 3d
       0.03613329 -0.06865151 0.032533854 0.038227186
000270 40 48 a2 bd cf dc 30 be b2 fc 45 3e 0e dd 2b bd
       -0.07923937 -0.17271732 0.19334677 -0.04195886
000280 31 14 76 3e 58 21 c2 bd dc 6c f7 3d d0 bc e2 bd
       0.2403114 -0.09479016 0.1208131 -0.110711694
000290 68 6e cc 3c d1 bc e6 3d 30 b7 12 3e 46 9d 93 be
       0.02495499 0.112664826 0.14327693 -0.28830928
0002a0 16 c6 6c be 80 fd 2a be 8b 16 74 3d 90 13 9a 3d
       -0.23122439 -0.16698265 0.05959181 0.075232625
0002b0 6c 65 77 bd 10 62 5e 3e 60 a8 b1 bd 72 87 ab bd
       -0.060399458 0.21717095 -0.08674693 -0.083754435
0002c0 53 73 42 3d 36 ae ea bc 00 05 3d 3c 6e 8b bd 3d
       0.047473263 -0.028647523 0.011536837 0.0925511
0002d0 51 49 b2 bd 57 5c c4 bd 9f 74 84 3d 4c 7e 9e 3c
       -0.0870539 -0.09587925 0.06467556 0.019347332
0002e0 bd 98 57 bd b9 78 37 3e db af 1b be df 7c b2 bd
       -0.052635897 0.17917146 -0.15203802 -0.087152235
0002f0 36 e9 58 bc 5c f0 5b 3e 38 da 81 3d 03 68 32 be
       -0.013239196 0.21478409 0.0634045 -0.1742249
000300 eb 93 04 be 21 4b 1a bd a9 c7 31 3c cd 0d 1b 3d
       -0.12947051 -0.037669305 0.010850825 0.03785496
000310 58 f8 22 3e 70 ae 91 bd 1d 6a 83 3e b0 ff 66 be
       0.15915048 -0.071133494 0.25666896 -0.22558475
000320 b1 e9 78 be 2c 0b e8 3c ea 4f 1c 3d ba 9f 05 3b
       -0.24307896 0.02832564 0.03816215 0.0020389394
000330 85 17 a7 3b 8a c0 29 bd 98 93 53 bd 6f 74 0d be
       0.0050992393 -0.041443385 -0.05165443 -0.13813947
000340 cb 4b 27 3e f4 d8 10 3e 39 c9 34 bd 2c 2c 40 3d
       0.16337506 0.14145261 -0.044137213 0.046917126
000350 75 73 b8 bd b2 a2 a2 bd a0 31 11 3c 95 58 0a 3e
       -0.09006397 -0.07941188 0.008861929 0.13510354
000360 99 50 17 be 49 b2 74 3d 12 10 54 3d 32 1f 45 be
       -0.1477684 0.05974034 0.05177314 -0.19250181
000370 86 33 fd bd 80 cf a5 3d 2e a7 b5 3d 29 b6 16 be
       -0.12363343 0.08096218 0.088697776 -0.14717926
000380 4f 68 19 3d f9 5e 04 3d 85 12 2b 3e c3 7d 9d bd
       0.037452992 0.032317135 0.16706283 -0.07690003
000390 79 2e da 3c b8 1e 34 3e a1 4c de bd e3 1e 92 bd
       0.026633488 0.17589843 -0.108544596 -0.071347974
0003a0 2b 17 a4 3e ac 73 b7 3d 7b ba dc 3d 28 d6 5a 3e
       0.32048926 0.089576095 0.10777756 0.21370757
0003b0 1f 3e 88 be f5 82 86 bd 5a b7 61 3d d6 e4 8d 3d
       -0.26609895 -0.06567947 0.0551065 0.069284126
0003c0 2c bd 90 bc a0 4d 44 be a2 a9 d7 bd 4a 08 10 3d
       -0.01766833 -0.19170237 -0.10530402 0.035164155
0003d0 aa 8d 97 bd 6c 6d d5 bd ef 3f c6 bb aa ba 21 3e
       -0.07400067 -0.10421261 -0.006050102 0.15793863
0003e0 23 ba 04 3e 43 4c 98 3d 36 db a6 3c 19 92 33 be
       0.1296163 0.07436421 0.0203682 -0.175362
0003f0 ee db 80 bd fa 3e 3c be 8b ac 35 be b4 41 17 bd
       -0.06291948 -0.18383399 -0.17741601 -0.036927894

shared_net.2.bias f4 [128]
000000 7d 3c 0e 3d 7f 4c c1 bc 27 ba 90 bc be 16 4e 3d
       0.034725655 -0.023596046 -0.01766689 0.050314657
000010 91 12 08 bc 00 00 00 00 3b 0e 00 bc ec 66 65 3d
       -0.008305208 0.0 -0.007815893 0.056006357
000020 00 00 00 00 45 3a 81 bb 66 af 14 3d 9b b6 f2 3c
       0.0 -0.003943714 0.036300085 0.029628089
000030 0f 4d 8c 3d 0d 91 1e 3d 39 ea 0c 3e 66 44 51 3d
       0.06850635 0.03871255 0.13761224 0.05109062
000040 b7 3a 15 bb 89 ed 8e bd 00 6b 54 bc b9 c1 13 3d
       -0.0022770592 -0.069789 -0.012964964 0.03607342
000050 2d 5e 12 3e 60 47 85 3c 81 49 1c 3d 3a 0e a2 3b
       0.14293738 0.016269386 0.038156036 0.0049455436
000060 df 22 cb bb 82 06 a1 3d 1f 3c cd 3d 00 00 00 00
       -0.0061992253 0.078625694 0.10021233 0.0
000070 22 d3 64 bc 00 00 00 00 e2 fa c0 3d 98 cf a2 3d
       -0.013966354 0.0 0.09422852 0.079497516
000080 69 65 0d 3e 8d e6 ef bc 42 ea a7 bc e2 44 a0 3a
       0.13808216 -0.02928474 -0.020497445 0.001222756
000090 3c 49 ef bb b6 5f a9 3d d2 6e a3 3d 3f e2 54 3d
       -0.0073024314 0.082702085 0.07980122 0.051973578
0000a0 67 24 f4 3d 73 10 d6 3c bb 7d 23 bc ea ce 06 3d
       0.11921006 0.02613089 -0.009978707 0.032912172
0000b0 90 cc 72 3d 63 4d f0 3d 55 9d 85 3d 6f bf 22 bc
       0.059277117 0.1173351 0.06524149 -0.009933337
0000c0 00 00 00 00 f9 46 df 3d cc 3a 11 3d 1d d4 79 bb
       0.0 0.10902209 0.035456464 -0.0038120814
0000d0 07 5a 0b 3d fa 97 d2 3c 33 b8 1e 3d 7d 9f a3 bc
       0.034021404 0.025707234 0.038749885 -0.01997351
0000e0 d9 ad 90 bd c5 79 a2 3d 88 f5 19 3e 3f d7 c5 3c
       -0.07064409 0.07933382 0.15035069 0.024150489
0000f0 bf 2d 93 3b 02 ad 85 bc 6b 83 0a bc 85 a1 c9 bc
       0.0044915373 -0.016317848 -0.008454184 -0.024613151
000100 d8 72 f7 3d f9 87 a9 bc 09 2c d8 3d 8f 19 61 3d
       0.120824516 -0.02069472 0.10555274 0.054956015
000110 db 04 f2 bc 21 d3 10 3d 19 b4 dd bc 0c e2 d4 bb
       -0.02954333 0.0353576 -0.027063416 -0.0064966734
000120 c5 d7 07 3d 31 52 8a 3c fa 4f cc 3b 42 ad 44 3d
       0.03316476 0.016884895 0.00623512 0.048016794
000130 0a 03 ae 3d c5 85 61 3b 00 00 00 00 3e 13 ad ba
       0.084966734 0.0034412008 0.0 -0.0013204587
000140 ca 45 97 3d 09 70 69 3d d3 d2 b8 bc 3b 0d 96 bc
       0.07386358 0.05699161 -0.022561466 -0.018316856
000150 b0 04 2c 3d bb b0 c3 3d b6 6d 45 bc c3 e6 9d 3b
       0.041996658 0.09555193 -0.012050083 0.0048187687
000160 75 60 26 3e 49 ad 1a bc 00 fa 49 39 1b 4d 26 3c
       0.16247733 -0.009440728 0.00019261986 0.010150219
000170 ac a5 c2 bb 94 e6 4c bd bc 83 a1 3d 00 00 00 00
       -0.00594016 -0.050024584 0.078864545 0.0
000180 47 c0 01 bc 3c f6 8d 3d 4c f6 b3 3d 3a 79 97 3d
       -0.007919378 0.06931731 0.08787212 0.07396169
000190 18 09 fc 3d 0a 50 8c 3d 3e 4f 6f 3c 75 12 18 bb
       0.12306422 0.06851204 0.014606295 -0.002320436
0001a0 aa 15 6c 3b fc 28 23 bc 00 00 00 00 e7 89 92 bd
       0.0036023655 -0.009958502 0.0 -0.07155209
0001b0 7f b4 83 bc c7 f0 57 3d 48 b4 fe bc 7b e5 9b ba
       -0.016077278 0.052719858 -0.031091824 -0.0011893952
0001c0 6a d2 82 3d 55 84 2d 3c c6 a4 3c 3d 30 bd e0 3c
       0.063877895 0.010590632 0.046055578 0.027433962
0001d0 36 af 0f 3d 8a 2d 19 3e 85 3a 05 3e 74 60 cf 3c
       0.035079204 0.14958778 0.13010605 0.025314547
0001e0 4c a3 8e bc 87 78 84 3d 19 3b dd 3c ab 86 31 bc
       -0.01741185 0.06468301 0.027005719 -0.01083533
0001f0 d6 27 71 bb ff b3 a8 3d 33 34 8c 3d 7b af 06 bc
       -0.0036797426 0.082374565 0.06845894 -0.008220549

shared_net.4.weight f4 [64, 128]
000000 74 2d 6f be e3 be 0a be c7 d5 3f 3d 48 4b db 3d
       -0.23357183 -0.1354938 0.046834733 0.10707718
000010 59 47 4a 3d b7 bc 1b 3d a0 08 50 3d 00 de 98 ba
       0.04938445 0.03802177 0.050789475 -0.0011662841
000020 4d 0b de bc da fb 92 3e 49 13 0f 3a cd b6 d5 ba
       -0.027104998 0.28707772 0.0005457891 -0.0016305089
000030 75 f1 94 3d 1a bf 35 3e 22 81 01 bd 76 8a 9e bd
       0.07272617 0.1774868 -0.03161729 -0.07741253
000040 d8 93 df 3d c9 07 1f be 2c da c4 3d 63 9a b0 bd
       0.10916871 -0.15530314 0.096119255 -0.08623197
000050 5f 5d de 3d 97 6c 0a be f6 af 8a 3d 1b 79 03 3d
       0.10857653 -0.13517986 0.06771843 0.032097917
000060 69 48 8c be 4f 28 1c 3d 36 0e 06 3e 37 c1 b1 bc
       -0.27398995 0.03812438 0.13091359 -0.021698577
000070 4c 5f 28 be 18 94 a5 bd 09 59 1f be 77 c9 a9 3d
       -0.16442603 -0.08084887 -0.15561308 0.082903795
000080 a9 7d 60 3e b0 c6 52 3e ef ab 04 3d b3 38 81 3d
       0.21922936 0.20583606 0.03239053 0.06309643
000090 d6 ab 69 bd d5 75 8d 3d 18 cb 5e 3d 09 e1 77 be
       -0.05704864 0.0690724 0.054392904 -0.24206938
0000a0 52 00 18 be 1c fe 41 be 88 b3 af 3d a9 05 97 bd
       -0.14843872 -0.18944591 0.08579165 -0.073741265
0000b0 98 43 b6 bd 51 8d 7a bd 95 20 27 be 3c 2b 5c 3d
       -0.08899611 -0.061169926 -0.16321023 0.05375217
0000c0 76 18 8b be 07 c9 19 be 0d 01 43 be ce 1a 6c bd
       -0.271671 -0.15018092 -0.1904337 -0.05764275
0000d0 35 c9 2a 3d f2 2d b8 bd b1 49 14 3e 7f 46 1f bd
       0.041695792 -0.089931384 0.14481236 -0.03888559
0000e0 22 c6 cb 3c 26 14 0a 3d 86 28 f0 3b 61 05 1c be
       0.02487475 0.03371062 0.0073290495 -0.15236427
0000f0 e8 fa 9d bc 48 34 66 bd df 39 28 3e db 68 bc be
       -0.01928468 -0.056202203 0.16428326 -0.36798748
000100 fc be ff bd 64 20 ae bd 32 c5 ff 3d f4 ca 9a bd
       -0.12487599 -0.08502272 0.12488784 -0.075582415
000110 a0 9c 24 be a0 d1 41 be 7f 46 12 3d e9 00 ac 3e
       -0.16075373 -0.18927622 0.03571176 0.33594444
000120 3b 94 a2 bd 74 cc e2 3c de 8b 0b 3e 17 f0 5b be
       -0.07938429 0.027685381 0.13627574 -0.21478306
000130 6e 4c d4 3d 6c 2a 11 3e 6e a3 75 bd 6f fa 30 3c
       0.1036614 0.14176339 -0.05997031 0.0108018955
000140 37 71 79 bd 1b 09 84 3d 5c f8 c8 3d cc 6d 71 be
       -0.060898986 0.06447049 0.09812996 -0.2357704
000150 4e 6e 89 bd 9a b8 25 3e 60 4f 86 3e 5e a1 04 3e
       -0.06710492 0.16183701 0.26232433 0.12952182
000160 e3 0b 37 be 0e a7 4b bc 0b f0 0b be be 29 84 bb
       -0.17875628 -0.012429966 -0.13665788 -0.0040332964
000170 00 b2 bf bd ba bc 6c bc f9 83 be be 39 48 37 bd
       -0.09360123 -0.014449293 -0.37210062 -0.04474661
000180 48 d2 2b be e0 40 a9 3e 51 85 04 be 08 1f 54 bc
       -0.16779435 0.33057308 -0.12941481 -0.012946852
000190 da 93 8a 3d 31 af 09 bd 25 10 ac 3d f7 0c 4c bd
       0.06766482 -0.03361434 0.08401517 -0.04981705
0001a0 c5 0b 1a be 60 4c 32 bd 6c 09 fa 3d ba bb 2d 3e
       -0.15043552 -0.043529868 0.12208828 0.16966143
0001b0 fc e1 07 be cb 34 b5 3e 11 2c 3c 3e 97 76 09 3e
       -0.132698 0.3539184 0.18376185 0.13424145
0001c0 4b b1 66 bd 9c 00 fd bd c4 9c d9 3d b1 f2 e0 bd
       -0.056321424 -0.12353632 0.10625604 -0.1098379
0001d0 24 d6 9e 3e db ec b0 3c 95 a8 b3 3c 49 b2 9e 3d
       0.3102275 0.021597316 0.021930972 0.07748849
0001e0 80 d8 a0 bd 77 a7 2d be 25 8c 38 be c9 79 0a 3e
       -0.07853794 -0.16958414 -0.18022211 0.1352302
0001f0 81 b5 7a 3d 5c 96 a5 3e 71 4d 2a 3e fd 64 69 3e
       0.061208252 0.32341278 0.16631104 0.2279243
000200 0e ec c7 bd 48 2e 58 3d 86 85 a0 be 38 65 4e be
       -0.09761821 0.052778512 -0.3135187 -0.201558
000210 6b d9 82 3d 35 97 8f 3d a7 b4 86 3d 88 cc 0c 3e
       0.063891254 0.07011262 0.065774255 0.13749897
000220 d3 10 d1 3d 4b fe 03 be d0 93 57 3b 50 b0 b4 bd
       0.10208287 -0.12889974 0.00328945 -0.088226914
000230 dc f3 d7 3d 14 c1 7a 3e 74 bc 7d 3e 98 07 fb 3d
       0.10544559 0.24487716 0.2477892 0.12257308
000240 13 56 0f 3e d4 cd d1 bc 92 35 0f be 61 7b 0f 3d
       0.13997678 -0.025610842 -0.13985279 0.035029773
000250 50 bd ad 3c e9 0d 64 3d fc ac c5 bd f6 c9 b2 3b
       0.021208435 0.05567733 -0.09652135 0.0054562045
000260 e2 75 3f 3d 4e 4d 46 3d e4 e7 25 be 9f 57 05 3e
       0.04674328 0.048413567 -0.1620174 0.13021706
000270 1e 2f c6 3d a0 55 8b 3e 4e a2 63 bc 7f 2f 05 3e
       0.09676956 0.27213764 -0.013893677 0.130064
000280 a7 de 79 bc 26 5c 22 be 25 17 bd 3d b3 4c 92 bd
       -0.015250838 -0.15855464 0.0923293 -0.071435355
000290 51 55 ef 3d 4b 44 08 3e 42 89 15 3c 4c 20 a4 be
       0.11686195 0.13307302 0.009126963 -0.3205589
0002a0 d3 07 97 3d c0 03 a4 3d 06 43 0d be 7e 51 bd bc
       0.07374539 0.08008528 -0.13795099 -0.023110148
0002b0 c2 b0 bd bd fb 82 b3 3c 28 6b 1f 3d fe ff 5e be
       -0.092622295 0.021913042 0.03892055 -0.21777341
0002c0 29 bf dd 3d 5b 41 14 be 01 cc 6e bd 69 70 ad 3d
       0.108274765 -0.14478056 -0.058300022 0.08468706
0002d0 c8 b0 ab bd 3c b2 13 be ba f4 8b 3d 40 46 28 be
       -0.08383328 -0.1442346 0.06833787 -0.16433048
0002e0 ca 1e 04 be ae 9d 1d bc 82 a2 32 bd b0 d0 83 3d
       -0.1290237 -0.009620113 -0.04361201 0.06436288
0002f0 db 7e a1 bc 6f 3d 71 3e 76 17 09 3e 53 de 85 3d
       -0.01971381 0.23558591 0.13387856 0.065365456
000300 6c 67 4f bd f9 c3 95 be de 84 0e 3e d7 6d 0d 3e
       -0.05063574 -0.29251078 0.13917872 0.13811432
000310 54 f8 06 3e 7a 07 ff bd 83 70 09 3e 63 82 bc 3e
       0.13180667 -0.12452598 0.13421826 0.36818227
000320 2d a7 93 be cd 17 41 bc b3 2b 16 3d 30 8a 83 3e
       -0.28838482 -0.01178546 0.03666277 0.25691366
000330 52 ae 96 3d d1 02 6a bd 1d 81 ee bc 52 39 d1 3d
       0.07357468 -0.057131592 -0.0291143 0.10216011
000340 fe a5 6e 3c 2b 14 3a 3e 02 eb 1c bd 25 e3 25 3d
       0.014565943 0.18171756 -0.03831006 0.040499825
000350 9e da a6 3e 04 2a 83 3e a4 2d 2e 3e f3 49 b8 bd
       0.32588667 0.25617993 0.17009598 -0.0899848
000360 21 a9 e5 bd cc 4b 45 bd f3 72 0c 3e 73 2c 1d bc
       -0.112138994 -0.04816799 0.13715725 -0.009593117
000370 b3 53 4d 3e c5 c5 fa 3d df 0a 8e 3d 23 ed ae bd
       0.2005146 0.12244753 0.06935667 -0.08541324
000380 55 a8 a6 bb b5 4c 06 be 3a 40 47 3e 68 b1 2b 3e
       -0.0050859847 -0.13115199 0.19458094 0.16766894
000390 ba b2 28 3e fd 48 5d be ce ae 2b 3e 6e 6d 0a 3d
       0.16474429 -0.21609874 0.16765901 0.033795767
0003a0 5d 8d 0e be db e9 3f 3e dd 08 32 be 4c 54 25 3e
       -0.13921113 0.18741553 -0.17386194 0.16145438
0003b0 da ac 52 bc 93 02 6e bc 6a 35 40 3e 9c 47 05 be
       -0.012858594 -0.014526981 0.18770376 -0.13015598
0003c0 38 5e ff 3d ff 8e 93 be 26 2a 23 3e 1d 6a 66 3e
       0.12469143 -0.28820035 0.15934047 0.22501417
0003d0 71 3f 35 be 0c 0b 3d 3e 66 b9 06 be 46 66 25 be
       -0.17699982 0.18461245 -0.13156661 -0.16152295
0003e0 a4 72 8f 3d a5 4b 68 3e 90 d9 2b 3d a6 f1 23 be
       0.07004288 0.22685106 0.04195553 -0.1601015
0003f0 84 7d 42 3d 51 79 ba bd eb 65 85 3d 5b d7 33 bc
       0.047482982 -0.091051705 0.0651358 -0.010976638

shared_net.4.bias f4 [64]
000000 8f a8 2a 3d eb ec 4d 3d 77 de 98 bc 34 b1 71 3d
       0.041664656 0.05027477 -0.018660767 0.059006885
000010 89 e3 81 3d 3f 01 d1 bb 04 ed 76 bb 3f b1 94 bc
       0.06342227 -0.0063783224 -0.0037677893 -0.018150924
000020 00 00 00 00 00 00 00 00 b6 f6 b7 3d 0b 05 6d 3b
       0.0 0.0 0.08982603 0.0036166336
000030 52 12 61 bb 27 ca 4e bd 8b e0 05 3e 00 00 00 00
       -0.0034343195 -0.050485756 0.13073938 0.0
000040 ba 87 21 3b cd 63 b9 bb d7 91 a6 3d 7f 7a c1 3d
       0.002464755 -0.005657649 0.081332855 0.094471924
000050 3a 71 50 ba 0f cd dc bb 29 23 b0 3c 80 d2 8c 3d
       -0.00079514424 -0.006738312 0.02150114 0.06876087
000060 8d 6b 78 bc 8a c4 36 3d de 8a e0 39 8c 7b f3 3c
       -0.015162361 0.044621028 0.00042828073 0.029721998
000070 f4 c8 76 bc fb ad 84 3d 1f c6 73 3c f7 16 65 3c
       -0.015062559 0.06478497 0.014878779 0.013982526
000080 90 ab 74 bb 90 99 e6 3d dd 63 7c 3d 6e 05 ac 3c
       -0.0037333705 0.112597585 0.061618675 0.020998683
000090 5b ff 15 3e 48 82 57 3d a3 bc e4 3d 53 f2 ad 3c
       0.14648192 0.05261448 0.11168792 0.021233713
0000a0 f6 16 86 bc 00 00 00 00 07 1d a2 3d c8 b6 84 3d
       -0.01636837 0.0 0.07915693 0.06480175
0000b0 ea 3d 60 bd c2 99 23 bd ca 67 9f 3c 05 ae 93 3c
       -0.054746546 -0.039941557 0.01945867 0.018027315
0000c0 74 ef 6c bb e8 77 9a bc 9b 48 74 bd 38 cc 2c bd
       -0.0036153467 -0.018856004 -0.059639554 -0.042186946
0000d0 32 22 d7 3d 9a 4d f5 3d 57 0a 97 3b 00 00 00 00
       0.10504569 0.11977692 0.004609387 0.0
0000e0 44 16 67 ba 48 89 9d 3d d9 38 b1 3d 79 0b 55 3b
       -0.00088152685 0.076922 0.08653421 0.003250806
0000f0 1d 7a e6 bb 6c c4 b6 bb a0 1e 95 3d f0 67 c8 3d
       -0.0070336 -0.0055776145 0.07281232 0.097854495

actor.0.weight f4 [32, 64]
000000 99 94 95 3d ec 90 bf 3d f1 bb c7 3e b4 f1 71 3d
       0.073037334 0.093538135 0.39010575 0.059068397
000010 6e 61 fa bd 48 41 56 3b 4a 02 19 3e 90 a3 4e be
       -0.122256145 0.003269272 0.1494228 -0.20179582
000020 a9 ab ac be cf 8c 2a 3e 5e 31 31 3e a3 9f 6c bd
       -0.33724716 0.16655277 0.17303988 -0.05776943
000030 50 83 80 be b5 77 48 bd ab f0 7d bd 2d 37 74 3e
       -0.25100183 -0.048942287 -0.061997097 0.23849173
000040 5b ea 71 3e 07 36 07 be 41 a5 36 bd 72 e2 87 be
       0.23624556 -0.13204204 -0.044591192 -0.26539952
000050 ee f2 71 bd 11 0f 3d be b7 58 b9 3d 7d d4 83 3c
       -0.059069566 -0.18462779 0.09050124 0.016092533
000060 ad 97 14 3e 4d 03 28 3e 33 27 99 bd 55 38 ec be
       0.14510985 0.16407509 -0.0747818 -0.46136728
000070 7b 9b 92 3e c5 81 3e 3d 68 52 72 b9 78 45 47 bd
       0.28634247 0.046510477 -0.00023109617 -0.048650235
000080 0d c3 d5 be d1 72 f7 bd 10 6f 3b bd 1f c5 6b bc
       -0.41750374 -0.12082446 -0.045760214 -0.014390259
000090 f4 ef 7d be 99 49 f2 bd 4f 33 42 be f6 a8 9e 3e
       -0.24798566 -0.11830444 -0.18964885 0.30988282
0000a0 d6 da 81 3d 25 34 5c bd b6 2b bd bc f9 c2 aa 3e
       0.06340568 -0.053760666 -0.023092132 0.33351877
0000b0 e5 a3 01 3e 7a bf 3b 3e f2 1a 82 3b 7e 60 cb bd
       0.12660177 0.18334761 0.0039704973 -0.09930514
0000c0 c0 a3 a9 bd b0 d7 97 3d ff 36 86 3c f5 c6 11 3e
       -0.08283186 0.07414186 0.016383646 0.14236052
0000d0 e6 f1 bf 3d 92 46 2c be 27 e7 02 be 1b e7 a8 bd
       0.0937231 -0.16823795 -0.1278349 -0.08247205
0000e0 52 8c 08 be f3 bb c5 bd 09 79 25 be ff a7 a0 be
       -0.13334778 -0.09654989 -0.16159452 -0.3137817
0000f0 08 88 2f 3e e0 65 4b 3e e2 72 c6 bd 31 0f 32 ba
       0.17141736 0.19863081 -0.09689881 -0.0006792425
000100 fe 50 df 3e 68 f8 89 be e2 c9 6d be 79 bf a1 3e
       0.4361648 -0.2694733 -0.23221543 0.31591395
000110 3b ca 1f 3e 51 ef 0e be 40 a7 b8 3e a7 0f 77 bd
       0.15604489 -0.1395848 0.36065102 -0.06031766
000120 82 41 92 bd 31 57 87 bd 4b f1 b0 3d 19 dc 19 3e
       -0.07141401 -0.06608427 0.08639773 0.15025367
000130 33 1e 06 ba fc b9 76 bd 91 6e a7 3b c5 6d 67 bc
       -0.00051161944 -0.060235962 0.005109616 -0.014125292
000140 c3 26 d5 bd d4 eb e1 bd 3a 53 d5 3d 6b 1c 96 3e
       -0.10407784 -0.11031309 0.10416265 0.29318556
000150 47 b2 95 bd 30 23 5e bc f3 a1 c4 bd fa 9e c5 3d
       -0.07309394 -0.013558194 -0.09601202 0.09649463
000160 16 ff b8 be fe ca 68 be 17 3c 4f 3e 76 f2 48 be
       -0.36132115 -0.22733685 0.20237766 -0.19623742
000170 ac f4 85 3d 00 5f 37 3e 4a cb 36 3f 15 6e 1c 3e
       0.06540808 0.17907333 0.71403944 0.15276368
000180 f7 77 b3 3c ad 53 b0 3b 86 cd 16 bd f6 66 8e 3d
       0.02190779 0.0053810687 -0.036817096 0.06953232
000190 9f 14 19 3e 5d 46 4b 3e 03 d4 9b 3e 82 13 cf 3e
       0.14949273 0.1985106 0.3043519 0.4044457
0001a0 92 3f 2e 3d e7 6e 1c bd 5a 14 9e be 3d a0 6b 3e
       0.042541094 -0.038191702 -0.30874902 0.23010345
0001b0 d5 e5 34 bb 86 6d 9f 3e 77 6d 02 bd f2 9c 84 3d
       -0.002760281 0.31138247 -0.031842675 0.064752474
0001c0 89 dd 2a bd 22 fe c7 3c 5a 2b d5 3d 93 54 df bd
       -0.04171518 0.024413172 0.10408659 -0.10904803
0001d0 83 d7 fc bd 04 3c e3 3d 64 88 84 bd 62 64 19 3c
       -0.12345793 0.110954314 -0.06471327 0.009362312
0001e0 7e 2b 20 be 63 d7 5d be 9e 13 ee 3d ea b9 8a 3e
       -0.15641591 -0.21664195 0.116248354 0.27094966
0001f0 b2 40 aa bd f1 ee 8e 3c 41 44 51 be 58 39 46 3e
       -0.08313121 0.01744792 -0.20436193 0.19357812
000200 f1 c3 03 bd 9e 90 cf bd 37 b2 56 3d ca 0e fd bd
       -0.032169286 -0.101350054 0.052416053 -0.123563364
000210 04 22 1c 3d db 4a bf bd 60 bf 8a be c6 8f f0 3c
       0.038118377 -0.093404494 -0.27099133 0.029365432
000220 ef 1e 10 be 07 cb 8e be 38 bb 9c 3e 3d 02 32 3e
       -0.140743 -0.27889273 0.30611587 0.17383666
000230 be 45 0b be 11 dd bd be ce 9a 81 be 95 7f f5 3d
       -0.13600823 -0.37082723 -0.2531342 0.11987225
000240 a9 b9 2f be 2e 5c 74 3e 44 5d e2 3d e3 f9 ec bc
       -0.17160667 0.23863289 0.11052945 -0.028927749
000250 07 35 46 bd c7 32 22 ba 95 3d 06 be 45 df 94 3e
       -0.048390415 -0.0006187376 -0.13109429 0.2907659
000260 fb 5c 7e 3e bb 26 b9 3d 45 c0 3d be df 32 1d 3e
       0.24840157 0.090405904 -0.18530376 0.15351437
000270 14 d8 9b 3d 4e b5 f8 3e e1 da bc 3d 94 31 79 3e
       0.07609573 0.48575824 0.09221435 0.24335319
000280 80 ca fc 3d 91 c3 33 3e e0 2b 19 be 27 cf 09 3e
       0.12343311 0.17555071 -0.14958143 0.13457929
000290 97 ea b3 be b6 94 25 3e 4f 7a 23 be 13 9c 3f 3d
       -0.35139915 0.1617001 -0.15964626 0.046779703
0002a0 33 82 13 3d d0 ba e9 3d bb e2 8e bd b9 90 6f bd
       0.03601284 0.11412585 -0.06976839 -0.058487628
0002b0 30 36 89 bd 9c b9 33 3d 72 0e 6a be a6 2c 83 be
       -0.066997886 0.043878183 -0.22857073 -0.25620002
0002c0 3c 77 79 be 9d 26 3e 3d 5d 2b 29 3e 80 2a 05 be
       -0.2436189 0.046423543 0.16520448 -0.13004494
0002d0 9f b4 62 bb c2 b7 7e bd 72 3b 86 3e f8 68 87 3e
       -0.0034592522 -0.062186964 0.26217228 0.26447272
0002e0 f9 0b 4c 3d 66 2b 3a 3c 33 50 4a 3e 19 b1 16 3d
       0.049816106 0.011362886 0.19757156 0.036789987
0002f0 e7 12 67 3e 0b fc 57 be a6 a2 46 b9 76 14 43 bd
       0.22565804 -0.2109224 -0.00018943343 -0.047626935
000300 a1 ad 3f be 60 44 75 be dd 71 09 be 4e 15 9e bd
       -0.18718578 -0.23951864 -0.13422342 -0.07718907
000310 69 dd 0c be 75 1f 04 3e c4 77 ff bd 2e 06 91 3e
       -0.13756336 0.12902625 -0.12474015 0.28325027
000320 92 c5 67 be dc 6f 42 3d 4f 7f 17 be 4b bc f4 bc
       -0.22633961 0.04746996 -0.14794658 -0.029874941
000330 e4 a7 82 bc ce be 41 3e 87 05 32 bd e3 67 42 3e
       -0.015949197 0.18920442 -0.043462303 0.18984942
000340 b3 8a 92 bc 09 d4 ba 3d 4a f4 b5 bd bb 9e fb bc
       -0.017888403 0.09122474 -0.08884485 -0.030715337
000350 56 3a cc be 01 b7 88 be 98 45 a6 be d4 62 a7 3d
       -0.39888257 -0.2670212 -0.3247497 0.08173147
000360 f5 d1 cc bc e0 6e 6c bb ec 2b ea bd ff 94 23 3e
       -0.025002459 -0.003607683 -0.11434159 0.15974806
000370 f4 05 af 3c da f1 3a bd 85 1f 29 3e e1 38 81 bd
       0.021365143 -0.045640804 0.1651593 -0.06309677
000380 37 98 60 3e 01 45 6e bd 2c 60 6d 3c 6c 40 98 bd
       0.21933065 -0.058171276 0.014488261 -0.074341625
000390 55 49 45 be 6b 3f b0 3d 78 90 ef bd 73 a4 f0 be
       -0.19266255 0.08605846 -0.11697477 -0.47000465
0003a0 f6 ac 64 bd fa 67 73 be cb 6a 00 be f9 3d 94 3e
       -0.05582901 -0.23770133 -0.12540738 0.2895353
0003b0 e5 71 8c 3e 67 cd 25 3e 1c 9d c6 bd e1 6e 93 bc
       0.27430645 0.16191636 -0.09697935 -0.017997207
0003c0 ad a6 6b 3e b8 f5 75 3e 30 de ac bd ca 7d 75 bd
       0.230128 0.24019516 -0.084408164 -0.059934415
0003d0 84 a2 a5 bd cf 2d 4d 3d 3b 74 96 3d 8a ed a6 3d
       -0.08087638 0.050092515 0.07346388 0.08150776
0003e0 e2 a4 60 be 16 9a eb bd d5 e8 9f be 36 35 de 3d
       -0.21937898 -0.11503999 -0.31232324 0.10849993
0003f0 96 c1 c5 bd 0b 7c cf 3e bc ce 1e ba c6 bc 8c be
       -0.09656064 0.40524325 -0.00060580275 -0.27487773

actor.0.bias f4 [32]
000000 76 0c 06 bc 27 fb d6 3c 7f a4 49 ba 00 00 00 00
       -0.008181682 0.026242806 -0.00076920533 0.0
000010 51 11 a7 bc 37 23 10 3d a2 7d a7 3b a6 7c 92 3c
       -0.020394 0.035189833 0.005111412 0.017881703
000020 c2 92 6a bb b9 60 54 3b 5d 15 a3 3c 50 f1 63 bc
       -0.003579304 0.0032406284 0.019907648 -0.013912514
000030 73 e5 83 bc 26 b8 1e bc 6f a2 2c bd 1b 14 bb bc
       -0.01610062 -0.009687459 -0.042147096 -0.022836735
000040 4c 1a ac 3c 47 f8 4c bc 38 77 7d 3d 35 82 de 3c
       0.021008633 -0.012510366 0.061881274 0.027161697
000050 34 fc ad bb f9 c6 45 3c ca 18 c3 bb 00 00 00 00
       -0.005309606 0.012071365 -0.005953883 0.0
000060 53 65 0e 3d 71 70 5b 3b 3d a3 a7 bc c0 2f b1 bc
       0.0347646 0.0033483768 -0.02046358 -0.021629214
000070 6c 57 16 3c 00 00 00 00 2b f0 ff bb 4e 74 63 3c
       0.009176116 0.0 -0.0078106127 0.01388271

actor.2.weight f4 [9, 32]
000000 53 2b 1c 3d 1e 35 b5 3e 13 d2 b7 3e 57 51 ca bd
       0.038127255 0.35392088 0.3590246 -0.098787956
000010 5a f1 ce 3e be f7 8c be 3d c0 27 3d e6 5e 2f 3d
       0.40418512 -0.27532762 0.040954817 0.04281511
000020 bd f2 e0 3e fb 15 cb be 9e b4 7c be e8 f8 97 3d
       0.43935195 -0.39665207 -0.24678275 0.07420522
000030 0f 97 e2 3d 13 2d 24 3d c0 7c a7 bd 8e f1 f4 3e
       0.110639684 0.04008205 -0.08178091 0.47840542
000040 f2 99 20 3d fa 51 9e 3e 14 e2 e4 be 36 6d 19 3e
       0.039209314 0.30921918 -0.44703734 0.14983067
000050 18 6e 89 bc 5a 5f fe 3c 28 90 90 bd 10 d4 bc 3e
       -0.01677613 0.031051327 -0.070587456 0.3688054
000060 08 93 41 bd 35 40 36 3e da 7a 96 3e 77 93 79 3e
       -0.04725936 0.1779793 0.29390603 0.2437266
000070 62 6c 85 3e 78 5c dd be 8c 31 c4 3d 35 17 8e be
       0.26059252 -0.4323461 0.09579763 -0.2775208
000080 cb ab c2 3e 81 0f d2 3e e0 0f 93 be 7d cb 06 bd
       0.38021693 0.41027454 -0.2872305 -0.032908905
000090 76 a5 c0 3e 89 5d 69 be 1c 6a dd 3c d3 1d 35 bd
       0.37626237 -0.22789587 0.027028136 -0.044217896
0000a0 de 95 95 3c 0f 34 56 be b1 19 5d 3e ba fc d1 be
       0.018259939 -0.20918296 0.21591832 -0.41013128
0000b0 1b 74 bc be 24 0a fd 3d b9 2b 2e 3e 3d 83 08 be
       -0.3680733 0.1235545 0.17008866 -0.13331313
0000c0 48 0e 91 be 62 cb 67 bb f7 e9 4d bd f3 72 05 bf
       -0.28331208 -0.0035369028 -0.050271954 -0.52128524
0000d0 39 f3 d1 bd ad 34 01 be 5a d6 ab bd 31 0b 90 3d
       -0.10251469 -0.1261775 -0.08390494 0.070333846
0000e0 f6 bc 26 3e 4c 65 a6 be 5b 95 4f 3e 67 a3 8a 3d
       0.1628302 -0.32499158 0.20271818 0.06769448
0000f0 4e b6 83 3e fe ec dd 3d 2f bd 27 be a0 31 ef 3e
       0.25725025 0.10836218 -0.16380762 0.46717548
000100 05 23 1b 3e 02 9f 31 3e 19 9e 1c bd 96 b4 26 be
       0.15150078 0.17345813 -0.03823671 -0.16279826
000110 38 c4 1a 3e b9 ca 50 be 23 29 9a be 8b 6b 1b 3f
       0.15113914 -0.20389833 -0.3010951 0.6071097
000120 1e b5 f5 3e 17 ce b3 3d a1 03 9c 3e 67 59 eb 3e
       0.47989744 0.08779543 0.3047152 0.45966646
000130 0a 63 8b 3d 08 de 02 3e 37 dc 7c 3d 4c 50 38 bd
       0.068059996 0.1278001 0.06173345 -0.044998452
000140 8b 12 f7 3e 4b fc 34 3e 29 85 0d 3e 2d 05 26 be
       0.48256335 0.17674367 0.13820328 -0.16212912
000150 08 0b c1 be c6 37 89 3d 45 cc a6 3d f4 bd e7 be
       -0.3770373 0.06700091 0.0814443 -0.4526211
000160 9f b1 84 be bd 18 a5 bd a9 dc 1b be b5 55 2c 3e
       -0.25916764 -0.08061359 -0.15220894 0.1682957
000170 54 56 71 be 84 60 30 3e 87 e6 b2 bd 5c ad 9f 3e
       -0.23568088 0.17224318 -0.08735376 0.3118695
000180 ae 36 a2 bd 48 47 b4 be d5 be 39 bb 96 81 68 3e
       -0.079205856 -0.35210633 -0.0028342505 0.22705683
000190 02 9a 0e bd 21 95 ba be 90 95 da 3e 15 79 55 3c
       -0.034814842 -0.364419 0.42692232 0.0130293565
0001a0 b5 0e ae 3d 46 20 a2 3e 39 95 e7 3e ea 44 18 be
       0.08498899 0.31665248 0.45231035 -0.14870039
0001b0 8f da 4d be ce 2b 00 3e 28 8f 9e 3e d8 6b 23 3e
       -0.20102905 0.1251671 0.30968595 0.15959108
0001c0 41 a3 fa bd ce 0b 32 3e c4 57 1d bf 47 5a f6 3e
       -0.122381695 0.17387316 -0.61462045 0.4811575
0001d0 88 2d aa 3e 8b de d1 3d c7 85 0e be cd 6f 77 be
       0.33237863 0.10247525 -0.1391822 -0.24163742
0001e0 7c ef 23 bd 38 cf f5 3a 87 62 9b 3e b5 01 d4 bd
       -0.040023312 0.0018753773 0.30348608 -0.10351888
0001f0 96 56 95 3c 54 f5 27 3e a5 b1 13 be df 7c c3 3e
       0.018229764 0.16402179 -0.14423235 0.38181207
000200 6b ad b0 be ce 89 cc 3d 9d a9 5e bd f8 3b c1 3c
       -0.34507307 0.09987222 -0.054360975 0.023588166
000210 8f f9 90 bd 56 77 8f 3c 80 8d ce 3d b3 dc 65 3e
       -0.070788495 0.017512958 0.10085583 0.22447471
000220 23 b2 0b 3e e6 34 7e be e2 11 bb bd ba bf 57 3d
       0.13642173 -0.24824867 -0.0913427 0.05267308
000230 fb 68 47 bf c7 d3 e8 bd 5e bc 8e 3d 86 b7 5a 3d
       -0.7789456 -0.11368518 0.06969522 0.053397678
000240 a0 8e a5 3e d0 29 ea be 8d e6 39 be cd 65 c8 3d
       0.32335377 -0.45735025 -0.18154354 0.09785042
000250 f3 a5 ac be 7f 81 0f 3f 82 8c 02 3f b0 33 55 3e
       -0.3372036 0.5605697 0.5099565 0.20820498
000260 54 a9 3f bc 01 80 af 3e 75 db 98 3d 58 3c a2 be
       -0.011698086 0.34277347 0.07463733 -0.31686664
000270 bc bd f3 3c 23 84 88 3d 24 74 5f be e8 7c f7 3d
       0.029753558 0.06665828 -0.21821648 0.12084371
000280 88 79 f8 be 74 80 f6 bc 90 d1 29 3e a3 a1 00 bd
       -0.4853022 -0.030090548 0.16583848 -0.03140415
000290 ce 3d da 3d 66 07 0d 3e 98 39 38 bf 10 aa 9f bd
       0.106563196 0.13772354 -0.7196288 -0.07796109
0002a0 3e 2f 06 bc 22 16 91 be 45 1b 9b 3d 0c 07 69 3d
       -0.008189974 -0.28337198 0.075735606 0.056891486
0002b0 25 ef 31 bd 55 b7 e2 3d a3 4a 8b be 06 55 17 3d
       -0.043440957 0.11070124 -0.2720538 0.03694632
0002c0 eb e7 21 3d 54 3f 5e 3e 90 e5 a4 3c 34 d7 a3 be
       0.039527815 0.21703845 0.020128995 -0.32000124
0002d0 85 ca 5b 3e 1c 89 23 3e f0 85 f8 be 87 56 c8 be
       0.21463974 0.15970272 -0.48539686 -0.39128515
0002e0 6a 28 0f 3e 38 48 99 3e a2 4c 0c 3f 0d 66 8e be
       0.1398026 0.2993791 0.5480443 -0.27812234
0002f0 d3 07 42 3d 4b 21 44 3e 9b f0 0d be e4 57 3b 3e
       0.047370743 0.19153325 -0.13861315 0.18295246
000300 c5 bb ad be d1 11 cd 3e 09 98 25 be f1 a9 2b be
       -0.3393232 0.40052655 -0.16171278 -0.16764046
000310 a2 8f 65 be 33 e9 dd bd 02 0e cf 3e 48 f6 01 be
       -0.22418073 -0.10835495 0.40440375 -0.12691605
000320 4a d4 f5 3e 63 98 c3 bd 04 b0 33 3e aa 55 5d bd
       0.48013526 -0.0955055 0.17547613 -0.054036774
000330 bc 89 56 be 24 37 73 be e2 32 8d be fb 81 07 3e
       -0.20950979 -0.23751503 -0.27577883 0.13233177
000340 95 ea 2d 3e db 72 57 3d 35 34 30 ba 09 a9 ae 3e
       0.16984017 0.05259977 -0.00067216466 0.3411334
000350 5d ef c3 bc 10 22 bf be 79 a1 9a be 5d 7f a4 be
       -0.023917848 -0.37330675 -0.3020132 -0.3212842
000360 0f a1 02 3f 93 79 68 be d4 fa ee be cc 3b 79 be
       0.51027006 -0.22702627 -0.46675742 -0.24339217
000370 d0 e3 91 3d ea 6b bf 3c 50 fa 43 3e 2e 20 3c be
       0.0712353 0.023366887 0.19138455 -0.1837165
000380 ff e1 fe 3d a4 60 29 be af ed 52 bd 22 ec 41 be
       0.12445449 -0.16540772 -0.051496204 -0.18937734
000390 34 bd 95 be d2 b6 53 be d7 ef eb 3b 17 f9 93 3e
       -0.29245913 -0.20675209 0.007200222 0.28900978
0003a0 18 4e 6f 3c cf 5d 9d be b3 e8 5c 3e 4b 24 86 bd
       0.014606021 -0.30735633 0.21573143 -0.06549891
0003b0 f3 bc a2 3c 22 16 3e 3e 15 5b 59 3e dd 9b 21 be
       0.019865489 0.1856313 0.21226151 -0.15782113
0003c0 c2 58 18 be 2a 99 8a 3e 9d 3a 39 3f 83 1a 8e 3e
       -0.14877608 0.2706998 0.7235506 0.27754602
0003d0 b1 5b 1c 3e b9 5c 50 3e b4 23 ff bd 74 e5 28 3e
       0.15269352 0.20347871 -0.12457982 0.1649378
0003e0 3b ad a4 3e a3 30 3f 3e 79 c8 7f be 9b d9 65 be
       0.32163414 0.18670897 -0.24978818 -0.22446291
0003f0 01 7f 16 3f 30 f3 23 be d5 17 99 be 1a 23 f9 3c
       0.5878754 -0.16010737 -0.29900995 0.030412246

actor.2.bias f4 [9]
000000 13 96 ad bd 0b 35 1b 3d ef 0e b6 3b ff 02 89 bd
       -0.0847589 0.037892383 0.0055559794 -0.066900246
000010 4c 27 5e 3d e0 b1 84 3c fb 24 00 3d 6a 59 19 bc
       0.054236695 0.016198099 0.031285267 -0.009359697
000020 c3 49 42 3c
       0.0118584065
