logs/20250602_124519/best_model.pt (torch, 735029 bytes, 19 tensors)

cnn.0.weight f4 [32, 1, 3, 3]
0	0x3e07bdde	0.13256022
1	0xbe009593	-0.12557058
2	0x3e05c258	0.13062418
3	0xbe8d255b	-0.27567562
4	0xbe929906	-0.28632373
5	0xbe8ab31b	-0.27089772
6	0x3e924d8a	0.28574783
7	0xbea9374c	-0.3305
8	0x3da63aa0	0.081166506
9	0x3e9e6370	0.3093524
10	0x3e3304a3	0.17482238
11	0xbdf81610	-0.12113583
12	0xbe5b2406	-0.2140046
13	0x3e0a44c0	0.13502789
14	0x3e344e16	0.17607912
15	0xbe85558a	-0.26041824
16	0xbc74fe2b	-0.0149531765
17	0xbe244ef8	-0.16045749
18	0x3dcdad67	0.100428395
19	0x3eaa52ab	0.33266196
20	0xbe7271b7	-0.23676191
21	0xbe3183e0	-0.17335463
22	0xbe25e8ef	-0.16202138
23	0xbd3e1490	-0.04640633
24	0x3d037897	0.032097425
25	0xbe87efda	-0.2655018
26	0xbe24268e	-0.16030332
27	0x3e9b5ae0	0.3034277
28	0x3dabcefc	0.083890885
29	0x3e111b77	0.14170633
30	0xbe6dd490	-0.23225617
31	0x3e04459e	0.12917182
32	0x3dd04f55	0.101713814
33	0xbd636636	-0.055517398
34	0x3d6fcf69	0.05854741
35	0x3de7eb26	0.11324148
36	0xbd624acb	-0.05524711
37	0xbde5ffbb	-0.11230417
38	0x3e8ab7ff	0.27093503
39	0x3df3fd4b	0.11913546
40	0xbe50dd08	-0.20396817
41	0xbdb13986	-0.0865355
42	0xbe5dfbd8	-0.21678102
43	0x3e37f52e	0.17964622
44	0xbe7f1b00	-0.24912643
45	0x3d38baf6	0.045100175
46	0x3e505163	0.20343547
47	0x3e13e190	0.14441514
48	0x3d061b60	0.03274095
49	0x3e09f4be	0.13472268
50	0xbe57eb18	-0.21085775
51	0xbe4fd8e3	-0.2029758
52	0xbdd18b00	-0.1023159
53	0x3d418e6b	0.04725496
54	0x3e763cce	0.24046633
55	0xbd0b7ec0	-0.034056425
56	0x3dd3c350	0.10339987
57	0xbe2d0a60	-0.16898489
58	0xbd634056	-0.055481277
59	0x3e300676	0.17189965
60	0xbea87fcf	-0.3291001
61	0x3e0d6580	0.1380825
62	0x3eaa0f84	0.33214962
63	0xbe55d993	-0.20883779
64	0x3cbffb96	0.023435395
65	0x3e1ddfc6	0.15417394
66	0x3ea8da94	0.32979262
67	0xbe3d6473	-0.1849535
68	0x3cf29eeb	0.029616794
69	0xbe8b2e53	-0.2718378
70	0xbe42d7b0	-0.19027591
71	0x3e1b31b8	0.15155685
72	0x3ea61c5b	0.32443509
73	0xbe124c53	-0.14286928
74	0x3b005d3c	0.0019586822
75	0xbe6d9e59	-0.23204936
76	0xbdcf0008	-0.10107428
77	0xbea88d5c	-0.3292035
78	0x3d2cd1d0	0.04219228
79	0xbe5c579f	-0.215178
80	0x3d1c289f	0.038124677
81	0xbda5c91b	-0.080949984
82	0xbe895ec0	-0.268301
83	0xbe01bf0e	-0.12670538
84	0xbe86a707	-0.26299307
85	0x3e94b613	0.29045162
86	0x3e8fd0c3	0.2808896
87	0x3e44c6f8	0.19216526
88	0xbdd4d6b0	-0.10392511
89	0x3e4d20f6	0.20032105
90	0xbea28f15	-0.31749788
91	0x3dc77669	0.09739382
92	0xbde2a7b6	-0.110671446
93	0x3d94981f	0.07255577
94	0x3e91569c	0.2838639
95	0xbd80f4a6	-0.06296663
96	0xbc24f0de	-0.010067193
97	0xbbbc76fa	-0.005751488
98	0xbc8db5ed	-0.017298663
99	0xbdb7abd9	-0.08968324
100	0x3d3291e7	0.043596175
101	0x3dae6432	0.085152045
102	0xbe0a3221	-0.13495685
103	0xbd28a78f	-0.04117542
104	0xbe321714	-0.17391616
105	0xbe6817d3	-0.22665338
106	0x3e7b1b56	0.24522147
107	0xbe825eaa	-0.25462848
108	0x3e999354	0.29995215
109	0xbe2ead86	-0.17058381
110	0xbe900f3e	-0.2813663
111	0xbd8467fd	-0.06465147
112	0x3c456765	0.012048577
113	0x3e89fc7a	0.26950437
114	0x3e63952f	0.22224878
115	0x3e80f3ac	0.25185907
116	0x3e5fcccb	0.21855466
117	0x3e20c3fe	0.15699765
118	0xbe6230b0	-0.22088885
119	0xbded6ceb	-0.1159304
120	0x3e37bf43	0.17944054
121	0xbc83a216	-0.0160685
122	0xbe3333b0	-0.17500186
123	0xbe2f0716	-0.17092547
124	0xbdcaf550	-0.09910071
125	0x3b509aab	0.003183047
126	0x3ea6b0ec	0.32556856
127	0x3e259c13	0.16172819
128	0xbe762643	-0.24038033
129	0xbc9c8e50	-0.019110829
130	0x3e9ddeef	0.30834147
131	0xbdb53e4b	-0.08849772
132	0xbd002736	-0.031287394
133	0xbe8b3132	-0.2718597
134	0x3de41656	0.11137073
135	0xbe1b64d1	-0.15175177
136	0x3e8f643e	0.28006166
137	0xbea7f56d	-0.32804433
138	0x3dc01ec6	0.093808696
139	0xbe075d10	-0.13219094
140	0x3e1ce731	0.15322568
141	0xbe93a731	-0.28838494
142	0xbe830004	-0.2558595
143	0x3e955c3d	0.29171935
144	0x3e253a9a	0.16135636
145	0x3e37ef2b	0.17962329
146	0xbe822c4e	-0.25424427
147	0x3d34b5fa	0.04411886
148	0x3dee0353	0.11621728
149	0x3dc709d3	0.09718671
150	0x3e377876	0.17917046
151	0xbd268fb6	-0.040664397
152	0xbe935626	-0.28776664
153	0xbea3bb31	-0.31978753
154	0x3dcb1a1b	0.099170886
155	0xbe8c812b	-0.27442297
156	0xbe06716b	-0.13129203
157	0x3e90c20f	0.28273055
158	0xbe647262	-0.22309259
159	0xbe9a3981	-0.30121997
160	0xbe66a405	-0.22523506
161	0x3e7743ca	0.24146953
162	0xbd224182	-0.039613254
163	0xbe1981d3	-0.1499093
164	0xbe49ff16	-0.19726214
165	0x3e5e0638	0.2168206
166	0x3ddf4c4b	0.109032236
167	0xbe14d230	-0.14533305
168	0x3d3728cc	0.04471664
169	0x3e850f3c	0.25988185
170	0xbea0cae8	-0.31404805
171	0x3e8bcb4d	0.27303544
172	0x3bde7bf8	0.0067896806
173	0xbc5362de	-0.01290199
174	0xbe785137	-0.24249731
175	0x3e971d4f	0.29514548
176	0xbd1f9974	-0.038964704
177	0x3ea7303b	0.32653984
178	0xbe19e848	-0.15030015
179	0xbe20df03	-0.15710072
180	0xbe11ef06	-0.14251336
181	0xbca8b190	-0.02059248
182	0xbd1e26b1	-0.038611118
183	0xbe649ead	-0.22326155
184	0xbe5cb402	-0.21553043
185	0x3e084e9b	0.13311236
186	0xbe2b9e7b	-0.16759674
187	0x3e7ef478	0.24897945
188	0xbdaf26b4	-0.08552304
189	0xbd51a6b1	-0.05118436
190	0xbe93b19b	-0.2884644
191	0xbd1207e1	-0.035652045
192	0xbeaa8f7e	-0.333126
193	0xbea84e27	-0.32872126
194	0x3d38737e	0.045032017
195	0x3e9b574d	0.30340043
196	0xbe35866c	-0.17727059
197	0x3da3968e	0.079877004
198	0x3e1916aa	0.14950052
199	0x3ea4ce00	0.32188416
200	0xbea6ff68	-0.32616735
201	0xbe120fd2	-0.14263847
202	0xbe133889	-0.14377035
203	0x3e39b671	0.18136002
204	0x3e9423ac	0.28933465
205	0xbe8d0046	-0.2753927
206	0xbe860491	-0.2617536
207	0x3dcab986	0.09898667
208	0xbe84a673	-0.2590824
209	0xbd81d356	-0.06339137
210	0xbe646a5e	-0.22306201
211	0x3e619398	0.22028959
212	0x3cff08e0	0.031132162
213	0xbdf165e6	-0.11787014
214	0xbe155948	-0.1458484
215	0x3ccd66e1	0.02507347
216	0x3e6f4af1	0.23368432
217	0xbe275372	-0.16340426
218	0x3de2cd6f	0.110743396
219	0x3e507dd4	0.203605
220	0xbda8521f	-0.08218788
221	0xbd5b4331	-0.053530876
222	0xbd5da9a3	-0.054116856
223	0xbe403503	-0.18770222
224	0x3cfbb43e	0.030725595
225	0xbdc0ecc0	-0.094201565
226	0xbcd72e16	-0.026267093
227	0xbe406f78	-0.18792522
228	0x3d6646f5	0.056220014
229	0x3e01703e	0.12640473
230	0xbde17a46	-0.1100965
231	0x3e8e89fc	0.2783965
232	0x3e42637a	0.1898326
233	0xbe8fb68b	-0.28068957
234	0x3e89848a	0.26858932
235	0xbe55dc04	-0.2088471
236	0x3c278d29	0.010226526
237	0x3db607f1	0.088882335
238	0xbe5c8797	-0.21536098
239	0xbe8adb6a	-0.27120525
240	0x3e9c39c6	0.30512828
241	0x3d6f28bb	0.058388453
242	0x3c9ab9bb	0.018887391
243	0x3cdc75eb	0.026911696
244	0xbe4cf7de	-0.20016429
245	0xbe156a0b	-0.14591233
246	0x3e3a34be	0.18184182
247	0xbc3cbf10	-0.011520162
248	0xbd983c2b	-0.07433351
249	0x3e9d33cf	0.3070359
250	0xbccdf8f7	-0.02514313
251	0x3e2a1e76	0.16613182
252	0xbe3acd76	-0.1824244
253	0xbd641c60	-0.055691123
254	0xbe949eaf	-0.29027316
255	0xbcdfc5ab	-0.027315935

cnn.0.bias f4 [32]
0	0xbe91705e	-0.28406042
1	0xbe814bde	-0.25253195
2	0x3d192054	0.037384346
3	0xbda70b76	-0.08156483
4	0xbd8fa74a	-0.0701433
5	0xbea3137b	-0.318508
6	0xbe7b2aa6	-0.24527988
7	0xbea27e9b	-0.31737217
8	0x3dbad0c7	0.09121852
9	0xbe4efc18	-0.20213354
10	0x3df08c11	0.117454655
11	0x3ea36a67	0.31917116
12	0xbdeed603	-0.11661913
13	0xbe75ba98	-0.23996961
14	0xbe45fa19	-0.19333686
15	0x3e9c5f12	0.30541283
16	0x3ed76720	0.42070866
17	0x3e75e140	0.24011707
18	0xbdeba8cc	-0.11506805
19	0x3e26efc7	0.16302405
20	0x3ec111c1	0.37708858
21	0x3e2d518b	0.16925637
22	0x3d9eefe2	0.07760598
23	0xbcf568aa	-0.029957134
24	0x3dcc6477	0.099801
25	0xbdff5d9b	-0.12469026
26	0xbd014268	-0.03155747
27	0xbe16731b	-0.14692347
28	0xbd509616	-0.050924383
29	0x3e1d4da9	0.15361656
30	0xbe666b66	-0.22501907
31	0x3e95074d	0.29107133

cnn.2.weight f4 [64, 32, 3, 3]
0	0xbcc2ccb5	-0.023779253
1	0xbd67423e	-0.056459658
2	0x3c1f0140	0.009704888
3	0x3ce64cf9	0.028112875
4	0x3b8ac6a3	0.004235105
5	0x3cff03b1	0.03112969
6	0xbd017096	-0.03160151
7	0x3ce342eb	0.02774187
8	0xbd48f4c8	-0.049061567
9	0xbd534993	-0.051583838
10	0x3d2a6d9f	0.04160845
11	0x3cda98fe	0.02668428
12	0x3c8cb8c7	0.017177952
13	0x3d5a5f64	0.053313628
14	0x3c188825	0.009309803
15	0xbd370fea	-0.04469291
16	0x3d472f5b	0.048629146
17	0x3d17afe9	0.037032995
18	0xbccb2350	-0.024797112
19	0xbb26583a	-0.0025382177
20	0x3ce1420f	0.02749732
21	0xbd1035c8	-0.03520754
22	0x3d41c30f	0.047305163
23	0xbd5b6fb0	-0.05357331
24	0x3a979bcc	0.0011566817
25	0xbce8533d	-0.028360004
26	0x3d649c76	0.055813275
27	0xbcfc9198	-0.030831143
28	0x3cffcbf7	0.031225188
29	0x3c18b2ed	0.009320003
30	0xbc5330c5	-0.0128900455
31	0xbd0ad361	-0.033892993
32	0xbce5b41b	-0.028039983
33	0xbb8af8f0	-0.0042411014
34	0xbd29f465	-0.04149284
35	0xbb9cec3c	-0.0047889035
36	0x3cc2e4f3	0.023790812
37	0x3d57be7a	0.052671887
38	0x3cbac489	0.022798793
39	0x3d0d4c9d	0.034496892
40	0x3d3a7aea	0.045527376
41	0xbb78495b	-0.003788552
42	0x3d4f9a79	0.050684426
43	0x3b05be59	0.0020407645
44	0xbd2072c8	-0.039171964
45	0x3aa138a5	0.0012300207
46	0x3b7db800	0.003871441
47	0xbc7014c7	-0.014653391
48	0xbc988e8a	-0.018622655
49	0x3cf621d8	0.030045435
50	0x3c8e3adc	0.01736205
51	0xbd6c0c58	-0.05762896
52	0xbc581486	-0.013188487
53	0xbd5c2305	-0.053744335
54	0x3d0594ea	0.03261272
55	0x3cbc38ec	0.022976361
56	0x3d415dbf	0.047208544
57	0x3ccd635b	0.02507179
58	0xbd5b79a5	-0.053582806
59	0xbcd3b4bf	-0.025843022
60	0xbc27c7e0	-0.010240525
61	0xbce62fd2	-0.028098974
62	0x3c78ba15	0.015181084
63	0xbcd2e4c8	-0.025743857
64	0x3c7322b1	0.014839814
65	0xbce2a7db	-0.02766793
66	0x3b4d32f7	0.0031310895
67	0xbc45893e	-0.012056647
68	0xbc429c81	-0.011878134
69	0xbd5744d3	-0.05255587
70	0xbd235cbe	-0.039883368
71	0x3b61cf65	0.0034455892
72	0x3d3310fb	0.043717366
73	0xbd6856f4	-0.05672355
74	0xbd574d66	-0.052564047
75	0x3c3e37d6	0.011609992
76	0x3d3eca03	0.046579372
77	0xbc20bb9c	-0.009810355
78	0xbd2fbc2d	-0.042904068
79	0x3d02109e	0.03175413
80	0x3b68254c	0.0035422621
81	0x3d57ee07	0.052717235
82	0x3d203d03	0.039120685
83	0xbb1dae22	-0.002406009
84	0x3c654c87	0.013995296
85	0x3a60602b	0.0008559252
86	0xbca7753c	-0.020441644
87	0x3d52387e	0.051323406
88	0xbb882eb9	-0.0041559604
89	0x3d1e1e5f	0.038603183
90	0x3d0505f5	0.032476384
91	0xbc23ee4e	-0.010005547
92	0xbcadfc8d	-0.02123859
93	0x3d19e2dd	0.03756987
94	0xbd6630a3	-0.056198727
95	0x3894ab53	7.0891016e-05
96	0x3cd8458a	0.026400346
97	0x3ccdb839	0.025112258
98	0xbd49b38b	-0.04924349
99	0x3c175d8f	0.009238615
100	0xbd677bd9	-0.056514595
101	0xbc69fd32	-0.014281558
102	0xbd20d292	-0.039263315
103	0x3c825e9d	0.015914256
104	0x3ce970b5	0.028496126
105	0x3c558dfc	0.01303434
106	0xbd2ed600	-0.042684555
107	0x3d0ef67e	0.034903042
108	0xbc9e641d	-0.019334847
109	0xbcc51830	-0.024059385
110	0x3d4b8bbf	0.04969382
111	0x3c03f4b9	0.008053952
112	0x3d5d5278	0.054033726
113	0x3cf63205	0.030053148
114	0x3cc472f4	0.023980595
115	0x3c9cc1c5	0.019135365
116	0x3c25044a	0.010071823
117	0x3d1e11dc	0.03859125
118	0x3d50511e	0.05085861
119	0xbc3fb9ab	-0.011701982
120	0xbc0a38dc	-0.008436408
121	0xbd2b1c42	-0.041774996
122	0x3d44ff81	0.04809523
123	0xbd432799	-0.047645185
124	0xbce6ac3a	-0.028158296
125	0xbca42001	-0.020034792
126	0x3b9c8c1b	0.004777444
127	0xbbb6d256	-0.005579273
128	0x3d242056	0.0400699
129	0x3d6be6f5	0.057593305
130	0xbd41eaeb	-0.047343176
131	0x3d56c9f3	0.052438688
132	0x3d513dde	0.05108439
133	0xbd5ac263	-0.053408038
134	0x3c52e0b4	0.012870956
135	0x3b8345dc	0.0040061306
136	0xbcae0fa9	-0.021247702
137	0xbcecacc6	-0.028890979
138	0x3b9bf00e	0.0047588414
139	0xbd07b03e	-0.033127062
140	0xbd072ee6	-0.03300371
141	0xbd0d633c	-0.034518465
142	0x3d2f26e6	0.042761706
143	0x3cf270e5	0.029594848
144	0xbb460847	-0.0030217336
145	0x3ceeb341	0.02913821
146	0xbd1d531c	-0.038409337
147	0xbd2a9135	-0.041642386
148	0xbd16c93d	-0.03681301
149	0x3d170a81	0.03687525
150	0x3d5dc935	0.054146964
151	0xbc75c5e6	-0.015000796
152	0xbd4b19f6	-0.049585305
153	0x3c926baa	0.017873604
154	0xbd588b59	-0.052867267
155	0x3d238387	0.039920356
156	0x3d32c104	0.043641105
157	0x3d75a0f2	0.059967943
158	0x3d187f3f	0.037230726
159	0xbd0dc10c	-0.034607932
160	0x3c69ff23	0.014282021
161	0x3d4b42f9	0.049624417
162	0xbc165294	-0.009174962
163	0x3ce330f0	0.027733296
164	0x3cd1bc63	0.025602525
165	0x3cf39396	0.02973346
166	0x3ccdbc8a	0.025114316
167	0xbd6af7e7	-0.057365324
168	0x3ce3e6bf	0.02781999
169	0x3d10985a	0.035301544
170	0x3d6f6470	0.058445394
171	0x3c0ded30	0.008662507
172	0x3c86e64a	0.016467232
173	0xbd58d2dc	-0.052935466
174	0x3d66a4a3	0.056309354
175	0xbc115b61	-0.008871884
176	0x3d143f98	0.03619346
177	0xbd003859	-0.031303737
178	0x3cdb36f9	0.026759611
179	0x3d4a3071	0.049362604
180	0xbc0df46e	-0.008664234
181	0x3d558483	0.052128326
182	0x3d415259	0.047197673
183	0x3c65ea89	0.014032968
184	0x3be30d62	0.0069290856
185	0x3d332e14	0.043745115
186	0x3d2ff041	0.042953733
187	0xbd0f692b	-0.035012405
188	0xbd459f93	-0.048247885
189	0xbc861911	-0.016369374
190	0xbd35d184	-0.044389263
191	0x3d36560d	0.04451566
192	0xbd0a461b	-0.033758264
193	0xbcdc2e6f	-0.02687761
194	0xbd55debb	-0.052214365
195	0x3aa76b05	0.0012772983
196	0x3cc8092e	0.02441844
197	0x3b50e357	0.0031873786
198	0x3c5b416f	0.0133823
199	0x3d343829	0.04399887
200	0x3d16bbde	0.036800258
201	0xbcfb5f0a	-0.030684967
202	0xbd65a4f2	-0.056065507
203	0x3cddb340	0.027063012
204	0xbd2d360a	-0.042287864
205	0xbcae9a39	-0.021313773
206	0xbd0a16a5	-0.033713
207	0x3cf53916	0.029934447
208	0xbcb3984a	-0.021923203
209	0xbd37728e	-0.044786982
210	0x3b78febb	0.0037993628
211	0xbd521d0a	-0.051297225
212	0x3d52d724	0.051474705
213	0xbb8e1429	-0.0043358994
214	0x3d3aeb4f	0.045634564
215	0x3cadcb38	0.021215066
216	0x3cd6880a	0.026187915
217	0xbca2bf40	-0.019866586
218	0xbc426031	-0.011863754
219	0xbc03b458	-0.008038603
220	0xbc97163d	-0.018443221
221	0xbd23b6c8	-0.039969236
222	0xbd694c3f	-0.05695748
223	0xbd158d65	-0.036511797
224	0x3cb65068	0.022255138
225	0x3d618678	0.05505988
226	0xbd1bfa8c	-0.038080737
227	0x3c8d41bd	0.01724326
228	0xbd5a7eb6	-0.053343497
229	0x3d2b408c	0.041809604
230	0x3c6f3d6f	0.014602049
231	0xbcbdb931	-0.023159595
232	0x3cfac099	0.030609416
233	0xbbfed60f	-0.0077769826
234	0x3d4b5e8f	0.049650725
235	0xbd12db71	-0.035853807
236	0x3b60d3d5	0.003430595
237	0x3d237cb8	0.039913863
238	0xbc5c6602	-0.013452055
239	0x3d15740f	0.036487635
240	0xbd58e4b0	-0.05295247
241	0xbbc05f76	-0.005870755
242	0x3ac707c3	0.0015184808
243	0xbd2475dc	-0.040151462
244	0x3c9e40d8	0.01931803
245	0xbd05e499	-0.03268871
246	0x3d0169de	0.031595103
247	0x3c90c587	0.017672313
248	0x3d054105	0.03253271
249	0xbcb12a21	-0.021626534
250	0x3d030df8	0.031995744
251	0x3d6d3c40	0.057918787
252	0xbc992025	-0.018692086
253	0xbc44d5f6	-0.012013903
254	0xbc555793	-0.013021368
255	0x3c19682a	0.009363214

cnn.2.bias f4 [64]
0	0x3d8841d7	0.06653183
1	0x3d7be582	0.061498173
2	0x3d4b57b6	0.049644195
3	0x3b6c4558	0.0036052074
4	0x3ab66ac6	0.0013917319
5	0x3caec4d1	0.021334084
6	0xbc1ed458	-0.009694181
7	0xbbd2bffd	-0.006431578
8	0xbd661fa3	-0.056182515
9	0x3d468d6b	0.04847471
10	0x3dd6aa59	0.1048171
11	0xbd42dbf2	-0.047573037
12	0xbcfefd16	-0.03112654
13	0xbd705621	-0.05867589
14	0x3c9225fd	0.01784038
15	0x3ccd451b	0.025057366
16	0x3cd09b3b	0.025464645
17	0x3d27218d	0.04080348
18	0x3d6ee51e	0.058323972
19	0x3db48c70	0.08815849
20	0x3c952273	0.018204903
21	0xbd2d4dfc	-0.0423107
22	0x3ceb261d	0.028704697
23	0x3dc3351c	0.09531614
24	0x39a084b9	0.00030616464
25	0xbc289870	-0.01029025
26	0x3c3d22a9	0.011543908
27	0xbc48c2fa	-0.012253517
28	0x3d3512ac	0.04420726
29	0x3d3223d2	0.043491192
30	0xbce78521	-0.028261723
31	0xbabf779e	-0.0014607792
32	0xbd029b50	-0.0318864
33	0xbd150540	-0.03638196
34	0xbd1f0155	-0.03881963
35	0x3dd86599	0.10566253
36	0x3d78112a	0.060563244
37	0x3dac3680	0.084088326
38	0x3cc247c8	0.023715869
39	0x3d6af927	0.057366516
40	0x3d2bf885	0.041985054
41	0xbd12635b	-0.035739284
42	0x3d8d4aa2	0.06899001
43	0xbd43370a	-0.04765991
44	0x3dad9be0	0.084769964
45	0x3c8a465a	0.01687925
46	0xbd47ce1a	-0.04878054
47	0xbd3ef6d4	-0.046622112
48	0x3d068575	0.03284212
49	0xbc6a70ab	-0.014309089
50	0x3d7b9e06	0.06143
51	0x3ba161f9	0.0049250093
52	0x3cce1f50	0.025161415
53	0x3db31d33	0.08745804
54	0x3db6fa2e	0.08934437
55	0x38bad9cc	8.909739e-05
56	0x3d4bf21b	0.049791437
57	0x3bb84614	0.0056235883
58	0x3c481eab	0.012214343
59	0xbd5f6fd2	-0.05455
60	0xbd3de98a	-0.0463653
61	0xbbe56072	-0.0070000226
62	0xbc12405d	-0.008926478
63	0x3dbd10a4	0.092316896

state_net.0.weight f4 [32, 4]
0	0xbee6ff7b	-0.4511679
1	0x3d9b049c	0.075692385
2	0xbeda7c1d	-0.42672816
3	0x3d2b6698	0.041845888
4	0x3e86d292	0.26332527
5	0x3eb18994	0.34675276
6	0x3de22bf9	0.11043543
7	0x3dba92f3	0.091100596
8	0xbefeb244	-0.4974538
9	0x3d0b7ad0	0.03405267
10	0xbdcb29f0	-0.09920108
11	0xbeb4e3c0	-0.3533001
12	0x3ee512f8	0.44741035
13	0x3eb37709	0.35051754
14	0x3ed476d7	0.41496918
15	0x3d3bc057	0.045837726
16	0x3e58a675	0.21157248
17	0x3e3d1101	0.18463518
18	0xbeaa5bbf	-0.33273122
19	0x3ecab216	0.39588994
20	0x3ee39aa8	0.4445393
21	0x3e400128	0.18750441
22	0x3de062e8	0.10956365
23	0xbe8fe5a4	-0.2810489
24	0x3e2756db	0.16341726
25	0x3de0c057	0.10974186
26	0xbe5998fb	-0.21249764
27	0xbedd76e2	-0.43254763
28	0x3eee6aac	0.4656576
29	0x3e3dc79c	0.18533176
30	0xbe26cb2c	-0.16288441
31	0xbea38bfa	-0.3194273
32	0x3eba4291	0.3637891
33	0x3eda01c8	0.42579484
34	0x3ea370a6	0.3192188
35	0x3e476f2c	0.19476002
36	0x3ef36e98	0.47545314
37	0x3eaa5bc6	0.33273143
38	0x3ccec99f	0.025242625
39	0x3cd3e5eb	0.02586647
40	0xbe61a846	-0.22036847
41	0xbdbfeff8	-0.09371942
42	0x3ee37f3a	0.44433004
43	0x3ecf7aa8	0.40523267
44	0xbd8f5a43	-0.06999638
45	0xbedf123f	-0.43568608
46	0x3ea97bda	0.33102304
47	0x3ea6e021	0.32592872
48	0xbeea9640	-0.45817757
49	0xbec48d6c	-0.38389146
50	0xbe867a02	-0.2626496
51	0x3ed3e69a	0.41386873
52	0xbd838eee	-0.06423746
53	0xbd35e8e6	-0.044411562
54	0x3eaa6027	0.33276483
55	0x3e6330fd	0.22186656
56	0xbd521b56	-0.0512956
57	0x3edc2318	0.42995524
58	0xbec7e5a2	-0.39042383
59	0x3e1bc6a6	0.15212497
60	0xbeddd87a	-0.4332922
61	0xbdd45b40	-0.10368967
62	0x3e11bec7	0.14232932
63	0xbeeb6bf8	-0.4598081
64	0x3e95caa2	0.2925616
65	0xbd2f7c90	-0.0428434
66	0x3e66cde8	0.22539485
67	0xbec20cb8	-0.3790033
68	0x3ae57200	0.0017505288
69	0xbd043310	-0.03227526
70	0xbe8e8dd8	-0.27842593
71	0xbed98c8a	-0.42490035
72	0xbd6e07be	-0.058112852
73	0xbea47eb0	-0.32127905
74	0x3e5e60e3	0.21716647
75	0x3ebcd1a2	0.36878687
76	0x3e3162eb	0.1732289
77	0x3d01cbff	0.031688686
78	0x3de80b58	0.11330289
79	0x3e356290	0.1771338
80	0x3eab7e58	0.3349483
81	0xbe9b9dea	-0.30393916
82	0x3e3e32c3	0.18574052
83	0xbe737c34	-0.23777848
84	0x3ecf616e	0.4050402
85	0x3e3bab5e	0.1832709
86	0xbe6c3d55	-0.23070271
87	0x3e8d415a	0.27588922
88	0x3eab5aad	0.33467618
89	0x3e5a7c8c	0.21336573
90	0xbdac68ac	-0.08418402
91	0x3ea9df37	0.33178112
92	0x3e1de398	0.15418851
93	0xbdc9b1e8	-0.09848386
94	0xbeb9079a	-0.36138612
95	0xbe4c7e70	-0.19970107
96	0x3e1805bb	0.14845936
97	0xbd2b6e69	-0.041853342
98	0x3ec2ff26	0.38085288
99	0x3df7ea54	0.121052414
100	0xbe8810b5	-0.26575246
101	0x3dac67a8	0.08418208
102	0xbeed050e	-0.4629292
103	0x3db80dec	0.089870304
104	0x3defdf1f	0.11712479
105	0xbe7407a2	-0.23831037
106	0xbea72c53	-0.32651004
107	0x3dc3da00	0.095630646
108	0xbe151d5f	-0.14561985
109	0xbe0f94d4	-0.14021617
110	0x3ecaef7b	0.39635834
111	0xbe02bde9	-0.12767757
112	0xbeeca400	-0.46218872
113	0x3dcd1562	0.10013844
114	0x3d132ff8	0.03593442
115	0x3dc442ba	0.095830396
116	0x3ed714cd	0.42008057
117	0xbeea2d0b	-0.4573749
118	0xbd8a7195	-0.06759945
119	0x3e2ed53d	0.17073531
120	0xbef5e4a4	-0.48026
121	0xbe1437b4	-0.14474374
122	0xbcc30840	-0.023807645
123	0xbeebd2be	-0.4605922
124	0x3e8fedcc	0.28111112
125	0xbec8e5bc	-0.39237773
126	0xbf0025e2	-0.50057805
127	0x3df08812	0.11744703

state_net.0.bias f4 [32]
0	0x3e867eaf	0.26268527
1	0x3ea688aa	0.3252614
2	0xbe827ef8	-0.25487494
3	0xbe56920f	-0.20954154
4	0x3eeea5af	0.46610782
5	0xbefe0416	-0.49612492
6	0x3e4696af	0.19393419
7	0xbef5130e	-0.478661
8	0x3b020582	0.0019839709
9	0xbb6bb432	-0.003596556
10	0x3e349179	0.17633618
11	0x3e49d32d	0.19709463
12	0xbea33650	-0.31877375
13	0x3dd360e8	0.10321218
14	0xbdbf990f	-0.093553655
15	0xbe10218a	-0.14075294
16	0xbea0003a	-0.31250173
17	0xbed0faf0	-0.4081645
18	0x3ba44391	0.0050129374
19	0x3dc84430	0.09778631
20	0x3dd1876f	0.1023091
21	0x3e0a5c8c	0.13511866
22	0x3ef57e06	0.4794771
23	0xbef33486	-0.4750101
24	0x3ea44305	0.32082382
25	0x3d9c14e8	0.07621175
26	0x3ea44823	0.32086286
27	0xbccbdea6	-0.02488644
28	0x3ccf256c	0.025286399
29	0x3e6f1e63	0.23351435
30	0xbead23d4	-0.33816397
31	0xbd9ced19	-0.0766241

state_net.2.weight f4 [32, 32]
0	0x3e116dc2	0.14202026
1	0x3c6cb3d1	0.014447168
2	0xbcf0ce7f	-0.02939534
3	0xbe2997b4	-0.16561776
4	0xbe055a53	-0.13022737
5	0x3d3f1ce5	0.046658415
6	0xbd98de76	-0.07464306
7	0xbdfad08e	-0.1224681
8	0xbda227d7	-0.07917755
9	0xbd977450	-0.07395232
10	0x3dde016d	0.10840116
11	0x3dee6f5d	0.116423346
12	0x3dfd8700	0.12379265
13	0xbd6a9380	-0.057269573
14	0x3d43d89c	0.047813997
15	0xbd8e30cc	-0.06942901
16	0xbd8111c9	-0.063022204
17	0xbe19efaf	-0.15032838
18	0xbd3784fa	-0.04480455
19	0x3d5a2aa9	0.05326334
20	0x3df3c54c	0.11902866
21	0x3cfab3ed	0.030603373
22	0x3d6b875d	0.05750214
23	0xbd7485d2	-0.059697933
24	0x3c78c805	0.015184407
25	0x3df60e90	0.12014496
26	0xbd379ac5	-0.044825334
27	0x3df8a1b7	0.1214022
28	0x3d90b5a9	0.07065899
29	0xbe02c7b1	-0.12771489
30	0xbd925c2f	-0.07146489
31	0x3da566fb	0.080762826
32	0xbd72b5ff	-0.059255596
33	0xbcb5bb6c	-0.022184096
34	0x3e020580	0.1269741
35	0x3e211351	0.15730025
36	0xbdcdf178	-0.10055822
37	0x3e349b91	0.17637469
38	0x3c55e92e	0.013056083
39	0x3dea8a6a	0.11452182
40	0x3c557989	0.0130294645
41	0xbda4087b	-0.0800943
42	0xbe26aa9f	-0.16276024
43	0xbe2df1d9	-0.16986789
44	0x3dc2868c	0.09498319
45	0x3e275d57	0.163442
46	0x3e2c672e	0.16836235
47	0x3e19bb2f	0.15012811
48	0x3e187d0b	0.1489145
49	0x3d366afd	0.044535626
50	0x3db5b427	0.08872252
51	0x3dbd10d1	0.09231723
52	0xbd760a52	-0.060068436
53	0xbd1be158	-0.0380567
54	0x3d34aa70	0.044107854
55	0x3d9ec7d8	0.07752961
56	0xbd981929	-0.07426674
57	0xbb6b1688	-0.0035871584
58	0xbce88918	-0.028385684
59	0x3e310923	0.17288642
60	0x3e0218ed	0.12704821
61	0xbb8ae572	-0.004238778
62	0x3dcf6b4f	0.10127889
63	0xbd8de09b	-0.06927606
64	0x3e2be8de	0.1678805
65	0x3d7d6b53	0.06186993
66	0xbe24ff8e	-0.16113111
67	0x3ddf152e	0.108927116
68	0xbde6e01b	-0.112732135
69	0xbe09910e	-0.1343424
70	0xbce9e025	-0.028549263
71	0x3dcab5f2	0.098979846
72	0x3d1a11b5	0.037614543
73	0xbd63a3d4	-0.05557616
74	0xbdbd8055	-0.09252993
75	0xbce7c25e	-0.028290924
76	0x3dae22e2	0.08502747
77	0xbd563b72	-0.052302785
78	0xbe17eff6	-0.14837632
79	0xbdd6dac1	-0.10490943
80	0x3e2e79d0	0.17038655
81	0xbdfd8519	-0.12378902
82	0x3c1b11f2	0.009464728
83	0xbe3498ae	-0.17636368
84	0x3db38829	0.08766205
85	0x3dc2aad2	0.09505238
86	0xbe048d89	-0.12944616
87	0x3cdd935b	0.027047804
88	0xbe32c0fa	-0.17456427
89	0xbd943584	-0.0723677
90	0x3db0fd31	0.086420424
91	0xbc476078	-0.012168996
92	0xbe0b54cd	-0.13606568
93	0xbd04a1c9	-0.032380853
94	0x3bef2d42	0.0072990963
95	0x3d3b5012	0.045730658
96	0x3e1e1c01	0.1544037
97	0xbd05945b	-0.032612186
98	0xbe1d4c40	-0.15361118
99	0x3e16efc5	0.14739902
100	0x3e06f493	0.13179235
101	0x3e2a1b61	0.16612007
102	0x3c0eed63	0.00872359
103	0xbdb56838	-0.08857769
104	0xbd1924b8	-0.037388533
105	0xbe18392a	-0.14865556
106	0x3d10b9a0	0.035333276
107	0x3e0c57f2	0.13705423
108	0x3d679901	0.0565424
109	0xbd40c7e9	-0.04706565
110	0xbc608df5	-0.01370572
111	0xbdcad794	-0.099043995
112	0x3cb94f0b	0.022620698
113	0x3d8ba461	0.06818462
114	0x3caf24f9	0.021379935
115	0x3e0b7e93	0.13622503
116	0x3d943482	0.072365776
117	0xbe331a60	-0.1749053
118	0x3ce2170f	0.027598886
119	0x3d554422	0.05206693
120	0x3d38daac	0.045130417
121	0x3ded7697	0.11594885
122	0x3e0bffc5	0.13671787
123	0x3d10ad1f	0.03532135
124	0x3e1120d8	0.14172685
125	0x3ca8bb4f	0.020597128
126	0xbe15b735	-0.14620669
127	0xbdaf5f71	-0.08563126
128	0x3d834f5e	0.064116225
129	0x3d8a8dd3	0.06765332
130	0xbe09665a	-0.1341795
131	0x3d71cb9f	0.05903208
132	0x3e0b4b9a	0.13603058
133	0xbc924400	-0.01785469
134	0xbe32c78e	-0.17458937
135	0x3d861932	0.065477744
136	0x3d868e05	0.06570057
137	0xbc2b3dcc	-0.010451745
138	0x3e268ad2	0.16263893
139	0x3df583d3	0.11988034
140	0x3cc78caa	0.024359066
141	0x3e38ddc7	0.18053351
142	0x3ce4bfdd	0.027923519
143	0x3e32282c	0.17398137
144	0xbdae2153	-0.0850245
145	0x3e1e746f	0.15474103
146	0xbbbd05fc	-0.0057685357
147	0xbcde9968	-0.02717276
148	0x3e102518	0.1407665
149	0xbe0bf4ca	-0.13667598
150	0xbd62915f	-0.055314418
151	0x3d901e97	0.070370845
152	0x3e437f31	0.19091488
153	0x3d688e3f	0.05677628
154	0x3db96ea4	0.09054306
155	0xbdcdfc06	-0.10057835
156	0xbce57660	-0.028010547
157	0xbe329bd9	-0.17442264
158	0x3e1b40fc	0.15161508
159	0x3d083423	0.033252846
160	0x3e023c2c	0.12718266
161	0xbe12bc76	-0.14329705
162	0x3d2ff270	0.042955816
163	0xbd2c9faa	-0.042144455
164	0x3d29931e	0.041400068
165	0xbe15b42d	-0.14619513
166	0xbde7ca54	-0.11317888
167	0xbd221e54	-0.039579704
168	0x3e3614ee	0.17781422
169	0x3dbdf9f7	0.09276193
170	0x3daa5ef2	0.08318891
171	0x3e07daee	0.13267109
172	0xbc114f4c	-0.0088690035
173	0xbdd30e53	-0.103054665
174	0xbd025f1a	-0.031828977
175	0xbe05ea03	-0.1307755
176	0x3d77d8e9	0.060509596
177	0x3d9517f7	0.072799616
178	0xbdca4d41	-0.09878016
179	0xbe2d5eb8	-0.16930664
180	0xbc85b0c8	-0.016319647
181	0xbd2c299d	-0.042031873
182	0x3e0394e3	0.12849765
183	0xbdb4f91b	-0.088365756
184	0x3e1bf543	0.15230279
185	0x3dd7d99b	0.10539552
186	0xbdeb7ff2	-0.11499013
187	0xbe15bb1d	-0.1462216
188	0xbd83237a	-0.06403251
189	0x3d9c1350	0.07620871
190	0x3dd7729b	0.10519906
191	0x3dbcc5fa	0.092174485
192	0x3de3130a	0.11087616
193	0x3ae72d08	0.0017637322
194	0xbd8a630b	-0.06757172
195	0x3c8588c3	0.016300565
196	0xbd3dfba9	-0.04638258
197	0xbb9cdda7	-0.004787165
198	0x3e146962	0.14493325
199	0xbe11c703	-0.14236073
200	0xbdaa9af7	-0.083303384
201	0xbd80eaae	-0.062947616
202	0xbde3904c	-0.11111507
203	0x3d13fe26	0.036131047
204	0x3e10df6b	0.14147727
205	0x3d9cae97	0.07650488
206	0xbdf51436	-0.119667456
207	0xbc4bf51e	-0.012448577
208	0x3e11ab16	0.1422542
209	0xbdb24b44	-0.08705762
210	0xbd95e197	-0.073184185
211	0xbd2b0e10	-0.041761458
212	0x3c247115	0.0100367265
213	0x3d51df7a	0.051238514
214	0x3e1b3c35	0.15159686
215	0xbda55c1b	-0.08074208
216	0xbd630268	-0.055422217
217	0x3e1854a4	0.14876038
218	0xbe1129ee	-0.14176151
219	0xbe11437e	-0.14185902
220	0x3e0516fb	0.12997048
221	0x3dffbae8	0.124868214
222	0x3cd4c6ff	0.025973795
223	0x3e1b32c4	0.15156084
224	0xbe0192b6	-0.12653622
225	0x3e1adbcf	0.15122913
226	0x3df1e381	0.11810971
227	0x3d98ae49	0.07455117
228	0x3d5404d9	0.051762436
229	0xbc9d4ba7	-0.019201113
230	0xbe232426	-0.15931758
231	0x3e12e13b	0.14343731
232	0xbd85c170	-0.06531036
233	0x3ba392ce	0.0049918657
234	0x3d21daa3	0.03951515
235	0x3df3045e	0.11866067
236	0x3e322e0b	0.17400376
237	0xbdf76428	-0.1207965
238	0xbd229232	-0.039690204
239	0x3bb411e2	0.005495296
240	0xbcc4acf7	-0.024008257
241	0xbe0c83f9	-0.13722219
242	0x3da528ea	0.08064444
243	0xbdb214f2	-0.08695401
244	0xbdcedf15	-0.10101143
245	0x3d84a1b8	0.06476158
246	0x3d1c9088	0.038223773
247	0xbdd836fb	-0.10557362
248	0xbda3a252	-0.079899445
249	0x3db606ba	0.08888002
250	0x3c903393	0.017602718
251	0xbe11457b	-0.14186661
252	0x3dc7b0d1	0.09750522
253	0xbe2a4cff	-0.16630934
254	0x3de3c938	0.11122364
255	0x3b3f8c57	0.0029227936

state_net.2.bias f4 [32]
0	0xbe03a4ba	-0.12855807
1	0x3d951582	0.07279493
2	0x3d2a5a31	0.04158992
3	0xbd10a92c	-0.035317585
4	0xbe2597a2	-0.16171125
5	0xbb8fbd3f	-0.0043865736
6	0x3d363f51	0.044493977
7	0xbd8e5609	-0.06950004
8	0x3d935fd9	0.07196016
9	0x3e101da5	0.14073808
10	0xbe1e9aa4	-0.15488678
11	0x3e389605	0.18025978
12	0xba36d447	-0.0006974381
13	0x3db43b99	0.0880043
14	0xbe093539	-0.13399209
15	0xbd3205c3	-0.043462526
16	0x3e28adb2	0.1647251
17	0xbe2e3d58	-0.17015588
18	0xbd1fd2b2	-0.039019294
19	0xbe33849d	-0.17531057
20	0x3ae5cf48	0.0017533088
21	0x3d63393b	0.0554745
22	0x3c15ce71	0.009143458
23	0xbbca8ad1	-0.006181099
24	0x3d8a636b	0.06757244
25	0xbd1d37f7	-0.03838345
26	0xbd5df47e	-0.054188244
27	0xbe0d8a50	-0.13822293
28	0x3e11ad48	0.14226258
29	0xbe1ca758	-0.15298212
30	0x3dfd1463	0.12357404
31	0xbe2dc25a	-0.1696867

shared_net.0.weight f4 [128, 1056]
0	0xbc42e71a	-0.011895919
1	0xbcdf32fc	-0.027245991
2	0x3c7ac66b	0.015306096
3	0xbc9f61ed	-0.019455874
4	0xbce84052	-0.028350983
5	0xbc8d5c71	-0.017255994
6	0x3bafb992	0.005362698
7	0x3c0880ec	0.008331519
8	0xbcab5a0b	-0.02091696
9	0x3b3f5a32	0.0029198048
10	0x3c3c9201	0.011509419
11	0xbc9991ad	-0.018746221
12	0xbadddbe7	-0.0016926498
13	0x3ca6a15f	0.02034062
14	0x3bf23149	0.007391129
15	0x3bd7349a	0.00656755
16	0x3c8cc1de	0.017182287
17	0x3cf6a42d	0.030107582
18	0xbc3e0469	-0.011597731
19	0x3a3e6749	0.00072633155
20	0xbc41078d	-0.011781585
21	0x3c7b1a8c	0.0153261535
22	0x3b26255e	0.0025351862
23	0x3ce331a2	0.027733628
24	0xbcbe50ba	-0.023231853
25	0x3c4e0aa1	0.012575776
26	0xbc54ae1d	-0.012980965
27	0x3c762166	0.015022611
28	0xbadcc852	-0.0016844368
29	0x3cb70a47	0.022343768
30	0xbc77ca6a	-0.015123943
31	0xbc142adb	-0.009043421
32	0x3cb84496	0.022493642
33	0x3cf67398	0.030084416
34	0x3ca550f6	0.020180207
35	0x3c8a0726	0.016849112
36	0x3cc93bd0	0.024564654
37	0x3c011fdb	0.00788113
38	0xbc8c24cf	-0.017107395
39	0x3c65097f	0.013979315
40	0xbc84467f	-0.016146896
41	0x3c9a3f69	0.018829064
42	0xbc84c7ff	-0.016208647
43	0x3cf37ec9	0.029723542
44	0x3a7b0493	0.0009575572
45	0xbca03f74	-0.019561507
46	0xbc71569e	-0.014730124
47	0x3bfbb575	0.0076815435
48	0x3c414380	0.011795878
49	0xbcf41ffb	-0.029800406
50	0xbbccb4e3	-0.0062471493
51	0x3bfc4869	0.0076990617
52	0xbb8cb7da	-0.0042943778
53	0x3c541733	0.012944984
54	0x3cabd84b	0.02097716
55	0x3cbb5361	0.022866907
56	0xbba291f8	-0.0049612485
57	0xbb71d199	-0.0036898612
58	0xbc957017	-0.018241925
59	0xbc317ebf	-0.010833441
60	0xbce7c1cf	-0.028290657
61	0xbb5c9d97	-0.0033663267
62	0xbb718bda	-0.003685704
63	0x3cd5b6a0	0.026088059
64	0x3c32114e	0.010868384
65	0x3cc60321	0.024171414
66	0x3bbc59ff	0.005748033
67	0x39c39569	0.00037304618
68	0x3cbbde1f	0.022933064
69	0xbc180337	-0.00927811
70	0xbc9f5d5b	-0.019453695
71	0xbce18a72	-0.027531836
72	0xbcc48a39	-0.023991691
73	0xbc54ffaf	-0.013000413
74	0xbc9886b3	-0.018618917
75	0xbb53ead1	-0.0032336006
76	0xbc45f3a5	-0.012082015
77	0xbcc16f92	-0.023612771
78	0xbca8234b	-0.020524641
79	0xbcf94f76	-0.030433398
80	0xbca742ab	-0.020417532
81	0x3bcaa863	0.006184624
82	0xbcf30210	-0.02966407
83	0x3c7ece91	0.015552179
84	0xbc97ff12	-0.018554244
85	0xbccd1a19	-0.025036858
86	0xbb825660	-0.003977582
87	0x3cd59b4f	0.026075033
88	0xbc9ff8a9	-0.01952775
89	0xbbc5eba9	-0.006040056
90	0x3c8afe5d	0.016966993
91	0xbc21fac1	-0.009886445
92	0xbc815be5	-0.015790889
93	0x3ca886b7	0.02057205
94	0x3cc4ebb8	0.02403818
95	0xbca47913	-0.020077264
96	0x3c85280c	0.016254447
97	0x3c618e63	0.013766858
98	0x3cbeb121	0.023277821
99	0x3c1b3f8e	0.009475602
100	0x3c8e4f2c	0.017371736
101	0x3c8764d7	0.016527576
102	0x3ce99a5f	0.028515993
103	0x3ce3bdc9	0.027800458
104	0x3c3db53f	0.011578857
105	0xbc9030e5	-0.01760144
106	0x3c93427c	0.017976038
107	0xbc2742f4	-0.010208834
108	0xbbd436eb	-0.0064762733
109	0xbc4586b9	-0.012056046
110	0xbb23596d	-0.0024925128
111	0xbcddad98	-0.027060315
112	0x3b8d9ee6	0.0043219207
113	0xbc21596d	-0.009847981
114	0xbcb5e322	-0.022203032
115	0x39c0f2a5	0.00036801878
116	0x3c9a40d7	0.018829746
117	0x3cb08e5b	0.021552255
118	0xbcfb611f	-0.03068596
119	0x3ca08782	0.019595865
120	0x3bca81d7	0.006180029
121	0xbc4d6658	-0.012536608
122	0xbc1a5b8e	-0.009421242
123	0xbb34f9bb	-0.0027614671
124	0x3ba3b256	0.0049956245
125	0x3c6a861b	0.0143142
126	0xbcf81535	-0.03028355
127	0x3cf0acf6	0.02937935
128	0x3bccff2f	0.006256006
129	0xbcb503f0	-0.022096604
130	0xbcb813e6	-0.022470426
131	0xbcb2bfec	-0.021820031
132	0x3b2ad81c	0.0026068753
133	0xbcc03972	-0.023464892
134	0x3cf45a24	0.029828139
135	0x3b76f1c2	0.003768072
136	0x3b8a3c4e	0.0042186147
137	0x3b6c018d	0.0036011667
138	0xbc8ed311	-0.017434629
139	0x3c448d1c	0.011996534
140	0xbcedef53	-0.029044783
141	0x3c2b2b76	0.010447374
142	0x3bec48aa	0.0072108107
143	0x3c7eb9db	0.015547241
144	0x3c3f1e8d	0.011664999
145	0xbc034cda	-0.008013928
146	0x3b9e7b8f	0.0048365067
147	0x3b1c91e1	0.0023890662
148	0x3c1bb713	0.0095040975
149	0xbca99c1d	-0.020704323
150	0x3ca53474	0.020166613
151	0xbc9db65a	-0.019251991
152	0x3b609cd4	0.0034273164
153	0xbcb0c613	-0.021578824
154	0x3be115ee	0.0068690693
155	0xbc8cf3eb	-0.017206153
156	0x3cc1061c	0.023562483
157	0xbcb78258	-0.02240102
158	0xbc4123c3	-0.011788311
159	0xbcc77049	-0.024345534
160	0xbcbcfd20	-0.023069918
161	0xbc68b1ef	-0.014202579
162	0xba1901a5	-0.0005836732
163	0xbb4d8a5c	-0.0031362986
164	0x3c1be5f4	0.009515274
165	0x3ce033a6	0.027368378
166	0xbc22c37f	-0.009934305
167	0x3c956056	0.018234413
168	0xbc6615b3	-0.014043259
169	0xbc1fc61b	-0.009751822
170	0xbcf5a78b	-0.029987117
171	0xbb630775	-0.0034641896
172	0x3ca5514d	0.020180369
173	0xbb0bfb11	-0.0021359364
174	0x3a9608a7	0.001144667
175	0xbc2bb9b0	-0.010481283
176	0x3c8f00b9	0.0174564
177	0x3cf68331	0.030091854
178	0x3c003c8f	0.007826938
179	0x3b78cb32	0.003796291
180	0xb9268d42	-0.00015883616
181	0x3cb45388	0.022012487
182	0x3c80b81d	0.015712792
183	0xbb1b5172	-0.0023699668
184	0x3b605bd1	0.0034234414
185	0x3c873568	0.016504958
186	0x3cb4c39d	0.022065932
187	0xbcda8a87	-0.026677383
188	0xbbc86a9a	-0.0061162235
189	0xbc3d1dfe	-0.011542795
190	0xbcb2eaf9	-0.02184056
191	0x3ca65959	0.020306276
192	0xbc91287f	-0.017719505
193	0xbc27d987	-0.010244734
194	0xbcd4c1d3	-0.025971329
195	0xbc1f4192	-0.009720223
196	0xbc600be7	-0.013674713
197	0x3c7537a1	0.014966876
198	0x3c2aa765	0.0104158865
199	0x3c922c79	0.017843472
200	0xbc02cce1	-0.007983417
201	0x3c9982a6	0.018739056
202	0x3cbd8ed1	0.02313939
203	0xbc6c4f5b	-0.014423217
204	0x3c3477c3	0.011014882
205	0xbc719d52	-0.014746981
206	0xbc949508	-0.01813747
207	0xbab88b56	-0.0014079611
208	0x3ca8b3d3	0.02059356
209	0xbcaebc71	-0.02133009
210	0x3c041204	0.008060936
211	0x3c833dd0	0.016020685
212	0xbc9a7b6d	-0.018857682
213	0xbca5369f	-0.020167647
214	0xbcfa5799	-0.030559348
215	0xbb00a9ee	-0.0019632536
216	0x3c852555	0.016253153
217	0xbcfae02f	-0.030624477
218	0x3c4bdd5c	0.012442913
219	0x3c85c9d4	0.01633159
220	0xbcc46eeb	-0.023978671
221	0x3c83b15c	0.016075782
222	0x3c911963	0.0177123
223	0x3c3f6756	0.011682352
224	0x3c3bc940	0.011461556
225	0x3ce1a219	0.027543114
226	0xbc984ba2	-0.018590752
227	0x3cd340eb	0.025787791
228	0x3cb1dce6	0.021711778
229	0xbc3b01c8	-0.011413999
230	0x3cd75b04	0.026288517
231	0x3bd9348c	0.0066285785
232	0xbc8377a0	-0.016048253
233	0x3ca9536d	0.020669663
234	0xbc3ade11	-0.011405484
235	0x3a398b68	0.0007077963
236	0x3c5ab6f0	0.01334928
237	0xbc9f75ce	-0.019465353
238	0x3b4c4b7d	0.0031172924
239	0x3c93f89c	0.018062882
240	0xbc16c395	-0.009201904
241	0x3a615656	0.0008595934
242	0x3c87b744	0.01656688
243	0xbc8a6502	-0.016893867
244	0x3c847da5	0.016173193
245	0x3c26fac0	0.010191619
246	0xbc94fde4	-0.01818747
247	0x3cdfc6e3	0.027316516
248	0xbcb68578	-0.02228044
249	0x3cd632fb	0.026147356
250	0xbccd93dd	-0.02509492
251	0x3b915e28	0.004436273
252	0x3cd4f252	0.025994454
253	0x3c09a186	0.008400327
254	0x3c31c0ad	0.01084916
255	0x3c2d883e	0.010591565

shared_net.0.bias f4 [128]
0	0xbd07edfd	-0.033185948
1	0xbc91f9fa	-0.017819393
2	0xbd21a997	-0.039468374
3	0x3c838b60	0.01605767
4	0xbc41fb57	-0.011839709
5	0xba9e31f6	-0.0012069333
6	0xbc9a4c54	-0.018835224
7	0x3c88793c	0.016659372
8	0x3ce9d28f	0.028542785
9	0x3d224f01	0.039626125
10	0xbca309ff	-0.019902227
11	0x3cc861c2	0.024460677
12	0x3ca0ac7a	0.019613493
13	0x3d1f1bfc	0.038845047
14	0xbcd99b87	-0.026563419
15	0xbcdd4c26	-0.02701385
16	0x3d71c4c3	0.059025537
17	0x3c2685d4	0.010163743
18	0x3d59ee63	0.05320586
19	0xbc4d5101	-0.01253152
20	0xbc9cdee9	-0.01914926
21	0x3c2c720b	0.010525237
22	0xbcb094c4	-0.021555312
23	0xbc8c57b3	-0.017131662
24	0xbc90eb07	-0.017690195
25	0xbb437560	-0.00298246
26	0x3c093c28	0.008376159
27	0xbc6fd728	-0.0146387
28	0x3cce88c1	0.025211694
29	0xbba0bb61	-0.00490515
30	0xbc9e2bf9	-0.019308077
31	0x3c4cea75	0.012507071
32	0x3ca0ddbe	0.019636985
33	0x3d42ccdf	0.04755866
34	0x3c568f3a	0.013095671
35	0xbced4fac	-0.028968655
36	0xbcbed903	-0.023296839
37	0x3a50e32d	0.0007968422
38	0xbc2b749d	-0.0104648145
39	0x3c414dcc	0.011798333
40	0x3c8a2ecd	0.01686802
41	0x3d084ae4	0.033274546
42	0x3d203ee3	0.039122473
43	0xbb8dfd80	-0.004333198
44	0xbcd13262	-0.02553672
45	0x3be4ff9f	0.00698848
46	0xbc4142bf	-0.011795699
47	0x3c38790d	0.0112593295
48	0x3ba45230	0.0050146803
49	0xbbdbb42f	-0.006704829
50	0xbbce1d3b	-0.0062901056
51	0x3cebddab	0.028792223
52	0x3cfa43d0	0.030549914
53	0x3d521b26	0.051295422
54	0x3cd3ce65	0.025855253
55	0xba74a5ef	-0.00093325874
56	0x3d252769	0.040320788
57	0xbab53698	-0.0013825474
58	0x3d6ca9c5	0.057779092
59	0xbcb918e3	-0.022594875
60	0xbb810715	-0.003937612
61	0xbcf92667	-0.03041382
62	0xbc65c4cb	-0.01402397
63	0xbcc5360d	-0.024073625
64	0x3c3dcadb	0.011584009
65	0x3cfe3244	0.031029828
66	0xbb129cd3	-0.0022371307
67	0xbbcf5561	-0.0063273166
68	0x3aba501b	0.0014214547
69	0xbc25cab7	-0.010119132
70	0x3d90ef8a	0.070769385
71	0x3c23a10b	0.009987126
72	0x3c83bdcf	0.016081719
73	0x3c8dc3d4	0.017305292
74	0xbca1067e	-0.019656416
75	0x3cab07d6	0.02087776
76	0xbc63b00d	-0.013896954
77	0xbc77f62e	-0.015134377
78	0x3cab3c6a	0.020902831
79	0x3cb11dba	0.02162062
80	0x3c71296a	0.014719347
81	0x3cd45b57	0.02592246
82	0x3d0506a6	0.032477044
83	0xbc09de43	-0.008414808
84	0xbcade942	-0.02122939
85	0x3c89f401	0.016839983
86	0xbaf3986b	-0.0018584853
87	0xbcd527d9	-0.026019977
88	0xbc4abf28	-0.012374677
89	0x3ccd3973	0.025051808
90	0xbc993f3a	-0.018706907
91	0x3c64d936	0.013967803
92	0xbcad95f8	-0.021189675
93	0x3cbd961c	0.023142867
94	0x3c239b16	0.009985706
95	0xbcf88433	-0.030336475
96	0xba8a006b	-0.0010528689
97	0xbcc8edef	-0.024527518
98	0x3cd96288	0.026536241
99	0xbc717e43	-0.014739576
100	0x3d1bd3b3	0.03804369
101	0x3c23736d	0.00997625
102	0x3d8501d4	0.06494489
103	0xbc462401	-0.012093545
104	0x3bd269a5	0.006421285
105	0xbc813902	-0.015774254
106	0xbcdce7f4	-0.026966073
107	0x3d733d5b	0.059384685
108	0xbc29b2f5	-0.010357608
109	0x3d369417	0.044574823
110	0x3c8109c1	0.015751721
111	0xbcece5fc	-0.028918259
112	0x3cd7bd12	0.026335273
113	0xbc01109e	-0.007877497
114	0xbc463eb6	-0.012099912
115	0x3b4f7bc3	0.003165946
116	0xbb84e46d	-0.004055551
117	0x3d95fc2e	0.0732349
118	0xbcf6ea85	-0.030141125
119	0x3b291466	0.0025799512
120	0xbc4e37c1	-0.012586535
121	0x3cd07932	0.025448415
122	0x3ce68c29	0.028143005
123	0x3cdb536d	0.026773179
124	0xbbf1a56d	-0.0073744566
125	0xbc3c0df9	-0.011477941
126	0xbc112e7a	-0.0088611785
127	0xbc99114e	-0.01868501

shared_net.2.weight f4 [64, 128]
0	0xbd9cd59e	-0.07657932
1	0x3cc9c709	0.02463104
2	0x3d005fcb	0.031341355
3	0x3daa16a8	0.083051026
4	0xbbbd8f80	-0.005784929
5	0x3d6bce3c	0.057569727
6	0xbd8df74b	-0.06931933
7	0x3d65bb84	0.056087032
8	0x3bea77a4	0.0071553756
9	0xbdadb082	-0.08480932
10	0x3d3cc7be	0.046088926
11	0xbd550b11	-0.052012507
12	0x3c3c12f2	0.011479126
13	0x3d5da902	0.054116257
14	0xbcb3e6e1	-0.021960678
15	0x3c5e9e77	0.013587586
16	0xbd3692b0	-0.044573486
17	0x3b7ad3d6	0.0038273237
18	0x3d75ba79	0.059992287
19	0x3d36424f	0.04449683
20	0xbce9c20c	-0.028534912
21	0x3d57e476	0.05270811
22	0x3d19af74	0.03752084
23	0xbd016533	-0.03159065
24	0x3d79f83c	0.06102775
25	0x3da7fa1e	0.08202003
26	0x3cf004dc	0.029299192
27	0x3d731987	0.059350517
28	0xbb6893a1	-0.0035488384
29	0x3d8e0656	0.06934802
30	0xbc56ee0e	-0.01311828
31	0xbce0bea6	-0.027434658
32	0xbd4487df	-0.04798114
33	0xbd57f722	-0.05272592
34	0xbd6c3239	-0.057665084
35	0xbd953480	-0.07285404
36	0xbd52175f	-0.05129182
37	0x3d6dce34	0.05805798
38	0xbce2d056	-0.027687233
39	0xbda24a3f	-0.079243176
40	0xbd94e901	-0.072710045
41	0xbd07057d	-0.03296422
42	0xbd6179a5	-0.05504765
43	0xbd83e154	-0.06439462
44	0x3da54207	0.08069234
45	0xbd7db57b	-0.06194065
46	0x3da64863	0.081192754
47	0x3c962f1e	0.018333014
48	0xbd83afbb	-0.06430002
49	0x3c9b9759	0.018993067
50	0xbca7324d	-0.020409727
51	0x3ce147f6	0.027500134
52	0x3da41dcf	0.08013498
53	0x3b00ed18	0.001967257
54	0xbda3e816	-0.08003251
55	0xbd8c4776	-0.068495676
56	0x3d7d9be1	0.061916236
57	0x3ba6be45	0.0050886
58	0x3b865d90	0.004100509
59	0x3d0a606d	0.033783365
60	0x3ce1f846	0.027584206
61	0x3db39c3d	0.087700345
62	0x3cb7624d	0.02238574
63	0x3d842fd4	0.06454435
64	0xbc9c1c8c	-0.019056581
65	0x3d8a1f78	0.067442834
66	0xbd2511c9	-0.040300164
67	0xbd0ff40d	-0.035144854
68	0xbd6e5c85	-0.058193702
69	0x3db084f6	0.0861911
70	0x3d6a4fa5	0.05720486
71	0xbd9eb6f1	-0.07749737
72	0xbdadf8f8	-0.08494753
73	0xbda198fc	-0.078905076
74	0x3c240296	0.010010382
75	0x3d190ff8	0.037368745
76	0x3db30a4f	0.087422006
77	0xbd014e8a	-0.03156904
78	0x3bda9227	0.0066702547
79	0xbd8b9dd8	-0.06817216
80	0x3d42889d	0.047493566
81	0x3d92c6d2	0.07166828
82	0x3d4c4133	0.049866866
83	0xbd78cd0a	-0.060742415
84	0xbc6d219a	-0.014473343
85	0xbc762419	-0.015023255
86	0x3d96ad30	0.07357252
87	0xbd148c34	-0.03626652
88	0x3cf90656	0.030398529
89	0x3bf81eb2	0.0075720185
90	0x3da33dba	0.07970758
91	0xbd0542b8	-0.03253433
92	0xbd825ac4	-0.063649684
93	0x3ca5b6ce	0.02022877
94	0x3d95f5d5	0.07322279
95	0xbcccb6ff	-0.024989603
96	0xbd47dba6	-0.048793457
97	0x3d23afcf	0.039962586
98	0x3d0b32cd	0.033983994
99	0xbd0c64a3	-0.034275662
100	0x3d013c6c	0.031551763
101	0xbd4b9609	-0.04970363
102	0xbd969b4e	-0.07353841
103	0x3d354360	0.044253707
104	0xbd978e18	-0.07400149
105	0xbd0480c9	-0.03234938
106	0xbdad8467	-0.08472519
107	0xbc865f82	-0.016402964
108	0x3c67c7b7	0.014146737
109	0x3c026a0c	0.007959854
110	0xbd7ae56a	-0.061253943
111	0x3d86c308	0.06580168
112	0x3d5c82cf	0.053835686
113	0xbb274ced	-0.002552803
114	0xbc5fc165	-0.013656949
115	0xbd20a5a1	-0.039220456
116	0xbcec6f91	-0.028861793
117	0xbcd3e71c	-0.025867037
118	0x3bda0fc8	0.0066547133
119	0xbda64e5b	-0.08120414
120	0x3d814481	0.06311894
121	0x3d7c7581	0.061635498
122	0x3c1cfe9f	0.009582191
123	0x3d2a3835	0.04155751
124	0x3d80ae64	0.06283262
125	0xbd72137a	-0.059100606
126	0x3d95c3be	0.073127255
127	0x3c45ef67	0.012081004
128	0xbd2bea50	-0.041971505
129	0xbcf3451c	-0.02969604
130	0x3d0f20ea	0.0349435
131	0x3d71a0ce	0.058991246
132	0x3d5b6904	0.053566948
133	0xbd012e1a	-0.031538107
134	0x3dacfd21	0.08446718
135	0xbd4c3b14	-0.04986103
136	0x3c7e4a76	0.015520683
137	0xbb524af4	-0.0032088133
138	0xbd6905c0	-0.05689025
139	0xbceba3b2	-0.02876458
140	0x3bce9b5d	0.006305142
141	0xbcb5e5c0	-0.02220428
142	0x3d2b6778	0.041846722
143	0x3d978ccb	0.07399901
144	0xbc12184e	-0.0089169275
145	0xbd4adfa5	-0.04952969
146	0x3da9cd27	0.08291083
147	0x3d1df3de	0.038562648
148	0x3c9bfb99	0.01904087
149	0xbdb0c879	-0.08631987
150	0x3cc54da0	0.024084866
151	0x3d14d7a1	0.036338452
152	0xbce329c9	-0.027729886
153	0x3c8b4ddf	0.017004905
154	0xbda0b8f5	-0.07847778
155	0xbd3b4097	-0.045715895
156	0xbbfe958f	-0.0077692936
157	0xbc01457c	-0.0078901015
158	0xb9cdd72f	-0.0003926097
159	0x3d81f7b3	0.06346073
160	0x3d8ec9c4	0.069720775
161	0x3c6f7223	0.014614615
162	0x3d5e6495	0.05429514
163	0xbd57713f	-0.052598234
164	0xbdae0ef9	-0.084989496
165	0x3ced7b00	0.028989315
166	0x3d7d70e6	0.061875246
167	0x3d474430	0.048649013
168	0xbd7e0894	-0.0620199
169	0x3da88d87	0.08230119
170	0x3d9a6649	0.075390406
171	0x3d4dcef1	0.050246183
172	0xbcf0a850	-0.029377133
173	0xbd70cb31	-0.05878753
174	0x3d8d7907	0.0690785
175	0x3d372e1a	0.0447217
176	0x3d2535c6	0.040334485
177	0x3d7065ba	0.058690764
178	0xbccb0f87	-0.024787677
179	0x3d8ce949	0.06880433
180	0xbd9cc3bf	-0.07654523
181	0x3d1e7dfd	0.03869437
182	0xbd908e83	-0.07058432
183	0xbc26f840	-0.010191023
184	0x3da9c4e0	0.08289504
185	0x3cc26745	0.023730883
186	0x3d8b4219	0.067997165
187	0x3d6f696b	0.058450144
188	0xbca1a219	-0.019730614
189	0x3d17f2e8	0.037096888
190	0xbd43e107	-0.047822025
191	0xbcaf49d0	-0.021397501
192	0x3d8a7b09	0.06761748
193	0x3d9aa8d8	0.07551736
194	0xbd8452ba	-0.06461091
195	0xbd7e76c0	-0.062124968
196	0x3d893fb6	0.06701605
197	0xbd3da61e	-0.046301
198	0x3ab45561	0.0013758355
199	0xbd89c7dc	-0.06727573
200	0xbd09e14c	-0.033662125
201	0xbd86d71e	-0.06583999
202	0xbd902fa1	-0.070403345
203	0x3be4179d	0.0069608227
204	0x3d9f5a7f	0.07780933
205	0xbc1030fd	-0.008800742
206	0x3c62b704	0.01383758
207	0x3da5b817	0.08091753
208	0x3d03583b	0.032066565
209	0xbc9a492a	-0.018833715
210	0x3dcacb5f	0.09902071
211	0x3db13755	0.08653132
212	0xbcc24b59	-0.02371757
213	0x3d294486	0.041325115
214	0x3d736c58	0.059429497
215	0xbd881af4	-0.06645766
216	0xbb66e801	-0.00352335
217	0xbc82c12d	-0.015961254
218	0xbd8c030e	-0.0683652
219	0xbda191c2	-0.07889129
220	0xbd93f44c	-0.0722433
221	0x3c324bad	0.0108823
222	0x3d32b2a5	0.0436274
223	0x3d7b440e	0.0613442
224	0xbcd0a3f2	-0.0254688
225	0x3d80e5e8	0.06293851
226	0x3d22d6e3	0.039755713
227	0xbd1d267c	-0.03836678
228	0x3c898042	0.01678479
229	0x3c85ae83	0.016318565
230	0x3dcbd3cd	0.09952507
231	0xbd474977	-0.048654046
232	0x3d09e181	0.033662323
233	0xbd209eae	-0.03921383
234	0xbd542fc1	-0.051803354
235	0xbcbb6a7f	-0.02287793
236	0x3d1b9f91	0.03799397
237	0x3d482ed0	0.04887277
238	0xbd3b3cb6	-0.045712195
239	0xbcf64ea8	-0.030066803
240	0x3d983990	0.07432854
241	0xbd2d15e0	-0.04225719
242	0xbc878230	-0.01654157
243	0x3d3ba182	0.045808323
244	0x3d045dc6	0.03231599
245	0x3d9675ae	0.07346664
246	0xbd5bfce1	-0.05370796
247	0x3d4bb691	0.049734656
248	0xbb0748da	-0.0020642788
249	0x3d70e2f7	0.0588102
250	0xbd9fc501	-0.078012474
251	0xbcb5bfb7	-0.022186143
252	0x3ca6cc2a	0.020361025
253	0x3b79f519	0.0038140474
254	0x3b75db93	0.003751491
255	0x3b0c3b1b	0.0021397534

shared_net.2.bias f4 [64]
0	0xbd33e90c	-0.043923423
1	0x3da0e1cb	0.078555666
2	0xbc37cae6	-0.011217808
3	0x3aef03e2	0.001823541
4	0x3b71f0e5	0.0036917266
5	0x3da32543	0.079660915
6	0xbdafadde	-0.085780844
7	0x3cf8cc8c	0.030370973
8	0x3d67f85f	0.05663335
9	0x3e18414a	0.14868656
10	0xbd3a9242	-0.04554964
11	0x3d7c52aa	0.061602272
12	0xbd67ebcb	-0.056621354
13	0x3e2000e6	0.15625343
14	0x3e1fdfc0	0.15612698
15	0xbd46e400	-0.04855728
16	0xbda1d288	-0.07901484
17	0x3da4a4bd	0.08039234
18	0x3e0e85d0	0.13918233
19	0xbc43c256	-0.011948189
20	0x3d383e6f	0.044981416
21	0x3c833aa5	0.016019175
22	0xbd900ba0	-0.07033467
23	0x3e08d8d5	0.13363965
24	0x3e0ab190	0.13544297
25	0x3de9d3f9	0.11417384
26	0xbca945b1	-0.020663114
27	0x3de90a9e	0.11378978
28	0xbb858e83	-0.0040758266
29	0x3d86d91e	0.065843806
30	0x3c5ab8ad	0.013349694
31	0x3d08eb8d	0.033427764
32	0xbd822802	-0.06355287
33	0x3cdcbbce	0.026945021
34	0xbdaa1637	-0.083050184
35	0xbd553b67	-0.052058604
36	0x3a57b810	0.00082290266
37	0x3d628811	0.055305544
38	0xbcf7438f	-0.030183582
39	0xbd3303f0	-0.043704927
40	0x3c4993a4	0.012303267
41	0xbd3e8407	-0.04651263
42	0xbcc8636c	-0.02446147
43	0x3e17c6fc	0.14822
44	0x3d48da12	0.049036093
45	0xbcd145b4	-0.025545932
46	0x3d8006bd	0.06251285
47	0x3e2c7a2c	0.1684348
48	0xbcc1f723	-0.023677414
49	0x3df0cd20	0.117578745
50	0x3a35e1d2	0.0006938252
51	0x3d221a62	0.03957594
52	0xbd00f1b4	-0.031480506
53	0xbd4ebdf8	-0.050474137
54	0x3db293e3	0.087196134
55	0xbd76118f	-0.06007534
56	0xbd8ee5c4	-0.06977418
57	0x3d00c85a	0.03144107
58	0xbd338bdd	-0.043834556
59	0x3c378d1b	0.011203076
60	0xbd906007	-0.07049566
61	0xbd44490a	-0.047921218
62	0xbd17d10d	-0.0370646
63	0x3d8ce2e2	0.06879212
