logs/20250602_124519/final_model.pt (torch, 742223 bytes, 19 tensors)

cnn.0.weight f4 [32, 1, 3, 3]
0	0x3e07bdde	0.13256022
1	0xbe009593	-0.12557058
2	0x3e05c258	0.13062418
3	0xbe8d255b	-0.27567562
4	0xbe929906	-0.28632373
5	0xbe8ab31b	-0.27089772
6	0x3e924d8a	0.28574783
7	0xbea9374c	-0.3305
8	0x3da63aa0	0.081166506
9	0x3e9e6370	0.3093524
10	0x3e3304a3	0.17482238
11	0xbdf81610	-0.12113583
12	0xbe5b2406	-0.2140046
13	0x3e0a44c0	0.13502789
14	0x3e344e16	0.17607912
15	0xbe85558a	-0.26041824
16	0xbc74fe2b	-0.0149531765
17	0xbe244ef8	-0.16045749
18	0x3dcda6e8	0.100416005
19	0x3eaa54aa	0.3326772
20	0xbe726ca1	-0.23674251
21	0xbe31822b	-0.17334811
22	0xbe25e269	-0.1619965
23	0xbd3df5e8	-0.046377093
24	0x3d038695	0.03211077
25	0xbe87eb3d	-0.2654666
26	0xbe241d2a	-0.1602675
27	0x3e9b5add	0.3034276
28	0x3dabcdf6	0.08388893
29	0x3e111ac4	0.14170367
30	0xbe6dd490	-0.23225617
31	0x3e04459e	0.12917182
32	0x3dd04f4b	0.10171374
33	0xbd636636	-0.055517398
34	0x3d6fcf43	0.05854727
35	0x3de7ea58	0.113239944
36	0xbd624acb	-0.05524711
37	0xbde5ffbb	-0.11230417
38	0x3e8ab7ff	0.27093503
39	0x3df3fd4b	0.11913546
40	0xbe50dd08	-0.20396817
41	0xbdb13986	-0.0865355
42	0xbe5dfbd8	-0.21678102
43	0x3e37f52e	0.17964622
44	0xbe7f1b00	-0.24912643
45	0x3d38baf6	0.045100175
46	0x3e505163	0.20343547
47	0x3e13e190	0.14441514
48	0x3d061b60	0.03274095
49	0x3e09f4be	0.13472268
50	0xbe57eb18	-0.21085775
51	0xbe4fd8e3	-0.2029758
52	0xbdd18b00	-0.1023159
53	0x3d418e6b	0.04725496
54	0x3e763cce	0.24046633
55	0xbd0b7ec0	-0.034056425
56	0x3dd3c350	0.10339987
57	0xbe2d0a60	-0.16898489
58	0xbd634056	-0.055481277
59	0x3e300676	0.17189965
60	0xbea87fcf	-0.3291001
61	0x3e0d6580	0.1380825
62	0x3eaa0f84	0.33214962
63	0xbe55d993	-0.20883779
64	0x3cbffb96	0.023435395
65	0x3e1ddfc6	0.15417394
66	0x3ea8da94	0.32979262
67	0xbe3d6473	-0.1849535
68	0x3cf29eeb	0.029616794
69	0xbe8b2e53	-0.2718378
70	0xbe42d7b0	-0.19027591
71	0x3e1b31b8	0.15155685
72	0x3ea6193a	0.3244112
73	0xbe1252b4	-0.14289361
74	0x3afeab1b	0.0019429656
75	0xbe6da553	-0.23207597
76	0xbdcf160d	-0.10111628
77	0xbea89498	-0.32925868
78	0x3d2ccb26	0.042185925
79	0xbe5c5ef6	-0.215206
80	0x3d1c1152	0.038102455
81	0xbda5c91b	-0.080949984
82	0xbe895ec0	-0.268301
83	0xbe01bf0e	-0.12670538
84	0xbe86a707	-0.26299307
85	0x3e94b613	0.29045162
86	0x3e8fd0c3	0.2808896
87	0x3e44c6f8	0.19216526
88	0xbdd4d6b0	-0.10392511
89	0x3e4d20f6	0.20032105
90	0xbea29717	-0.31755897
91	0x3dc76bc1	0.09737349
92	0xbde2ac9a	-0.110680774
93	0x3d949001	0.07254029
94	0x3e914d79	0.2837942
95	0xbd8101bf	-0.06299161
96	0xbc2513ba	-0.010075504
97	0xbbbd0edf	-0.005769595
98	0xbc8de777	-0.017322285
99	0xbdb79523	-0.089639924
100	0x3d328e4a	0.04359273
101	0x3dae66b0	0.0851568
102	0xbe0a3039	-0.13494958
103	0xbd28ca57	-0.04120859
104	0xbe321c5f	-0.17393635
105	0xbe6815b6	-0.22664532
106	0x3e7b120f	0.24518608
107	0xbe826304	-0.25466168
108	0x3e999354	0.29995215
109	0xbe2ead86	-0.17058381
110	0xbe900f3e	-0.2813663
111	0xbd8467cb	-0.064651094
112	0x3c456d0b	0.012049924
113	0x3e89fc7a	0.26950437
114	0x3e63963d	0.2222528
115	0x3e80f3da	0.25186044
116	0x3e5fce12	0.21855953
117	0x3e20c3fe	0.15699765
118	0xbe6230b0	-0.22088885
119	0xbded6ceb	-0.1159304
120	0x3e37bf43	0.17944054
121	0xbc83a216	-0.0160685
122	0xbe3333b0	-0.17500186
123	0xbe2f0716	-0.17092547
124	0xbdcaf550	-0.09910071
125	0x3b509aab	0.003183047
126	0x3ea6b0ec	0.32556856
127	0x3e259c13	0.16172819
128	0xbe762643	-0.24038033
129	0xbc9c8e50	-0.019110829
130	0x3e9ddeef	0.30834147
131	0xbdb53e4b	-0.08849772
132	0xbd002736	-0.031287394
133	0xbe8b3132	-0.2718597
134	0x3de41656	0.11137073
135	0xbe1b5e3b	-0.15172665
136	0x3e8f6338	0.28005385
137	0xbea7f53e	-0.32804292
138	0x3dc01a20	0.09379983
139	0xbe076786	-0.13223085
140	0x3e1cdf41	0.1531954
141	0xbe93a927	-0.2883999
142	0xbe83058e	-0.25590175
143	0x3e955938	0.2916963
144	0x3e25385d	0.16134782
145	0x3e37e660	0.17958975
146	0xbe822e50	-0.2542596
147	0x3d34937d	0.04408597
148	0x3dede529	0.116159745
149	0x3dc6f040	0.09713793
150	0x3e377686	0.17916307
151	0xbd26b137	-0.04069635
152	0xbe9358cb	-0.2877868
153	0xbea3ba4b	-0.31978068
154	0x3dcb0db8	0.09914726
155	0xbe8c8034	-0.2744156
156	0xbe0679c1	-0.13132383
157	0x3e90bf91	0.28271154
158	0xbe647862	-0.22311547
159	0xbe9a3ad9	-0.30123022
160	0xbe66ae63	-0.22527461
161	0x3e7740c3	0.24145798
162	0xbd224178	-0.039613217
163	0xbe1981d3	-0.1499093
164	0xbe49ff16	-0.19726214
165	0x3e5e0672	0.21682146
166	0x3ddf4c55	0.10903231
167	0xbe14d230	-0.14533305
168	0x3d37293a	0.04471705
169	0x3e850f3d	0.25988188
170	0xbea0cae8	-0.31404805
171	0x3e8bce7a	0.27305967
172	0x3bdea8e3	0.006795035
173	0xbc5360e2	-0.012901517
174	0xbe784dd4	-0.24248439
175	0x3e971959	0.29511526
176	0xbd1fa1bf	-0.038972612
177	0x3ea73564	0.3265792
178	0xbe19e6ad	-0.15029402
179	0xbe20dc9e	-0.15709159
180	0xbe11e3a9	-0.14247002
181	0xbca8c912	-0.02060369
182	0xbd1e22ad	-0.03860729
183	0xbe64a033	-0.22326736
184	0xbe5cc2c4	-0.21558672
185	0x3e084605	0.1330796
186	0xbe2ba467	-0.16761933
187	0x3e7ee1d7	0.24890839
188	0xbdaf39d7	-0.08555954
189	0xbd51905c	-0.051163062
190	0xbe93b0fa	-0.2884596
191	0xbd120a32	-0.035654254
192	0xbeaa8e44	-0.33311665
193	0xbea85044	-0.32873738
194	0x3d385b2a	0.045008816
195	0x3e9b5afc	0.30342853
196	0xbe358f87	-0.17730533
197	0x3da39417	0.0798723
198	0x3e191dfb	0.14952843
199	0x3ea4cb43	0.32186326
200	0xbea7030d	-0.32619515
201	0xbe120bb8	-0.14262283
202	0xbe133790	-0.14376664
203	0x3e39b6b5	0.18136103
204	0x3e941f87	0.28930303
205	0xbe8d061b	-0.2754372
206	0xbe860a5b	-0.26179776
207	0x3dcab986	0.09898667
208	0xbe84a673	-0.2590824
209	0xbd81d356	-0.06339137
210	0xbe646a5e	-0.22306201
211	0x3e619377	0.2202891
212	0x3cff089a	0.031132031
213	0xbdf165e6	-0.11787014
214	0xbe155948	-0.1458484
215	0x3ccd66e1	0.02507347
216	0x3e6f5190	0.23370957
217	0xbe2751a5	-0.16339739
218	0x3de2d4de	0.110757574
219	0x3e50810c	0.20361727
220	0xbda856f5	-0.08219711
221	0xbd5b4ac7	-0.05353811
222	0xbd5d961a	-0.054098226
223	0xbe4037fb	-0.18771355
224	0x3cfb98dd	0.03071254
225	0xbdc0ecc0	-0.094201565
226	0xbcd72e16	-0.026267093
227	0xbe406f78	-0.18792522
228	0x3d664763	0.056220423
229	0x3e01703e	0.12640473
230	0xbde17a46	-0.1100965
231	0x3e8e8a2e	0.27839798
232	0x3e426380	0.18983269
233	0xbe8fb68b	-0.28068957
234	0x3e898573	0.26859626
235	0xbe55dbbb	-0.20884602
236	0x3c278de1	0.010226698
237	0x3db612d3	0.08890309
238	0xbe5c869d	-0.21535726
239	0xbe8adb6a	-0.27120525
240	0x3e9c3acc	0.30513608
241	0x3d6f2ebd	0.058394182
242	0x3c9aba7a	0.018887747
243	0x3cdc75eb	0.026911696
244	0xbe4cf7de	-0.20016429
245	0xbe156a0b	-0.14591233
246	0x3e3a34be	0.18184182
247	0xbc3cbef7	-0.011520139
248	0xbd983c2b	-0.07433351
249	0x3e9d33d4	0.30703604
250	0xbccdf87e	-0.025142904
251	0x3e2a1e76	0.16613182
252	0xbe3acd76	-0.1824244
253	0xbd641c60	-0.055691123
254	0xbe949eaf	-0.29027316
255	0xbcdfc5ab	-0.027315935

cnn.0.bias f4 [32]
0	0xbe91705e	-0.28406042
1	0xbe814bde	-0.25253195
2	0x3cfe4cb2	0.03104243
3	0xbda716c0	-0.08158636
4	0xbd8fa762	-0.070143476
5	0xbea3137b	-0.318508
6	0xbe7b2aa6	-0.24527988
7	0xbea27e9b	-0.31737217
8	0x3dd4c651	0.10389388
9	0xbe4efc18	-0.20213354
10	0x3e02b966	0.12766036
11	0x3eb1c4f9	0.3472059
12	0xbdeec019	-0.116577335
13	0xbe75ba98	-0.23996961
14	0xbe45fa19	-0.19333686
15	0x3ea9904f	0.3311791
16	0x3ee957b8	0.45574737
17	0x3e83b853	0.25726566
18	0xbdeba480	-0.11505985
19	0x3e324d15	0.17412217
20	0x3ed5e544	0.41776478
21	0x3e3bdeda	0.1834673
22	0x3db006e8	0.08595067
23	0xbcf571c1	-0.029961469
24	0x3de39acd	0.1111351
25	0xbdff577e	-0.1246786
26	0xbd00a8a8	-0.031410843
27	0xbe167222	-0.14691976
28	0xbd508fca	-0.050918378
29	0x3e2e1b18	0.17002523
30	0xbe666b66	-0.22501907
31	0x3ea07be9	0.31344536

cnn.2.weight f4 [64, 32, 3, 3]
0	0xbcc2ccb5	-0.023779253
1	0xbd67423e	-0.056459658
2	0x3c1f0140	0.009704888
3	0x3ce64cf9	0.028112875
4	0x3b8ac6a3	0.004235105
5	0x3cff03b1	0.03112969
6	0xbd017096	-0.03160151
7	0x3ce342eb	0.02774187
8	0xbd48f4c8	-0.049061567
9	0xbd534993	-0.051583838
10	0x3d2a6d9f	0.04160845
11	0x3cda98fe	0.02668428
12	0x3c8cb8c7	0.017177952
13	0x3d5a5f64	0.053313628
14	0x3c188825	0.009309803
15	0xbd370fea	-0.04469291
16	0x3d472f5b	0.048629146
17	0x3d17afe9	0.037032995
18	0xbcca9c76	-0.02473281
19	0xbb21fe9f	-0.0024718416
20	0x3ce1bd15	0.027555982
21	0xbd0fde07	-0.03512385
22	0x3d4221a9	0.047395382
23	0xbd5b1599	-0.053487394
24	0x3aa338e0	0.0012452863
25	0xbce78323	-0.028260773
26	0x3d65010e	0.05590921
27	0xbcfc9165	-0.030831048
28	0x3cffcbf7	0.031225188
29	0x3c18b4db	0.009320463
30	0xbc5330c5	-0.0128900455
31	0xbd0ad361	-0.033892993
32	0xbce5b3f4	-0.02803991
33	0xbb8af6fb	-0.004240868
34	0xbd29f465	-0.04149284
35	0xbb9ce796	-0.0047883494
36	0x3cc2e4fd	0.02379083
37	0x3d57be7a	0.052671887
38	0x3cbac657	0.022799654
39	0x3d0d4c9d	0.034496892
40	0x3d3a7aea	0.045527376
41	0xbb78495b	-0.003788552
42	0x3d4f9a79	0.050684426
43	0x3b05be59	0.0020407645
44	0xbd207215	-0.039171297
45	0x3aa138a5	0.0012300207
46	0x3b7db800	0.003871441
47	0xbc7014c7	-0.014653391
48	0xbc988e8a	-0.018622655
49	0x3cf621d8	0.030045435
50	0x3c8e3adc	0.01736205
51	0xbd6c0c58	-0.05762896
52	0xbc581486	-0.013188487
53	0xbd5c2305	-0.053744335
54	0x3d0594ea	0.03261272
55	0x3cbc38ec	0.022976361
56	0x3d415dbf	0.047208544
57	0x3ccd635b	0.02507179
58	0xbd5b79a5	-0.053582806
59	0xbcd3b4bf	-0.025843022
60	0xbc27c7e0	-0.010240525
61	0xbce62fd2	-0.028098974
62	0x3c78ba15	0.015181084
63	0xbcd2e4c8	-0.025743857
64	0x3c7322b1	0.014839814
65	0xbce2a7db	-0.02766793
66	0x3b4d32f7	0.0031310895
67	0xbc45893e	-0.012056647
68	0xbc429c81	-0.011878134
69	0xbd5744d3	-0.05255587
70	0xbd235cbe	-0.039883368
71	0x3b61cf65	0.0034455892
72	0x3d33cda6	0.043897294
73	0xbd678545	-0.05652358
74	0xbd568985	-0.052377243
75	0x3c41dfff	0.01183319
76	0x3d3fd1a2	0.04683078
77	0xbc1ccee6	-0.009570813
78	0xbd2eca19	-0.042673204
79	0x3d0324db	0.03201757
80	0x3b790170	0.0037995242
81	0x3d57ee07	0.052717235
82	0x3d203d03	0.039120685
83	0xbb1dae22	-0.002406009
84	0x3c654c87	0.013995296
85	0x3a60602b	0.0008559252
86	0xbca7753c	-0.020441644
87	0x3d52387e	0.051323406
88	0xbb882eb9	-0.0041559604
89	0x3d1e1e5f	0.038603183
90	0x3d05f151	0.03270084
91	0xbc1fac13	-0.009745616
92	0xbcabde97	-0.020980163
93	0x3d1b038f	0.03784519
94	0xbd64e38b	-0.055881064
95	0x39cb3f23	0.00038766218
96	0x3cda848e	0.026674535
97	0x3cd04ff0	0.025428742
98	0xbd486a6d	-0.04892962
99	0x3c217142	0.009853663
100	0xbd64934f	-0.055804547
101	0xbc5e82e0	-0.013581008
102	0xbd1db9b8	-0.038507193
103	0x3c89837f	0.016786335
104	0x3cf086b5	0.029361108
105	0x3c620afe	0.013796566
106	0xbd2b3a85	-0.041803855
107	0x3d1292f2	0.03578467
108	0xbc9e63c8	-0.019334689
109	0xbcc51811	-0.024059327
110	0x3d4b8cba	0.049694754
111	0x3c03f4be	0.008053957
112	0x3d5d5278	0.054033726
113	0x3cf632aa	0.030053455
114	0x3cc472f4	0.023980595
115	0x3c9cc1c5	0.019135365
116	0x3c25043a	0.0100718085
117	0x3d1e11dc	0.03859125
118	0x3d50511e	0.05085861
119	0xbc3fb9ab	-0.011701982
120	0xbc0a38dc	-0.008436408
121	0xbd2b1c42	-0.041774996
122	0x3d44ff81	0.04809523
123	0xbd432799	-0.047645185
124	0xbce6ac3a	-0.028158296
125	0xbca42001	-0.020034792
126	0x3b9c8c1d	0.004777445
127	0xbbb6d256	-0.005579273
128	0x3d242056	0.0400699
129	0x3d6be6f5	0.057593305
130	0xbd41eaeb	-0.047343176
131	0x3d56c9f3	0.052438688
132	0x3d513dde	0.05108439
133	0xbd5ac263	-0.053408038
134	0x3c52e0b4	0.012870956
135	0x3b969452	0.004595318
136	0xbca872d3	-0.020562565
137	0xbce71480	-0.028208017
138	0x3bb38cb4	0.0054794196
139	0xbd04458e	-0.032292895
140	0xbd03c45b	-0.03216968
141	0xbd0a70f7	-0.033799138
142	0x3d3290ab	0.043594997
143	0x3cf9382c	0.030422293
144	0xbb1163da	-0.002218476
145	0x3cf653e3	0.030069297
146	0xbd198af4	-0.03748603
147	0xbd2688d8	-0.040657848
148	0xbd121e0c	-0.035673186
149	0x3d1bb5bf	0.038015123
150	0x3d61d238	0.05513212
151	0xbc631918	-0.013860963
152	0xbd4671ba	-0.0484483
153	0x3c962e31	0.018332573
154	0xbd56618e	-0.05233913
155	0x3d25a2b1	0.040438358
156	0x3d351155	0.044205982
157	0x3d7848d0	0.060616314
158	0x3d1b1b42	0.037867792
159	0xbd0b6d3e	-0.03403973
160	0x3c74b57e	0.014935849
161	0x3d4de657	0.050268497
162	0xbc165294	-0.009174962
163	0x3ce330f0	0.027733296
164	0x3cd1bc63	0.025602525
165	0x3cf39396	0.02973346
166	0x3ccdbc8a	0.025114316
167	0xbd6af7e7	-0.057365324
168	0x3ce3e6bf	0.02781999
169	0x3d10985a	0.035301544
170	0x3d6f6470	0.058445394
171	0x3c12fc94	0.008971352
172	0x3c89d4c2	0.016825084
173	0xbd575c24	-0.052578107
174	0x3d683067	0.056686785
175	0xbc0a2d73	-0.0084336875
176	0x3d160c41	0.03663278
177	0xbcfd585a	-0.030925918
178	0x3cdecdad	0.027197683
179	0x3d4bfd53	0.049802136
180	0xbc01e83b	-0.007928903
181	0x3d5902bb	0.05298112
182	0x3d44caf7	0.048045125
183	0x3c74a95e	0.014932958
184	0x3c029363	0.00796971
185	0x3d376dcd	0.04478245
186	0x3d33a221	0.04385579
187	0xbd0b233a	-0.03396914
188	0xbd415c3c	-0.047207102
189	0xbc836c76	-0.01604293
190	0xbd344acb	-0.04401664
191	0x3d37cffd	0.044876087
192	0xbd08a22a	-0.033357777
193	0xbcd86d52	-0.026419315
194	0xbd540bf1	-0.0517692
195	0x3adc9bb4	0.0016831071
196	0x3ccbd97f	0.024883984
197	0x3b6eadf2	0.0036419597
198	0x3c5db2e3	0.013531419
199	0x3d34e69c	0.04416524
200	0x3d175fd6	0.03695663
201	0xbcf9d8e1	-0.030498924
202	0xbd64c636	-0.05585309
203	0x3cdf67da	0.0272712
204	0xbd2c6f53	-0.042098355
205	0xbcacd2e3	-0.021096652
206	0xbd09372a	-0.033499874
207	0x3cf53916	0.029934447
208	0xbcb3984a	-0.021923203
209	0xbd37728e	-0.044786982
210	0x3b78febb	0.0037993628
211	0xbd521d0a	-0.051297225
212	0x3d52d724	0.051474705
213	0xbb8e1429	-0.0043358994
214	0x3d3aeb4f	0.045634564
215	0x3cadcb38	0.021215066
216	0x3cd8216f	0.02638313
217	0xbca0e490	-0.019640237
218	0xbc3ead5a	-0.01163801
219	0xbbff9028	-0.007799167
220	0xbc94d049	-0.018165724
221	0xbd22942d	-0.039692093
222	0xbd684fc0	-0.05671668
223	0xbd1467f3	-0.036231946
224	0x3cb89dd7	0.022536201
225	0x3d618678	0.05505988
226	0xbd1bfa8c	-0.038080737
227	0x3c8d41c7	0.01724328
228	0xbd5a7eb6	-0.053343497
229	0x3d2b408c	0.041809604
230	0x3c6f3d6f	0.014602049
231	0xbcbdb931	-0.023159595
232	0x3cfac099	0.030609416
233	0xbbfed688	-0.007777039
234	0x3d4b5f34	0.04965134
235	0xbd12db71	-0.035853807
236	0x3b60ef61	0.0034322368
237	0x3d237cc2	0.0399139
238	0xbc5c6602	-0.013452055
239	0x3d157419	0.036487672
240	0xbd58e4b0	-0.05295247
241	0xbbc05f76	-0.005870755
242	0x3ac6ff77	0.0015182336
243	0xbd2475dc	-0.040151462
244	0x3c9e40d8	0.01931803
245	0xbd05e499	-0.03268871
246	0x3d0169de	0.031595103
247	0x3c90c587	0.017672313
248	0x3d054105	0.03253271
249	0xbcb12a21	-0.021626534
250	0x3d030df8	0.031995744
251	0x3d6d3c40	0.057918787
252	0xbc992025	-0.018692086
253	0xbc44d5f6	-0.012013903
254	0xbc555793	-0.013021368
255	0x3c19682a	0.009363214

cnn.2.bias f4 [64]
0	0x3d8d9baa	0.06914456
1	0x3d7e35ea	0.062063135
2	0x3d50c196	0.050965868
3	0x3bba3e1e	0.0056836745
4	0x3b905fba	0.0044059427
5	0x3cb00347	0.021485938
6	0xbbb33903	-0.005469443
7	0xbbd1adb8	-0.0063988827
8	0xbd66e83d	-0.056373823
9	0x3d50ffeb	0.051025312
10	0x3df09a3e	0.11748169
11	0xbd42d66d	-0.047567774
12	0xbd0199ff	-0.031641003
13	0xbd705621	-0.05867589
14	0x3cadacb5	0.021200517
15	0x3ccd451b	0.025057366
16	0x3d090338	0.033450335
17	0x3d3ae916	0.045632444
18	0x3d6ee51e	0.058323972
19	0x3dc43b10	0.09581578
20	0x3ca512ef	0.02015063
21	0xbd2d4dfc	-0.0423107
22	0x3ceab6c6	0.028651606
23	0x3ddd37cb	0.10801657
24	0x39a1af8a	0.000308391
25	0xbc2516b0	-0.01007621
26	0x3cb5fe2b	0.022215923
27	0xbbbbe950	-0.0057346
28	0x3d41ac40	0.04728341
29	0x3d3223d2	0.043491192
30	0xbce78521	-0.028261723
31	0xbab6e8d7	-0.001395489
32	0xbcf62626	-0.030047487
33	0xbd150540	-0.03638196
34	0xbd1f0155	-0.03881963
35	0x3dee7d50	0.11644995
36	0x3d862f69	0.065520115
37	0x3dbcb632	0.092144385
38	0x3cc24bbe	0.023717757
39	0x3d6ad5ed	0.05733292
40	0x3d2bf885	0.041985054
41	0xbd1238a5	-0.03569855
42	0x3da8525e	0.08218835
43	0xbd43370a	-0.04765991
44	0x3dbb32f8	0.09140581
45	0x3cb66324	0.02226407
46	0xbd3dac91	-0.04630715
47	0xbd3efa86	-0.046625637
48	0x3d0ae0ec	0.03390591
49	0xbc169092	-0.009189742
50	0x3d8779a2	0.066149965
51	0x3b9e6a83	0.0048344745
52	0x3ce7b6e7	0.028285457
53	0x3dc86b49	0.09786088
54	0x3dd33a5d	0.10313866
55	0x38bad9cc	8.909739e-05
56	0x3d63dad2	0.055628605
57	0x3bbe7a17	0.005812894
58	0x3c8436af	0.016139356
59	0xbd5f6fd2	-0.05455
60	0xbd3de98a	-0.0463653
61	0xbbe56072	-0.0070000226
62	0xbc12405d	-0.008926478
63	0x3dce5f1c	0.100767344

state_net.0.weight f4 [32, 4]
0	0xbee7604c	-0.45190656
1	0x3d983d35	0.07433549
2	0xbeda9ed5	-0.42699304
3	0x3d24a12d	0.04019277
4	0x3e8702e4	0.26369393
5	0x3eb1ad4d	0.3470253
6	0x3de81ed1	0.11334003
7	0x3dbb752e	0.091532096
8	0xbefeb244	-0.4974538
9	0x3d0b7ad0	0.03405267
10	0xbdcb29f0	-0.09920108
11	0xbeb4e3c0	-0.3533001
12	0x3ee56971	0.44807008
13	0x3eb3c1c0	0.35108757
14	0x3ed6ee6a	0.4197877
15	0x3d3f454a	0.04669694
16	0x3e58b761	0.21163704
17	0x3e3d2490	0.18470979
18	0xbeaa7930	-0.33295584
19	0x3ecac0d2	0.39600235
20	0x3ee39aa8	0.4445393
21	0x3e400128	0.18750441
22	0x3de062e8	0.10956365
23	0xbe8fe5a4	-0.2810489
24	0x3e27baf3	0.16379909
25	0x3de17120	0.11007905
26	0xbe596df4	-0.2123335
27	0xbedd2a3a	-0.4319628
28	0x3eee6aac	0.4656576
29	0x3e3dc79c	0.18533176
30	0xbe26cb2c	-0.16288441
31	0xbea38bfa	-0.3194273
32	0x3ebaa0d5	0.3645083
33	0x3eda4291	0.4262891
34	0x3ea6a37e	0.3254661
35	0x3e4843eb	0.19557159
36	0x3ef3884b	0.4756492
37	0x3eaa6b5c	0.33285034
38	0x3cdd4728	0.027011469
39	0x3cd58926	0.026066374
40	0xbe61a9c5	-0.22037418
41	0xbdc018e4	-0.093797475
42	0x3ee39ad1	0.44454053
43	0x3ecf701d	0.40515223
44	0xbd8eab0f	-0.069662206
45	0xbedef304	-0.4354478
46	0x3eaaed12	0.33383995
47	0x3ea71210	0.32630968
48	0xbeea9640	-0.45817757
49	0xbec48d6c	-0.38389146
50	0xbe867a02	-0.2626496
51	0x3ed3e69a	0.41386873
52	0xbd8300cb	-0.063966356
53	0xbd34e388	-0.044162303
54	0x3eab675d	0.33477297
55	0x3e639107	0.22223292
56	0xbd508b74	-0.050914243
57	0x3edc5aa0	0.4303789
58	0xbec80e55	-0.39073434
59	0x3e1c69bc	0.1527471
60	0xbeddd87a	-0.4332922
61	0xbdd45b40	-0.10368967
62	0x3e11bf56	0.14233145
63	0xbeeb6bf8	-0.4598081
64	0x3e95caa2	0.2925616
65	0xbd2f7c90	-0.0428434
66	0x3e66cde8	0.22539485
67	0xbec20cb8	-0.3790033
68	0x3ae57200	0.0017505288
69	0xbd043310	-0.03227526
70	0xbe8e8dd8	-0.27842593
71	0xbed98c8a	-0.42490035
72	0xbd6beab4	-0.057596877
73	0xbea45022	-0.32092386
74	0x3e62c952	0.2214711
75	0x3ebd1cd4	0.36936057
76	0x3e315ff5	0.17321761
77	0x3d01cd84	0.031690136
78	0x3de7036d	0.1127995
79	0x3e3562ac	0.17713422
80	0x3eac0137	0.33594677
81	0xbe9b0e0b	-0.3028415
82	0x3e41215e	0.18860385
83	0xbe71edb9	-0.2362584
84	0x3ecf3eeb	0.4047769
85	0x3e3b8342	0.1831179
86	0xbe6eb639	-0.233117
87	0x3e8d1fe7	0.27563402
88	0x3eab5b56	0.3346812
89	0x3e5a9598	0.21346128
90	0xbdad78c7	-0.08470302
91	0x3ea9ebbe	0.3318767
92	0x3e1de398	0.15418851
93	0xbdc9b1e8	-0.09848386
94	0xbeb9079a	-0.36138612
95	0xbe4c7e70	-0.19970107
96	0x3e18d72a	0.14925829
97	0xbd2946da	-0.041327335
98	0x3ec6a6cb	0.38799128
99	0x3df9af91	0.1219169
100	0xbe8810e2	-0.2657538
101	0x3dac68be	0.084184155
102	0xbeed04f0	-0.4629283
103	0x3db80f08	0.08987242
104	0x3def66d8	0.11689538
105	0xbe73bbf6	-0.2380217
106	0xbea8910a	-0.32923156
107	0x3dc42782	0.09577848
108	0xbe154123	-0.14575629
109	0xbe0fc15f	-0.14038609
110	0x3ecac20e	0.39601177
111	0xbe02fe74	-0.12792379
112	0xbeeca15f	-0.46216866
113	0x3dcd55d6	0.100261375
114	0x3d13cb49	0.03608254
115	0x3dc486b5	0.09596006
116	0x3ed71708	0.4200976
117	0xbeea2189	-0.4572871
118	0xbd8ae23a	-0.067814305
119	0x3e2eede6	0.17082939
120	0xbef5e4a4	-0.48026
121	0xbe1437b4	-0.14474374
122	0xbcc30840	-0.023807645
123	0xbeebd2be	-0.4605922
124	0x3e8fa541	0.28055766
125	0xbec8f231	-0.39247277
126	0xbf002c6f	-0.500678
127	0x3def5be2	0.11687447

state_net.0.bias f4 [32]
0	0x3e852346	0.26003474
1	0x3ea6dd1c	0.32590568
2	0xbe827ef8	-0.25487494
3	0xbe5501ea	-0.20801511
4	0x3eeeb809	0.46624783
5	0xbefe0416	-0.49612492
6	0x3e47e90e	0.19522497
7	0xbef5130e	-0.478661
8	0x3b57d09f	0.0032930744
9	0xbb5669cf	-0.0032716875
10	0x3e34640a	0.17616287
11	0x3e4a6c7d	0.19767947
12	0xbea33650	-0.31877375
13	0x3dd49372	0.103796855
14	0xbdbdc9b1	-0.09266985
15	0xbe1020ef	-0.14075063
16	0xbea0003a	-0.31250173
17	0xbed0faf0	-0.4081645
18	0x3bc03de7	0.0058667543
19	0x3dc82a59	0.09773702
20	0x3dd5ce53	0.10439744
21	0x3e0a0038	0.13476646
22	0x3ef59445	0.47964683
23	0xbef33486	-0.4750101
24	0x3ea4ee40	0.3221302
25	0x3d9c2459	0.0762412
26	0x3ea45268	0.3209412
27	0xbccf2bfd	-0.02528953
28	0x3cd111b4	0.025521137
29	0x3e6f43e1	0.23365737
30	0xbead23d4	-0.33816397
31	0xbd9e6a63	-0.077351354

state_net.2.weight f4 [32, 32]
0	0x3e116dc2	0.14202026
1	0x3c6cb3d1	0.014447168
2	0xbcf0ce7f	-0.02939534
3	0xbe2997b4	-0.16561776
4	0xbe055a53	-0.13022737
5	0x3d3f1ce5	0.046658415
6	0xbd98de76	-0.07464306
7	0xbdfad08e	-0.1224681
8	0xbda227d7	-0.07917755
9	0xbd977450	-0.07395232
10	0x3dde016d	0.10840116
11	0x3dee6f5d	0.116423346
12	0x3dfd8700	0.12379265
13	0xbd6a9380	-0.057269573
14	0x3d43d89c	0.047813997
15	0xbd8e30cc	-0.06942901
16	0xbd8111c9	-0.063022204
17	0xbe19efaf	-0.15032838
18	0xbd3784fa	-0.04480455
19	0x3d5a2aa9	0.05326334
20	0x3df3c54c	0.11902866
21	0x3cfab3ed	0.030603373
22	0x3d6b875d	0.05750214
23	0xbd7485d2	-0.059697933
24	0x3c78c805	0.015184407
25	0x3df60e90	0.12014496
26	0xbd379ac5	-0.044825334
27	0x3df8a1b7	0.1214022
28	0x3d90b5a9	0.07065899
29	0xbe02c7b1	-0.12771489
30	0xbd925c2f	-0.07146489
31	0x3da566fb	0.080762826
32	0xbd72c2da	-0.059267856
33	0xbcb5aed3	-0.02217809
34	0x3e020580	0.1269741
35	0x3e211775	0.15731604
36	0xbdce0c90	-0.1006099
37	0x3e349b91	0.17637469
38	0x3c55e938	0.013056092
39	0x3dea8a6a	0.11452182
40	0x3c55aa71	0.013041125
41	0xbda415e5	-0.080119886
42	0xbe269a91	-0.162699
43	0xbe2de56c	-0.16982049
44	0x3dc2868c	0.09498319
45	0x3e2767f6	0.16348252
46	0x3e2c5b2a	0.16831651
47	0x3e19bb2f	0.15012811
48	0x3e187d0b	0.1489145
49	0x3d366afd	0.044535626
50	0x3db5bfd8	0.08874482
51	0x3dbd1262	0.09232022
52	0xbd7602f2	-0.060061403
53	0xbd1c1beb	-0.038112562
54	0x3d3491c1	0.044084314
55	0x3d9ec7d8	0.07752961
56	0xbd97fe8a	-0.07421596
57	0xbb6b7f09	-0.0035933873
58	0xbce8c802	-0.028415684
59	0x3e310d97	0.1729034
60	0x3e021b6c	0.12705773
61	0xbb8b72e6	-0.0042556403
62	0x3dcf6b4f	0.10127889
63	0xbd8de09b	-0.06927606
64	0x3e2be8de	0.1678805
65	0x3d7d6b53	0.06186993
66	0xbe24ff8e	-0.16113111
67	0x3ddf152e	0.108927116
68	0xbde6e01b	-0.112732135
69	0xbe09910e	-0.1343424
70	0xbce9e025	-0.028549263
71	0x3dcab5f2	0.098979846
72	0x3d1a11b5	0.037614543
73	0xbd63a3d4	-0.05557616
74	0xbdbd8055	-0.09252993
75	0xbce7c25e	-0.028290924
76	0x3dae22e2	0.08502747
77	0xbd563b72	-0.052302785
78	0xbe17eff6	-0.14837632
79	0xbdd6dac1	-0.10490943
80	0x3e2e79d0	0.17038655
81	0xbdfd8519	-0.12378902
82	0x3c1b11f2	0.009464728
83	0xbe3498ae	-0.17636368
84	0x3db38829	0.08766205
85	0x3dc2aad2	0.09505238
86	0xbe048d89	-0.12944616
87	0x3cdd935b	0.027047804
88	0xbe32c0fa	-0.17456427
89	0xbd943584	-0.0723677
90	0x3db0fd31	0.086420424
91	0xbc476078	-0.012168996
92	0xbe0b54cd	-0.13606568
93	0xbd04a1c9	-0.032380853
94	0x3bef2d42	0.0072990963
95	0x3d3b5012	0.045730658
96	0x3e1db3b4	0.15400583
97	0xbd0190da	-0.03163228
98	0xbe1d4c40	-0.15361118
99	0x3e18aa73	0.14908771
100	0x3e06867c	0.13137239
101	0x3e2a1b61	0.16612007
102	0x3c0db746	0.008649653
103	0xbdb56838	-0.08857769
104	0xbd128fdb	-0.035781723
105	0xbe17c2cf	-0.14820407
106	0x3d1846d2	0.037176915
107	0x3e0dbb12	0.13840893
108	0x3d679901	0.0565424
109	0xbd3b2ac5	-0.045695085
110	0xbc6ac526	-0.01432923
111	0xbdcad794	-0.099043995
112	0x3cb94f0b	0.022620698
113	0x3d8ba461	0.06818462
114	0x3cb630c0	0.022240043
115	0x3e0c3207	0.13690959
116	0x3d950398	0.07276076
117	0xbe336ac2	-0.17521194
118	0x3ce65c38	0.028120145
119	0x3d554422	0.05206693
120	0x3d402495	0.046909887
121	0x3ded3128	0.115816414
122	0x3e0b1e66	0.13585815
123	0x3d1248d4	0.035713986
124	0x3e1125e7	0.14174615
125	0x3ca96560	0.020678222
126	0xbe15b735	-0.14620669
127	0xbdaf9816	-0.0857393
128	0x3d81555f	0.06315111
129	0x3d8f2ec2	0.0699134
130	0xbe09665a	-0.1341795
131	0x3d811ef3	0.06304731
132	0x3e0a2416	0.13490328
133	0xbc924400	-0.01785469
134	0xbe32f6bf	-0.17476939
135	0x3d861932	0.065477744
136	0x3d8e4a2a	0.069477394
137	0xbc1a562f	-0.009419962
138	0x3e2b0811	0.16702296
139	0x3dfc27b6	0.12312262
140	0x3cc78caa	0.024359066
141	0x3e3c350b	0.1837961
142	0x3cd844c8	0.026399985
143	0x3e32282c	0.17398137
144	0xbdae2153	-0.0850245
145	0x3e1e746f	0.15474103
146	0xbb731dc6	-0.0037096604
147	0xbcd17d79	-0.025572525
148	0x3e112115	0.14172776
149	0xbe0ccc2d	-0.13749762
150	0xbd5df58d	-0.054189254
151	0x3d901e97	0.070370845
152	0x3e47d0cb	0.19513242
153	0x3d673c63	0.056454074
154	0x3db524d1	0.08844913
155	0xbdcc0ac5	-0.099629916
156	0xbce510f5	-0.027962187
157	0xbe326e99	-0.17425002
158	0x3e1b40fc	0.15161508
159	0x3d071f3a	0.032988764
160	0x3e01c3ab	0.12672298
161	0xbe119b72	-0.14219454
162	0x3d2ff270	0.042955816
163	0xbd24bf70	-0.04022163
164	0x3d2776a0	0.040884614
165	0xbe15b42d	-0.14619513
166	0xbde7f76e	-0.1132649
167	0xbd221e54	-0.039579704
168	0x3e37f136	0.17963108
169	0x3dbefee3	0.093259595
170	0x3daeb429	0.085304566
171	0x3e0975ae	0.13423797
172	0xbc114f4c	-0.0088690035
173	0xbdcfd567	-0.10148125
174	0xbd0555c9	-0.032552514
175	0xbe05ea03	-0.1307755
176	0x3d77d8e9	0.060509596
177	0x3d9517f7	0.072799616
178	0xbdc845be	-0.09778927
179	0xbe2c9400	-0.16853333
180	0xbc81e248	-0.01585497
181	0xbd2dbba2	-0.04241527
182	0x3e04293c	0.12906355
183	0xbdb4f91b	-0.088365756
184	0x3e1e0c5a	0.15434399
185	0x3dd789a3	0.10524299
186	0xbded8877	-0.11598294
187	0xbe154185	-0.14575775
188	0xbd831580	-0.06400585
189	0x3d9c43f2	0.07630147
190	0x3dd7729b	0.10519906
191	0x3dbc84bc	0.092050046
192	0x3de3c739	0.11121983
193	0x3afff354	0.0019527473
194	0xbd8a630b	-0.06757172
195	0x3c7ec8ba	0.015550787
196	0xbd396304	-0.045260444
197	0xbb9cdda7	-0.004787165
198	0x3e147992	0.144995
199	0xbe11c703	-0.14236073
200	0xbdab527c	-0.08365342
201	0xbd80ca0a	-0.06288536
202	0xbde4ab0d	-0.11165438
203	0x3d11eb84	0.035624996
204	0x3e10df6b	0.14147727
205	0x3d9bc1ea	0.076053455
206	0xbdf40215	-0.119144596
207	0xbc4bf51e	-0.012448577
208	0x3e11ab16	0.1422542
209	0xbdb24b44	-0.08705762
210	0xbd96a8af	-0.073563926
211	0xbd2b54b9	-0.041828845
212	0x3c20dcb3	0.009818244
213	0x3d5488bd	0.051888216
214	0x3e1bebbf	0.15226649
215	0xbda55c1b	-0.08074208
216	0xbd64cc75	-0.055859048
217	0x3e187255	0.14887364
218	0xbe10695f	-0.14102696
219	0xbe116940	-0.14200306
220	0x3e052b5d	0.13004823
221	0x3dfffd27	0.12499457
222	0x3cd4c6ff	0.025973795
223	0x3e1b4ac3	0.15165238
224	0xbe0190a3	-0.12652831
225	0x3e1ae4b8	0.15126312
226	0x3df1e381	0.11810971
227	0x3d98ac95	0.074547924
228	0x3d544ccb	0.051831048
229	0xbc9d4ba7	-0.019201113
230	0xbe232426	-0.15931758
231	0x3e12e13b	0.14343731
232	0xbd85b7ef	-0.06529223
233	0x3ba4616c	0.0050164964
234	0x3d21d6f2	0.03951163
235	0x3df30110	0.11865437
236	0x3e322e0b	0.17400376
237	0xbdf765c9	-0.12079961
238	0xbd2273c7	-0.039661195
239	0x3bb411e2	0.005495296
240	0xbcc4acf7	-0.024008257
241	0xbe0c83f9	-0.13722219
242	0x3da527ab	0.08064207
243	0xbdb20d11	-0.086938985
244	0xbdcedf13	-0.10101142
245	0x3d84bb02	0.064809814
246	0x3d1ccebd	0.0382831
247	0xbdd836fb	-0.10557362
248	0xbda39f01	-0.07989312
249	0x3db60839	0.08888287
250	0x3c907555	0.017634073
251	0xbe1145e6	-0.1418682
252	0x3dc7b0e9	0.0975054
253	0xbe2a46b1	-0.16628529
254	0x3de3c938	0.11122364
255	0x3b3faf83	0.00292489

state_net.2.bias f4 [32]
0	0xbe03a4ba	-0.12855807
1	0x3d952929	0.07283241
2	0x3d2a5a31	0.04158992
3	0xbd0d3eac	-0.034483597
4	0xbe23a8b8	-0.1598233
5	0xbb614d15	-0.003437822
6	0x3d39272c	0.045203373
7	0xbd8e3d69	-0.06945307
8	0x3d935fd9	0.07196016
9	0x3e11d0d8	0.14239824
10	0xbe1eb108	-0.1549722
11	0x3e399903	0.18124776
12	0xba2c97df	-0.000658391
13	0x3db43f13	0.08801093
14	0xbe08c645	-0.13356884
15	0xbd3205c3	-0.043462526
16	0x3e28cb5c	0.16483825
17	0xbe2e3d58	-0.17015588
18	0xbd1fd23a	-0.039018847
19	0xbe3317ea	-0.17489591
20	0x3ae5cf48	0.0017533088
21	0x3d6acca3	0.057324063
22	0x3c29c212	0.010361211
23	0xbbbac549	-0.0056997878
24	0x3d89ee7a	0.06734939
25	0xbd1b329b	-0.037890058
26	0xbd529e95	-0.051420767
27	0xbe0c79a1	-0.13718273
28	0x3e11b362	0.14228585
29	0xbe1ca758	-0.15298212
30	0x3dfd5251	0.12369216
31	0xbe2dc25a	-0.1696867

shared_net.0.weight f4 [128, 1056]
0	0xbc4314de	-0.011906831
1	0xbcdf4ac0	-0.027257323
2	0x3c7a96b3	0.015294719
3	0xbc9f79b1	-0.019467207
4	0xbce85688	-0.028361574
5	0xbc8d74a4	-0.017267533
6	0x3baf5c23	0.0053515597
7	0x3c0850d2	0.00832005
8	0xbcab7041	-0.02092755
9	0x3b3e9a0a	0.0029083514
10	0x3c3c627e	0.011498092
11	0xbc99a989	-0.018757598
12	0xbadf41be	-0.0017033143
13	0x3ca68983	0.020329243
14	0x3bf1d15d	0.0073796944
15	0x3bd6d4a8	0.0065561123
16	0x3c8cb59e	0.017176446
17	0x3cf69b8c	0.030103467
18	0xbc3e15c6	-0.011601871
19	0x3a3d5168	0.00072219083
20	0xbc411477	-0.011784664
21	0x3c7b16dc	0.015325274
22	0x3b261605	0.0025342715
23	0x3ce32fba	0.027732719
24	0xbcbe56f9	-0.023234831
25	0x3c4e05e9	0.012574651
26	0xbc54b42f	-0.012982412
27	0x3c761d73	0.01502167
28	0xbadd321c	-0.0016875896
29	0x3cb7085e	0.022342857
30	0xbc77ce5d	-0.015124884
31	0xbc142ebf	-0.009044348
32	0x3cb83905	0.022488127
33	0x3cf66604	0.030077942
34	0x3ca54362	0.020173732
35	0x3c89f992	0.016842637
36	0x3cc92f09	0.02455856
37	0x3c01004a	0.007873604
38	0xbc8c3489	-0.017114894
39	0x3c64ea12	0.013971822
40	0xbc845346	-0.01615299
41	0x3c9a2fac	0.01882156
42	0xbc84d77f	-0.016216038
43	0x3cf36f17	0.029716058
44	0x3a7964e5	0.00095136306
45	0xbca04f26	-0.01956899
46	0xbc71760b	-0.014737616
47	0x3bfb7697	0.007674049
48	0x3c411e3d	0.0117869945
49	0xbcf4311f	-0.029808579
50	0xbbccfa6b	-0.006255438
51	0x3bfc02e1	0.007690773
52	0xbb8d0c64	-0.0043044556
53	0x3c53eea4	0.012935314
54	0x3cabc4a6	0.020967793
55	0x3cbb3f55	0.022857348
56	0xbba2e682	-0.0049713263
57	0xbb7272bf	-0.0036994664
58	0xbc95841e	-0.018251475
59	0xbc31a740	-0.010843098
60	0xbce7d6ea	-0.028300721
61	0xbb5d3f16	-0.0033759526
62	0xbb722d5d	-0.0036953308
63	0x3cd5a291	0.026078494
64	0x3c31e092	0.010856764
65	0x3cc5e931	0.024159046
66	0x3bbbf2de	0.005735739
67	0x39bd2111	0.00036073526
68	0x3cbbc466	0.022920799
69	0xbc183a34	-0.00929122
70	0xbc9f788f	-0.019466667
71	0xbce1a63b	-0.027545085
72	0xbcc4a3f2	-0.024003956
73	0xbc553671	-0.013013468
74	0xbc98a194	-0.018631734
75	0xbb54c6b4	-0.003246707
76	0xbc462735	-0.012094309
77	0xbcc18b68	-0.023626044
78	0xbca83f15	-0.020537892
79	0xbcf96b40	-0.030446649
80	0xbca74348	-0.020417824
81	0x3bcaa863	0.006184624
82	0xbcf30210	-0.02966407
83	0x3c7ece91	0.015552179
84	0xbc980079	-0.018554913
85	0xbccd1a19	-0.025036858
86	0xbb82574d	-0.003977692
87	0x3cd59b4f	0.026075033
88	0xbc9ffa10	-0.019528419
89	0xbbc5ebb4	-0.006040061
90	0x3c8afddc	0.016966753
91	0xbc21fac1	-0.009886445
92	0xbc815d4c	-0.015791558
93	0x3ca886b7	0.02057205
94	0x3cc4ebb8	0.02403818
95	0xbca47913	-0.020077264
96	0x3c8506f3	0.016238665
97	0x3c614242	0.013748707
98	0x3cbe8aff	0.023259638
99	0x3c1af36d	0.009457451
100	0x3c8e2aff	0.017354487
101	0x3c873ad4	0.016507544
102	0x3ce97102	0.02849627
103	0x3ce393aa	0.027780373
104	0x3c3d6c9f	0.011561542
105	0xbc905a69	-0.017621236
106	0x3c931854	0.017955936
107	0xbc2796f2	-0.010228859
108	0xbbd4c858	-0.0064936094
109	0xbc45dab4	-0.012076069
110	0xbb24a8cf	-0.0025125032
111	0xbcddd7b5	-0.027080396
112	0x3b8d9e59	0.004321855
113	0xbc21596d	-0.009847981
114	0xbcb5e322	-0.022203032
115	0x39c0f2a5	0.00036801878
116	0x3c9a40c6	0.018829715
117	0x3cb08e5b	0.021552255
118	0xbcfb611f	-0.03068596
119	0x3ca08782	0.019595865
120	0x3bca8104	0.0061799306
121	0xbc4d6658	-0.012536608
122	0xbc1a5b8e	-0.009421242
123	0xbb34f9bb	-0.0027614671
124	0x3ba3b183	0.0049955263
125	0x3c6a861b	0.0143142
126	0xbcf81535	-0.03028355
127	0x3cf0acf6	0.02937935
128	0x3bccf8f1	0.006255262
129	0xbcb503f0	-0.022096604
130	0xbcb813e6	-0.022470426
131	0xbcb2bfec	-0.021820031
132	0x3b2acc47	0.00260617
133	0xbcc03972	-0.023464892
134	0x3cf45a24	0.029828139
135	0x3b76f1c2	0.003768072
136	0x3b8a369d	0.004217936
137	0x3b6c018d	0.0036011667
138	0xbc8ed311	-0.017434629
139	0x3c448d1c	0.011996534
140	0xbcedf05d	-0.029045278
141	0x3c2b2b76	0.010447374
142	0x3bec48aa	0.0072108107
143	0x3c7eb9db	0.015547241
144	0x3c3efdb8	0.011657171
145	0xbc037717	-0.008023999
146	0x3b9e2764	0.004826473
147	0x3b1be9af	0.002379041
148	0x3c1b90dc	0.009494986
149	0xbca9b46d	-0.020715917
150	0x3ca51c8c	0.020155214
151	0xbc9dce78	-0.019263491
152	0x3b60040b	0.0034182097
153	0xbcb0de87	-0.021590484
154	0x3be0b844	0.0068579037
155	0xbc8d0c06	-0.017217647
156	0x3cc0f343	0.023553496
157	0xbcb79a76	-0.02241252
158	0xbc41548d	-0.011799944
159	0xbcc78867	-0.024357034
160	0xbcbd5c36	-0.023115259
161	0xbc6983ec	-0.014252644
162	0xba261ce0	-0.00063367
163	0xbb50d114	-0.0031862902
164	0x3c1b12f9	0.009464973
165	0x3cdfbe77	0.0273125
166	0xbc23ad44	-0.00999004
167	0x3c94eb2e	0.018178549
168	0xbc66e8ae	-0.014093561
169	0xbc20af37	-0.0098073995
170	0xbcf61af2	-0.030042145
171	0xbb66b0b1	-0.003520053
172	0x3ca4e7fb	0.020130148
173	0xbb0fa45b	-0.0021918032
174	0x3a8eb581	0.0010887833
175	0xbc2ca403	-0.01053715
176	0x3c8f005d	0.017456228
177	0x3cf682d5	0.030091682
178	0x3c003b38	0.007826619
179	0x3b78c4ac	0.0037959022
180	0xb926c536	-0.0001590446
181	0x3cb45388	0.022012487
182	0x3c80b81d	0.015712792
183	0xbb1b5172	-0.0023699668
184	0x3b6058ce	0.003423262
185	0x3c873567	0.016504956
186	0x3cb4c370	0.022065848
187	0xbcda8a87	-0.026677383
188	0xbbc86bf6	-0.0061163856
189	0xbc3d1dfe	-0.011542795
190	0xbcb2eaf9	-0.02184056
191	0x3ca65959	0.020306276
192	0xbc912890	-0.017719537
193	0xbc27d987	-0.010244734
194	0xbcd4c1d3	-0.025971329
195	0xbc1f4192	-0.009720223
196	0xbc600c81	-0.013674856
197	0x3c7537a1	0.014966876
198	0x3c2aa68e	0.010415686
199	0x3c922c79	0.017843472
200	0xbc02cd7b	-0.007983561
201	0x3c99825b	0.018738916
202	0x3cbd8e60	0.023139179
203	0xbc6c4f5c	-0.014423218
204	0x3c347729	0.011014738
205	0xbc719d52	-0.014746981
206	0xbc949508	-0.01813747
207	0xbab88bc7	-0.0014079743
208	0x3ca8b3d3	0.02059356
209	0xbcaebc71	-0.02133009
210	0x3c041204	0.008060936
211	0x3c833dd0	0.016020685
212	0xbc9a7b6d	-0.018857682
213	0xbca5369f	-0.020167647
214	0xbcfa5799	-0.030559348
215	0xbb00a9ee	-0.0019632536
216	0x3c852555	0.016253153
217	0xbcfae02f	-0.030624477
218	0x3c4bdd5c	0.012442913
219	0x3c85c9d4	0.01633159
220	0xbcc46eeb	-0.023978671
221	0x3c83b15c	0.016075782
222	0x3c911963	0.0177123
223	0x3c3f6756	0.011682352
224	0x3c3b9d7e	0.011451123
225	0x3ce18a65	0.027531812
226	0xbc986356	-0.018602055
227	0x3cd32937	0.025776489
228	0x3cb1c0d5	0.021698395
229	0xbc3b4075	-0.011428942
230	0x3cd73bce	0.026273634
231	0x3bd8b85f	0.0066137756
232	0xbc8393b1	-0.016061636
233	0x3ca934f4	0.020655133
234	0xbc3b1c53	-0.011420327
235	0x3a35a846	0.0006929677
236	0x3c5a7ed5	0.013335903
237	0xbc9f94d0	-0.019480139
238	0x3b4b5271	0.003102448
239	0x3c93d999	0.018048095
240	0xbc16c395	-0.009201904
241	0x3a615656	0.0008595934
242	0x3c87b744	0.01656688
243	0xbc8a6502	-0.016893867
244	0x3c847da5	0.016173193
245	0x3c26fac0	0.010191619
246	0xbc94fde4	-0.01818747
247	0x3cdfc6e3	0.027316516
248	0xbcb68578	-0.02228044
249	0x3cd632fb	0.026147356
250	0xbccd93dd	-0.02509492
251	0x3b915e28	0.004436273
252	0x3cd4f252	0.025994454
253	0x3c09a186	0.008400327
254	0x3c31c0ad	0.01084916
255	0x3c2d883e	0.010591565

shared_net.0.bias f4 [128]
0	0xbd084576	-0.033269368
1	0xbc92f25e	-0.017937835
2	0xbd227dcb	-0.039670747
3	0x3c838b60	0.01605767
4	0xbc41fb57	-0.011839709
5	0xba9e31f6	-0.0012069333
6	0xbc9a4c54	-0.018835224
7	0x3c88793c	0.016659372
8	0x3cf33256	0.029687088
9	0x3d26e246	0.040743135
10	0xbca423fa	-0.020036686
11	0x3cc89c62	0.024488632
12	0x3cb75901	0.022381308
13	0x3d23b007	0.039962795
14	0xbcdb96c9	-0.026805298
15	0xbcdd4c26	-0.02701385
16	0x3d7c6dc6	0.061628126
17	0x3c2685d4	0.010163743
18	0x3d647860	0.05577886
19	0xbc4d5101	-0.01253152
20	0xbc9ae558	-0.018908188
21	0x3c2c33b8	0.010510378
22	0xbcb19224	-0.02167613
23	0xbc8c57b3	-0.017131662
24	0xbc90eb07	-0.017690195
25	0xbb3bdec2	-0.002866671
26	0x3c093c28	0.008376159
27	0xbc6fd728	-0.0146387
28	0x3cce88c1	0.025211694
29	0xbb9f9b1e	-0.0048707863
30	0xbc9c2fdb	-0.019065788
31	0x3c7757c4	0.015096609
32	0x3cb9d311	0.022683652
33	0x3d49ef5d	0.04930054
34	0x3c550c00	0.013003349
35	0xbcec3228	-0.02883251
36	0xbcbed903	-0.023296839
37	0x3a50e32d	0.0007968422
38	0xbc2b749d	-0.0104648145
39	0x3c416211	0.011803166
40	0x3c8a2ecd	0.01686802
41	0x3d0fe79f	0.035133
42	0x3d2b18c6	0.041771673
43	0xbb8dd595	-0.0043284395
44	0xbcd14689	-0.02554633
45	0x3be4b966	0.006980109
46	0xbc4142bf	-0.011795699
47	0x3c3758a4	0.011190567
48	0x3ba689e5	0.0050823563
49	0xbbb8a348	-0.005634699
50	0xbbce1d3b	-0.0062901056
51	0x3cf9d20d	0.030495668
52	0x3cfe39d1	0.031033428
53	0x3d5ee3bf	0.054416414
54	0x3cd3ce65	0.025855253
55	0xba74a5ef	-0.00093325874
56	0x3d328d9c	0.04359208
57	0xb790a95d	-1.7245004e-05
58	0x3d7571b2	0.05992288
59	0xbcb918e3	-0.022594875
60	0xbb810715	-0.003937612
61	0xbcf92667	-0.03041382
62	0xbc65c4cb	-0.01402397
63	0xbcc5360d	-0.024073625
64	0x3c3dcadb	0.011584009
65	0x3d04ce33	0.03242321
66	0xbb12d482	-0.0022404497
67	0xbbd1b4c2	-0.006399722
68	0x3aba501b	0.0014214547
69	0xbc25cab7	-0.010119132
70	0x3d98ffc9	0.07470662
71	0x3c235198	0.009968184
72	0x3c867e46	0.016417634
73	0x3c9a66a2	0.018847767
74	0xbca1067e	-0.019656416
75	0x3cc1c237	0.02365218
76	0xbc63b00d	-0.013896954
77	0xbc75714a	-0.0149806235
78	0x3cbe113c	0.023201577
79	0x3cc2f166	0.023796748
80	0x3c71296a	0.014719347
81	0x3cd8aabb	0.026448598
82	0x3d0ad2e7	0.03389254
83	0xbc098322	-0.008393081
84	0xbcaf6c45	-0.021413932
85	0x3c99dd5d	0.018782312
86	0xbaf3986b	-0.0018584853
87	0xbcd527d9	-0.026019977
88	0xbc4abf28	-0.012374677
89	0x3ccd3973	0.025051808
90	0xbc993f3a	-0.018706907
91	0x3c64d936	0.013967803
92	0xbcaeee5a	-0.02135389
93	0x3cbd961c	0.023142867
94	0x3c5518eb	0.013006429
95	0xbcf88433	-0.030336475
96	0xba8a006b	-0.0010528689
97	0xbcc8edef	-0.024527518
98	0x3cd96288	0.026536241
99	0xbc732b4e	-0.014841868
100	0x3d2980ab	0.041382473
101	0x3c212b8e	0.009837044
102	0x3d8dc55b	0.06922408
103	0xbc462401	-0.012093545
104	0x3bd269a5	0.006421285
105	0xbc813902	-0.015774254
106	0xbcdce7f4	-0.026966073
107	0x3d827a3b	0.0637097
108	0xbc29b2f5	-0.010357608
109	0x3d3e6052	0.046478577
110	0x3c8109c1	0.015751721
111	0xbcece5fc	-0.028918259
112	0x3cd84cf0	0.026403874
113	0xbc01109e	-0.007877497
114	0xbc465d92	-0.01210727
115	0x3b4f7bc3	0.003165946
116	0xbb84e46d	-0.004055551
117	0x3d9d72e7	0.076879315
118	0xbcf6ea85	-0.030141125
119	0x3b291466	0.0025799512
120	0xbc4e37ad	-0.012586516
121	0x3ce30a1a	0.027714778
122	0x3ceb51a1	0.028725447
123	0x3cdb6cdc	0.026785307
124	0xbbf22136	-0.007389213
125	0xbc3c0df9	-0.011477941
126	0xbc112e7a	-0.0088611785
127	0xbc99114e	-0.01868501

shared_net.2.weight f4 [64, 128]
0	0xbd9cd59e	-0.07657932
1	0x3cc9a107	0.024612917
2	0x3d005fc6	0.031341337
3	0x3daa16a8	0.083051026
4	0xbbbd8f80	-0.005784929
5	0x3d6bce3c	0.057569727
6	0xbd8df74b	-0.06931933
7	0x3d65bb84	0.056087032
8	0x3bef9a56	0.0073120994
9	0xbdad5256	-0.0846297
10	0x3d3cc7be	0.046088926
11	0xbd55182f	-0.052025016
12	0x3c4204df	0.011841982
13	0x3d5e5ebf	0.054289576
14	0xbcb3f3da	-0.021966863
15	0x3c5e9e77	0.013587586
16	0xbd352859	-0.04422793
17	0x3b7ad3d6	0.0038273237
18	0x3d7705fd	0.060308445
19	0x3d36424f	0.04449683
20	0xbce9760c	-0.028498672
21	0x3d57daea	0.052699007
22	0x3d19af74	0.03752084
23	0xbd016533	-0.03159065
24	0x3d79f83c	0.06102775
25	0x3da80c63	0.082054876
26	0x3cf004dc	0.029299192
27	0x3d731987	0.059350517
28	0xbb6893a1	-0.0035488384
29	0x3d8dfe59	0.069332786
30	0xbc56ad49	-0.013102838
31	0xbcddef37	-0.027091606
32	0xbd42f88a	-0.047600307
33	0xbd570afd	-0.052500714
34	0xbd6c4896	-0.05768641
35	0xbd9536b1	-0.07285822
36	0xbd52175f	-0.05129182
37	0x3d6dce34	0.05805798
38	0xbce2d056	-0.027687233
39	0xbda23e63	-0.079220556
40	0xbd94e901	-0.072710045
41	0xbd061ee9	-0.032744322
42	0xbd6013b8	-0.054706305
43	0xbd83e6f4	-0.06440535
44	0x3da54207	0.08069234
45	0xbd7db562	-0.06194056
46	0x3da64863	0.081192754
47	0x3c960138	0.018311128
48	0xbd83a499	-0.06427879
49	0x3c9d20d9	0.019180702
50	0xbca7324d	-0.020409727
51	0x3ce33f42	0.027740125
52	0x3da449c9	0.08021886
53	0x3b1d8a15	0.0024038602
54	0xbda3e816	-0.08003251
55	0xbd8c4776	-0.068495676
56	0x3d7f5c49	0.06234387
57	0x3bac4b13	0.005257973
58	0x3b8fbac2	0.004386277
59	0x3d0a606d	0.033783365
60	0x3ce1f846	0.027584206
61	0x3db39c3d	0.087700345
62	0x3cb7624d	0.02238574
63	0x3d842fd4	0.06454435
64	0xbc9c1c8c	-0.019056581
65	0x3d8a84c1	0.06763602
66	0xbd251ae3	-0.040308844
67	0xbd10034f	-0.035159405
68	0xbd6e5c85	-0.058193702
69	0x3db084f6	0.0861911
70	0x3d6c5ca3	0.057705533
71	0xbd9eb9cb	-0.07750281
72	0xbdadc559	-0.08484907
73	0xbda12c81	-0.078698166
74	0x3c240296	0.010010382
75	0x3d1a8e62	0.037733443
76	0x3db30a4f	0.087422006
77	0xbd0148af	-0.031563457
78	0x3be3fb59	0.006957453
79	0xbd8b0835	-0.06788675
80	0x3d42889d	0.047493566
81	0x3d92fd33	0.071772
82	0x3d4d16f6	0.050070725
83	0xbd78cd1a	-0.060742475
84	0xbc6d57b1	-0.014486239
85	0xbc71f121	-0.014766962
86	0x3d96ad30	0.07357252
87	0xbd148c34	-0.03626652
88	0x3cf90656	0.030398529
89	0x3bf81eb2	0.0075720185
90	0x3da33dba	0.07970758
91	0xbd0542b8	-0.03253433
92	0xbd8261c7	-0.06366306
93	0x3ca5b6ce	0.02022877
94	0x3d96c4b0	0.07361734
95	0xbcccb6ff	-0.024989603
96	0xbd47dba6	-0.048793457
97	0x3d23afcf	0.039962586
98	0x3d0b32cd	0.033983994
99	0xbd0c77dd	-0.034293998
100	0x3d032630	0.03201884
101	0xbd4b9875	-0.04970594
102	0xbd957bc5	-0.07298998
103	0x3d354360	0.044253707
104	0xbd978e18	-0.07400149
105	0xbd0480c9	-0.03234938
106	0xbdad8467	-0.08472519
107	0xbc81be45	-0.015837798
108	0x3c67c7b7	0.014146737
109	0x3c06095a	0.0081809405
110	0xbd7ae56a	-0.061253943
111	0x3d86c308	0.06580168
112	0x3d5c7fbf	0.053832766
113	0xbb274ced	-0.002552803
114	0xbc5fc1ab	-0.013657014
115	0xbd20a5a1	-0.039220456
116	0xbcec6f91	-0.028861793
117	0xbcd02ebd	-0.025412912
118	0x3bda0fc8	0.0066547133
119	0xbda64e5b	-0.08120414
120	0x3d814481	0.06311894
121	0x3d7d90c1	0.061905626
122	0x3c1e5f82	0.0096663255
123	0x3d2a1e53	0.041532826
124	0x3d80ae64	0.06283262
125	0xbd72137a	-0.059100606
126	0x3d95c3be	0.073127255
127	0x3c45ef67	0.012081004
128	0xbd2bea50	-0.041971505
129	0xbcf5c83b	-0.030002704
130	0x3d0f23fe	0.034946434
131	0x3d71a0ce	0.058991246
132	0x3d5b6904	0.053566948
133	0xbd012e1a	-0.031538107
134	0x3dacfd21	0.08446718
135	0xbd4c3b14	-0.04986103
136	0x3c8fdb0a	0.0175605
137	0xba69294d	-0.0008894399
138	0xbd6904c1	-0.0568893
139	0xbced9b30	-0.029004663
140	0x3c34fc59	0.0110464925
141	0xbca3533e	-0.019937154
142	0x3d2ae66b	0.04172365
143	0x3d978ccb	0.07399901
144	0xbb934410	-0.0044941977
145	0xbd4adfa5	-0.04952969
146	0x3db222b5	0.08698026
147	0x3d1df3de	0.038562648
148	0x3ca0486e	0.019565787
149	0xbdb114d5	-0.086465515
150	0x3cc54d8e	0.024084833
151	0x3d14d7a1	0.036338452
152	0xbce329c9	-0.027729886
153	0x3c8ed308	0.017434612
154	0xbda0b8f5	-0.07847778
155	0xbd3b4097	-0.045715895
156	0xbbfe958f	-0.0077692936
157	0xbc059389	-0.008152851
158	0xb95a1ab3	-0.00020800046
159	0x3d8b023a	0.06787534
160	0x3d98e368	0.07465249
161	0x3c8f82c8	0.017518416
162	0x3d5cce95	0.05390795
163	0xbd579ea0	-0.05264151
164	0xbdae0ef9	-0.084989496
165	0x3ced7b00	0.028989315
166	0x3d7d70e6	0.061875246
167	0x3d488dfc	0.04896353
168	0xbd7e0894	-0.0620199
169	0x3dae543d	0.08512161
170	0x3da3628e	0.07977782
171	0x3d4d2ae8	0.050089747
172	0xbcf0a850	-0.029377133
173	0xbd70c725	-0.05878367
174	0x3d8d7907	0.0690785
175	0x3d3592e6	0.044329546
176	0x3d2648d8	0.040596813
177	0x3d7a85c9	0.061162744
178	0xbccb0f87	-0.024787677
179	0x3d933aed	0.071889736
180	0xbd9a8702	-0.07545282
181	0x3d35b30d	0.04436021
182	0xbd908e83	-0.07058432
183	0xbc26f840	-0.010191023
184	0x3db4fcb7	0.08837264
185	0x3cd45efe	0.025924202
186	0x3d92cc27	0.07167845
187	0x3d6f696b	0.058450144
188	0xbca1a219	-0.019730614
189	0x3d17f2e8	0.037096888
190	0xbd43e107	-0.047822025
191	0xbcaf49d0	-0.021397501
192	0x3d8a7b09	0.06761748
193	0x3d9fcf63	0.07803228
194	0xbd849dc9	-0.06475408
195	0xbd7f7de8	-0.062375933
196	0x3d893fb6	0.06701605
197	0xbd3da61e	-0.046301
198	0x3c003f8c	0.007827651
199	0xbd8a0000	-0.06738281
200	0xbd047aa4	-0.03234352
201	0xbd814e51	-0.06313766
202	0xbd902fa1	-0.070403345
203	0x3c3fa008	0.011695869
204	0x3d9f5a7f	0.07780933
205	0xbc0f5ad0	-0.008749679
206	0x3c8f9fe6	0.0175323
207	0x3dad4812	0.08461012
208	0x3d03583b	0.032066565
209	0xbc8ee7f8	-0.017444596
210	0x3dd03805	0.10166935
211	0x3db1367d	0.08652971
212	0xbcc430ee	-0.023949113
213	0x3d36c056	0.04461702
214	0x3d736c58	0.059429497
215	0xbd881af4	-0.06645766
216	0xbb66e801	-0.00352335
217	0xbc82c12d	-0.015961254
218	0xbd8c030e	-0.0683652
219	0xbda191c2	-0.07889129
220	0xbd946fe9	-0.07247908
221	0x3c324bad	0.0108823
222	0x3d47a24f	0.048738774
223	0x3d7b440e	0.0613442
224	0xbcd0a3f2	-0.0254688
225	0x3d80e5e8	0.06293851
226	0x3d22d6e3	0.039755713
227	0xbd1e78c7	-0.0386894
228	0x3cbab412	0.022790942
229	0x3c8523f0	0.016252488
230	0x3dda5e4d	0.10662518
231	0xbd474977	-0.048654046
232	0x3d09e181	0.033662323
233	0xbd209eae	-0.03921383
234	0xbd542fc1	-0.051803354
235	0xbc7fbfdd	-0.015609709
236	0x3d1b9f91	0.03799397
237	0x3d53f70c	0.051749274
238	0xbd3b3cb6	-0.045712195
239	0xbcf64ea8	-0.030066803
240	0x3d981d18	0.07427424
241	0xbd2d15e0	-0.04225719
242	0xbc87a0e3	-0.016556209
243	0x3d3ba182	0.045808323
244	0x3d045dc6	0.03231599
245	0x3da27bdf	0.07933783
246	0xbd5bfce1	-0.05370796
247	0x3d4bb691	0.049734656
248	0xbb0748da	-0.0020642788
249	0x3d7f2518	0.062291235
250	0xbd9d8610	-0.07691586
251	0xbcb96c1d	-0.02263456
252	0x3ca6cc2a	0.020361025
253	0x3b79f519	0.0038140474
254	0x3b75db93	0.003751491
255	0x3b0c3b1b	0.0021397534

shared_net.2.bias f4 [64]
0	0xbd32e6d4	-0.043677166
1	0x3da83acf	0.08214342
2	0xbc3d4be6	-0.01155374
3	0x3aef03e2	0.001823541
4	0x3b71f0e5	0.0036917266
5	0x3da32543	0.079660915
6	0xbdafadde	-0.085780844
7	0x3cfff8b8	0.031246528
8	0x3d77cc48	0.060497552
9	0x3e1c9f41	0.15295126
10	0xbd3a9242	-0.04554964
11	0x3d800075	0.06250087
12	0xbd64119b	-0.055680852
13	0x3e2597bf	0.16171168
14	0x3e24298c	0.16031474
15	0xbd43c239	-0.047792647
16	0xbda1d288	-0.07901484
17	0x3da95232	0.08267631
18	0x3e1330d3	0.14374094
19	0xbc43c256	-0.011948189
20	0x3d383e6f	0.044981416
21	0x3c84e8b4	0.016224243
22	0xbd900ba0	-0.07033467
23	0x3e0e62ed	0.13904925
24	0x3e0d3002	0.13787845
25	0x3df202bd	0.118169285
26	0xbcad177f	-0.021129368
27	0x3df1a7a6	0.117995545
28	0xbb5746e5	-0.0032848653
29	0x3d8cb5ff	0.068706505
30	0x3c5ab8ad	0.013349694
31	0x3d09422c	0.033510372
32	0xbd822802	-0.06355287
33	0x3cdcbbce	0.026945021
34	0xbdaa1637	-0.083050184
35	0xbd558d3c	-0.052136645
36	0x3b204126	0.0024452894
37	0x3d65fc2d	0.056148697
38	0xbcf8ed04	-0.030386455
39	0xbd348e3b	-0.044080954
40	0x3c532313	0.01288678
41	0xbd3e8407	-0.04651263
42	0xbcc7fee1	-0.024413528
43	0x3e1b9bbf	0.15196131
44	0x3d48da12	0.049036093
45	0xbcd145b4	-0.025545932
46	0x3d82f432	0.06394233
47	0x3e32e841	0.1747141
48	0xbcc1f723	-0.023677414
49	0x3df60cef	0.12014186
50	0x3adf39c0	0.0017030761
51	0x3d221a62	0.03957594
52	0xbd0033a9	-0.031299267
53	0xbd4ebdf8	-0.050474137
54	0x3db3bd22	0.087763086
55	0xbd76118f	-0.06007534
56	0xbd909c91	-0.07061113
57	0x3d043154	0.032273605
58	0xbd338bdd	-0.043834556
59	0x3c378d1b	0.011203076
60	0xbd919ae8	-0.07109624
61	0xbd44490a	-0.047921218
62	0xbd17d10d	-0.0370646
63	0x3d92837c	0.07153985
