logs/energy/checkpoint_episode_1900.pt (torch, 556526 bytes, 39 tensors)

shared_net.0.weight f4 [128, 30]
000000 16 ed c1 bd ca 54 94 3d c4 af 66 bd 99 cd 94 bc
       -0.09469049 0.07242735 -0.056319967 -0.018164443
000010 e0 72 c2 bd ce e7 61 bb 1f 57 b6 3e 8d 66 db 3e
       -0.09494567 -0.0034470442 0.35613343 0.42851678
000020 02 08 b4 3e e8 d5 37 3e 48 9b e3 3d 8d b3 17 3e
       0.3516236 0.17952693 0.11113602 0.14814587
000030 fb be 05 3f 6f 40 bd 3e f4 0d be 3c 48 fe 43 be
       0.5224454 0.3696322 0.023200013 -0.1913997
000040 43 90 ff 3e f3 da e4 3e d3 38 ce 3e f1 13 24 3e
       0.4991475 0.44698295 0.40277728 0.16023232
000050 12 4a c2 bd 3b 20 9a 3e 44 80 5b 3e d0 d0 80 3e
       -0.09486784 0.30102715 0.21435648 0.2515931
000060 c6 c3 80 be 47 b1 91 be e9 fd c2 3d 31 51 0f 3d
       -0.25149363 -0.28455564 0.09521086 0.03498954
000070 10 4e 7c be 50 32 01 bf 4f 53 f0 3c f3 46 d7 3c
       -0.24639153 -0.50467396 0.0293366 0.026278948
000080 c0 2b 15 be c6 e5 42 3d 5b 2a 0e 3d b5 44 af 3d
       -0.1456747 0.04758241 0.034708362 0.08558027
000090 af 02 41 3b d7 09 12 be 32 6a 56 bd c3 4b a6 bc
       0.0029451062 -0.14261566 -0.05234737 -0.020299798
0000a0 87 2d 48 be 5c 55 93 bc 17 74 2d be a6 b3 91 bc
       -0.19548617 -0.017985038 -0.16938816 -0.017785858
0000b0 b9 dc 22 3e bb 89 a7 be 12 11 6b bd 73 25 bf 3d
       0.15904512 -0.32722268 -0.057389326 0.09333315
0000c0 dd ae 44 be 41 22 45 3c d0 68 40 be a9 88 05 be
       -0.1920733 0.012032093 -0.18789983 -0.13040413
0000d0 bf df 92 be 23 19 ff 3d 76 5e b1 3d ba 42 57 bb
       -0.2868633 0.12455966 0.08660595 -0.0032846169
0000e0 03 c0 22 3d 85 42 29 3e 8e 7e ee 3c 93 26 a6 bc
       0.039733898 0.16529281 0.02911308 -0.020282065
0000f0 70 88 9e bd 92 6d a7 3c ba 2b ba bd b9 08 1e bb
       -0.07740867 0.02043799 -0.090903714 -0.0024114086
000100 f8 2f 50 be 84 9c b0 bd 7c 72 ed 3d a2 13 1a 3e
       -0.20330799 -0.08623603 0.11594102 0.15046552
000110 32 47 a8 3e 9a f1 5b 3c d7 36 8a be 8a c6 2d bc
       0.32866818 0.0134243015 -0.26994964 -0.010606417
000120 10 e0 32 3e 80 3f 0d be 3a 30 5d 3d 02 2a cc 3d
       0.17468286 -0.13793755 0.05400107 0.0996895
000130 71 e6 60 be 6e 48 ef bd 46 67 31 bd 03 36 7c 3b
       -0.21962906 -0.11683737 -0.04331138 0.0038484342
000140 03 ac 2b 3e 6d 70 e3 bd 7b c2 06 3e 57 8e d9 3d
       0.16764836 -0.11105428 0.13160126 0.10622852
000150 db 70 b3 bd 50 34 0f 3d 1a a8 c4 3d 60 d7 dc bc
       -0.0876176 0.034962 0.09602375 -0.026958168
000160 94 27 a7 3d 2b fc 4f bd d7 ed 26 3c bc 66 89 bd
       0.08161846 -0.050777595 0.010188541 -0.06709048
000170 be 33 0f be e6 4c 59 3d 5a 96 fd 3d a3 10 27 3e
       -0.13984582 0.05305185 0.12382193 0.1631494
000180 22 67 38 3e 58 a4 a5 3d 4a 2c e2 bc 33 26 c2 bd
       0.18008092 0.08087987 -0.02760901 -0.09479942
000190 8e fc 96 3d 4f 68 94 3e b3 46 40 3e 27 dd 83 3e
       0.0737239 0.2898583 0.1877697 0.25754663
0001a0 47 65 ce bc ac 68 03 3e c7 03 3e 3e fc 28 52 3c
       -0.025194777 0.12832898 0.18556128 0.012827154
0001b0 9e 04 f4 3d 0a d8 0b be 19 fe 18 3e 6d 56 19 3e
       0.11914943 -0.13656631 0.1494068 0.14974375
0001c0 b1 6d 31 3d 55 72 92 3d 05 4e d5 bc 9e 2a d4 3d
       0.0433175 0.07150713 -0.02603818 0.10359691
0001d0 60 fd 5e 3e 76 5e 12 be 98 8a ae bd 6c fc 40 be
       0.21776342 -0.14293846 -0.085225284 -0.18846291
0001e0 e7 c7 b3 bd 6c ee 6f 3c e6 d3 4d be db 29 b3 3d
       -0.08778363 0.014644247 -0.20100364 0.08748218
0001f0 41 5c ff 3c 85 ab e2 3e a0 7d dd 3e f4 ad 96 3e
       0.03117192 0.44271484 0.43259907 0.2942959
000200 e9 46 fd 3e f4 a6 94 3e f7 c9 8f 3e 6d af a0 3e
       0.49468163 0.29033625 0.28083774 0.3138384
000210 37 dd f1 3e ae 4c 81 3e a7 49 ab 3d bb b7 85 3e
       0.47239086 0.25253814 0.083636574 0.26116738
000220 88 5d 06 3f 01 b2 cd 3e e0 db c9 3e 73 fe 7e 3e
       0.5248647 0.4017487 0.39425564 0.24901752
000230 e4 39 9c 3e bc 20 ee 3e 37 e5 2c 3f 1f ff 00 3e
       0.30512917 0.4650935 0.67537254 0.12597321
000240 8f 1d 28 3c aa 8d 91 3e b7 64 82 3e ce 61 15 3e
       0.010260954 0.28428394 0.25467464 0.14588091
000250 56 ae a1 be df ce 17 bf f4 fc 09 3e 2e 41 15 bd
       -0.3157832 -0.59300035 0.134754 -0.036439113
000260 b2 81 20 be 18 96 20 3e 7a bd a0 be 87 0b b1 3e
       -0.15674475 0.15682256 -0.3139456 0.34579107
000270 34 ca a4 3e b0 d5 8b 3e b9 2e 8c 3e 21 16 10 3f
       0.3218552 0.27311468 0.27379397 0.56283766
000280 1d 2c 67 3e ec 19 1e 3e f8 4c e0 bd d4 51 38 3e
       0.22575422 0.15439576 -0.109521806 0.17999965
000290 fd 2d 8e 3e 75 34 34 be db d0 21 3e a4 f9 e7 bd
       0.2776946 -0.17598136 0.15802328 -0.11326912
0002a0 69 03 c4 bb e8 2d 8f 3e 86 f5 18 be 71 ac 51 bd
       -0.005981852 0.2796471 -0.1493741 -0.051189844
0002b0 db dc 80 bd c8 51 e6 3c 5f ea 91 3e 7d 50 11 bf
       -0.06292125 0.028115168 0.28499123 -0.5676344
0002c0 a7 96 97 bd 44 0f 89 bd 69 8f 19 3c 6a 25 ab 3e
       -0.074017815 -0.06692365 0.009372571 0.33426982
0002d0 bf 4e 8e be d3 7c df bd 4f fc 76 be 55 8a 47 be
       -0.27794454 -0.1091248 -0.24119686 -0.19486363
0002e0 fe a6 8e 3e 1f 7a 34 be ff 32 35 be 5d 54 f6 bd
       0.2786178 -0.1762471 -0.17695235 -0.1202781
0002f0 98 f1 1f be 60 08 09 be ee 51 26 bd 34 77 36 be
       -0.15619504 -0.13382101 -0.040605478 -0.1781891
000300 00 c6 ef bd 96 4f 98 3c 2a ed 94 bd 60 c2 c0 be
       -0.117076874 0.018592637 -0.07271798 -0.37648296
000310 91 1f 31 be fc b2 5e be 8b 75 cf bd 69 5a 98 be
       -0.17297198 -0.21747965 -0.101298414 -0.29756477
000320 73 55 86 be a8 e9 aa be f5 c8 f8 bc aa 68 8d be
       -0.26237068 -0.3338139 -0.030369261 -0.27618915
000330 23 3a 6a 3d ea cb 1a 3d ed 48 80 bd b4 7b 23 3e
       0.05718435 0.037792124 -0.062639095 0.15965158
000340 a5 a1 36 be 4b b8 1c bc 00 fe 09 be 50 02 75 3c
       -0.178351 -0.009565423 -0.134758 0.014954165
000350 e6 d9 98 bc ff 03 2c 3c 34 01 69 3d 9d c1 2b bf
       -0.01865859 0.010499 0.056885913 -0.67092305
000360 a2 8d a1 be 2c da 25 be 82 e5 a2 3e 52 70 18 3f
       -0.3155337 -0.16196507 0.31815726 0.5954639
000370 86 04 3c bf f0 3e d7 be 90 c7 1b be 32 6c d7 3e
       -0.734444 -0.42040205 -0.15212846 0.42074734
000380 ed 1e 06 3f 8a 16 77 be 41 4f aa 3e 6c 3d 57 3e
       0.5239094 -0.24129692 0.3326359 0.21019524
000390 64 a0 14 3f a9 68 a7 3e b3 39 18 3d f8 0d 4c 3e
       0.58057237 0.32697037 0.0371644 0.19927204
0003a0 44 c3 c1 3e 45 7f 03 3f 77 da 84 3e fc fa d7 bd
       0.37844288 0.5136607 0.25947925 -0.10545918
0003b0 08 bf 0b 3e aa a5 70 3e 94 af 64 3e 76 05 d8 3e
       0.13647091 0.23500696 0.22332603 0.42191666
0003c0 3c 83 1e be 0a f7 7d 3d 6b d9 a0 3d 37 8e c1 bc
       -0.1547975 0.062003173 0.07853969 -0.023627384
0003d0 60 95 09 3d fc 79 77 3e 5f 13 32 3e a8 5e c3 3e
       0.03358972 0.24167627 0.17390202 0.38158154
0003e0 29 e0 fb 3e b2 5a 1e 3f c3 a0 fc 3d af 33 4c bb
       0.49194458 0.6185714 0.1233535 -0.0031158736
0003f0 01 27 e1 3d 4b 14 41 3e 43 80 b1 3e b7 b6 e5 3d
       0.109937675 0.18855397 0.34668168 0.11216491

shared_net.0.bias f4 [128]
000000 f3 9b 94 bc 65 c2 85 3d 60 64 bd bb 57 b3 0b 3e
       -0.018140769 0.065312184 -0.005779788 0.13642631
000010 0a 53 82 bd f8 74 92 3d cd e1 11 3e a4 ae 77 3d
       -0.06363495 0.07151216 0.14246292 0.060469285
000020 b2 e3 fc 3c 29 d6 f8 3d b7 a0 59 3e b5 7f 3f 3d
       0.030870292 0.12150223 0.21252714 0.04675265
000030 9b 29 e6 bc 57 e4 0f be 8a 9c c5 3d e2 70 96 3c
       -0.02809601 -0.14051948 0.09648998 0.018364374
000040 b6 dd a9 3d f7 9a 1a 3d a1 ff 06 3e 57 e6 2c 3d
       0.08294241 0.037745442 0.13183452 0.042211857
000050 0c d7 96 bd 2b 47 3d 3e 74 86 2f be 70 f3 27 3e
       -0.07365236 0.1848418 -0.17141134 0.16401458
000060 e4 60 b4 3c 1f ce 47 3e 31 4b 54 bd 68 bb 29 bd
       0.022018857 0.19512223 -0.05182952 -0.04143849
000070 4a 90 28 3e d2 5a 04 3e 62 8b 49 bd 7d 83 cf bd
       0.16461292 0.1292527 -0.04920519 -0.10132501
000080 d4 c9 c4 bd 1b 1c 63 3d 3b 74 f2 bb 96 d3 97 bb
       -0.09608808 0.055446725 -0.0073991097 -0.0046333773
000090 51 ff 55 3d 5e c1 4e 3e 61 42 25 bc bb 40 1e 3e
       0.05224544 0.20190951 -0.010086627 0.1545438
0000a0 f6 18 07 3e 1b 87 1f 3e 57 d0 df bd 01 ad 04 be
       0.13193116 0.15578882 -0.109284095 -0.12956621
0000b0 de a5 81 3d 00 00 00 00 0c 69 27 3e d1 aa eb 3d
       0.06330465 0.0 0.16348666 0.1150719
0000c0 fd a1 b6 bc fa d9 0d 3e db 7f 2c be aa 77 a8 bb
       -0.022294039 0.13852683 -0.16845648 -0.005141218
0000d0 d8 53 50 3d ee e3 10 3d 6f b0 0a be 16 65 00 3e
       0.05086121 0.03537362 -0.13543867 0.12538561
0000e0 e9 2a 9b bd 8b f6 2b 3e 1d 86 d4 bd 04 f6 76 3c
       -0.07576544 0.16793267 -0.103771426 0.015073303
0000f0 e0 50 84 3d dc ae 29 3e 10 5d 4d bd 60 a0 80 bc
       0.06460738 0.1657061 -0.05013758 -0.015701473
000100 94 80 20 be 50 a7 c4 3d 54 66 19 3c aa b7 38 bd
       -0.15674049 0.09602225 0.009362776 -0.04509703
000110 a6 65 ad 3d 33 e6 11 3e 00 00 00 00 f3 27 f6 3c
       0.084666535 0.1424797 0.0 0.030048346
000120 00 00 00 00 f4 55 73 bd c4 cd 34 3e f6 29 75 3c
       0.0 -0.059408143 0.17656618 0.014963618
000130 3a 06 db bd fa a4 32 3e 35 49 30 3e af a2 8b bd
       -0.10694547 0.17445746 0.17215426 -0.06818139
000140 de 17 0c 3e 70 8e 73 bd 47 5e ec bc 00 00 00 00
       0.1368098 -0.05946201 -0.028853549 0.0
000150 3b 09 9f 3d cf 33 0e 3d e5 b6 88 bd 0a a3 93 bd
       0.077654324 0.034717377 -0.06675509 -0.072088316
000160 30 42 0a 3e 3d 2b bb 3d da 0c 18 3e ca 97 2e 3d
       0.13501811 0.091391064 0.14848652 0.042625226
000170 db 40 74 bd 79 77 4a 3d 72 06 24 bd 37 31 0a 3e
       -0.059632163 0.049430344 -0.04004521 0.13495336
000180 07 09 1d 3e 75 71 6c bd 29 e5 fb bd f0 f4 12 be
       0.15335475 -0.05772539 -0.12299568 -0.14351249
000190 a3 50 04 3e 9c d1 84 3d 22 37 39 3d f3 16 fb bd
       0.12921385 0.06485292 0.045218594 -0.122602366
0001a0 00 b8 0f 3e 0b b7 81 3d 6a a9 52 bd 46 f5 30 bc
       0.14035034 0.06333741 -0.051431097 -0.010800665
0001b0 95 ad f1 bd 6e ab 50 bd 62 ca c4 3d 8c a8 f9 3d
       -0.11800686 -0.050944738 0.09608914 0.12190351
0001c0 ff ee 0d be 1e 4f 2e 3d 6b 71 c7 3c db 9f a5 3d
       -0.13860701 0.04255592 0.024346074 0.08087131
0001d0 7a 54 23 be d2 1a 31 3e 00 00 00 00 b4 4f 8d bd
       -0.15950194 0.17295387 0.0 -0.06899968
0001e0 9d 06 04 3e 82 90 3b 3d 08 5e 09 3d a3 a4 1a bd
       0.12893148 0.04579211 0.03353694 -0.037754666
0001f0 00 00 00 00 58 80 50 3c 00 00 00 00 72 e7 ff 3d
       0.0 0.012725912 0.0 0.124953166

shared_net.2.weight f4 [128, 128]
000000 55 f9 4e be 43 37 39 bd ee 47 2a bc 26 d9 21 3d
       -0.202123 -0.045218717 -0.010393126 0.03951373
000010 b5 4b 05 bf 3a 08 4c 3e fe 3f 16 bd 7a 5c 51 be
       -0.52068645 0.19925013 -0.03668212 -0.20445433
000020 88 82 fa bc 3c f0 88 3c 42 2f 09 3e 6c 3e f6 3c
       -0.03057982 0.016716115 0.13396934 0.030059062
000030 da f7 58 be 0a 1a 47 bd 5f d8 c3 be 08 d5 58 3d
       -0.21188298 -0.048608817 -0.38251016 0.052937537
000040 ce 41 36 3e 12 46 cb 3d 36 64 20 3e 3f 37 17 be
       0.1779854 0.09925474 0.15663227 -0.14767168
000050 87 42 b6 bd a8 4f 8d bd 88 aa 02 bf 93 a9 dc bd
       -0.08899408 -0.06899959 -0.5104146 -0.10774531
000060 ef 2b a8 bd 08 a7 10 3e 6f 2f 90 bd 14 48 a8 be
       -0.08211505 0.14126217 -0.07040297 -0.3286749
000070 86 8b 23 3e 20 2d cb 3c 34 8d 19 3e 89 0d d2 be
       0.15971193 0.02480179 0.14995271 -0.41025952
000080 00 5c d8 bc cd 3b 57 bd 0c 9c 25 3c dc 29 0f 3e
       -0.026411057 -0.052547265 0.010108005 0.13980812
000090 ae 9e 69 3e e7 58 88 3d dc 00 39 3d cf a2 ca be
       0.22814438 0.06657582 0.045166835 -0.39577338
0000a0 ef 8c 86 3e e9 b8 71 3e 93 5c 04 3d e2 23 27 be
       0.262794 0.23605694 0.03231485 -0.16322282
0000b0 e1 5a 8a b8 de 89 f2 3d de 99 32 3e 11 15 c9 3d
       -6.59728e-05 0.11842702 0.17441508 0.09818471
0000c0 e1 e1 d1 3d ad 8e 3a 3e 36 eb bc bd 2c 5a 37 3c
       0.10248161 0.18218489 -0.092245504 0.011190932
0000d0 47 33 25 3e 53 a6 a0 3d 07 f9 3f 3e 40 30 97 3d
       0.16132842 0.07844224 0.1874734 0.0738225
0000e0 fe a5 00 bf e8 61 f7 3c 6f 9b 9b be 77 8b 1f bd
       -0.50253284 0.030198053 -0.30392024 -0.038951363
0000f0 0b 2e 64 bd 6e 85 5f bc 36 76 12 3e d1 ae b1 bc
       -0.055707972 -0.013642652 0.14302906 -0.021689804
000100 61 1c 29 be b1 f9 23 3d 80 27 a0 3e 1c c3 86 3d
       -0.16514732 0.040033046 0.31280136 0.06580183
000110 81 3a 31 3e ce 03 79 3d f9 ba 18 3e fc 85 a2 3d
       0.17307474 0.060794644 0.14915074 0.07935712
000120 39 0d bf 3e d0 50 b2 bd a2 42 aa 3e 3c b3 28 3e
       0.37314776 -0.0870682 0.33253962 0.16474622
000130 0a 23 08 be ee 71 d5 3d 41 bf 16 be 59 64 b5 3d
       -0.13294616 0.10422121 -0.14721395 0.088570304
000140 80 2a 80 3e 7c 23 32 3e 74 0d a9 3d 4d 0b 56 be
       0.25032425 0.17396349 0.08254519 -0.20902748
000150 e5 ef be bd d8 69 3c 3d dd ae e5 bd 46 5d cf bc
       -0.093231 0.045999378 -0.11214993 -0.02531303
000160 35 2a 30 3e 5a 8e 0e 3e bd 4c 4c 3d 06 a9 61 3e
       0.172036 0.1392149 0.04987787 0.22037134
000170 1d e1 61 3d 80 61 95 3d 94 7b 10 3d c8 73 23 3d
       0.055146325 0.07293987 0.035274103 0.03990534
000180 15 e1 a0 3d b0 b4 f5 bc 2d cd 98 bd 8a ca 0c bf
       0.07855431 -0.029993385 -0.07461009 -0.5499655
000190 bf fd a0 bc d0 76 0c 3e 45 0c 86 3e 52 71 a2 be
       -0.019652246 0.13717198 0.26181236 -0.31727082
0001a0 50 57 45 bd 88 53 74 3e c2 27 08 be 86 b9 78 bc
       -0.04817897 0.2385999 -0.13296416 -0.015180951
0001b0 b5 b7 f2 bd 70 a3 0a 3c f2 42 04 3e b8 95 92 3e
       -0.118514456 0.008461818 0.12916163 0.2862985
0001c0 7c 21 ec be f1 ed f1 bd 7a 23 58 be 3c 8d 8c 3d
       -0.46119297 -0.11812962 -0.21107283 0.06862876
0001d0 1a 8d 45 be e8 0c 09 bd e2 65 19 3e 7e 21 00 3e
       -0.19292107 -0.033459574 0.14980271 0.12512776
0001e0 09 4b c7 be 27 95 03 be 6e b8 16 bd b8 54 40 be
       -0.38924435 -0.12849866 -0.03679698 -0.18782318
0001f0 4c f9 98 b7 86 57 6b 3d 21 4d 80 3c 8d 07 a8 3d
       -1.82359e-05 0.057456516 0.015661778 0.08204565
000200 e5 cd f1 3d 58 1b 67 be 00 c4 a0 3e d6 64 8f be
       0.118068494 -0.22569025 0.31399536 -0.2800662
000210 82 57 df 3e 84 15 9a be 09 51 38 be 54 d4 4d bd
       0.4362145 -0.3009454 -0.17999662 -0.05025132
000220 81 41 7c 3d d8 96 92 bd 66 01 53 be d7 24 11 3e
       0.061585907 -0.071576774 -0.20606002 0.1417421
000230 3f 35 13 bd 55 b1 94 3e 80 3a b4 3e 27 a9 b6 bd
       -0.03593945 0.29041544 0.35200882 -0.08918982
000240 e3 54 98 bd 20 ed 26 be 7b 37 21 be 52 51 43 bb
       -0.07438066 -0.16301394 -0.1574382 -0.002980311
000250 6e 22 60 bd 9d 6b 27 be 2a f2 73 3e 78 f5 e3 bd
       -0.054720335 -0.16349645 0.23822847 -0.11130804
000260 2d 9b 01 3d 55 db 98 be 6f 14 4b 3e 0b e7 39 3e
       0.031642128 -0.29854837 0.19832014 0.18154542
000270 e2 0d 39 be ea 79 34 be 72 1b fe 3d fa 09 34 3e
       -0.18071702 -0.17624632 0.124075785 0.17581931
000280 ad a0 c6 3e cf c4 b8 ba b1 0b 3b be 8a d9 85 3d
       0.3879446 -0.001409674 -0.18266179 0.06535633
000290 f5 cf a4 be 7d 5d ca be 9c 6e 0b be 3d cd 69 bd
       -0.3218991 -0.3952445 -0.13616413 -0.057080496
0002a0 b8 25 1c be 9c fd 03 be 1a 61 fb bd 7b 32 29 3e
       -0.15248764 -0.12889713 -0.1227438 0.16523163
0002b0 de 1d ad 3d 75 74 f2 bc cc 33 96 be c8 13 79 be
       0.08452962 -0.029596547 -0.29336393 -0.24323952
0002c0 fc 84 09 bd 5e a1 05 be 08 f1 46 3e 49 ae 8c bc
       -0.03357409 -0.13049838 0.19427884 -0.01717295
0002d0 a0 f8 16 3e 9d b3 9e be 34 29 2f 3d 5d 4e 45 be
       0.1474328 -0.3099641 0.042763904 -0.19268174
0002e0 5b ee ce bc 13 b5 64 be de 2c 87 3e 8b d1 8d 3e
       -0.025260141 -0.223347 0.26401418 0.2769893
0002f0 b1 57 be bd 7c c3 b2 be fe 84 24 3d 50 ff 6c be
       -0.092940696 -0.34914768 0.040165894 -0.23144269
000300 ea 64 8a 3e fa dd 54 3e ae 10 6f bd 1e c3 b6 be
       0.27030116 0.20787802 -0.058365516 -0.35695738
000310 9e fd c4 3d 46 fb 81 bd ae 14 3f 3e cf b6 18 be
       0.09618686 -0.06346755 0.18660232 -0.14913486
000320 50 bd 9c 3d 45 6e a1 3d bb 56 84 be 3e 2c b5 bd
       0.07653296 0.0788236 -0.2584742 -0.08846329
000330 c1 9b 5f 3e ca 87 a6 be 43 d2 3e bd f7 93 46 3e
       0.21836759 -0.32525474 -0.04658724 0.19392382
000340 97 89 80 3d 8d a7 82 bd 9d a7 43 bd 54 cb 22 be
       0.06276243 -0.06379614 -0.04776727 -0.15897876
000350 bf a8 20 be 01 a0 56 3e 75 9b 06 3e e5 d2 9d 3d
       -0.15689372 0.20959474 0.1314524 0.077062406
000360 20 5e 63 be 42 80 95 3d 6f b9 5d be e4 b6 16 3d
       -0.22203875 0.07299854 -0.21652769 0.03679551
000370 d5 f0 d3 3d d5 4d c0 be 46 42 74 3d 08 e7 71 be
       0.103486694 -0.3755938 0.059633516 -0.23623288
000380 be 50 1c be 1b 86 09 3e 69 40 4b 3e 3e 56 74 3e
       -0.15265176 0.13430063 0.1984879 0.23861024
000390 2a b2 ed bc 8d ac b3 be 58 11 50 3e 2e 27 44 3d
       -0.02901562 -0.35092583 0.20319116 0.047888927
0003a0 0d 1d 0f bd 05 0c 8f 3d 55 3b 1c bd 23 24 61 3d
       -0.034939814 0.069847144 -0.03814252 0.054966103
0003b0 c0 cf c0 3c 72 a1 3f 3e 94 e6 f3 3d fd 06 8d bd
       0.023536563 0.1871393 0.11909214 -0.068860985
0003c0 75 c7 a4 3d e3 ed e8 3d fa be 3a 3c 3e 90 17 3e
       0.08045856 0.11373498 0.011398071 0.14801118
0003d0 bc 9a 0e 3f 81 ce 4c be 29 39 b5 3d 41 55 44 bc
       0.55704856 -0.2000065 0.08848793 -0.011983217
0003e0 73 9e 47 bd bb 71 0e 3f 99 3c 9d bc 3b c3 9c 3b
       -0.048735093 0.5564229 -0.019193934 0.0047840155
0003f0 70 5f 49 bc 16 59 35 be 63 a4 1f bc 78 b1 ad 3d
       -0.0122908205 -0.17709765 -0.009743783 0.08481115

shared_net.2.bias f4 [128]
000000 98 14 c3 3d f6 60 0d be ca 54 94 3d e0 96 a5 3d
       0.09525412 -0.13806519 0.07242735 0.08085418
000010 0a 05 ac bd e4 30 08 3e 18 6e da 3b 98 90 22 3d
       -0.083993986 0.132999 0.006665956 0.039688677
000020 77 b1 35 3c a6 c6 8f 3c 38 73 d9 bd 76 21 06 bd
       0.011089674 0.017550778 -0.10617679 -0.032746755
000030 a3 92 7f bc 60 df 2b bd 04 5f 40 3d 2c 10 05 3e
       -0.015598926 -0.041961074 0.046965614 0.1299445
000040 27 9a 1b bd e2 b5 7b 3d d8 40 92 bb eb 86 9c 3d
       -0.037988808 0.061452754 -0.0044632964 0.07642921
000050 68 1d 84 3d bd e7 2b 3d 82 99 80 3d c5 49 91 3d
       0.06450921 0.04196905 0.06279279 0.070941485
000060 da 5a ce 3c b2 28 1a 3d ab d0 18 bc 1b e4 d0 3c
       0.025189806 0.037636466 -0.009327094 0.025499394
000070 ad d9 64 3d 6b 1d a0 3d 9c d5 22 3c 67 36 de bb
       0.055871654 0.07818111 0.009938624 -0.0067813876
000080 93 fb bd 3d 02 0b f4 bb 80 b3 ff 3c 78 b8 ef 3d
       0.092764996 -0.0074476013 0.031213522 0.117051065
000090 61 40 b3 bd 7f bc 9b 3d 55 ae 9a bb a4 57 77 3d
       -0.08752514 0.07604312 -0.004720489 0.060386315
0000a0 22 95 6f bd 3c d8 be 3c e7 69 b7 3d 0b 73 cc 3c
       -0.058491834 0.023296468 0.08955746 0.0249572
0000b0 0c 3f e1 3c 07 cc bb 3d 2b d0 55 bd e1 85 d6 bd
       0.027495883 0.091697745 -0.052200478 -0.10474754
0000c0 ad 4b ac 3d 77 ad 15 3e 74 3f 97 3d 2c 80 8e 3d
       0.084128715 0.14616953 0.073851496 0.069580406
0000d0 f2 54 8a bb 3a 73 31 be 49 7d e4 3d 47 4e bc 3d
       -0.004221552 -0.17329112 0.11156709 0.09194618
0000e0 fe 7c 8f 3d 50 c8 c7 3d 9c b7 7d 3a ab 9e c8 bc
       0.07006262 0.097550035 0.0009678544 -0.024489721
0000f0 4b 4b 2b 3d 75 68 87 3d d0 4c 8d 3d 4b 03 30 3d
       0.04181985 0.066117205 0.068994164 0.04297189
000100 7e c1 be 3d 4f c7 de bd c7 78 b4 3d cc e1 5f 3d
       0.093142495 -0.10877859 0.08812099 0.054658696
000110 38 73 ca bd 0e b8 7a bd 00 00 00 00 29 bb b2 3d
       -0.098852575 -0.061210684 0.0 0.08727104
000120 00 00 00 00 2b 77 a7 3c fe d4 5b 3c a7 97 cc 3c
       0.0 0.020442566 0.0134174805 0.024974657
000130 80 f4 f5 3d d9 3a 2d bd 44 cc 19 bd 30 cd af 3d
       0.12009525 -0.04229245 -0.03754832 0.08584058
000140 76 62 21 3c 77 fb e6 3d 94 ee 92 3d cd 7d a9 3d
       0.009850135 0.11278432 0.071744114 0.08275948
000150 bb 13 c3 3c 04 3a c9 bb 16 ee 4a 3d 54 38 66 bc
       0.02381312 -0.006140949 0.049543463 -0.014051516
000160 8b 28 09 bd e3 9b 00 3d ad 81 68 bc 2e 52 66 bc
       -0.03348593 0.031398665 -0.014191073 -0.014057679
000170 7f 4e 7b 3d bf 9c 39 bd 28 c5 0c be f4 2a a2 3d
       0.061354157 -0.0453155 -0.13747084 0.07918349
000180 ed c9 c4 3c fc a4 6a 3d 4e 56 f8 3d aa 8d 72 3d
       0.024022067 0.057286248 0.12125836 0.059217133
000190 03 75 76 3d 35 3b b6 3d 30 72 a7 3d 1c ad c0 bd
       0.060170185 0.088980116 0.081760764 -0.09408018
0001a0 32 10 c4 bd 10 c1 80 bd 93 0e 0f 3d 15 27 98 3d
       -0.095734015 -0.06286824 0.03492601 0.07429329
0001b0 c0 ae 2b bd 45 79 b0 bc 57 46 d7 3d 05 4d 1f bb
       -0.0419147 -0.0215422 0.10511463 -0.0024307382
0001c0 cd 70 49 3c a7 c2 83 3d ae a4 a1 3d 8a 6e 31 3d
       0.01229496 0.06433611 0.07892738 0.04331831
0001d0 fc 49 91 bc ce 92 5a 3c 11 3a 8e bc 90 49 6e bc
       -0.017735474 0.013340665 -0.017361673 -0.014543906
0001e0 c5 80 f7 3d 5d 56 e1 bc f3 e7 7d bd f9 ca 27 3d
       0.12085108 -0.027507002 -0.061988782 0.040965054
0001f0 bc ca b4 bd a6 be 45 3c 02 c8 30 bb fe db d7 3d
       -0.08827731 0.01206938 -0.0026974683 0.10540007

shared_net.4.weight f4 [64, 128]
000000 e4 b0 8d 3c 4f ca c4 3d cf 47 99 bd c0 da 06 be
       0.017296262 0.096089 -0.074843995 -0.13169384
000010 b3 47 b6 bd c3 75 04 bd 85 e0 f7 bd 63 f0 3c be
       -0.08900394 -0.03233887 -0.121033706 -0.18451075
000020 16 c2 77 3d e4 35 65 3e b1 4a 64 3a 69 de 40 3d
       0.06048783 0.22383839 0.00087086397 0.047087107
000030 9b 7c 37 3d e0 40 2d 3d 8f 8c 0b 3e d1 bd 4a be
       0.044796567 0.042298198 0.13627838 -0.19798972
000040 51 58 a8 bd be f3 4d bd aa d9 0f be de 8c 03 bd
       -0.0821997 -0.05028128 -0.14047876 -0.032116763
000050 75 b2 82 3e 74 bc c6 bd 98 d6 85 bc e7 89 27 be
       0.25526777 -0.09703913 -0.016337678 -0.163612
000060 fa 93 d3 3a 6f 0c b4 3d 64 2a 81 3e 6b 6a 3e 3e
       0.0016142123 0.08791434 0.25227654 0.18595283
000070 4b 5c 71 be 14 6b de bd bd ce 1d 3e ac 77 c6 bd
       -0.23570363 -0.10860267 0.15410896 -0.09690794
000080 74 b1 14 3e 08 e6 f9 bb d1 05 5d bd 96 c4 a0 3d
       0.14520818 -0.007626299 -0.053960625 0.07849996
000090 01 a6 16 3e e4 6c 06 be e5 70 f9 bc f9 03 65 3e
       0.14711763 -0.13127476 -0.03044934 0.22364797
0000a0 e1 2d cc 3d 2c 79 8b bd fb be ce 3d 80 8c 2c bd
       0.09969688 -0.06810221 0.100950204 -0.04212618
0000b0 a8 ab 44 be 2e 3e 88 3d 26 c8 53 be 6b 44 b3 3d
       -0.19206107 0.06652485 -0.2068182 0.08753284
0000c0 76 f0 d3 bd 22 f3 ca bd 58 63 66 bd 6a 16 68 bd
       -0.10348599 -0.09909655 -0.056247085 -0.056662
0000d0 55 71 09 be 99 4a 68 3e 8f 59 fc bd ec 34 ec bd
       -0.13422139 0.22684707 -0.123217694 -0.115335315
0000e0 7f 8f 87 bd 4d 39 e3 bd b8 90 ec bc 5c e2 af bd
       -0.066191666 -0.11094914 -0.028877601 -0.085880965
0000f0 51 73 f7 3d 0f 24 34 be 31 72 1f bd 62 32 28 3d
       0.12082542 -0.1759188 -0.03892726 0.041063674
000100 e7 0b ad 3d d1 66 f5 3d c1 37 88 bd 2c 82 2a 3c
       0.08449536 0.11982501 -0.06651259 0.010407012
000110 41 90 97 3d a9 80 09 be 9c 8f 77 be 3a f2 10 be
       0.07400561 -0.13427986 -0.24175876 -0.14154902
000120 f5 45 5a be a1 92 e0 bd 90 4f 43 bd ac 73 95 3d
       -0.21315749 -0.10965467 -0.0476833 0.07297453
000130 f7 c3 8a bd db 18 19 3e fa 96 34 bc 13 1e de bd
       -0.067756586 0.14950888 -0.011022324 -0.1084558
000140 ec f4 96 3d ec cb 39 be 4d b3 1b bd 63 b7 c3 bd
       0.07370934 -0.18144196 -0.03801279 -0.095564626
000150 b8 88 15 be aa 01 35 3c 3d 68 8a bc 75 ad a1 3e
       -0.14602935 0.01104776 -0.016895408 0.3157765
000160 d9 c3 a1 3d a0 7a 43 bd 17 ea 8b 3e 22 59 13 3e
       0.07898683 -0.047724366 0.27327034 0.1438947
000170 65 8e 31 3c 49 f3 25 3e 75 de 31 be 01 8e da bd
       0.010837172 0.16206087 -0.17370017 -0.10671616
000180 d0 f5 69 be 56 f7 59 bd fa 57 89 3e c4 76 34 bd
       -0.22847676 -0.053214394 0.26824933 -0.044058576
000190 aa fe 99 bd dd ab 8e bd d7 fe db bb 91 98 34 be
       -0.075192764 -0.06966374 -0.006713729 -0.17636324
0001a0 4e 91 3c 3e ac 28 ad bd 5c 59 29 3d 10 9c 18 3e
       0.18414804 -0.08455023 0.041344985 0.14903283
0001b0 69 5f 20 be 7f 2e 1e 3d 35 1b 1c bd ce 79 86 bd
       -0.15661396 0.03861856 -0.038111884 -0.06566201
0001c0 7b 04 b3 bd 6d 9a 30 bd 76 c5 8e 3b fe f7 e5 bb
       -0.08741089 -0.043116022 0.0043570353 -0.0070180884
0001d0 7e 1b 45 3d 98 ca 0a 3e 96 67 e0 bd 3d f4 c5 bd
       0.04812192 0.13553846 -0.109572574 -0.096657254
0001e0 de e9 34 be c3 e0 c8 3d 51 d8 b2 bd 0e bd ae bd
       -0.17667338 0.09808495 -0.08732665 -0.08532153
0001f0 47 9c 3f 3d 5b 25 2b be 9b 81 fd bd 61 1b 1d 3e
       0.046779897 -0.16713469 -0.12378236 0.15342475
000200 ea 97 10 3e 88 ef 03 be 0e 87 44 bd 95 47 19 3e
       0.1412045 -0.12884343 -0.04798036 0.14968713
000210 22 58 74 3c f7 50 d7 3e 9a 1f 11 3e 8f 4d a3 be
       0.014913591 0.4205396 0.14172211 -0.3189511
000220 e7 bc 94 3d c2 a9 1c bd 3a 85 e4 3d ea 30 c8 bd
       0.07262593 -0.03824783 0.111582235 -0.097749546
000230 b2 92 0f be b3 16 08 bd 17 27 2e bd 74 5d b2 bc
       -0.14020804 -0.033224773 -0.042517748 -0.021773078
000240 42 c5 0f be 35 32 f7 3d 68 e3 62 bd de 5a cc bb
       -0.14040092 0.12070123 -0.055392653 -0.006236418
000250 90 67 2a be d1 13 09 3d c3 7a e1 3d cb af 93 bd
       -0.16641068 0.033466164 0.11009743 -0.07211264
000260 ea 3d 5e be 2f 18 98 3b 8c e1 fe bd 75 9d 18 be
       -0.21703306 0.004641555 -0.124453634 -0.14903815
000270 9f 52 c0 3d a0 03 f8 bd 80 58 73 3e 75 dc 8e bd
       0.09390759 -0.121100664 0.23764229 -0.069756426
000280 29 1b 19 3e 94 59 01 3d e9 3a f6 3d b8 76 07 be
       0.14951767 0.03157957 0.12022955 -0.13228881
000290 3f c4 13 bd 9a 94 58 be 5a 71 ad 3c 19 cf 1b be
       -0.036075827 -0.21150437 0.021172214 -0.1521572
0002a0 e8 e7 3f 3e 4a 62 85 bc df d5 72 3c 4b c3 43 bc
       0.18740809 -0.01628222 0.014821499 -0.011948417
0002b0 01 03 34 be 41 73 1e 3e c1 09 8b 3e 8f b6 f9 3c
       -0.17579271 0.15473653 0.2715588 0.030482559
0002c0 c0 11 08 be 31 7c ac bd f2 f2 21 bc 18 ba b7 bd
       -0.13288021 -0.08422125 -0.009884583 -0.089710414
0002d0 51 64 40 3e 83 75 f7 bd 22 57 1f 3d bc 1d c4 bb
       0.18788268 -0.120829605 0.038901456 -0.00598499
0002e0 6d 88 18 3e 83 12 18 be 44 01 e1 3d ab 9c a4 bd
       0.14895792 -0.14850812 0.109865695 -0.080376945
0002f0 9f 3f ad 3e 83 74 e8 3c d7 24 ce be a0 1a be bd
       0.33837602 0.02837587 -0.40262482 -0.09282422
000300 4b 5c 38 3e 93 9b be 3d b2 55 d2 3d 93 a4 41 3e
       0.18003957 0.09307017 0.10270251 0.18910436
000310 fe f2 0a bd 0b ca ad bd 65 a4 0d 3e 32 1c 67 3c
       -0.03392314 -0.08485802 0.13832243 0.014105843
000320 8a 76 af bd 2e 2a 2f bb bf c5 29 bc 01 14 ae 3d
       -0.085675314 -0.0026728022 -0.010362088 0.08499909
000330 44 17 93 bd aa 99 76 3d ad cc e3 3d f6 f8 4c 3e
       -0.07182172 0.06020514 0.11123023 0.20016846
000340 ad ed a9 bd b2 7b 43 bd 6b f3 9a 3e 61 3b b6 3d
       -0.08297286 -0.047725387 0.30263838 0.088980444
000350 80 b2 da 39 af a2 11 3d 0a 7e 8b 3d 7e 82 e8 bd
       0.00041713193 0.035555538 0.068111494 -0.113530144
000360 b7 8b 12 bd 76 a3 52 3d 6f 98 41 bc f2 4a b6 3d
       -0.035777774 0.05142542 -0.011816128 0.089010134
000370 86 dd 0b 3d e2 03 9b 3d 40 68 55 3e 67 b3 2d be
       0.034146808 0.075691 0.2084055 -0.16962968
000380 16 85 0a 3e 2c 39 7b bc d2 34 b1 3c da e4 0e bd
       0.13527331 -0.015333455 0.021631632 -0.03488622
000390 73 ae 4b bd 56 a2 f8 bd e4 73 58 3e d9 85 a1 3d
       -0.049726915 -0.12140338 0.21137959 0.078868575
0003a0 27 f4 92 3d 4c 5a a3 bc 97 05 67 3c 66 8a 27 3e
       0.071754746 -0.019940518 0.014100454 0.16361389
0003b0 84 aa b5 3d 7f d0 47 bd f5 6e 72 3e 3f 81 b2 bd
       0.08870414 -0.04878282 0.23675139 -0.08716058
0003c0 91 37 3e be 07 83 b7 3d 30 1e 44 bd 04 56 de bd
       -0.18575884 0.08960538 -0.04788035 -0.1085625
0003d0 37 a1 9e bb 4f e3 a0 bd 38 56 c5 bc 0d 17 9d bc
       -0.0048409957 -0.07855856 -0.024088964 -0.01917603
0003e0 d3 1b 0e be 14 48 13 3e 8b 7b 88 3e 8c 7f 1a 3e
       -0.13877802 0.14382964 0.26656756 0.15087718
0003f0 f9 47 4a be 58 e3 33 bd 00 f8 f0 bd 06 d0 c6 3c
       -0.19754018 -0.043917984 -0.11766052 0.024269115

shared_net.4.bias f4 [64]
000000 dd 05 2f bb 28 cb 34 3d 12 bc 2d bb be ed 8b 3c
       -0.0026706376 0.044139057 -0.0026509804 0.017081138
000010 b4 b0 09 3e 30 a0 d4 3b fa c9 55 3d dc f5 d8 3c
       0.13446313 0.0064888224 0.052194573 0.026484422
000020 54 09 8f 3d 1a 78 27 3d 8c 90 6b bc f2 dc 14 bc
       0.06984201 0.040886022 -0.014377724 -0.009085881
000030 4d e1 9c 3d 4f a5 df 3c 11 0b c3 3d 95 13 ac bc
       0.0766016 0.027300505 0.09523595 -0.021005431
000040 8c b1 57 3d df 01 eb bb ee 4e cb bb 00 00 00 00
       0.052659556 -0.007171854 -0.0062044775 0.0
000050 5a 56 d3 3d e9 58 8f 3c 3d 25 60 3d 70 d3 91 3d
       0.10319205 0.01749845 0.054723013 0.07120407
000060 c0 9b 11 bb 8e f9 0d 3d 16 a9 4b bb 7f ed 81 3d
       -0.0022218078 0.034661822 -0.0031076125 0.06344127
000070 86 e0 ff 3c 5f 38 44 bc 04 84 d7 3d 38 34 a7 3d
       0.03123499 -0.011976331 0.10523227 0.08164257
000080 88 80 40 bc 22 ac dd bc 12 8e 09 3d 95 ea dd 3c
       -0.011749394 -0.027059618 0.033582754 0.027089396
000090 69 38 7d 3b ac cd 69 3c df f1 3b 3c 68 48 5e bd
       0.003863836 0.014270227 0.011471241 -0.05426827
0000a0 83 4f 14 3d 1e cf 44 3d c3 0a 21 3e 34 e8 ab 3c
       0.03620864 0.048049085 0.15726762 0.020984747
0000b0 7c 3a 24 3b 4d ce 70 3d 6c 24 56 3c 48 13 25 bc
       0.0025059273 0.058790494 0.013070207 -0.010075398
0000c0 48 29 0c 3d 00 00 00 00 d4 c8 d2 3c 3e 86 f1 3b
       0.034219056 0.0 0.025730528 0.0073707392
0000d0 c1 e8 92 3d 19 87 84 3c 98 d7 06 bb 01 6b a5 bb
       0.071733005 0.0161777 -0.0020575281 -0.0050481563
0000e0 de df 25 3d a7 d5 bb 3c 2a 39 c3 3d e5 76 0c bc
       0.0404967 0.022929026 0.095323876 -0.008573269
0000f0 bd 7c 4e 3d 97 cc c9 3b 56 d7 f2 3c 89 ba 4e bc
       0.05041193 0.006158422 0.029643696 -0.012617716

actor.0.weight f4 [32, 64]
000000 39 20 aa 3b 8e b4 0d 3f 0f 87 5c 3e 01 82 27 be
       0.0051918295 0.5535363 0.21535896 -0.16358186
000010 bd 0c b3 3e 88 14 9f 3d 6b 0d 47 3d 45 b0 5d 3e
       0.34970656 0.07767588 0.04859678 0.21649273
000020 da 84 b1 3c c6 16 69 bd f0 6d 5d 3e ac ce 28 bd
       0.021669794 -0.056906484 0.21623969 -0.041212723
000030 e0 78 d5 bd e6 a3 63 bc b8 1a 88 3e 17 69 ac bd
       -0.10423446 -0.013894057 0.26582885 -0.08418482
000040 8b 1b ee 3e 0a e5 83 be e9 51 dd bb 14 7b 34 be
       0.4650539 -0.2576068 -0.006754149 -0.17625076
000050 4c 1d 7e 3e 23 02 c8 3d a8 78 9f 3d e1 c8 0b 3e
       0.24815863 0.097660325 0.07786685 0.13650848
000060 6e 6e 18 3e 86 40 b0 3e 25 28 51 be 25 de 1c be
       0.14885876 0.34424227 -0.2042547 -0.15319116
000070 de 53 af 3d 3f ea 94 3e fd c0 c6 3d ae f7 aa 3e
       0.08560918 0.29084966 0.09704778 0.3339209
000080 bd b3 52 3d 84 ea d1 bd 31 b8 b4 3c 5e 59 df bc
       0.051440943 -0.102498084 0.022060486 -0.027264293
000090 f4 28 7e be 1d e6 d1 3e da cf 31 3e 7c c0 2a 3e
       -0.2482031 0.40995875 0.17364445 0.1667499
0000a0 e1 19 03 3e 91 30 41 3e e7 d7 04 bd 51 68 20 3d
       0.12802841 0.18866183 -0.032432463 0.039161984
0000b0 1e 67 5d be 00 33 e0 3d 1d 80 44 3b 9e 55 31 bd
       -0.21621367 0.109472275 0.0029983588 -0.04329454
0000c0 81 b1 b7 bd 49 d8 1a bd 58 71 9c 3e 3b 69 5b bc
       -0.08969403 -0.03780392 0.30555224 -0.013391788
0000d0 0f 88 bc bc a3 ee 66 bd 8c 6a 9f be 11 5c 7b 3e
       -0.023014097 -0.056379925 -0.31135976 0.2454684
0000e0 d0 8a 99 bd c7 c9 29 bd 9d dd 64 3d 0c ce 79 bd
       -0.074971795 -0.041452195 0.05587541 -0.060987517
0000f0 a7 b6 44 bd cd 03 54 3e 08 1c 76 bd f4 54 4f 3e
       -0.048025753 0.20704575 -0.060085326 0.20247251
000100 3a 30 65 3d f3 3b 5d 3e 7f c3 e2 3d 45 6e 89 bd
       0.055954196 0.216049 0.11072444 -0.06710485
000110 9f da 44 3e c8 e8 84 3e b0 c5 91 bd 0f 16 b3 3d
       0.19224022 0.25958848 -0.07117784 0.08744442
000120 8f 6e d8 3e 1b 8b 87 be a1 8c f1 3b 63 e0 b2 3e
       0.4227185 -0.26473317 0.0073715006 0.34936818
000130 f3 cf 76 3e 67 f9 69 3e 4f a0 2f 3d a8 81 da 3d
       0.24102764 0.22849046 0.04287749 0.10669261
000140 b5 1b 4c be 25 df 12 be 1c b0 33 bc 12 e8 9c 3e
       -0.19932444 -0.14342935 -0.010967281 0.30645806
000150 b3 ae d1 3b b3 5c 71 3d 69 bf 1f 3e e8 24 b5 be
       0.0063989996 0.058926295 0.15600361 -0.3537972
000160 ee 1a 26 3d 79 d1 35 be ea 9d 97 bc c3 12 81 be
       0.040553026 -0.17755689 -0.018507916 -0.25209627
000170 cc 54 14 3e 31 db 84 bd 26 b0 49 be 34 0d e2 3d
       0.14485472 -0.0648712 -0.19696102 0.110376745
000180 df b4 d9 3c b5 1a 2d 3e 1f 71 55 be 29 fa f1 bd
       0.026575504 0.16904719 -0.20843934 -0.118152924
000190 93 33 8d 3e c0 c5 94 3d 57 50 cf bd d8 ff d8 bd
       0.2757841 0.0726428 -0.101227455 -0.10595673
0001a0 8c fb a6 3d 42 14 07 be 16 28 7f 3e fe 40 a2 3d
       0.081534475 -0.13191321 0.24917635 0.079225525
0001b0 f2 37 0f 3e b9 7f 3b be 82 dd e8 3d be 2c 39 be
       0.13986185 -0.18310441 0.11370374 -0.18083474
0001c0 d0 35 10 bc bd 1d ba 3e 33 82 a3 3d f9 48 91 3e
       -0.008801892 0.36350814 0.07983818 0.28375986
0001d0 54 c3 c8 be bd 7f 81 bd d7 c2 4a be f9 f7 39 be
       -0.39211524 -0.06323192 -0.19800888 -0.18161
0001e0 f6 ae 22 be ea 46 3a 3e 21 cb e2 bd 6b 27 da 3d
       -0.15887055 0.18191114 -0.110739 0.1065205
0001f0 e4 95 a4 3e 3b 31 f6 3d 13 0c af 3d 0f 21 54 3d
       0.32145607 0.12021109 0.08547225 0.05178934
000200 11 09 4c 3e a9 04 4c bd 32 89 98 be e6 50 86 3e
       0.19925334 -0.04980913 -0.29792172 0.26233596
000210 13 35 b9 bc d3 45 10 be 7a 98 91 3d d7 a5 28 bd
       -0.022608316 -0.14089136 0.07109161 -0.041173782
000220 ca 62 41 3e 4c 84 02 3d 84 dd 50 be a7 a5 c7 3e
       0.18885341 0.03186445 -0.20397002 0.3899357
000230 5c 97 ef 3d a6 7a 11 3e 23 58 d1 3e d5 a0 80 be
       0.116987914 0.14206943 0.40887555 -0.25122705
000240 bf e2 a4 be 8c d1 27 be 2a 9d 56 bd f0 51 41 bd
       -0.32204244 -0.1638853 -0.052395977 -0.047197282
000250 48 d2 e7 bc dd a9 6b bd 6a 66 22 be 2f fe 96 be
       -0.028298512 -0.05753504 -0.1585938 -0.29490802
000260 92 92 8a bd 8d ea 0f 3e 36 04 91 bc 65 7b 06 bd
       -0.06766237 0.14054318 -0.017702203 -0.032832522
000270 ed 1b 36 3e e4 14 a6 3e 6b ba d4 3c dc 49 ac 3c
       0.1778409 0.32437813 0.025967797 0.021031313
000280 e5 ed 7c 3d 66 12 5a bd 7f 8a d4 bd d4 8d f4 bd
       0.06175031 -0.053240202 -0.103779785 -0.11941114
000290 09 0a a8 bd 3b fe 3a 3d 70 5b 54 bd db 2e 7e 3d
       -0.08205039 0.04565261 -0.051845014 0.062056404
0002a0 22 2f 61 3d 5a 53 4d 3e 3d 43 22 3e c6 92 27 bd
       0.05497659 0.20051327 0.15845962 -0.04091146
0002b0 c4 be 83 bd 59 2a 54 be 59 1d 92 bd 35 bc a2 3c
       -0.0643287 -0.2071928 -0.07134504 0.019865135
0002c0 f1 61 28 3e 3d 2e 20 3d 10 cf b8 3d 45 1f f8 bc
       0.16443612 0.039106596 0.09023869 -0.030288348
0002d0 0c f9 11 3f a4 d8 62 be d0 ea 47 be dd 3a 36 3e
       0.5702064 -0.22152954 -0.19523168 0.17795892
0002e0 49 37 8b be 51 ea b4 3e 44 91 27 3b dc 13 96 3d
       -0.27190617 0.3533502 0.0025568763 0.073280066
0002f0 6b 0c 9c 3d 8a 96 7a bd 22 6a dc be 2f e8 84 be
       0.07619556 -0.06117872 -0.43049723 -0.25958392
000300 40 e6 86 3c 39 79 66 bd 09 78 45 3e 76 26 ca 3d
       0.016467214 -0.05626795 0.19284071 0.09870617
000310 ba af 8a be e1 05 fa be 7c de 5f bd f7 0b 0c bd
       -0.27087194 -0.4883261 -0.054655537 -0.034191098
000320 a4 53 b2 bd 17 60 61 be 30 17 13 3e f7 19 a0 3e
       -0.087073594 -0.22009312 0.14364314 0.3126981
000330 6d fc 9a be 76 81 47 3e ff 41 89 3c fc 80 e4 bd
       -0.3027071 0.19482979 0.016755102 -0.11157414
000340 67 14 89 be 9e 79 88 be fa a9 b2 3d 16 8e 2c 3d
       -0.26773378 -0.26655287 0.08723827 0.04212769
000350 79 ba b9 3a 8e b7 b3 3d 5c 99 12 3e 7e 4b fd 3d
       0.0014169953 0.08775245 0.14316314 0.123679146
000360 bb 66 6d 3e b6 b0 c4 bd a5 05 81 be 2e bf a8 bd
       0.2318372 -0.096040174 -0.2519962 -0.0823959
000370 8a 2e 05 be 9b 14 ba be c2 ce 11 bd 63 0f c6 3e
       -0.13006034 -0.36343846 -0.03559757 0.38683614
000380 75 f2 0a 3d 65 a6 db be f4 19 81 3c a7 b7 85 be
       0.03392263 -0.42900386 0.015759446 -0.26116678
000390 4c 8c 0f bd cf c3 bd bd 99 01 e5 3b f2 ac 79 be
       -0.035045907 -0.09265863 0.006988716 -0.2438238
0003a0 f3 4c a8 bd 7b f0 27 3e 72 ba 4a be 1c 6b 16 3e
       -0.08217802 0.1640033 -0.19797686 0.14689296
0003b0 b0 4d ed 3d f0 08 ae bc 8b 2e b6 bd af cf 11 3e
       0.11587083 -0.021244496 -0.08895596 0.14239381
0003c0 d1 c5 3f 3d 8a 50 bd bd 55 34 5f bd bc 6f 41 3e
       0.04681951 -0.09243877 -0.054493267 0.1889028
0003d0 c4 d6 9d bc f6 50 6d bd 7b 6e dd bd da ba 47 be
       -0.019267447 -0.05793854 -0.10812088 -0.19504872
0003e0 0a 1d db bd 84 7c 4c be 90 52 83 be c1 10 5d bd
       -0.10698898 -0.19969374 -0.25648928 -0.053971056
0003f0 7c 4c 01 be 36 39 0c be 82 c2 12 bd 3f 1f 9a 3c
       -0.12626833 -0.13693699 -0.03583003 0.018813727

actor.0.bias f4 [32]
000000 61 6a 97 3d d7 0b 1c 3c f1 c6 ac 3d 3a d1 b9 bc
       0.07393337 0.009524307 0.084363826 -0.022682775
000010 92 52 c0 bb 6a 50 e4 bd 08 0c b8 bc 00 00 00 00
       -0.005869218 -0.1114815 -0.022466674 0.0
000020 c2 07 7c 3c b8 94 41 bc f1 a0 07 bd f7 bc dd bc
       0.015382709 -0.0118152425 -0.03311247 -0.027067645
000030 ec a7 68 3c 34 42 a5 3b a9 dc 8d bc f0 f0 6c bd
       0.014200192 0.0050432924 -0.017317133 -0.057846963
000040 00 00 00 00 1f 92 a1 3c f3 86 a8 3c 72 87 27 bd
       0.0 0.019722996 0.020572161 -0.040900655
000050 e1 7d 97 bc 4c 74 a9 bb 10 52 cd 3d ac cc 39 3d
       -0.01849264 -0.0051713344 0.10025418 0.045361206
000060 ca 1b a2 bb 0c 4d 48 3c 27 e1 f1 bb b7 96 9b 3d
       -0.0049471604 0.012225401 -0.0073815766 0.07597106
000070 43 aa e7 bc e7 7e 42 3d 40 6f 71 bc 47 80 a8 3c
       -0.02827943 0.047484305 -0.014735997 0.02056898

actor.2.weight f4 [9, 32]
000000 e4 75 ca 3e ca 93 ea bb 5a 4c 36 3e c5 5e e1 3d
       0.39543068 -0.007158731 0.17802563 0.11004404
000010 e4 b1 7b 3d 1b 62 38 3d 22 c1 65 3e 94 c8 2b be
       0.061448947 0.045015436 0.22436956 -0.16775733
000020 9d a0 cc 3d 3a ea dc 3d c0 50 ba be ee 7f b4 3e
       0.09991572 0.10786863 -0.36389732 0.35253853
000030 7e 6d a5 be 67 39 38 3e 50 7c d0 3e 70 b3 9b bd
       -0.32310098 0.17990647 0.40719843 -0.07602584
000040 f0 ff 6d be 7c b4 c6 be 5e f8 52 be 80 e3 8d 3e
       -0.23242164 -0.38809574 -0.20602557 0.2771263
000050 a9 e2 21 3e f4 fd 1d be f2 41 91 be 3a d0 cc be
       0.1580912 -0.15428907 -0.28370625 -0.40002614
000060 d5 b0 ca 3d 66 3e 2e 3d b7 ed 30 3f 86 d8 6d 3e
       0.09897009 0.042539977 0.69112724 0.23227128
000070 7d 8a 69 3e 32 6c 34 bc fd 89 1c 3f ae ba f5 be
       0.22806735 -0.011012124 0.61148053 -0.47993988
000080 6a 80 3a be 9b b0 17 bf 55 a2 1a 3f d3 b6 c4 3e
       -0.18213049 -0.59253854 0.6040395 0.38420734
000090 c5 f0 59 be b8 d7 08 3d a6 14 a9 bd 23 83 d5 bd
       -0.21283253 0.03340885 -0.082558915 -0.10425403
0000a0 f0 2e 16 bf b1 1d 89 bd d1 a7 03 bf 01 f4 cd bd
       -0.5866537 -0.06695116 -0.5142794 -0.10056306
0000b0 33 d5 c8 3d 3f ac e7 bd 95 81 24 be ae b1 35 3e
       0.098062895 -0.1131215 -0.16065057 0.1774356
0000c0 a6 00 2b 3e ca f4 67 3d b9 f5 31 3e 55 a5 35 be
       0.16699466 0.056629933 0.17378892 -0.1773885
0000d0 84 9c 63 bb e6 03 15 3e 2b 34 09 bd 45 24 fb 3d
       -0.0034730742 0.14552268 -0.033497017 0.12262777
0000e0 2e 01 3f be 89 4b 4f 3e d4 58 86 bd 60 96 b2 3c
       -0.18652794 0.20243658 -0.06559911 0.02180022
0000f0 ce a5 71 be 6d 17 91 3e a8 cb da 3d 7d 60 5e 3e
       -0.23598406 0.28338185 0.106833756 0.21716495
000100 a7 90 48 be f4 89 83 3d 78 0d 77 bd 64 a8 b6 be
       -0.1958643 0.06422797 -0.06031558 -0.35675347
000110 5b fa 17 3e 7c c2 07 3f f2 16 d8 3e 5b fb 97 3e
       0.14841597 0.53031135 0.42205006 0.29683957
000120 87 65 aa bd 4d 8a 43 be b9 21 7e be d3 6e 35 3e
       -0.08320146 -0.19095726 -0.24817552 0.17718057
000130 1c e6 a0 be 08 ad 1b 3f e8 27 57 3e 4b 2c a5 3d
       -0.3142556 0.608109 0.21011317 0.08065089
000140 cb 25 3b 3d b8 05 82 be a2 87 45 3c 79 44 b0 be
       0.04569034 -0.25394988 0.012056263 -0.3442724
000150 9b 4b 99 be 9f 3d 35 3e 74 7c a7 be 59 67 04 3f
       -0.29940495 0.17699288 -0.32712138 0.51720196
000160 d5 b9 4e 3e 39 8a 27 be 58 61 98 be be d6 cd 3e
       0.20188077 -0.16361322 -0.29761767 0.40202898
000170 19 6a 06 be 1d 3b 1d bd 70 3e d0 3d e6 29 57 3d
       -0.1312641 -0.038386453 0.10168159 0.05253019
000180 e9 d4 dd 3c 9d 47 39 bf 01 5e 0a be 2e 38 e3 3b
       0.027079063 -0.723749 -0.13512422 0.0069341874
000190 08 9a ba 3e 62 9e 25 be 6f 5e 8b 3e 21 da 0d be
       0.36445642 -0.161737 0.27220485 -0.13852741
0001a0 b2 ec ad 3e 8f cc 78 be 6c e4 8c 3e 17 c2 54 3d
       0.33969647 -0.24296783 0.27518022 0.05194291
0001b0 c2 a3 5e be fd 62 bc 3d 5a fb 1c 3e 62 8f d6 be
       -0.21742156 0.09198568 0.15330258 -0.41906267
0001c0 62 fa 87 3e 25 c3 21 be c6 0a b9 3e d9 83 0c 3e
       0.26558214 -0.15797098 0.36141032 0.13722171
0001d0 50 33 a0 3e 3f 1a e8 3c c9 93 3b 3e be 58 9d 3e
       0.31289148 0.028332828 0.18318094 0.30731767
0001e0 57 1a a9 be 4b eb 94 bc ac df f4 3d c9 6b 0d be
       -0.33027908 -0.018178603 0.119567245 -0.13810648
0001f0 9f d6 b1 3b 3d 5c e3 bb f7 58 3e bb 42 b4 66 3e
       0.005427196 -0.006938486 -0.0029044726 0.225297
000200 b7 fa 07 be 18 c3 18 3e 04 6c e0 3e 4e b1 84 bd
       -0.13279234 0.14918172 0.4383241 -0.06479131
000210 05 d4 81 3e 79 64 bb bd a8 c5 d1 be 40 d1 78 3e
       0.2535707 -0.09150023 -0.40971112 0.24298573
000220 d8 79 e4 bc 05 18 f0 be 21 ef c9 3e 72 2a d8 3e
       -0.02789013 -0.46893325 0.39440253 0.42219883
000230 9b 9b 73 be cf a0 a7 3d de 25 90 3d 8d da af 3e
       -0.23789828 0.08184969 0.070384726 0.3434643
000240 32 59 72 be 88 d2 fa bd 56 a4 51 bd 03 2d 59 3e
       -0.23666838 -0.12247187 -0.051182114 0.21208577
000250 29 84 2a be 4e a8 5f bd b3 f1 cd be f6 1a 75 3e
       -0.16651978 -0.054603867 -0.40223464 0.23936066
000260 3d 65 b2 be 90 48 78 3e d7 2e 77 be f8 64 f9 bd
       -0.34842864 0.2424643 -0.24138962 -0.121774614
000270 d3 0d 9a 3e 19 22 f6 3e df bf fa 3d c9 39 48 be
       0.30088672 0.4807289 0.12243628 -0.19553293
000280 78 b2 88 bd d7 ff 20 bd 5a 80 cb 3d 37 8e 5e bd
       -0.06674665 -0.039306488 0.099365905 -0.054334845
000290 4c 8c 1b be 2d b4 b0 3e 26 0a 01 3f 2b ad 60 3c
       -0.15190238 0.34512463 0.5040611 0.013713161
0002a0 6f 51 99 be ba 56 ba 3d f9 26 ac 3e 6e 61 74 3d
       -0.2994494 0.09098573 0.33623484 0.05966323
0002b0 e0 3c 6f 3e 17 36 8f be 24 6b 94 3e bd 83 14 3e
       0.23363066 -0.27970955 0.28987992 0.14503379
0002c0 78 0f f2 bd b9 1e 0a 3f 67 38 01 3e 68 01 4a be
       -0.11819357 0.5395313 0.12619172 -0.19727099
0002d0 06 fe 5f 3e 60 d6 b4 3e d2 8a 68 be 49 25 2c 3e
       0.21874246 0.35319805 -0.22709206 0.16811098
0002e0 a1 87 91 3e 02 bf 2f 3f b1 fe 2f be 9e 0c 08 be
       0.2842379 0.6865083 -0.17187001 -0.13286063
0002f0 60 d8 09 bb d9 41 c1 3e bc f8 4e be 94 a1 f1 be
       -0.002103351 0.3774555 -0.20212072 -0.47193587
000300 59 c2 16 3f 5b 96 69 be 30 84 8b be 39 a9 0c be
       0.588903 -0.22811262 -0.2724929 -0.13736428
000310 44 f3 bc be 14 e1 63 bd 96 57 28 bd 3d 21 15 be
       -0.36904347 -0.055634573 -0.041099153 -0.1456346
000320 c4 ab 0c bd 9a d8 c6 bd 87 ae bd 3e f4 f3 9e 3e
       -0.034343496 -0.09709282 0.37047216 0.31045496
000330 6e 29 1c 3d ab 38 0f be 39 a8 a6 be fd 42 73 3e
       0.038125448 -0.13986461 -0.3255022 0.23756023
000340 b6 94 ab 3e 6d 8d 11 be 10 fa fe 3e 06 9a 61 be
       0.33511895 -0.14214106 0.49800158 -0.22031412
000350 87 1f 90 be 3e e6 82 be bf be 78 be 6f 4a 94 3e
       -0.28149053 -0.25566286 -0.24291514 0.28963038
000360 bb d4 a9 3e 50 0a 61 3e ec 39 a4 3e b1 aa aa 3d
       0.33170113 0.2197659 0.3207544 0.08333338
000370 38 67 4a bd 82 ca d1 be 68 67 8a 3e aa be aa bd
       -0.049414843 -0.40974814 0.27032018 -0.083371475
000380 43 1c 8a 3e 23 70 14 3d 80 26 7c be f2 1e 9d bc
       0.26974687 0.036239754 -0.24624062 -0.019179795
000390 d4 18 85 be 6e 54 86 be ea b3 8a be 12 09 38 3f
       -0.25995505 -0.2623629 -0.2709039 0.7188884
0003a0 49 15 6b be a4 a5 89 bd b0 f0 13 be 58 bd 40 be
       -0.22957338 -0.067210466 -0.14447284 -0.18822229
0003b0 52 ba 5f bc 1a 06 9c 3e 23 9e 4e be 3f 22 1a bf
       -0.013655262 0.30473405 -0.20177512 -0.60208505
0003c0 c4 ea 68 be a6 c1 2c be 13 34 17 3e f1 49 91 3e
       -0.22745806 -0.16870746 0.14765958 0.28376725
0003d0 3c 87 83 3e 84 75 62 3e 4f 2e c4 3e 3d b8 6c 3e
       0.25689113 0.22115141 0.3831658 0.23117156
0003e0 f5 6b eb bb cf 48 f5 3e ca cf 1b 3e 37 e4 02 be
       -0.0071845003 0.4790711 0.15215984 -0.1278237
0003f0 72 06 b3 be 30 91 03 be 67 b7 2f be 3b ac 45 bd
       -0.34965855 -0.12848353 -0.17159806 -0.048259955

actor.2.bias f4 [9]
000000 0f c4 c3 bc ab 02 03 3e 36 9e 6b bd a1 8f 2a 3d
       -0.023897199 0.12793986 -0.05752393 0.04164088
000010 34 11 9a bc 65 1a 28 3d a6 47 90 3d b9 e8 f2 3d
       -0.018807031 0.041040797 0.07044916 0.118607946
000020 8a f4 a9 bd
       -0.08298595
