logs/energy/checkpoint_episode_4000.pt (torch, 710830 bytes, 39 tensors)

shared_net.0.weight f4 [128, 30]
0	0xbdc6e71f	-0.097120516
1	0x3d7b0126	0.061280392
2	0xbd36f89c	-0.044670686
3	0xbca8b66b	-0.020594796
4	0xbdd946e5	-0.10609225
5	0xbd08ce09	-0.033399615
6	0x3e974579	0.2954519
7	0x3ecefd96	0.40427846
8	0x3eb12516	0.34598607
9	0x3e58d4c2	0.2117491
10	0x3e026b61	0.12736274
11	0x3e1f9c45	0.15586956
12	0x3f134ffd	0.5754393
13	0x3eb6eac1	0.35725978
14	0x3d6c8281	0.057741646
15	0xbe1dad94	-0.15398246
16	0x3f0a6ed1	0.5407534
17	0x3f074b18	0.5284896
18	0x3eda68d8	0.42658114
19	0x3e3cf4c1	0.18452741
20	0xbdab4af4	-0.083639055
21	0x3e96b14e	0.29432148
22	0x3e6a9d80	0.22911644
23	0x3e7c3dfa	0.24633017
24	0xbe803b4e	-0.25045246
25	0xbe85bc20	-0.2612009
26	0x3dce6827	0.10078459
27	0x3d84d136	0.06485216
28	0xbe70983c	-0.23495573
29	0xbf00c950	-0.5030718
30	0x3d5f6e0b	0.054548305
31	0x3ca96c79	0.020681607
32	0xbe199acc	-0.15000457
33	0x3d9514d8	0.07279366
34	0x3cee79f9	0.029110895
35	0xbd5499a9	-0.051904354
36	0xbe283f6c	-0.16430444
37	0xbe6e4b1f	-0.23270844
38	0xbd5503ed	-0.052005697
39	0x3bb99cde	0.005664452
40	0xbeaba46f	-0.3352389
41	0xbd496aae	-0.049174003
42	0xbdcff377	-0.10153859
43	0x3dae54e0	0.08512282
44	0x3e39345a	0.18086377
45	0xbed42db3	-0.41441116
46	0x39bd795e	0.00036139315
47	0x3e428bfd	0.18998714
48	0xbdc0152b	-0.093790375
49	0x3d8af292	0.06784548
50	0xbe927453	-0.28604373
51	0xbdc90a1f	-0.098163836
52	0xbe692e24	-0.22771508
53	0x3e3fd7a9	0.18734612
54	0x3e127abe	0.14304635
55	0xbe0ce457	-0.1375898
56	0xbcb43688	-0.021998659
57	0x3e125162	0.14288858
58	0x3d33302b	0.04374711
59	0x3c649204	0.013950828
60	0xbd9e8870	-0.07740867
61	0x3ca76d92	0.02043799
62	0xbdba2bba	-0.090903714
63	0xbb1e08b9	-0.0024114086
64	0xbe502ff8	-0.20330799
65	0xbdb09c84	-0.08623603
66	0x3ded727c	0.11594102
67	0x3e1a13a2	0.15046552
68	0x3ea84732	0.32866818
69	0x3c5bf19a	0.0134243015
70	0xbe8a36d7	-0.26994964
71	0xbc2dc68a	-0.010606417
72	0x3e32e010	0.17468286
73	0xbe0d3f80	-0.13793755
74	0x3d5d303a	0.05400107
75	0x3dcc2a02	0.0996895
76	0xbe60e671	-0.21962906
77	0xbdef486e	-0.11683737
78	0xbd316746	-0.04331138
79	0x3b7c3603	0.0038484342
80	0x3e2bac03	0.16764836
81	0xbde3706d	-0.11105428
82	0x3e06c27b	0.13160126
83	0x3dd98e57	0.10622852
84	0xbdb370db	-0.0876176
85	0x3d0f3450	0.034962
86	0x3dc4a81a	0.09602375
87	0xbcdcd760	-0.026958168
88	0x3da72794	0.08161846
89	0xbd4ffc2b	-0.050777595
90	0x3c6633aa	0.014050404
91	0xbd7fecaa	-0.06248156
92	0xbe0c066b	-0.13674323
93	0x3d691e53	0.056913685
94	0x3e038317	0.12842976
95	0x3dc3d953	0.09562936
96	0x3e065948	0.13119996
97	0x3dca6f76	0.09884541
98	0x3ce41816	0.027843516
99	0xbd861caf	-0.0654844
100	0x3c9c4d7f	0.019079922
101	0x3ea2a43b	0.31765923
102	0x3e8e7f0c	0.27831304
103	0x3eb18814	0.34674132
104	0xbce8f30d	-0.028436208
105	0x3e018436	0.1264809
106	0x3e92392e	0.2855925
107	0x3e0ce3d5	0.13758786
108	0x3e5718b4	0.21005517
109	0xbe58815e	-0.211431
110	0x3e40c842	0.18826392
111	0x3e818cee	0.25302833
112	0x3e197202	0.14984897
113	0x3ddaaac7	0.106771044
114	0xbde51a59	-0.11186666
115	0x3de5a47e	0.11213015
116	0x3e4d22bb	0.2003278
117	0xbe4bb885	-0.19894607
118	0xbe45c4ba	-0.19313326
119	0xbeb4a1cf	-0.352797
120	0xbdbafcfc	-0.09130284
121	0x3cb7006e	0.022339072
122	0xbe46114e	-0.19342539
123	0x3dabf4b6	0.08396284
124	0x3d1f3286	0.038866542
125	0x3ec23f45	0.37938896
126	0x3ec387fd	0.38189688
127	0x3e957c01	0.2919617
128	0x3f008551	0.50203425
129	0x3ea6b10f	0.3255696
130	0x3e7e43e6	0.24830589
131	0x3ea631a9	0.32459763
132	0x3f0917a0	0.53551674
133	0x3e74da78	0.23911464
134	0x3dcdd96e	0.10051237
135	0x3e87c4d8	0.26517367
136	0x3f0df47e	0.5545119
137	0x3ef37899	0.47552946
138	0x3eda9339	0.42690447
139	0x3e9592da	0.292136
140	0x3e955bcd	0.291716
141	0x3ee0b849	0.43890598
142	0x3f2f5404	0.6848757
143	0x3e329b89	0.17442144
144	0x3d74410e	0.059632353
145	0x3e83a0b1	0.25708535
146	0x3e6d25db	0.23158972
147	0x3e1e51d2	0.154609
148	0xbe8f6b14	-0.28011382
149	0xbf1364bb	-0.5757558
150	0x3e1c9a3d	0.15293212
151	0xbd4a6dcc	-0.049421117
152	0xbe136937	-0.14395605
153	0x3e333361	0.17500068
154	0xbea76320	-0.32692814
155	0x3ec63b58	0.3871715
156	0x3ed48b9f	0.41512772
157	0x3eb51cdf	0.3537359
158	0x3e9b488f	0.30328795
159	0x3f143696	0.5789579
160	0x3e5fe449	0.21864428
161	0x3e45bebb	0.19311039
162	0xbdbeeb32	-0.09322204
163	0x3e55c2dc	0.20875114
164	0x3e852a65	0.26008907
165	0xbe8c36ff	-0.2738571
166	0x3e487ad7	0.1957811
167	0xbdbec1ab	-0.09314283
168	0x3c58382a	0.013196984
169	0x3ea19bda	0.31564218
170	0xbeb89162	-0.36048418
171	0xbd41fe2b	-0.047361534
172	0xbcca6d82	-0.02471042
173	0x3d82a728	0.06379539
174	0x3eb4a614	0.35282958
175	0xbf72ad48	-0.94795656
176	0xbe85bdc1	-0.26121333
177	0xbe165eda	-0.1468462
178	0x3cb96df4	0.022635438
179	0x3ed0a7a3	0.40752897
180	0xbeaf9dc9	-0.34300068
181	0xbdd1c0c2	-0.10241844
182	0xbe71ef9a	-0.23626557
183	0xbe8513f7	-0.25991794
184	0x3e92162f	0.2853255
185	0xbe34e137	-0.17664038
186	0xbe60fedf	-0.21972226
187	0xbe3422d6	-0.17591414
188	0xbe58805c	-0.21142715
189	0xbe3ec5e2	-0.18630174
190	0xbd1e5e11	-0.038663927
191	0xbe5c4476	-0.21510491
192	0xbe070b3b	-0.13187878
193	0x3c1f7fe1	0.009735079
194	0xbd9625a8	-0.07331401
195	0xbec62526	-0.38700217
196	0xbe508a46	-0.20365247
197	0xbe7503bc	-0.23927206
198	0xbdf2d38e	-0.11856757
199	0xbe9de576	-0.30839127
200	0xbe8389fd	-0.25691214
201	0xbeb1b169	-0.34705666
202	0xbd03209c	-0.03201352
203	0xbe8b2518	-0.27176738
204	0x3d8f0daf	0.06985032
205	0x3d684d68	0.056714445
206	0xbd7886d7	-0.06067547
207	0x3e34d1cb	0.17658155
208	0xbe1d2f03	-0.15349965
209	0x3cd161d3	0.025559342
210	0xbe17121c	-0.14753002
211	0xbab9c1ed	-0.0014172174
212	0xbc4c0df9	-0.012454503
213	0xbb1516ff	-0.0022749302
214	0x3d25f1e2	0.04051388
215	0xbf509d8d	-0.81490403
216	0xbed2c852	-0.41168457
217	0xbe389bf5	-0.18028243
218	0x3ea92924	0.330392
219	0x3f24acf4	0.64326406
220	0xbf5c438e	-0.8604058
221	0xbefede2f	-0.49778888
222	0xbe2c5f71	-0.16833283
223	0x3ecb7bdf	0.39742944
224	0x3f14ae9f	0.5807895
225	0xbeb53b13	-0.35396633
226	0x3e87e67e	0.2654304
227	0x3e56357b	0.20918839
228	0x3f160dac	0.5861461
229	0x3ebf66c4	0.3738309
230	0xbcfb7506	-0.03069545
231	0x3e0ec91f	0.13943909
232	0x3ec22880	0.37921524
233	0x3f03150f	0.5120401
234	0x3e9e623a	0.30934316
235	0xbdd1b5ea	-0.102397755
236	0x3e0b0c9d	0.1357903
237	0x3e91d70d	0.28484383
238	0x3e8e8562	0.27836138
239	0x3f023df0	0.5087576
240	0xbe099be0	-0.13438368
241	0x3d95bdcd	0.07311592
242	0x3dac05a2	0.08399512
243	0xbb529bcb	-0.0032136317
244	0x3d3719ec	0.044702455
245	0x3e996309	0.2995837
246	0x3e8e9d2d	0.2785429
247	0x3ef85d0e	0.48508495
248	0x3f13d276	0.5774301
249	0x3f37a13d	0.71730405
250	0x3e1d33ad	0.15351744
251	0x3cf130a9	0.029442148
252	0x3e2a3ebf	0.16625498
253	0x3e47255d	0.19447847
254	0x3ecbcbbb	0.39803872
255	0x3e19b971	0.15012147

shared_net.0.bias f4 [128]
0	0x3c0f9e07	0.008765704
1	0x3d7f8ac6	0.062388204
2	0xbbbd6460	-0.005779788
3	0x3e02755b	0.1274008
4	0xbd7f78e7	-0.06237116
5	0x3d98cdfd	0.07461164
6	0x3e12be07	0.14330302
7	0x3d364afa	0.044505097
8	0x3cf8a463	0.030351823
9	0x3df77f30	0.12084806
10	0x3e523556	0.20528159
11	0x3d3ab386	0.045581363
12	0xbd53f747	-0.051749494
13	0xbe168895	-0.1470054
14	0x3dd88dea	0.10573943
15	0x3cba0337	0.022706611
16	0x3dbb85a5	0.0915635
17	0x3d33823f	0.043825384
18	0x3dc7bdeb	0.09753021
19	0x3d3241ea	0.04351989
20	0xbd9f8a45	-0.07790045
21	0x3e375ac6	0.17905721
22	0xbe222d34	-0.15837556
23	0x3e27f14d	0.16400643
24	0x3ce2fe06	0.027709018
25	0x3e440026	0.19140682
26	0xbd693902	-0.056939133
27	0xbd0465b0	-0.03232354
28	0x3e239278	0.15973842
29	0x3dd91ec5	0.10601572
30	0xbd53de51	-0.05172569
31	0xbdaf3219	-0.08554477
32	0xbdcca1fb	-0.09991833
33	0x3d466603	0.04843713
34	0xbbf2743b	-0.0073991097
35	0xbb97d396	-0.0046333773
36	0x3d5c98d8	0.0538567
37	0x3e4de184	0.20105559
38	0xbc254261	-0.010086627
39	0x3e1944e8	0.14967692
40	0x3e06a8d6	0.13150343
41	0x3e06cc55	0.13163884
42	0xbdc36241	-0.09540225
43	0xbdd2507f	-0.1026926
44	0x3d1cf2c3	0.038317453
45	0x00000000	0.0
46	0x3e239476	0.15974602
47	0x3dd74c57	0.105126075
48	0xbd0efc71	-0.034908716
49	0x3debad57	0.11507671
50	0xbe3991f2	-0.1812208
51	0xbba877aa	-0.005141218
52	0x3d0ccd12	0.034375258
53	0x3d937c0c	0.072013944
54	0xbe2855dc	-0.16439003
55	0x3e0fd595	0.14046319
56	0xbd7f6b60	-0.06235826
57	0x3e29a9bb	0.16568653
58	0xbdc950b0	-0.09829843
59	0xbb65d0bf	-0.003506705
60	0x3d62dda2	0.055387147
61	0x3e2fd8cd	0.17172547
62	0xbd3d4a59	-0.04621348
63	0xbc80a060	-0.015701473
64	0xbe0fbe47	-0.14037429
65	0x3d93d101	0.07217599
66	0x3c4a6a7e	0.012354491
67	0xbd02ed9a	-0.031964876
68	0x3da137dd	0.07871983
69	0x3e1b46cf	0.1516373
70	0x00000000	0.0
71	0x3d07fa6b	0.0331978
72	0x00000000	0.0
73	0xbd7b92d0	-0.06141931
74	0x3e3ed12c	0.1863448
75	0xbb9e469c	-0.0048301946
76	0xbe110d86	-0.14165315
77	0x3e17a6eb	0.14809768
78	0x3e1f4db4	0.15556985
79	0xbd7d1fb4	-0.061797813
80	0x3ddf686a	0.10908587
81	0xbdb9bb40	-0.09068918
82	0xbcec5e47	-0.028853549
83	0x00000000	0.0
84	0x3d8f9fd8	0.0701291
85	0x3cbcd217	0.023049397
86	0xbd910470	-0.070809245
87	0xbdbf384e	-0.09336911
88	0x3e096cfd	0.13420482
89	0x3dac2311	0.08405126
90	0x3e1a5613	0.15071897
91	0x3cfb76df	0.03069633
92	0xbd80cf4c	-0.06289539
93	0x3d114f79	0.03547618
94	0xbd88ec66	-0.066857144
95	0x3e160391	0.14649798
96	0x3e17ba87	0.14817248
97	0xbd62518d	-0.055253554
98	0xbe11e63b	-0.14247982
99	0xbdebc3f7	-0.11511987
100	0x3e016ca7	0.12639104
101	0x3d966ff6	0.073455736
102	0x3d450156	0.048096977
103	0xbdc5ab79	-0.096518464
104	0x3e0f2a68	0.1398102
105	0x3d56c1e0	0.052430987
106	0xbd69d289	-0.057085548
107	0xbc30f546	-0.010800665
108	0xbdec018b	-0.11523732
109	0xbd582ae6	-0.052775286
110	0x3e02809f	0.12744378
111	0x3de14775	0.109999575
112	0xbdf299dc	-0.118457526
113	0x3d381895	0.04494532
114	0x3d145c9d	0.036221135
115	0x3d852ddc	0.065028876
116	0xbe176a47	-0.14786635
117	0x3e34202d	0.17590399
118	0x00000000	0.0
119	0xbd92d999	-0.0717041
120	0x3e015793	0.12631063
121	0x3dbac6e1	0.091199644
122	0x3c576bd3	0.013148266
123	0xbd19c1d8	-0.03753838
124	0x00000000	0.0
125	0x38103059	3.4377303e-05
126	0x00000000	0.0
127	0x3df2a3e6	0.118476674

shared_net.2.weight f4 [128, 128]
0	0xbe5b3c8f	-0.2140982
1	0xbcda2b09	-0.026631849
2	0xbc2a47ee	-0.010393126
3	0x3d08e06a	0.033417143
4	0xbf02e9bf	-0.5113792
5	0x3e84eb2f	0.2596068
6	0xbd84a5ef	-0.06476962
7	0xbe741df9	-0.23839559
8	0xbd218c71	-0.039440576
9	0xbcf1aa39	-0.029500114
10	0x3e083bf9	0.13304128
11	0xbd5c1bb5	-0.05373736
12	0xbe4264db	-0.18983786
13	0xbbf453f5	-0.0074562975
14	0xbee29028	-0.44250607
15	0x3d8d5df7	0.06902688
16	0x3e2d6792	0.1693404
17	0x3d921ecf	0.071347825
18	0x3e0fb024	0.14032036
19	0xbe114224	-0.14185387
20	0xbd84f103	-0.06491282
21	0xbdd7cb60	-0.105368376
22	0xbf2ebb81	-0.6825486
23	0xbdfda65e	-0.12385248
24	0xbdf22355	-0.11823145
25	0x3e06bc32	0.13157728
26	0xbd324352	-0.043521233
27	0xbeb70792	-0.35747963
28	0x3e2855bf	0.1643896
29	0x3cb3d237	0.021950824
30	0x3e42c089	0.19018759
31	0xbed542a1	-0.41652396
32	0x3c9ad441	0.018900039
33	0xbddfa28b	-0.109196745
34	0x3c259c0c	0.010108005
35	0x3e0f29dc	0.13980812
36	0x3e64515c	0.22296661
37	0x3d83396b	0.06407436
38	0x3d3900dc	0.045166835
39	0xbec925ed	-0.39286748
40	0x3e88c76f	0.26714656
41	0x3e7a441b	0.24440043
42	0x3ded4dfc	0.1158714
43	0xbe3dcf16	-0.18536028
44	0xbd0193ed	-0.031635214
45	0x3df289de	0.11842702
46	0x3e169170	0.14703918
47	0x3dca753a	0.098856404
48	0x3ceb47cc	0.028720759
49	0x3e4cd168	0.20001757
50	0xbe00206a	-0.12512365
51	0x3c375a2c	0.011190932
52	0x3e299e73	0.1656435
53	0x3df93a53	0.121693276
54	0x3e710f4e	0.23540995
55	0x3d36ac44	0.04459788
56	0xbef3e16f	-0.4763293
57	0x3cb8850e	0.022524383
58	0xbe8d4c88	-0.2759745
59	0xbd3ba1d4	-0.04580863
60	0xbddeaba3	-0.10872581
61	0xbce8df8d	-0.02842691
62	0x3e25a708	0.16176999
63	0xbcb1aed1	-0.021689804
64	0xbdcfcec5	-0.1014686
65	0x3d4d8b55	0.050181706
66	0x3e9eb4c0	0.30997276
67	0x3dadd464	0.08487776
68	0x3e23dbc4	0.16001803
69	0x3c2d40f6	0.01057457
70	0x3e18baf9	0.14915074
71	0x3d96e7a2	0.07368399
72	0x3ebf0d39	0.37314776
73	0xbd888454	-0.066658646
74	0x3eb204d8	0.3476932
75	0x3e43202d	0.19055243
76	0xbdb8703d	-0.09005783
77	0x3dcaff9f	0.09912037
78	0xbe294756	-0.16531119
79	0x3dc59368	0.09647256
80	0x3e7d0491	0.24708773
81	0x3e3ea36b	0.18617027
82	0x3da90d74	0.08254519
83	0xbe560b4d	-0.20902748
84	0xbdd50a59	-0.10402364
85	0x3c8efbf0	0.017454118
86	0xbda8c5c4	-0.08240846
87	0x3c481a2e	0.012213273
88	0x3e1d3416	0.153519
89	0x3df8dfb2	0.121520415
90	0x3cf77a9b	0.03020983
91	0x3e765d42	0.24059013
92	0x3da6eac8	0.0815025
93	0x3df85c25	0.1212695
94	0x3da015f6	0.07816689
95	0x3d3dab06	0.04630568
96	0x3da3367f	0.07969379
97	0xbc5330aa	-0.01289002
98	0xbd6aaa50	-0.05729133
99	0xbf0f0186	-0.558617
100	0xbd1b8479	-0.037968133
101	0x3e104e09	0.14092268
102	0x3e897065	0.26843563
103	0xbec55d38	-0.38547683
104	0xbce2ee80	-0.027701616
105	0x3e1ba7f5	0.1520079
106	0xbde56cfa	-0.11202426
107	0xbc78b986	-0.015180951
108	0xbe30c051	-0.17260863
109	0x3d01ee81	0.031721596
110	0x3dcb9518	0.09940547
111	0x3e8d611e	0.27613157
112	0xbf0e14a5	-0.5550025
113	0xbe19a618	-0.15004766
114	0xbe83165f	-0.25603005
115	0x3d8f2f95	0.069914974
116	0xbeb1df7d	-0.3474082
117	0xbd845bfe	-0.064628586
118	0x3e1965e2	0.14980271
119	0x3e1e76ca	0.15475002
120	0xbeb68e77	-0.35655567
121	0xbdbb1fff	-0.09136962
122	0xbdaab739	-0.08335728
123	0xbe235102	-0.15948871
124	0xb798f94c	-1.82359e-05
125	0x3d223005	0.039596576
126	0x3c804d21	0.015661778
127	0x3d74e27f	0.059786316
128	0x3e229ea5	0.1588083
129	0xbe873cca	-0.26413566
130	0x3ea0c400	0.31399536
131	0xbe7dec46	-0.24797162
132	0x3eee20b9	0.4650934
133	0xbec82773	-0.39092597
134	0xbe48a07b	-0.19592468
135	0xbe110c9b	-0.14164965
136	0x3d351ffb	0.044219952
137	0xbd91bb39	-0.07115788
138	0xbe4e2aba	-0.20133486
139	0x3ddc90bd	0.10769794
140	0xbd1bd24f	-0.038042363
141	0x3e7cf39b	0.24702303
142	0x3ec2e0d9	0.3806217
143	0xbdd7eb56	-0.10542934
144	0xbdc9eec4	-0.09859994
145	0xbe2c5e08	-0.16832745
146	0xbe3cbd24	-0.18431526
147	0x3c5bb15f	0.013408988
148	0xbd69a5cd	-0.057042886
149	0xbe213950	-0.15744519
150	0x3ea096fe	0.31365198
151	0xbdabbc88	-0.08385569
152	0x3c52e89d	0.012872842
153	0xbe9853f9	-0.29751566
154	0x3e45c276	0.19312462
155	0x3df4ae09	0.11947257
156	0xbe2fc747	-0.17165862
157	0xbe6a171d	-0.2286038
158	0x3df43a65	0.119252004
159	0x3e2c87a7	0.16848622
160	0x3ec12715	0.3772513
161	0xbcf2eb9c	-0.029653363
162	0xbe3b0bb1	-0.18266179
163	0x3d85d98a	0.06535633
164	0xbed06435	-0.40701452
165	0xbed1e251	-0.40992978
166	0xbe0b6e9c	-0.13616413
167	0xbe08721d	-0.13324781
168	0xbe3e0014	-0.18554717
169	0xbde9e5f2	-0.11420812
170	0xbe4b2581	-0.19838525
171	0x3e40e399	0.18836822
172	0x3d8baee2	0.068204656
173	0xbcf27475	-0.029596547
174	0xbe8ce4c9	-0.275183
175	0xbe9a5c49	-0.30148533
176	0xbd6b5ad9	-0.057459686
177	0xbe095e28	-0.13414824
178	0x3e4ae3ad	0.19813414
179	0xbc8cae49	-0.01717295
180	0x3e190aed	0.14945574
181	0xbea072e2	-0.3133765
182	0x3d39d029	0.045364533
183	0xbe9a66eb	-0.30156645
184	0xbd1b31f3	-0.037889432
185	0xbe5f6119	-0.21814384
186	0x3e81f788	0.25384164
187	0x3e95ee73	0.29283485
188	0xbe0fc115	-0.14038499
189	0xbeb2c74d	-0.3491768
190	0x3ca75092	0.020424161
191	0xbe6cff50	-0.23144269
192	0x3e930a97	0.28719017
193	0x3e540475	0.20704825
194	0xbdad58f2	-0.084642306
195	0xbed80fb9	-0.42199495
196	0x3dc82397	0.09772413
197	0xbd90d3aa	-0.07071622
198	0x3e3f14ae	0.18660232
199	0xbe601dac	-0.21886319
200	0x3d9cbd50	0.07653296
201	0x3d821532	0.06351699
202	0xbe89d990	-0.269238
203	0xbdbdb2b7	-0.09262603
204	0x3e6db0d0	0.2321198
205	0xbeb1b446	-0.3470785
206	0xbd85b7be	-0.06529187
207	0x3e7b58f1	0.24545647
208	0x3d55900d	0.05213933
209	0xbdbf613e	-0.09344719
210	0xbd43a79d	-0.04776727
211	0xbe22cb54	-0.15897876
212	0xbe376c53	-0.17912416
213	0x3e0eb737	0.13937078
214	0x3df66456	0.12030856
215	0x3d1ce8b9	0.03830788
216	0xbe4f5d2d	-0.20250387
217	0x3d81a1d9	0.06329698
218	0xbe639a4a	-0.22226825
219	0x3cde106e	0.027107444
220	0x3dc0cba4	0.09413841
221	0xbedebc18	-0.4350288
222	0x3d7e8dd8	0.06214699
223	0xbea67e94	-0.32518446
224	0xbe10aab3	-0.14127617
225	0x3df50eb3	0.11965694
226	0x3e6ba4a1	0.2301202
227	0x3e7312ee	0.2373769
228	0xbc89ade7	-0.016806556
229	0xbec6cb18	-0.38826823
230	0x3e3ab61c	0.18233532
231	0x3d54380f	0.051811274
232	0xbd0d4c63	-0.034496676
233	0x3d87dec6	0.066342875
234	0xbd5a86f5	-0.05335136
235	0x3d612423	0.054966103
236	0x3d10fb01	0.035395626
237	0x3e2f314a	0.17108646
238	0x3d98baa4	0.07457474
239	0xbdbefaca	-0.09325178
240	0x3ddaf6b0	0.10691583
241	0x3e0f141e	0.13972518
242	0x3c30e211	0.010796086
243	0x3e29af48	0.1657077
244	0x3f2bf712	0.67173874
245	0xbe4b8c39	-0.1987771
246	0x3db53929	0.08848793
247	0xbcb96b86	-0.022634279
248	0xbd479e73	-0.048735093
249	0x3f1ef31d	0.6208971
250	0xbc4c36bb	-0.012464221
251	0xbc0cdd58	-0.008597694
252	0xbc495f70	-0.0122908205
253	0xbe5a610d	-0.21326084
254	0xbc1fa463	-0.009743783
255	0x3db6b3e5	0.08921031

shared_net.2.bias f4 [128]
0	0x3db31c48	0.087456286
1	0xbe2093fd	-0.15681453
2	0x3dc8b84e	0.09800778
3	0x3d8f9955	0.07011668
4	0xbd99b577	-0.07505315
5	0x3df0f8fe	0.117662415
6	0xbcdfddca	-0.027327437
7	0x3d26745a	0.040638305
8	0x3c109f89	0.008827099
9	0x3c9871fd	0.018609041
10	0xbde8fef4	-0.113767534
11	0xbd4e1e80	-0.050322056
12	0xbb10d3b4	-0.002209884
13	0xbd46bdea	-0.04852096
14	0x3d1dd4f9	0.038533185
15	0x3dfa0008	0.12207037
16	0xbd2222cb	-0.039583962
17	0x3dbb53f3	0.091468714
18	0xbb9240d8	-0.0044632964
19	0x3db671ce	0.08908425
20	0x3d9f119c	0.077670306
21	0x3d608bff	0.05482101
22	0x3d6c0d3c	0.05762981
23	0x3db30a60	0.08742213
24	0x3d444113	0.047913622
25	0x3cbef4e8	0.02331014
26	0x3c84c68c	0.016207956
27	0x3cb8853c	0.022524469
28	0x3d93a96f	0.07210051
29	0x3d97b3fb	0.074073754
30	0x3cabfa37	0.020993335
31	0x39a044cf	0.00030568845
32	0x3d8af5f7	0.06785195
33	0x3cdb3049	0.026756423
34	0x3ce35e1f	0.027754841
35	0x3dbfb735	0.09361116
36	0xbdbecb95	-0.09316174
37	0x3d8c223f	0.068424694
38	0xbc142d08	-0.009043939
39	0x3d8e3bbb	0.069449864
40	0xbcb785ac	-0.022402607
41	0x3b2f6689	0.0026763997
42	0x3daafe1a	0.08349247
43	0x3ce0173b	0.027354827
44	0x3c98c1ad	0.01864704
45	0x3dec954b	0.11551913
46	0xbd530213	-0.05151565
47	0xbde96ff5	-0.11398307
48	0x3de59b70	0.11211288
49	0x3e2f82a0	0.17139673
50	0x3d6874f2	0.056752153
51	0x3d84f5d5	0.06492201
52	0xbc680339	-0.014160925
53	0xbe33f43d	-0.17573638
54	0x3e0eb75e	0.13937137
55	0x3da364a4	0.0797818
56	0x3d8ecbd3	0.0697247
57	0x3dbb49a5	0.09144906
58	0x3bef6d15	0.0073067048
59	0x3b64ea60	0.0034929737
60	0x3d6078f4	0.05480285
61	0x3d673a76	0.056452237
62	0x3d492ead	0.04911678
63	0x3d1d4d66	0.03840389
64	0x3df2442c	0.11829409
65	0xbdd41eed	-0.10357461
66	0x3d8cf964	0.06883505
67	0x3d41d6e1	0.047324065
68	0xbdd16509	-0.10224349
69	0xbdb42d90	-0.08797753
70	0x00000000	0.0
71	0x3db157b6	0.08659308
72	0x00000000	0.0
73	0x3cbfd904	0.02341891
74	0x3d01d9c2	0.03170181
75	0x3ccc97a7	0.024974657
76	0x3dc59bc6	0.09648852
77	0xbcf4bed9	-0.02987616
78	0xbc46019c	-0.012085345
79	0x3d8f4d2f	0.069971435
80	0xbc27f710	-0.010251775
81	0x3dbe6c4b	0.09297999
82	0x3d601e13	0.05471618
83	0x3df6db40	0.12053537
84	0x3d8be3a9	0.06830532
85	0xbbc93a04	-0.006140949
86	0x3d7a36dc	0.061087474
87	0xbc663854	-0.014051516
88	0xbd1480e0	-0.036255717
89	0x3a9522bb	0.0011378148
90	0x3b2f20f2	0.0026722518
91	0xba2ae0bf	-0.0006518475
92	0x3da0ef51	0.07858146
93	0xbbbf17a1	-0.005831674
94	0xbe056070	-0.13025069
95	0x3d7dde17	0.06197938
96	0x3d07485f	0.033028003
97	0x3d35ca55	0.044382412
98	0x3dd6d866	0.104904935
99	0x3db3070e	0.0874158
100	0x3dab15ec	0.08353791
101	0x3d98e9dd	0.07466481
102	0x3d96067d	0.07325456
103	0xbdb63524	-0.088968545
104	0xbdb264aa	-0.087106064
105	0xbda79915	-0.08183495
106	0x3d41a819	0.04727945
107	0x3d655afb	0.05599497
108	0xbd2baec0	-0.0419147
109	0xbc50462c	-0.012712043
110	0x3e0b500c	0.13604754
111	0xbc1619b5	-0.0091614025
112	0x3cfe6346	0.031053197
113	0x3da53c70	0.08068168
114	0x3d80bc0d	0.06285868
115	0x3d6773c0	0.056506872
116	0x3b8eb4fe	0.004355072
117	0x3c31cc5b	0.010851945
118	0xbc8e3a11	-0.017361673
119	0xbc6e4990	-0.014543906
120	0x3dc733be	0.09726666
121	0xbcf79790	-0.030223638
122	0xbd79dbdc	-0.06100069
123	0x3d12104b	0.03566007
124	0xbdb54c16	-0.08852403
125	0x3bf643f7	0.0075154263
126	0xbc8d48d5	-0.017246643
127	0x3dba771f	0.09104752

shared_net.4.weight f4 [64, 128]
0	0x3c8db0e4	0.017296262
1	0x3dc498bc	0.09599444
2	0xbd995b4c	-0.074881166
3	0xbe06dac0	-0.13169384
4	0xbdb647b3	-0.08900394
5	0xbd056a7d	-0.03257226
6	0xbdf7e085	-0.121033706
7	0xbe3cf063	-0.18451075
8	0x3d750422	0.059818394
9	0x3e6376cb	0.22213285
10	0x3a644ab1	0.00087086397
11	0x3d40de69	0.047087107
12	0x3d34405b	0.044006687
13	0x3d2d40e0	0.042298198
14	0x3e0b4229	0.13599457
15	0xbe4ae746	-0.19814786
16	0xbda85851	-0.0821997
17	0xbd4fb138	-0.05070612
18	0xbe0fd9aa	-0.14047876
19	0xbd049121	-0.03236497
20	0x3e822339	0.25417498
21	0xbdc6bc74	-0.09703913
22	0xbc89e214	-0.016831435
23	0xbe2789e7	-0.163612
24	0x39f47b69	0.00046631254
25	0x3db25d37	0.087091856
26	0x3e8108af	0.25201938
27	0x3e3e6a6b	0.18595283
28	0xbe725d68	-0.23668444
29	0xbdde6b14	-0.10860267
30	0x3e1c84c8	0.15285027
31	0xbdc677ac	-0.09690794
32	0x3e1426e9	0.14467968
33	0xbc0e228e	-0.008675231
34	0xbd5ded51	-0.0541814
35	0x3da0c496	0.07849996
36	0x3e16a601	0.14711763
37	0xbe066ce4	-0.13127476
38	0xbcf970e5	-0.03044934
39	0x3e6503f9	0.22364797
40	0x3dc989e5	0.098407544
41	0xbd8cb062	-0.0686958
42	0x3dcebefb	0.100950204
43	0xbd2c8c80	-0.04212618
44	0xbe44fbbe	-0.19236657
45	0x3d87f83b	0.06639143
46	0xbe5500eb	-0.20801131
47	0x3db3446b	0.08753284
48	0xbdd7057f	-0.10499095
49	0xbdcb0621	-0.09913278
50	0xbd666358	-0.056247085
51	0xbd68166a	-0.056662
52	0xbe097155	-0.13422139
53	0x3e684a99	0.22684707
54	0xbdfe138e	-0.124060735
55	0xbdec34ec	-0.115335315
56	0xbd878f7f	-0.066191666
57	0xbde3394d	-0.11094914
58	0xbcf5e492	-0.030016217
59	0xbdafe25c	-0.085880965
60	0x3df57254	0.11984697
61	0xbe34b482	-0.17646983
62	0xbd1f7231	-0.03892726
63	0x3d2448b3	0.040108394
64	0x3dac8b9f	0.08425068
65	0x3df2e619	0.11860294
66	0xbd8a8c53	-0.06765046
67	0x3c153206	0.009106165
68	0x3d979041	0.07400561
69	0xbe0980a9	-0.13427986
70	0xbe778f9c	-0.24175876
71	0xbe110839	-0.14163293
72	0xbe5a45f5	-0.21315749
73	0xbde092a1	-0.10965467
74	0xbd434f90	-0.0476833
75	0x3d9573ac	0.07297453
76	0xbd8ac3f7	-0.067756586
77	0x3e1918db	0.14950888
78	0xbc35f2e2	-0.011105271
79	0xbdde1e13	-0.1084558
80	0x3d94eadb	0.072713576
81	0xbe39cbec	-0.18144196
82	0xbd1bb34d	-0.03801279
83	0xbdc6ec2e	-0.097130165
84	0xbe1588b8	-0.14602935
85	0x3c3501aa	0.01104776
86	0xbc9590cb	-0.01825752
87	0x3ea1ad75	0.3157765
88	0x3da1c3d9	0.07898683
89	0xbd437aa0	-0.047724366
90	0x3e8bea17	0.27327034
91	0x3e1230b8	0.14276397
92	0x3c1742e1	0.009232254
93	0x3e25f349	0.16206087
94	0xbe31de0e	-0.17369863
95	0xbddb9a1a	-0.10722752
96	0xbe6b1b26	-0.22959575
97	0xbd59f7d8	-0.053214878
98	0x3e8957fa	0.26824933
99	0xbd3954bc	-0.045246825
100	0xbd99feaa	-0.075192764
101	0xbd8eabdd	-0.06966374
102	0xbbdbfed7	-0.006713729
103	0xbe349891	-0.17636324
104	0x3e3c914e	0.18414804
105	0xbdafcfd3	-0.08584561
106	0x3d29595c	0.041344985
107	0x3e189c10	0.14903283
108	0xbe205f69	-0.15661396
109	0x3d1a0bf1	0.037609044
110	0xbd216ed9	-0.039412353
111	0xbd8679ce	-0.06566201
112	0xbdb62afb	-0.088949166
113	0xbd309a6d	-0.043116022
114	0x3b89b3a0	0.004202321
115	0xbbe5f7fe	-0.0070180884
116	0x3d450823	0.048103463
117	0x3e0aca98	0.13553846
118	0xbde06796	-0.109572574
119	0xbdc5f43d	-0.096657254
120	0xbe34e9de	-0.17667338
121	0x3dc8e0c3	0.09808495
122	0xbdb2d851	-0.08732665
123	0xbdb06ba7	-0.08614283
124	0x3d3f9c47	0.046779897
125	0xbe2b255b	-0.16713469
126	0xbdfe820c	-0.12427148
127	0x3e1c4716	0.15261492
128	0x3e053daa	0.13011804
129	0xbdf906a2	-0.12159468
130	0xbd659917	-0.0560542
131	0x3dea2250	0.11432326
132	0x3c4209a5	0.01184312
133	0x3ed5c581	0.41752246
134	0x3dde8b7e	0.1086645
135	0xbed0cb1a	-0.40779954
136	0x3c963dad	0.018339956
137	0xbd492af0	-0.049113214
138	0x3d57dd3e	0.052701227
139	0xbdc8af74	-0.0979909
140	0xbe0191b1	-0.12653233
141	0xbd07c05d	-0.033142436
142	0xbddb1e32	-0.10699119
143	0xbd312d5b	-0.043256145
144	0xbe0fc42f	-0.14039682
145	0x3e1fdbff	0.15611266
146	0xbd62e368	-0.055392653
147	0xbc7003c7	-0.014649338
148	0xbe3dcb00	-0.1853447
149	0x3dbe7f42	0.09301616
150	0x3dd3f0d8	0.10348672
151	0xbdf0d821	-0.11759973
152	0xbe6ce05e	-0.23132464
153	0xbd0063cc	-0.031345174
154	0xbdd7c1c1	-0.105350025
155	0xbe233fac	-0.15942258
156	0x3dce6c25	0.10079221
157	0xbdf405b4	-0.1191515
158	0x3e912030	0.2834487
159	0xbd8cfda9	-0.06884319
160	0x3df1f1d0	0.118137
161	0x3d1bb0ee	0.03801053
162	0x3df10993	0.11769404
163	0xbe15808d	-0.1459982
164	0xbdc00b20	-0.09377122
165	0xbe8a4a36	-0.27009743
166	0x3cac4eac	0.021033607
167	0xbdf79245	-0.120884456
168	0x3e145ddf	0.14488934
169	0xbc03d649	-0.008046695
170	0x3d3393a8	0.043841988
171	0xbcc81253	-0.0244228
172	0xbe649554	-0.22322589
173	0x3e2c2967	0.16812669
174	0x3e81e38f	0.25368926
175	0x3cafb8b9	0.021450387
176	0xbe004ed4	-0.1253007
177	0xbd8213e8	-0.06351453
178	0xbd3ef5dc	-0.04662119
179	0xbe25b287	-0.16181384
180	0x3e4034d1	0.18770148
181	0xbdf7b37f	-0.12094783
182	0x3d3177ad	0.043327022
183	0xbd882310	-0.06647313
184	0x3e55b1fe	0.2086868
185	0xbe44e643	-0.19228463
186	0x3de77966	0.11302452
187	0xbd47156e	-0.04860442
188	0x3ebd2158	0.36939502
189	0x3d7bc504	0.061467186
190	0xbf08a9da	-0.5338417
191	0xbdf77271	-0.12082375
192	0x3e3bd091	0.1834128
193	0x3db54953	0.08851876
194	0x3daecb70	0.085348964
195	0x3e19646b	0.14979713
196	0xbd514993	-0.051095556
197	0xbe063706	-0.13106927
198	0x3e0da465	0.13832243
199	0x3d1c7a3b	0.038202506
200	0xbdaf768a	-0.085675314
201	0x3dba4ee2	0.09097077
202	0x3cc99b45	0.024610171
203	0x3dae1401	0.08499909
204	0xbdf4c8ba	-0.11952348
205	0x3d56be4d	0.05242758
206	0x3db43c1f	0.0880053
207	0x3e571971	0.21005799
208	0xbdbffefe	-0.09374808
209	0xbd8ea4c0	-0.06965017
210	0x3e826a6d	0.2547182
211	0x3dbb8ffc	0.09158322
212	0xbd233c8d	-0.039852668
213	0x3d11a2af	0.035555538
214	0x3d339a2d	0.043848205
215	0xbde8827e	-0.113530144
216	0xbd125b90	-0.035731852
217	0x3d93921a	0.07205601
218	0xbc8158fd	-0.015789503
219	0x3d774f97	0.060378637
220	0x3cf9d29a	0.03049593
221	0x3d5e1f0e	0.054228835
222	0x3e6718d7	0.2256807
223	0xbe3a2f06	-0.18182
224	0x3db87544	0.09006742
225	0xbd83afdf	-0.06430029
226	0xbcf65db1	-0.030073972
227	0xbce3bb14	-0.027799167
228	0xbdc0f922	-0.09422518
229	0xbe32fefd	-0.17480083
230	0x3e3ed5d0	0.1863625
231	0x3db26ba9	0.08711941
232	0x3d858434	0.06519356
233	0xbc8c9169	-0.01715918
234	0x3d3d71d0	0.04625112
235	0x3df73620	0.120708704
236	0x3db5aa84	0.08870414
237	0xbd1fa55f	-0.03897607
238	0x3e72a902	0.23697284
239	0xbdcf48bb	-0.10121294
240	0xbe2f3c11	-0.17112757
241	0x3e26ca28	0.16288054
242	0xbdab6d37	-0.083704405
243	0xbda5c503	-0.08094218
244	0x3b8dd3a3	0.0043282076
245	0xbd8ce787	-0.06880098
246	0xbcc55638	-0.024088964
247	0xbc9d170d	-0.01917603
248	0xbe20ee11	-0.15715815
249	0x3e133946	0.14377317
250	0x3e8dede8	0.2772057
251	0x3dd2781d	0.10276816
252	0xbe808e52	-0.25108582
253	0xbcc7ab40	-0.02437365
254	0xbe3c912a	-0.1841475
255	0x3cce984e	0.025219109

shared_net.4.bias f4 [64]
0	0xbb7fd7f3	-0.0039038628
1	0x3d88828c	0.06665525
2	0xbb2dbc12	-0.0026509804
3	0x3c842ac9	0.016133683
4	0x3e0d5a03	0.13803868
5	0x3cb9fc1c	0.022703223
6	0x3d44384e	0.04790526
7	0x3b1df5f8	0.0024102908
8	0x3daf8739	0.085707135
9	0x3c742762	0.014901968
10	0xbc6b908c	-0.014377724
11	0xbca5083f	-0.020145534
12	0x3d5cff09	0.053954158
13	0x3d1e46bd	0.03864168
14	0x3dce0d54	0.10061136
15	0xbcbf8002	-0.023376469
16	0x3d43ab3d	0.047770727
17	0xbc5f9243	-0.013645711
18	0xbbcb4eee	-0.0062044775
19	0x00000000	0.0
20	0x3dfc2851	0.12312377
21	0x3c8f58e9	0.01749845
22	0x3d163cd6	0.03667911
23	0x3da45b44	0.0802522
24	0xbbc1cef1	-0.005914562
25	0x3d3cdc8d	0.04610877
26	0xbc348f51	-0.011020497
27	0x3d8d0bbb	0.06887003
28	0x3d8f1f88	0.06988436
29	0xbc44385f	-0.011976331
30	0x3de53d07	0.11193281
31	0x3d9c3d37	0.07628863
32	0xbc12df45	-0.008964364
33	0xbcf4c887	-0.029880775
34	0x3d0eb258	0.03483805
35	0x3d99690b	0.074907385
36	0x3c86aff9	0.016441332
37	0x3d7830e2	0.060593493
38	0x3c3bf1df	0.011471241
39	0xbd704b10	-0.058665335
40	0x3d846b9e	0.06465839
41	0x3dbc495b	0.09193679
42	0x3e4e512b	0.2014815
43	0x3d515f24	0.051116124
44	0xbaa88ee9	-0.0012859973
45	0x3dcf98aa	0.1013654
46	0x3c56246c	0.013070207
47	0xbc251348	-0.010075398
48	0x3d877475	0.06614009
49	0x00000000	0.0
50	0x3cd2c8d4	0.025730528
51	0xbcc75cfa	-0.024336327
52	0x3d62dcd5	0.055386383
53	0x3c848719	0.0161777
54	0xbb06d798	-0.0020575281
55	0x3b460e11	0.0030220787
56	0x3ce3d357	0.027810736
57	0x3cc9946a	0.024606902
58	0x3e0bb38d	0.13642712
59	0xbc0c76e5	-0.008573269
60	0x3db01b00	0.085989
61	0x3adf98e1	0.0017059111
62	0x3d5bdc01	0.05367661
63	0xbb3dabff	-0.002894163

actor.0.weight f4 [32, 64]
0	0x3baa2170	0.0051919743
1	0x3f0fd149	0.5617872
2	0x3e5c870f	0.21535896
3	0xbe2c78ea	-0.16843
4	0x3ebfd0e3	0.37464055
5	0x3df15a59	0.117848106
6	0x3d7a60a0	0.061127305
7	0x3e584eb9	0.2112378
8	0x3c53115b	0.012882556
9	0xbd5428f7	-0.05179688
10	0x3e5d6df0	0.21623969
11	0xbc8f8d3c	-0.0175234
12	0xbdd1d4af	-0.10245644
13	0xbbce5f93	-0.0062980144
14	0x3e8a587a	0.27020627
15	0xbdac6915	-0.0841848
16	0x3ef14e75	0.4713017
17	0xbe9c8bf3	-0.30575523
18	0xbbdd51e9	-0.006754149
19	0xbe347b14	-0.17625076
20	0x3e835da0	0.25657368
21	0x3dc80223	0.097660325
22	0x3d9f2dbe	0.077723965
23	0x3e163cdb	0.14671652
24	0x3e180ff0	0.1484983
25	0x3eb6d624	0.3571025
26	0xbe50ee5a	-0.20403424
27	0xbe26d6bb	-0.1629285
28	0x3d912830	0.07087743
29	0x3e94ea3f	0.29084966
30	0x3dce8c5c	0.10085365
31	0x3eb8037d	0.3594016
32	0x3d1e62bb	0.038668375
33	0xbdd1f273	-0.10251322
34	0xba882825	-0.001038794
35	0xbc42767a	-0.011869067
36	0xbe875e10	-0.26438951
37	0x3ecc45b2	0.39896923
38	0x3e31cfda	0.17364445
39	0x3e2ac968	0.16678393
40	0x3e07a136	0.13245091
41	0x3e3df36e	0.18549892
42	0xbcc46ee8	-0.023978665
43	0x3d20ab45	0.039225835
44	0xbe5d6558	-0.21620691
45	0x3de76dff	0.11300277
46	0x3b44801d	0.0029983588
47	0xbd31559e	-0.04329454
48	0xbdf9577c	-0.121748894
49	0xbd1ad849	-0.03780392
50	0x3e9c7158	0.30555224
51	0xbc840927	-0.016117645
52	0xbcce44ae	-0.025179233
53	0xbd66eea3	-0.056379925
54	0xbe9f6a8c	-0.31135976
55	0x3e8008e0	0.2500677
56	0xbd8148e2	-0.063127294
57	0xbc952d9f	-0.01821023
58	0x3d5b527d	0.053545464
59	0xbd79ce0c	-0.060987517
60	0xbd92014a	-0.07129152
61	0x3e540101	0.20703508
62	0xbd755ab4	-0.059900954
63	0x3e49354c	0.19649237
64	0x3d652a1e	0.05594837
65	0x3e85bad4	0.261191
66	0x3de2c37f	0.11072444
67	0xbd1f5bda	-0.038905956
68	0x3e504eb7	0.20342527
69	0x3e7d12ef	0.24714254
70	0xbd9886a4	-0.07447556
71	0x3dc0659e	0.09394382
72	0x3edede3b	0.43528923
73	0xbe90f560	-0.28312206
74	0x3bf18ca1	0.0073715006
75	0x3ead6c7f	0.33871838
76	0x3e7a417c	0.24439043
77	0x3e7f97fd	0.24960323
78	0x3da0f1e4	0.07858637
79	0x3dda81a8	0.10669261
80	0xbe5bddf6	-0.2147139
81	0xbdee6af0	-0.116414905
82	0xbc33b01c	-0.010967281
83	0x3e9ce812	0.30645806
84	0x3c4b8dcd	0.012423945
85	0x3d715cb3	0.058926295
86	0x3e28a5d9	0.16469516
87	0xbeb78978	-0.35847068
88	0x3d26555a	0.04060874
89	0xbe28b936	-0.16476902
90	0xbca04ad6	-0.019566935
91	0xbe55c619	-0.2087635
92	0x3e40f7c3	0.18844514
93	0xbd84db31	-0.0648712
94	0xbe4cef6d	-0.20013209
95	0x3e01f995	0.12692864
96	0x3c2d2570	0.010568008
97	0x3e2d1caf	0.16905473
98	0xbe436f12	-0.19085339
99	0xbdd54488	-0.10413462
100	0x3e9e4414	0.30911314
101	0x3dc89c3a	0.09795423
102	0xbdcf5057	-0.101227455
103	0xbdd7b325	-0.10532216
104	0x3dcd4b95	0.10024182
105	0xbdf048a2	-0.117326036
106	0x3e89dce8	0.2692635
107	0x3ddd9fa7	0.10821467
108	0x3e0f3808	0.13986218
109	0xbe259d98	-0.16173398
110	0x3de8dd82	0.11370374
111	0xbe392cbe	-0.18083474
112	0xbbba06fd	-0.0056771026
113	0x3eba1dbd	0.36350814
114	0x3da38233	0.07983818
115	0x3e94c813	0.29058895
116	0xbec7be88	-0.3901255
117	0xbd817fbd	-0.06323192
118	0xbe4ac2d7	-0.19800888
119	0xbe360177	-0.17773996
120	0xbe318c02	-0.17338565
121	0x3e2dc3e7	0.16969262
122	0xbdc4542a	-0.095863655
123	0x3dda276b	0.1065205
124	0x3ebf0669	0.37309578
125	0x3df634af	0.12021767
126	0x3dd1fca9	0.10253269
127	0x3d0133dd	0.0315436
128	0x3e4c0a1d	0.19925733
129	0xbd0a6ecf	-0.03379708
130	0xbe988932	-0.29792172
131	0x3e8e8082	0.2783242
132	0x3c8ce383	0.01719833
133	0xbdb2cfb1	-0.0873102
134	0x3daf038a	0.08545597
135	0xbd1aa60b	-0.037756007
136	0x3e4f4043	0.20239358
137	0x3d6a174e	0.05715113
138	0xbe50dd84	-0.20397002
139	0x3ec96dbb	0.3934153
140	0x3e030747	0.12795745
141	0x3e25dbc8	0.16197121
142	0x3edbdbc6	0.4294111
143	0xbe80a0d5	-0.25122705
144	0xbea25899	-0.3170822
145	0xbe3f8924	-0.18704659
146	0xbd569d2a	-0.052395977
147	0xbd4151f0	-0.047197282
148	0xbb47a3a6	-0.0030462532
149	0xbd6ba9dd	-0.05753504
150	0xbe1f3650	-0.15548062
151	0xbe864259	-0.26222494
152	0xbd8b4027	-0.067993455
153	0x3e4807a9	0.19534172
154	0xbc98c312	-0.018647704
155	0xbc249478	-0.010045163
156	0x3e4bca6c	0.19901437
157	0x3ea614e4	0.32437813
158	0x3d45b165	0.04826488
159	0x3d6ac7ba	0.05731938
160	0x3d675e89	0.05648664
161	0xbd5a2397	-0.053256597
162	0xbde9ac99	-0.114098735
163	0xbd99b1be	-0.07504605
164	0xbd963970	-0.07335174
165	0x3d0973ad	0.033557583
166	0xbd545b70	-0.051845014
167	0x3d7e627f	0.062105652
168	0x3da6653e	0.08124779
169	0x3e662110	0.2247355
170	0x3e4262b6	0.18982968
171	0xbc86bf46	-0.016448628
172	0xbd83be99	-0.06432838
173	0xbe37e915	-0.17960007
174	0xbd921d59	-0.07134504
175	0x3ca2bc35	0.019865135
176	0x3e3a9ebd	0.18224616
177	0x3d202e3d	0.039106596
178	0x3db8cf10	0.09023869
179	0xbccbd5f7	-0.0248823
180	0x3f1414b4	0.5784409
181	0xbe62d8a4	-0.22152954
182	0xbe47ead0	-0.19523168
183	0x3e31587c	0.1731891
184	0xbe7d1633	-0.247155
185	0x3ecaad17	0.39585182
186	0x3cbe2a7f	0.023213623
187	0x3d9613dc	0.073280066
188	0x3d9cef31	0.0766281
189	0xbd7a93d7	-0.061176147
190	0xbed1b152	-0.40955597
191	0xbe881ffa	-0.26586896
192	0x3c86e640	0.016467214
193	0xbd667939	-0.05626795
194	0x3e457809	0.19284071
195	0x3dca2676	0.09870617
196	0xbe8aafba	-0.27087194
197	0xbefa05e1	-0.4883261
198	0xbd5fde7c	-0.054655537
199	0xbd0c0bf7	-0.034191098
200	0xbdb253a4	-0.087073594
201	0xbe616017	-0.22009312
202	0x3e131730	0.14364314
203	0x3ea019f7	0.3126981
204	0xbe9afc6d	-0.3027071
205	0x3e478176	0.19482979
206	0x3c8941ff	0.016755102
207	0xbde480fc	-0.11157414
208	0xbe891467	-0.26773378
209	0xbe88799e	-0.26655287
210	0x3db2a9fa	0.08723827
211	0x3d2c8e16	0.04212769
212	0x3ab9ba79	0.0014169953
213	0x3db3b78e	0.08775245
214	0x3e12995c	0.14316314
215	0x3dfd4b7e	0.123679146
216	0x3e6d66bb	0.2318372
217	0xbdc4b0b6	-0.096040174
218	0xbe8105a5	-0.2519962
219	0xbda8bf2e	-0.0823959
220	0xbe052e8a	-0.13006034
221	0xbeba149b	-0.36343846
222	0xbd11cec2	-0.03559757
223	0x3ec60f63	0.38683614
224	0x3d0af275	0.03392263
225	0xbedba665	-0.42900386
226	0x3c8119f4	0.015759446
227	0xbe85b7a7	-0.26116678
228	0xbd0f8c4c	-0.035045907
229	0xbdbdc3cf	-0.09265863
230	0x3be50199	0.006988716
231	0xbe79acf2	-0.2438238
232	0xbda84cf3	-0.08217802
233	0x3e27f07b	0.1640033
234	0xbe4aba72	-0.19797686
235	0x3e166b1c	0.14689296
236	0x3ded4db0	0.11587083
237	0xbcae08f0	-0.021244496
238	0xbdb62e8b	-0.08895596
239	0x3e11cfaf	0.14239381
240	0x3d3fc5d1	0.04681951
241	0xbdbd508a	-0.09243877
242	0xbd5f3455	-0.054493267
243	0x3e416fbc	0.1889028
244	0xbc9dd6c4	-0.019267447
245	0xbd6d50f6	-0.05793854
246	0xbddd6e7b	-0.10812088
247	0xbe47bada	-0.19504872
248	0xbddb1d0a	-0.10698898
249	0xbe4c7c84	-0.19969374
250	0xbe835290	-0.25648928
251	0xbd5d10c1	-0.053971056
252	0xbe014c7c	-0.12626833
253	0xbe0c3936	-0.13693699
254	0xbd12c282	-0.03583003
255	0x3c9a1f3f	0.018813727

actor.0.bias f4 [32]
0	0x3d9878eb	0.07444938
1	0x3ca1b479	0.019739376
2	0x3de00dc7	0.10940128
3	0xbcb9d13a	-0.022682775
4	0x3c354fad	0.0110663595
5	0xbdd90467	-0.10596543
6	0xbc5cff94	-0.013488669
7	0x00000000	0.0
8	0x3bf22cad	0.0073905797
9	0xbae2da69	-0.0017307523
10	0xbd07a0f1	-0.03311247
11	0xbcddbcf7	-0.027067645
12	0x3c502fa5	0.012706672
13	0x3bc62bcc	0.0060477015
14	0xba398e72	-0.0007078416
15	0xbd5b7ea5	-0.053587575
16	0x00000000	0.0
17	0x3c6ea543	0.014565769
18	0x3d0077e2	0.03136433
19	0xbd89152b	-0.066934906
20	0xbc862289	-0.01637389
21	0xbba9744c	-0.0051713344
22	0x3daa9c38	0.083305776
23	0x3d6d85c3	0.057988893
24	0xbba21bca	-0.0049471604
25	0x3c94a4e7	0.018145038
26	0xbb9ca4f0	-0.0047804043
27	0x3dacc80e	0.08436595
28	0xbd22900f	-0.039688166
29	0x3d84ccd9	0.06484384
30	0xbc80312c	-0.015648447
31	0x3d0174e1	0.031605605

actor.2.weight f4 [9, 32]
0	0x3ecf0432	0.40432888
1	0x3b8952f1	0.0041907956
2	0x3e44a539	0.19203652
3	0x3de15ec5	0.11004404
4	0x3d6ebb69	0.058284197
5	0x3d5253cb	0.051349442
6	0x3e7474db	0.23872702
7	0xbe2bc894	-0.16775733
8	0x3dc3078f	0.09522926
9	0x3e06f4a9	0.13179268
10	0xbeba50c0	-0.36389732
11	0x3eb47fee	0.35253853
12	0xbea7a2ab	-0.32741293
13	0x3e33b395	0.17548974
14	0x3edb1a55	0.42793527
15	0xbd93bcab	-0.0721372
16	0xbe6dfff0	-0.23242164
17	0xbed2868f	-0.41118285
18	0xbe651d8b	-0.22374551
19	0x3e8b1a78	0.27168632
20	0x3e2b329c	0.16718525
21	0xbe1dfdf4	-0.15428907
22	0xbe8d95c6	-0.2765333
23	0xbed6821c	-0.4189614
24	0x3dcab0d5	0.09897009
25	0x3d18da7c	0.037317738
26	0x3f42f8ae	0.76160705
27	0x3e7a79fd	0.24460597
28	0x3e6daf7f	0.23211478
29	0x3ba61c84	0.0050693173
30	0x3f1c8b16	0.6114973
31	0xbef4c600	-0.47807312
32	0xbe12aeb9	-0.14324464
33	0xbf1950f7	-0.5988917
34	0x3f1a0b6a	0.60173666
35	0x3ec4b6d3	0.38420734
36	0xbe3559c7	-0.17710029
37	0x3cf3d99c	0.02976685
38	0xbd1dbcdb	-0.038510185
39	0xbdd58323	-0.10425403
40	0xbf18d0be	-0.59693515
41	0xbd9454b3	-0.072427176
42	0xbf03a7d1	-0.5142794
43	0xbdcdf401	-0.10056306
44	0x3e16f1ca	0.14740673
45	0xbda48e06	-0.08034901
46	0xbe25b3b4	-0.16181833
47	0x3e2adf5d	0.16686769
48	0x3e2b00a6	0.16699466
49	0x3de4a8d8	0.11165017
50	0x3e26a017	0.16272007
51	0xbe2c1355	-0.1680425
52	0x3cb5932d	0.022164905
53	0x3e1503e6	0.14552268
54	0x3c9bea48	0.019032612
55	0x3e0a678d	0.13516064
56	0xbe3f012e	-0.18652794
57	0x3e81c9f5	0.25349393
58	0xbdad947d	-0.084755875
59	0x3c95a1b7	0.018265588
60	0xbe6e644b	-0.23280446
61	0x3ea5173e	0.32244295
62	0x3ddb433e	0.10706185
63	0x3e7f3a87	0.2492467
64	0xbe454321	-0.19263889
65	0x3d8c82bf	0.06860875
66	0xbd6d3b10	-0.057917655
67	0xbeb6a864	-0.35675347
68	0x3e42e783	0.19033627
69	0x3f0b86c0	0.5450249
70	0x3eec333f	0.46132848
71	0x3e97fb5b	0.29683957
72	0xbdca76b7	-0.09885924
73	0xbe2239c0	-0.15842342
74	0xbe7e21b9	-0.24817552
75	0x3e356ed3	0.17718057
76	0xbeb800f9	-0.35938242
77	0x3f202938	0.62562895
78	0x3e682d0d	0.22673436
79	0x3db41112	0.087923184
80	0x3d3b25cb	0.04569034
81	0xbe77d017	-0.24200474
82	0xbce6e976	-0.028187495
83	0xbec1dcb1	-0.37863687
84	0xbe97f315	-0.29677644
85	0x3e353d9f	0.17699288
86	0xbe9f1255	-0.31068674
87	0x3f07443a	0.5283848
88	0x3e4eb9d5	0.20188077
89	0xbe003a69	-0.12522282
90	0xbea036d4	-0.3129183
91	0x3ed91e68	0.4240601
92	0xbe10dba1	-0.14146282
93	0xbbcbb32d	-0.006216428
94	0x3dd04aab	0.10170492
95	0x3d513ca8	0.051083237
96	0x3d142ce2	0.036175616
97	0xbf3f9a1f	-0.74844545
98	0xbe1d75f8	-0.15377033
99	0x3be3382e	0.0069341874
100	0x3eaf9cd5	0.3429934
101	0xbe3e169b	-0.18563311
102	0x3e8188c5	0.2529966
103	0xbe0dda21	-0.13852741
104	0x3ea554be	0.32291216
105	0xbe962110	-0.293221
106	0x3e8ce46c	0.27518022
107	0x3d54c217	0.05194291
108	0xbe4c4a22	-0.19950154
109	0x3e126d74	0.14299566
110	0x3e08d9a5	0.13364275
111	0xbee34246	-0.443865
112	0x3e87fa62	0.26558214
113	0xbe0c7564	-0.13716656
114	0x3eb2d420	0.34927464
115	0x3df8975b	0.12138244
116	0x3ea3e632	0.32011563
117	0x3ce81a3f	0.028332828
118	0x3e4b12a7	0.19831334
119	0x3eaf300f	0.34216353
120	0xbea91a57	-0.33027908
121	0xbbf665a0	-0.007519439
122	0x3e169a5b	0.1470732
123	0xbe0a55ee	-0.13509342
124	0x3c016ffb	0.007900233
125	0xbc1a3ab0	-0.009413406
126	0xbb4d9d19	-0.0031374155
127	0x3e6f5e11	0.23375727
128	0xbe08473c	-0.13308424
129	0x3e282fbc	0.16424459
130	0x3eeb29f0	0.45930433
131	0xbd84b14e	-0.06479131
132	0x3e9b3a60	0.30317974
133	0xbdb19bd3	-0.08672299
134	0xbed3810b	-0.4130939
135	0x3e78d140	0.24298573
136	0xbd2f338f	-0.04277378
137	0xbee5f6fb	-0.44914994
138	0x3ec9ef21	0.39440253
139	0x3ed82a72	0.42219883
140	0xbe8dd5b9	-0.2770212
141	0x3d399782	0.045310505
142	0x3dc94053	0.09826722
143	0x3eb57037	0.35437176
144	0xbe725932	-0.23666838
145	0xbe33d46d	-0.17561503
146	0xbd3690f8	-0.044571847
147	0x3e3bc45a	0.18336621
148	0xbe300200	-0.17188263
149	0xbd5fa84e	-0.054603867
150	0xbedf29fb	-0.43586716
151	0x3e75a95e	0.2399039
152	0xbeb2653d	-0.34842864
153	0x3e66ddb7	0.22545515
154	0xbe844eb2	-0.2584129
155	0xbdd1a274	-0.102360636
156	0x3e96ef4f	0.29479453
157	0x3ef33345	0.47500053
158	0x3dfac79b	0.12245103
159	0xbe4d7dee	-0.2006757
160	0xbd853cd8	-0.06505746
161	0xbd03cc72	-0.032177396
162	0x3de37189	0.111056395
163	0xbd5e8e37	-0.054334845
164	0xbe4db977	-0.2009028
165	0x3eab7c3a	0.33493215
166	0x3efd5067	0.49475405
167	0x3c60ad2b	0.013713161
168	0xbe9e081f	-0.3086557
169	0x3dda9386	0.10672669
170	0x3eac26f9	0.33623484
171	0x3d74616e	0.05966323
172	0x3e80c313	0.2514883
173	0xbebc3e85	-0.3676645
174	0x3e976abf	0.29573628
175	0x3e207a64	0.15671688
176	0xbdf20f78	-0.11819357
177	0x3f08199e	0.5316409
178	0x3e0174e6	0.1264225
179	0xbe3ef720	-0.18648958
180	0x3e1ffbb6	0.15623364
181	0x3eb4d660	0.35319805
182	0xbe749566	-0.23885116
183	0x3e1a666f	0.15078138
184	0x3e9187a1	0.2842379
185	0x3f29c9c9	0.66323525
186	0xbe74ee75	-0.23919089
187	0xbe16bf9e	-0.14721534
188	0x3c0f0248	0.008728571
189	0x3ebde761	0.3709059
190	0xbe4ee8f5	-0.20206054
191	0xbeee1a9b	-0.46504673
192	0x3f188e56	0.5959219
193	0xbe78e6e1	-0.24306823
194	0xbe95fb85	-0.29293457
195	0xbe0ca939	-0.13736428
196	0xbeb1dc43	-0.3473836
197	0xbd8d65d3	-0.06904187
198	0xbd4acd8b	-0.049512427
199	0xbe15213d	-0.1456346
200	0xbd5c0259	-0.053713176
201	0xbdb48834	-0.08815041
202	0x3ebdae87	0.37047216
203	0x3e9ef3f4	0.31045496
204	0x3d48b48d	0.04900031
205	0xbe141d08	-0.144642
206	0xbeaa7f25	-0.3330013
207	0x3e6d150b	0.23152559
208	0x3eab94b6	0.33511895
209	0xbdee43e0	-0.1163404
210	0x3f00039c	0.5000551
211	0xbe776989	-0.24161352
212	0xbe952287	-0.29127905
213	0xbe82e63e	-0.25566286
214	0xbe5e6f53	-0.21722154
215	0x3e9cfd1a	0.3066185
216	0x3ea9d4bb	0.33170113
217	0x3e765c66	0.24058685
218	0x3eb9db3a	0.3630007
219	0x3d3832ce	0.044970326
220	0xbd411987	-0.047143485
221	0xbed16dac	-0.40903986
222	0x3e8a6f79	0.27038172
223	0xbda32ce4	-0.079675466
224	0x3e8a6f50	0.2703805
225	0x3d8e4736	0.06947176
226	0xbe5689c0	-0.20950985
227	0xbc9d1ef2	-0.019179795
228	0xbe8de4d0	-0.27713633
229	0xbe6e55dc	-0.2327494
230	0xbe7ef5de	-0.24898478
231	0x3f380912	0.7188884
232	0xbe453d6b	-0.1926171
233	0xbd6e62a5	-0.058199544
234	0xbe13f0b0	-0.14447284
235	0xbe40bd58	-0.18822229
236	0xbcbd56ef	-0.023112742
237	0x3eaabe2b	0.33348212
238	0xbe45e6fb	-0.19326393
239	0xbf1a65cd	-0.60311586
240	0xbe68eac4	-0.22745806
241	0xbe3d3a3d	-0.18479247
242	0x3e38124a	0.17975727
243	0x3ea314a0	0.31851673
244	0x3e9a3923	0.30121717
245	0x3e627584	0.22115141
246	0x3ebcd324	0.36879838
247	0x3e8247c7	0.25445387
248	0xbbeb6bf5	-0.0071845003
249	0x3ef3a8b8	0.4758966
250	0x3e545b00	0.20737839
251	0xbd3bdcb7	-0.045864787
252	0xbeac8ec9	-0.33702686
253	0xbe0a21d6	-0.1348947
254	0xbe2f7047	-0.17132674
255	0xbd5e0f6b	-0.054213922

actor.2.bias f4 [9]
0	0xbc75f1d6	-0.015011271
1	0x3e2b168b	0.16707818
2	0xbd366217	-0.04452714
3	0x3d30bead	0.043150593
4	0xbcaff6e2	-0.021480028
5	0x3d3d941f	0.046283837
6	0x3d9f0944	0.07765439
7	0x3ddd21c4	0.10797456
8	0xbde81f49	-0.11334092

critic.0.weight f4 [32, 64]
0	0x3e054534	0.1301468
1	0xbd57d582	-0.05269385
2	0x3e5087c2	0.20364287
3	0x3e12d059	0.14337291
4	0x3dd92f97	0.1060478
5	0x3ec8aedb	0.39195904
6	0xbe02fb24	-0.12791115
7	0xbcdc2f69	-0.026878076
8	0x3e0fd60a	0.14046493
9	0xbe291472	-0.16511706
10	0xbedd231c	-0.4319085
11	0x3ee0e400	0.4392395
12	0xbba41b46	-0.005008134
13	0x3db85729	0.090009995
14	0xbc7860aa	-0.015159765
15	0xbdcaf52a	-0.099100426
16	0x3d3299ca	0.043603696
17	0x3db1709f	0.08664059
18	0xbd8c3978	-0.06846899
19	0xbe8d2e8c	-0.27574575
20	0x3d949bdd	0.07256291
21	0xbe692748	-0.22768891
22	0xbd7a4466	-0.061100386
23	0x3e867ba1	0.26266196
24	0xbd32d134	-0.043656543
25	0x3ea88126	0.32911032
26	0xbbe62361	-0.0070232605
27	0xbe574dd0	-0.21025777
28	0x3e6f0af9	0.2334403
29	0x3e8317eb	0.25604185
30	0x3e96c600	0.29447937
31	0x3daeaf71	0.085295565
32	0x3d03dac1	0.03219104
33	0x3da31815	0.07963578
34	0xbdbbca9a	-0.091695026
35	0xbe7a5c1f	-0.24449204
36	0x3e791f99	0.2432846
37	0xbdbb30e8	-0.091401875
38	0x3da83fc2	0.08215286
39	0xbe930c95	-0.28720537
40	0xbbfcd1de	-0.007715448
41	0x3dc257a5	0.09489373
42	0x3e6b0e0c	0.22954577
43	0xbe3be378	-0.18348491
44	0xbe8e017a	-0.27735502
45	0x3dd9be35	0.10631982
46	0xbe6bb012	-0.23016384
47	0xbea07ffe	-0.3134765
48	0x3ded7022	0.11593653
49	0xbeb6392c	-0.35590494
50	0xbcbd3e5d	-0.023101026
51	0x3e0be140	0.13660145
52	0xbdfdaf7c	-0.123869866
53	0xbe5a9fef	-0.21350072
54	0xbd3266bb	-0.043555003
55	0x3dad861f	0.08472847
56	0x3e650b19	0.22367515
57	0xbe2513a9	-0.16120781
58	0x3edec98f	0.43513152
59	0xbe7cbcc0	-0.24681377
60	0x3bb2abe6	0.005452621
61	0xbd718718	-0.058966726
62	0x3ee7afc5	0.4525129
63	0x3e1970a9	0.14984383
64	0x3e77fd9f	0.24217843
65	0xbcbfaffc	-0.023399346
66	0xbe3028e6	-0.17203102
67	0xbdadc6a5	-0.08485154
68	0x3e779997	0.24179684
69	0xbdfb4a90	-0.12270081
70	0x3eef0078	0.46680045
71	0xbda099cc	-0.078418344
72	0xbe9e1b04	-0.30879986
73	0x3ca6ece3	0.020376628
74	0x3e3e8d34	0.18608552
75	0xbe3db210	-0.18524957
76	0x3e33fe6c	0.17577523
77	0x3de8570e	0.11344729
78	0x3dfaed15	0.12252251
79	0x3e9bfd2a	0.30466586
80	0x3cbdc489	0.023165004
81	0xbee1134b	-0.43960032
82	0xbe11132b	-0.14167468
83	0x3d60cf3d	0.054885138
84	0x3ec58c31	0.3858352
85	0x3dec1e4a	0.11529215
86	0x3e45ca7e	0.19315526
87	0x3df26e98	0.118375
88	0x3c4bb7fd	0.012434003
89	0x3c84ad7b	0.016196003
90	0x3e3aa61b	0.18227427
91	0xbe48d0bf	-0.1961088
92	0x3d88a4ac	0.06672034
93	0xbd383171	-0.044969026
94	0x3dc92eda	0.09823389
95	0xbd291391	-0.041278426
96	0x3e2cb9d1	0.16867758
97	0x3e8e30d6	0.27771634
98	0xbe18c5ee	-0.14919254
99	0xbd5a6876	-0.053322278
100	0x3eac59ac	0.33662164
101	0x3d36bb0d	0.04461198
102	0x3f0fb4ac	0.5613506
103	0xbeb15418	-0.3463447
104	0xbe85591d	-0.2604455
105	0x3dd2bacf	0.10289537
106	0x3c58f977	0.013243071
107	0x3e71afeb	0.23602264
108	0xbba218fb	-0.0049468256
109	0xbcdf3351	-0.02724615
110	0x3e007ea2	0.12548307
111	0x3e39c26c	0.18140572
112	0x3dd37239	0.103245206
113	0x3d1f7dd3	0.038938355
114	0x3ea46776	0.32110184
115	0x3db5a6fc	0.0886974
116	0x3d8d4c5b	0.06899329
117	0x3d86c921	0.06581331
118	0xbe180982	-0.14847377
119	0xbe010697	-0.1260017
120	0xbd33defd	-0.04391383
121	0x3d335597	0.043782797
122	0xbd9a6acf	-0.07539903
123	0x3cdb8396	0.026796144
124	0xbe26d4fd	-0.16292186
125	0x3e7ed761	0.24886848
126	0x3d842cf7	0.06453889
127	0xbdd7684a	-0.105179384
128	0x3cb9c352	0.022676144
129	0xbeb2e1c7	-0.3493788
130	0x3dc0c2c1	0.09412146
131	0xbe401ef2	-0.18761805
132	0xbe4aae96	-0.19793162
133	0x3d809fac	0.06280455
134	0xbe5f72e4	-0.21821171
135	0xbd2d5f13	-0.042326998
136	0xbc8b750d	-0.017023588
137	0xbe976821	-0.29571632
138	0x3d323d97	0.043515768
139	0x3d8b6b71	0.06807602
140	0x3e89cd8a	0.26914626
141	0x3da66677	0.08125012
142	0xbe15c0c9	-0.14624323
143	0x3da74d00	0.081689835
144	0xbe2910a6	-0.16510257
145	0x3e0d0504	0.13771445
146	0x3e9b2792	0.30303627
147	0x3d416a1a	0.047220327
148	0x3d04e640	0.032446146
149	0xbd42fcc7	-0.04760435
150	0xbba8e5d7	-0.005154352
151	0xbe4ce9dc	-0.20011085
152	0x3e20e6ab	0.15712993
153	0xbe179640	-0.1480341
154	0xbd32c6e8	-0.043646723
155	0x3d428ebd	0.047499407
156	0x3cbc2b9e	0.022970017
157	0x3e94d052	0.29065186
158	0xbe823ab9	-0.25435427
159	0x3ea2ff85	0.3183557
160	0xbe5d2d50	-0.21599317
161	0x3e39a536	0.18129429
162	0xbd753894	-0.05986841
163	0x3db8e28e	0.09027587
164	0x3d130e14	0.035902098
165	0xbe1bc2ae	-0.15210983
166	0x3e87c3b6	0.26516503
167	0xbe3c44e3	-0.18385653
168	0xbd67f356	-0.056628548
169	0xbc6cca1b	-0.014452483
170	0xbe1b755f	-0.15181492
171	0xbed7fe7d	-0.42186347
172	0x3da9cf1d	0.08291457
173	0x3c932b41	0.017964961
174	0x3e9f4561	0.3110762
175	0x3e1bc3fe	0.15211484
176	0x3dde37ac	0.10850462
177	0x3d833ed4	0.06408468
178	0xbc8e968e	-0.017405774
179	0x3ec45797	0.38348076
180	0xbe59a9a8	-0.21256125
181	0xbe63a566	-0.22231063
182	0x3cce71d7	0.025200767
183	0x3da177b6	0.07884161
184	0xbe9d24e2	-0.30692202
185	0xbbff454c	-0.0077902433
186	0xbea8676c	-0.32891405
187	0x3b3bb440	0.0028641373
188	0xbbc10a11	-0.0058910926
189	0xbe19a68b	-0.15004937
190	0x3dae92a4	0.08524063
191	0xbdd6bd3d	-0.10485313
192	0xbd059ad9	-0.032618377
193	0x3c5efc25	0.013609921
194	0xbe5e50bf	-0.2171049
195	0xbdb81aa0	-0.08989453
196	0x3e82bdf4	0.25535548
197	0x3e796c33	0.24357681
198	0xbc1a899f	-0.0094322255
199	0x3e363c18	0.17796361
200	0xba57bd3b	-0.00082297967
201	0xbe41f70f	-0.18941902
202	0x3ce816d9	0.028331207
203	0x3e105332	0.14094236
204	0x3d8335f3	0.06406774
205	0x3e04a889	0.12954916
206	0xbcee049f	-0.029054938
207	0xbe326350	-0.17420697
208	0x3cb15267	0.021645738
209	0xbd4a4f2c	-0.04939191
210	0xbaaebd5f	-0.0013331583
211	0x3b0da031	0.0021610374
212	0xbd924cb8	-0.07143539
213	0x3e5f6a0c	0.21817797
214	0xbdecf39d	-0.11569903
215	0xbe1faf4d	-0.15594216
216	0xbe108b41	-0.14115621
217	0x3e31cb67	0.17362748
218	0x3c0f115d	0.008732167
219	0xbe226011	-0.15856959
220	0xbf090069	-0.5351625
221	0xbd5c7a47	-0.05382755
222	0x3d6b53aa	0.057452835
223	0xbe013456	-0.12617621
224	0x3e2c1d5d	0.16808076
225	0x3e8241ba	0.2544077
226	0x3d1e1bfc	0.038600907
227	0xbdd5eb0c	-0.10445222
228	0xbe307d01	-0.17235185
229	0x3e768ec0	0.24077892
230	0xbe9c1f96	-0.30492848
231	0xbe9d44b8	-0.3071649
232	0x3d859210	0.06522
233	0xbe3cd12d	-0.18439169
234	0xbd500cef	-0.050793584
235	0xbe1c4f4c	-0.15264624
236	0x3deb6dc8	0.114955485
237	0xbc623348	-0.013806172
238	0x3def9693	0.11698642
239	0x3b1bad65	0.0023754474
240	0x3ed9504a	0.42444068
241	0xbe293f5d	-0.16528077
242	0xb92e743d	-0.00016637235
243	0xbdeb8e17	-0.11501711
244	0x3f087203	0.5329897
245	0xbdd22843	-0.102615856
246	0xbeb1e90c	-0.34748113
247	0xbd89c41e	-0.067268595
248	0x3c06eceb	0.008235197
249	0x3d996e70	0.074917674
250	0xbe762f7f	-0.24041556
251	0x3de64d19	0.11245174
252	0xbe38ffaa	-0.18066278
253	0xbe8b6561	-0.27225783
254	0x3df8aabc	0.1214194
255	0x3de5963d	0.11210296
