logs/energy/checkpoint_episode_3100.pt (torch, 644718 bytes, 39 tensors)

shared_net.0.weight f4 [128, 30]
-0.09795125 0.063915044 -0.050876375 -0.021425173 -0.10345804 -0.03469335 0.3060169 0.42883953
0.36486855 0.205728 0.11139854 0.14522508 0.5735982 0.3766476 0.04574549 -0.1843173
0.50961506 0.50189704 0.41846445 0.16639832 -0.11017809 0.2759042 0.21560739 0.23554406
-0.26855466 -0.28888938 0.076284096 0.04430363 -0.25588974 -0.5297558 0.050127555 0.02077023
-0.14912686 0.06837374 0.029199466 -0.021901876 -0.11933894 -0.21867932 -0.059927817 0.008041509
-0.3098104 -0.046595216 -0.12484362 0.05180552 0.1766941 -0.40649676 -0.01639872 0.17838858
-0.103118755 0.068006895 -0.27976856 -0.11503598 -0.23875375 0.18313223 0.14519674 -0.12256298
-0.016619349 0.14883593 0.051305283 0.018280676 -0.07740867 0.02043799 -0.090903714 -0.0024114086
-0.20330799 -0.08623603 0.11594102 0.15046552 0.32866818 0.0134243015 -0.26994964 -0.010606417
0.17468286 -0.13793755 0.05400107 0.0996895 -0.21962906 -0.11683737 -0.04331138 0.0038484342
0.16764836 -0.11105428 0.13160126 0.10622852 -0.0876176 0.034962 0.09602375 -0.026958168
0.08161846 -0.050777595 0.008035612 -0.06486436 -0.14720519 0.050898958 0.12604713 0.121417865
0.13336396 0.0856276 -0.00227309 -0.0982587 0.024861136 0.28757963 0.24573515 0.3077261
-0.047877174 0.13167611 0.25409186 0.10013865 0.17640547 -0.20043834 0.18603252 0.22871156
0.12517571 0.10144235 -0.0861253 0.10824411 0.21143049 -0.16821004 -0.14341515 -0.28955677
-0.09548913 0.02240784 -0.19820854 0.079776555 0.03893534 0.3737419 0.39251557 0.31069446
0.5227977 0.33423054 0.23332417 0.31584033 0.533241 0.26562163 0.112564996 0.23506084
0.5291248 0.45160526 0.42053306 0.27826893 0.27659768 0.43151695 0.67458004 0.15407851
0.03733809 0.24386145 0.22280441 0.1411002 -0.29736388 -0.5882927 0.15631603 -0.03625639
-0.14954644 0.17838459 -0.3137632 0.38408047 0.3940433 0.3195965 0.28396368 0.5877633
0.22892423 0.18857172 -0.106876336 0.18600217 0.26682404 -0.24874921 0.1921306 -0.09452192
0.003619223 0.31116712 -0.314939 -0.045386154 -0.030497592 0.053261187 0.34720376 -0.8557154
-0.2075622 -0.12161549 0.027129773 0.4027572 -0.34075248 -0.109033935 -0.24183305 -0.25766975
0.27870873 -0.18525115 -0.22476695 -0.16312572 -0.1982469 -0.1733884 -0.048708215 -0.22584744
-0.13679348 0.004812422 -0.07883621 -0.39960465 -0.22466335 -0.25243542 -0.1312625 -0.32099938
-0.27372155 -0.3735798 -0.05226552 -0.2916683 0.04995374 0.03635389 -0.09322147 0.1484494
-0.18128479 -0.0021230713 -0.14461005 0.00042767086 -0.017435145 0.0006457581 0.042358883 -0.76193094
-0.38901758 -0.17219594 0.32520637 0.6134677 -0.82342774 -0.4846455 -0.16159904 0.40907922
0.55754083 -0.32511055 0.27655584 0.20404223 0.5775487 0.34979498 -0.013385522 0.15047666
0.37725756 0.50255907 0.2813107 -0.09676874 0.1355741 0.27132985 0.253407 0.4708567
-0.14439559 0.07386431 0.081214316 -0.013224958 0.045450937 0.30102587 0.26437452 0.48374265
0.57107204 0.6847905 0.14553605 0.018028375 0.16004051 0.20701589 0.37929282 0.1327121
00000000: aa9a c8bd e4e5 823d bf63 50bd d883 afbc
00000010: cfe1 d3bd 9d1a 0ebd 3fae 9c3e db90 db3e
00000020: 0dd0 ba3e 5caa 523e eb24 e43d e2b5 143e
00000030: 55d7 123f f4d7 c03e 9f5f 3b3d adbd 3cbe
00000040: 2276 023f 537c 003f f940 d63e 5264 2a3e
00000050: 0da5 e1bd 5143 8d3e 2fc8 5c3e 7632 713e
00000060: ff7f 89be 4fe9 93be d63a 9c3d b977 353d
00000070: fb03 83be 139e 07bf 8d52 4d3d 5426 aa3c
00000080: b6b4 18be 8807 8c3d b833 ef3c 906b b3bc
00000090: f967 f4bd 79ed 5fbe df76 75bd 89c0 033c
000000a0: 789f 9ebe a0da 3ebd 03ae ffbd 0632 543d
000000b0: 4cef 343e 5820 d0be 9c56 86bc 7fab 363e
000000c0: ed2f d3bd 3347 8b3d d33d 8fbe fc97 ebbd
000000d0: dd7b 74be 0487 3b3e 74ae 143e 4d02 fbbd
000000e0: 4d25 88bc 7268 183e 7d25 523d 5bc1 953c
000000f0: 7088 9ebd 926d a73c ba2b babd b908 1ebb
00000100: f82f 50be 849c b0bd 7c72 ed3d a213 1a3e
00000110: 3247 a83e 9af1 5b3c d736 8abe 8ac6 2dbc
00000120: 10e0 323e 803f 0dbe 3a30 5d3d 022a cc3d
00000130: 71e6 60be 6e48 efbd 4667 31bd 0336 7c3b
00000140: 03ac 2b3e 6d70 e3bd 7bc2 063e 578e d93d
00000150: db70 b3bd 5034 0f3d 1aa8 c43d 60d7 dcbc
00000160: 9427 a73d 2bfc 4fbd cda7 033c 9bd7 84bd
00000170: f5bc 16be 6d7b 503d 8012 013e eea9 f83d
00000180: 9090 083e 865d af3d 1ff8 14bb db3b c9bd
00000190: 95a9 cb3c a33d 933e ffa1 7b3e 468e 9d3e
000001a0: db1a 44bd 1ad6 063e 5418 823e 7e15 cd3d
000001b0: a3a3 343e b53f 4dbe 4f7f 3e3e 5d33 6a3e
000001c0: 102e 003e 02c1 cf3d 7662 b0bd 17af dd3d
000001d0: 3c81 583e 413f 2cbe 6cdb 12be c940 94be
000001e0: ce8f c3bd a590 b73c 2ef7 4abe e461 a33d
000001f0: aa7a 1f3d 195b bf3e cdf7 c83e 5813 9f3e
00000200: 12d6 053f 4420 ab3e 88ec 6e3e d3b5 a13e
00000210: 7b82 083f 8fff 873e 7a88 e63d cab3 703e
00000220: b974 073f ce38 e73e 1c50 d73e 4479 8e3e
00000230: 369e 8d3e caef dc3e 47b1 2c3f c2c6 1d3e
00000240: d3ef 183d d1b6 793e d726 643e 927c 103e
00000250: 1440 98be 5a9a 16bf 4f11 203e 9581 14bd
00000260: b422 19be 73aa 363e 92a5 a0be 32a6 c43e
00000270: 0bc0 c93e 27a2 a33e b063 913e a877 163f
00000280: 1d6b 6a3e f218 413e fbe1 dabd 5a77 3e3e
00000290: 299d 883e 1db8 7ebe e2bd 443e b594 c1bd
000002a0: 7c30 6d3b 4c51 9f3e af3f a1be d5e6 39bd
000002b0: 16d6 f9bc 6728 5a3d b1c4 b13e 2a10 5bbf
000002c0: 2f8b 54be 8b11 f9bd 423f de3c 3136 ce3e
000002d0: 1c77 aebe 2f4d dfbd 15a3 77be 4aed 83be
000002e0: e9b2 8e3e 7ab2 3dbe 4f29 66be 6e0a 27be
000002f0: 3c01 4bbe bb8c 31be 4482 47bd 8d44 67be
00000300: 9713 0cbe 86b1 9d3b e174 a1bd fb98 ccbe
00000310: 260e 66be 373f 81be ad69 06be 085a a4be
00000320: 3b25 8cbe da45 bfbe 5f14 56bd 8c55 95be
00000330: 4b9c 4c3d d1e7 143d e6ea bebd 1f03 183e
00000340: b8a2 39be 3a23 0bbb a814 14be 0339 e039
00000350: 26d4 8ebc 1848 293a 8280 2d3d e80d 43bf
00000360: 502d c7be 2254 30be 7381 a63e 380c 1d3f
00000370: 29cc 52bf 7423 f8be 387a 25be d572 d13e
00000380: ffba 0e3f e474 a6be ba98 8d3e 72f0 503e
00000390: 3bda 133f 5418 b33e f34e 5bbc 8e16 1a3e
000003a0: e727 c13e b6a7 003f f507 903e b02e c6bd
000003b0: f0d3 0a3e bfeb 8a3e 90be 813e 2114 f13e
000003c0: 70dc 13be 2c46 973d b153 a63d 7fad 58bc
000003d0: c32a 3a3d 1020 9a3e 195c 873e 1ead f73e
000003e0: c731 123f 6e4e 2f3f 6707 153e 3eb0 933c
000003f0: a9e1 233e f9fb 533e ab32 c23e aee5 073e

shared_net.0.bias f4 [128]
-0.012288302 0.06326143 -0.005779788 0.121621795 -0.06511717 0.07677888 0.14384778 0.048860457
0.03214367 0.12836513 0.20394966 0.049368076 -0.040403567 -0.13983701 0.10431936 0.021863328
0.09229244 0.054760624 0.10974086 0.038398057 -0.08062309 0.18411314 -0.16551016 0.16569181
0.023173437 0.18538232 -0.06027738 -0.032441307 0.15640472 0.10701201 -0.05053522 -0.088234894
-0.08921317 0.060918298 -0.0073991097 -0.0046333773 0.05979254 0.20470876 -0.010086627 0.16837168
0.12969418 0.13413386 -0.082676694 -0.11261956 0.02938682 0.0 0.16229086 0.10699525
-0.036955766 0.12330755 -0.18030392 -0.005141218 0.04044579 0.06117688 -0.15575697 0.12552047
-0.064733304 0.15992153 -0.09430069 -1.777882e-05 0.0705053 0.16698532 -0.045931008 -0.015701473
-0.1394404 0.09045138 0.008279192 -0.032755945 0.083437935 0.15169783 0.0 0.018971391
0.0 -0.05881879 0.18628174 0.0078110546 -0.12853637 0.15264674 0.16638586 -0.05489967
0.11667088 -0.077802666 -0.028853549 0.0 0.070997536 0.021308381 -0.06577327 -0.08800429
0.12682767 0.08651148 0.15053524 0.030713135 -0.06426334 0.03432878 -0.058531042 0.14116007
0.15105782 -0.05383506 -0.1453794 -0.12438485 0.12299646 0.06993149 0.05235038 -0.09488649
0.14519852 0.06228825 -0.05338489 -0.010800665 -0.11787521 -0.055729486 0.10967147 0.111987874
-0.12367341 0.045971278 0.029444326 0.069965616 -0.14968401 0.17704122 0.0 -0.07047078
0.12965289 0.08734392 0.023454186 -0.042121805 0.0 0.012611356 0.0 0.12505613
00000000: e054 49bc 358f 813d 6064 bdbb d914 f93d
00000010: 275c 85bd 3f3e 9d3d d54c 133e e721 483d
00000020: 15a9 033d 2672 033e 2ed8 503e 2e36 4a3d
00000030: 367e 25bd 6f31 0fbe 63a5 d53d b91a b33c
00000040: d203 bd3d ad4c 603d d1bf e03d 4847 1d3d
00000050: b81d a5bd 2888 3c3e 7f7b 29be 1dab 293e
00000060: 38d6 bd3c ddd4 3d3e 6ae5 76bd 2de1 04bd
00000070: 8f28 203e 1d29 db3d 05fe 4ebd 7fb4 b4bd
00000080: 65b5 b6bd 7785 793d 3b74 f2bb 96d3 97bb
00000090: 06e9 743d 2c9f 513e 6142 25bc a069 2c3e
000000a0: 8dce 043e 635a 093e 6652 a9bd 15a5 e6bd
000000b0: a1bc f03c 0000 0000 932f 263e 5320 db3d
000000c0: ee5e 17bd ab88 fc3d 97a1 38be aa77 a8bb
000000d0: 7caa 253d 9c94 7a3d c17e 1fbe 7088 003e
000000e0: e592 84bd 78c2 233e b820 c1bd ba23 95b7
000000f0: 1565 903d 33fe 2a3e 2722 3cbd 60a0 80bc
00000100: 77c9 0ebe 933e b93d 73a5 073c 192b 06bd
00000110: 82e1 aa3d ad56 1b3e 0000 0000 e469 9b3c
00000120: 0000 0000 f9eb 70bd a4c0 3e3e e0f3 ff3b
00000130: 0a9f 03be 6d4f 1c3e 0e61 2a3e 7ade 60bd
00000140: 24f1 ee3d 0157 9fbd 475e ecbc 0000 0000
00000150: 2867 913d ea8e ae3c 23b4 86bd 983b b4bd
00000160: 1ddf 013e ee2c b13d e925 1a3e 1d9a fb3c
00000170: 7f9c 83bd 569c 0c3d 3fbe 6fbd 448c 103e
00000180: e7ae 1a3e 2782 5cbd 56de 14be 7cbd febd
00000190: 91e5 fb3d 3e38 8f3d 5a6d 563d d953 c2bd
000001a0: ecae 143e f721 7f3d 1daa 5abd 46f5 30bc
000001b0: 8f68 f1bd 9a44 64bd 709b e03d e659 e53d
000001c0: 7c48 fdbd 614c 3c3d 3a35 f13c 224a 8f3d
000001d0: c446 19be 4b4a 353e 0000 0000 fc52 90bd
000001e0: bac3 043e 5ee1 b23d fe22 c03c ea87 2cbd
000001f0: 0000 0000 dc9f 4e3c 0000 0000 b70e 003e

shared_net.2.weight f4 [128, 128]
-0.22117084 -0.018758392 -0.010393126 0.037023608 -0.5189328 0.2515445 -0.075370975 -0.22019114
-0.03861459 -0.023903795 0.13802627 -0.048599806 -0.19403051 -0.017744537 -0.42219278 0.0721655
0.17158535 0.08077672 0.15157014 -0.14157005 -0.06433373 -0.09672602 -0.6179456 -0.12088176
-0.114588946 0.13858582 -0.048419293 -0.36099935 0.16678852 0.027087806 0.17506364 -0.41777635
0.0103932945 -0.087837756 0.010108005 0.13980812 0.21835919 0.07143623 0.045166835 -0.40042552
0.2654801 0.24795689 0.10131021 -0.19104308 -0.032169554 0.11842702 0.15606786 0.10052667
0.03741442 0.20026872 -0.13742839 0.011190932 0.16679601 0.10089045 0.22861764 0.04803735
-0.4809214 0.028684733 -0.28116292 -0.04991163 -0.09465255 -0.02232323 0.16036886 -0.021689804
-0.1157553 0.043626867 0.3170611 0.09221694 0.16195716 0.01699831 0.14915074 0.09650977
0.37314776 -0.06873385 0.34959194 0.18663159 -0.10277046 0.1017964 -0.17087644 0.08577003
0.24864629 0.17278618 0.08254519 -0.20902748 -0.09377242 0.01952859 -0.087212674 0.002999142
0.16229063 0.124561764 0.03635291 0.23091142 0.07709582 0.11849172 0.07079003 0.031017894
0.0820985 -0.014406442 -0.060556095 -0.55855906 -0.041341346 0.14599283 0.26753822 -0.36914378
-0.029658454 0.18789367 -0.11523666 -0.015180951 -0.15820134 0.02728322 0.09536801 0.2737423
-0.52634054 -0.14718075 -0.23582533 0.06758178 -0.29259342 -0.054564565 0.14980271 0.15140896
-0.37741348 -0.10432463 -0.065072685 -0.16403608 -1.82359e-05 0.041736964 0.015661778 0.061736055
0.16205133 -0.23983578 0.31399536 -0.25415003 0.45986545 -0.35285905 -0.19862409 -0.13778196
0.048734806 -0.077467926 -0.20435047 0.12870376 -0.040324308 0.25585005 0.35080737 -0.0993163
-0.07844817 -0.15916882 -0.1723363 0.01205251 -0.049247835 -0.16470453 0.28616303 -0.090232715
0.016394017 -0.29522964 0.19663648 0.14232491 -0.17534618 -0.21894243 0.1179631 0.15570422
0.3802078 -0.033860628 -0.18266179 0.06535633 -0.39471957 -0.407227 -0.13616413 -0.11631694
-0.17954569 -0.12257593 -0.15819213 0.18247643 0.082771614 -0.029596547 -0.28921387 -0.29693797
-0.04320018 -0.13624227 0.20606859 -0.01717295 0.1440056 -0.3133765 0.05022288 -0.27557528
-0.03427425 -0.22025403 0.25851026 0.29015347 -0.13504487 -0.35668802 0.027828192 -0.23144269
0.2729021 0.20303527 -0.07514799 -0.4181253 0.09239297 -0.06993478 0.18660232 -0.19680153
0.07653296 0.06862178 -0.2624222 -0.09983962 0.23271279 -0.34167245 -0.06164064 0.23954579
0.05418108 -0.07911462 -0.04776727 -0.15897876 -0.18377301 0.1706518 0.12339915 0.053041276
-0.1967781 0.06713526 -0.21710122 0.02863437 0.100727014 -0.3970427 0.057692543 -0.30270928
-0.14789097 0.12567352 0.23006316 0.2363066 -0.01859969 -0.3773903 0.19058469 0.0645516
-0.04169171 0.07545505 -0.0478253 0.054966103 0.037491746 0.17895599 0.09825688 -0.08460973
0.110185444 0.13529682 -4.056675e-05 0.16000314 0.6497276 -0.1957085 0.08848793 -0.013084715
-0.048735093 0.6061893 -0.0045338315 -0.005043897 -0.0122908205 -0.20560174 -0.009743783 0.08600911
00000000: 9c7a 62be 33ab 99bc ee47 2abc 11a6 173d
00000010: c8d8 04bf 71ca 803e 195c 9abd c979 61be
00000020: 552a 1ebd e4d1 c3bc c256 0d3e 9710 47bd
00000030: efaf 46be fe5c 91bc a729 d8be 81cb 933d
00000040: 12b4 2f3e 446e a53d 3435 1b3e bdf7 10be
00000050: 67c1 83bd 4b18 c6bd af31 1ebf db90 f7bd
00000060: 9cad eabd 71e9 0d3e 4f53 46bd e8d4 b8be
00000070: 9cca 2a3e 3fe7 dd3c e243 333e c8e6 d5be
00000080: a348 2a3c 48e4 b3bd 0c9c 253c dc29 0f3e
00000090: 8d99 5f3e 284d 923d dc00 393d 9304 cdbe
000000a0: 02ed 873e 69e8 7d3e ba7b cf3d cca0 43be
000000b0: 39c4 03bd de89 f23d 41d0 1f3e ede0 cd3d
000000c0: dd3f 193d 3e13 4d3e 07ba 0cbe 2c5a 373c
000000d0: 93cc 2a3e a79f ce3d be1a 6a3e d0c2 443d
000000e0: 543b f6be 3ffc ea3c 96f4 8fbe 2370 4cbd
000000f0: 32d9 c1bd 35df b6bc bc37 243e d1ae b1bc
00000100: 1d11 edbd 16b2 323d d555 a23e 3cdc bc3d
00000110: 19d8 253e 0a40 8b3c f9ba 183e eaa6 c53d
00000120: 390d bf3e 55c4 8cbd b7fd b23e 5a1c 3f3e
00000130: 5279 d2bd a27a d03d 3cfa 2ebe 33a8 af3d
00000140: 229d 7e3e dcee 303e 740d a93d 4d0b 56be
00000150: c10b c0bd 6cfa 9f3c 8f9c b2bd 418d 443b
00000160: 842f 263e 3d1a ff3d cae6 143d 0b74 6c3e
00000170: 6ae4 9d3d c9ab f23d 5dfa 903d 3d19 fe3c
00000180: 4223 a83d ff08 6cbc ab09 78bd bafd 0ebf
00000190: 8b55 29bd 257f 153e c5fa 883e 6a00 bdbe
000001a0: 49f6 f2bc 3367 403e 3301 ecbd 86b9 78bc
000001b0: 88ff 21be 0f81 df3c 4e50 c33d f327 8c3e
000001c0: 41be 06bf 8db6 16be 327c 71be 5168 8a3d
000001d0: cece 95be 187f 5fbd e265 193e f30a 1b3e
000001e0: 573c c1be 27a8 d5bd d444 85bd 13f9 27be
000001f0: 4cf9 98b7 61f4 2a3d 214d 803c f2de 7c3d
00000200: c9f0 253e 8397 75be 00c4 a03e f41f 82be
00000210: 7c73 eb3e f1a9 b4be 1d64 4bbe b716 0dbe
00000220: 269e 473d 81a7 9ebd 4041 51be ebca 033e
00000230: 1a2b 25bd c7fe 823e 069d b33e 5866 cbbd
00000240: 6fa9 a0bd 27fd 22be ed78 30be e477 453c
00000250: 19b8 49bd 4ea8 28be f683 923e eecb b8bd
00000260: bf4c 863c 5728 97be 135b 493e 9fbd 113e
00000270: f38d 33be 7232 60be a396 f13d ed70 1f3e
00000280: 99aa c23e 71b1 0abd b10b 3bbe 8ad9 853d
00000290: af18 cabe 0f80 d0be 9c6e 0bbe 9337 eebd
000002a0: d3da 37be 1709 fbbd 1efd 21be 1adb 3a3e
000002b0: 2a84 a93d 7574 f2bc d713 94be 4108 98be
000002c0: acf2 30bd 1883 0bbe a503 533e 49ae 8cbc
000002d0: 3476 133e e272 a0be 82b6 4d3d 3418 8dbe
000002e0: 2863 0cbd 468a 61be 755b 843e ff8e 943e
000002f0: 3449 0abe d09f b6be f3f7 e33c 50ff 6cbe
00000300: d3b9 8b3e 7ae8 4f3e 30e7 99bd 8514 d6be
00000310: 8738 bd3d f739 8fbd ae14 3f3e 5786 49be
00000320: 50bd 9c3d 9389 8c3d 345c 86be b778 ccbd
00000330: 434c 6e3e b1ef aebe e57a 7cbd 7e4b 753e
00000340: fbec 5d3d d906 a2bd 9da7 43bd 54cb 22be
00000350: fe2e 3cbe 58bf 2e3e b2b8 fc3d cf41 593d
00000360: 3380 49be 367e 893d c84f 5ebe a092 ea3c
00000370: f749 ce3d 2e49 cbbe 044f 6c3d b6fc 9abe
00000380: bb70 17be 8fb0 003e ad95 6b3e 5bfa 713e
00000390: 615e 98bc 4d39 c1be a228 433e a133 843d
000003a0: edc4 2abd 2d88 9a3d 76e4 43bd 2324 613d
000003b0: f290 193d 3d40 373e e73a c93d de47 adbd
000003c0: e8a8 e13d 408b 0a3e 3726 2ab8 ddd7 233e
000003d0: 8c54 263f cf67 48be 2939 b53d 4661 56bc
000003e0: 739e 47bd 392f 1b3f 8990 94bb 4647 a5bb
000003f0: 705f 49bc 4389 52be 63a4 1fbc 8b25 b03d

shared_net.2.bias f4 [128]
0.09436281 -0.14875199 0.0933533 0.07261126 -0.08006679 0.12687978 -0.024254406 0.045363814
0.004000881 0.024961589 -0.10914326 -0.049162824 -0.004279141 -0.04852096 0.039690368 0.12498766
-0.039583962 0.08777843 -0.0044632964 0.088304244 0.07642949 0.047748316 0.06477082 0.08501618
0.04059456 0.024972292 0.009269055 0.028136715 0.06724201 0.08289714 0.010357552 0.0090925
0.07416192 0.024121588 0.020833643 0.10130072 -0.09588354 0.07149072 -0.009043939 0.06121194
-0.0032247086 0.007950309 0.08560186 0.037808675 0.027703509 0.10443275 -0.048392132 -0.11298779
0.10559585 0.15751114 0.06412088 0.064505614 -0.014160925 -0.17425406 0.13126186 0.07600052
0.077709116 0.09673953 0.01035386 0.00037148327 0.05313031 0.06357418 0.053538956 0.044085447
0.113789134 -0.106950946 0.068451114 0.056789022 -0.09694967 -0.09642672 0.0 0.08621607
0.0 0.03175635 0.024203606 0.024974657 0.10047754 -0.02177858 -0.027327467 0.08688046
0.0001597352 0.095300585 0.056673326 0.11279015 0.06065319 -0.006140949 0.057353236 -0.014051516
-0.03348593 0.005581866 -0.0073722904 -0.0052564787 0.0722842 -0.033587564 -0.13221784 0.067652814
0.022660691 0.04601696 0.10627246 0.07836153 0.07475306 0.07581282 0.07477833 -0.09481942
-0.08761093 -0.08008907 0.042405766 0.06501085 -0.0419147 -0.009371136 0.12920223 -0.0008181771
0.02551355 0.07143553 0.07015009 0.051830605 0.0022575408 0.005044069 -0.017361673 -0.014543906
0.10491775 -0.02710813 -0.058424994 0.03805521 -0.09099401 0.005419398 -0.00033973283 0.09218857
00000000: 4a41 c13d 7152 18be 0430 bf3d 36b5 943d
00000010: 0ffa a3bd c6ec 013e 2db1 c6bc 68cf 393d
00000020: d319 833b 3f7c cc3c 8086 dfbd f55e 49bd
00000030: 0938 8cbb eabd 46bd 5e92 223d 88f9 ff3d
00000040: cb22 22bd 2dc5 b33d d840 92bb dbd8 b43d
00000050: 1087 9c3d bd93 433d 90a6 843d f71c ae3d
00000060: 7b46 263d b192 cc3c 3cdd 173c f87e e63c
00000070: 2eb6 893d fac5 a93d b9b2 293c b6f8 143c
00000080: 34e2 973d a39a c53c 51ab aa3c c076 cf3d
00000090: 975e c4bd ba69 923d 082d 14bc 5fb9 7a3d
000000a0: a255 53bb 0342 023c 0750 af3d 45dd 1a3d
000000b0: 78f2 e23c d6e0 d53d d436 46bd 2466 e7bd
000000c0: a342 d83d 9a4a 213e cf51 833d 851b 843d
000000d0: 3903 68bc a86f 32be 8269 063e 29a6 9b3d
000000e0: f525 9f3d 601f c63d 3da3 293c a4c3 c239
000000f0: 2b9f 593d 2e33 823d aa4b 5b3d f192 343d
00000100: 470a e93d 1909 dbbd 1930 8c3d 9b9b 683d
00000110: 8c8d c6bd 5f7b c5bd 0000 0000 0d92 b03d
00000120: 0000 0000 f212 023d a446 c63c a797 cc3c
00000130: 2bc7 cd3d fe68 b2bc dadd dfbc 62ee b13d
00000140: 977e 2739 f42c c33d 4a22 683d 86fe e63d
00000150: 7b6f 783d 043a c9bb 3aeb 6a3d 5438 66bc
00000160: 8b28 09bd 16e8 b63b 4193 f1bb 8a3e acbb
00000170: bd09 943d 1d93 09bd 1d64 07be 8f8d 8a3d
00000180: eaa2 b93c 487c 3c3d 60a5 d93d 037c a03d
00000190: 2218 993d c043 9b3d 6225 993d af30 c2bd
000001a0: 5c6d b3bd bd05 a4bd abb1 2d3d 6924 853d
000001b0: c0ae 2bbd 6589 19bc 974d 043e f07a 56ba
000001c0: cb01 d13c cb4c 923d daaa 8f3d 544c 543d
000001d0: 40f3 133b b848 a53b 113a 8ebc 9049 6ebc
000001e0: 1edf d63d de11 debc 0c4f 6fbd c8df 1b3d
000001f0: 115b babd 3595 b13b 2b1e b2b9 5ccd bc3d

shared_net.4.weight f4 [64, 128]
0.017296262 0.09608474 -0.074843995 -0.13169384 -0.08900394 -0.032343104 -0.121033706 -0.18451075
0.06047858 0.22376093 0.00087086397 0.047087107 0.04477627 0.042298198 0.13627228 -0.19799449
-0.0821997 -0.050283805 -0.14047876 -0.032120038 0.25523365 -0.09703913 -0.016348926 -0.163612
0.00157707 0.087891296 0.25227568 0.18595283 -0.23573166 -0.10860267 0.15406649 -0.09690794
0.14519961 -0.0076588397 -0.053964153 0.07849996 0.14711763 -0.13127476 -0.03044934 0.22364797
0.09965245 -0.068115056 0.100950204 -0.04212618 -0.19206922 0.06652485 -0.20685501 0.08753284
-0.10354307 -0.09909655 -0.056247085 -0.056662 -0.13422139 0.22684707 -0.12324158 -0.115335315
-0.066191666 -0.11094914 -0.028917192 -0.085880965 0.1207956 -0.17593208 -0.03892726 0.041038204
0.084493235 0.119781494 -0.06654865 0.010358812 0.07400561 -0.13427986 -0.24175876 -0.14154898
-0.21315749 -0.10965467 -0.0476833 0.07297453 -0.067756586 0.14950888 -0.011025308 -0.1084558
0.073679134 -0.18144196 -0.03801279 -0.09562576 -0.14602935 0.01104776 -0.016944861 0.3157765
0.07898683 -0.047724366 0.27327034 0.14385857 0.010772735 0.16206087 -0.17369863 -0.10672935
-0.22850768 -0.053214394 0.26824933 -0.04409572 -0.075192764 -0.06966374 -0.006713729 -0.17636324
0.18414804 -0.0845973 0.041344985 0.14903283 -0.15661396 0.03859085 -0.038156446 -0.06566201
-0.08747042 -0.043116022 0.004357103 -0.0070180884 0.04812192 0.13553846 -0.109572574 -0.096657254
-0.17667338 0.09808495 -0.08732665 -0.08534627 0.046779897 -0.16713469 -0.12379437 0.15340543
0.13891347 -0.12080272 -0.054667786 0.12506369 0.018192936 0.42124188 0.108342804 -0.3935244
0.022084672 -0.047543515 0.06414839 -0.09799082 -0.12802827 -0.033142436 -0.09196619 -0.030393042
-0.14039682 0.14886735 -0.055392653 -0.014903374 -0.17884903 0.07842871 0.102515265 -0.118582696
-0.2269951 -0.02206891 -0.10763051 -0.14552139 0.10076919 -0.09848078 0.27019694 -0.06774766
0.12825972 0.039068203 0.114615016 -0.14041899 -0.07519705 -0.2554731 0.021033607 -0.12844819
0.15777142 -0.009293699 0.052432403 -0.024261022 -0.21284294 0.16812989 0.25134698 0.019509707
-0.12188417 -0.06407016 -0.036078345 -0.14392625 0.18770148 -0.12093422 0.04366767 -0.04511767
0.18895704 -0.18299273 0.1091979 -0.061839484 0.36649823 0.052917194 -0.4860418 -0.11426689
0.18549183 0.08733208 0.09261662 0.1581234 -0.045535754 -0.120937034 0.13832243 0.038805667
-0.085675314 0.08140592 0.029157026 0.08499909 -0.0960867 0.06443774 0.07886862 0.21529756
-0.1012487 -0.058139123 0.2709217 0.093966365 -0.022105595 0.035555538 0.047475506 -0.113530144
-0.035777774 0.060219124 -0.015954193 0.06861767 0.033964362 0.071329996 0.21634403 -0.17677923
0.10021202 -0.05161025 -0.006898251 -0.026071193 -0.08636949 -0.16145052 0.19417565 0.08635812
0.08127601 -0.025023751 0.03939152 0.13523696 0.08870414 -0.041265503 0.23830885 -0.09349792
-0.17205249 0.14625497 -0.07223291 -0.07604636 0.0151306335 -0.067217976 -0.024088964 -0.01917603
-0.14745478 0.1437315 0.27658883 0.11251744 -0.24216932 -0.042233504 -0.15338847 0.029345771
00000000: e4b0 8d3c 13c8 c43d cf47 99bd c0da 06be
00000010: b347 b6bd 347a 04bd 85e0 f7bd 63f0 3cbe
00000020: 63b8 773d 9621 653e b14a 643a 69de 403d
00000030: 5267 373d e040 2d3d f68a 0b3e 11bf 4abe
00000040: 5158 a8bd 64f6 4dbd aad9 0fbe 4d90 03bd
00000050: fcad 823e 74bc c6bd 2fee 85bc e789 27be
00000060: b0b5 ce3a 5a00 b43d 472a 813e 6b6a 3e3e
00000070: a463 71be 146b debd 9bc3 1d3e ac77 c6bd
00000080: 35af 143e 01f7 fabb 8409 5dbd 96c4 a03d
00000090: 01a6 163e e46c 06be e570 f9bc f903 653e
000000a0: 9516 cc3d e87f 8bbd fbbe ce3d 808c 2cbd
000000b0: cbad 44be 2e3e 883d cdd1 53be 6b44 b33d
000000c0: 640e d4bd 22f3 cabd 5863 66bd 6a16 68bd
000000d0: 5571 09be 994a 683e 1566 fcbd ec34 ecbd
000000e0: 7f8f 87bd 4d39 e3bd bfe3 ecbc 5ce2 afbd
000000f0: af63 f73d 8a27 34be 3172 1fbd ad17 283d
00000100: ca0a ad3d 0050 f53d a94a 88bd 02b8 293c
00000110: 4190 973d a980 09be 9c8f 77be 37f2 10be
00000120: f545 5abe a192 e0bd 904f 43bd ac73 953d
00000130: f7c3 8abd db18 193e 7ea3 34bc 131e debd
00000140: 16e5 963d eccb 39be 4db3 1bbd 70d7 c3bd
00000150: b888 15be aa01 353c f3cf 8abc 75ad a13e
00000160: d9c3 a13d a07a 43bd 17ea 8b3e a94f 133e
00000170: 2080 303c 49f3 253e 0ede 31be eb94 dabd
00000180: ebfd 69be 56f7 59bd fa57 893e b79d 34bd
00000190: aafe 99bd ddab 8ebd d7fe dbbb 9198 34be
000001a0: 4e91 3c3e 5941 adbd 5c59 293d 109c 183e
000001b0: 695f 20be 7011 1e3d ef49 1cbd ce79 86bd
000001c0: b123 b3bd 6d9a 30bd 07c6 8e3b fef7 e5bb
000001d0: 7e1b 453d 98ca 0a3e 9667 e0bd 3df4 c5bd
000001e0: dee9 34be c3e0 c83d 51d8 b2bd 06ca aebd
000001f0: 479c 3f3d 5b25 2bbe e787 fdbd 5016 1d3e
00000200: 553f 0e3e 6b67 f7bd 54eb 5fbd b210 003e
00000210: 5a09 953c 04ad d73e d5e2 dd3d 087c c9be
00000220: eaea b43c fdbc 42bd 3b60 833d 69af c8bd
00000230: d819 03be 5dc0 07bd c558 bcbd d4fa f8bc
00000240: 2fc4 0fbe af70 183e 68e3 62bd 482d 74bc
00000250: 3324 37be 3b9f a03d 86f3 d13d 7cdb f2bd
00000260: 6771 68be dcc9 b4bc 636d dcbd 8f03 15be
00000270: 1460 ce3d 4bb0 c9bd 4157 8a3e 49bf 8abd
00000280: 8456 033e fb05 203d 47bb ea3d ffc9 0fbe
00000290: e900 9abd 5fcd 82be ac4e ac3c ec87 03be
000002a0: d58e 213e 9944 18bc 5cc3 563d 0dbf c6bc
000002b0: 80f3 59be 3e2a 2c3e 8db0 803e d2d2 9f3c
000002c0: 689e f9bd 3737 83bd e3c6 13bd 6761 13be
000002d0: d134 403e 5cac f7bd dfdc 323d 4ecd 38bd
000002e0: f47d 413e 7262 3bbe 26a3 df3d 664b 7dbd
000002f0: a8a5 bb3e b3bf 583d 79da f8be c204 eabd
00000300: 92f1 3d3e 29db b23d c8ad bd3d 1aeb 213e
00000310: b383 3abd d6ad f7bd 65a4 0d3e b1f2 1e3d
00000320: 8a76 afbd 26b8 a63d b7da ee3c 0114 ae3d
00000330: 1bc9 c4bd eff7 833d df85 a13d f776 5c3e
00000340: 7a5b cfbd 4a23 6ebd 40b6 8a3e 7071 c03d
00000350: cb16 b5bc afa2 113d ad75 423d 7e82 e8bd
00000360: b78b 12bd 54a8 763d 5eb2 82bc 6c87 8c3d
00000370: 371e 0b3d 7615 923d 4a89 5d3e 9d05 35be
00000380: f63b cd3d 4565 53bd b90a e2bb 4193 d5bc
00000390: 7de2 b0bd 4953 25be fbd5 463e 87dc b03d
000003a0: 0974 a63d 9cfe ccbc 0159 213d 8f7b 0a3e
000003b0: 84aa b53d 0406 29bd 3c07 743e d67b bfbd
000003c0: 872e 30be ddc3 153e d9ee 93bd 32be 9bbd
000003d0: 7ae6 773c 94a9 89bd 3856 c5bc 0d17 9dbc
000003e0: 63fe 16be 5a2e 133e 0d9d 8d3e 8b6f e63d
000003f0: 3cfb 77be 0afd 2cbd de11 1dbe 8b66 f03c

shared_net.4.bias f4 [64]
-0.0027147657 0.06566861 -0.0026509804 0.018347377 0.14188154 0.03664308 0.050877947 0.010825577
0.08959589 0.016539797 -0.014377724 -0.017771026 0.05882554 0.03969216 0.10376492 -0.023376469
0.0475625 -0.012570821 -0.0062044775 0.0 0.116522536 0.01749845 0.03948936 0.076621056
-0.005914562 0.04123762 -0.011020497 0.05478341 0.06583917 -0.011976331 0.1095908 0.07700668
-0.01681068 -0.029880775 0.024619842 0.057964504 0.022974962 0.058800183 0.011471241 -0.058665335
0.05626797 0.07999036 0.19216268 0.051861104 0.0025059273 0.09235766 0.013070207 -0.010075398
0.06170356 0.0 0.025730528 -0.015829725 0.056460377 0.0161777 -0.0020575281 -0.009589874
0.021739786 0.03151889 0.12628168 -0.008573269 0.083046615 0.0024679706 0.051481422 0.0018295136
00000000: 36ea 31bb 447d 863d 12bc 2dbb 3d4d 963c
00000010: 6549 113e 0e17 163d 6565 503d c35d 313c
00000020: 0d7e b73d 787e 873c 8c90 6bbc 8b94 91bc
00000030: 0df3 703d 3f94 223d b482 d43d 0280 bfbc
00000040: e5d0 423d d8f5 4dbc ee4e cbbb 0000 0000
00000050: 5ea3 ee3d e958 8f3c 98bf 213d 80eb 9c3d
00000060: f1ce c1bb c7e8 283d 518f 34bc 9264 603d
00000070: b0d6 863d 5f38 44bc 2471 e03d aeb5 9d3d
00000080: 8db6 89bc 87c8 f4bc 8daf c93c 306c 6d3d
00000090: fd35 bc3c 76d8 703d dff1 3b3c 104b 70bd
000000a0: 3e79 663d fcd1 a33d 4bc6 443e 4f6c 543d
000000b0: 7c3a 243b 0326 bd3d 6c24 563c 4813 25bc
000000c0: dfbc 7c3d 0000 0000 d4c8 d23c 57ad 81bc
000000d0: ff42 673d 1987 843c 98d7 06bb d91e 1dbc
000000e0: a317 b23c f419 013d fc4f 013e e576 0cbc
000000f0: 5814 aa3d adbd 213b 2fde 523d 4acc ef3a

actor.0.weight f4 [32, 64]
0.005191775 0.55501413 0.21535896 -0.16172132 0.37124953 0.111594215 0.064362176 0.21763815
0.01956614 -0.0357907 0.21623969 -0.011319064 -0.098337084 -0.007152628 0.27005804 -0.0841848
0.47793016 -0.2964144 -0.006754149 -0.17625076 0.2533503 0.097660325 0.08320885 0.1502592
0.1484983 0.35957688 -0.20403424 -0.16331933 0.07399818 0.29084966 0.1036196 0.3519283
0.04884443 -0.10251322 0.0062301964 -0.014985098 -0.25580436 0.40866196 0.17364445 0.16678393
0.13348322 0.18740693 -0.027021846 0.04816923 -0.21621367 0.11178099 0.0029983588 -0.04329454
-0.11912326 -0.03780392 0.30555224 -0.009902973 -0.020688143 -0.056379925 -0.31135976 0.24548163
-0.05989897 -0.02680381 0.05673266 -0.060987517 -0.072701484 0.20703588 -0.056332137 0.20098583
0.055951726 0.26338312 0.11072444 -0.043108054 0.19950564 0.24463041 -0.07284085 0.0954398
0.4372446 -0.2749893 0.0073715006 0.34263533 0.24654123 0.25159794 0.07990454 0.10669261
-0.21201341 -0.11624261 -0.010967281 0.30645806 0.015985122 0.058926295 0.16549808 -0.35533422
0.04060874 -0.15199918 -0.019566935 -0.21417315 0.18555701 -0.0648712 -0.19796528 0.12889993
0.014889343 0.16905473 -0.18711062 -0.10055268 0.30460697 0.100246 -0.101227455 -0.10532216
0.10106479 -0.11542847 0.2715847 0.10764001 0.13986185 -0.1607125 0.11370374 -0.18083474
-0.005111689 0.36350814 0.07983818 0.29309955 -0.38960215 -0.06323192 -0.19800888 -0.18162276
-0.17031462 0.17791232 -0.09399247 0.1065205 0.3697635 0.120217755 0.10456707 0.037841238
0.19925454 -0.041052286 -0.29792172 0.26889583 -0.0042732293 -0.10741885 0.07083887 -0.053039577
0.19255139 0.032929305 -0.20397002 0.3875278 0.118021026 0.15382317 0.42004493 -0.25122705
-0.33452564 -0.19257174 -0.052395977 -0.047197282 -0.012016416 -0.05753504 -0.16984445 -0.28503016
-0.067993455 0.18032563 -0.018647704 -0.014979472 0.19443159 0.32437813 0.03627571 0.042912956
0.04736826 -0.053256597 -0.117819004 -0.085629836 -0.079430036 0.023858754 -0.051845014 0.062105652
0.07097881 0.21512543 0.18440399 -0.027629241 -0.0643287 -0.18645842 -0.07134504 0.019865135
0.18327145 0.039106596 0.09023869 -0.034365185 0.5680048 -0.22152954 -0.19523168 0.1779725
-0.26053572 0.37070525 0.013122365 0.073280066 0.0783103 -0.061174 -0.42030203 -0.26253355
0.016467214 -0.05626795 0.19284071 0.09870617 -0.27087194 -0.4883261 -0.054655537 -0.034191098
-0.087073594 -0.22009312 0.14364314 0.3126981 -0.3027071 0.19482979 0.016755102 -0.11157414
-0.26773378 -0.26655287 0.08723827 0.04212769 0.0014169953 0.08775245 0.14316314 0.123679146
0.2318372 -0.096040174 -0.2519962 -0.0823959 -0.13006034 -0.36343846 -0.03559757 0.38683614
0.03392263 -0.42900386 0.015759446 -0.26116678 -0.035045907 -0.09265863 0.006988716 -0.2438238
-0.08217802 0.1640033 -0.19797686 0.14689296 0.11587083 -0.021244496 -0.08895596 0.14239381
0.04681951 -0.09243877 -0.054493267 0.1889028 -0.019267447 -0.05793854 -0.10812088 -0.19504872
-0.10698898 -0.19969374 -0.25648928 -0.053971056 -0.12626833 -0.13693699 -0.03583003 0.018813727
00000000: c41f aa3b 6815 0e3f 0f87 5c3e 469a 25be
00000010: 6b14 be3e 828b e43d 51d0 833d 89dc 5e3e
00000020: 2b49 a03c 4599 12bd f06d 5d3e 9873 39bc
00000030: f464 c9bd 9860 eabb 0c45 8a3e 1569 acbd
00000040: 43b3 f43e a1c3 97be e951 ddbb 147b 34be
00000050: 21b7 813e 2302 c83d 6769 aa3d 8cdd 193e
00000060: f00f 183e 761a b83e 5aee 50be 2f3d 27be
00000070: 5c8c 973d 3fea 943e 8336 d43d f22f b43e
00000080: 1911 483d 73f2 d1bd ad26 cc3b 0e84 75bc
00000090: caf8 82be 243c d13e dacf 313e 68c9 2a3e
000000a0: d3af 083e 9ae7 3f3e eb5c ddbc 194d 453d
000000b0: 1e67 5dbe 6fed e43d 1d80 443b 9e55 31bd
000000c0: e5f6 f3bd 49d8 1abd 5871 9c3e 1440 22bc
000000d0: 2e7a a9bc a3ee 66bd 8c6a 9fbe 895f 7b3e
000000e0: 9f58 75bd aa93 dbbc 8160 683d 0cce 79bd
000000f0: 84e4 94bd 3701 543e 87bc 66bd 3bcf 4d3e
00000100: a32d 653d 27da 863e 7fc3 e23d 1292 30bd
00000110: 354b 4c3e 6580 7a3e 952d 95bd f175 c33d
00000120: 86de df3e 66cb 8cbe a18c f13b e66d af3e
00000130: 4e75 7c3e 72d1 803e fea4 a33d a881 da3d
00000140: 0b1a 59be 9b10 eebd 1cb0 33bc 12e8 9c3e
00000150: 3bf3 823c b35c 713d 5478 293e 5eee b5be
00000160: 5a55 263d aca5 1bbe d64a a0bc 3550 5bbe
00000170: a802 3e3e 31db 84bd 69b7 4abe 58fe 033e
00000180: 6ef2 733c af1c 2d3e ed99 3fbe 90ee cdbd
00000190: 72f5 9b3e c64d cd3d 5750 cfbd 25b3 d7bd
000001a0: 0efb ce3d c365 ecbd 260d 8b3e 5e72 dc3d
000001b0: f237 0f3e d191 24be 82dd e83d be2c 39be
000001c0: f57f a7bb bd1d ba3e 3382 a33d 2511 963e
000001d0: ef79 c7be bd7f 81bd d7c2 4abe 51fb 39be
000001e0: f566 2ebe a62e 363e 207f c0bd 6b27 da3d
000001f0: a451 bd3e ba34 f63d 4327 d63d 6aff 1a3d
00000200: 6209 4c3e 7126 28bd 3289 98be b7ac 893e
00000210: 7206 8cbb 6afe dbbd f813 913d 0740 59bd
00000220: 312c 453e e1e0 063d 84dd 50be 0b6a c63e
00000230: 02b5 f13d d283 1d3e 2110 d73e d5a0 80be
00000240: f246 abbe 8731 45be 2a9d 56bd f051 41bd
00000250: 80e0 44bc dda9 6bbd b4eb 2dbe 79ef 91be
00000260: 2740 8bbd 48a7 383e 12c3 98bc 766c 75bc
00000270: 1319 473e e414 a63e d795 143d 7fc5 2f3d
00000280: 3805 423d 9723 5abd 174b f1bd b25e afbd
00000290: 37ac a2bd 6f73 c33c 705b 54bd 7f62 7e3d
000002a0: 575d 913d d749 5c3e 66d4 3c3e b856 e2bc
000002b0: c4be 83bd f5ee 3ebe 591d 92bd 35bc a23c
000002c0: 83ab 3b3e 3d2e 203d 10cf b83d 82c2 0cbd
000002d0: c368 113f a4d8 62be d0ea 47be 6c3e 363e
000002e0: f064 85be 14cd bd3e 30ff 563c dc13 963d
000002f0: 2761 a03d 9791 7abd d431 d7be cc6a 86be
00000300: 40e6 863c 3979 66bd 0978 453e 7626 ca3d
00000310: baaf 8abe e105 fabe 7cde 5fbd f70b 0cbd
00000320: a453 b2bd 1760 61be 3017 133e f719 a03e
00000330: 6dfc 9abe 7681 473e ff41 893c fc80 e4bd
00000340: 6714 89be 9e79 88be faa9 b23d 168e 2c3d
00000350: 79ba b93a 8eb7 b33d 5c99 123e 7e4b fd3d
00000360: bb66 6d3e b6b0 c4bd a505 81be 2ebf a8bd
00000370: 8a2e 05be 9b14 babe c2ce 11bd 630f c63e
00000380: 75f2 0a3d 65a6 dbbe f419 813c a7b7 85be
00000390: 4c8c 0fbd cfc3 bdbd 9901 e53b f2ac 79be
000003a0: f34c a8bd 7bf0 273e 72ba 4abe 1c6b 163e
000003b0: b04d ed3d f008 aebc 8b2e b6bd afcf 113e
000003c0: d1c5 3f3d 8a50 bdbd 5534 5fbd bc6f 413e
000003d0: c4d6 9dbc f650 6dbd 7b6e ddbd daba 47be
000003e0: 0a1d dbbd 847c 4cbe 9052 83be c110 5dbd
000003f0: 7c4c 01be 3639 0cbe 82c2 12bd 3f1f 9a3c

actor.0.bias f4 [32]
0.0743335 0.023495587 0.09994346 -0.022682775 0.012855809 -0.104025155 -0.009837127 0.0
0.011307618 0.012180735 -0.03311247 -0.027067645 0.013590722 0.005915103 -0.0027550207 -0.05212273
0.0 0.011954704 0.030304123 -0.06822932 -0.024528183 -0.0051713344 0.07826791 0.053116743
-0.0049471604 0.010095548 -0.0044881585 0.083806224 -0.037487548 0.059836764 -0.015648447 0.026374679
00000000: 293c 983d d179 c03c 28af cc3d 3ad1 b9bc
00000010: 2ca1 523c 240b d5bd e72b 21bc 0000 0000
00000020: 9643 393c b591 473c f1a0 07bd f7bc ddbc
00000030: 9fab 5e3c 7bd3 c13b 948d 34bb a57e 55bd
00000040: 0000 0000 aadd 433c 5a40 f83c d0bb 8bbd
00000050: 54ef c8bc 4c74 a9bb ed4a a03d f190 593d
00000060: ca1b a2bb cc67 253c 6711 93bb 99a2 ab3d
00000070: 8b8c 19bd 6517 753d 2c31 80bc b60f d83c

actor.2.weight f4 [9, 32]
0.39993006 0.0040474995 0.19208266 0.11004404 0.055854205 0.054775868 0.23838502 -0.16775733
0.09764478 0.12742384 -0.36389732 0.35253853 -0.32608506 0.18538345 0.4275945 -0.067490056
-0.23242164 -0.40041468 -0.22113587 0.2771746 0.17874463 -0.15428907 -0.278353 -0.4157979
0.09897009 0.031017495 0.7432549 0.23922817 0.23451628 0.0033825075 0.6114973 -0.4759027
-0.15773499 -0.6042346 0.5942835 0.38420734 -0.1967085 0.01986795 -0.05406173 -0.10425403
-0.60982925 -0.084540896 -0.5142794 -0.10056306 0.13337488 -0.09904713 -0.16647555 0.16222042
0.16699466 0.09628772 0.15094492 -0.178512 -0.00787267 0.14552268 0.004149253 0.12252043
-0.18652794 0.23900656 -0.08812359 0.006880735 -0.23526683 0.31010562 0.10706185 0.23459934
-0.19021884 0.065664716 -0.061029527 -0.35675347 0.18032995 0.5376904 0.44704142 0.29683957
-0.09772278 -0.1586705 -0.24817552 0.17718057 -0.34486595 0.62177026 0.21863443 0.082048394
0.04569034 -0.23911525 -0.016275764 -0.3737849 -0.30238956 0.17699288 -0.30914843 0.52806705
0.20188077 -0.132954 -0.30890518 0.41931888 -0.13875 -0.016151391 0.10170492 0.052463617
0.03353976 -0.75102663 -0.15765162 0.0069341874 0.3440986 -0.18831295 0.2550701 -0.13852741
0.33114243 -0.2821219 0.27518022 0.05194291 -0.19555238 0.14318441 0.12812255 -0.44186914
0.26558214 -0.13362397 0.3609212 0.13669272 0.32515058 0.028332828 0.19809133 0.33700973
-0.33027908 -0.007335536 0.12821592 -0.14675246 0.0086108195 -0.010665712 -0.0031374155 0.23301856
-0.13325052 0.15890813 0.4562344 -0.06479131 0.29954663 -0.09032125 -0.40619025 0.24298573
-0.044627767 -0.45698512 0.39440253 0.42219883 -0.27352494 0.06211965 0.09443935 0.349113
-0.23666838 -0.16118273 -0.04593395 0.17832328 -0.16084288 -0.054603867 -0.42497367 0.24967027
-0.34842864 0.23311357 -0.24765491 -0.110973425 0.29054043 0.47124398 0.12245103 -0.19892702
-0.069352955 -0.028738277 0.114230886 -0.054334845 -0.18481898 0.34377605 0.5053967 0.013713161
-0.3178626 0.112153254 0.33623484 0.05966323 0.23689403 -0.35585985 0.30184862 0.1627791
-0.11819357 0.5213072 0.10781037 -0.1935401 0.16647492 0.35319805 -0.24189515 0.14741693
0.2842379 0.66246855 -0.22431257 -0.13601942 0.00403855 0.3780768 -0.20206054 -0.4688701
0.59762716 -0.23875721 -0.2881831 -0.13736428 -0.3478124 -0.06165806 -0.039115712 -0.1456346
-0.040619984 -0.08185387 0.37047216 0.31045496 0.051795047 -0.1317759 -0.3334508 0.2308029
0.33511895 -0.110990874 0.50753605 -0.22698522 -0.2733831 -0.25566286 -0.2183707 0.31027317
0.33170113 0.24097757 0.35475147 0.058375355 -0.046519075 -0.40672562 0.27038172 -0.07658938
0.2725727 0.06194884 -0.21978979 -0.019179795 -0.27826098 -0.23942067 -0.26424834 0.7188884
-0.1940608 -0.07133942 -0.14447284 -0.18822229 -0.020330334 0.31896275 -0.20092374 -0.6067363
-0.22745806 -0.1871746 0.17555612 0.30866027 0.2913402 0.22115141 0.36900643 0.24223651
-0.0071845003 0.4760218 0.20917587 -0.058372594 -0.3391427 -0.13653746 -0.17132674 -0.05346541
00000000: a2c3 cc3e e3a0 843b 51b1 443e c55e e13d
00000010: 61c7 643d a95c 603d 341b 743e 94c8 2bbe
00000020: fdf9 c73d 657b 023e c050 babe ee7f b43e
00000030: 9ff4 a6be 29d5 3d3e abed da3e 3a38 8abd
00000040: f0ff 6dbe 2703 cdbe 7171 62be d4e9 8d3e
00000050: d508 373e f4fd 1dbe 4984 8ebe 76e3 d4be
00000060: d5b0 ca3d 6718 fe3c f445 3e3f 3bf8 743e
00000070: 0925 703e 0fad 5d3b 168b 1c3f 85a9 f3be
00000080: 4885 21be 1eaf 1abf f722 183f d3b6 c43e
00000090: f46d 49be 1cc2 a23c d56f 5dbd 2383 d5bd
000000a0: c51d 1cbf c723 adbd d1a7 03bf 01f4 cdbd
000000b0: 6d93 083e 39d9 cabd 9178 2abe 1c1d 263e
000000c0: a600 2b3e 7f32 c53d 4e91 1a3e dacb 36be
000000d0: 5ffc 00bc e603 153e 75f6 873b feeb fa3d
000000e0: 2e01 3fbe 23be 743e 247a b4bd ca77 e13b
000000f0: cae9 70be 2ac6 9e3e 3e43 db3d cf3a 703e
00000100: bac8 42be 397b 863d 19fa 79bd 64a8 b6be
00000110: 6aa8 383e 14a6 093f 9de2 e43e 5bfb 973e
00000120: e222 c8bd 857a 22be b921 7ebe d36e 353e
00000130: 4592 b0be 562c 1f3f b4e1 5f3e fd08 a83d
00000140: cb25 3b3d a1da 74be c054 85bc bc60 bfbe
00000150: ced2 9abe 9f3d 353e b448 9ebe 672f 073f
00000160: d5b9 4e3e 1825 08be d228 9ebe f7b0 d63e
00000170: 7b14 0ebe ec4f 84bc ab4a d03d 17e4 563d
00000180: fd60 093d 4843 40bf 6d6f 21be 2e38 e33b
00000190: b12d b03e 1cd5 40be 8c98 823e 21da 0dbe
000001a0: 808b a93e 4872 90be 6ce4 8c3e 17c2 543d
000001b0: e23e 48be ef9e 123e 8f32 033e ac3c e2be
000001c0: 62fa 873e b9d4 08be aaca b83e 2df9 0b3e
000001d0: 237a a63e 3f1a e83c 74d8 4a3e 8a8c ac3e
000001e0: 571a a9be f05e f0bb 094b 033e 4746 16be
000001f0: 6514 0d3c 3dbf 2ebc 199d 4dbb 6b9c 6e3e
00000200: d372 08be d0b8 223e 8e97 e93e 4eb1 84bd
00000210: 2d5e 993e 59fa b8bd 2bf8 cfbe 40d1 783e
00000220: 9bcb 36bd f4f9 e9be 21ef c93e 722a d83e
00000230: 760b 8cbe 2d71 7e3d 6b69 c13d f0be b23e
00000240: 3259 72be 160d 25be 3d25 3cbd 619a 363e
00000250: ffb3 24be 4ea8 5fbd 2696 d9be 90a9 7f3e
00000260: 3d65 b2be 53b5 6e3e 4099 7dbe 0946 e3bd
00000270: b7c1 943e e446 f13e 9bc7 fa3d 86b3 4bbe
00000280: ec08 8ebd 896c ebbc e2f1 e93d 378e 5ebd
00000290: 3041 3dbe 6a03 b03e ae61 013f 2bad 603c
000002a0: e3be a2be 9bb0 e53d f926 ac3e 6e61 743d
000002b0: 5994 723e 4333 b6be e78b 9a3e 90af 263e
000002c0: 780f f2bd 6374 053f afcb dc3d 602f 46be
000002d0: 6778 2a3e 60d6 b43e 5db3 77be 77f4 163e
000002e0: a187 913e 8a97 293f 32b2 65be ad48 0bbe
000002f0: d055 843b 4893 c13e f5e8 4ebe be0f f0be
00000300: 18fe 183f c57c 74be bc8c 93be 39a9 0cbe
00000310: 7814 b2be 298d 7cbd cc37 20bd 3d21 15be
00000320: 2461 26bd 00a3 a7bd 87ae bd3e f4f3 9e3e
00000330: 0b27 543d 43f0 06be 10ba aabe 9857 6c3e
00000340: b694 ab3e 2f4f e3bd e2ed 013f d06e 68be
00000350: dff8 8bbe 3ee6 82be 929c 5fbe 20dc 9e3e
00000360: bbd4 a93e d3c2 763e fca1 b53e ff1a 6f3d
00000370: c98a 3ebd 573e d0be 796f 8a3e e5da 9cbd
00000380: a68e 8b3e 11be 7d3d 9310 61be f21e 9dbc
00000390: 3978 8ebe b12a 75be 8f4b 87be 1209 383f
000003a0: e0b7 46be 671a 92bd b0f0 13be 58bd 40be
000003b0: cd8b a6bc 164f a33e f4be 4dbe 1253 1bbf
000003c0: c4ea 68be b3aa 3fbe fcc4 333e b808 9e3e
000003d0: 8b2a 953e 8475 623e 69ee bc3e d90c 783e
000003e0: f56b ebbb 21b9 f33e 3332 563e 1a18 6fbd
000003f0: 1da4 adbe 7ad0 0bbe 4770 2fbe 8cfe 5abd

actor.2.bias f4 [9]
-0.01539827 0.15457684 -0.04640642 0.041546028 -0.019573163 0.045469664 0.07739208 0.10697879
-0.10433772
00000000: 0749 7cbc 6449 1e3e a914 3ebd 2b2c 2a3d
00000010: e657 a0bc 663e 3a3d bd7f 9e3d b217 db3d
00000020: 04af d5bd

critic.0.weight f4 [32, 64]
0.13024992 -0.058443844 0.20364287 0.1424631 0.104342975 0.33806476 -0.12835737 -0.030232986
0.13923994 -0.14341003 -0.4319085 0.42609566 -0.007600061 0.09053112 -0.014930699 -0.099100426
0.04101642 0.075302795 -0.06846899 -0.27574575 0.07154684 -0.22768891 -0.0648837 0.26476842
-0.043656543 0.2968443 -0.0070232605 -0.21176797 0.23328646 0.25604185 0.29418126 0.07871235
0.024735657 0.07963578 -0.08853291 -0.23933144 0.24065495 -0.09573249 0.08215286 -0.28720537
-0.004769311 0.09705823 0.23431863 -0.19709633 -0.27750927 0.11074267 -0.23016384 -0.3134765
0.11603486 -0.35590494 -0.023101026 0.13349225 -0.12825166 -0.21350072 -0.043555003 0.07996156
0.22284599 -0.1657171 0.43693525 -0.24681377 0.0041459557 -0.05897582 0.4553613 0.10181359
0.24217843 -0.018820252 -0.17203102 -0.08412265 0.24363458 -0.075130835 0.46774364 -0.07444793
-0.30755994 0.0018615485 0.18608552 -0.17856978 0.17921315 0.11230977 0.12287061 0.30466586
0.025843097 -0.42856994 -0.14167468 0.054885138 0.3845478 0.11529215 0.19775862 0.11548939
0.012434003 0.044908985 0.18227427 -0.19550766 0.066079795 -0.044969026 0.09799523 -0.03445511
0.17681867 0.27771634 -0.152282 -0.061480552 0.33916083 0.050272536 0.5613506 -0.3463447
-0.26473546 0.098861784 0.0060900133 0.2492237 -0.004922265 -0.033749968 0.12548307 0.18140572
0.09966028 0.038938355 0.32110184 0.09251582 0.073731996 0.06581331 -0.14847377 -0.12487591
-0.043671593 0.04758247 -0.078348115 0.026796144 -0.16330785 0.24886976 0.060982563 -0.06514102
0.022676144 -0.3493788 0.09412146 -0.18761805 -0.19793162 0.06280455 -0.21821171 -0.042326998
-0.017023588 -0.29571632 0.043515768 0.06807602 0.26914626 0.08125012 -0.14624323 0.081689835
-0.16510257 0.13771445 0.30303627 0.047220327 0.032446146 -0.04760435 -0.005154352 -0.20011085
0.15712993 -0.1480341 -0.043646723 0.047499407 0.022970017 0.29065186 -0.25435427 0.3183557
-0.21599317 0.18129429 -0.05986841 0.09027587 0.035902098 -0.15210983 0.26516503 -0.18385653
-0.056628548 -0.014452483 -0.15181492 -0.42186347 0.08291457 0.017964961 0.3110762 0.15211484
0.10850462 0.06408468 -0.017405774 0.38348076 -0.21256125 -0.22231063 0.025200767 0.07884161
-0.30692202 -0.0077902433 -0.32891405 0.0028641373 -0.0058910926 -0.15004937 0.08524063 -0.10485313
-0.032618377 0.026236549 -0.2171049 -0.07248785 0.22221659 0.17764147 -0.034142952 0.17944944
0.0042962874 -0.19510381 0.028331207 0.15547204 0.060188968 0.15200494 -0.00914008 -0.17420697
0.017767694 -0.06601338 -0.0013331583 0.0021610374 -0.08186847 0.21817797 -0.115421295 -0.1437716
-0.14115621 0.1320084 0.008732167 -0.1517277 -0.5121083 -0.05382755 0.051469933 -0.15508278
0.1638674 0.2544077 0.055296525 -0.08414977 -0.15997961 0.23959559 -0.30492848 -0.3071649
0.090412125 -0.16428337 -0.026550792 -0.15761387 0.114955485 0.017800026 0.11698642 0.0023754474
0.45532677 -0.16528077 -0.00016637235 -0.113889515 0.5197013 -0.102615856 -0.34748113 -0.06356814
-0.014336505 0.049992222 -0.22395617 0.11245174 -0.16369514 -0.27226552 0.14551544 0.05968763
00000000: 3c60 053e d062 6fbd c287 503e d9e1 113e
00000010: c5b1 d53d d316 ad3e 1d70 03be 2bab f7bc
00000020: ea94 0e3e 14da 12be 1c23 ddbe 3629 da3e
00000030: ef09 f9bb 6168 b93d e49f 74bc 2af5 cabd
00000040: d500 283d 5a38 9a3d 7839 8cbd 8c2e 8dbe
00000050: 2687 923d 4827 69be bfe1 84bd ba8f 873e
00000060: 34d1 32bd fafb 973e 6123 e6bb b4d9 58be
00000070: a5e2 6e3e eb17 833e ed9e 963e f133 a13d
00000080: 6fa2 ca3c 1518 a33d be50 b5bd 4d13 75be
00000090: 406e 763e 650f c4bd c23f a83d 950c 93be
000000a0: e147 9cbb 77c6 c63d 39f1 6f3e 9fd3 49be
000000b0: b215 8ebe 0ecd e23d 12b0 6bbe fe7f a0be
000000c0: afa3 ed3d 2c39 b6be 5d3e bdbc 31b2 083e
000000d0: 6754 03be ef9f 5abe bb66 32bd e3c2 a33d
000000e0: bd31 643e beb1 29be fab5 df3e c0bc 7cbe
000000f0: ccda 873b a190 71bd 1e25 e93e a583 d03d
00000100: 9ffd 773e ee2c 9abc e628 30be 7f48 acbd
00000110: 587b 793e 32de 99bd 187c ef3e 2878 98bd
00000120: 7f78 9dbe 34ff f33a 348d 3e3e ffda 36be
00000130: a783 373e aa02 e63d 96a3 fb3d 2afd 9b3e
00000140: e7b4 d33c 856d dbbe 2b13 11be 3dcf 603d
00000150: 73e3 c43e 4a1e ec3d 3c81 4a3e b485 ec3d
00000160: fdb7 4b3c 7cf2 373d 1ba6 3a3e 2933 48be
00000170: d854 873d 7131 38bd b9b1 c83d cd20 0dbd
00000180: f40f 353e d630 8e3e d0ef 1bbe 08d3 7bbd
00000190: 7da6 ad3e 93ea 4d3d acb4 0f3f 1854 b1be
000001a0: 688b 87be 0c78 ca3d bc8e c73b 7f34 7f3e
000001b0: f44a a1bb 683d 0abd a27e 003e 6cc2 393e
000001c0: b01a cc3d d37d 1f3d 7667 a43e ef78 bd3d
000001d0: cd00 973d 21c9 863d 8209 18be f1be ffbd
000001e0: fce0 32bd d6e5 423d fa74 a0bd 9683 db3c
000001f0: 2c3a 27be b7d7 7e3e dac8 793d a868 85bd
00000200: 52c3 b93c c7e1 b2be c1c2 c03d f21e 40be
00000210: 96ae 4abe ac9f 803d e472 5fbe 135f 2dbd
00000220: 0d75 8bbc 2168 97be 973d 323d 716b 8b3d
00000230: 8acd 893e 7766 a63d c9c0 15be 004d a73d
00000240: a610 29be 0405 0d3e 9227 9b3e 1a6a 413d
00000250: 40e6 043d c7fc 42bd d7e5 a8bb dce9 4cbe
00000260: abe6 203e 4096 17be e8c6 32bd bd8e 423d
00000270: 9e2b bc3c 52d0 943e b93a 82be 85ff a23e
00000280: 502d 5dbe 36a5 393e 9438 75bd 8ee2 b83d
00000290: 140e 133d aec2 1bbe b6c3 873e e344 3cbe
000002a0: 56f3 67bd 1bca 6cbc 5f75 1bbe 7dfe d7be
000002b0: 1dcf a93d 412b 933c 6145 9f3e fec3 1b3e
000002c0: ac37 de3d d43e 833d 8e96 8ebc 9757 c43e
000002d0: a8a9 59be 66a5 63be d771 ce3c b677 a13d
000002e0: e224 9dbe 4c45 ffbb 6c67 a8be 40b4 3b3b
000002f0: 110a c1bb 8ba6 19be a492 ae3d 3dbd d6bd
00000300: d99a 05bd 08ee d63c bf50 5ebe 8374 94bd
00000310: bf8c 633e a5e7 353e 7bd9 0bbd 98c1 373e
00000320: dfc7 8c3b 4bc9 47be d916 e83c 1034 1f3e
00000330: b588 763d 2fa7 1b3e 46c0 15bc 5063 32be
00000340: 8e8d 913c 0632 87bd 5fbd aeba 31a0 0d3b
00000350: a8aa a7bd 0c6a 5f3e 0062 ecbd dd38 13be
00000360: 418b 10be 362d 073e 5d11 0f3c 825e 1bbe
00000370: 8819 03bf 477a 5cbd 23d2 523d 05ce 1ebe
00000380: dbcc 273e ba41 823e 9c7e 623d b756 acbd
00000390: b2d1 23be 8c58 753e 961f 9cbe b844 9dbe
000003a0: fe29 b93d e639 28be 0c81 d9bc 8865 21be
000003b0: c86d eb3d 5cd1 913c 9396 ef3d 65ad 1b3b
000003c0: 9720 e93e 5d3f 29be 3d74 2eb9 e83e e9bd
000003d0: 250b 053f 4328 d2bd 0ce9 b1be 0330 82bd
000003e0: a9e3 6abc a5c4 4c3d c454 65be 194d e63d
000003f0: b39f 27be 6366 8bbe 0002 153e 047b 743d

critic.0.bias f4 [32]
0.11921402 0.0030400618 -0.016476523 0.033975154 0.012542973 -0.021774938 0.102728575 0.108944155
0.0077933352 0.038496226 0.0077648475 0.0 0.006674872 0.14777875 0.08309127 0.12112315
0.10375979 0.12276698 0.058809865 -0.0903654 -0.007858374 0.020817911 0.11706947 -0.018595744
-0.023478407 0.010049395 0.10195667 0.04779191 0.015234703 -0.030510899 0.08475249 0.113509305
00000000: 7b26 f43d c63b 473b c6f9 86bc 8829 0b3d
00000010: 0b81 4d3c 5b61 b2bc 5c63 d23d 1d1e df3d
00000020: 3c5f ff3b 38ae 1d3d 4370 fe3b 0000 0000
00000030: e2b8 da3b 5053 173e c12b aa3d 6a0f f83d
00000040: 0380 d43d 416d fb3d 9de2 703d 7f11 b9bd
00000050: 69c0 00bc 538a aa3c 1ec2 ef3d 1a56 98bc
00000060: ca55 c0bc 38a6 243c a9ce d03d 73c1 433d
00000070: fa9a 793c fef1 f9bc b792 ad3d 9177 e83d

critic.2.weight f4 [1, 32]
0.5645011 -0.090190336 0.024164444 0.42688355 -0.29468662 -0.05174266 0.19028842 0.5367336
-0.029968575 -0.064367704 -0.24339405 0.46274394 -0.07405153 1.2080897 0.1458067 0.21418777
0.3471738 0.78270715 -0.46461555 -0.03754229 -0.33720887 -0.24965648 1.1031175 -0.2739608
-0.19023345 -0.07430699 0.27285808 0.038060572 -0.3086958 -0.07871963 0.3732728 0.46846792
00000000: 2583 103f b6b5 b8bd 83f4 c53c 7b90 da3e
00000010: 2ae1 96be 1df0 53bd f8da 423e 6067 093f
00000020: a880 f5bc 37d3 83bd 4a3c 79be c6ec ec3e
00000030: 54a8 97bd afa2 9a3f 5a4e 153e 0a54 5b3e
00000040: c4c0 b13e 7f5f 483f 17e2 edbe f2c5 19bd
00000050: a4a6 acbe f3a5 7fbe f432 8d3f 9744 8cbe
00000060: 8fcc 42be 432e 98bd 0eb4 8b3e 67e5 1b3d
00000070: 600d 9ebe c237 a1bd 9d1d bf3e 07db ef3e
