logs/20250602_160047/checkpoint_episode_500.pt (torch, 453853 bytes, 39 tensors)

shared_net.0.weight f4 [128, 30]
000000 bf ce 9a bd 05 20 6b bc 68 26 32 bd 16 c6 51 3d
       -0.07558965 -0.014350896 -0.04349366 0.0512143
000010 bf b4 06 bd 78 75 12 be 90 b0 76 be 97 2e 3b be
       -0.032887217 -0.14302623 -0.24090791 -0.18279491
000020 b7 8d d4 be b1 cc 39 be 72 c5 03 be 66 cc 12 be
       -0.4151437 -0.1814449 -0.12868288 -0.14335784
000030 47 3d 04 be 35 24 4b be 3b 68 3f be 87 90 a2 be
       -0.12914 -0.1983803 -0.18692105 -0.3175089
000040 17 a5 58 be 95 07 02 be 78 4d c8 bc 60 00 46 be
       -0.21156727 -0.12698205 -0.024451002 -0.1933608
000050 01 ec 76 3d ec 9d 3b be 2b da 37 3e 5d fb 10 be
       0.060283665 -0.18321961 0.17954318 -0.14158387
000060 25 8d d8 3d 40 ec 4b 3d 28 70 38 3d bc 8d ce bc
       0.10573796 0.049785852 0.045028836 -0.025214069
000070 2e e7 32 bd 47 87 54 bd 27 83 2b 3d 6f ad 02 be
       -0.0436775 -0.051886823 0.041873123 -0.12761472
000080 2b c1 6e 3e 05 a9 c3 bd cb 83 e7 bd f0 2b 91 3e
       0.23315875 -0.09553722 -0.113044344 0.28353834
000090 33 c2 4d 3e a1 e2 64 3e 9c d5 e6 3d 29 76 c6 3e
       0.20093612 0.22352077 0.112712115 0.38762024
0000a0 65 e1 7e 3e 47 ad 4e 3e bf 36 bb 3d 81 ba 33 3e
       0.24890669 0.20183288 0.09141301 0.17551614
0000b0 83 34 8a 3e a7 ec 56 3e af 39 c2 3d 51 bb 8f 3e
       0.26993188 0.20988713 0.094836585 0.280726
0000c0 db 0c 81 3e 19 97 61 3e c9 49 92 3e e3 1e 06 3e
       0.2520512 0.22030295 0.2857192 0.1309772
0000d0 0c 74 6c 3e c9 22 95 3e 44 2e 00 bc a0 1e 98 3e
       0.23091143 0.291281 -0.007823531 0.29710865
0000e0 13 88 0a 3e 82 49 cb 3e ec 06 3e 3e 87 22 68 3e
       0.1352847 0.3970452 0.18557328 0.22669421
0000f0 e6 24 9e bd 33 fc 51 bd 38 1d c8 3d ee 4d ed 3d
       -0.077218816 -0.051265907 0.09771198 0.115871295
000100 5b 1d 4f 3d 5a 27 af bb 58 bc 09 bf b4 98 7f bf
       0.050565105 -0.0053452672 -0.53803015 -0.9984238
000110 af bb 7b bf fd 6d 8a bf d2 ef 9d be c0 5f 78 bd
       -0.9833326 -1.0814816 -0.3084703 -0.06063819
000120 e1 21 83 bd df 14 1d bf ad 7e 25 bf b2 dc 34 be
       -0.06402946 -0.6135997 -0.64646417 -0.17662314
000130 a3 6a 6a 3d 92 0e e6 3a cc b4 18 3e 3c 38 90 bd
       0.057230603 0.001755195 0.14912719 -0.07041976
000140 1a ab e5 bc 01 fd 01 3e 7e a4 73 bd 7c 6f ad 3d
       -0.02803569 0.1269417 -0.059483044 0.084685296
000150 f6 6c f4 3c 2b 31 d3 3d c2 d8 03 bd 28 0e 84 3e
       0.029837113 0.103121124 -0.03218914 0.2579205
000160 2e 20 11 3e 2e 67 69 3c 33 01 e6 3d 59 33 19 be
       0.14172432 0.014245791 0.112306975 -0.14960994
000170 12 92 3e 3e 03 ce bd 3d 60 82 75 bd fd 96 8f 3e
       0.18610409 0.09267809 -0.05993879 0.28044882
000180 57 ef 30 bd ac 6a 82 be 22 4a a1 be 21 bc 87 be
       -0.043197002 -0.2547201 -0.3150187 -0.26510718
000190 42 6b 1d 3e 4c 73 e5 bc cc b0 eb bd 4a d0 03 bf
       0.15372947 -0.02800908 -0.11508331 -0.514897
0001a0 4b 68 93 be 1a 3d 2b 3e da 73 e1 bd ca ad 25 be
       -0.28790507 0.16722527 -0.11008425 -0.16179577
0001b0 54 50 9e be 80 c9 08 be 0c 88 bd 3d 4e 10 bb 3d
       -0.3092066 -0.13358116 0.092544645 0.09133969
0001c0 fd d9 7b 3c 13 c5 9c 39 6a 89 a1 3d ea f1 03 3e
       0.015371797 0.0002990147 0.07887538 0.12885252
0001d0 32 1c 9f 3d e5 b2 eb 3d df 7f 6c 3d 41 44 02 be
       0.0776905 0.11508731 0.057739135 -0.1272135
0001e0 af 94 0f bd 0c f9 21 3d 1e cc f6 bd 26 60 bc 3d
       -0.035053905 0.03954415 -0.12050651 0.09198026
0001f0 a8 f9 e8 3b 24 1f 66 3e 6a 53 14 3d 1e cb fa 3d
       0.0071098395 0.22472817 0.036212362 0.12245773
000200 77 d4 6e 3c 9a c1 20 be 01 20 a2 3c 74 71 c4 bd
       0.014577023 -0.15698853 0.019790651 -0.09591952
000210 17 71 5e 3d 5d 48 36 3e 31 ab 0a 3e 9e 8b 36 bd
       0.05430707 0.17801042 0.13541867 -0.044566743
000220 20 e6 6e 3d 77 d4 28 be 09 0d 6c 3b 42 96 74 3d
       0.058324933 -0.16487299 0.0036018512 0.05971361
000230 b1 c5 51 bd 40 46 3d 3e 0f a1 dd 3d 87 18 a3 bd
       -0.051213924 0.1848383 0.10821735 -0.079636626
000240 11 0e 6d 3d 46 d0 17 bd 35 90 78 bd d1 d2 f2 bd
       0.057874743 -0.03706386 -0.0606844 -0.11856616
000250 87 41 ca 3c 7a df 37 be a7 bc e8 bd 30 6a 28 be
       0.024689449 -0.17956343 -0.113641076 -0.16446757
000260 1a f1 a8 bd e9 bc 0d be 15 bd 0b 3e 53 c4 c5 3d
       -0.082491115 -0.13841595 0.13646348 0.096565865
000270 e0 01 00 bd 39 c8 4d bd 29 e5 2a bd ea 3c d9 bb
       -0.03125179 -0.050239775 -0.04172245 -0.006629576
000280 23 38 63 bd bd 84 a1 3d c3 92 2d 3d 4a 90 a5 3b
       -0.055473458 0.07886646 0.04237629 0.005052601
000290 33 d5 e0 3d 0b e7 34 3e cc fa 36 bd fb ee 4e 3d
       0.109781645 0.17666261 -0.044672772 0.05052088
0002a0 1e 2a ce bd c4 08 31 3d 23 0a 43 3b 84 fa 51 bd
       -0.10066627 0.04322125 0.002976068 -0.0512643
0002b0 f1 57 a0 bd a3 83 2f 3e 71 02 76 3e 54 5e 8e bd
       -0.078292735 0.17140059 0.24024369 -0.069515854
0002c0 dc 6d 9f be 80 0f ea bc bc 79 6a be 3e cd 0d be
       -0.31138504 -0.028571844 -0.22898 -0.13847825
0002d0 4d e1 e1 3c 68 33 53 bd 24 40 16 bc ae a3 0a be
       0.027573252 -0.051562697 -0.009170566 -0.13539001
0002e0 09 11 0c be 58 c8 3d 3d b9 d6 98 3e 4d 16 dc 3d
       -0.13678373 0.04633364 0.2985132 0.10746441
0002f0 77 45 46 3e a4 a9 9e bd c5 0d 96 3d 85 58 ab bd
       0.19362436 -0.077472 0.07326845 -0.08366493
000300 33 d7 1d bc 15 44 a1 bc fc d3 0d be 8d 2a 29 be
       -0.009633827 -0.019685784 -0.13850397 -0.16520138
000310 4d 05 20 be b7 f3 11 be 53 d3 b7 bd ef 5b bc bc
       -0.15627022 -0.14253126 -0.08975854 -0.022993056
000320 e9 05 b1 bd e4 12 a9 3e bf 3e 37 3d 57 72 17 3a
       -0.086437054 0.33022225 0.044737574 0.0005777231
000330 62 69 7b bd 6c 11 db bd 90 22 0a 3d b3 d6 a7 3d
       -0.061379798 -0.10696682 0.033724368 0.081952475
000340 3b b1 15 3e 3b e4 77 bc f4 00 a2 3d bc a9 9d 3c
       0.1461839 -0.015130098 0.07910338 0.019245975
000350 e0 74 7e 3e ce 01 cf 3d 0a 5f b7 3d bb 4b 3e bc
       0.24849272 0.10107766 0.08953674 -0.011614735
000360 bf da 2a 3e d7 55 ff bd 37 27 5b bb b2 cc cd bc
       0.16685008 -0.124675445 -0.0033440122 -0.02512202
000370 b9 8c 5c be 34 e1 48 bd c2 67 d4 3d c6 30 5a be
       -0.21538056 -0.049042895 0.10371353 -0.21307668
000380 69 6a 17 bd 08 09 bb bd 33 5e 53 3e 18 c3 58 bb
       -0.036966715 -0.09132582 0.20641403 -0.003307527
000390 f6 74 a8 3d a9 2c da 3d 6b 81 a7 3d 67 f3 c7 bd
       0.082254335 0.106530495 0.081789814 -0.09763222
0003a0 22 68 d3 bd 6c 42 f5 3c ae e3 1d bd b5 c7 8b bc
       -0.10322596 0.029938899 -0.03854721 -0.017063001
0003b0 61 09 a2 3d 08 7e 59 3e 36 f6 4c be 8d a4 2f 3d
       0.07911945 0.21239483 -0.20015797 0.042881537
0003c0 f5 05 9c 3d 42 59 0d 3e 90 94 14 be 15 17 ad bb
       0.07618324 0.1380358 -0.14509797 -0.0052822926
0003d0 88 53 67 bd 23 43 16 bc f1 5b 95 bc 8b 0e 3d be
       -0.056476146 -0.00917128 -0.018232318 -0.18462579
0003e0 c9 d9 a6 bd 83 13 8e bd 3f ef a4 bc 80 5a 23 be
       -0.08147008 -0.06937315 -0.020133613 -0.15952492
0003f0 e6 4a bc bd bb c4 3a be e8 af ad 3d 52 46 22 be
       -0.09193973 -0.18239109 0.08480817 -0.15847138

shared_net.0.bias f4 [128]
000000 d1 7a bc 3d 92 61 05 3d e2 44 a0 bd 1b a4 97 3b
       0.09203113 0.032563753 -0.07825638 0.004627717
000010 16 ff f9 3d 00 00 00 00 84 cb 99 bb ec 42 83 bd
       0.12206857 0.0 -0.0046934504 -0.06409249
000020 6d 0f 1c 3e b3 f6 02 bc 87 8f 06 3e a7 fa 43 3d
       0.1524026 -0.007993388 0.13140689 0.047846463
000030 42 2d 04 3e c3 48 50 3d 1a c0 b8 3d 9c b1 b1 bd
       0.1290789 0.05085064 0.090210155 -0.086764544
000040 00 00 00 00 c3 4a fd 3d bf 0a 8b bd e3 41 a1 bc
       0.0 0.12367775 -0.06789159 -0.019684738
000050 1b ec 02 3e c6 9e be 3d 15 88 91 3d e3 8e 7a bd
       0.1278538 0.093076274 0.07106034 -0.061171424
000060 31 ea 28 3d a9 98 42 bb 2f 56 c3 3d e6 2e bf 3d
       0.041238967 -0.0029693043 0.095379226 0.09335117
000070 0d 17 ac bd a5 99 98 bb 40 e8 c3 bd c8 50 9a 3d
       -0.08402834 -0.0046569877 -0.095657825 0.07534939
000080 b0 a1 eb bd 33 c0 67 3c af 5e 22 3c b1 04 1c 3e
       -0.11505449 0.014144945 0.00991027 0.15236165
000090 9a 7b 24 bd 97 fc 94 3d f1 aa f9 bb 95 cd b8 3d
       -0.040156938 0.0727474 -0.0076192548 0.09023587
0000a0 00 00 00 00 fb 50 f8 3d 83 aa 18 3e ca 85 23 bd
       0.0 0.12124821 0.14908795 -0.039922513
0000b0 6d 9f 9f 3c 00 00 00 00 c9 17 aa bc 5c f8 8d 3d
       0.0194852 0.0 -0.020763295 0.069321364
0000c0 f8 86 a4 bd b9 a6 57 bd 40 47 92 3d 0c 2d 65 bd
       -0.08033556 -0.052649233 0.07142496 -0.055951163
0000d0 79 6a 1f 3d c3 74 b3 3d f9 d3 18 3e 35 b4 8b bc
       0.0389199 0.08762505 0.14924611 -0.017053703
0000e0 0d 29 95 bc 65 1f 17 3e 92 bf d3 3d 43 2e 00 3e
       -0.018208051 0.1475807 0.103392735 0.12517647
0000f0 9e ba 75 3d 01 78 0c 3e 00 00 00 00 72 97 23 bd
       0.059992425 0.13717653 0.0 -0.03993935
000100 cb fb 51 3d 5c ed b4 3d 4d 4a da 3c 2c c9 a5 3d
       0.05126552 0.08834335 0.026646757 0.08095011
000110 b4 10 eb 3d d1 49 34 bd f4 03 5f bd 86 d1 22 bd
       0.11477795 -0.04401571 -0.05444713 -0.0397506
000120 17 30 06 3e 00 00 00 00 f9 9a fa 3d 2c 60 ad 3d
       0.13104282 0.0 0.1223659 0.08465609
000130 ef b5 93 3d f4 42 fb 3d 29 48 de 3d a5 da 97 bd
       0.072124355 0.1226863 0.10853607 -0.0741475
000140 02 4c ca 3d d5 ca 0a 3c df 76 fe 3d 6e 1b d2 3d
       0.098777786 0.0084712105 0.124250166 0.10259138
000150 36 6d 03 3d 9b 26 1d 3d e8 83 a0 bd 13 54 c6 3d
       0.032086574 0.038366895 -0.07837659 0.09684005
000160 a0 7d db bb 3f 93 b9 bb ff 9b 9c bc 38 5f b7 bd
       -0.0066983253 -0.005663305 -0.019117353 -0.089537084
000170 67 ca 0f 3e 9f ae a8 3d e9 5e a0 bc de b4 58 3d
       0.14042054 0.08236431 -0.019576507 0.052906863
000180 ce 93 1d 3d 85 b4 86 3d 00 00 00 00 9f e8 a6 3d
       0.038471036 0.065774 0.0 0.08149838
000190 98 a5 45 3d b8 58 79 3d 70 43 71 3c 49 ed 84 3d
       0.048253626 0.060875624 0.014725551 0.06490571
0001a0 f6 82 0f 3e 7e 5a df 3c 86 2b ac bd 3e a0 1b 3e
       0.14014801 0.02726483 -0.08406739 0.15197846
0001b0 7a 8b b7 3d 00 00 00 00 7e a4 90 bd 49 33 10 3d
       0.0896215 0.0 -0.070626244 0.03520516
0001c0 73 fd 8a bd 00 00 00 00 84 d5 c8 bc 9f 23 f2 3d
       -0.06786623 0.0 -0.024515875 0.118232004
0001d0 4a c1 18 3e 00 00 00 00 78 73 34 bb 5a f0 de bc
       0.14917484 0.0 -0.0027534645 -0.027214218
0001e0 ef 6b 1a 3e 8c 83 bf 3b d4 e8 cf 3c a0 12 82 bd
       0.15080236 0.005844539 0.025379576 -0.06351209
0001f0 39 cd ba 3d 06 29 98 3d eb ce b4 bd 21 1a a2 3d
       0.09121174 0.074296996 -0.08828529 0.0791514

shared_net.2.weight f4 [128, 128]
000000 21 76 a6 3d 3f 03 6d 3d 71 e7 86 bc f6 4f 23 be
       0.08128 0.057864424 -0.016467782 -0.15948471
000010 ed 09 b9 3e 0e 73 3e 3d 91 69 31 3e ec 1d 2e be
       0.36140385 0.046496443 0.17325427 -0.17003602
000020 f7 40 90 3e 1e 6d 13 3e 76 3d 27 3d b2 7f ad bd
       0.28174564 0.14397094 0.040830098 -0.084716216
000030 2e 16 00 3d 89 4d 22 be d0 cc 52 3d 9e e6 40 bd
       0.031271152 -0.1584989 0.051464856 -0.047094934
000040 18 cc 10 bd c6 72 a3 3d 91 6d 04 3e 00 33 39 bd
       -0.03535089 0.07980876 0.12932421 -0.045214653
000050 30 43 de bd 14 aa 29 be f1 03 0b be df 9e 6d be
       -0.10852659 -0.16568786 -0.13575722 -0.23205136
000060 95 9e 4e 3d b8 2b 68 bc 95 da d5 be b0 60 8d 3e
       0.050444204 -0.01417058 -0.41768327 0.2761283
000070 73 7f 77 bd 46 8c 9f 3d 9d 85 c1 be 42 c8 40 bc
       -0.06042428 0.07790427 -0.3779725 -0.011766495
000080 2e 92 74 3e 0b 37 2b 3e 35 35 d5 3d 9d 11 4c 3e
       0.23883888 0.16720216 0.10410539 0.19928594
000090 6f f8 78 bb 22 46 ea 3d 7d 61 6d bc e4 e0 03 bd
       -0.0037989875 0.11439158 -0.014488575 -0.032196894
0000a0 a9 22 20 bd 57 bf d9 bd 87 57 24 be 13 57 d1 bd
       -0.039095555 -0.10632198 -0.16049014 -0.10221686
0000b0 b1 45 97 bd 12 c5 42 3e e9 ed 7d bd 5d 8d ed 3d
       -0.073863395 0.19020489 -0.061994467 0.115992285
0000c0 60 6f 28 3d 0d fc 8d 3d 8a 3b 8e 3d 07 22 df bc
       0.04112184 0.069328405 0.0694495 -0.027237905
0000d0 46 b2 03 be ff cc 1f bd 59 a2 56 bd f7 fa 52 be
       -0.12860975 -0.03901386 -0.05240092 -0.20603548
0000e0 8b 42 a2 be d7 33 da 3c 03 2f c4 3c 44 47 b5 bd
       -0.31691393 0.026636047 0.023948198 -0.088514835
0000f0 e4 e5 45 bd 32 f3 da 3d dc bc e9 bd f7 48 4c be
       -0.048314944 0.10690917 -0.11412975 -0.19949709
000100 0b 7c 59 be 6e ae f8 bc 36 3c 11 3e 4f 2d 0f be
       -0.21238725 -0.030356612 0.14183125 -0.13982128
000110 00 a3 68 3e 4a b1 91 3b 68 01 ad 3c ac ca c8 be
       0.2271843 0.0044461833 0.021118835 -0.39217126
000120 8c d3 38 3d fb 91 39 3d d4 5d b0 3d 88 50 06 bd
       0.04512362 0.045305233 0.08611646 -0.032791644
000130 85 3b 0a 3e 0c 03 e8 3c 94 fa 8d bd 3c 0b 36 3e
       0.13499267 0.028321765 -0.069325596 0.17777723
000140 32 a3 72 be 7e 88 f2 bd 4e 90 bd 3d d0 39 cf 3d
       -0.23695067 -0.1184244 0.092560396 0.10118449
000150 b1 ff 07 be 04 31 57 be 66 7a 0d be 3f 4d 1d bd
       -0.13281132 -0.21014792 -0.13816223 -0.038403746
000160 03 19 84 3d be 60 9c bd 60 45 4d be e5 d0 43 be
       0.06450083 -0.076356396 -0.20045996 -0.19122656
000170 b3 fd 63 3e 42 8f 9d bd ba 86 cb 3d fc 18 29 be
       0.22264747 -0.0769334 0.099378064 -0.16513437
000180 9d a0 8b 3d 47 25 0f 3e dc 69 d4 bd 39 08 da bd
       0.06817744 0.13979064 -0.103717536 -0.106460996
000190 82 92 d6 bd af 33 8b 3e 24 45 5f be 45 0e fe 3d
       -0.10477163 0.2718787 -0.21803719 0.124050654
0001a0 e5 cb 3b 3d eb c5 9e 3e 58 92 98 3d 0d 2f 14 3e
       0.045848746 0.31010374 0.07449788 0.14471073
0001b0 4e fd 53 be 79 11 88 3c 0f f0 e3 3a 19 08 98 be
       -0.20702097 0.016609894 0.0017390269 -0.29693678
0001c0 fe b6 4a bd e2 05 35 be 64 ae c3 bd 5b b5 8a 3c
       -0.04949092 -0.17678025 -0.09554747 0.01693218
0001d0 b2 fc 90 3d 82 82 d5 bb 5b 12 01 bd 11 da 77 bb
       0.07079448 -0.006515802 -0.031511646 -0.0037819187
0001e0 84 3f e8 bc 55 01 54 bd fb 77 db bd 19 19 d1 3d
       -0.0283506 -0.051759083 -0.10716244 0.10209865
0001f0 64 f1 38 3e 4e a1 d1 bd b9 20 85 be 0a ba 82 3d
       0.18060833 -0.102358446 -0.26001528 0.063831404
000200 51 4b 0b be f1 7f 97 be 34 c4 93 3e 61 c6 8c bd
       -0.1360295 -0.295898 0.2886063 -0.06873775
000210 6e 89 c4 bd f2 5d 37 be e5 4d 7f 3d e8 2d e7 3d
       -0.09596525 -0.17906931 0.062330145 0.11288053
000220 15 97 6b be bb 73 8a 3b 37 3d 32 bd 0a d4 0c be
       -0.23006852 0.004225222 -0.04351541 -0.13752761
000230 70 67 60 3e 2b e2 c8 bd 38 10 88 3d 7e e5 57 3e
       0.21914458 -0.09808763 0.066437185 0.21083638
000240 c9 dc a8 3b 91 b8 98 bd 74 e7 9b 3e 00 57 ce bc
       0.0051532728 -0.07457078 0.30450022 -0.02518797
000250 ec e2 09 be 6b 7e bf 3e 71 16 da 3e 9f 06 57 3d
       -0.1346547 0.37401137 0.42595246 0.05249655
000260 47 be 3b bb 99 70 63 bd 74 a4 09 be 95 ce ef 3c
       -0.002864735 -0.055527303 -0.1344164 0.02927331
000270 05 8c a2 bb 42 f6 42 3d 51 03 73 3d 64 12 46 be
       -0.0049605393 0.04759813 0.059329335 -0.19342953
000280 b5 70 f4 3d 80 9b 59 bd f0 4d 82 3d 84 00 4e be
       0.1193556 -0.053126812 0.06362522 -0.20117384
000290 ed bf ae 3e bc 63 63 be 90 69 60 3c fb ad 13 3d
       0.34130803 -0.22206014 0.013697043 0.036054593
0002a0 f5 2c a4 3d 94 1f 15 3e fc f5 ab bd 83 0b 0e bd
       0.080163874 0.14562827 -0.08396527 -0.034678947
0002b0 3c 60 b8 bd 01 ba af 3d c1 18 e5 3c d5 f4 af 3d
       -0.0900273 0.08580399 0.027965905 0.0859162
0002c0 f4 b6 80 3c 6f cd ca 3c fb 3c f9 3c 96 83 cf 3d
       0.015712239 0.024756161 0.030424586 0.1013252
0002d0 a0 fb ca 3c 18 8f 6d bd 73 42 1d 3d 29 23 c6 bd
       0.024778187 -0.057997793 0.03839345 -0.09674675
0002e0 28 1a 6b bd 4f 8c 3c be c6 87 e5 bc 88 67 a0 bd
       -0.05739799 -0.18412898 -0.028018843 -0.07832247
0002f0 41 08 f7 be 90 3a a5 be 7d 20 13 3e 24 50 0c 3e
       -0.48248485 -0.32271242 0.14367862 0.13702446
000300 ff de bb 3d ca 4b 06 be ee 33 17 3e 21 7c 3b 3d
       0.091733925 -0.13114849 0.14765903 0.045772675
000310 a1 57 34 be 99 d2 94 3d bf 50 af 3d af c2 34 3e
       -0.17611553 0.07266731 0.08560323 0.17652391
000320 33 08 42 be 35 9a 78 3d 9b bb 81 be f0 11 34 bd
       -0.1894844 0.06069394 -0.25338444 -0.04396242
000330 2a ea 0c 3e cd 44 d5 bd 4c b7 9e bd 2e ef 7e 3e
       0.13761202 -0.10413513 -0.07749805 0.24895927
000340 e7 0e a2 bc 89 cf 21 3d 12 32 82 be 98 8e 06 3d
       -0.019782497 0.03950456 -0.25428826 0.03285083
000350 3e 9d a8 3e 02 eb bb 3d cf b2 01 be 66 8c c5 bd
       0.32932466 0.091756836 -0.12665866 -0.096459195
000360 1d 22 f2 bd 06 69 90 3e b7 41 ff 3d 2e 19 cd 3e
       -0.11822913 0.28205127 0.12463706 0.40058273
000370 1c 1d 5f 3d 1c df 41 3d 5f 24 a5 3d 79 b4 24 be
       0.05447112 0.047331914 0.08063578 -0.1608447
000380 86 91 c6 bd 41 aa 06 be 0c 9e 1b bd 94 75 81 b9
       -0.09695725 -0.13150884 -0.037992522 -0.000246924
000390 5b 04 08 3e 66 e0 4f 3d e2 f0 f2 3d ea cc 4b 3e
       0.13282911 0.050751112 0.11862351 0.19902387
0003a0 ab ff bf bd 2b 4a 57 bd 9b d3 89 3e 6a de a4 be
       -0.09374937 -0.052560966 0.26919255 -0.32200938
0003b0 c7 24 ae ba 4e c8 1e be 4d 19 13 3e c7 63 19 3c
       -0.0013286107 -0.15506098 0.1436512 0.009362168
0003c0 0f d0 00 3d 59 69 4e 3e ef a4 31 bb 47 83 09 be
       0.03144842 0.20157374 -0.0027106365 -0.13428985
0003d0 59 f4 8b be c6 5e 6d bd a0 5c 26 be d1 f2 16 3d
       -0.2733486 -0.05795171 -0.16246271 0.03685266
0003e0 3c f3 6e bd 42 75 43 be 54 54 1f bd a1 d3 02 3d
       -0.058337435 -0.19087699 -0.03889878 0.031940106
0003f0 54 ff 1c be f2 d8 36 be 76 83 bb bd b7 87 44 bc
       -0.15331775 -0.17856196 -0.091559336 -0.011995248

shared_net.2.bias f4 [128]
000000 56 6d 56 3d 03 42 e2 bd 4a fc 00 bc 50 bc bf 3d
       0.052350365 -0.11047747 -0.00787265 0.0936209
000010 be cc 7c 3d 66 d4 aa bd 4a 87 88 3d 27 75 91 bd
       0.061718695 -0.08341293 0.06666429 -0.07102423
000020 50 fd fe bc c2 e9 66 3d a6 dd 6f bd 10 8e 8d bc
       -0.031126648 0.056375273 -0.05856099 -0.017279655
000030 a1 21 29 3d 45 c6 41 3d ad 14 bd 3d 0b 0a 1f 3d
       0.041291837 0.047308225 0.09232459 0.038827937
000040 5b e6 11 3d 7b ca 47 bc f3 11 b7 3d 0b 86 3b 3d
       0.035620075 -0.012194271 0.089389704 0.04578213
000050 04 50 8f bd be 31 df 3d 6f fe d6 bb be 64 96 3d
       -0.06997684 0.108981594 -0.0065610926 0.07343434
000060 e0 54 69 bc 55 2b 24 bc 11 24 55 bd 19 7c 89 3d
       -0.014241427 -0.010020097 -0.05203635 0.06713123
000070 19 f2 bc bd 36 cf a5 bc 73 21 7a 3c b7 aa 35 bd
       -0.09225864 -0.020240407 0.015266764 -0.04435226
000080 37 d9 aa bd 00 00 00 00 0f 60 c9 3d 7e 73 31 bd
       -0.08342212 0.0 0.09832775 -0.043323033
000090 27 38 d8 bc 61 c9 87 bc 00 00 00 00 1b 89 b7 bc
       -0.026393963 -0.016575517 0.0 -0.022404244
0000a0 97 08 ae 3d 00 00 00 00 8c e4 4f bd 57 40 d4 3d
       0.08497732 0.0 -0.05075507 0.10363834
0000b0 2b 39 32 bd 5a 9c d1 bd 2a 65 cf bc 8e 73 f7 bc
       -0.04351155 -0.102349 -0.025316793 -0.030206468
0000c0 ad 27 de 3d bd f2 dc ba 4d 89 be bc e6 b5 c0 3d
       0.10847411 -0.001685701 -0.02325883 0.094096944
0000d0 8a 4c 40 bc e6 d4 d1 bb 41 14 b3 3d 7d 4b bf 3d
       -0.011736998 -0.0064035533 0.087440975 0.0934057
0000e0 04 36 b4 3d d1 d4 da bd 00 00 00 00 df 8f 8c bb
       0.08799365 -0.10685123 0.0 -0.0042896117
0000f0 68 a7 9c bd 4c 0d 76 3d 45 bd 3f 3d b2 e7 99 3d
       -0.07649118 0.060071275 0.04681136 0.075148955
000100 7a 75 b4 3d 01 81 d5 3c 6c 45 37 bd 35 d3 cb 3c
       0.088114694 0.02606249 -0.04474394 0.024880985
000110 8b 95 01 3d 58 64 52 bc e4 5d e6 3d 63 98 4b bc
       0.031636756 -0.012841307 0.11248377 -0.012426469
000120 08 43 a9 bd 55 24 47 bd 9e 5b f5 bc cb a4 62 3d
       -0.08264738 -0.048618633 -0.029950913 0.05533294
000130 16 b5 28 3c 00 00 00 00 00 00 00 00 aa 6c a7 bd
       0.0102970805 0.0 0.0 -0.08175023
000140 00 00 00 00 97 b1 9f 3d 2d 45 f6 3d 00 00 00 00
       0.0 0.077975444 0.12024913 0.0
000150 21 06 45 3c 67 df c9 3c bc c7 50 3d 9d 53 59 bd
       0.012025387 0.02464266 0.05097173 -0.053058255
000160 f2 83 33 3d 51 d0 2e 3c 66 0d 3d bd dd 90 59 3d
       0.043827005 0.010669784 -0.046155356 0.053116668
000170 81 1f 93 bd 86 64 0f 3d d6 43 21 3d 7b c4 83 3d
       -0.07183743 0.035007976 0.039371334 0.0643396
000180 77 70 c9 3d 46 13 7c 3d 9c 85 92 bd 16 a7 15 3d
       0.09835904 0.061541818 -0.0715439 0.0365363
000190 14 38 ba bb f6 72 86 3a 00 00 00 00 54 a8 6f 3d
       -0.0056829546 0.001025765 0.0 0.05851014
0001a0 70 39 ac 3d 8f 63 c7 bd 17 eb 9a 3d 28 6f 93 3d
       0.08409393 -0.09735786 0.07564371 0.07198936
0001b0 ce 84 2b bb f3 a8 88 3d 0b b3 5e 3c 36 a5 d4 3d
       -0.0026171687 0.066728495 0.013592492 0.10383074
0001c0 6c bd 0f 3e 15 7d 10 bc 8e 0d a7 3d 61 49 7f 3d
       0.14037102 -0.008818884 0.08156882 0.06232584
0001d0 0b a6 90 3d 70 19 5a 3d 92 5c e5 bb f2 e7 97 3d
       0.0706292 0.053246915 -0.0069995606 0.07417287
0001e0 c3 d0 62 3d fa 15 c3 3d 4c fd 8e bc fd 7b 97 bc
       0.055374872 0.09525676 -0.017454766 -0.01849174
0001f0 53 ad f2 b9 b1 37 3f bd a8 e6 4f 3d 88 bd 86 3d
       -0.00046286974 -0.04668397 0.05075708 0.06579119

shared_net.4.weight f4 [64, 128]
000000 48 06 73 3d 04 8f 08 3e 42 30 92 3d 1e 6f 27 3d
       0.059332162 0.13335806 0.07138111 0.040877454
000010 b1 7b d4 3d 8b a7 45 be e1 d0 af bd e5 9a 25 3e
       0.10375155 -0.19302194 -0.08584762 0.16172369
000020 de 68 2a be b1 75 00 3d 79 5b 0f 3e 4f fd 1d bb
       -0.16641566 0.03136224 0.13999738 -0.0024107283
000030 82 f3 64 3e f8 62 25 3e 15 af cb 3d ff d6 0d be
       0.22358516 0.16151035 0.099455036 -0.13851546
000040 87 8f 7a 3e 83 a0 6d 3e 5c 59 b8 bd d8 0f 57 3e
       0.24468814 0.23205762 -0.09001419 0.21002138
000050 de 03 b0 3e 1f 97 19 bd c3 a5 00 bc 39 13 71 be
       0.3437795 -0.037497636 -0.007852021 -0.23542489
000060 2b 15 7e 3d 3e 4f 03 3e 08 bc 9e 3e a3 c1 79 bd
       0.062031906 0.12823197 0.3100283 -0.060975682
000070 12 fd 8c 3e 49 eb 00 bc 1a 0f 6a 3d b2 c3 92 3d
       0.27536827 -0.007868596 0.05714331 0.07166232
000080 d2 d3 d8 bd 99 ce c1 bd 5c 70 e0 bd 19 1d 7c be
       -0.105872765 -0.094632335 -0.10958931 -0.24620475
000090 b2 08 96 bd 58 86 9c 3d 6d 8f 9f bc 3b 95 23 be
       -0.07325877 0.076428115 -0.01947757 -0.15974896
0000a0 ca 64 61 be fd 8a 00 bd 96 78 44 3e 11 04 53 3e
       -0.22011104 -0.03138255 0.19186625 0.2060702
0000b0 2f 82 23 3e 4c 7c 93 3e 31 1c 43 bd 49 cd 1f be
       0.1596763 0.28805768 -0.047634307 -0.15605654
0000c0 7b 3b 19 3e f3 fe 10 bd 69 20 0d 3d 5f ba cf be
       0.14964096 -0.03539939 0.034454737 -0.40571877
0000d0 27 bf 25 bd a5 7c 99 bd 4a 5d bc 3d 71 bc 51 bd
       -0.0404655 -0.07494477 0.09197481 -0.051205102
0000e0 53 b1 9b 3e 0f d6 2a 3e 39 ed 61 3d fb b3 79 bd
       0.30408725 0.1668322 0.055157874 -0.06096266
0000f0 4e 3b 8c 3e 76 51 be bc 64 55 be bd e1 0e 64 3e
       0.27388996 -0.023232203 -0.09293631 0.22271301
000100 03 0d 12 bc 90 30 4c ba c3 26 82 3d 3a 28 01 3d
       -0.008914235 -0.0007789219 0.063550495 0.031532504
000110 01 70 35 3e 5c 3a bb 3b 72 c7 6f be 8f 09 2e 3c
       0.17718507 0.005713744 -0.23415926 0.010622396
000120 74 17 fc bc 38 93 1a 3b d3 f6 49 bd f2 aa 18 be
       -0.030772902 0.0023586284 -0.049307656 -0.1490896
000130 58 c5 d0 bc 46 cd 14 3e 9b e7 32 3e 30 9f f8 3d
       -0.025484726 0.1453143 0.17471163 0.121397376
000140 c9 14 63 3d 37 9b 8d 3d 6a e9 06 3e 04 03 07 3e
       0.055439744 0.069143705 0.13174978 0.13184744
000150 07 ea 42 3b d5 61 f8 3d ba 71 56 3d 99 50 c5 3c
       0.0029741542 0.12128035 0.05235455 0.024086284
000160 a6 16 a1 3d b6 2e 22 be e4 dc e1 3c 2e c0 8e 3e
       0.07865648 -0.15838131 0.02757115 0.27880996
000170 f4 a5 46 3d 03 d6 26 bd 9a 16 0e bd 35 f8 e6 3c
       0.04849811 -0.04073144 -0.034689523 0.028194526
000180 ab 4a cd 3d e6 54 0f 3e 1a a1 7d 3e 02 8d 30 3e
       0.100240074 0.1399723 0.24768487 0.1724129
000190 d1 4f 04 bd 6b 3e 42 3e 5d fe cb bd f3 8b 44 3e
       -0.03230268 0.18969123 -0.09960625 0.19194011
0001a0 26 2f 5f 3e 79 46 db 3d 9d d6 d9 bd d1 71 2e bd
       0.2179533 0.10706801 -0.10636637 -0.042589013
0001b0 39 20 a7 3c f5 6f 32 3e 6b d4 a1 bd 80 c0 f6 3c
       0.020401107 0.1742552 -0.07901844 0.030121088
0001c0 67 e9 0a 3e 6e d2 49 be 8e 67 b3 bd 8f 06 65 bd
       0.13565598 -0.19709179 -0.08759986 -0.055914458
0001d0 17 37 d3 3d 2c 27 3b be b2 1b 89 3d f9 e0 4e 3d
       0.10313242 -0.18276662 0.066947356 0.05050752
0001e0 78 c2 87 3d 3d c6 3f bd d1 53 2e 3e cd 8a 95 3d
       0.06628889 -0.046819914 0.17024161 0.07301865
0001f0 99 60 92 3d 56 d6 51 bd 4f 8f 26 be 0b 94 32 3b
       0.07147331 -0.051229797 -0.16265605 0.0027248885
000200 42 71 ad 3e 1e db a7 be 67 13 d2 be f4 ec 74 3e
       0.3387547 -0.3278436 -0.41030428 0.23918515
000210 b6 ec 04 3e 07 6a 10 be 05 d7 c3 3c df b9 2c be
       0.12980923 -0.14102946 0.02390624 -0.16867779
000220 2f c2 cb 3d 84 c9 59 3e db ee 00 3d 70 89 8e bc
       0.09949147 0.21268278 0.03147779 -0.01739952
000230 e1 ce 4a ba b1 0c ad 3c 0e 46 90 3d 2c 8c 3e 3e
       -0.0007736516 0.021124216 0.07044612 0.18608159
000240 8b b2 73 3e 71 22 26 3e 04 9a 19 3e d7 52 2d 3e
       0.23798577 0.16224076 0.15000159 0.16926132
000250 53 ae eb 3c c6 a5 a9 3d db 00 b2 bd fd b2 43 3e
       0.028769648 0.08283572 -0.086915694 0.19111247
000260 47 05 43 3e 21 de 30 be c4 3a b3 be 83 22 77 3d
       0.19044982 -0.17272235 -0.35005772 0.060335647
000270 23 d8 2b bf b2 07 e2 3d 86 8a 6f be aa 35 df bc
       -0.67126673 0.11036624 -0.23392686 -0.027247269
000280 2e 46 29 be 9c 3e 7a bd d1 09 c1 be 77 dc 02 3e
       -0.16530678 -0.061094865 -0.37702802 0.12779413
000290 e1 10 fa bc ee 78 f3 bd 9a b5 42 3e 94 8a c5 3d
       -0.030525627 -0.118883 0.19014588 0.09645572
0002a0 48 83 01 3d be fb 05 be 45 e2 d5 bd 2f 73 8c 3e
       0.03161934 -0.13084313 -0.10443548 0.27431628
0002b0 f6 14 87 3d 21 cf 0d be c3 5f 3c 3e 5b 24 46 be
       0.06595795 -0.13848545 0.18395905 -0.19349806
0002c0 d5 38 30 bc b9 83 97 bd 3e 86 69 be d6 5a 8d bd
       -0.010755737 -0.07398171 -0.22805116 -0.06902091
0002d0 7c c4 41 be af 4a d0 3d e2 1e 4d 3d 53 17 1d 3d
       -0.18922609 0.10170495 0.05007828 0.03835232
0002e0 50 ea 86 3d 06 67 23 be 9a 15 3f 3e 74 97 89 bc
       0.0658766 -0.15957269 0.18660584 -0.016795851
0002f0 9a e5 69 be 1a 1a df 3d d6 e0 95 3e 01 0a 44 be
       -0.22841492 0.1089365 0.292731 -0.19144441
000300 e7 de d3 bd 16 4c 2c 3e d7 e6 57 bd 49 16 e6 bd
       -0.103452496 0.168259 -0.05271038 -0.11234719
000310 dc c0 38 3e 76 2c bf 3d 02 96 77 3d 6c fb 60 bd
       0.1804232 0.09334652 0.060445793 -0.054927275
000320 bb f4 9d be 98 88 51 bd 3b a6 88 bd 73 be b0 3d
       -0.30850777 -0.051155657 -0.06672331 0.08630075
000330 5a 7c 4c be de 31 db bc fd 1d 14 be b0 74 9d be
       -0.19969311 -0.026757177 -0.14464565 -0.30753088
000340 41 19 8a bd 8f 75 c8 3e 2d f4 16 3e f6 4a ec 3d
       -0.06743098 0.3915219 0.14741583 0.11537735
000350 fc 2f 85 bd 0f 10 27 bd f8 84 1f 3e 81 55 91 bd
       -0.06503293 -0.0407868 0.15578067 -0.07096387
000360 2b ea ce bd 7a 2a 74 3d bb e3 36 3e 7c 78 c2 bb
       -0.10103258 0.05961082 0.1786031 -0.005934773
000370 cd ce d5 3c 78 60 d7 3d 8f 45 70 be f9 2c 0f bc
       0.026099587 0.10516447 -0.23464034 -0.00873875
000380 c7 23 ae 3d 9a c0 a6 bd a2 90 9e 3d 15 5e 2a be
       0.08502918 -0.081422046 0.0774243 -0.16637452
000390 4f 28 12 bd 0a e9 8b bd 2e 88 16 3e 95 ec 06 bd
       -0.035682973 -0.06831558 0.14700386 -0.032940466
0003a0 6f 1b c1 bd cb 2f d2 b8 19 63 64 bd c4 0f 0b bc
       -0.09429061 -0.000100224825 -0.05575857 -0.008487646
0003b0 09 7b 4d be f7 38 e0 bc 6c 53 a0 bd 6e cb 50 3e
       -0.20066465 -0.027370913 -0.078284115 0.20390102
0003c0 04 88 19 3d ba 5d 4d 3e 09 54 c5 3d ed 97 57 3d
       0.03748323 0.20055285 0.09635169 0.052635122
0003d0 e8 0e 2b bd 52 b1 ef 3d 57 fc 5f bd 74 b4 43 3e
       -0.041762263 0.11703743 -0.05468401 0.19111806
0003e0 3a 54 fa 3c e7 54 96 3e 12 45 d9 bd 5b f5 dc bd
       0.03055774 0.2936165 -0.10608877 -0.10788985
0003f0 08 a7 21 be 13 f3 f3 bd c6 a8 01 bd 8b 1b 65 3e
       -0.15786374 -0.11911597 -0.031655096 0.22373788

shared_net.4.bias f4 [64]
000000 0b 57 a0 3c 47 dd 74 3d 3d c7 74 3c aa 4e 0e ba
       0.019572755 0.05978134 0.01494008 -0.0005428592
000010 78 3e d1 3d 9b bc e1 3c 35 10 14 3d a0 54 41 3c
       0.10216993 0.027555754 0.03614827 0.011799961
000020 72 1e 54 3d 4c 23 53 3d 3c 13 a0 3d 95 28 96 bc
       0.051786847 0.051547334 0.07816169 -0.018329898
000030 84 5c ab 3d 4a 83 eb bc 1a d2 f4 3c d3 e9 37 3d
       0.08367255 -0.028749127 0.02988534 0.044900727
000040 12 a2 d3 3d ad 2f 79 3d 00 00 00 00 21 b2 6a 3d
       0.10333647 0.060836483 0.0 0.057298783
000050 20 0a b6 3c 65 55 d8 3d cb eb c3 3b c1 83 db 3b
       0.022221625 0.10563163 0.0059790364 0.006699056
000060 ec 2c 98 bd bc be 98 bb e7 6a 6c 3d ad d3 2c 3c
       -0.07430443 -0.004661409 0.057719138 0.010548514
000070 47 d8 b5 3d 4e b3 c6 3d 00 00 00 00 f0 15 8d 3d
       0.08879142 0.097021684 0.0 0.0688895
000080 26 5b 0f bc ce 46 76 3d 8a fa c0 bb d4 ed c9 3c
       -0.008749759 0.06012612 -0.0058892416 0.024649538
000090 3b 60 dc 3d 17 45 29 bd ad 7c 11 3d ee 57 1e 3c
       0.10760542 -0.041325655 0.03551929 0.009664519
0000a0 41 67 0b 3d b2 d3 01 3c ff 5d 72 3b ff 1c 09 bb
       0.034034017 0.007924007 0.0036982296 -0.0020921824
0000b0 d4 3e 2e bd d7 ab 02 3c 28 54 4c bc 8e 6f d6 ba
       -0.042540386 0.00797554 -0.012471236 -0.001636015
0000c0 03 d9 cd 3c e4 a1 5b 3d a6 ea 24 3d eb 5b ed bb
       0.025127893 0.053621188 0.04026284 -0.0072436235
0000d0 77 0d 67 3d 89 4a 43 bb e5 97 8d 3d cc a0 27 3d
       0.056409325 -0.0029799065 0.06913737 0.040924832
0000e0 2c 9f 9b 3d 17 13 07 3d 0d 5c 1c 3d a5 30 cd 3d
       0.07598719 0.03297719 0.038173724 0.10019044
0000f0 9c 4f 4b 3c 09 d9 9a bb b7 8c 92 3d 32 00 a2 ba
       0.012409117 -0.0047255796 0.071557455 -0.0012359677

actor.0.weight f4 [32, 64]
000000 49 d6 b0 3e 6d 6d a8 bd 43 41 84 bb 2b bb 13 be
       0.34538487 -0.08223996 -0.0040361 -0.14426868
000010 27 77 45 be 59 b7 09 3e 64 9e 0e be 0f 57 7f bd
       -0.19283734 0.13448848 -0.13927609 -0.062338885
000020 d3 1e 71 bd a5 37 94 3e 0d 69 b4 3d 18 bf fb bd
       -0.058867287 0.28948703 0.08809099 -0.122923076
000030 56 92 64 3e 29 ae e4 3d fd 8f 24 3e 8a a8 81 3c
       0.22321448 0.11166031 0.16070552 0.015827436
000040 4d 8e ab be c5 8f 20 3e 30 18 86 be 1b b6 c1 bc
       -0.33507004 0.15679844 -0.2619033 -0.023646405
000050 9a bf 02 3d 61 d0 6f 3d 0d 48 80 3c 46 5e 32 be
       0.031921007 0.058548335 0.015659356 -0.17418775
000060 5d b9 88 be aa 3d 31 bd 03 c5 f6 3d 16 8c c4 bd
       -0.2670392 -0.043271698 0.12049296 -0.09597032
000070 7e a0 a4 3c d5 15 96 3e 4a 79 88 be f8 67 6f be
       0.02009606 0.29313532 -0.26655036 -0.23379505
000080 61 40 21 3e 44 36 0f bd 18 c8 96 3e aa 92 de bd
       0.15747215 -0.03496386 0.29449534 -0.10867818
000090 40 95 ea bd 55 64 78 3e 1c c1 83 3d 1b 4f 94 3c
       -0.114542484 0.24257024 0.06433317 0.018104127
0000a0 76 04 d6 bd 90 fd 6a be ac 62 d7 bd 5d 66 c1 3e
       -0.104500696 -0.22948289 -0.10516867 0.3777341
0000b0 22 44 c3 3d 24 cb 35 3e a7 a7 f6 bd 0f cd 27 bc
       0.0953448 0.17753273 -0.12043696 -0.010241761
0000c0 c8 43 5a bd fb 10 39 bd 4f 1f 93 be 37 93 9e bd
       -0.053287297 -0.04518221 -0.28734824 -0.07742923
0000d0 93 8c bc 3d 49 5e be be e7 f4 a1 3c 29 17 2a be
       0.092065 -0.3718131 0.019770099 -0.16610397
0000e0 3f 56 17 be f6 88 7c 3d 15 97 32 be 3f 06 a0 3e
       -0.14778994 0.061654054 -0.17440446 0.31254765
0000f0 62 33 cb be 47 df cd 3b 5c 41 55 3e a4 05 5a 3e
       -0.3968764 0.0062827202 0.20825714 0.21291214
000100 99 65 9c be e8 ce bf bd 0d 5f 80 3e 80 44 80 be
       -0.30546263 -0.09365636 0.25072518 -0.2505226
000110 82 c4 05 be ef ef ac 3d 8f c6 a6 3e 3a 98 1c 3e
       -0.13063243 0.08444201 0.32573363 0.15292445
000120 f1 cf a3 3d e4 f3 96 3d c5 6e af 3e 8e 25 32 be
       0.07998646 0.07370737 0.34264198 -0.17397138
000130 78 da 40 bd 4d 4c 35 3e 06 fd 4f 3e 43 36 f9 3d
       -0.047083348 0.17704888 0.20311365 0.12168553
000140 59 0b aa bd 07 e5 21 be f0 26 99 3e 89 42 59 3e
       -0.08302946 -0.15810023 0.2991252 0.21216787
000150 02 0d 97 3e 3f 87 84 3d 41 6e 9e 3c c5 29 02 bd
       0.29502112 0.06471109 0.019339683 -0.031778116
000160 96 6d 59 be 5a fc 73 3d 3d 3c 0e 3d a6 a5 63 bb
       -0.2123321 0.059566833 0.034725416 -0.0034736185
000170 44 32 54 be c9 2a 89 be bf 3d ae be 48 23 95 3d
       -0.207223 -0.26790455 -0.34031484 0.0728212
000180 c9 16 11 be 86 ef 25 bd 05 d7 0e 3e 94 67 5d 3e
       -0.14168848 -0.04051163 0.13949211 0.21621543
000190 fd a7 52 bd 33 ad f8 bd 88 5d d1 be 66 8b ec bd
       -0.051429737 -0.1214241 -0.4089167 -0.11550026
0001a0 13 52 86 3d 6e 1f 57 be 2e 2f 45 be 76 9d 83 3d
       0.06558623 -0.21008083 -0.19256279 0.06426518
0001b0 52 dd db bd 8f 92 ce bd 35 a5 c7 bd 7e 1d 9d 3e
       -0.10735573 -0.100865476 -0.097483076 0.30686563
0001c0 4e f7 ce 3d fe d6 a2 bd 87 84 10 be 9e 01 ea 3d
       0.101057634 -0.07951163 -0.14113055 0.1142609
0001d0 1f d0 d7 bb 83 d9 66 3e e9 a1 b1 bd fd cb 4c be
       -0.0065860893 0.22543912 -0.0867346 -0.1999969
0001e0 07 32 1f be 45 35 62 bd 1b c6 17 be b4 26 95 3d
       -0.15546428 -0.055226583 -0.14821665 0.07282773
0001f0 6e 14 c1 bd 5e 91 00 3e 3b cb be bd c7 72 92 be
       -0.09427725 0.12555453 -0.09316107 -0.28603193
000200 5c 49 7f 3c f7 63 85 3d ff a7 7b 3c 83 60 38 3c
       0.015581455 0.065132074 0.015359878 0.011253479
000210 9e fd 0a 3e 5a db 2c 3e d6 f8 96 bd 53 48 4c bd
       0.1357331 0.16880551 -0.073716804 -0.04987366
000220 d0 9a fa bd 57 ca 88 be 03 84 39 3e ad 81 9b bd
       -0.122365594 -0.26716873 0.18116765 -0.07593093
000230 ef d7 ab bd 38 59 83 3e 44 58 4a 3e f0 3b b4 3d
       -0.083907954 0.25654006 0.19760233 0.08800495
000240 29 97 d0 bd ba cc 15 3e 16 3f c5 bd 15 b4 05 be
       -0.101850815 0.14628878 -0.09631173 -0.13056977
000250 e1 24 37 bd 05 a0 88 be 8f e1 3f be 56 3c 13 be
       -0.044712905 -0.26684585 -0.18738388 -0.14378485
000260 50 c0 6d be 5e 50 67 3c 46 6c 70 be 65 ef a8 3d
       -0.23217893 0.014118282 -0.23478803 0.08248786
000270 a8 d1 19 3d 97 35 86 be df 51 b5 3e 16 d3 2b be
       0.03755346 -0.2621276 0.35414025 -0.16779742
000280 5b fd 9c 3d 02 95 05 3e 6c c3 42 3e 57 36 56 bd
       0.07665511 0.13045123 0.1901986 -0.052297916
000290 4f 39 8e be 18 da 36 3d c1 df 92 3c 9c 76 59 3e
       -0.27778098 0.044641584 0.01792896 0.21236652
0002a0 48 56 d3 bd 0f a2 d8 be b7 f7 c2 bd 9f 22 f3 bd
       -0.10319191 -0.4231114 -0.09519904 -0.11871838
0002b0 e3 76 04 be 39 98 96 be bc 82 06 be d4 c2 8f bc
       -0.12935977 -0.29413012 -0.13135809 -0.017548956
0002c0 d4 2f 55 be 82 29 14 3e af 86 c5 3d 8a 0d 80 3d
       -0.20819026 0.14468959 0.096448295 0.06252582
0002d0 da e0 16 3d 83 44 7e bd 96 b8 36 3e 44 50 29 be
       0.03683553 -0.062077057 0.17843851 -0.16534525
0002e0 0b 97 54 bc c5 ee 95 be 3a 9d 11 3f e4 9e 81 3c
       -0.012975465 -0.2928373 0.56880534 0.015822835
0002f0 6c 4c 94 3d c7 0f af 3e 71 d9 62 bd ea 42 46 3d
       0.07241139 0.34191725 -0.05538315 0.048403658
000300 2d c4 f5 3b cb 17 bc 3c f2 c9 89 3e c8 cd f3 3e
       0.0075001926 0.022960564 0.26911885 0.47617936
000310 3f a9 2a be 3d 74 17 be 2a b3 26 3e 63 8e 1d 3e
       -0.16666125 -0.14790435 0.16279283 0.15386347
000320 94 cf 6e be bf 47 8e 3e c1 4a 08 be 29 30 60 3e
       -0.23321372 0.27789113 -0.13309766 0.21893372
000330 2b 0c c5 3c f0 2c d7 3d 7a c2 08 3e e2 ac 3a be
       0.024053654 0.10506618 0.13355437 -0.18230012
000340 c0 f4 29 be 1d cb 3e 3e 49 35 0e 3e b5 4b 6e 3d
       -0.16597271 0.18632169 0.13887514 0.05817767
000350 30 8c 1f be 69 a5 b8 3e 0a 31 94 be 40 00 e9 b8
       -0.15580821 0.36063698 -0.28943664 -0.00011110352
000360 90 81 0a 3f bd 42 07 3d e2 42 29 3e 06 c4 e5 bd
       0.54103947 0.03302263 0.1652942 -0.11219029
000370 40 6a 80 bd 44 22 f0 bd 59 38 8a bd 82 a2 e4 bd
       -0.062702656 -0.11725286 -0.06749029 -0.111638084
000380 49 8c 9e be 96 32 9c bd 06 fc 55 3e 3b 61 39 3e
       -0.30966404 -0.07626836 0.2089692 0.18103497
000390 1b 92 1f 3e 41 46 03 bd 51 f3 82 3d a2 e4 11 3e
       0.15583079 -0.03204942 0.06394065 0.14247373
0003a0 e7 96 77 be 3b 24 f2 bc b6 6d 0c 3e 07 47 16 3e
       -0.24178658 -0.029558292 0.13713726 0.14675532
0003b0 5a 41 d1 bd 2c 0a 14 bd 93 f9 61 bd e2 24 50 3d
       -0.10217543 -0.036142513 -0.055169653 0.050816424
0003c0 7f 57 7b 3e bf b7 35 3e 8f 3a 03 3d 6e 3f 74 3e
       0.24545096 0.17745875 0.032038268 0.23852322
0003d0 d4 48 51 3d 09 ad 46 bd f6 e4 96 3d c1 e2 37 3d
       0.051094845 -0.048504863 0.073678896 0.044893984
0003e0 2b 3e e1 3b 86 70 a3 be d5 f0 7b 3e 40 5a b9 3d
       0.006873866 -0.31921786 0.24603589 0.09050417
0003f0 db 57 cb 3d d1 56 d2 bd 1e e7 8c 3e d6 87 91 3e
       0.099288665 -0.10270465 0.27520078 0.28423947

actor.0.bias f4 [32]
000000 d1 39 4a 3c 61 f4 ce 3b 4e c4 98 bc 53 72 28 3d
       0.012342886 0.0063157533 -0.018648293 0.041124653
000010 90 10 c1 3c 97 19 b6 bc d3 4b b5 3c 8c 1b 21 3d
       0.023567468 -0.022228999 0.022130882 0.03933291
000020 99 27 b3 3b 19 01 4a 3c 78 8f 80 bc aa 44 b5 bb
       0.005467367 0.012329363 -0.015693411 -0.005531867
000030 6a 88 7e 3d 00 00 00 00 4c 39 72 bc fa 95 6f bd
       0.062141813 0.0 -0.014784168 -0.05849264
000040 45 25 03 bd 4b db 5c 3d bf 92 b6 3a a4 ad a8 3c
       -0.032017965 0.05392007 0.0013929232 0.02059061
000050 09 68 51 3c 43 39 8b bc 27 87 01 3d 31 0c 45 3b
       0.012781152 -0.016995078 0.031623032 0.003006708
000060 c7 cd e1 bc 11 16 c5 3c d2 cd 9e bb 56 da 00 3d
       -0.027563943 0.024058374 -0.004846313 0.03145822
000070 6e 4c aa bc 46 53 36 bc 11 f0 9f 3c a1 a6 9b bc
       -0.020788398 -0.011128252 0.019523652 -0.019000353

actor.2.weight f4 [9, 32]
000000 50 01 93 be 0c da b2 3e 41 35 6f 3e 8e 54 d1 3b
       -0.2871194 0.34931982 0.23360159 0.0063882535
000010 f8 a8 07 3e e4 30 a5 bd 1d 17 75 be 0f e2 95 bc
       0.1324805 -0.08065966 -0.23934598 -0.01829627
000020 0b 3b fe 3e ee da e7 3e fb 2b 35 3e 5f a7 ad 3e
       0.4965442 0.45284218 0.17692558 0.33916757
000030 06 60 27 3e 5a 6f 05 3e b3 d7 48 bd 4b 50 92 3e
       0.16345224 0.13030759 -0.04903383 0.28576884
000040 ae 56 f3 3e 6b c6 09 3e 8f 6b 2e be 6e 9b 27 3e
       0.4752707 0.13454597 -0.17033218 0.16367885
000050 0d 9f 65 3e 3d ab 06 be ae 1b 1d be e5 9c 0c 3e
       0.22423954 -0.1315126 -0.1534259 0.13731726
000060 16 4b b7 be 12 83 fb be 1f ab dc 3e 86 1a 54 3e
       -0.35799474 -0.49123436 0.43099305 0.20713243
000070 20 ab 88 bc 87 20 8d be aa c7 7b 3c a3 04 9a be
       -0.016683161 -0.2756388 0.015367428 -0.30081663
000080 e9 8f 32 be 93 44 13 be e6 f2 9e be 41 3d 97 be
       -0.1743771 -0.14381628 -0.31044692 -0.2953892
000090 b3 51 9d be be ab 82 be 05 30 43 3e 31 cd a3 bd
       -0.30726394 -0.25521654 0.19061287 -0.079981215
0000a0 51 5b 49 bc bb d8 85 3e f3 12 60 3e b7 a7 d4 3e
       -0.012289838 0.26141915 0.21882229 0.41534206
0000b0 99 cd 01 bf 3c 48 24 3e 00 d2 15 be f2 47 98 be
       -0.5070434 0.1604318 -0.1463089 -0.2974239
0000c0 b8 85 bd 3d 8a 55 a6 3e f9 e7 33 be ee 57 8c be
       0.092540205 0.32487136 -0.1756896 -0.27410835
0000d0 fc 0a d4 3d 32 3a e3 3e bc 0c 24 3d 4d e4 00 be
       0.103536576 0.44380337 0.040051207 -0.1258709
0000e0 56 2a 9a bd 3c b2 07 3f 06 fe 82 3b 25 50 f7 3e
       -0.07527606 0.5300634 0.003997567 0.48303333
0000f0 2a 83 cc bc 7c fa a2 3d c6 b6 a7 3e c4 41 b1 bd
       -0.024964888 0.07957932 0.32756633 -0.08655122
000100 6e 83 9c be f3 bf 30 bc 65 18 14 3e 22 82 a1 3d
       -0.30569023 -0.010787952 0.14462431 0.07886149
000110 84 a1 cb 3e 5f 81 2c 3d 37 22 d9 bd c4 c0 cb be
       0.39771664 0.042115565 -0.10602229 -0.39795506
000120 de 13 bd be 97 20 ed 3e 02 85 83 3e e6 b8 e5 bd
       -0.3692922 0.46313927 0.25687414 -0.11216907
000130 a7 5d de be ee eb e0 3e 90 71 fe 3e b7 13 7c be
       -0.43430826 0.4393 0.49696016 -0.24616896
000140 19 d3 bd be 59 15 84 be 2b 91 dc bd cd fa 8e 3e
       -0.37075117 -0.25797537 -0.10769876 0.2792572
000150 41 d0 9e be be 60 7c bd e8 b9 26 3e 93 31 bd be
       -0.3101826 -0.061615698 0.16281855 -0.36951885
000160 81 c0 4a bd 05 4b 5c 3c 56 0b e4 3e 70 95 b1 be
       -0.049499992 0.01344562 0.445399 -0.34684324
000170 f2 85 5a bd 17 72 2a 3e 05 ac 9b be 11 7e 93 bd
       -0.053350396 0.16645084 -0.30404678 -0.0720178
000180 4a 34 5e 3e 24 58 eb be 3f 2f 0d 3e 6c 5e 95 be
       0.21699634 -0.45965683 0.13787554 -0.291736
000190 bb fb ac 3c eb d3 6f be 1b f7 18 3e b6 06 a6 3e
       0.021116128 -0.23420684 0.14938013 0.32426995
0001a0 a0 f4 75 bd 02 cb 3d be b5 3b a5 3d e7 18 34 be
       -0.060047746 -0.18534473 0.08068029 -0.17587624
0001b0 c9 ac 4c 3e 7d e9 81 bd 20 4e a3 3d 97 bc bb be
       0.19987787 -0.063433625 0.079738855 -0.3666732
0001c0 2b de c5 3e 64 53 6c 3e c1 22 f8 be 60 9e 2e 3e
       0.38646063 0.23078686 -0.48464015 0.17052603
0001d0 af 95 74 3e 59 5f 8d 3e f0 4c 1b 3e b6 99 75 bd
       0.23885225 0.27611807 0.15166068 -0.059961043
0001e0 3a 36 ba be f3 a0 7f be 07 20 06 3e 6a af a0 3d
       -0.36369497 -0.24963741 0.13098155 0.078459576
0001f0 82 dd b4 3e 03 5f 44 be 53 a2 d1 be 70 83 31 3e
       0.35325247 -0.19176869 -0.40944156 0.17335296
000200 4d 13 c9 bd be 33 9c 3e f9 71 b3 3e 90 b1 9f be
       -0.098181345 0.30508226 0.35047892 -0.31190157
000210 ad 9b 3a be e1 8e e7 bd 34 22 79 be c4 e4 db bd
       -0.18223448 -0.11306549 -0.24329454 -0.10736993
000220 cc 79 c1 3d 2a 31 8a be e4 57 f8 3e 77 5d e3 bc
       0.09447059 -0.26990634 0.48504555 -0.027754528
000230 1d 92 87 bb 92 3d 14 bc 81 2c 16 3e 07 f9 02 be
       -0.004137291 -0.009047883 0.14665414 -0.12790309
000240 c3 38 83 3e 87 4a e9 bd 5d 87 f8 bc b5 be 27 3f
       0.25629243 -0.11391168 -0.030337984 0.6552537
000250 40 c2 2c 3e a9 67 19 3e 54 36 32 be 78 d2 29 3e
       0.16870975 0.1498095 -0.17403537 0.16584194
000260 11 8c 0b 3f 44 7d b0 3d 2c 81 d8 3d 36 14 51 be
       0.545106 0.086176425 0.105715126 -0.20417866
000270 cd 3e 29 3e f3 9e ff 3e a1 d0 19 3e 83 e3 12 bd
       0.16527863 0.49925956 0.15020992 -0.035861503
000280 2c c6 5d 3e 6f e2 3b be 31 41 ad bd f1 a0 96 be
       0.21657628 -0.18348096 -0.084597 -0.29419664
000290 3d 9f af 3e 95 70 b7 3d 28 5e e2 3d 36 65 77 be
       0.34301177 0.0895702 0.11053115 -0.24159703
0002a0 a1 8c 1a 3e c2 bb d9 bd fb df c2 be 8c 83 c9 be
       0.15092708 -0.10631515 -0.3806151 -0.39358175
0002b0 ff 16 8e be 80 71 0d bd a0 b7 3e 3e 39 b5 89 bc
       -0.2775192 -0.03453207 0.18624735 -0.016810047
0002c0 99 b9 52 3e d4 35 f6 be f0 7e 5c be 97 7b 34 3d
       0.20578612 -0.48087943 -0.21532798 0.044063177
0002d0 8c 2c b2 3e 21 5f 21 be 15 ba 69 be 33 c4 97 3b
       0.34799612 -0.15758945 -0.22824891 0.004631543
0002e0 fc 2a 8d 3e e8 e6 f3 3e 1a d9 8c 3e 4f d5 b0 3d
       0.27571857 0.47637105 0.27509385 0.086344354
0002f0 2c e5 8e 3d d6 52 f7 be 59 22 89 3e 6e 3b 2c be
       0.06977305 -0.48305386 0.26784018 -0.16819546
000300 77 e7 85 3e 3f 44 51 3d e1 a8 6c 38 91 0f 1c 3e
       0.26153156 0.051090475 5.6424065e-05 0.15240313
000310 51 61 a9 bc 67 00 9e 3d 4e a0 97 3d 34 2d b1 3e
       -0.020676287 0.077149205 0.074036226 0.346048
000320 60 99 75 3e 11 64 fd 3d 95 68 8a be 9b b1 5e bd
       0.23984289 0.12372602 -0.27032915 -0.054368597
000330 18 ec ab 3e 1e 5d 03 3f 8a 5e 1b 3b 29 8b 22 bf
       0.33578563 0.5131396 0.0023707473 -0.6349359
000340 d3 2a 2d 3d 4f 29 01 3e c9 11 e3 be 07 8a 2f bd
       0.04227717 0.12613414 -0.44349506 -0.042856243
000350 7f 54 a1 bc b3 67 06 bf 72 78 8c bd c2 c0 e0 3d
       -0.019693611 -0.5250198 -0.068589106 0.10974266
000360 2d d0 17 3c 8c 38 ea bc 0c 8d b5 3d d8 b2 41 be
       0.009265942 -0.028591417 0.08864793 -0.1891588
000370 5f 99 a4 be 38 d4 a1 3e bc 34 0e 3f f6 ef 0b 3e
       -0.32148263 0.31607223 0.55549216 0.13665757
000380 b0 44 be bc 57 d7 44 be 7c 22 b7 3e 6a 2c f1 3d
       -0.023226112 -0.1922277 0.35768497 0.117760494
000390 d6 54 e9 be ef 9a 90 be e2 fa af 3c d4 4f 0b 3e
       -0.45572537 -0.28243205 0.021481935 0.13604671
0003a0 23 e1 36 3d 18 7e 64 3e f1 98 08 be f7 12 19 bf
       0.0446483 0.22313726 -0.13339593 -0.59794563
0003b0 94 5f f0 3d ac 20 08 3d de db a7 be 71 7a 12 be
       0.1173698 0.033234283 -0.32784933 -0.1430452
0003c0 2f c7 e5 be bf 30 ac 3d 49 50 41 3e 8f 45 11 3e
       -0.44878528 0.08407735 0.18878283 0.14186691
0003d0 50 fa 28 3e 07 4c 9b 3d ed f5 6f be d3 0a be 3e
       0.16501737 0.075828604 -0.23433657 0.37117633
0003e0 32 7e 77 bd fc 0f ec 3e a1 eb 43 3e 5f 5f 5f 3e
       -0.060423084 0.46105945 0.19132854 0.21813725
0003f0 12 ea f9 be b4 c2 81 be 66 97 b6 be 18 0f 64 3c
       -0.48811394 -0.2534386 -0.35662383 0.013919614

actor.2.bias f4 [9]
000000 4c 56 9b bc 7f eb 2d bc 13 f1 12 3d 40 ee 10 3d
       -0.018962048 -0.010615229 0.035874438 0.035383463
000010 53 f0 9f bc 5f 33 73 bc 60 fc de 3c b8 90 3c 3d
       -0.019523775 -0.014843791 0.027219951 0.046036452
000020 c5 db 58 3c
       0.013235991
