logs/20250602_160047/checkpoint_episode_2300.pt (torch, 586523 bytes, 39 tensors)

shared_net.0.weight f4 [128, 30]
00000000: 6ed7 d5bd 5038 d33b 4d2d 1dbc ed6b b73c
00000010: 4e17 46bc f1a8 99be 4c58 dfbe 817b b3be
00000020: eda5 f6be 221f 7fbd 59b2 c7be a3b7 cebe
00000030: 9077 a7be dfd1 8fbe a3ec 6cbd 89a1 09bf
00000040: 6e6a c3be 2d17 82be dec6 78bd 403b e6bc
00000050: d893 1ebd 8924 51be 66cd 333e 735c d8bd
00000060: 57a3 963e 069b e93d 19c7 513e d973 e73d
00000070: 0819 dc3d c5e1 0d3e deec 2f3d 445c 96bd
00000080: c9bb 7c3e 4874 c1bd b20a 71bd f21e e43e
00000090: 0ebd b73e 055f b63e 6d5e 2f3e 5120 083f
000000a0: 9a02 983e 750e 8c3e 2b77 253e 9eec 563e
000000b0: fd06 b43e 21dc 573e 42b9 123e 3b06 ab3e
000000c0: 297b ae3e 83f1 b83e 8b46 723e ec12 c53d
000000d0: 0911 8a3e 6533 ae3e f7dc e23d a19d ab3e
000000e0: 0250 283e 84f3 ef3e 096a 993e 3b80 cc3e
000000f0: b593 56bd 34e5 40bd 27ef e33d 6414 103e
00000100: 3e34 603d debb 283d 3136 82bf 3425 fabf
00000110: 93a4 03c0 16db f9bf be3e 8bbe 47d9 adbe
00000120: 8518 25bf e7ae a3bf 9f70 90bf 8dd8 9dbd
00000130: 1099 d93d 7b9f be3b 67b1 aa3d 0bc3 efbd
00000140: fd0b 883c bd75 0a3e 34c7 8b3d 112f 1b3e
00000150: 0274 9f3d 9054 453e aeb2 3c3d 0db3 b83e
00000160: bcf5 733e ea65 0b3e 48c5 b53d a71d 1ebe
00000170: a355 233e 2692 8d3d 6a95 84bd 6cb5 ee3e
00000180: a413 c8ba aabc 12bf 2f30 6fbf 1737 51bf
00000190: 5f7b 7f3e b2c1 1abd 3f86 eebe d57b 91bf
000001a0: 0632 40bf 57ed 933e 9dbb a6bc a47f 82be
000001b0: 98e9 15bf fe7b 76be fba4 3d3e 4a18 0e3e
000001c0: c513 f93d 651f 873d 8ab1 4b3e 8270 953e
000001d0: b628 683e a0d5 a33e 7a85 a13e e205 e23d
000001e0: cae5 33bd cf81 0c3d d3dc 03be 4537 aa3d
000001f0: 0d06 f53a a2bb 353e ebba a43b 308c d03d
00000200: b86c 01bc 3baf 16be 532a b83c c33b a5bd
00000210: 444c 853d 9a81 623e 9c28 723e 8073 33bd
00000220: 8ec3 dd3d 1618 dcbd d9a2 8a3c 817b 063e
00000230: 2ed2 28bd 4d2b 983e d078 293e 7c87 46bd
00000240: 6785 ab3d 4f88 05bd 7df8 cc3b 33c9 abbd
00000250: 8af0 973c 7c80 78be a7bc e8bd 306a 28be
00000260: 1af1 a8bd e9bc 0dbe 15bd 0b3e 53c4 c53d
00000270: e001 00bd 39c8 4dbd 29e5 2abd ea3c d9bb
00000280: 2338 63bd bd84 a13d c392 2d3d 4a90 a53b
00000290: 33d5 e03d 0be7 343e ccfa 36bd fbee 4e3d
000002a0: 1e2a cebd bf08 313d 230a 433b 84fa 51bd
000002b0: f157 a0bd a383 2f3e 7102 763e 545e 8ebd
000002c0: dc6d 9fbe 810f eabc bc79 6abe 3ecd 0dbe
000002d0: 4de1 e13c 6833 53bd 2440 16bc aea3 0abe
000002e0: 0911 0cbe 58c8 3d3d b9d6 983e 4d16 dc3d
000002f0: 7745 463e a4a9 9ebd c50d 963d 8558 abbd
00000300: 33d7 1dbc 1544 a1bc fcd3 0dbe 8d2a 29be
00000310: 4d05 20be b7f3 11be 53d3 b7bd ef5b bcbc
00000320: e905 b1bd e412 a93e bf3e 373d 5772 173a
00000330: 6269 7bbd 6c11 dbbd 9022 0a3d b3d6 a73d
00000340: 3bb1 153e 3be4 77bc 76ae 243d f064 ab3b
00000350: 5428 883e 31b0 7e3d fdaa 9a3d 3bf6 f63d
00000360: 26ec 943e 0119 59bd ee8f 7b3c 9abf f93c
00000370: 19fb 4dbe 244e ebbc 2fe6 0d3e fe11 5dbe
00000380: 8fa8 20bd 996f bcbd 5fd0 643e 633f 3f3d
00000390: cece 2c3e 5655 1c3e f481 053d 7ae7 2ebe
000003a0: 1822 6ebd 5259 833d a114 7abc 8a6d a33b
000003b0: d54d ad3d 11ee 813e 8f13 1abe 34c8 f33d
000003c0: 5572 523d 8b3e 073e 2cd6 29be 0c79 f6bc
000003d0: c4bd 7fbd 17e9 eabd 1b52 0ebe 7d33 80be
000003e0: 52df ddbd b87a 8cbd df6b 4ebd f1bb 48be
000003f0: bbea a1bd 90a9 0cbe 4f30 4f3e ec89 3fbe
-0.104414806 0.006445922 -0.00959332 0.02239033 -0.012090517 -0.30011705 -0.43622053 -0.35055164
-0.48173466 -0.06228555 -0.39003256 -0.4037448 -0.32708406 -0.28089806 -0.05784286 -0.5376211
-0.38167137 -0.25408307 -0.06073653 -0.028104424 -0.038715214 -0.20424093 0.17558822 -0.10564508
0.29421493 0.114065215 0.20486106 0.11301393 0.10746962 0.13855655 0.042950504 -0.07341817
0.2468101 -0.09446007 -0.05884809 0.4455486 0.35886425 0.3561937 0.17125864 0.5317431
0.29689485 0.2735478 0.1615874 0.209887 0.35161582 0.21080066 0.14328483 0.3340319
0.3407834 0.3612176 0.23659723 0.0962275 0.26966122 0.34023586 0.11077302 0.335187
0.1643677 0.46865475 0.2996371 0.39941582 -0.05238696 -0.047093585 0.11129599 0.14070278
0.054737322 0.04119479 -1.0172788 -1.9542603 -2.0569198 -1.9519985 -0.27196306 -0.33954832
-0.6449054 -1.2787751 -1.1284369 -0.077073194 0.106248975 0.0058173514 0.08334618 -0.11707123
0.016607279 0.13521476 0.06825104 0.15154673 0.077857986 0.1927054 0.04606884 0.36074105
0.23824209 0.13613096 0.08875519 -0.15440999 0.15950637 0.06912641 -0.06473811 0.4662279
-0.0015264642 -0.5731913 -0.934329 -0.81724685 0.24949406 -0.03778238 -0.46586797 -1.1365916
-0.7507633 0.28892013 -0.020353133 -0.25488007 -0.5855956 -0.24070737 0.18519966 0.13876453
0.12161974 0.06597785 0.19891945 0.291874 0.2267178 0.3199892 0.31547147 0.11036278
-0.043920316 0.034303483 -0.12877207 0.08311323 0.001869382 0.17747357 0.005027165 0.10182989
-0.007899456 -0.14715283 0.02248112 -0.08068039 0.06508687 0.22119752 0.23648304 -0.04381132
0.10828315 -0.107467815 0.016923355 0.1313305 -0.041216068 0.29720536 0.16549993 -0.04846905
0.08375054 -0.032600697 0.006255208 -0.08387985 0.018547315 -0.24267763 -0.113641076 -0.16446757
-0.082491115 -0.13841595 0.13646348 0.096565865 -0.03125179 -0.050239775 -0.04172245 -0.006629576
-0.055473458 0.07886646 0.04237629 0.005052601 0.109781645 0.17666261 -0.044672772 0.05052088
-0.10066627 0.04322123 0.002976068 -0.0512643 -0.078292735 0.17140059 0.24024369 -0.069515854
-0.31138504 -0.028571846 -0.22898 -0.13847825 0.027573252 -0.051562697 -0.009170566 -0.13539001
-0.13678373 0.04633364 0.2985132 0.10746441 0.19362436 -0.077472 0.07326845 -0.08366493
-0.009633827 -0.019685784 -0.13850397 -0.16520138 -0.15627022 -0.14253126 -0.08975854 -0.022993056
-0.086437054 0.33022225 0.044737574 0.0005777231 -0.061379798 -0.10696682 0.033724368 0.081952475
0.1461839 -0.015130098 0.04020544 0.0052305385 0.26593268 0.062179748 0.07552145 0.120586835
0.29086417 -0.05300236 0.01535414 0.03048687 -0.20115317 -0.028723784 0.1385734 -0.21588895
-0.03922325 -0.09200973 0.22345112 0.04669131 0.16875765 0.15266928 0.032594636 -0.17080489
-0.058137983 0.06413521 -0.015263707 0.0049874233 0.08462111 0.25376943 -0.15046524 0.1190342
0.051378567 0.13207452 -0.16585606 -0.030087017 -0.062436834 -0.114702396 -0.13898508 -0.25039282
-0.108336106 -0.06859344 -0.050395843 -0.19602944 -0.079060994 -0.13736558 0.20233272 -0.18704957

shared_net.0.bias f4 [128]
00000000: 9504 9c3d a66a 703d 7166 bfbd 01ad 28bd
00000010: df76 f23d 7930 84ba 84cb 99bb cd60 78bd
00000020: 1de0 133e b3f6 02bc a094 ef3d eac1 cf3d
00000030: 9d23 cc3d 4f69 333c 8a3d 453d 6aff 01be
00000040: 0000 0000 33d5 8a3d fd44 c5bd e341 a1bc
00000050: 0a56 d83d b5cf a03d c71f b53d f9de afbd
00000060: 14b3 da3c 835f 493c fc1b 013e 9ab1 f13d
00000070: 5b7d adbd a599 98bb d9cd c1bd 3efd d13d
00000080: bd44 32be a405 903c dfca 69bd 784f 283e
00000090: 0ae7 5fbd d415 1d3d f1aa f9bb 4877 623d
000000a0: 0000 0000 1c52 a53d 8e4b 263e 21a8 15bd
000000b0: a714 223d 0000 0000 024f 69bd a1e4 cb3d
000000c0: 9f81 bcbd bf0b 3cbd 43a1 303c 13f8 edbc
000000d0: 8dc5 493d 4636 673d ea14 2b3e 35b4 8bbc
000000e0: 0d29 95bc 8d8f 0b3e dfda f63d c956 163e
000000f0: 8dce f53c 7f6a 0d3e 0000 0000 7294 7dbd
00000100: 4991 ed3d 5b1d bb3d eca0 443d a80a ef3d
00000110: 7808 eb3d 105a 12bd 5fc4 b8bd 62c3 92bd
00000120: e1f5 153e 0000 0000 2e04 023e f746 5b3d
00000130: 8d85 c73d ee13 c73d dd61 153e f961 91bd
00000140: 82d0 733d 377c 12bd a551 d93d e5c3 ef3d
00000150: ac15 163d 1c40 b63d 8a3a dfbd a3f7 893d
00000160: a07d dbbb 6938 7bb9 acbe 20bc 5688 e5bd
00000170: 0531 0a3e 0dc1 d43d e95e a0bc 4c04 b63d
00000180: 1ac0 ed3d fdcb 8f3c 0000 0000 a51a ad3b
00000190: f883 52bc 976e 773d a449 f43c e6b9 b23d
000001a0: 1f7b 133e 6419 3e3d 581a fabd acc1 133e
000001b0: 5e17 a53d 0000 0000 0088 b8bd b631 823a
000001c0: c24a 4bbd bb9a edba 514a 17bc 7e17 e33d
000001d0: 84f1 133e 0000 0000 3b08 43bc 4935 61bd
000001e0: bf73 0d3e 0380 d0bc e5bc 00bd a8d9 98bd
000001f0: d125 9a3d 7e7f 5d3d 3455 14be 453a 263d
0.076180615 0.058695458 -0.09345711 -0.041180614 0.11839079 -0.0010085247 -0.0046934504 -0.06063919
0.14440961 -0.007993388 0.1169827 0.10144408 0.0996773 0.0109504005 0.04815439 -0.12695089
0.0 0.06778946 -0.09632299 -0.019684738 0.10563286 0.07852117 0.08843952 -0.085874505
0.02669672 0.012290838 0.12608331 0.11801453 -0.08471175 -0.0046569877 -0.094630904 0.1025338
-0.17409034 0.017580815 -0.05707824 0.16436565 -0.054663695 0.038350895 -0.0076192548 0.055289537
0.0 0.08072302 0.1623976 -0.036537293 0.039570477 0.0 -0.056960113 0.09955717
-0.09204411 -0.04590964 0.010780635 -0.029048955 0.049260665 0.056448244 0.16707197 -0.017053703
-0.018208051 0.13628979 0.12053465 0.14681543 0.030005718 0.13810156 0.0 -0.061909147
0.115999766 0.091364585 0.04800503 0.116719544 0.11476225 -0.03573042 -0.0902183 -0.071661726
0.14644577 0.0 0.12696907 0.053534474 0.0974227 0.09720598 0.14588113 -0.07098765
0.05952502 -0.03576299 0.106112756 0.11707286 0.03664176 0.08898947 -0.10899837 0.06736686
-0.0066983253 -0.0002395824 -0.009811085 -0.11207645 0.13495262 0.10388384 -0.019576507 0.08887538
0.11608906 0.017553324 0.0 0.0052827173 -0.012848847 0.0604082 0.02982027 0.087268636
0.14402436 0.046410933 -0.12212056 0.14429349 0.080610976 0.0 -0.09010315 0.0009933028
-0.04963184 -0.0018127778 -0.009234027 0.11088465 0.144476 0.0 -0.011903818 -0.054982457
0.13813685 -0.025451666 -0.031430144 -0.0746339 0.07526744 0.054076664 -0.14485627 0.040582914

shared_net.2.weight f4 [128, 128]
00000000: 7837 8d3d 95e2 e73d 4076 71bd 5bb2 3bbe
00000010: 0c1a a03e 0e73 3e3d 9169 313e d397 9dbe
00000020: f8e8 713e 1e6d 133e 3631 39bc e4f3 40be
00000030: 3525 06bd 6663 4abe 6593 8fbd 6a0e 21be
00000040: 18cc 10bd 2540 05bd 056e efbc 0033 39bd
00000050: 04ae 40be 8b7f 3abe 6f9c 8bbe 8a99 8ebe
00000060: c74c a73d a21a 773c b9fb 06bf cb75 493e
00000070: 2c01 d4be 468c 9f3d 1a71 38bf 8136 843d
00000080: 0079 503e 202d 763e 20b9 303d 8c5c 143e
00000090: be52 f5bd 8099 223c 7d61 6dbc a4fc debc
000000a0: a922 20bd 38c3 05be 5ecc 5dbe f21d a9be
000000b0: 3ec2 c7bd 12c5 423e 0c73 e6bd 8793 323e
000000c0: 5072 a7be 40c7 3dbd 979c 03be f15a 09be
000000d0: e626 c0be df75 10bc 0681 8bbd f7fa 52be
000000e0: 8b42 a2be 3b20 b3bc 7af7 603d 7930 b1bd
000000f0: 7e38 93be 52c9 dd3d dcbc e9bd 7faa 89be
00000100: 24ab 96be f632 81be eb74 7f3e 1560 0fbe
00000110: 0bf4 733e 1a15 88be dd7f 513d 656b e6be
00000120: 9c15 c53c fb91 393d 997f a53d 8b52 2abd
00000130: 1cf6 473e 9fae 24bd ff5d 03be ffa7 2bbb
00000140: a4a4 69be 4cd6 39be 4a88 e23c 0146 fa3d
00000150: adbd a7be 872f 2ebf 20ac 3bbe 6ed7 d3bd
00000160: 0319 843d 33ad 97bd 9d46 89be a86b 30be
00000170: ae7a 2e3e 2523 adbd ba86 cb3d 8e75 1dbf
00000180: ca23 173e d5f7 523d dc69 d4bd d115 37be
00000190: 1d48 dcbd 39a2 9f3e 6493 13be 00e8 743e
000001a0: a0d0 08bd 7f66 b53e 0505 043d fc56 d13d
000001b0: 7483 69be 7911 883c 7c42 f1bd 730d 93be
000001c0: c582 74be 0bff 34be f094 ccbd 0db5 d6bc
000001d0: 269c b93c 8282 d5bb 5fb6 02bd ded6 d8bd
000001e0: f2f5 afbc 2a8d 1dbe dea7 07be 8da7 49be
000001f0: 3560 483e caa4 09be cd9f bebe abca e23c
00000200: b74e 15be 46a3 91be 5822 073f 44a5 f339
00000210: 60f6 8dbd f25d 37be e54d 7f3d 4d44 d33d
00000220: 4e8f 83be bb73 8a3b 64b2 dcbd 5a01 243c
00000230: 64f3 993e 43b1 bfbc b2cd 593d 98ab 673e
00000240: c9dc a83b f972 4abe 5093 c53e 0057 cebc
00000250: ec68 0cbe 9bf1 003f 797a 023f 125b d9ba
00000260: 808d 223c e5f3 5b3d 7f8f 70bd caac 303d
00000270: 2029 5bbc 42f6 423d 582a 503d 49e8 77be
00000280: 20e9 223e be02 03bd b33c 033e 9260 60be
00000290: 97d2 b63e c1b0 89be 9069 603c c184 dc3d
000002a0: f52c a43d 1b9b 2b3e 473a fdbd ebfc bfbc
000002b0: 64e7 a8bd 01ba af3d edcf a8bc 7b34 ad3d
000002c0: 5717 f73b 0f8e 4e3b f6fc 3c3e 7bf5 ce3d
000002d0: a457 9c3c 2031 b3bd 7d6f 693d 2923 c6bd
000002e0: 281a 6bbd ba3a 16be 1e84 9dbc ba4d 38be
000002f0: 5758 12bf c501 b7be 7d20 133e 6809 0b3e
00000300: 07e8 e73d d763 e0bd 1a6e 283e db0c 813d
00000310: dde6 74be 26ee 563d 8968 5a3d a8ed 073e
00000320: 5c9b 4abe 359a 783d dc76 83be b774 3c3d
00000330: 4058 f73d 0b04 cabd 229b 83bd 228c 763e
00000340: 532f 2abd 1574 413d 6754 76be 4466 4a3d
00000350: dc7a e43e 02eb bb3d 0817 c0bd 5ab6 46be
00000360: 1d22 f2bd 6f87 863e d5aa 8e3e a1ae 1c3f
00000370: c81f 933d 1cdf 413d 5f24 a53d b324 20be
00000380: 38eb 28be a38a 2bbe 0c9e 1bbd 2849 573c
00000390: 8e0b 463e 16fb 173d 0017 2a3e 3440 8d3e
000003a0: a1e4 bdbd 1339 7abc 1a8c 8d3e 7309 a7be
000003b0: 5e3a aa3d 4ec8 1ebe 47fa 093e 117c 043a
000003c0: 53ad 3e3c 5969 4e3e c8b6 4a3d 658e e9bd
000003d0: fabe 94be c65e 6dbd a05c 26be e05f 263d
000003e0: 4420 cd3d fc1e 52be 0e86 c33d 848f c03c
000003f0: f4cb 66be e58f 2dbe f322 c3bd 2448 e93c
0.068953454 0.11322514 -0.058950663 -0.18329756 0.31269872 0.046496443 0.17325427 -0.30779895
0.23624027 0.14397094 -0.011303237 -0.18843037 -0.032750327 -0.1976448 -0.07010535 -0.15728155
-0.03535089 -0.032531876 -0.029227266 -0.045214653 -0.18816382 -0.18212716 -0.27267787 -0.27851516
0.08168941 0.015082033 -0.5272785 0.1967384 -0.41407144 0.07790427 -0.7204758 0.06455708
0.20358658 0.24040651 0.0431453 0.14488429 -0.119786724 0.009924293 -0.014488575 -0.027220078
-0.039095555 -0.13062751 -0.21659991 -0.3303066 -0.09753846 0.19020489 -0.11252412 0.1743909
-0.327044 -0.046332598 -0.12852703 -0.13413598 -0.37529677 -0.008817165 -0.06811719 -0.20603548
-0.31691393 -0.021865955 0.054923512 -0.086518236 -0.28754038 0.108294144 -0.11412975 -0.2688789
-0.29427445 -0.25234193 0.24946944 -0.14001496 0.23823564 -0.265786 0.05114733 -0.4500381
0.024058156 0.045305233 0.08080978 -0.041582625 0.19527477 -0.040205594 -0.12828825 -0.0026192663
-0.22816712 -0.18148154 0.027652878 0.122203834 -0.327619 -0.6804127 -0.18327379 -0.10343824
0.06450083 -0.07406082 -0.26811686 -0.17228568 0.17038986 -0.08453969 0.099378064 -0.615075
0.14759746 0.051505882 -0.103717536 -0.17879416 -0.10755942 0.31178454 -0.14411694 0.23916626
-0.033402085 0.3542976 0.03223135 0.10221669 -0.22804052 0.016609894 -0.11780259 -0.28721198
-0.2387801 -0.17675416 -0.09989345 -0.026209379 0.022657465 -0.006515802 -0.031912204 -0.10587858
-0.02147958 -0.15385881 -0.1324763 -0.19692822 0.1956795 -0.13441768 -0.37231293 0.02768453
-0.14580809 -0.2844488 0.5278678 0.00046471704 -0.06931758 -0.17906931 0.062330145 0.10315762
-0.2569527 0.004225222 -0.10776213 0.010010088 0.30068505 -0.023399955 0.053174682 0.22624052
0.0051532728 -0.19770421 0.38588953 -0.02518797 -0.137119 0.5036866 0.5096813 -0.0016582927
0.009921432 0.053699393 -0.0587306 0.043133534 -0.013376504 0.04759813 0.050821632 -0.24209704
0.15909243 -0.031985037 0.12816124 -0.21911839 0.35707542 -0.26892665 0.013697043 0.10767508
0.080163874 0.16758387 -0.12364631 -0.02343603 -0.08247259 0.08580399 -0.02060696 0.084572755
0.007540624 0.003151778 0.18455872 0.101054154 0.019084759 -0.08749604 0.05699109 -0.09674675
-0.05739799 -0.1467084 -0.019228037 -0.179984 -0.57166046 -0.35743538 0.14367862 0.13577807
0.113235526 -0.10956543 0.1644825 0.0630128 -0.23916192 0.05247321 0.05332235 0.13274252
-0.19785827 0.06069394 -0.2567662 0.046009745 0.12077379 -0.098640524 -0.064260736 0.24076894
-0.04154904 0.047229845 -0.24055634 0.049413934 0.44624984 0.091756836 -0.09379393 -0.19405499
-0.11822913 0.26275203 0.2786471 0.6120396 0.07183796 0.047331914 0.08063578 -0.15639
-0.16495979 -0.16752104 -0.037992522 0.01314 0.19340345 0.03710469 0.16610336 0.27588046
-0.09272123 -0.015272397 0.27645952 -0.32624397 0.08311914 -0.15506098 0.1347438 0.0005053888
0.011638003 0.20157374 0.04949072 -0.11404113 -0.29051954 -0.05795171 -0.16246271 0.040618777
0.1001592 -0.20519632 0.09547053 0.023505934 -0.2253874 -0.16949423 -0.095281504 0.028476782

shared_net.2.bias f4 [128]
00000000: 6afb 123d bf43 1dbe cb89 9abd a80f 1b3e
00000010: 602f a53d c990 cabd a114 a33d ef38 aabd
00000020: d00d f8bb 668a 9f3d c208 9fbd c97a a1bc
00000030: 2355 99bc e90f 5b3d 3e94 da3d edb3 783d
00000040: 515a 953d cd1a 96bc 8e08 b63d 017d a23d
00000050: bbd9 babd 335b 113e 6ffe d6bb 74b9 f03d
00000060: e054 69bc 2ea9 95bc b84f 7abd 4db5 b43d
00000070: 3817 a8bd 59d1 cabc aa7d 64bb c7cf 10bd
00000080: 56ae 6fbd 0a8c a73c e1ab a43d 21ea 87bd
00000090: 2738 d8bc 98f4 b4bc 843d d8bb 4ea8 4bbc
000000a0: de3d ca3d b7ee 5fbb f71e 4fbd bd6f ed3d
000000b0: 8d65 24bc 4295 e6bd 593c b83c 9fa0 263c
000000c0: 1388 dc3d 1157 fd3a 9745 7ebd 0c13 033e
000000d0: 8a4c 40bc cbeb c1bc 26bf 953d 6b2a dc3d
000000e0: 8535 0d3e 7e6a eebd 8821 df3c 7a65 0cbc
000000f0: b0dd 73bd 5dec 8a3d 75c5 753d 315b 6e3d
00000100: ed9f b43d 5135 903c e496 a9bd 5f26 2bbc
00000110: a722 fa3c c1c3 0c3d c118 1f3e a53e afbc
00000120: 4969 dbbd 6ec7 b5bd 36c4 2dbd 16af ae3d
00000130: b2ed 853a 0000 0000 0000 0000 e6b4 b2bd
00000140: 0000 0000 7632 ed3d 1f5a 2e3e 0292 d43c
00000150: eaa5 753b f508 35bc c116 3e3d b7e4 17bd
00000160: fdd8 d53d b765 2ebb 699f 6ebd ce82 443d
00000170: 41c9 acbd 982a d0bc ba16 583d 2c9d 7e3d
00000180: fffd b03d f59d be3d d705 babd cacb 103d
00000190: 637d 1e3d 4959 e43a 0000 0000 da27 b23d
000001a0: 16f5 b93d 2177 00be 7498 f93d 330c dc3d
000001b0: fe22 9d3c fe2c c23d ebf0 833c 6fa5 0e3e
000001c0: 6474 113e 444b 253d 5eba fb3d 7010 dd3d
000001d0: bdbc 993d 4779 b73d 925c e5bb c633 c63d
000001e0: cb40 b73d 277a 193e 6f82 babc 4e96 c2bc
000001f0: 845b 093d 1d33 90bd daf4 e13d d73a d33d
0.0358843 -0.15357874 -0.07545813 0.15142691 0.08065677 -0.09890897 0.07962919 -0.083116405
-0.007570006 0.07790069 -0.07765342 -0.019711869 -0.018717354 0.05348197 0.10672806 0.060718466
0.07292617 -0.018323326 0.088883504 0.07933999 -0.0912356 0.14194946 -0.0065610926 0.117541224
-0.014241427 -0.018269148 -0.061111182 0.08823643 -0.082075536 -0.024758028 -0.003486494 -0.035354402
-0.05851587 0.020452518 0.08040596 -0.066364534 -0.026393963 -0.022089288 -0.00659913 -0.012430264
0.098750815 -0.0034169385 -0.05056664 0.11593578 -0.010033977 -0.112589374 0.022489714 0.010170131
0.107681416 0.0019328316 -0.062078085 0.12800235 -0.011736998 -0.023672005 0.07311849 0.10750278
0.13789947 -0.116414055 0.027237669 -0.008569116 -0.05953759 0.06783364 0.060002763 0.058192436
0.08819566 0.017603548 -0.08280733 -0.01044616 0.030534102 0.034366373 0.15536787 -0.021392176
-0.10713441 -0.08875929 -0.04242345 0.08529489 0.0010217933 0.0 0.0 -0.0872591
0.0 0.1158189 0.17026566 0.025948528 0.0037482926 -0.011049499 0.04640842 -0.037083354
0.10441778 -0.002661092 -0.058257494 0.047976308 -0.08436824 -0.025410935 0.05275605 0.06216161
0.08642196 0.09307472 -0.09083145 0.0353506 0.038693797 0.0017421629 0.0 0.08699007
0.090799496 -0.12545444 0.12187281 0.10744514 0.019181725 0.09481238 0.01610609 0.13930295
0.14204556 0.040354982 0.12291406 0.10794151 0.07506702 0.08958679 -0.0069995606 0.09677844
0.08947905 0.14988004 -0.022767274 -0.023753311 0.03353454 -0.07040999 0.1103303 0.10313957

shared_net.4.weight f4 [64, 128]
00000000: af95 de3c 7065 343e 7a02 1b3e 3995 c03d
00000010: 63b3 0e3e 86ab 03be f3de 66bd ee64 8c3e
00000020: 15fb 0ebe ece8 aabd d566 053e 0afe 00bc
00000030: bd46 5e3e 633f 413e 532c 123e 58e3 dbbd
00000040: df6b 873e 472e 833e 5004 cabd f969 343e
00000050: 55d0 953e 8eb3 793c c3a5 00bc ac0b 6cbe
00000060: 2b15 7e3d 925b 1b3e c85a a93e 92e5 91bc
00000070: 035c 863e 9ab4 05bc 29cd 913d 9dcd 903d
00000080: c158 7bbd 4290 d1bd 129c 07be aefc 81be
00000090: b208 96bd 496c 9b3d 1105 64bc 2277 1fbe
000000a0: b539 78be dd9a 00bd fcd4 463e 90f7 2c3e
000000b0: 1206 163e 3edc b13e 7196 ffbd 5b07 2abe
000000c0: 1cb9 0f3e a010 0fbd 4f2e fe3b 216b d4be
000000d0: 27bf 25bd 3a53 98bd aab0 0a3e dc8b 7ebd
000000e0: adc5 bf3e 3892 2d3e 6853 613d 858b 7cbd
000000f0: 7b2f 833e 1c69 a53c 9948 f7bd 23bd 703e
00000100: 3c74 2f3b 6097 ebb9 4df1 fb3d 6332 893d
00000110: 905e 9b3d 2763 31bd acf1 79be 4fe8 813c
00000120: 964e 44bd d7dc 043d 0ec2 5abd 3097 24be
00000130: 85f5 c3bb 46cd 143e 9be7 323e 5c66 fc3d
00000140: c914 633d d2b3 a2bc 8d14 3c3e a22e 633e
00000150: 3f3c 403c c778 9b3d 7fb5 c03d 6990 1bbc
00000160: 4f80 cd3d df6f 20be b506 bb3c f09e 813e
00000170: 98ae ed3c 8b79 abbd eaa5 13be 5aa6 8f3d
00000180: 86bd 8d3d dc24 083e 4ca7 8d3e 26a6 923d
00000190: 052f 8cbd 2807 633e 5dfe cbbd 59c3 7a3e
000001a0: 0bba 6e3e 4a90 4d3e 399b 20be ecc0 fdbd
000001b0: 4478 aa3d 5c4e 2e3e 9b65 42be 933e dc3c
000001c0: c43a 0b3e 92e5 bbbd 8eec e9bd 9927 0abd
000001d0: 72cf cf3d be79 84be b21b 893d 688d b03d
000001e0: 06aa ac3d f06f a33b 3b4f 2e3e a0a3 963d
000001f0: 09a9 7b3d 35fb a7bd 6132 0fbe ef35 0fbe
00000200: 90f3 d83e 8284 d0be b00e 04bf d1ee 8c3e
00000210: d883 343e 1487 5cbe 5bb6 0f3d 122f 3fbe
00000220: 865f 863d f15a a03e d55e 8fbc a12e 3abc
00000230: 1439 d13c a94e 00be 2a98 963d 5c47 663e
00000240: 509e 8b3e 77b1 233e 7553 4c3e e341 383e
00000250: 99df 01be 3637 df3d db00 b2bd 9bc0 813e
00000260: 4705 433e 74f5 50be 7dcf f7be dc92 0f3e
00000270: a272 3fbf b207 e23d c871 eebe 3e38 45bc
00000280: a023 60be 97f5 b7bd 8937 debe a78c 033e
00000290: e110 fabc c7c9 f3bd c6b8 383e ab05 bd3d
000002a0: 5c80 de3d 8af6 05be af1a 33be bc8d bb3e
000002b0: 04a7 313d 09bc 59be e046 2a3e c48e 2bbe
000002c0: 8fa7 a83c c0e5 88bd 057f 6fbe 5b43 f8bc
000002d0: 7cc4 41be b9fd d23d 067a bf3b ca27 713d
000002e0: d781 ab3d 0667 23be 9c96 463e c61f 84bc
000002f0: 01db 6ebe 1ffd 853d 3c26 ae3e 6e7f 9fbe
00000300: a645 e3bd 4d1e 2c3e 6882 1bbe 3dbe f6bd
00000310: 7856 5d3e 202c 1c3e cff3 a73d 3380 73bd
00000320: fc62 b6be 61ae 82bd 3b99 64bd 3880 023e
00000330: 641a 87be de31 dbbc fd1d 14be cfa0 d3be
00000340: 4119 8abd 76ee f63e 5dd8 423e 6210 013e
00000350: 6afa 2ebd 4633 26be 1f64 1a3e 9aa2 0bbd
00000360: f023 b7bd 756b 6f3d 0541 363e 2d19 653d
00000370: 9c61 a63c 2937 1e3e 94e2 6ebe 75f7 493b
00000380: ed15 b13d bec9 42bd 1ab7 34bc fd24 4cbe
00000390: c878 23bb 2ae8 8bbd 2e88 163e 3a73 2cbc
000003a0: 7fd1 d2bd 7f80 06be de22 8ebc de16 a73d
000003b0: fbc9 5dbe 33ac 12bd a84d 90bd 749c 743e
000003c0: d9a4 2b3d f5db 2e3e 4b35 2f3e 65d5 933d
000003d0: f7e5 313d 02b1 613e 57fc 5fbd 4b7c 753e
000003e0: c6ad 253d 0133 b33e 5f3b d9bd 0873 ddbd
000003f0: 41a5 44be a484 97be 67e3 b43c 3615 ad3e
0.027170984 0.1761682 0.15137663 0.09403462 0.13935618 -0.128584 -0.056364965 0.27420753
-0.13962968 -0.083452076 0.13027509 -0.007873068 0.21706672 0.18871836 0.14274721 -0.10736722
0.26449487 0.25621244 -0.09864104 0.1761855 0.29260507 0.015240563 -0.007852021 -0.23051327
0.062031906 0.1517165 0.33077073 -0.017809663 0.26242074 -0.008160735 0.07119209 0.070704676
-0.06136394 -0.10232593 -0.1324313 -0.25388092 -0.07325877 0.07589013 -0.013917224 -0.1557279
-0.24240763 -0.03139769 0.19417185 0.16891313 0.14650753 0.34738344 -0.12479866 -0.16604368
0.14035457 -0.034927964 0.0077569853 -0.41487983 -0.0404655 -0.07437749 0.13543954 -0.0621451
0.37455502 0.1695031 0.055011183 -0.061656494 0.25622162 0.020191722 -0.12074394 0.2350965
0.0026772162 -0.00044935476 0.12301884 0.06699064 0.07586396 -0.04330745 -0.24408597 0.015857844
-0.047926508 0.03243717 -0.05340772 -0.16073298 -0.005980196 0.1453143 0.17471163 0.12324211
0.055439744 -0.019861136 0.18367215 0.22185758 0.011733114 0.07591396 0.09409618 -0.009494879
0.100342385 -0.15667675 0.022830347 0.25316572 0.029013917 -0.08372792 -0.1441876 0.07014151
0.06920914 0.1329531 0.276667 0.071605965 -0.06844906 0.22170699 -0.09960625 0.24488582
0.23313157 0.20074573 -0.15684213 -0.123903126 0.0832372 0.17022079 -0.18984072 0.026885306
0.13596636 -0.091746464 -0.11422072 -0.03372917 0.10146989 -0.25874132 0.066947356 0.08620721
0.08430867 0.004987709 0.17022412 0.07355428 0.0614405 -0.08202211 -0.13984062 -0.13985418
0.42373323 -0.40726095 -0.5158491 0.27525952 0.1762842 -0.21535903 0.035086017 -0.186703
0.065611884 0.31319383 -0.017501274 -0.011363656 0.025539912 -0.12530006 0.07353242 0.22488159
0.2726922 0.15985666 0.19953711 0.17993884 -0.12682952 0.108992025 -0.086915694 0.2534226
0.19044982 -0.20406133 -0.48400488 0.14020866 -0.7478429 0.11036624 -0.46571183 -0.012037335
-0.2188859 -0.089823894 -0.43401745 0.12846623 -0.030525627 -0.1190372 0.18039235 0.09229597
0.10864326 -0.13082328 -0.17490648 0.36631572 0.04337217 -0.21263136 0.16628599 -0.1675368
0.02058771 -0.06684446 -0.23388298 -0.030305555 -0.18922609 0.103023 0.0058434037 0.058875836
0.08374374 -0.15957269 0.1939339 -0.016128432 -0.23325731 0.0654242 0.34013546 -0.3115191
-0.11097269 0.16808434 -0.15186465 -0.12048004 0.21615016 0.15251207 0.082008 -0.059448432
-0.35622394 -0.063809164 -0.055810194 0.12744224 -0.26387322 -0.026757177 -0.14464565 -0.41333625
-0.06743098 0.48228806 0.19027849 0.12603906 -0.042719282 -0.16230497 0.15077256 -0.034090616
-0.089424014 0.05845209 0.1779824 0.055932213 0.020310216 0.1545073 -0.2332862 0.0030817662
0.0864676 -0.047555678 -0.011029983 -0.19935985 -0.0024943817 -0.06831391 0.14700386 -0.010525519
-0.102938645 -0.13134955 -0.01735061 0.081586584 -0.2165908 -0.035808753 -0.07046062 0.23887807
0.041905258 0.17076094 0.17110173 0.07218436 0.043432202 0.2204018 -0.05468401 0.23973195
0.040448926 0.3499985 -0.10607027 -0.10812956 -0.19203664 -0.29593384 0.02208109 0.33805245

shared_net.4.bias f4 [64]
00000000: d2df 1e3d 1003 a03d 38b5 d7bc 3b67 bbbc
00000010: 383e 083e 4a02 96bc 2c08 573d aeb5 9b3c
00000020: a47b 4e3d b60c e63d 666f cc3d 9528 96bc
00000030: d6a4 143e e988 3dbd 853a 6d3d cd6d b93d
00000040: 8a5f 323e 94e0 8d3d 0000 0000 6ee0 b33d
00000050: 6af4 6d3d b4d1 113e a878 98ba 28bc 813d
00000060: 498d 94bd 138a 8ebc be12 053e 17dc 983c
00000070: 936d af3d 3384 093e 5ad5 4a3d 50a3 ef3d
00000080: 265b 0fbc c9f3 9a3d ff65 81bc bf91 683d
00000090: 3046 fd3d 03ae efbd eecd 173d c4d4 0f3c
000000a0: 861a 253b 5a05 54bb c2a5 043d 7048 8abb
000000b0: 00b5 65bd f310 813d 1c17 ab3d 5f11 313d
000000c0: 6734 083d cc82 8b3d 3d51 253c 7a33 ffbc
000000d0: f154 dd3d a4ab 02bd 55d3 c43d 488b 8c3d
000000e0: 6e2f d93d c6f1 7f3d a787 59bc 23ce 083e
000000f0: 7f00 593d 09d9 9abb b200 953d 120f c2bc
0.03878767 0.07813084 -0.026331529 -0.022876373 0.13304985 -0.018311638 0.052498028 0.01900753
0.05041088 0.11232893 0.09982185 -0.018329898 0.14516005 -0.046273146 0.057917137 0.09054146
0.17419258 0.069276005 0.0 0.08783041 0.05809442 0.14240152 -0.0011632638 0.06334716
-0.072535105 -0.017399823 0.12995431 0.018659635 0.085658215 0.13429336 0.049519874 0.11701071
-0.008749759 0.075660296 -0.015795706 0.05677962 0.12366903 -0.11703112 0.037061624 0.008778755
0.002519281 -0.0032351823 0.03238464 -0.004220061 -0.05608082 0.06302061 0.08354017 0.043229457
0.0332531 0.06812057 0.0100901695 -0.031152476 0.10807217 -0.03190197 0.09610621 0.06862503
0.106047496 0.062486432 -0.013276971 0.13359885 0.05297899 -0.0047255796 0.07275523 -0.023688827

actor.0.weight f4 [32, 64]
00000000: e703 a83e 1f21 94bd 9a71 003d 79f4 46be
00000010: 6c07 4ebe 7fc9 133e 9f6e 65be ac6b d8bd
00000020: 0fbb 09be 9912 a03e e6fc 753d 18bf fbbd
00000030: 0988 743e 7885 0e3e 5e5c 383e f101 533d
00000040: fe02 aabe b5a9 2c3e 3018 86be 4efe a1bc
00000050: f433 7e3d da2e 8c3d 33f7 a73d 8154 62be
00000060: 783a 9fbe bcc5 9fbd 248f ed3d 6ac1 d6bd
00000070: e21d f33b ac02 9e3e adf2 4dbe 977f 79be
00000080: 6140 213e 3d58 5dbc f254 933e 5e85 00be
00000090: 890d c9bd 931f 803e 3f79 b93d 41ce 913c
000000a0: 658b f0bd c5cb 30be 331b 09be f6e2 bf3e
000000b0: e4d2 c93d 9c47 3b3e ec8a 97bd b0c9 de3c
000000c0: 645a 7338 14e4 87bd b973 8fbe 7adb 91bd
000000d0: 73d3 db3d d052 d0be 55b6 4c3c b3d5 11be
000000e0: 8645 03be 03f8 ae3d b9f5 23be 338c aa3e
000000f0: 7ee2 bebe 47df cd3b 4f51 6a3e c835 653e
00000100: 1c36 93be 0d0c b6bd 3da0 7d3e 26ac 83be
00000110: 6239 45be 2baf 5f3e 6162 ad3e 600f 1d3e
00000120: 05f9 243c ea33 e13d bc24 9a3e 8e25 32be
00000130: 6ca6 b8bb dae6 2e3e b834 663e b6eb 1c3e
00000140: 38e3 2dbd 1031 4dbe f026 993e 9e1f 4c3e
00000150: 74b7 b73e 67b4 c93d 2778 653c b1d0 8dbd
00000160: d824 46be 2b79 dc3d 658f 033d 104e 823d
00000170: b51f 67be 846a 5fbe 35be a7be 8285 9e3d
00000180: c916 11be e68a 8abd 24e8 143e 82d8 813e
00000190: 773e c73b c0fd 18be e488 9ebe 668b ecbd
000001a0: 9921 c43d 0660 8dbe c425 31be a58e e13d
000001b0: 52dd dbbd cf7f abbd 018b cfbd 34e5 9a3e
000001c0: 0586 5c3e 025d 9bbd a81b 0cbe 2484 e93d
000001d0: 50e2 c7bc 96f5 a03e 42cb 1ebe e590 fabd
000001e0: ba3b 16be d4a0 903c 4fe6 42be 2bb9 b63d
000001f0: ee42 b9bd 5e91 003e 6340 6cbc d75c 76be
00000200: 5c49 7f3c f763 853d ffa7 7b3c 8360 383c
00000210: 9efd 0a3e 5adb 2c3e d6f8 96bd 5348 4cbd
00000220: d09a fabd 57ca 88be 0384 393e ad81 9bbd
00000230: efd7 abbd 3859 833e 4458 4a3e f03b b43d
00000240: 2997 d0bd bacc 153e 163f c5bd 15b4 05be
00000250: e124 37bd 05a0 88be 8fe1 3fbe 563c 13be
00000260: 50c0 6dbe 5e50 673c 466c 70be 65ef a83d
00000270: a8d1 193d 9735 86be df51 b53e 16d3 2bbe
00000280: 5bfd 9c3d 0295 053e 6cc3 423e 5736 56bd
00000290: 4f39 8ebe 18da 363d c1df 923c 9c76 593e
000002a0: 4856 d3bd 0fa2 d8be b7f7 c2bd 9f22 f3bd
000002b0: e376 04be 3998 96be bc82 06be d4c2 8fbc
000002c0: d42f 55be 8229 143e af86 c53d 8a0d 803d
000002d0: dae0 163d 8344 7ebd 96b8 363e 4450 29be
000002e0: 0b97 54bc c5ee 95be 3a9d 113f e49e 813c
000002f0: 6c4c 943d c70f af3e 71d9 62bd ea42 463d
00000300: a101 15bb ded9 263d 9bac 8d3e 03a8 1a3f
00000310: 4a5e 3cbe fac9 05be 33a1 8a3e 4cee d03d
00000320: 1156 54be d2d4 833e 7868 e1bd 2930 603e
00000330: 6958 2d3c 6b52 da3d 422f e23d 7164 4cbe
00000340: 5cec 5bbe 670f 4e3e 4935 0e3e 5292 bd3d
00000350: 04ab 2dbe 23ee b53e b181 99be cc6b d13c
00000360: 97bb ee3e 06d4 fabc fac9 343e b366 16be
00000370: 5d54 72bd c403 30be 5a7e c4bd a893 11be
00000380: 498c 9ebe 7f58 9fbd f820 533e d60c 2b3e
00000390: 806c 023e ca91 44bd 04b7 003c d8d4 0b3e
000003a0: fc89 adbe 12f6 abbc b9f1 d33d 1206 023e
000003b0: 7e45 dfbd 3338 31bd 6773 38bd aa19 1b3d
000003c0: aa4b 733e f4a6 183e 24c6 143d 1129 6e3e
000003d0: 7f22 493d 1ebb e8bc 70f0 f63c b300 0d3e
000003e0: 186e 8cbc e28d 8dbe 65f2 483e 29cd a33d
000003f0: 74a5 bb3d d156 d2bd 315a 8a3e 41f0 a63e
0.32815477 -0.0723288 0.03135834 -0.19429196 -0.20120019 0.14432333 -0.2240548 -0.10567412
-0.13450263 0.3126419 0.060055636 -0.122923076 0.23880018 0.13918102 0.18003985 0.051515523
-0.33205408 0.16861613 -0.2619033 -0.019774582 0.062061265 0.06844874 0.082014464 -0.22102548
-0.31099296 -0.07801387 0.115995675 -0.104861096 0.007419334 0.30861413 -0.20112105 -0.24365078
0.15747215 -0.013509807 0.28775746 -0.12550876 -0.09817035 0.2502409 0.09056329 0.017798545
-0.117453374 -0.17265232 -0.13389282 0.37477845 0.09854677 0.18289036 -0.07399544 0.027195781
5.8019898e-05 -0.06635299 -0.28017977 -0.0712194 0.1073369 -0.4068818 0.012494643 -0.14241676
-0.1281949 0.08543398 -0.16011705 0.3331009 -0.37282175 0.0062827202 0.2288258 0.22383797
-0.2875222 -0.08889017 0.24768157 -0.25717276 -0.19260171 0.21844165 0.3386412 0.15337896
0.0100691365 0.1099623 0.3010615 -0.17397138 -0.0056350734 0.1708025 0.22481048 0.15324292
-0.04245302 -0.20038247 0.2991252 0.19933936 0.3588215 0.09848862 0.014005697 -0.0692457
-0.19349992 0.107652985 0.032119174 0.063625455 -0.22570689 -0.21817976 -0.32762304 0.07740308
-0.14168848 -0.06764774 0.1454168 0.25360495 0.0060804444 -0.14940548 -0.30963814 -0.11550026
0.09576721 -0.27612323 -0.17299563 0.110135354 -0.10735573 -0.08373987 -0.10133935 0.30252993
0.215355 -0.07586099 -0.13682425 0.11402157 -0.024399906 0.31437367 -0.15507224 -0.12234668
-0.14671221 0.017654814 -0.19033168 0.08922037 -0.09045969 0.12555453 -0.014419648 -0.24058853
0.015581455 0.065132074 0.015359878 0.011253479 0.1357331 0.16880551 -0.073716804 -0.04987366
-0.122365594 -0.26716873 0.18116765 -0.07593093 -0.083907954 0.25654006 0.19760233 0.08800495
-0.101850815 0.14628878 -0.09631173 -0.13056977 -0.044712905 -0.26684585 -0.18738388 -0.14378485
-0.23217893 0.014118282 -0.23478803 0.08248786 0.03755346 -0.2621276 0.35414025 -0.16779742
0.07665511 0.13045123 0.1901986 -0.052297916 -0.27778098 0.044641584 0.01792896 0.21236652
-0.10319191 -0.4231114 -0.09519904 -0.11871838 -0.12935977 -0.29413012 -0.13135809 -0.017548956
-0.20819026 0.14468959 0.096448295 0.06252582 0.03683553 -0.062077057 0.17843851 -0.16534525
-0.012975465 -0.2928373 0.56880534 0.015822835 0.07241139 0.34191725 -0.05538315 0.048403658
-0.0022736567 0.040735118 0.2767075 0.60412616 -0.18395343 -0.13065329 0.2707611 0.102017015
-0.20735957 0.25748307 -0.11006254 0.21893372 0.010580161 0.10660251 0.1104417 -0.1996019
-0.21476883 0.20123063 0.13887514 0.09256424 -0.16959769 0.35533246 -0.2998176 0.025564097
0.46627495 -0.030618679 0.17655173 -0.14687614 -0.059162486 -0.17188936 -0.09594412 -0.14216483
-0.30966404 -0.07780551 0.20618045 0.16704115 0.12736702 -0.047990598 0.007856134 0.13655412
-0.33894336 -0.020991359 0.10348839 0.12697628 -0.109019265 -0.043266486 -0.04503193 0.037866272
0.23759332 0.14907438 0.036321774 0.23257853 0.049105164 -0.028409537 0.030143946 0.13769798
-0.01714234 -0.2764731 0.19623716 0.079981156 0.09162417 -0.10270465 0.27021936 0.32605174

actor.0.bias f4 [32]
00000000: a06d 3d3c f8b4 053d 4ec4 98bc 7d90 c13a
00000010: 7812 ba3c 11c9 92bc 1068 243d 1a51 6a3d
00000020: 7f64 c43c c71e 2ebc 298d 76bb 7439 c9bc
00000030: 9dc4 893d 9de8 e73c afad 443d 366f 8bbd
00000040: 02c0 32bd c195 d13d 586c b3bc 565b 593c
00000050: d981 583d fc4f 163c 2724 fd3c ab62 4c3d
00000060: 9829 833c 14e6 a43c ed3a ef3b 0dd4 423d
00000070: 9cf6 02bd 4653 36bc 9679 603c df05 adbc
0.011561781 0.03264329 -0.018648293 0.0014767792 0.022713885 -0.017918142 0.040138304 0.05720625
0.023973702 -0.010627455 -0.003762076 -0.024563529 0.06726954 0.02830916 0.0480172 -0.06808321
-0.043640144 0.102336414 -0.021902248 0.013266405 0.052858207 0.009174343 0.030901028 0.049898785
0.016011044 0.020129241 0.0073007257 0.04756551 -0.031973466 -0.011128252 0.013700863 -0.021120964

actor.2.weight f4 [9, 32]
00000000: ecb8 93be 9473 9d3e 4135 6f3e 9479 243d
00000010: 75d9 fc3d ea8f 82bd 15a6 88be 28b1 023c
00000020: a2af 113f b873 e83e 8ac9 1a3e 51ed e63e
00000030: 0a6d 4f3e a79e 233e f382 d6bc 3d2a 923e
00000040: 2413 0d3f 9dba 3c3e 19c0 27be d122 343e
00000050: 9cd2 503e f3d9 d6bd 6df8 1ebe ff1d 2b3e
00000060: a834 bcbe b63f 05bf cf3e ee3e a362 653e
00000070: a981 8abc 8720 8dbe 9bf6 c43c 525c 9abe
00000080: 382f 42be 42fd fdbd e6f2 9ebe 911f a5be
00000090: 3065 87be b271 86be 18fc 1d3e 2acf dbbd
000000a0: 82b0 7fbd 5e7a 8d3e ad06 6f3e 897a ab3e
000000b0: 3c7c 05bf 1cbb 9d3d c58d 3bbe c85d 98be
000000c0: bdfe 7a3d 5b06 853e 3680 44be 6a93 71be
000000d0: 8598 0f3e 370a cc3e ae3b 3e3d cd80 34bd
000000e0: a1ff 3abd a232 053f 5cfe 0fbd bb9c e53e
000000f0: 0b92 cbbc 7cfa a23d 073e 8d3e c6f4 b0bd
00000100: 22b4 99be 353f 4d3c 6518 143e d6d0 fb3d
00000110: 636a d53e c889 aa3d 8f5b acbd a012 d3be
00000120: 2d5f ddbe 4030 f93e b15a 843e 0f0c e4bd
00000130: e763 d0be 9ed2 fa3e 874f 193f 7532 7cbe
00000140: b51f ddbe 4c4e 87be 79ae 9ebd 3171 9c3e
00000150: 878d c2be 5e15 32bd 0fce 303e 2083 e3be
00000160: 1ba4 52bd 23ad 7e3c f498 ff3e c56b bdbe
00000170: 0d5d 59bd 1772 2a3e c075 8fbe 9d6c 93bd
00000180: 3abc 7d3e a861 fabe 3f2f 0d3e c325 83be
00000190: 1e0d 833b 6723 44be b9f3 843e 51d9 bc3e
000001a0: da36 83bc 0cfb 4dbe 3d60 9f3d d582 67be
000001b0: b6b7 653e 671f d0bd 7291 433d dbde bbbe
000001c0: bbf3 a73e c4dc 953e 65c2 e5be bb15 0e3e
000001d0: 0941 673e 6778 af3e ece1 413e 2dc3 afbd
000001e0: c64c bdbe 9420 3fbe 1f7e 413e d3b4 193e
000001f0: 369d b43e 035f 44be 995f afbe 4452 313e
00000200: ae3b 18be 40bb bc3e f971 b33e 2d89 8bbe
00000210: d95d d2bd 5b08 9fbc e260 84be 7f9b 03be
00000220: 7a71 143e 0a1c 37be 9021 053f f0d3 bd3d
00000230: 8300 7cbc 0f0b 86ba 9c50 3a3e 8207 03be
00000240: 2381 a33e 843a 40bd 6efb 54bd dd95 423f
00000250: 91d4 643e 366a 1c3e 5a5c e5bd ae65 673e
00000260: 7fc2 253f fc18 ad3d d14c 303e a54a 62be
00000270: 306e 293e f39e ff3e 9a86 253e fee5 15bd
00000280: 9cef 353e cc8c 3dbe 3141 adbd a8b5 9ebe
00000290: dbd4 a43e 82d5 6b3d e39d 013e 4b5a 76be
000002a0: d021 4a3e a793 eabd 2a20 c1be 5e1f f2be
000002b0: 844f 89be 6c0d 73bd ab81 6f3e 9fe4 8abc
000002c0: 729d 4e3e ed37 f9be 9f9c 5ebe 33c1 663c
000002d0: 4cdb bc3e c969 04be 4e88 6cbe 0cf5 3a3d
000002e0: 37f5 8b3e 4d86 f73e 853a 8b3e b179 f13d
000002f0: f125 8f3d d652 f7be a5a0 743e 72f1 2cbe
00000300: e649 723e f7bd 8e3c e1a8 6c38 c93b eb3d
00000310: bc63 8dbd f6c5 e13d 4ecb d33d ab72 a33e
00000320: 2a20 763e 8730 b53d 9d05 5bbe 5160 c9bd
00000330: 6511 9a3e 8753 fb3e 6d86 233c 9cf5 21bf
00000340: 7f47 403c 77c6 0d3e c19e eebe bc14 0bbd
00000350: dc7f 04bc 4178 12bf 83f5 d9bd b2f0 343d
00000360: 64bc 49ba f24b 9dbd 66b8 593d 2ce8 3bbe
00000370: 5559 a4be 38d4 a13e eabb 1f3f ccf7 0b3e
00000380: baae 433c df72 6abe 7c22 b73e bf17 da3d
00000390: 0abf ffbe cdd7 a0be a82e 8b3d 334b 1c3e
000003a0: ba7d 863d 264f 293e 359c 1ebe 45bc 25bf
000003b0: 1e3b c83d d64f 993c 65c9 bebe 8b5f 13be
000003c0: 373f ddbe cd3c 0f3e 219e 3e3e 007f f13d
000003d0: 309a 403e 55c9 b53d bf1a 82be 8310 9e3e
000003e0: 802f a5bd 7a5e f83e 5688 423e 5dc3 853e
000003f0: 5ac1 f9be b4c2 81be efff c7be df1e 5f3c
-0.28852022 0.30752242 0.23360159 0.04015501 0.12346164 -0.06375106 -0.2668921 0.007976808
0.5690862 0.45400786 0.15115944 0.45102933 0.20256439 0.1597849 -0.026185488 0.2854785
0.5510733 0.18430562 -0.16381873 0.17591406 0.20392841 -0.10490789 -0.15524454 0.16710661
-0.36758924 -0.5205034 0.46532294 0.22400908 -0.01690753 -0.2756388 0.024043372 -0.3014856
-0.18963325 -0.12401821 -0.31044692 -0.32250646 -0.26444387 -0.26258618 0.15428197 -0.10732873
-0.06242419 0.2763242 0.2334239 0.33491924 -0.5214269 0.07701704 -0.183158 -0.2975905
0.061278094 0.2598141 -0.19189534 -0.2359139 0.14023025 0.39851543 0.046443634 -0.044068146
-0.045653943 0.52030385 -0.035154685 0.44846138 -0.024849912 0.07957932 0.27586386 -0.08640437
-0.30020243 0.012527277 0.14462431 0.12295692 0.4168273 0.08327061 -0.08415901 -0.41225147
-0.43236676 0.48669624 0.25850442 -0.111351125 -0.4070122 0.48988813 0.59886974 -0.24628623
-0.43188253 -0.26426923 -0.07748122 0.30555108 -0.37998602 -0.04347741 0.17266105 -0.44435978
-0.051426034 0.015544209 0.4992138 -0.36996284 -0.053067256 0.16645084 -0.28019524 -0.07198451
0.24778834 -0.4890263 0.13787554 -0.25614747 0.0039993664 -0.1915413 0.25967196 0.3688455
-0.016017366 -0.20115298 0.07782028 -0.22608502 0.22433361 -0.101622395 0.04774613 -0.36693463
0.3280314 0.29269993 -0.44874874 0.13875477 0.22583403 0.34271547 0.18933839 -0.08582149
-0.36972636 -0.18664771 0.18895768 0.15010385 0.35276192 -0.19176869 -0.34252623 0.17316538
-0.14866516 0.3686161 0.35047892 -0.27253094 -0.10271806 -0.019413164 -0.25855166 -0.12852286
0.14496413 -0.1788179 0.5200434 0.092689395 -0.015380981 -0.0010226684 0.18194813 -0.12795833
0.3193446 -0.046930805 -0.051997595 0.76009923 0.22346713 0.15274891 -0.11199255 0.22597381
0.647499 0.08452031 0.17216803 -0.22098787 0.1654594 0.49925956 0.16164628 -0.03659629
0.17767185 -0.18510741 -0.084597 -0.30997968 0.32193646 0.057576664 0.12657885 -0.24057882
0.19739461 -0.11453944 -0.37719852 -0.47289556 -0.26818478 -0.059338972 0.23389308 -0.016954718
0.20177248 -0.4867548 -0.21739434 0.014084148 0.3688606 -0.12930979 -0.23098871 0.04564385
0.27335522 0.4834465 0.27193084 0.11790789 0.069896586 -0.48305386 0.23889406 -0.16888979
0.23661003 0.017424567 5.6424065e-05 0.114860125 -0.069037884 0.11024086 0.10341512 0.31923422
0.24035707 0.088471465 -0.2138886 -0.09832824 0.30091396 0.49087164 0.00998078 -0.63265395
0.011735796 0.1384524 -0.46605495 -0.03395532 -0.008087125 -0.5721474 -0.10642531 0.044174857
-0.0007695614 -0.07680501 0.05315437 -0.18350285 -0.32099405 0.31607223 0.6239611 0.13668746
0.0119435135 -0.22895382 0.35768497 0.106490605 -0.4995044 -0.31414643 0.06796008 0.15263061
0.06566949 0.16534099 -0.15489276 -0.647404 0.09776901 0.018714827 -0.37263027 -0.14391916
-0.43212292 0.13988037 0.18615009 0.117918015 0.18808818 0.08876292 -0.2541103 0.30871972
-0.080657005 0.4850958 0.1899732 0.26125613 -0.48780328 -0.2534386 -0.3906245 0.0136182

actor.2.bias f4 [9]
00000000: cc27 37bb c6dc a8bb 9633 833c fb7e 793d
00000010: 0fc2 0d3d ecdd 0cbb fc5f ac3a 807f 263d
00000020: 04e5 2a3d
-0.0027947305 -0.0051532714 0.016015809 0.060912114 0.034608897 -0.002149458 0.0013151164 0.040648937
0.041722313

critic.0.weight f4 [32, 64]
00000000: 36d7 ca3e a0fa 8bbe 0d44 02be 5963 ae3e
00000010: 6c0e 0b3e 3f3b a03d 1d86 b1bd fc8e 1f3f
00000020: 2fd3 423d c462 39be bcc5 d03d d418 9b3e
00000030: 3487 1a3e bad5 033d 62a7 2e3e 9e15 edbc
00000040: 8520 4a3e 0f32 913e 8dab 8bbe c25e 623e
00000050: 966d 773d c6fc 39bd 4d78 833e fe7b 913d
00000060: c09f d63e 9231 13bd 4625 9d3e c44b 263e
00000070: f1e7 b1bd 0f62 8e3e 6447 a73d 9578 cf3e
00000080: 9641 62be f918 963e 8f79 343c d90a 713e
00000090: e728 a2bd e0c7 7f3d 2ff9 803d 2fea b6bd
000000a0: b765 5c3c 1b77 bebe 257b 923e 9770 413e
000000b0: 9066 103e e840 f1be 5264 0abd 5c53 873d
000000c0: e298 c3be e224 e63c de4d f03d 3370 61be
000000d0: 67d4 063e 8ecb 1b3c aa06 4c3e 9093 bcbd
000000e0: 453e 803d c552 523e 3c7d 813c 8596 15be
000000f0: c86d 62be 6f7e 023e d41f 373e 7479 b23d
00000100: 051d 683e 8e49 78be 6dbb 4b3e fb7c 473c
00000110: e8aa 88bd 19fc b0bd 0245 4f3d ebc7 d43e
00000120: 6cbf dbbe d664 fe3e bcfa 24bf 53a5 5a3e
00000130: df9f ccbd 9ae0 fd3e 4a47 e4bd 9037 44be
00000140: 429a 08bd a6be b53c 2a0e 723d 09e8 21bf
00000150: c47d e5bd fdaa b7be 3075 cebd 18b0 e53d
00000160: 3c53 d23e 6654 e23d 96b3 c7bd 9871 56be
00000170: 6361 ebbe 0c79 ef3d ff46 133e 2bf5 bbbc
00000180: c826 30be c0b1 0bbf 8b69 4e3e fd68 2d3e
00000190: a6a2 86be 0358 e33d 605f 90be b83f 7cbe
000001a0: d3c7 813d 21d6 11bc a346 58bb ace1 1c3e
000001b0: 8645 843e c4ee 8dbe 406f e0bd 6868 ebbd
000001c0: b499 a1be 0853 9abe ac88 53be 5c25 a5bd
000001d0: 0af0 bbbd 4973 d1bd f7ed 29be 6aeb 8a3e
000001e0: 9d79 7abd 6efc 2e3e de47 2cbd a9bc 783e
000001f0: 7c51 81bc 7472 7fbe 7b39 333c 3111 7b3e
00000200: 91cf d93d ae4e b93e 8106 0d3e 3781 e1be
00000210: d29c 39bc 11cb 823d d1ed 75bc 6566 50be
00000220: 52bf a73d 742f 9f3d 091d c43d 7377 5fbe
00000230: 9e1e 96bc 4bfb cfbd 93df 39be 31e9 65be
00000240: d9c3 953d c687 ce3e f7e0 b83d b113 b03e
00000250: f69b f1be 3671 0c3e 90c6 393e 2dbf 063e
00000260: fc2d 24bf a31a fa3d 9548 a23e 32a9 47be
00000270: f6bb e13e f36f b5be f131 fcbb 99e4 b0bd
00000280: 58a5 d7bc 3809 1c3e bbcc 53be 7b2f c4bd
00000290: 117c 6abe 28e5 d9bc 024b c1bd b566 a03d
000002a0: 08cd b63e 74b3 823e 24dc 8f3e b51b 62bc
000002b0: 2928 f43d 8715 09be 359e 1abe 24ff 19be
000002c0: b0f9 bd3c fade 7b3e c09f 8c3d 4353 fabd
000002d0: 7814 e83e 073f 13be 9ffe 3c3e 8b92 cdbe
000002e0: 35be 34be 25e7 95bc 0a6b e13e 4869 443e
000002f0: fa77 3c3e 669b 94be bdbb 893e 0b4c 183e
00000300: 0b56 8fbe d9dc 6b3e 5fa8 643e c5dd e9be
00000310: 24d7 a9bd d106 813d 8881 c13e a557 123e
00000320: 2470 d9be 899e 18be 6649 ba3b c015 113d
00000330: 9555 a63d 8fbd 40be 4a60 45bd c69a 52bd
00000340: 9bbb 9fbd 9451 3d3d 87ba e13d b9bc 9abb
00000350: a2b0 92bb d021 75be 23a7 b13d 9897 5fbe
00000360: 3044 26bb 2a42 90be 7efd 5dbe 45c4 ca3d
00000370: f05c 443d 04d2 3d3e e8e8 81bd a788 c13d
00000380: 79e9 a5be 7f0b 153d c95f f1bd 61d5 6bbd
00000390: b9a8 a8be e711 40be 9d1d a8be 50a4 793e
000003a0: 5ad8 f03d 5c31 b03b 3225 3abe 1d41 de3d
000003b0: bafe a4be 9901 9dbe 59e4 36bd 097b 933d
000003c0: b5c6 443e 8486 fabb 5b98 21be ef33 973d
000003d0: 4af6 34bd 05f3 063e f08e 35ba 0724 36be
000003e0: a4eb 703e 5cd0 3e3d 7553 593d e8dd 993e
000003f0: 7af9 4ebe 2e55 d03c b443 793e d5ef d6be
0.39617318 -0.2733965 -0.12721272 0.3406017 0.1357972 0.078238 -0.08668158 0.6232755
0.04756468 -0.18104082 0.10193965 0.3029238 0.15090638 0.032186247 0.17056039 -0.028940972
0.19738968 0.28358504 -0.2727932 0.2210646 0.060407244 -0.04540708 0.2567772 0.07103728
0.41918755 -0.035935946 0.306925 0.1623984 -0.086868174 0.27809188 0.081679136 0.40521684
-0.22095332 0.29315928 0.01101531 0.23539294 -0.07917958 0.062446475 0.06297528 -0.08931386
0.013451985 -0.37200245 0.28609577 0.18890606 0.14101624 -0.47119832 -0.03378708 0.066076964
-0.38202578 0.028093759 0.11733602 -0.22015457 0.13166963 0.00950898 0.19924417 -0.09207833
0.06261877 0.20539387 0.015806787 -0.146082 -0.2211219 0.12743543 0.17883235 0.087145716
0.2266732 -0.24246809 0.19895716 0.012175794 -0.06673223 -0.08641834 0.05060292 0.41558775
-0.4291948 0.49686307 -0.6444509 0.21352129 -0.099914305 0.4958542 -0.1114641 -0.1916182
-0.033350237 0.022185635 0.05909554 -0.6324468 -0.112056285 -0.3587264 -0.100809455 0.11215228
0.41079128 0.11051254 -0.0975105 -0.2094177 -0.45972738 0.1169301 0.14382552 -0.022944054
-0.17202294 -0.545681 0.20157449 0.16934581 -0.26295966 0.11100771 -0.28197765 -0.24633682
0.063369416 -0.00890115 -0.0033001087 0.15320462 0.25834292 -0.27721226 -0.10958719 -0.11494523
-0.3156258 -0.30141473 -0.20657605 -0.08063766 -0.09176643 -0.10227067 -0.16594683 0.27132732
-0.061151136 0.17088482 -0.042060725 0.24290718 -0.015785925 -0.24946004 0.010938997 0.24518277
0.10635293 0.3619284 0.13772012 -0.44043896 -0.011328893 0.06386388 -0.015010313 -0.2035156
0.08190788 0.07772723 0.095758505 -0.2182291 -0.018325146 -0.10155352 -0.18151693 -0.22452237
0.073127456 0.40337962 0.09027284 0.34390023 -0.471893 0.13715062 0.18142152 0.13158865
-0.64132667 0.12212112 0.31696 -0.19498137 0.44088715 -0.35436973 -0.007696383 -0.086373515
-0.02632396 0.15237892 -0.20683567 -0.09579369 -0.2289889 -0.026598528 -0.09438135 0.0783209
0.357033 0.25527537 0.2809764 -0.013800551 0.119217224 -0.13387118 -0.15099414 -0.15038735
0.02319035 0.24596778 0.068664074 -0.12222912 0.45328116 -0.14379512 0.18456505 -0.40150866
-0.17650683 -0.018298695 0.44026977 0.19180787 0.18405142 -0.2902481 0.26901045 0.14872758
-0.27995333 0.23033465 0.22329853 -0.4567701 -0.08292988 0.06300128 0.37794137 0.14291246
-0.4246837 -0.14904226 0.0056850193 0.035421133 0.08121792 -0.18822311 -0.04818753 -0.051417135
-0.07799455 0.046220377 0.110219054 -0.0047222045 -0.0044766227 -0.2393868 0.08674457 -0.21835172
-0.0025370233 -0.2817548 -0.21678731 0.09900717 0.047940195 0.18537146 -0.063432515 0.094498925
-0.32404688 0.036387917 -0.11785848 -0.05757654 -0.32941225 -0.18756829 -0.32835093 0.24379086
0.11760016 0.005376978 -0.18178251 0.10852263 -0.3222559 -0.3066528 -0.044651363 0.072012015
0.19216426 -0.00764543 -0.15780775 0.073829524 -0.044180192 0.13178642 -0.00069259014 -0.17787181
0.2352739 0.046585426 0.053058106 0.30052114 -0.20212355 0.025431242 0.24342233 -0.41979852

critic.0.bias f4 [32]
00000000: 6ebc 213e 6eca 03bc a521 15bc 7af6 90bd
00000010: 6ec9 9f3c 9333 c3bd 02ad 05bd d3ad c4bb
00000020: 2293 3d3d d665 183e f508 043d 6a3e 9fbd
00000030: 8d2e 703c bd12 adbd 6940 8e3b 6482 54bd
00000040: 1f42 a0bc 91da 4dbd bb1a be3b 0eca 0e3e
00000050: c554 493e 16f1 2e3e 0758 9abc cfa4 7fbc
00000060: 8a9e 6abd 363c 8f3d 655d 19bd 950f 59bd
00000070: 69e1 1b3e b884 80bc 5c7f 80bd e362 a43d
0.15794536 -0.0080438685 -0.00910226 -0.07078262 0.019505229 -0.095313214 -0.032635696 -0.006002167
0.046282895 0.14882597 0.032235105 -0.077755764 0.014659536 -0.0845084 0.0043411744 -0.051882163
-0.019562779 -0.05025727 0.0058015264 0.13944265 0.19661243 0.17084154 -0.018840803 -0.015603258
-0.0572801 0.06993906 -0.037442584 -0.052993376 0.15222706 -0.015688285 -0.06274292 0.08026674

critic.2.weight f4 [1, 32]
00000000: 96a9 a23e bdf9 2c3f 2444 b6be fef9 c2be
00000010: 4ec5 7cbe f103 0e3f 6a14 1fbe 9648 2dbe
00000020: c27b 073f 5d3f 993e d763 c73e f960 b03e
00000030: dd6d cebe 1d61 c43e b488 67be b5ed f23e
00000040: 8115 d7be 44f3 56be b111 3abe d1f6 c23e
00000050: 3124 8a3e 9d8c 263e 72a0 b83e b2c3 adbe
00000060: 1c32 05bf c77d 94be 60bc 083f 936a 67bd
00000070: 0eef 693e 2aa5 3ebf 1986 00bf b581 133f
0.3177001 0.6756857 -0.35598862 -0.38081354 -0.24684641 0.55474764 -0.15535131 -0.1692222
0.52923214 0.29931155 0.3894336 0.34448984 -0.40318194 0.38355342 -0.22610742 0.4744698
-0.42008594 -0.20991236 -0.18170811 0.3807893 0.26980737 0.16264577 0.3605991 -0.33938366
-0.52029586 -0.2900221 0.5341244 -0.05649812 0.22845098 -0.7447077 -0.50204617 0.5761979
