logs/20250602_160047/checkpoint_episode_100.pt (torch, 424285 bytes, 39 tensors)

shared_net.0.weight f4 [128, 30]
-0.020421691 0.004485628 -0.03627732 0.10638248 -0.014050802 0.016801102 -0.084220916 -0.06932633
-0.3680147 -0.10387182 0.0320626 -0.052357424 -0.086477794 -0.23643047 -0.17065118 -0.24372603
-0.21112154 -0.09102255 -0.03459914 -0.20636223 0.13472019 -0.17238489 0.22571091 -0.13660035
0.074955896 0.13425389 0.0673415 0.045753412 -0.038430262 -0.055166516 0.025098749 -0.14425649
0.18881747 -0.112311274 -0.1296864 0.1271936 0.12208649 0.11382599 -0.012777616 0.22425291
0.14014232 0.13621843 0.015153614 0.12080062 0.19022705 0.13203207 0.06171774 0.19604886
0.15853733 0.14675474 0.21515015 0.10849526 0.06814605 0.124082 -0.15005365 0.22536519
0.09195145 0.27656358 0.04352644 0.14237294 -0.076218076 -0.053633615 0.09006453 0.11687162
0.048197538 0.08977012 -0.17774831 -0.3284684 -0.17962314 -0.3304671 -0.13914545 0.1472108
0.20290203 -0.17251833 -0.25159502 -0.095262654 0.05834179 0.039826084 0.22847342 -0.0011461991
-0.039056607 0.09150595 -0.075563475 0.09487451 0.049112536 0.066625506 -0.0936139 0.1836784
0.083103225 -0.07618346 0.0966786 -0.15560389 0.135244 0.07704972 -0.06593343 0.28751475
0.012119151 -0.11929404 -0.11217681 -0.1487898 0.17543703 0.06044485 0.02301391 -0.23333395
-0.11086845 0.183568 -0.062195946 -0.08296272 -0.15313774 -0.062796324 0.0867549 0.13155986
0.026970185 0.044856362 0.14023285 0.102689765 0.10082699 0.098250054 0.103176266 -0.06215611
-0.016478797 0.040351305 -0.10563095 0.11055516 0.007917001 0.2476768 0.046114687 0.107162625
0.0011218996 -0.12982257 0.016326962 -0.11186057 0.051761672 0.18106644 0.1419343 -0.050238766
0.055643052 -0.17897283 -0.021165688 0.100777216 -0.052039985 0.17749833 0.10664554 -0.0997891
0.055402867 -0.04545938 -0.07261195 -0.09702634 0.035356473 -0.09854651 -0.113641076 -0.16446757
-0.082491115 -0.13841595 0.13646348 0.096565865 -0.03125179 -0.050239775 -0.04172245 -0.006629576
-0.055473458 0.07886646 0.04237629 0.005052601 0.109781645 0.17666261 -0.044672772 0.05052088
-0.10066627 0.04322125 0.002976068 -0.0512643 -0.078292735 0.17140059 0.24024369 -0.069515854
-0.31138504 -0.028571844 -0.22898 -0.13847825 0.027573252 -0.051562697 -0.009170566 -0.13539001
-0.13678373 0.04633364 0.2985132 0.10746441 0.19362436 -0.077472 0.07326845 -0.08366493
-0.009633827 -0.019685784 -0.13850397 -0.16520138 -0.15627022 -0.14253126 -0.08975854 -0.022993056
-0.086437054 0.33022225 0.044737574 0.0005777231 -0.061379798 -0.10696682 0.033724368 0.081952475
0.1461839 -0.015130098 0.07253349 0.023254523 0.22809589 0.09450777 0.093545236 -0.008001571
0.18903613 -0.066511385 0.03632431 -0.05475492 -0.19436865 -0.016652487 0.11646013 -0.21597801
-0.048975322 -0.07946836 0.19801034 0.00020624822 0.10279683 0.065543905 0.08143404 -0.107073456
-0.10413968 0.043485884 -0.05007346 -0.023291834 0.059347715 0.16868453 -0.22426541 -0.022765007
0.096002005 0.14713424 -0.14259279 0.0145364385 -0.047379147 0.02023807 0.005786561 -0.18275228
-0.070167564 -0.004017629 -0.01457739 -0.16578965 -0.08396578 -0.17039849 0.10945958 -0.15206975
00000000: 644b a7bc 2dfc 923b 8797 14bd 0fdf d93d
00000010: 5635 66bc 77a2 893c 047c acbd f7fa 8dbd
00000020: 6c6c bcbe c0ba d4bd 1354 033d bd74 56bd
00000030: 451b b1bd d41a 72be 2fbf 2ebe 5193 79be
00000040: 3f30 58be 086a babd d4b7 0dbd 9f50 53be
00000050: 17f4 093e aa85 30be c320 673e f6e0 0bbe
00000060: 7a82 993d da79 093e 57ea 893d ee67 3b3d
00000070: 0d69 1dbd 49f6 61bd e49b cd3c f9b7 13be
00000080: 5e59 413e 7403 e6bd 83cc 04be 0a3f 023e
00000090: 7b08 fa3d 9a1d e93d 3559 51bc 8ea2 653e
000000a0: 7881 0f3e d87c 0b3e dd46 783c 5166 f73d
000000b0: e1ca 423e 6a33 073e becb 7c3d 08c1 483e
000000c0: 9c57 223e e046 163e 5250 5c3e c332 de3d
000000d0: 2890 8b3d b41e fe3d aaa7 19be 22c6 663e
000000e0: 0b51 bc3d be99 8d3e c848 323d 36ca 113e
000000f0: 3918 9cbd ecae 5bbd c173 b83d 635a ef3d
00000100: c86a 453d 66d9 b73d a703 36be 032d a8be
00000110: 21ef 37be fc32 a9be 257c 0ebe 6ebe 163e
00000120: 8dc5 4f3e a5a8 30be 10d1 80be 1119 c3bd
00000130: cdf7 6e3d ad20 233d f0f4 693e 0f3c 96ba
00000140: d2f9 1fbd 7967 bb3d 06c1 9abd 914d c23d
00000150: 3a2a 493d f472 883d a5b8 bfbd 3116 3c3e
00000160: 0632 aa3d 1306 9cbd 6eff c53d a056 1fbe
00000170: 677d 0a3e 3ecc 9d3d 1b08 87bd 2235 933e
00000180: 678f 463c 6f50 f4bd f5bc e5bd 5a5c 18be
00000190: c4a5 333e 0595 773d ab87 bc3c 18ef 6ebe
000001a0: ff0e e3bd 40f9 3b3e 2dc1 7ebd 5ce8 a9bd
000001b0: 24d0 1cbe 5c9b 80bd 8eac b13d a1b7 063e
000001c0: 94f0 dc3c 4ebb 373d 3399 0f3e 034f d23d
000001d0: 627e ce3d 5337 c93d 144e d33d 6897 7ebd
000001e0: 8bfe 86bc 6947 253d 0a55 d8bd be6a e23d
000001f0: 4fb6 013c fd9e 7d3e c1e2 3c3d 1478 db3d
00000200: b40c 933a 35f0 04be 1fc0 853c 2817 e5bd
00000210: 0c04 543d 7b69 393e 3a57 113e 2ac7 4dbd
00000220: f8e9 633d a744 37be aa63 adbc 4964 ce3d
00000230: e127 55bd 1fc2 353e fa68 da3d 3a5e ccbd
00000240: 1eee 623d 9d33 3abd 93b5 94bd bfb5 c6bd
00000250: f3d1 103d c1d2 c9bd a7bc e8bd 306a 28be
00000260: 1af1 a8bd e9bc 0dbe 15bd 0b3e 53c4 c53d
00000270: e001 00bd 39c8 4dbd 29e5 2abd ea3c d9bb
00000280: 2338 63bd bd84 a13d c392 2d3d 4a90 a53b
00000290: 33d5 e03d 0be7 343e ccfa 36bd fbee 4e3d
000002a0: 1e2a cebd c408 313d 230a 433b 84fa 51bd
000002b0: f157 a0bd a383 2f3e 7102 763e 545e 8ebd
000002c0: dc6d 9fbe 800f eabc bc79 6abe 3ecd 0dbe
000002d0: 4de1 e13c 6833 53bd 2440 16bc aea3 0abe
000002e0: 0911 0cbe 58c8 3d3d b9d6 983e 4d16 dc3d
000002f0: 7745 463e a4a9 9ebd c50d 963d 8558 abbd
00000300: 33d7 1dbc 1544 a1bc fcd3 0dbe 8d2a 29be
00000310: 4d05 20be b7f3 11be 53d3 b7bd ef5b bcbc
00000320: e905 b1bd e412 a93e bf3e 373d 5772 173a
00000330: 6269 7bbd 6c11 dbbd 9022 0a3d b3d6 a73d
00000340: 3bb1 153e 3be4 77bc 708c 943d 4580 be3c
00000350: f891 693e 4a8d c13d a594 bf3d 0519 03bc
00000360: b092 413e 1f37 88bd cdc8 143d b246 60bd
00000370: 9308 47be cc6a 88bc a682 ee3d 5729 5dbe
00000380: 599a 48bd 4fc0 a2bd 39c3 4a3e 5644 5839
00000390: 2587 d23d e23b 863d e4c6 a63d 5449 dbbd
000003a0: 2f47 d5bd 411e 323d d419 4dbd 84ce bebc
000003b0: 9716 733d a3bb 2c3e d5a5 65be ae7d babc
000003c0: b39c c43d 5caa 163e d803 12be 3e2a 6e3c
000003d0: a310 42bd 4fca a53c 319d bd3b 6a23 3bbe
000003e0: 03b4 8fbd 51a6 83bb 01d6 6ebc c3c4 29be
000003f0: 40f6 abbd f17c 2ebe 582c e03d 2cb8 1bbe

shared_net.0.bias f4 [128]
0.07682479 -0.006313501 -0.051561847 -0.02978271 0.10507306 0.0 -0.0046934504 -0.073231734
0.12083862 -0.007993388 0.11160879 -0.00628242 0.10676403 0.015338978 0.08747715 -0.04976376
0.0 0.06729161 -0.029163573 0.019066103 0.11938022 0.07096004 0.084881455 -0.05341135
0.03495024 0.027965583 0.054918267 0.08698317 -0.052928742 -0.0046569877 -0.105795 0.05135917
-0.07089033 0.049024258 0.037327055 0.14208643 0.023997804 0.0633631 0.011137273 0.06675482
0.0 0.119250044 0.12829833 -0.036796123 0.06058767 0.0 -0.001656165 0.06194717
-0.06251054 -0.022897854 0.051101178 -0.0253705 0.043626916 0.072816744 0.081663504 -0.011385107
-0.018208051 0.12032843 0.06302389 0.10669325 0.08341499 0.11556881 0.0 0.006303606
0.011029804 0.0074898326 -0.012747808 0.010823519 0.085263796 -0.031073144 -0.025064038 -0.04024723
0.13054143 0.0 0.11190018 0.068676375 0.07584889 0.10726611 0.10897873 -0.03685797
0.0804218 0.03354437 0.11260998 0.08970376 0.08261109 0.0 -0.05754908 0.08340784
-0.0066983253 0.014178104 -0.03554638 -0.06743077 0.12176786 0.07497315 -0.019576507 -0.004396344
0.04339749 0.05409827 0.0 0.091303885 0.08221681 0.055984147 0.027696496 0.019749615
0.13488784 0.010529584 -0.053031914 0.12656015 0.07613833 0.0 -0.09173118 0.06901022
-0.052679583 0.0 -0.03468834 0.09827561 0.11818766 0.0 0.02360417 -0.021329176
0.0838379 -0.014025951 0.054976717 -0.04556055 0.0899653 0.08261938 -0.069900766 0.07616227
00000000: 5156 9d3d 7ce1 cebb 8432 53bd dffa f3bc
00000010: 8b30 d73d 0000 0000 84cb 99bb 85fa 95bd
00000020: 3d7a f73d b3f6 02bc 2693 e43d c2dc cdbb
00000030: 1aa7 da3d 5650 7b3c 3827 b33d 16d5 4bbd
00000040: 0000 0000 2fd0 893d 72e8 eebc 8430 9c3c
00000050: 9e7d f43d 7f53 913d 54d6 ad3d dcc5 5abd
00000060: fc27 0f3d 1418 e53c faf1 603d 3b24 b23d
00000070: cfcb 58bd a599 98bb 0dab d8bd fe5d 523d
00000080: f32e 91bd a9cd 483d 41e4 183d 1b7f 113e
00000090: 0b97 c43c 83c4 813d 1c79 363c c0b6 883d
000000a0: 0000 0000 5e39 f43d a360 033e 88b7 16bd
000000b0: c72a 783d 0000 0000 ad13 d9ba 51bc 7d3d
000000c0: 8705 80bd 4894 bbbc 784f 513d cbd5 cfbc
000000d0: 23b2 323d f220 953d 323f a73d 9a88 3abc
000000e0: 0d29 95bc c06e f63d ab12 813d fe81 da3d
000000f0: 7ad5 aa3d 57af ec3d 0000 0000 7b8e ce3b
00000100: 5ab6 343c 456d f53b 2fdc 50bc 2155 313c
00000110: c99e ae3d 1b8d febc 1953 cdbc 48da 24bd
00000120: a7ac 053e 0000 0000 ec2b e53d 33a6 8c3d
00000130: aa56 9b3d 56ae db3d 3e30 df3d 62f8 16bd
00000140: 2fb4 a43d d265 093d 10a0 e63d 9bb6 b73d
00000150: 0130 a93d 0000 0000 96b8 6bbd bbd1 aa3d
00000160: a07d dbbb 474b 683c 1599 11bd 2519 8abd
00000170: 6e61 f93d 868b 993d e95e a0bc 350f 90bb
00000180: 91c1 313d 2696 5d3d 0000 0000 88fd ba3d
00000190: 4961 a83d a24f 653d c3e3 e23c f2c9 a13c
000001a0: 0a20 0a3e 4784 2c3c fe37 59bd fc98 013e
000001b0: 6aee 9b3d 0000 0000 8fdd bbbd 3b55 8d3d
000001c0: 8cc6 57bd 0000 0000 5c15 0ebd b944 c93d
000001d0: 5f0c f23d 0000 0000 885d c13c 86ba aebc
000001e0: 34b3 ab3d 1acd 65bc 442f 613d b39d 3abd
000001f0: ba3f b83d 5934 a93d 2228 8fbd f7fa 9b3d

shared_net.2.weight f4 [128, 128]
0.07550317 0.06408263 0.02098598 -0.15213978 0.33257002 0.046496443 0.17325427 -0.11828565
0.26395932 0.14397094 0.015201758 -0.042190824 0.031528942 -0.043452915 -0.020602558 -0.0022200702
-0.03535089 0.010493273 0.14690271 -0.03248968 -0.12896122 -0.10138049 -0.25632292 -0.17700724
0.10289315 0.016092038 -0.13858621 0.17124315 -0.010391167 0.07790427 -0.32490447 -0.019424243
0.2574775 0.20022027 0.14855652 0.16849218 0.023724578 0.03850136 -0.013732759 -0.006457134
-0.039095555 -0.10195097 -0.19692622 -0.071626015 -0.07881255 0.19020489 -0.013377583 0.10835792
0.08728608 0.121027425 0.029856147 0.024641555 0.04442025 -0.031804714 -0.14629702 -0.20620453
-0.31691393 0.011048886 0.026974412 -0.10951205 -0.07603894 0.11113755 -0.11412975 -0.14683504
-0.009517372 0.02429616 0.08256811 -0.10557888 0.2093697 0.05443216 0.03437352 -0.33429116
0.036490884 0.045305233 0.08868993 -0.02993607 0.13414836 0.008619513 -0.2034021 0.21976411
-0.23023756 -0.068018064 0.089110084 0.09530195 -0.27983513 -0.09353542 -0.12234701 -0.053717725
0.06450083 -0.06861446 -0.1822621 -0.18629044 0.2046433 -0.0763467 0.099378064 0.022192525
0.10040321 0.122996554 -0.103717536 -0.08344935 -0.072950915 0.2678615 -0.20031917 0.07247947
-0.002018683 0.29354313 0.094420746 0.12429408 -0.17648911 0.016609894 0.053184863 -0.2672894
-0.014662814 -0.17678025 -0.07145105 0.01654497 0.04871553 -0.006515802 -0.03027898 0.04240691
-0.016092682 -0.040041447 -0.09230679 0.1350434 0.1622992 -0.08251114 -0.20869158 0.05085551
-0.09678618 -0.30377865 0.062205628 -0.07557787 -0.049624342 -0.17906931 0.062330145 0.09860053
-0.18528143 0.004225222 -0.02034001 -0.14964312 0.23676312 -0.13879275 0.050357785 0.19172788
0.0051532728 -0.086032726 0.15569597 -0.025200635 -0.12540846 0.2975212 0.114705496 0.032968335
0.007017985 -0.050392855 -0.100950405 0.02927331 -0.016902791 0.04759813 0.043917354 -0.20359598
0.0800856 -0.050692312 0.070517875 -0.1668254 0.33541018 -0.22247061 0.013764367 0.012969297
0.080163874 0.17790642 -0.0405673 -0.050380573 -0.11590586 0.08580399 0.025117936 0.0674359
0.0046387967 0.01718314 0.047151014 0.08982002 -0.016011573 -0.04393792 -0.061663084 -0.09675185
-0.05739799 -0.16586047 -0.022081949 0.06722491 -0.49236763 -0.25078228 0.14367862 0.1311368
0.114579156 -0.10209437 0.07437898 0.11017187 -0.16910255 0.06217756 0.077407435 0.16950719
-0.1510506 0.06069394 -0.20333071 -0.009027216 0.13831416 -0.084712476 -0.07778028 0.23615861
-0.0142301675 0.050266877 -0.24620661 0.044815805 0.21250209 0.113139726 -0.15115383 -0.077699244
-0.11822913 0.28073207 0.0065880227 0.20588768 0.097934835 0.026670173 0.08063578 -0.16060168
-0.06953519 -0.13752748 -0.037992522 0.009057951 0.14851266 0.04677449 0.12142383 0.1454697
-0.07222051 -0.09096631 0.24657701 -0.27857587 -0.05879098 -0.15506098 0.12496004 0.01730344
0.016192792 0.20157374 -0.10332524 -0.110186264 -0.23190318 -0.05795171 -0.16246271 0.031689588
-0.19772208 -0.21214686 -0.045401298 0.017891366 -0.094083376 -0.16701949 -0.109484375 0.0108888615
00000000: 68a1 9a3d c13d 833d caea ab3c 88ca 1bbe
00000010: 9e46 aa3e 0e73 3e3d 9169 313e bf3f f2bd
00000020: ad25 873e 1e6d 133e cb10 793c 49d0 2cbd
00000030: 7e24 013d affb 31bd b2c6 a8bc 997e 11bb
00000040: 18cc 10bd faeb 2b3c aa6d 163e e613 05bd
00000050: 690e 04be 93a0 cfbd c23c 83be 6341 35be
00000060: a5b9 d23d 73d3 833c 8be9 0dbe 5d5a 2f3e
00000070: b73f 2abc 468c 9f3d e159 a6be 971f 9fbc
00000080: 17d4 833e 8b06 4d3e 331f 183e 3789 2c3e
00000090: 0c5a c23c 9ab3 1d3d 5eff 60bc 5e96 d3bb
000000a0: a922 20bd accb d0bd 07a7 49be a9b0 92bd
000000b0: 7968 a1bd 12c5 423e a62d 5bbc c2ea dd3d
000000c0: 0bc3 b23d 3add f73d e194 f43c 16dd c93c
000000d0: 02f2 353d a945 02bd e3ce 15be 4827 53be
000000e0: 8b42 a2be 6306 353c 71f9 dc3c db47 e0bd
000000f0: 4eba 9bbd 159c e33d dcbc e9bd ed5b 16be
00000100: c0ee 1bbc be08 c73c 7819 a93d bd39 d8bd
00000110: 0365 563e 42f4 5e3d 40cb 0c3d 3628 abbe
00000120: 7777 153d fb91 393d 11a3 b53d 7d3c f5bc
00000130: 305e 093e dc38 0d3c a448 50be d809 613e
00000140: 65c3 6bbe 0e4d 8bbd 597f b63d ab2d c33d
00000150: 8d46 8fbe 808f bfbd 1291 fabd 1e07 5cbd
00000160: 0319 843d bd85 8cbd eaa2 3abe ecc2 3ebe
00000170: 038e 513e a95b 9cbd ba86 cb3d 19cd b53c
00000180: 33a0 cd3d 9ee5 fb3d dc69 d4bd 7ee7 aabd
00000190: 4a67 95bd 2425 893e 7820 4dbe 1e70 943d
000001a0: e14b 04bb 494b 963e aa5f c13d e58d fe3d
000001b0: 90b9 34be 7911 883c 5fd8 593d 28da 88be
000001c0: 4d3c 70bc e205 35be ee54 92bd 5189 873c
000001d0: f089 473d 8282 d5bb a00b f8bc deb2 2d3d
000001e0: cdd4 83bc 8002 24bd 580b bdbd d148 0a3e
000001f0: c331 263e 9afb a8bd 3fb3 55be de4d 503d
00000200: d537 c6bd e088 9bbe 54cb 7e3d 92c8 9abd
00000210: e542 4bbd f25d 37be e54d 7f3d 13ef c93d
00000220: 6aba 3dbe bb73 8a3b 18a0 a6bc 0c3c 19be
00000230: 0872 723e b01f 0ebe f743 4e3d 5054 443e
00000240: c9dc a83b ed31 b0bd c46e 1f3e 9071 cebc
00000250: 136b 00be b354 983e b7ea ea3d ce09 073d
00000260: 20f7 e53b bd68 4ebd 16bf cebd 95ce ef3c
00000270: b977 8abc 42f6 423d afe2 333d 777b 50be
00000280: eb03 a43d bea2 4fbd ad6b 903d 47d4 2abe
00000290: e2ba ab3e 56cf 63be f183 613c 2d7d 543c
000002a0: f52c a43d 1a2d 363e e629 26bd dc5b 4ebd
000002b0: 0d60 edbd 01ba af3d 21c4 cd3c d51b 8a3d
000002c0: 0c01 983b a8c3 8c3c 6c21 413d 8ff3 b73d
000002d0: b42a 83bc 40f8 33bd 6e92 7cbd d525 c6bd
000002e0: 281a 6bbd 54d7 29be 34e5 b4bc 37ad 893d
000002f0: 9c17 fcbe 8966 80be 7d20 133e ba48 063e
00000300: 7aa8 ea3d da16 d1bd 0254 983d caa1 e13d
00000310: 3829 2dbe e6ad 7e3d ca87 9e3d 4b93 2d3e
00000320: 02ad 1abe 359a 783d ed35 50be e3e6 13bc
00000330: 3aa2 0d3e bc7d adbd 444b 9fbd 90d3 713e
00000340: a625 69bc a4e4 4d3d 961d 7cbe c790 373d
00000350: 269a 593e cdb5 e73d 12c8 1abe c820 9fbd
00000360: 1d22 f2bd 1dbc 8f3e 57e0 d73b 38d4 523e
00000370: 0f92 c83d 687b da3c 5f24 a53d c474 24be
00000380: 7768 8ebd 01d4 0cbe 0c9e 1bbd cd67 143c
00000390: b413 183e 9c96 3f3d 0fad f83d 02f6 143e
000003a0: 59e8 93bd 8b4c babd af7e 7c3e 7fa1 8ebe
000003b0: d0ce 70bd 4ec8 1ebe 0deb ff3d f2bf 8d3c
000003c0: bfa6 843c 5969 4e3e 2f9c d3bd 56a9 e1bd
000003d0: 0778 6dbe c65e 6dbd a05c 26be f1cc 013d
000003e0: a877 4abe 073d 59be b6f6 39bd ea90 923c
000003f0: c9ae c0bd 2807 2bbe 5839 e0bd 3267 323c

shared_net.2.bias f4 [128]
0.052298374 -0.07050584 -0.0026818893 0.068565205 0.05984808 -0.08099857 0.024143469 -0.057228096
0.002767596 0.049177922 -0.049610417 -0.013175962 0.023438834 0.066839196 0.077120975 0.015906254
0.025827069 -0.021555949 0.08182493 0.009441319 -0.0311681 0.08010125 0.0 0.055761397
-0.014241427 -0.039371967 -0.038192302 0.05424746 -0.0589649 -0.006646882 0.04265119 -0.022853274
-0.028588712 0.0 0.07492291 -0.039972372 -0.0036462937 -0.008700228 0.0 0.0020962101
0.06510375 0.0 -0.018260429 0.073001705 -0.031057969 -0.06970214 -0.015745329 -0.015104783
0.0825511 -0.0014480519 -0.011713213 0.08524559 -0.011736998 -0.0041361437 0.077297255 0.07376311
0.053953145 -0.078455724 0.0 -0.0042896117 -0.07382853 0.073198244 0.021359095 0.09015857
0.053992454 0.02606249 -0.014147808 0.0023821096 0.015578704 -0.0034833022 0.082782485 -0.012426469
-0.05880978 0.002308628 -0.025615945 0.07058768 0.03119582 0.0 0.0 -0.044057366
0.0 0.053364903 0.07472033 0.0 0.0039165956 0.001329072 0.0026213096 -0.013335275
0.0059826593 0.014442455 -0.032519914 0.027856337 -0.045601107 0.023932872 0.047139015 0.05397492
0.069895305 0.078591794 -0.028957598 0.04601434 -0.0056829546 -0.05129086 0.0 0.05916218
0.06837151 -0.050690804 0.043978605 0.056938954 0.0 0.059427798 -0.015294176 0.07194106
0.10934333 0.0 0.07142985 0.024609137 0.06424484 0.047694508 -0.0069995606 0.037294727
0.03925725 0.07235126 0.005904998 -0.0061697573 0.0 -0.04783023 0.04982068 0.07893317
00000000: d236 563d 5e65 90bd a3c2 2fbb ea6b 8c3d
00000010: 4323 753d 94e2 a5bd 86c8 c53c 0268 6abd
00000020: 8e60 353b ca6e 493d 4b34 4bbd fddf 57bc
00000030: cc02 c03c fde2 883d 9af1 9d3d d54d 823c
00000040: 4a93 d33c 1a96 b0bc d493 a73d c3af 1a3c
00000050: 3e54 ffbc 200c a43d 0000 0000 1066 643d
00000060: e054 69bc 8044 21bd 886f 1cbd 9632 5e3d
00000070: 2e85 71bd 16ce d9bb 04b3 2e3d ca36 bbbc
00000080: e032 eabc 0000 0000 2f71 993d 12ba 23bd
00000090: a8f6 6ebb 678b 0ebc 0000 0000 9260 093b
000000a0: 1d55 853d 0000 0000 e596 95bc eb81 953d
000000b0: 486d febc ffbf 8ebd 59fc 80bc 0d7a 77bc
000000c0: 8d10 a93d 8fcc bdba c7e8 3fbc 3d95 ae3d
000000d0: 8a4c 40bc 7d88 87bb 064e 9e3d 1d11 973d
000000e0: f9fd 5c3d 65ad a0bd 0000 0000 df8f 8cbb
000000f0: 6a33 97bd f6e8 953d 45f9 ae3c 0ea5 b83d
00000100: 3127 5d3d 0181 d53c 35cc 67bc 2b1d 1c3b
00000110: d23d 7f3c 1d48 64bb dd89 a93d 6398 4bbc
00000120: 86e2 70bd 5a4c 173b 88d8 d1bc 4690 903d
00000130: 608e ff3c 0000 0000 0000 0000 7f75 34bd
00000140: 0000 0000 2895 5a3d f906 993d 0000 0000
00000150: c956 803b 4234 ae3a 47ca 2b3b 337c 5abc
00000160: 2f0a c43b 0ca0 6c3c 9a33 05bd f932 e43c
00000170: 3ac8 3abd df0e c43c d714 413d ce14 5d3d
00000180: 4525 8f3d bcf4 a03d 7c38 edbc 8879 3c3d
00000190: 1438 babb 5d16 52bd 0000 0000 0b54 723d
000001a0: 5d06 8c3d 29a1 4fbd e922 343d d238 693d
000001b0: 0000 0000 906a 733d 6c94 7abc d655 933d
000001c0: 65ef df3d 0000 0000 d049 923d 1a99 c93c
000001d0: cc92 833d 515b 433d 925c e5bb 5bc2 183d
000001e0: 36cc 203d e62c 943d b77e c13b ad2b cabb
000001f0: 0000 0000 a2e9 43bd c510 4c3d b7a7 a13d

shared_net.4.weight f4 [64, 128]
0.08739398 0.13823174 0.045162536 0.06467248 0.09620338 -0.26005647 -0.08890826 0.098631255
-0.17421348 0.018867219 0.16044478 -0.00088315434 0.24519943 0.16347894 0.114796005 -0.15024528
0.24479927 0.23150179 -0.093464226 0.22957642 0.3669996 -0.030745111 -0.0077977534 -0.19392918
0.062031906 0.1252166 0.3337684 -0.02679659 0.22272183 -0.0026190418 0.1016362 0.072513
-0.087661564 -0.094632335 -0.09702115 -0.24650769 -0.073573105 0.07645182 -0.01947757 -0.15950464
-0.17268206 -0.03138255 0.1693173 0.19942206 0.18584734 0.32593587 -0.04810254 -0.1557737
0.17048956 -0.04931689 0.046621636 -0.3891461 -0.0404655 -0.0738778 0.11313417 -0.022001872
0.24509948 0.14412342 0.055157874 -0.06096266 0.102764376 0.027135761 -0.07937192 0.2005626
-0.019904349 -0.0007789219 0.033994947 0.052817687 0.15427709 -0.006935326 -0.23661311 0.010622396
0.008738207 0.017850995 -0.04938964 -0.1305108 -0.007188983 0.1453143 0.17471163 0.1417839
0.055439744 0.08884204 0.14037566 0.13184744 -0.009962209 0.07629499 0.039975747 -0.0444538
0.02847956 -0.15875435 0.030598775 0.30450407 0.03685521 -0.065409854 -0.017067246 0.054134507
0.132918 0.15952285 0.25970024 0.058753382 -0.03230268 0.18936846 -0.09960625 0.18624955
0.23416671 0.11962215 -0.11813837 -0.007839825 0.013481107 0.150711 -0.02076044 0.028860457
0.14720502 -0.19695646 -0.023502061 -0.08090775 0.11857536 -0.15669735 0.066947356 0.069199696
0.03989984 -0.05012273 0.16631775 0.07531225 0.07144573 -0.044550978 -0.15991417 0.0141101945
0.25373298 -0.17034262 -0.37246808 0.19127975 0.12008686 -0.01704608 0.0041161594 -0.12622428
0.10728235 0.16365096 0.035954706 -0.016346933 -0.017239735 0.086910315 0.056328382 0.1476768
0.21056573 0.18710303 0.11835278 0.12812309 0.028993484 0.07171551 -0.08695706 0.15185197
0.19044982 -0.13714051 -0.2963539 -0.01582152 -0.51457435 0.10712442 -0.114222 -0.027792677
-0.1820851 -0.061094865 -0.3512514 0.12776445 -0.030262154 -0.118873686 0.19014588 0.095953554
-0.004090883 -0.13084313 -0.067578174 0.22645533 0.049462017 -0.06378619 0.18402584 -0.19352041
-0.051095862 -0.07501221 -0.11162724 -0.11655842 -0.18922609 0.1045445 0.028075248 0.041924495
0.08973366 -0.13947329 0.18660584 -0.016795851 -0.007841571 0.10905327 0.26300946 -0.15438493
-0.07248574 0.168259 0.013192572 -0.10556594 0.18003994 0.1015896 0.039533634 -0.054927275
-0.29420692 -0.084138185 -0.06660725 0.039013725 -0.12272124 -0.026757177 -0.14464565 -0.23618113
-0.06743098 0.3493304 0.094035625 0.11537735 -0.073868334 0.018420141 0.15559874 -0.024880026
-0.12799828 0.05979938 0.1786031 -0.02737729 0.051281445 0.09920083 -0.2351864 -0.02379606
0.07670626 -0.11403305 0.11665065 -0.12236175 -0.035682973 -0.076803714 0.14700386 -0.043644257
-0.07710134 0.026359554 -0.10257567 -0.056400668 -0.20066465 0.005924531 -0.05821932 0.14112249
0.023971561 0.2024373 0.052442253 0.039656088 -0.08148054 0.05587682 -0.05468401 0.117492616
0.020506313 0.25782672 -0.10061335 -0.11313517 -0.15786374 -0.053513598 -0.07036512 0.20036152
00000000: 9dfb b23d 9f8c 0d3e 5afc 383d 0173 843d
00000010: 4706 c53d 1f26 85be 8915 b6bd 2fff c93d
00000020: 0565 32be 6d8f 9a3c a34b 243e 7c83 67ba
00000030: 8f15 7b3e 0667 273e 2b1a eb3d e6d9 19be
00000040: a9ac 7a3e ce0e 6d3e 2c6a bfbd 1516 6b3e
00000050: 5fe7 bb3e 2cdd fbbc 4c84 ffbb 5f95 46be
00000060: 2b15 7e3d c838 003e b1e3 aa3e 8684 dbbc
00000070: 3111 643e 3ba4 2bbb a426 d03d b281 943d
00000080: e887 b3bd 99ce c1bd 06b3 c6bd 836c 7cbe
00000090: 7fad 96bd c692 9c3d 6d8f 9fbc 2f55 23be
000000a0: 91d3 30be fd8a 00bd 8461 2d3e 4c35 4c3e
000000b0: c44e 3e3e 11e1 a63e 2b07 45bd 2483 1fbe
000000c0: d194 2e3e 8200 4abd 54f6 3e3d 283e c7be
000000d0: 27bf 25bd 3e4d 97bd e3b2 e73d 453d b4bc
000000e0: 5cfb 7a3e 1795 133e 39ed 613d fbb3 79bd
000000f0: 2176 d23d d14b de3c bf8d a2bd 4860 4d3e
00000100: 720e a3bc 9030 4cba 493e 0b3d 5c57 583d
00000110: d0fa 1d3e bb41 e3bb b54a 72be 8f09 2e3c
00000120: b22a 0f3c 403c 923c cb4c 4abd a0a4 05be
00000130: 8f91 ebbb 46cd 143e 9be7 323e cc2f 113e
00000140: c914 633d d1f2 b53d a3be 0f3e 0403 073e
00000150: 8838 23bc 8c40 9c3d 9cbd 233d 3015 36bd
00000160: f74d e93c 8090 22be 48aa fa3c f5e7 9b3e
00000170: 7df5 163d 9af5 85bd 9cd0 8bbc 25bc 5d3d
00000180: a81b 083e f559 233e 6ef7 843e 63a7 703d
00000190: d14f 04bd cee9 413e 5dfe cbbd 34b8 3e3e
000001a0: 66c9 6f3e 75fc f43d 88f2 f1bd 9c72 00bc
000001b0: dcdf 5c3c fc53 1a3e cc11 aabc c46c ec3c
000001c0: eabc 163e f4ae 49be 6587 c0bc f6b2 a5bd
000001d0: a3d7 f23d 4575 20be b21b 893d 92b8 8d3d
000001e0: 046e 233d 7e4d 4dbd 334f 2a3e 4f3d 9a3d
000001f0: 2452 923d 167b 36bd 8ac0 23be 722e 673c
00000200: 4ae9 813e 4c6e 2ebe 23b4 bebe d7de 433e
00000210: 1af0 f53d 39a4 8bbc d9e0 863b f040 01be
00000220: d9b6 db3d 1e94 273e 3e45 133d 01ea 85bc
00000230: 583a 8dbc 09fe b13d 97b8 663d 9638 173e
00000240: 8b9e 573e f097 3f3e f162 f23d b332 033e
00000250: be83 ed3c 95df 923d 8b16 b2bd 157f 1b3e
00000260: 4705 433e 906e 0cbe b3bb 97be 229c 81bc
00000270: 25bb 03bf 0c64 db3d 39ed e9bd 78ad e3bc
00000280: 8474 3abe 9c3e 7abd 39d7 b3be afd4 023e
00000290: 56e8 f7bc 0c74 f3bd 9ab5 423e 4c83 c43d
000002a0: d00c 86bb befb 05be 6d66 8abd e8e3 673e
000002b0: af98 4a3d 55a2 82bd 4571 3c3e 372a 46be
000002c0: e549 51bd 00a0 99bd d39c e4bd 2eb6 eebd
000002d0: 7cc4 41be 6d1b d63d 10fe e53c 05b9 2b3d
000002e0: 48c6 b73d 16d2 0ebe 9a15 3f3e 7497 89bc
000002f0: ef79 00bc 5257 df3d 2da9 863e 1517 1ebe
00000300: 6773 94bd 164c 2c3e a825 583c f532 d8bd
00000310: 645c 383e 350e d03d 05ee 213d 6cfb 60bd
00000320: 4aa2 96be a450 acbd 6269 88bd dbcc 1f3d
00000330: 4655 fbbd de31 dbbc fd1d 14be 77d9 71be
00000340: 4119 8abd 6fdb b23e c095 c03d f64a ec3d
00000350: 4848 97bd d6e5 963c 4755 1f3e 32d1 cbbc
00000360: fb11 03be 32f0 743d bbe3 363e 5746 e0bc
00000370: 7e0c 523d ce29 cb3d b4d4 70be f4ef c2bc
00000380: 2c18 9d3d 298a e9bd 89e6 ee3d cc98 fabd
00000390: 4f28 12bd 444b 9dbd 2e88 163e 52c4 32bd
000003a0: 4fe7 9dbd feef d73c 3113 d2bd 6304 67bd
000003b0: 097b 4dbe 9122 c23b 6277 6ebd 6a82 103e
000003c0: 0260 c43c b94b 4f3e b0cd 563d 6c6e 223d
000003d0: 45df a6bd 18df 643d 57fc 5fbd f89f f03d
000003e0: dbfc a73c dd01 843e 5f0e cebd 69b3 e7bd
000003f0: 08a7 21be 1331 5bbd 971b 90bd 922b 4d3e

shared_net.4.bias f4 [64]
0.020624425 0.037899144 0.0027033288 0.03693108 0.057447203 0.016829515 0.036163162 0.026564702
0.049583778 -0.007837815 0.041445006 -0.012373099 0.032538444 0.002615682 0.019263705 0.0
0.05783972 0.052944455 0.0 0.026883218 -0.0027578415 0.08998507 0.023469027 0.023677241
-0.05127357 0.0019571637 0.07795822 0.0038171401 0.060946394 0.048976265 0.0 0.06907368
-0.008749759 0.053700566 -0.008770799 0.0 0.047186308 0.008685873 0.03412894 0.009664519
-0.0017802707 0.015403604 -0.031275544 -0.030718556 0.0075732246 0.023652961 -0.0014608536 -0.001636015
-0.0051551554 0.03908646 0.03961477 0.0 0.030316595 -0.0029799065 0.04769949 0.026320992
0.037044324 0.055360734 0.043582465 0.047206793 0.012409117 0.0 0.043816455 0.018223992
00000000: 8ef4 a83c 223c 1b3d 552a 313b 0b45 173d
00000010: c24d 6b3d 0dde 893c d31f 143d 389e d93c
00000020: 5c18 4b3d 2e6a 00bc 3dc2 293d 8ab8 4abc
00000030: 0847 053d dd6b 2b3b ebce 9d3c 0000 0000
00000040: 58e9 6c3d 49dc 583d 0000 0000 323a dc3c
00000050: e7bc 34bb 184a b83d 1e42 c03c c6f6 c13c
00000060: 3c04 52bd c243 003b 8fa8 9f3d fc28 7a3b
00000070: eda2 793d 569b 483d 0000 0000 8076 8d3d
00000080: 265b 0fbc 20f5 5b3d 66b3 0fbc 0000 0000
00000090: 6e46 413d 314f 0e3c caca 0b3d ee57 1e3c
000000a0: f957 e9ba 665f 7c3c c91a 00bd 7ba5 fbbc
000000b0: d028 f83b dbc3 c13c 1d7a bfba 8e6f d6ba
000000c0: 94ec a8bb 2019 203d 1943 223d 0000 0000
000000d0: 825a f83c 894a 43bb 8a60 433d 1f9f d73c
000000e0: cabb 173d f0c1 623d 8783 323d e95b 413d
000000f0: 9c4f 4b3c 0000 0000 e278 333d 7b4a 953c

actor.0.weight f4 [32, 64]
0.35873014 -0.1121223 -0.009181353 -0.10304199 -0.1725889 0.13471888 -0.12192551 -0.04946577
-0.041241847 0.24136755 0.092585735 -0.122923076 0.23453216 0.10821955 0.17279528 0.058152072
-0.34218693 0.12730655 -0.2619033 -0.031101448 0.049921695 0.06730141 0.015604151 -0.15464178
-0.24885829 0.012772486 0.13993444 -0.06222923 0.03578367 0.3126852 -0.26655036 -0.23502323
0.15747215 -0.04017132 0.2942517 -0.09722078 -0.107818075 0.22469646 0.059368458 0.018104127
0.001667051 -0.22646967 -0.09755965 0.37135574 0.10382408 0.11285103 -0.119597 -0.010241761
-0.017874422 -0.020170279 -0.29819876 -0.064708844 0.07453999 -0.3718131 0.016472662 -0.095105335
-0.13701043 0.072283015 -0.17333792 0.27026936 -0.3968764 0.013790909 0.19091512 0.2193285
-0.30546263 -0.09365636 0.25072518 -0.2505226 -0.13063243 0.08444201 0.32573363 0.15292445
0.07998646 0.07370737 0.34264198 -0.17397138 -0.047083348 0.17704888 0.20311365 0.12168553
-0.08302946 -0.15810023 0.2991252 0.21216787 0.29502112 0.06471109 0.019339683 -0.031778116
-0.2123321 0.059566833 0.034725416 -0.0034736185 -0.207223 -0.26790455 -0.34031484 0.0728212
-0.14168848 -0.04051163 0.13949211 0.21621543 -0.051429737 -0.1214241 -0.4089167 -0.11550026
0.06558623 -0.21008083 -0.19256279 0.06426518 -0.10735573 -0.100865476 -0.097483076 0.30686563
0.101057634 -0.07951163 -0.14113055 0.1142609 -0.0065860893 0.22543912 -0.0867346 -0.1999969
-0.15546428 -0.055226583 -0.14821665 0.07282773 -0.09427725 0.12555453 -0.09316107 -0.28603193
0.015581455 0.065132074 0.015359878 0.011253479 0.1357331 0.16880551 -0.073716804 -0.04987366
-0.122365594 -0.26716873 0.18116765 -0.07593093 -0.083907954 0.25654006 0.19760233 0.08800495
-0.101850815 0.14628878 -0.09631173 -0.13056977 -0.044712905 -0.26684585 -0.18738388 -0.14378485
-0.23217893 0.014118282 -0.23478803 0.08248786 0.03755346 -0.2621276 0.35414025 -0.16779742
0.07665511 0.13045123 0.1901986 -0.052297916 -0.27778098 0.044641584 0.01792896 0.21236652
-0.10319191 -0.4231114 -0.09519904 -0.11871838 -0.12935977 -0.29413012 -0.13135809 -0.017548956
-0.20819026 0.14468959 0.096448295 0.06252582 0.03683553 -0.062077057 0.17843851 -0.16534525
-0.012975465 -0.2928373 0.56880534 0.015822835 0.07241139 0.34191725 -0.05538315 0.048403658
-0.009168808 0.07616238 0.2738069 0.40671906 -0.11624943 -0.116609976 0.18820128 0.14016557
-0.22789714 0.3003563 -0.104891725 0.2193969 0.053515032 0.10663159 0.16207944 -0.15277676
-0.15588452 0.20948397 0.13887514 0.098440155 -0.17222476 0.38819042 -0.278484 0.05236738
0.51269805 0.0008286779 0.19057526 -0.14239703 -0.041324798 -0.11637214 -0.06749029 -0.112369925
-0.30966404 -0.037001796 0.20739575 0.12516108 0.15860632 -0.026386797 0.0671928 0.14247373
-0.25463286 -0.007426343 0.11365767 0.12525938 -0.081554286 -0.035249863 -0.055539377 0.050816424
0.24469076 0.1528488 0.059921283 0.23444496 0.09689689 -0.048504863 0.09839094 -0.04768021
0.027876787 -0.3195992 0.24098036 0.13950805 0.099288665 -0.1151626 0.2873691 0.28140506
00000000: 7aab b73e 60a0 e5bd 636d 16bc ae07 d3bd
00000010: 25bb 30be bff3 093e 15b4 f9bd 9f9c 4abd
00000020: 36ed 28bd 0e29 773e 979d bd3d 18bf fbbd
00000030: 3329 703e 36a2 dd3d 3ff1 303e de30 6e3d
00000040: 2033 afbe a65c 023e 3018 86be 77c8 febc
00000050: b17a 4c3d 52d5 893d 8ea8 7f3c 6a5a 1ebe
00000060: b5d4 7ebe b043 513c f94a 0f3e 14e4 7ebd
00000070: e691 123d 4618 a03e 4a79 88be eea9 70be
00000080: 6140 213e af8a 24bd 29a8 963e b01b c7bd
00000090: b9cf dcbd d416 663e 572c 733d 1b4f 943c
000000a0: f380 da3a aae7 67be 5bcd c7bd 5722 be3e
000000b0: b8a1 d43d 711e e73d 46ef f4bd 0fcd 27bc
000000c0: 616d 92bc 243c a5bc 82ad 98be 1286 84bd
000000d0: 6ca8 983d 495e bebe adf1 863c 96c6 c2bd
000000e0: 764c 0cbe 1e09 943d 7f7f 31be bf60 8a3e
000000f0: 6233 cbbe 44f3 613c 417f 433e a697 603e
00000100: 9965 9cbe e8ce bfbd 0d5f 803e 8044 80be
00000110: 82c4 05be efef ac3d 8fc6 a63e 3a98 1c3e
00000120: f1cf a33d e4f3 963d c56e af3e 8e25 32be
00000130: 78da 40bd 4d4c 353e 06fd 4f3e 4336 f93d
00000140: 590b aabd 07e5 21be f026 993e 8942 593e
00000150: 020d 973e 3f87 843d 416e 9e3c c529 02bd
00000160: 966d 59be 5afc 733d 3d3c 0e3d a6a5 63bb
00000170: 4432 54be c92a 89be bf3d aebe 4823 953d
00000180: c916 11be 86ef 25bd 05d7 0e3e 9467 5d3e
00000190: fda7 52bd 33ad f8bd 885d d1be 668b ecbd
000001a0: 1352 863d 6e1f 57be 2e2f 45be 769d 833d
000001b0: 52dd dbbd 8f92 cebd 35a5 c7bd 7e1d 9d3e
000001c0: 4ef7 ce3d fed6 a2bd 8784 10be 9e01 ea3d
000001d0: 1fd0 d7bb 83d9 663e e9a1 b1bd fdcb 4cbe
000001e0: 0732 1fbe 4535 62bd 1bc6 17be b426 953d
000001f0: 6e14 c1bd 5e91 003e 3bcb bebd c772 92be
00000200: 5c49 7f3c f763 853d ffa7 7b3c 8360 383c
00000210: 9efd 0a3e 5adb 2c3e d6f8 96bd 5348 4cbd
00000220: d09a fabd 57ca 88be 0384 393e ad81 9bbd
00000230: efd7 abbd 3859 833e 4458 4a3e f03b b43d
00000240: 2997 d0bd bacc 153e 163f c5bd 15b4 05be
00000250: e124 37bd 05a0 88be 8fe1 3fbe 563c 13be
00000260: 50c0 6dbe 5e50 673c 466c 70be 65ef a83d
00000270: a8d1 193d 9735 86be df51 b53e 16d3 2bbe
00000280: 5bfd 9c3d 0295 053e 6cc3 423e 5736 56bd
00000290: 4f39 8ebe 18da 363d c1df 923c 9c76 593e
000002a0: 4856 d3bd 0fa2 d8be b7f7 c2bd 9f22 f3bd
000002b0: e376 04be 3998 96be bc82 06be d4c2 8fbc
000002c0: d42f 55be 8229 143e af86 c53d 8a0d 803d
000002d0: dae0 163d 8344 7ebd 96b8 363e 4450 29be
000002e0: 0b97 54bc c5ee 95be 3a9d 113f e49e 813c
000002f0: 6c4c 943d c70f af3e 71d9 62bd ea42 463d
00000300: c538 16bc 06fb 9b3d 6b30 8c3e 7b3d d03e
00000310: 2e14 eebd 36d1 eebd d6b7 403e 9087 0f3e
00000320: de5d 69be 4dc8 993e 79d1 d6bd 95a9 603e
00000330: 9432 5b3d aa61 da3d 27f8 253e 8371 1cbe
00000340: 31a0 1fbe f782 563e 4935 0e3e fe9a c93d
00000350: b05b 30be e5c0 c63e 7495 8ebe 2e7f 563d
00000360: 2e40 033f a23b 593a 2926 433e 87d0 11be
00000370: 3144 29bd 8454 eebd 5938 8abd 3422 e6bd
00000380: 498c 9ebe 328f 17bd 8d5f 543e 3a2a 003e
00000390: b269 223e 2029 d8bc 619c 893d a2e4 113e
000003a0: 3d5f 82be ae58 f3bb 5ac5 e83d ff43 003e
000003b0: ef05 a7bd 2962 10bd 427d 63bd e224 503d
000003c0: 3790 7a3e 6584 1c3e 0570 753d 5712 703e
000003d0: e071 c63d 09ad 46bd 3081 c93d 534c 43bd
000003e0: dc5d e43c 82a2 a3be 8ec3 763e 33db 0e3e
000003f0: db57 cb3d 5fda ebbd 0b22 933e 5314 903e

actor.0.bias f4 [32]
0.0051720245 0.0063157533 -0.018648293 0.024755819 -0.005956165 0.0075983033 0.028261848 0.020502795
0.009432585 0.02732526 0.0 0.009826238 0.0027484256 0.0 -0.007521199 -0.04271073
-0.026847761 0.05181905 -0.010040419 0.009285554 -0.007074137 0.0063827094 0.0 -0.0012222965
-0.016192928 0.032172114 0.012843464 0.045504406 0.012737246 -0.011128252 0.010480527 -0.019000353
00000000: 167a a93b 61f4 ce3b 4ec4 98bc b7cc ca3c
00000010: ef2b c3bb 30fb f83b 6485 e73c 7af5 a73c
00000020: 218b 1a3c 39d9 df3c 0000 0000 3bfe 203c
00000030: ee1e 343b 0000 0000 6474 f6bb 72f1 2ebd
00000040: d6ef dbbc 3640 543d 9280 24bc 7022 183c
00000050: 2ace e7bb 0c26 d13b 0000 0000 7735 a0ba
00000060: 08a7 84bc e8c6 033d 646d 523c d462 3a3d
00000070: e2af 503c 4653 36bc 84b6 2b3c a1a6 9bbc

actor.2.weight f4 [9, 32]
-0.26949236 0.34931982 0.23360159 0.023142606 0.15620296 -0.06274394 -0.24384284 0.008855846
0.45645317 0.47264034 0.2040005 0.29544875 0.082041204 0.13030759 -0.07142137 0.2898997
0.44056222 0.08200425 -0.24026844 0.17082904 0.17016734 -0.14085259 -0.15747677 0.12228516
-0.38185832 -0.47383222 0.44876322 0.2300984 -0.03213016 -0.2756388 -0.023101868 -0.30081663
-0.17533144 -0.14381628 -0.31044692 -0.285668 -0.2988117 -0.23254481 0.19397584 -0.08631288
-0.0017512512 0.29542148 0.23272297 0.40514937 -0.49260068 0.1604318 -0.14580934 -0.29738632
0.052994926 0.32462364 -0.20336916 -0.27136785 0.07056145 0.44871086 0.04158229 -0.037889194
-0.060429268 0.5349139 0.015665475 0.47146827 -0.018236455 0.07957932 0.3084507 -0.08655122
-0.27348614 -0.010787952 0.14462431 0.06651473 0.36173815 0.0125758005 -0.08030413 -0.37894773
-0.33737475 0.43195808 0.21417595 -0.10272996 -0.33097398 0.4393 0.424696 -0.2466142
-0.3272182 -0.21423976 -0.13091543 0.24935414 -0.27884096 -0.039991304 0.13479877 -0.35876283
-0.10504896 0.0024211055 0.41963357 -0.28691596 -0.06147321 0.16645084 -0.29158103 -0.0720178
0.18422207 -0.45965683 0.13787554 -0.34361878 -0.017049145 -0.25819737 0.118169256 0.292067
-0.10009749 -0.22375706 0.079463705 -0.23539208 0.15324025 -0.063433625 0.027331308 -0.3786817
0.31032518 0.19874302 -0.53389317 0.12837468 0.16550958 0.246094 0.12381041 -0.074773796
-0.34102756 -0.27870655 0.08906475 0.03136186 0.3694015 -0.19176869 -0.41087753 0.17335296
-0.11393559 0.30508226 0.35047892 -0.31194592 -0.26233882 -0.17177813 -0.19166325 -0.07520809
0.1188223 -0.3177611 0.4648965 -0.09094008 0.0903749 -0.009047883 0.18213204 -0.122761585
0.21739455 -0.095524944 0.015001434 0.56936294 0.090112716 0.15944158 -0.2232924 0.12865983
0.5540902 0.11574514 0.061301533 -0.16424069 0.17979045 0.49925956 0.09370517 -0.035861503
0.20364252 -0.18348096 -0.084597 -0.31132135 0.3531191 0.10657017 0.06469211 -0.28241214
0.16253793 -0.10098705 -0.37376428 -0.3199333 -0.21625634 -0.03453207 0.17078677 -0.020044565
0.22114931 -0.5016656 -0.21438618 0.05459724 0.38545492 -0.20828769 -0.21352158 0.041597567
0.27959543 0.42604232 0.2702029 0.012482018 0.058051225 -0.48305386 0.28088215 -0.16819546
0.23470834 0.051090475 5.6424065e-05 0.15877049 -0.036024798 0.07397015 0.09559026 0.35685012
0.2419341 0.113959566 -0.28033292 -0.07397808 0.30962354 0.5131396 0.061498217 -0.6301051
0.027450236 0.17585574 -0.37200072 -0.06396647 0.0108640045 -0.4948065 -0.070236124 0.09334279
0.05844718 0.005702992 0.09145902 -0.15493229 -0.29448298 0.31607223 0.52189076 0.13665757
-0.023805365 -0.1922277 0.35768497 0.10880123 -0.4063102 -0.2692515 -0.012277891 0.1105532
0.024013294 0.23739973 -0.12555008 -0.5354478 0.07806264 0.033234283 -0.33533597 -0.13498671
-0.39824042 0.050894096 0.20124377 0.21563718 0.23839118 0.056244656 -0.189803 0.40046394
-0.0833858 0.4310827 0.21289521 0.1799522 -0.5000053 -0.2534386 -0.31896564 0.013919614
00000000: e7fa 89be 0cda b23e 4135 6f3e 9095 bd3c
00000010: abf3 1f3e e57f 80bd f0b1 79be 1c18 113c
00000020: 3bb4 e93e eafd f13e 82e5 503e 0f45 973e
00000030: 3805 a83d 5a6f 053e 5e45 92bd bc6d 943e
00000040: 5f91 e13e d8f1 a73d ee08 76be cfed 2e3e
00000050: 5940 2e3e a93b 10be 9741 21be a470 fa3d
00000060: ef82 c3be 239a f2be 4bc4 e53e ea9e 6b3e
00000070: ea9a 03bd 8720 8dbe 2140 bdbc a304 9abe
00000080: 168a 33be 9344 13be e6f2 9ebe 1343 92be
00000090: d9fd 98be 3a20 6ebe 9aa1 463e cfc4 b0bd
000000a0: 3d8a e5ba 7c41 973e ee4e 6e3e bd6f cf3e
000000b0: 2836 fcbe 3c48 243e 0b4f 15be 0543 98be
000000c0: 3511 593d 1235 a63e 0140 50be baf0 8abe
000000d0: 8682 903d 6ebd e53e 3152 2a3d b331 1bbd
000000e0: ae84 77bd 1ef0 083f e254 803c 4a64 f13e
000000f0: 9e64 95bc 7cfa a23d 40ed 9d3e c441 b1bd
00000100: 6006 8cbe f3bf 30bc 6518 143e e038 883d
00000110: be35 b93e bb0a 4e3c 7e76 a4bd 7005 c2be
00000120: 62bc acbe 9c29 dd3e f150 5b3e 1664 d2bd
00000130: 6c75 a9be eeeb e03e c171 d93e 6f88 7cbe
00000140: 2589 a7be ab61 5bbe b20e 06be b156 7f3e
00000150: 3ec4 8ebe eccd 23bd b008 0a3e c3af b7be
00000160: e923 d7bd 69ab 1e3b 36da d63e a6e6 92be
00000170: 55cb 7bbd 1772 2a3e 1c4a 95be 117e 93bd
00000180: b6a4 3c3e 2458 ebbe 3f2f 0d3e cdee afbe
00000190: a6aa 8bbc 7232 84be b902 f23d ce89 953e
000001a0: eaff ccbd 9220 65be debd a23d 9f0a 71be
000001b0: 03eb 1c3e 7de9 81bd e8e5 df3c 91e2 c1be
000001c0: f1e2 9e3e 4a83 4b3e 39ad 08bf a774 033e
000001d0: 587b 293e 1100 7c3e 5090 fd3d 0123 99bd
000001e0: 2a9b aebe a0b2 8ebe 9467 b63d 4b75 003d
000001f0: 3222 bd3e 035f 44be 8a5e d2be 7083 313e
00000200: 1057 e9bd be33 9c3e f971 b33e 60b7 9fbe
00000210: 4651 86be 9be6 2fbe 5f43 44be b306 9abd
00000220: 1b59 f33d 95b1 a2be ea06 ee3e cb3e babd
00000230: 7a16 b93d 923d 14bc d280 3a3e 6d6a fbbd
00000240: ad9c 5e3e 95a2 c3bd 93c8 753c c5c1 113f
00000250: 048d b83d a744 233e c3a6 64be 67bf 033e
00000260: dbd8 0d3f ca0b ed3d 5117 7b3d b62e 28be
00000270: fd1a 383e f39e ff3e 7fe8 bf3d 83e3 12bd
00000280: aa87 503e 6fe2 3bbe 3141 adbd 8365 9fbe
00000290: 07cc b43e 7641 da3d 4c7d 843d 5398 90be
000002a0: 5870 263e 4cd2 cebd 085e bfbe 4cce a3be
000002b0: 4d72 5dbe 8071 0dbd bae2 2e3e 8034 a4bc
000002c0: f774 623e 286d 00bf 0d88 5bbe 5ba1 5f3d
000002d0: 595a c53e 5e49 55be 67a5 5abe 3662 2a3d
000002e0: 2227 8f3e 3822 da3e 0958 8a3e 6181 4c3c
000002f0: 1fc7 6d3d d652 f7be c9cf 8f3e 6e3b 2cbe
00000300: 6257 703e 3f44 513d e1a8 6c38 bb94 223e
00000310: bd8e 13bd a97d 973d d4c4 c33d 0fb5 b63e
00000320: 93bd 773e a263 e93d cc87 8fbe d281 97bd
00000330: fa86 9e3e 1e5d 033f 8ee5 7b3d 914e 21bf
00000340: 51df e03c 8713 343e e176 bebe da00 83bd
00000350: f0fe 313c 4757 fdbe f5d7 8fbd 812a bf3d
00000360: 4f66 6f3d 2ae0 ba3b de4e bb3d 92a6 1ebe
00000370: 79c6 96be 38d4 a13e a29a 053f f6ef 0b3e
00000380: 7803 c3bc 57d7 44be 7c22 b73e 2ed3 de3d
00000390: e407 d0be 55db 89be 3529 49bc b769 e23d
000003a0: 87b7 c43c ea18 733e 3390 00be 1b13 09bf
000003b0: 4edf 9f3d ac20 083d 28b1 abbe f539 0abe
000003c0: 2be6 cbbe 5476 503d d912 4e3e fecf 5c3e
000003d0: d11c 743e cc60 663d b85b 42be 9c09 cd3e
000003e0: 2dc6 aabd dfb6 dc3e 3401 5a3e 6445 383e
000003f0: 5900 00bf b4c2 81be 774f a3be 180f 643c

actor.2.bias f4 [9]
-0.0012170706 0.017196871 0.020889862 0.0026871134 -0.030007461 -0.013458463 0.021849615 0.023171434
-0.028717766
00000000: 1d86 9fba 74e0 8c3c 3721 ab3c 481a 303b
00000010: 35d2 f5bc e380 5cbc f7fd b23c 05d2 bd3c
00000020: 8541 ebbc

critic.0.weight f4 [32, 64]
0.35013103 -0.17786603 -0.15997508 0.14905094 0.089001134 0.046320494 -0.12759855 0.5912039
-0.061734043 -0.25634015 0.070251316 0.3024121 0.10822095 -0.04744492 0.12571771 -0.15400702
0.1263472 0.2425191 -0.2727932 0.23958333 -0.045024026 -0.0831002 0.18906684 0.015143254
0.31044734 -0.052126598 0.29962477 0.12526475 -0.12672064 0.22179402 0.043346193 0.3248962
-0.22095332 0.29008693 0.056634784 0.14545286 -0.124442674 0.15412432 0.022112465 -0.08638059
0.005894713 -0.40925476 0.19535883 0.09782342 0.15087625 -0.37220153 -0.074560344 0.03465056
-0.3545755 0.013054613 0.10282347 -0.18536365 0.1053055 0.004614906 0.14674312 -0.3004534
0.020602474 0.14220418 0.039450087 -0.22507231 -0.19303405 0.124701925 0.16137376 -0.005668333
0.17926826 0.021757463 0.17178725 0.012175808 -0.08945603 -0.062265687 0.08712324 0.37589014
-0.37882414 0.45280185 -0.1948494 0.21352129 -0.018453907 0.4063969 -0.09192603 -0.25618136
-0.014668578 -0.09964916 0.05909554 -0.21942703 -0.05231292 -0.24966682 -0.18352912 0.16139674
0.31087118 0.2007017 -0.13052957 -0.18107346 -0.28008816 0.19354998 0.1001008 -0.08273301
-0.17202294 -0.22037403 0.20229405 0.06494829 -0.2191265 0.10137284 -0.17717439 -0.24521528
0.02852866 -0.12769522 -0.06722545 0.10481507 0.30790728 -0.06715629 -0.12453103 -0.12632807
-0.25903222 -0.21337995 -0.15793729 -0.08063766 0.076622225 -0.109946735 -0.26726657 0.29122975
-0.025303112 0.18833993 0.051199254 0.19807519 -0.015591315 -0.24946004 0.050905935 0.27274543
0.09315347 0.15945928 0.13678345 -0.16452716 -0.08395375 0.048533924 -0.22659163 -0.20797798
0.030608336 0.07373699 0.0037960217 -0.2182291 -0.082280636 -0.12440815 -0.2125918 -0.16512802
0.058356132 0.33414668 0.09027284 0.23900363 -0.3037802 0.053605534 0.1002686 0.031488296
-0.45147595 0.154271 0.20136851 -0.21669869 0.41156977 -0.37251276 -0.09989418 -0.10332036
-0.02632396 0.048980404 -0.20942536 -0.018143637 -0.21771683 -0.13829204 -0.15598021 0.07457925
0.3141338 0.2013593 0.3069612 0.021280264 0.109898716 -0.24788645 -0.1627161 -0.10000601
-0.08804785 0.18201493 0.052538816 -0.11121551 0.32294464 -0.1614625 0.14975767 -0.13558054
-0.2112222 -0.055322804 0.36499906 0.11478373 0.15502681 -0.29295072 0.22193936 0.097027816
-0.24132866 0.17995171 0.22960423 -0.24271886 -0.055370312 0.049306747 0.3017612 0.17705007
-0.43466818 -0.07256799 0.006685609 0.035421133 0.11203064 -0.16835645 -0.021542232 0.03237523
-0.037382357 0.048605487 0.110219054 0.02603656 0.049648233 -0.20497933 0.06588094 -0.29158488
-0.045755267 -0.18943658 -0.22252727 0.1695673 0.06586233 0.20156951 -0.063432515 0.13769674
-0.32404688 0.06655071 -0.10194164 0.03128655 -0.28462687 -0.1666072 -0.2647147 0.24092165
0.11953456 0.034367967 -0.13218763 0.18627673 -0.36637303 -0.21318118 -0.04448339 0.07348022
0.255275 0.03852991 -0.19296324 0.07388457 -0.07745447 0.15145236 -0.0019001551 0.056846153
0.25710878 0.05797157 0.060292028 0.29628477 -0.20212355 0.025431242 0.30187976 -0.24136648
00000000: 6044 b33e 8322 36be 82d0 23be cfa0 183e
00000010: 3a46 b63d 8fba 3d3d 32a9 02be 2459 173f
00000020: d6dc 7cbd 043f 83be ecdf 8f3d c2d5 9a3e
00000030: f2a2 dd3d 9b55 42bd 25bc 003e 04b4 1dbe
00000040: 2961 013e ed56 783e 8dab 8bbe 5555 753e
00000050: 1d6b 38bd 7030 aabd bd9a 413e 691b 783c
00000060: f4f2 9e3e b382 55bd 6b68 993e 6745 003e
00000070: 0ec3 01be f91d 633e c78b 313d cb58 a63e
00000080: 9641 62be 4686 943e e0f9 673d 98f1 143e
00000090: cddb febd c4d2 1d3e 3325 b53c 4fe8 b0bd
000000a0: 7028 c13b d789 d1be 250c 483e a557 c83d
000000b0: 4e7f 1a3e 3391 bebe 18b3 98bd bfed 0d3d
000000c0: ec8a b5be 04e3 553c 1d95 d23d f8cf 3dbe
000000d0: 69aa d73d a338 973b d443 163e 07d5 99be
000000e0: 85c6 a83c f99d 113e 6a96 213d 5b79 66be
000000f0: b8aa 45be b963 ff3d 2a3f 253e 6cbd b9bb
00000100: 1992 373e b53c b23c ffe8 2f3e 0a7d 473c
00000110: b934 b7bd 4e0a 7fbd ab6d b23d ac74 c03e
00000120: 3df5 c1be a5d5 e73e 9a86 47be 53a5 5a3e
00000130: a62c 97bc 4113 d03e b743 bcbd 342a 83be
00000140: 7a54 70bc dc14 ccbd 2a0e 723d 7bb1 60be
00000150: 1346 56bd a9a8 7fbe 0fef 3bbe 3045 253e
00000160: 822a 9f3e bf84 4d3e 8ba9 05be 526b 39be
00000170: b767 8fbe f731 463e a601 cd3d ed6f a9bd
00000180: c826 30be bba9 61be 2c26 4f3e 9c03 853d
00000190: b262 60be 909c cf3d 346d 35be b719 7bbe
000001a0: f0b4 e93c 89c2 02be 7fad 89bd 49a9 d63d
000001b0: 06a6 9d3e 3d89 89bd 200a ffbd 255c 01be
000001c0: df9f 84be 4680 5abe 50ba 21be 5c25 a5bd
000001d0: 1dec 9c3d c12b e1bd 2ad7 88be 111c 953e
000001e0: 7948 cfbc 2fdc 403e 4fb6 513d 39d4 4a3e
000001f0: b772 7fbc 7472 7fbe be82 503d 4aa5 8b3e
00000200: 3fc7 be3d 4b49 233e f610 0c3e cf79 28be
00000210: f2ef abbd 82cb 463d a307 68be 2ef8 54be
00000220: 55be fa3c 6b03 973d adc6 783b 7377 5fbe
00000230: c082 a8bd b3c9 febd aab1 59be 5217 29be
00000240: d706 6f3d 4615 ab3e f7e0 b83d 5ebd 743e
00000250: 1489 9bbe 7a91 5b3d a059 cd3d dff9 003d
00000260: db27 e7be 38f9 1d3e 8c33 4e3e 43e6 5dbe
00000270: 46b9 d23e feb9 bebe 5295 ccbd a099 d3bd
00000280: 58a5 d7bc ad9f 483d 9a73 56be f7a1 94bc
00000290: 29f1 5ebe 6e9c 0dbe 47b9 1fbe 01bd 983d
000002a0: 25d6 a03e 2231 4e3e 052a 9d3e f353 ae3c
000002b0: 9412 e13d f2d5 7dbe 0d9f 26be f3cf ccbd
000002c0: 6e52 b4bd 1f62 3a3e f132 573d f5c4 e3bd
000002d0: 0059 a53e 6d56 25be 135a 193e a0d5 0abe
000002e0: a24a 58be 2a9a 62bd 28e1 ba3e bb13 eb3d
000002f0: 59bf 1e3e a3fd 95be 1244 633e 85b6 c63d
00000300: dc1e 77be 4345 383e 5f1d 6b3e 4b8b 78be
00000310: fbcb 62bd dff5 493d 7280 9a3e 9d4c 353e
00000320: d48c debe 879e 94bd f412 db3b c015 113d
00000330: 5270 e53d a265 2cbe 5679 b0bc e49b 043d
00000340: 3e1e 19bd 8c16 473d 87ba e13d a04a d53c
00000350: f25b 4b3d 1ae6 51be 96ec 863d 9d4a 95be
00000360: e069 3bbd aafb 41be 30de 63be 0da3 2d3e
00000370: d4e2 863d 3d68 4e3e e8e8 81bd 6000 0d3e
00000380: 79e9 a5be bd4b 883d c7c6 d0bd 5326 003d
00000390: 9dba 91be 149b 2abe af88 87be 2ab4 763e
000003a0: 89ce f43d 6dc5 0c3d 325c 07be 54bf 3e3e
000003b0: 3f95 bbbe 2b4c 5abe 3734 36bd cc7c 963d
000003c0: 68b3 823e 8ad1 1d3d 2898 45be cb50 973d
000003d0: 73a0 9ebd 5416 1b3e a00e f9ba 83d7 683d
000003e0: c3a3 833e 9973 6d3d c6f4 763d a3b2 973e
000003f0: 7af9 4ebe 2e55 d03c fc8f 9a3e c628 77be

critic.0.bias f4 [32]
0.04167748 -0.03902213 0.037506662 -0.0021348342 0.05112193 -0.029143624 0.012217152 0.05389042
0.039525058 0.03538795 0.06404149 -0.024366256 -0.02866008 -0.0012183299 0.04613524 -0.04682218
-0.017916854 -0.007539698 0.01969049 0.025832819 0.08091607 0.05876441 0.0 -0.023963543
0.015614932 -0.009965271 0.023378434 -0.0048673498 0.036785606 0.02271437 0.013814603 0.027935661
00000000: 01b6 2a3d abd5 1fbd 96a0 193d 93e8 0bbb
00000010: 3b65 513d 9cbe eebc 732a 483c 33bc 5c3d
00000020: 07e5 213d f4f2 103d 2f28 833d be9b c7bc
00000030: 8bc8 eabc 5eb0 9fba 4ef8 3c3d 9dc8 3fbd
00000040: 5ec6 92bc 920f f7bb f34d a13c 599f d33c
00000050: 53b7 a53d f3b2 703d 0000 0000 314f c4bc
00000060: c6d5 7f3c 6045 23bc 2184 bf3c 4a7e 9fbb
00000070: 81ac 163d 7d13 ba3c a556 623c 54d9 e43c

critic.2.weight f4 [1, 32]
0.28483796 0.46936795 -0.26199594 -0.30244508 -0.18374255 0.30724004 -0.090905964 -0.10169709
0.27194798 0.24772784 0.38596612 0.32789543 -0.29619646 0.24958624 -0.14036745 0.25470805
-0.4200982 -0.19077872 -0.09412517 0.33274093 0.21790378 0.11687112 0.34814784 -0.22479759
-0.5206372 -0.19886526 0.42586103 -0.10242341 0.16486512 -0.7494685 -0.53883535 0.34830242
00000000: 48d6 913e ff50 f03e 5524 86be 15da 9abe
00000010: 0227 3cbe 914e 9d3e e82c babd 9046 d0bd
00000020: c43c 8b3e 5eac 7d3e 5a9d c53e e9e1 a73e
00000030: 10a7 97be 8993 7f3e 7cbc 0fbe 1869 823e
00000040: 1c17 d7be 7f5b 43be b2c4 c0bd 055d aa3e
00000050: 2b22 5f3e 205a ef3d 6f40 b23e 5731 66be
00000060: 7b48 05bf 56a3 4bbe 750a da3e 5dc3 d1bd
00000070: 67d2 283e 2bdd 3fbf 1df1 09bf b254 b23e
