logs/20250602_160047/checkpoint_episode_700.pt (torch, 468637 bytes, 39 tensors)

shared_net.0.weight f4 [128, 30]
000000 37 29 9a bd ce 84 a2 3c 43 21 e1 bc 33 11 53 3d
       -0.07527392 0.019838717 -0.02748168 0.051530074
000010 15 b5 aa 3a 2e 1c 2c be 9b 41 86 be a3 35 4e be
       0.0013023937 -0.16807625 -0.26221928 -0.20137648
000020 20 a5 d8 be f3 77 3e be d8 69 00 be 00 a3 ed bd
       -0.4231348 -0.18600444 -0.12540376 -0.116033554
000030 c8 85 c4 bd b2 bc 2b be 49 27 37 be c7 0e 95 be
       -0.09595829 -0.167712 -0.1788608 -0.29112837
000040 ce d5 1d be dc 8b b5 bd 57 bf a0 3b 55 6d 31 be
       -0.15413591 -0.08864567 0.004905622 -0.17326863
000050 5b 70 98 3d 6b f5 0f be 93 de 49 3e 27 d5 02 be
       0.07443305 -0.14058463 0.19713812 -0.12776624
000060 ca 03 ff 3d 3d a9 77 3d 55 0c 91 3d 9c 19 53 bc
       0.124518946 0.060464133 0.0708243 -0.012884524
000070 5e 07 13 bd 7d 5a 19 bd 7c e4 6e 3d 13 84 b9 bd
       -0.035895698 -0.037439812 0.05832337 -0.09058394
000080 93 23 79 3e 5b f8 a1 bd 39 ad 9b bd 0a 2b 76 3e
       0.24329977 -0.07908698 -0.07601399 0.24039856
000090 14 d4 2b 3e 1e be 5f 3e 06 39 04 3e 27 da bd 3e
       0.1678012 0.21849868 0.12912378 0.370805
0000a0 8d b5 6c 3e d9 5f 33 3e a6 fa ac 3d 2b 0a 48 3e
       0.23116131 0.17517032 0.08446245 0.19535129
0000b0 2d 5c 71 3e 14 fc 3d 3e f5 0d ac 3d 95 97 8e 3e
       0.23570319 0.18553191 0.084010996 0.27850023
0000c0 51 fd 89 3e bf 23 62 3e df 28 83 3e cc 87 e2 3d
       0.26951078 0.22083949 0.2561712 0.110610574
0000d0 18 6d 71 3e 96 a4 a0 3e 5f 11 c6 3b be 65 80 3e
       0.23576772 0.3137557 0.0060445513 0.25077623
0000e0 94 99 98 3d e1 79 c0 3e 8d b4 4d 3e 4f 42 6d 3e
       0.07451168 0.37592986 0.20088406 0.23169826
0000f0 92 4b cb bd ad 6e 68 bd 36 ca bd 3d 42 27 c0 3d
       -0.09926523 -0.056746174 0.09267084 0.09382488
000100 d9 aa 38 3d af 5c ae bd 8f be 2f bf b6 d8 96 bf
       0.045084808 -0.08513772 -0.68650144 -1.1784885
000110 31 59 95 bf 8d 5c 9f bf 28 70 bd be bc 46 fb bd
       -1.1667844 -1.2450119 -0.3699963 -0.12269351
000120 c8 29 0c be 95 32 38 bf 58 c9 3f bf 2c 58 4a be
       -0.13687813 -0.7195218 -0.749166 -0.19760197
000130 4e 1e 90 3d 76 c0 1b 3d e1 61 28 3e ee b9 9c bd
       0.0703703 0.038025342 0.16443588 -0.07652651
000140 16 fe f3 bc 01 2e 17 3e 3d ff c2 bc 2f 6a e4 3d
       -0.029784244 0.14763643 -0.023803348 0.111530654
000150 90 42 28 3d 0d b6 ef 3d ca b8 84 bc 3f 1e 8c 3e
       0.041079104 0.11704645 -0.016201396 0.27366826
000160 fe 00 3c 3e 55 34 61 3c d1 c1 d8 3d 11 07 20 be
       0.18359753 0.013745387 0.105838425 -0.15627696
000170 ff 4e 27 3e a1 8e b0 3d a4 68 88 bd db fd 68 3e
       0.16338728 0.08620954 -0.066605836 0.22753088
000180 f4 a9 ab bd c9 b5 93 be 2a a9 ae be 72 cf 8d be
       -0.08382025 -0.2884963 -0.34113437 -0.2769733
000190 0f 34 09 3e 20 3d 67 bd 2e 9b 30 be 67 87 13 bf
       0.13398765 -0.056454778 -0.17246696 -0.5762848
0001a0 ef 06 a2 be e4 56 11 3e 2c 86 fa bd f4 3a 4c be
       -0.31645915 0.14193302 -0.122326225 -0.19944364
0001b0 68 3f ae be 16 58 10 be d1 32 88 3d 06 ff 9d 3d
       -0.3403275 -0.14096102 0.066503175 0.077146575
0001c0 53 46 54 3c 1a 2a ab 3c b4 80 ca 3d 5e ce b7 3d
       0.01295622 0.020894099 0.098878294 0.08974908
0001d0 07 fa f7 3c 35 5c d7 3d 09 a4 be 3d 2d aa c8 bd
       0.03027059 0.10515634 0.09308631 -0.097980835
0001e0 6e bb 06 bd e5 09 2c 3d 10 39 04 be c3 cc c0 3d
       -0.03289359 0.042001624 -0.12912393 0.09414055
0001f0 88 c0 1c 3c fe d2 78 3e e4 47 59 3d ad 11 00 3e
       0.009567387 0.24299237 0.053047076 0.12506743
000200 e8 66 3c 3c c4 e3 18 be a2 34 a8 3c a1 c3 a1 bd
       0.011499144 -0.14930636 0.02053291 -0.078986414
000210 ac 65 7f 3d 94 c3 45 3e e1 28 2d 3e a2 65 01 bd
       0.06235282 0.19312888 0.16910125 -0.031591065
000220 88 13 9b 3d 2c 63 22 be 0c 47 6d 3c 8b 8f 8a 3d
       0.07572085 -0.15858144 0.014482271 0.0676566
000230 d9 d7 ff bc d9 c3 55 3e 48 2a f8 3d 5e a2 8a bd
       -0.031230854 0.20875491 0.121174395 -0.0676925
000240 fa b5 81 3d 59 6b f6 bb ad ca 99 bc 74 46 bc bd
       0.063335374 -0.007520121 -0.018773401 -0.09193125
000250 4a 00 9c 3c 4e e3 34 be a7 bc e8 bd 30 6a 28 be
       0.019043107 -0.17664835 -0.113641076 -0.16446757
000260 1a f1 a8 bd e9 bc 0d be 15 bd 0b 3e 53 c4 c5 3d
       -0.082491115 -0.13841595 0.13646348 0.096565865
000270 e0 01 00 bd 39 c8 4d bd 29 e5 2a bd ea 3c d9 bb
       -0.03125179 -0.050239775 -0.04172245 -0.006629576
000280 23 38 63 bd bd 84 a1 3d c3 92 2d 3d 4a 90 a5 3b
       -0.055473458 0.07886646 0.04237629 0.005052601
000290 33 d5 e0 3d 0b e7 34 3e cc fa 36 bd fb ee 4e 3d
       0.109781645 0.17666261 -0.044672772 0.05052088
0002a0 1e 2a ce bd c4 08 31 3d 23 0a 43 3b 84 fa 51 bd
       -0.10066627 0.04322125 0.002976068 -0.0512643
0002b0 f1 57 a0 bd a3 83 2f 3e 71 02 76 3e 54 5e 8e bd
       -0.078292735 0.17140059 0.24024369 -0.069515854
0002c0 dc 6d 9f be 80 0f ea bc bc 79 6a be 3e cd 0d be
       -0.31138504 -0.028571844 -0.22898 -0.13847825
0002d0 4d e1 e1 3c 68 33 53 bd 24 40 16 bc ae a3 0a be
       0.027573252 -0.051562697 -0.009170566 -0.13539001
0002e0 09 11 0c be 58 c8 3d 3d b9 d6 98 3e 4d 16 dc 3d
       -0.13678373 0.04633364 0.2985132 0.10746441
0002f0 77 45 46 3e a4 a9 9e bd c5 0d 96 3d 85 58 ab bd
       0.19362436 -0.077472 0.07326845 -0.08366493
000300 33 d7 1d bc 15 44 a1 bc fc d3 0d be 8d 2a 29 be
       -0.009633827 -0.019685784 -0.13850397 -0.16520138
000310 4d 05 20 be b7 f3 11 be 53 d3 b7 bd ef 5b bc bc
       -0.15627022 -0.14253126 -0.08975854 -0.022993056
000320 e9 05 b1 bd e4 12 a9 3e bf 3e 37 3d 57 72 17 3a
       -0.086437054 0.33022225 0.044737574 0.0005777231
000330 62 69 7b bd 6c 11 db bd 90 22 0a 3d b3 d6 a7 3d
       -0.061379798 -0.10696682 0.033724368 0.081952475
000340 3b b1 15 3e 3b e4 77 bc 75 e0 92 3d 79 d7 ba 3c
       0.1461839 -0.015130098 0.07171718 0.022807823
000350 33 31 8a 3e 4f e1 bf 3d 82 aa be 3d 50 ae 27 bd
       0.2699066 0.09369146 0.093098655 -0.04093772
000360 de 9b 13 3e 8e 91 0b be 8f eb 98 bb ea d4 25 bd
       0.14414927 -0.13629743 -0.0046667526 -0.040486254
000370 97 a0 62 be 64 be 8a bd 2a 44 b7 3d 13 46 64 be
       -0.22131573 -0.067745954 0.08948548 -0.22292356
000380 00 66 8d bd d4 47 d5 bd 97 78 4d 3e f8 03 a3 bb
       -0.069042206 -0.10414091 0.20065533 -0.0049748383
000390 e7 ba a6 3d 18 bd d6 3d 97 b2 88 3d 33 60 db bd
       0.081411175 0.104852855 0.06674688 -0.10711708
0003a0 88 f0 e2 bd b0 bd 05 3d 7d 8e 23 bd 93 72 39 bd
       -0.11081034 0.032651603 -0.03993081 -0.045275282
0003b0 51 2f 62 3d 75 26 47 3e c1 62 46 be 51 25 c6 3c
       0.055220906 0.19448264 -0.19373609 0.024187716
0003c0 42 1f a1 3d 0d cf 0a 3e 58 78 1e be 06 03 37 bb
       0.0786729 0.13555546 -0.15475595 -0.0027925386
0003d0 70 7b 71 bd a4 64 d4 3b de d1 c4 bb bc ab 33 be
       -0.05895561 0.006481724 -0.0060064634 -0.1754598
0003e0 31 69 8e bd ff d1 64 bd 05 32 a2 bc 5c d0 0e be
       -0.069536574 -0.05586433 -0.019799242 -0.1394667
0003f0 ec 3a 8b bd 01 d3 1d be a1 5e fe 3d 85 14 15 be
       -0.06798348 -0.15412523 0.12420393 -0.14558609

shared_net.0.bias f4 [128]
000000 8c d6 d5 3d 89 47 31 3d 10 fc be bd 24 de 77 bc
       0.10441312 0.043281112 -0.09325421 -0.015128646
000010 8e 39 f9 3d 00 00 00 00 84 cb 99 bb 9e 4f 84 bd
       0.12169181 0.0 -0.0046934504 -0.06460498
000020 d4 54 1b 3e b3 f6 02 bc 85 61 0c 3e 38 8d ac 3c
       0.15169078 -0.007993388 0.13709076 0.021063432
000030 73 96 08 3e 13 cd 05 3d a8 80 9a 3d 5b 76 d7 bd
       0.13338642 0.032666277 0.075440705 -0.105206214
000040 00 00 00 00 83 41 c7 3d ff 39 a9 bd e3 41 a1 bc
       0.0 0.09729292 -0.08263015 -0.019684738
000050 64 9d 07 3e 4c 05 8a 3d 78 47 d8 3d 08 b5 81 bd
       0.13243634 0.067392915 0.105605066 -0.06333357
000060 58 39 25 3d 29 69 82 bc 3b e3 c6 3d 38 c8 f6 3d
       0.04033789 -0.015919285 0.097113095 0.120499074
000070 40 14 c2 bd a5 99 98 bb f5 2a e6 bd d1 63 90 3d
       -0.09476519 -0.0046569877 -0.11238662 0.070502885
000080 52 18 ef bd d9 13 85 b9 fb 20 d9 bc 19 5b 35 3e
       -0.116745606 -0.00025382524 -0.026504984 0.17710532
000090 21 97 63 bd f7 61 ad 3d f1 aa f9 bb 7f 49 a4 3d
       -0.05556405 0.08465951 -0.0076192548 0.08021831
0000a0 00 00 00 00 19 dd 04 3e ac 9f 31 3e f9 fc 5e bd
       0.0 0.12974967 0.17346066 -0.054440472
0000b0 7c 17 ab 3c 00 00 00 00 83 f3 a4 bc eb 62 a1 3d
       0.020885222 0.0 -0.020135647 0.07880195
0000c0 d5 68 da bd 6c b4 4e bd fd 29 81 3d 86 c5 4c bd
       -0.106645264 -0.050465032 0.06306837 -0.04999306
0000d0 07 af 13 3d 66 d2 98 3d 80 89 18 3e 35 b4 8b bc
       0.03605559 0.07462005 0.14896202 -0.017053703
0000e0 0d 29 95 bc 90 9d 1c 3e 71 b5 ea 3d 3b e7 06 3e
       -0.018208051 0.1529448 0.114603885 0.13174145
0000f0 90 42 a7 3c d0 e0 05 3e 00 00 00 00 b7 b0 31 bd
       0.020417482 0.1307404 0.0 -0.04338142
000100 c7 1f 89 3d 78 27 9d 3d 77 1c 13 3d bd 2c 8d 3d
       0.06695514 0.07673544 0.035915818 0.06893299
000110 ff 15 f6 3d 62 96 49 bd 84 95 5d bd 23 1a 1c bd
       0.12015914 -0.04921568 -0.054097667 -0.038110863
000120 bf 80 13 3e 00 00 00 00 70 22 ee 3d 4c 48 9f 3d
       0.14404581 0.0 0.11627662 0.077774614
000130 cd ca 54 3d 48 1f f6 3d 4b 17 09 3e d4 f8 9b bd
       0.05195122 0.12017685 0.13387792 -0.076158196
000140 ff 1a be 3d c8 5e 24 3b 12 e3 00 3e 09 b4 ce 3d
       0.09282493 0.0025080908 0.1258662 0.10092933
000150 23 7a 59 3d b6 67 78 3d 2f 16 aa bd 98 5e 9b 3d
       0.053094994 0.06064578 -0.083050124 0.07586402
000160 a0 7d db bb f2 4d 91 3c 74 b9 6b 3b 05 16 da bd
       -0.0066983253 0.017737363 0.0035968693 -0.10648731
000170 0a 69 0f 3e 84 2f db 3d e9 5e a0 bc 5b 72 7a 3d
       0.14004913 0.10702422 -0.019576507 0.061144214
000180 55 a9 5d 3d 2f bf 97 3d 00 00 00 00 8d 84 97 3d
       0.054116566 0.07409512 0.0 0.07398329
000190 10 bb 0a 3d 46 19 14 3d 93 5c ba 3c 22 69 8f 3d
       0.033869803 0.036156915 0.022749221 0.07002474
0001a0 e6 c2 19 3e 65 3a 00 3d 2c 21 c2 bd 38 c2 1d 3e
       0.15015754 0.03130569 -0.09478983 0.1540612
0001b0 81 91 a0 3d 00 00 00 00 b9 b9 8e bd 2b f3 10 3d
       0.07840253 0.0 -0.069690175 0.035388153
0001c0 09 9c 79 bd 00 00 00 00 cc db c1 bb ce 08 f5 3d
       -0.060939822 0.0 -0.0059160944 0.1196457
0001d0 d0 65 1b 3e 00 00 00 00 78 73 34 bb d7 de 15 bd
       0.15175557 0.0 -0.0027534645 -0.03658947
0001e0 f4 79 07 3e a5 28 f4 bc 34 69 f7 3b ce 05 8d bd
       0.13230115 -0.029804537 0.007550383 -0.06885873
0001f0 66 fe ce 3d a6 31 96 3d 8a 0c ce bd d6 a3 6b 3d
       0.101071164 0.073336884 -0.100609854 0.057529293

shared_net.2.weight f4 [128, 128]
000000 40 c2 5c 3d b0 bd 8d 3d 40 6d ac bc 10 6c 18 be
       0.05389619 0.06920946 -0.021048188 -0.14884973
000010 5b 3b ac 3e 0e 73 3e 3d 91 69 31 3e b7 ee 66 be
       0.33639035 0.046496443 0.17325427 -0.22552
000020 79 af 82 3e 1e 6d 13 3e 48 62 a1 3c 00 f8 bb bd
       0.255245 0.14397094 0.019700184 -0.091781616
000030 03 2e 08 bb ff b2 64 be 9a 0f 29 3d ec 24 7a bd
       -0.0020779378 -0.22333907 0.041274644 -0.061070368
000040 18 cc 10 bd 75 de 1c 3d 54 f5 b3 3d 00 33 39 bd
       -0.03535089 0.03829809 0.08787027 -0.045214653
000050 b9 93 09 be 9c cc 59 be 7a 98 26 be cf f0 92 be
       -0.13435258 -0.21269459 -0.16269103 -0.28699347
000060 df 45 00 3d 99 af 0b bd ef f7 0c bf 7c b0 84 3e
       0.031316634 -0.03410301 -0.55065817 0.25915897
000070 55 6b 1a be 46 8c 9f 3d 04 07 ed be de 5d df bb
       -0.15080006 0.07790427 -0.46294415 -0.0068166098
000080 24 71 6c 3e 91 37 1c 3e ab 34 a4 3d 6b ac 30 3e
       0.23090035 0.15255572 0.08017858 0.17253272
000090 c7 aa 7d bd af 9b b5 3d 7d 61 6d bc a4 c0 81 bd
       -0.061930444 0.08867585 -0.014488575 -0.063355714
0000a0 a9 22 20 bd f3 06 07 be 4a d9 40 be 97 94 13 be
       -0.039095555 -0.13186245 -0.18832889 -0.14412151
0000b0 5e 16 e0 bd 12 c5 42 3e 9f bc e5 bd fe cd eb 3d
       -0.10941766 0.19020489 -0.11217617 0.11513899
0000c0 29 10 4e bd 13 53 26 3c ea c6 df 3c 7a 34 b1 bd
       -0.05030838 0.010151642 0.02731653 -0.08652587
0000d0 d3 a5 8e be de 02 82 bd fc de bb bd f7 fa 52 be
       -0.2786089 -0.06348203 -0.0917339 -0.20603548
0000e0 8b 42 a2 be 0e de 66 3b dd f6 7a 3c 0f 8a da bd
       -0.31691393 0.003522757 0.015317646 -0.10670864
0000f0 1d 93 d7 bd ff f1 aa 3d dc bc e9 bd 81 64 88 be
       -0.105261065 0.08346938 -0.11412975 -0.26639178
000100 70 4f 9c be b6 4a 4a bd ed c7 e8 3d 3c 8f 27 be
       -0.30529356 -0.049387656 0.11366258 -0.16363233
000110 3d 30 5c 3e 39 dd 75 bd 9e c6 e6 ba c5 3b eb be
       0.21502776 -0.060025427 -0.00176068 -0.45944038
000120 e3 e9 81 3c fb 91 39 3d bf 52 83 3d df c1 75 bd
       0.015858596 0.045305233 0.06412267 -0.059999343
000130 1d f1 04 3e 15 3e c0 3b 6d 10 ad bd b4 17 00 3e
       0.12982602 0.0058667758 -0.084503986 0.12509042
000140 2a 5b 82 be d0 76 4b be 50 22 86 3d 9e 8f c7 3d
       -0.25460178 -0.19869542 0.06549513 0.0974419
000150 db c5 1c be cc 6c cd be 4a 2e 15 be db 67 84 bd
       -0.15309851 -0.40122068 -0.14568439 -0.06465121
000160 03 19 84 3d 12 25 9a bd 15 af 39 be c3 ae 4d be
       0.06450083 -0.07526602 -0.18133195 -0.20086198
000170 4f fb 47 3e e7 0e c5 bd ba 86 cb 3d 2d 01 b6 be
       0.1952946 -0.09621983 0.099378064 -0.35547772
000180 30 64 4d 3d 82 55 fe 3d dc 69 d4 bd d4 89 1c be
       0.050144374 0.12418653 -0.103717536 -0.15286952
000190 32 2d 28 be 9c 97 8d 3e 6f 27 73 be f0 d9 12 3e
       -0.1642349 0.2765473 -0.23745511 0.14340949
0001a0 33 1d 49 3c 46 05 a7 3e 09 26 73 3d ec 64 f5 3d
       0.012275028 0.3262121 0.059362445 0.1198214
0001b0 b3 13 82 be 79 11 88 3c 5e 33 64 bd 35 12 ae be
       -0.25405654 0.016609894 -0.05571305 -0.33998266
0001c0 08 2a b8 bd e2 05 35 be 00 dc 97 bd aa 5b 7d bc
       -0.08992392 -0.17678025 -0.074150085 -0.015463749
0001d0 cf 4b 34 3d 82 82 d5 bb 5b 12 01 bd 48 85 71 bd
       0.04401761 -0.006515802 -0.031511646 -0.058964998
0001e0 5d d0 74 bd 88 36 50 bd 89 06 26 be 7b 91 06 3d
       -0.059769023 -0.050833255 -0.1621343 0.032853585
0001f0 aa 13 27 3e da dd 0d be 78 1b 9f be 1f 84 45 3d
       0.16316095 -0.13854161 -0.31075644 0.048221704
000200 cf 73 f7 bd 16 07 8d be e7 91 b0 3e 11 7b 4d bd
       -0.120826356 -0.2754447 0.34486315 -0.050166193
000210 0c 11 a8 bd f2 5d 37 be e5 4d 7f 3d 66 07 0e 3e
       -0.082063764 -0.17906931 0.062330145 0.1387001
000220 46 55 60 be bb 73 8a 3b 51 f7 c8 bc c9 e8 ee bd
       -0.21907529 0.004225222 -0.024531992 -0.11665494
000230 87 17 73 3e 8b b1 8c bd a4 36 53 3d 06 61 48 3e
       0.23739444 -0.06869801 0.05156578 0.19568262
000240 c9 dc a8 3b 8f 23 a3 bd 04 43 aa 3e 00 57 ce bc
       0.0051532728 -0.07965767 0.33254254 -0.02518797
000250 d6 f4 e4 bd dd 3b c3 3e 0f 90 ca 3e 8b 4c a4 3d
       -0.11179511 0.3813161 0.39563033 0.08022412
000260 c0 8a 20 3c 20 0d 44 bd cb 57 cb bd ca ac 30 3d
       0.009798706 -0.04786408 -0.099288546 0.043133534
000270 7f 58 b2 3c 42 f6 42 3d ce ae af 3d d5 66 3b be
       0.021770714 0.04759813 0.08578263 -0.18300946
000280 ee 68 1d 3e 1e 02 10 bd 4d 72 91 3d ed 47 3b be
       0.15372059 -0.03515827 0.07101879 -0.18289156
000290 d9 76 bb 3e 9a ce 47 be 90 69 60 3c 38 8f 46 3d
       0.3661411 -0.19512406 0.013697043 0.048476428
0002a0 f5 2c a4 3d cc 7a 25 3e ad 55 87 bd 96 4d e2 bb
       0.080163874 0.16160125 -0.06608138 -0.0069062216
0002b0 85 5d 88 bd 01 ba af 3d a2 1b 51 3d 45 5a cd 3d
       -0.066584624 0.08580399 0.051051743 0.10026983
0002c0 41 62 2b 3d 15 43 49 3d 7c 40 57 3d de c6 01 3e
       0.04184175 0.04913624 0.05255173 0.12673518
0002d0 a0 db 98 3d ad 53 45 bd 86 a0 93 3d 29 23 c6 bd
       0.07463765 -0.048175503 0.07208352 -0.09674675
0002e0 28 1a 6b bd fb f7 2a be 3a 4e 2b bc b9 70 c6 bd
       -0.05739799 -0.1669616 -0.010455662 -0.09689469
0002f0 df e7 e3 be 3b 0e aa be 7d 20 13 3e 43 47 26 3e
       -0.4451284 -0.33213982 0.14367862 0.16238122
000300 74 8a ef 3d d7 63 e0 bd 49 e3 31 3e cb 3b 60 3d
       0.1169633 -0.10956543 0.17371859 0.054744523
000310 7e 68 21 be de 00 c8 3d 02 33 da 3d 8c 2c 4c 3e
       -0.15762517 0.097657904 0.1065426 0.19938868
000320 0c 45 34 be 35 9a 78 3d 79 74 82 be fd 64 ea bc
       -0.17604464 0.06069394 -0.25479487 -0.028612608
000330 d6 9a 24 3e 58 e7 b2 bd 15 b0 82 bd 5f aa 8c 3e
       0.1607469 -0.087355316 -0.06381241 0.27473733
000340 64 ad 3b bb 40 9d 74 3d f3 87 6f be 2f 6e 4f 3d
       -0.0028637284 0.059720278 -0.23391704 0.05064219
000350 0b 89 9c 3e 02 eb bb 3d 40 38 ce bd 10 28 c4 bd
       0.30573305 0.091756836 -0.100693226 -0.09577954
000360 1d 22 f2 bd b9 a1 99 3e 06 64 1f 3e f9 3c e1 3e
       -0.11822913 0.30006197 0.155655 0.4399183
000370 e6 61 8e 3d 1c df 41 3d 5f 24 a5 3d b3 24 20 be
       0.069522664 0.047331914 0.08063578 -0.15639
000380 04 5c 5b bd e6 54 e4 bd 0c 9e 1b bd 09 61 b1 3c
       -0.05355455 -0.111490056 -0.037992522 0.021652715
000390 49 eb 11 3e 97 9d 8d 3d 4a 3d 08 3e cc de 4b 3e
       0.1424991 0.069148235 0.1330463 0.19909209
0003a0 39 45 89 bd 7b bb e9 bc 20 45 98 3e 48 ac 9e be
       -0.06702656 -0.02853178 0.29740238 -0.30990815
0003b0 6c e6 ae 3c 4e c8 1e be 8c 05 2e 3e ae 90 02 3d
       0.021350108 -0.15506098 0.16994303 0.03187626
0003c0 73 10 62 3d 59 69 4e 3e 4c 98 99 3c 4e f4 e9 bd
       0.05519147 0.20157374 0.018749379 -0.114235505
0003d0 85 09 86 be c6 5e 6d bd a0 5c 26 be 3b 6f 6f 3d
       -0.26179138 -0.05795171 -0.16246271 0.058455687
0003e0 5b 2b 3f bd 99 58 34 be 16 75 cd bc 63 48 66 3d
       -0.046672206 -0.17611922 -0.025080245 0.056221377
0003f0 05 2d 1d be 9a c5 1f be f6 fa 85 bd fd d9 02 bc
       -0.15349205 -0.15602723 -0.065420076 -0.007986543

shared_net.2.bias f4 [128]
000000 fc 5a f3 3c 22 be c5 bd ab f2 eb bc 27 c7 ea 3d
       0.02970647 -0.096554056 -0.028802237 0.114637665
000010 97 4b 80 3d dd 86 c4 bd 95 03 a2 3d 80 ed 83 bd
       0.062644176 -0.09596036 0.079108395 -0.06441784
000020 07 16 0b bd e3 92 59 3d af 4a 89 bd 10 8e 8d bc
       -0.033956554 0.053118598 -0.06703698 -0.017279655
000030 66 6c bb 3c 39 3f 45 3d 8a c0 c8 3d 16 d7 10 3d
       0.022878837 0.048155997 0.09802349 0.035361372
000040 84 cb 38 3d 73 2e 39 3c 5a 90 b9 3d 30 a8 59 3d
       0.045115963 0.011302578 0.09060736 0.05313891
000050 71 fb c4 bd 4e 25 fa 3d 6f fe d6 bb f9 a3 86 3d
       -0.09618271 0.122141466 -0.0065610926 0.06574244
000060 e0 54 69 bc c9 1a 4c bc d0 dc 6b bd 6f 71 c8 3d
       -0.014241427 -0.012457558 -0.05758363 0.09787261
000070 7f a5 9b bd 36 cf a5 bc 3f 33 39 3b b7 aa 35 bd
       -0.07599925 -0.020240407 0.0028259305 -0.04435226
000080 ac 93 fd bd 03 ac 4e bb 37 0e e6 3d 23 d6 67 bd
       -0.12381682 -0.0031535632 0.1123318 -0.0566007
000090 27 38 d8 bc 98 f4 b4 bc bf 92 d9 bb 1b 89 b7 bc
       -0.026393963 -0.022089288 -0.006639808 -0.022404244
0000a0 c0 a3 a6 3d 00 00 00 00 95 c2 92 bd 85 bd ea 3d
       0.081367016 0.0 -0.0716602 0.11461929
0000b0 2f 87 34 bc 26 fa c6 bd 2a 65 cf bc 8e 73 f7 bc
       -0.011018558 -0.09715681 -0.025316793 -0.030206468
0000c0 ab 76 00 3e bd f2 dc ba 9f f0 63 bc 34 f5 cb 3d
       0.12545268 -0.001685701 -0.013912349 0.09958878
0000d0 8a 4c 40 bc b5 43 19 bc 0f cf a0 3d bc 37 9d 3d
       -0.011736998 -0.0093545215 0.07851993 0.07676646
0000e0 fe 0b cf 3d d1 d4 da bd 00 00 00 00 df 8f 8c bb
       0.10109709 -0.10685123 0.0 -0.0042896117
0000f0 9c 35 a4 bd c5 e7 91 3d 24 30 02 3d 30 fe b6 3d
       -0.08018038 0.07124285 0.03178419 0.08935201
000100 d2 45 d9 3d 84 bd be 3c 6f 56 43 bd db ee 9d 3c
       0.1060902 0.023283727 -0.04768985 0.019278934
000110 a6 61 eb 3c 58 64 52 bc a5 bb 0a 3e 63 98 4b bc
       0.028733086 -0.012841307 0.13548143 -0.012426469
000120 22 a7 b0 bd 1b e2 82 bd 9e 5b f5 bc df ec 85 3d
       -0.08625628 -0.063907824 -0.029950913 0.0653932
000130 1f 2d 10 3d 00 00 00 00 00 00 00 00 e4 a5 8c bd
       0.03519928 0.0 0.0 -0.068675786
000140 00 00 00 00 4e f6 a2 3d f0 21 1a 3e 14 68 5a 3d
       0.0 0.07957135 0.15052009 0.053321913
000150 15 ea 7e 3c 9c b0 84 3c d6 58 45 3d 57 e8 0b bd
       0.015558739 0.016197495 0.048180424 -0.034157123
000160 8e 04 85 3d 51 d0 2e 3c 66 0d 3d bd b7 db 53 3d
       0.06495009 0.010669784 -0.046155356 0.05172321
000170 89 9a 86 bd a6 e2 ca 3c 62 0e 36 3d 7f 2f 91 3d
       -0.06572444 0.024766278 0.04444731 0.07089137
000180 16 47 c6 3d 8f c4 5d 3d a4 3a 50 bd e5 82 41 3d
       0.09681527 0.05414253 -0.050837174 0.04724397
000190 14 38 ba bb dd 72 61 bb 00 00 00 00 3e 12 a6 3d
       -0.0056829546 -0.003440074 0.0 0.08108948
0001a0 fa 43 c5 3d b8 0b e5 bd 4e 79 95 3d 9a 0d ba 3d
       0.09632106 -0.11183876 0.07298528 0.090846255
0001b0 98 d0 ef 3c 88 f0 80 3d 91 8e 49 3c 0f 66 02 3e
       0.02927427 0.06295878 0.012302057 0.12734245
0001c0 20 9b 0c 3e 2c d8 d7 3c 76 0d ab 3d 15 b5 a4 3d
       0.1373105 0.026348196 0.08352177 0.08042351
0001d0 ed ef 81 3d 6d 17 63 3d 92 5c e5 bb 9b 9c 94 3d
       0.0634459 0.055442262 -0.0069995606 0.072564326
0001e0 0b b7 9f 3d 55 8b e5 3d 4c fd 8e bc fd 7b 97 bc
       0.077985846 0.11208216 -0.017454766 -0.01849174
0001f0 53 ad f2 b9 b9 4b 63 bd 54 31 6a 3d b6 38 85 3d
       -0.00046286974 -0.055492137 0.05717595 0.065049574

shared_net.4.weight f4 [64, 128]
000000 5f 4b b6 3d 33 6d da 3d e6 b6 81 3d ef b2 8e 3d
       0.08901095 0.10665359 0.06333713 0.069677226
000010 55 77 d7 3d 57 a0 61 be e2 1d a8 bd bc 77 2b 3e
       0.10520808 -0.22033821 -0.08208825 0.16744894
000020 4e 80 2a be bd 5a 01 3d fa 93 0a 3e 4f fd 1d bb
       -0.16650507 0.031580675 0.13533011 -0.0024107283
000030 40 e7 61 3e 6f db 35 3e cd 87 d4 3d ab 93 02 be
       0.22060871 0.17759489 0.103774644 -0.12751643
000040 21 0a 81 3e 9f 83 62 3e 94 1c b0 bd 98 61 81 3e
       0.2520304 0.22120522 -0.08599201 0.2526977
000050 0a d8 99 3e ee 2f 52 bc c3 a5 00 bc 38 2a 69 be
       0.30047637 -0.01282881 -0.007852021 -0.22770011
000060 2b 15 7e 3d b0 1e f2 3d c8 69 92 3e e3 b1 ec bb
       0.062031906 0.118222594 0.2859633 -0.007223354
000070 ff 36 80 3e 49 eb 00 bc b2 57 96 3d b2 c3 92 3d
       0.2504196 -0.007868596 0.07340945 0.07166232
000080 cb 24 c8 bd d9 d0 c1 bd 08 87 ec bd 08 cc 81 be
       -0.09772643 -0.09463663 -0.11549193 -0.25350976
000090 b2 08 96 bd 49 6c 9b 3d 66 80 a0 bc 3b 95 23 be
       -0.07325877 0.07589013 -0.019592475 -0.15974896
0000a0 ec a1 4a be fd 8a 00 bd 11 46 35 3e 4c ed 5f 3e
       -0.19788331 -0.03138255 0.1770251 0.21867865
0000b0 08 28 18 3e a3 8b 84 3e 31 1c 43 bd 49 cd 1f be
       0.1485902 0.25887784 -0.047634307 -0.15605654
0000c0 80 76 24 3e f3 fe 10 bd ad 68 a7 3c f0 e4 cc be
       0.16060829 -0.03539939 0.020435655 -0.40018415
0000d0 27 bf 25 bd 86 78 9d bd 22 99 a6 3d a0 ae 54 bd
       -0.0404655 -0.07689004 0.081346765 -0.051924348
0000e0 de 6d a0 3e 0f d6 2a 3e 39 ed 61 3d fb b3 79 bd
       0.31333822 0.1668322 0.055157874 -0.06096266
0000f0 49 be 81 3e ca df 30 3c 15 84 bc bd 21 ec 81 3e
       0.2534049 0.010795543 -0.0920488 0.25375465
000100 24 88 88 3a 69 ef f9 b9 ba ef 0c 3d a5 97 cc 3c
       0.001041655 -0.00047671355 0.03440831 0.024974653
000110 3c 49 29 3e 5c 3a bb 3b 80 d3 63 be 8f 09 2e 3c
       0.16531843 0.005713744 -0.2224865 0.010622396
000120 05 4d 56 bd eb 65 42 3c d3 f6 49 bd d2 0f 0e be
       -0.052319545 0.011865119 -0.049307656 -0.13873222
000130 72 d0 10 bd 46 cd 14 3e 9b e7 32 3e 06 1b a2 3d
       -0.03535504 0.1453143 0.17471163 0.079153106
000140 c9 14 63 3d 1f 59 9f 3d 92 e0 13 3e 01 9f 49 3e
       0.055439744 0.077806704 0.14441136 0.19689561
000150 b2 25 5c 3c 7d 58 01 3e b7 0b 7a 3d 11 01 3f 3d
       0.013436722 0.12631412 0.06104633 0.046631876
000160 d3 34 b6 3d b6 2e 22 be e4 dc e1 3c d9 6c 91 3e
       0.08896794 -0.15838131 0.02757115 0.28403357
000170 f8 9a 05 3d f4 7c 05 bd 2b e6 ed bc db 5f 14 3d
       0.032618493 -0.032589868 -0.029040417 0.036224227
000180 80 42 d8 3d 5a e7 1b 3e d7 6b 7f 3e 6c c7 4e 3e
       0.10559559 0.15224972 0.24943481 0.20193261
000190 d1 4f 04 bd 8e 9b 41 3e 5d fe cb bd 0e 82 50 3e
       -0.03230268 0.18906996 -0.09960625 0.20362112
0001a0 34 07 5c 3e 0e 94 d7 3d 55 33 c1 bd 0b 7d 11 bd
       0.21487123 0.10526286 -0.09433619 -0.03551964
0001b0 db 51 8a 3c 13 c4 4a 3e 40 9f 86 bd 83 33 20 3d
       0.016884735 0.19801359 -0.06573343 0.039111625
0001c0 bd f5 1c 3e 81 28 25 be 90 ae 91 bd 38 13 39 bd
       0.15328117 -0.16128732 -0.07113373 -0.045184344
0001d0 27 f2 11 3e 06 dc 26 be b2 1b 89 3d 87 59 90 3d
       0.1425253 -0.1629487 0.066947356 0.07048326
0001e0 b9 c0 95 3d 24 94 9d bc d1 53 2e 3e cd 8a 95 3d
       0.073121496 -0.019235678 0.17024161 0.07301865
0001f0 99 60 92 3d 95 51 92 bd ee ec 2c be e3 80 95 bb
       0.07147331 -0.07144467 -0.16887257 -0.0045624836
000200 97 8e ba 3e 44 37 a6 be 22 63 d2 be 09 b9 76 3e
       0.36436912 -0.3246404 -0.41091257 0.24094023
000210 f4 5d 16 3e 91 75 15 be 8c 90 c0 3c 9b 7e 21 be
       0.14684278 -0.1459563 0.023506425 -0.15770952
000220 f1 de cb 3d 3c 23 63 3e d6 fe 4f 3b 70 89 8e bc
       0.09954632 0.2218141 0.0031737587 -0.01739952
000230 04 f4 10 3b 32 c8 40 bc 5d e0 bf 3d 30 38 35 3e
       0.00221181 -0.01176648 0.09368966 0.17697215
000240 dc b3 79 3e ee b7 2b 3e 15 f9 2c 3e af 09 16 3e
       0.24385017 0.16769382 0.16891892 0.14652131
000250 9b d3 af 3b bd a3 dc 3d db 00 b2 bd f6 f1 65 3e
       0.0053658015 0.10773418 -0.086915694 0.22455582
000260 47 05 43 3e ea 04 2e be 8d 19 ad be d5 8d 51 3d
       0.19044982 -0.16994062 -0.33808556 0.051160652
000270 2b cf 3b bf b2 07 e2 3d b1 9f 95 be aa 35 df bc
       -0.7336299 0.11036624 -0.29223397 -0.027247269
000280 8d fc 43 be 12 40 7a bd 3e 79 bb be 8e dc 02 3e
       -0.19139309 -0.06109626 -0.36615938 0.12779447
000290 e1 10 fa bc c7 c9 f3 bd b5 af 42 3e 94 8a c5 3d
       -0.030525627 -0.1190372 0.1901234 0.09645572
0002a0 0b ed 79 3d be fb 05 be ef 75 db bd a8 16 95 3e
       0.061017077 -0.13084313 -0.107158534 0.29118848
0002b0 4d 36 8f 3d bd b7 22 be c3 5f 3c 3e 5b 24 46 be
       0.06992779 -0.15890403 0.18395905 -0.19349806
0002c0 0c af 8c 3b b9 83 97 bd 56 db 7a be f5 50 2a bd
       0.004293328 -0.07398171 -0.24497733 -0.041581113
0002d0 7c c4 41 be b9 fd d2 3d 73 87 9f 3d 0e d1 87 3d
       -0.18922609 0.103023 0.07789507 0.06631671
0002e0 ec b2 9e 3d 06 67 23 be 9a 15 3f 3e 74 97 89 bc
       0.077489704 -0.15957269 0.18660584 -0.016795851
0002f0 e2 f6 7a be ed 70 53 3d 31 11 99 3e ee 4d 77 be
       -0.24508241 0.051621366 0.29895929 -0.24150822
000300 1e c2 d0 bd 8f 23 2c 3e 5d 10 98 bd d1 8c d4 bd
       -0.10193275 0.1681044 -0.07424996 -0.10378421
000310 37 3f 31 3e 76 2c bf 3d 9b 01 81 3d 6c fb 60 bd
       0.17309271 0.09334652 0.06299134 -0.054927275
000320 a2 e8 9b be ce 73 4d bd 3b a6 88 bd 87 e8 c9 3d
       -0.30450922 -0.050159268 -0.06672331 0.09858804
000330 a8 36 32 be de 31 db bc fd 1d 14 be 5b 76 93 be
       -0.17403662 -0.026757177 -0.14464565 -0.28801236
000340 41 19 8a bd 90 ff cc 3e 48 10 37 3e 85 7f df 3d
       -0.06743098 0.4003873 0.17877305 0.10912994
000350 33 ec 99 bd a9 ea 48 bd 71 08 1c 3e 9b f3 bc bd
       -0.075157546 -0.049051914 0.15237595 -0.092261516
000360 8e f4 d9 bd 7a 2a 74 3d bb e3 36 3e 50 a7 46 bb
       -0.10642348 0.05961082 0.1786031 -0.0030312128
000370 94 2f a9 3c 1d 23 bd 3d f5 b1 67 be 76 5e 3e 3c
       0.02065257 0.09235213 -0.22626479 0.011619201
000380 bb 1e cb 3d 50 47 8d bd 62 18 92 3d 0e c8 37 be
       0.09917971 -0.068983674 0.07133557 -0.17947409
000390 4f 28 12 bd 45 5f 82 bd 2e 88 16 3e 09 9c 1e bd
       -0.035682973 -0.063658275 0.14700386 -0.038723025
0003a0 28 f6 92 bd bf 4a a2 3a 3c 63 39 bd 58 dc 5e 3c
       -0.07175857 0.0012381895 -0.045260653 0.013602339
0003b0 44 94 77 be 06 82 69 bd 88 5c aa bd 72 71 52 3e
       -0.24177653 -0.057008766 -0.0831843 0.20551088
0003c0 cf 30 36 3d ad b7 4e 3e 14 82 ef 3d 35 79 4d 3d
       0.04448014 0.20187254 0.11694732 0.05016442
0003d0 88 f7 3c bd 85 24 db 3d 57 fc 5f bd 83 5e 45 3e
       -0.0461345 0.10700325 -0.05468401 0.19274335
0003e0 8b 35 0f 3d f6 92 9c 3e 12 45 d9 bd 5b f5 dc bd
       0.034963172 0.30580872 -0.10608877 -0.10788985
0003f0 08 a7 21 be fe cc 27 be 68 db 5e bc b0 53 74 3e
       -0.15786374 -0.16386792 -0.013602115 0.23860049

shared_net.4.bias f4 [64]
000000 4e a6 02 3d 5a 8f 90 3d f1 c5 ae bc de f5 8d 3a
       0.03189688 0.07058592 -0.02133462 0.001083072
000010 5f 12 cb 3d 5f ef 0f 3c c5 1f 71 3c 35 d2 1e 3c
       0.099156134 0.008785098 0.014717047 0.009693672
000020 a5 07 44 3d 35 5b 8e 3d 5d a5 b3 3d 95 28 96 bc
       0.047858853 0.0695099 0.08771775 -0.018329898
000030 73 af eb 3d 5a 38 bf bc 2e cd 79 3d 9f 8e 76 3d
       0.11508074 -0.0233423 0.06098669 0.060194608
000040 72 63 fc 3d 02 a1 90 3d 00 00 00 00 29 c8 65 3d
       0.12323655 0.0706196 0.0 0.05609909
000050 71 53 77 3c 13 3c 19 3e 56 10 d5 3c bb ae 3a bc
       0.015095578 0.14964323 0.026008766 -0.011394198
000060 58 4b ab bd 90 0b 67 bc 24 67 9a 3d 65 ec 9a 3c
       -0.0836398 -0.014101878 0.07539204 0.01891155
000070 8b b2 ab 3d 7b 7e 00 3e 00 00 00 00 42 06 9c 3d
       0.08383664 0.12548248 0.0 0.07618381
000080 26 5b 0f bc a7 46 88 3d 7f ec 99 bc 8d 75 6e 3c
       -0.008749759 0.06654101 -0.018789528 0.0145543935
000090 e3 90 c7 3d 2b f4 7c bd 81 bd bc 3c c4 d4 0f 3c
       0.09744432 -0.061756294 0.023039581 0.008778755
0000a0 09 66 de 3c 6a 77 f1 bb d4 02 4c 3a 9d 68 ad 3c
       0.027148264 -0.0073689716 0.0007782404 0.021168048
0000b0 06 a6 5c bd 6a 7a 23 3c 28 54 4c bc a7 9d c8 bb
       -0.05386927 0.009977916 -0.012471236 -0.0061223092
0000c0 a4 e4 23 3d 2b 57 81 3d 57 16 e2 3c 68 c4 9c bc
       0.04001297 0.06315454 0.027598543 -0.019136623
0000d0 6f 68 72 3d 70 d2 62 3c 47 89 29 3d 5c 33 51 3d
       0.059181627 0.0138441175 0.041390684 0.05107437
0000e0 e3 f3 95 3d ea fc 0b 3d 68 72 d9 3b b1 4d e6 3d
       0.07321908 0.034176745 0.0066359527 0.11245287
0000f0 9c 4f 4b 3c 09 d9 9a bb 17 d0 b3 3d 9b 55 35 3c
       0.012409117 -0.0047255796 0.08779924 0.011067773

actor.0.weight f4 [32, 64]
000000 8e 99 af 3e 85 d1 ba bd 3d fe ea 3c af 4a 12 be
       0.3429684 -0.09121994 0.028685683 -0.14286302
000010 9a b5 45 be ad 5c 0a 3e 96 38 09 be 93 b0 75 bd
       -0.19307557 0.13511916 -0.13400492 -0.059982847
000020 32 b6 ce bd c4 6c 9b 3e 0a 64 a0 3d 18 bf fb bd
       -0.10093345 0.3035642 0.07831581 -0.122923076
000030 e4 61 74 3e 44 8e f9 3d a8 40 3d 3e eb 9d 39 3d
       0.23865467 0.12185338 0.18481696 0.045316618
000040 92 14 a4 be 87 17 24 3e 30 18 86 be 1d 96 b9 bc
       -0.32046944 0.160246 -0.2619033 -0.022654587
000050 30 1a 58 3d 12 ec 84 3d de e2 12 3d 8b 18 3e be
       0.05275935 0.06490339 0.03586089 -0.1856405
000060 54 0d 95 be 7c 76 74 bd 4f d2 fe 3d 85 0e e2 bd
       -0.2911173 -0.059683308 0.12442457 -0.11037926
000070 66 97 aa 3c 04 c1 9a 3e 4a 79 88 be 35 21 72 be
       0.020824146 0.30225384 -0.26655036 -0.2364548
000080 61 40 21 3e 5b 0c 2d bd fd ee 96 3e fb 67 eb bd
       0.15747215 -0.04224811 0.2947921 -0.11494442
000090 e8 c0 d5 bd 85 af 83 3e 9d a4 96 3d 41 ce 91 3c
       -0.104371846 0.25719848 0.07355616 0.017798545
0000a0 b2 92 ed bd 82 fb 54 be 09 b0 ee bd cd 5d c2 3e
       -0.116002455 -0.20799068 -0.1165467 0.3796219
0000b0 e4 d2 c9 3d 6c f5 3f 3e a7 a7 f6 bd be c8 27 bc
       0.09854677 0.18745965 -0.12043696 -0.010240732
0000c0 5e d6 1f bd 54 3a 78 bd 45 d1 8e be dd d8 9e bd
       -0.039022796 -0.0606025 -0.27894035 -0.07756207
0000d0 fb b7 c3 3d 86 bf c4 be 95 64 d6 3c 6d 3f 25 be
       0.09556576 -0.3842737 0.026171008 -0.16137476
0000e0 5b 60 0b be e3 0e b7 3d 5b a6 26 be 95 fe a6 3e
       -0.13610975 0.08938386 -0.16274397 0.32616106
0000f0 62 33 cb be 47 df cd 3b 77 2d 5c 3e ac 73 6d 3e
       -0.3968764 0.0062827202 0.21501718 0.23188657
000100 99 65 9c be e8 ce bf bd 0d 5f 80 3e 80 44 80 be
       -0.30546263 -0.09365636 0.25072518 -0.2505226
000110 82 c4 05 be ef ef ac 3d 8f c6 a6 3e 3a 98 1c 3e
       -0.13063243 0.08444201 0.32573363 0.15292445
000120 f1 cf a3 3d e4 f3 96 3d c5 6e af 3e 8e 25 32 be
       0.07998646 0.07370737 0.34264198 -0.17397138
000130 78 da 40 bd 4d 4c 35 3e 06 fd 4f 3e 43 36 f9 3d
       -0.047083348 0.17704888 0.20311365 0.12168553
000140 59 0b aa bd 07 e5 21 be f0 26 99 3e 89 42 59 3e
       -0.08302946 -0.15810023 0.2991252 0.21216787
000150 02 0d 97 3e 3f 87 84 3d 41 6e 9e 3c c5 29 02 bd
       0.29502112 0.06471109 0.019339683 -0.031778116
000160 96 6d 59 be 5a fc 73 3d 3d 3c 0e 3d a6 a5 63 bb
       -0.2123321 0.059566833 0.034725416 -0.0034736185
000170 44 32 54 be c9 2a 89 be bf 3d ae be 48 23 95 3d
       -0.207223 -0.26790455 -0.34031484 0.0728212
000180 c9 16 11 be 86 ef 25 bd 05 d7 0e 3e 94 67 5d 3e
       -0.14168848 -0.04051163 0.13949211 0.21621543
000190 fd a7 52 bd 33 ad f8 bd 88 5d d1 be 66 8b ec bd
       -0.051429737 -0.1214241 -0.4089167 -0.11550026
0001a0 13 52 86 3d 6e 1f 57 be 2e 2f 45 be 76 9d 83 3d
       0.06558623 -0.21008083 -0.19256279 0.06426518
0001b0 52 dd db bd 8f 92 ce bd 35 a5 c7 bd 7e 1d 9d 3e
       -0.10735573 -0.100865476 -0.097483076 0.30686563
0001c0 4e f7 ce 3d fe d6 a2 bd 87 84 10 be 9e 01 ea 3d
       0.101057634 -0.07951163 -0.14113055 0.1142609
0001d0 1f d0 d7 bb 83 d9 66 3e e9 a1 b1 bd fd cb 4c be
       -0.0065860893 0.22543912 -0.0867346 -0.1999969
0001e0 07 32 1f be 45 35 62 bd 1b c6 17 be b4 26 95 3d
       -0.15546428 -0.055226583 -0.14821665 0.07282773
0001f0 6e 14 c1 bd 5e 91 00 3e 3b cb be bd c7 72 92 be
       -0.09427725 0.12555453 -0.09316107 -0.28603193
000200 5c 49 7f 3c f7 63 85 3d ff a7 7b 3c 83 60 38 3c
       0.015581455 0.065132074 0.015359878 0.011253479
000210 9e fd 0a 3e 5a db 2c 3e d6 f8 96 bd 53 48 4c bd
       0.1357331 0.16880551 -0.073716804 -0.04987366
000220 d0 9a fa bd 57 ca 88 be 03 84 39 3e ad 81 9b bd
       -0.122365594 -0.26716873 0.18116765 -0.07593093
000230 ef d7 ab bd 38 59 83 3e 44 58 4a 3e f0 3b b4 3d
       -0.083907954 0.25654006 0.19760233 0.08800495
000240 29 97 d0 bd ba cc 15 3e 16 3f c5 bd 15 b4 05 be
       -0.101850815 0.14628878 -0.09631173 -0.13056977
000250 e1 24 37 bd 05 a0 88 be 8f e1 3f be 56 3c 13 be
       -0.044712905 -0.26684585 -0.18738388 -0.14378485
000260 50 c0 6d be 5e 50 67 3c 46 6c 70 be 65 ef a8 3d
       -0.23217893 0.014118282 -0.23478803 0.08248786
000270 a8 d1 19 3d 97 35 86 be df 51 b5 3e 16 d3 2b be
       0.03755346 -0.2621276 0.35414025 -0.16779742
000280 5b fd 9c 3d 02 95 05 3e 6c c3 42 3e 57 36 56 bd
       0.07665511 0.13045123 0.1901986 -0.052297916
000290 4f 39 8e be 18 da 36 3d c1 df 92 3c 9c 76 59 3e
       -0.27778098 0.044641584 0.01792896 0.21236652
0002a0 48 56 d3 bd 0f a2 d8 be b7 f7 c2 bd 9f 22 f3 bd
       -0.10319191 -0.4231114 -0.09519904 -0.11871838
0002b0 e3 76 04 be 39 98 96 be bc 82 06 be d4 c2 8f bc
       -0.12935977 -0.29413012 -0.13135809 -0.017548956
0002c0 d4 2f 55 be 82 29 14 3e af 86 c5 3d 8a 0d 80 3d
       -0.20819026 0.14468959 0.096448295 0.06252582
0002d0 da e0 16 3d 83 44 7e bd 96 b8 36 3e 44 50 29 be
       0.03683553 -0.062077057 0.17843851 -0.16534525
0002e0 0b 97 54 bc c5 ee 95 be 3a 9d 11 3f e4 9e 81 3c
       -0.012975465 -0.2928373 0.56880534 0.015822835
0002f0 6c 4c 94 3d c7 0f af 3e 71 d9 62 bd ea 42 46 3d
       0.07241139 0.34191725 -0.05538315 0.048403658
000300 99 00 20 3c 95 51 43 3d bc 0a 91 3e e9 dc 03 3f
       0.0097657675 0.047685225 0.28328502 0.5150896
000310 fa 09 19 be 45 f8 34 be c6 56 3b 3e 63 9f 1a 3e
       -0.14945212 -0.17672832 0.1829482 0.15099864
000320 5c 64 5d be 23 e3 85 3e dd a8 df bd 29 30 60 3e
       -0.21620315 0.26149854 -0.1092088 0.21893372
000330 a2 50 dd 3c 62 24 e1 3d ab 50 05 3e 4f d9 40 be
       0.027015988 0.109932676 0.13019054 -0.18832897
000340 f1 34 42 be 8d 2b 4b 3e 49 35 0e 3e 74 30 96 3d
       -0.18965508 0.19840832 0.13887514 0.073334605
000350 04 b6 25 be b0 c5 bb 3e 01 c1 8e be 20 f9 88 3c
       -0.16182715 0.3667426 -0.27881625 0.016720355
000360 f4 96 08 3f fe 41 a9 3c be 81 41 3e b8 cb f7 bd
       0.53355336 0.02066135 0.18897149 -0.12099403
000370 5c 6b 64 bd cd f5 08 be 59 38 8a bd a0 38 e9 bd
       -0.05576645 -0.13375016 -0.06749029 -0.113877535
000380 49 8c 9e be 75 a1 8f bd 1d 3f 4e 3e c3 b6 1f 3e
       -0.30966404 -0.07013217 0.20141263 0.15597062
000390 e3 67 1a 3e b4 ad 01 bd af fb f4 3c d8 d4 0b 3e
       0.15078692 -0.031659797 0.029905168 0.13655412
0003a0 56 0b 84 be 41 e1 a3 bc d5 f3 00 3e 3b d0 09 3e
       -0.257899 -0.02000487 0.12593015 0.1345834
0003b0 3e 34 df bd b9 90 0c bd 93 f9 61 bd c2 22 50 3d
       -0.10898636 -0.034317706 -0.055169653 0.050814398
0003c0 12 dd 71 3e 28 24 34 3e e1 b8 07 3d 4f 70 71 3e
       0.23619488 0.17591918 0.0331353 0.23577999
0003d0 24 f0 70 3d 3a 8a 25 bd 00 6d 78 3d 0e cc a2 3d
       0.058822766 -0.040415026 0.060650826 0.079490766
0003e0 de 77 a4 3c a2 05 9c be 7b b5 69 3e a3 a2 a6 3d
       0.020076688 -0.30473047 0.22823136 0.08136489
0003f0 db 57 cb 3d d1 56 d2 bd d3 9d 83 3e bd 55 99 3e
       0.099288665 -0.10270465 0.25706348 0.29948226

actor.0.bias f4 [32]
000000 7d 80 aa 3c 61 f4 ce 3b 4e c4 98 bc 7f 76 db 3c
       0.020813221 0.0063157533 -0.018648293 0.026789902
000010 a0 be 0c 3d 68 96 0f bd 31 13 c9 3c 0f 6e 33 3d
       0.03436148 -0.035055548 0.024545284 0.043806132
000020 ab 13 8c bb 30 a4 4a 3a 7b 2e 78 bc 5a 8b 13 bd
       -0.0042748055 0.00077301543 -0.015147801 -0.036021568
000030 4f c9 73 3d 00 00 00 00 47 4d 4d bb 57 88 82 bd
       0.059518155 0.0 -0.0031326578 -0.06373661
000040 15 eb ce bc 44 74 38 3d 76 8b 8b bc 31 56 67 bc
       -0.02525858 0.045032755 -0.017034274 -0.014119671
000050 18 d4 c2 3c d3 af df bb 0a 3e 0b 3d 34 3a 08 3d
       0.023782775 -0.00682638 0.033994712 0.03325863
000060 b5 fd 17 bc 5e f9 f5 3c a9 67 cd bb f6 57 37 3d
       -0.009276797 0.030026134 -0.006268461 0.04476162
000070 f2 f0 eb bc 46 53 36 bc 46 5a 83 3b a1 a6 9b bc
       -0.028801415 -0.011128252 0.004008564 -0.019000353

actor.2.weight f4 [9, 32]
000000 f9 3b 9b be 0c da b2 3e 41 35 6f 3e 88 33 2f 3c
       -0.30319193 0.34931982 0.23360159 0.010693438
000010 2f e0 00 3e ac 2b bf bd 50 59 86 be 5a c3 80 bc
       0.12585519 -0.093345016 -0.26240015 -0.01571815
000020 82 c8 01 3f e6 ac e7 3e e6 0b 2a 3e a8 4c b2 3e
       0.50696576 0.452491 0.16606101 0.3482411
000030 dc 4b 46 3e 5a 6f 05 3e 0a fa 14 3d d8 30 92 3e
       0.19364876 0.13030759 0.03637127 0.2855289
000040 e7 ad fa 3e 24 73 0e 3e 9e 39 0d be 19 16 1c 3e
       0.48960802 0.1391111 -0.1379151 0.15242805
000050 1c 23 5e 3e 78 e8 0e be 42 e7 10 be f8 27 3a 3e
       0.2169308 -0.13955867 -0.14150718 0.1817931
000060 8f 9e b5 be 46 1f 04 bf dc 90 d9 3e 68 21 4d 3e
       -0.35472533 -0.5161022 0.4249333 0.20032275
000070 54 3f 8a bc 87 20 8d be f5 ea 1c bb a3 04 9a be
       -0.0168759 -0.2756388 -0.0023943756 -0.30081663
000080 71 e2 4a be 93 44 13 be e6 f2 9e be 8c 28 a0 be
       -0.19812943 -0.14381628 -0.31044692 -0.31280935
000090 a4 4d 9a be e6 51 7e be 61 4f 25 3e 53 53 cd bd
       -0.3013736 -0.2483593 0.16143562 -0.100256585
0000a0 88 e9 d1 bc 25 27 85 3e 18 ea 58 3e 1d 02 d6 3e
       -0.025624052 0.26006427 0.2118305 0.41798487
0000b0 1e 0e 06 bf 3c 48 24 3e 42 0c 1c be ca 5d 98 be
       -0.5236529 0.1604318 -0.15239051 -0.29759055
0000c0 02 25 ac 3d 81 fc 8d 3e c4 82 49 be bd 22 84 be
       0.08405496 0.27731708 -0.1967879 -0.25807753
0000d0 d2 8e cd 3d 23 ef d3 3e 76 a6 1c 3d 74 44 d3 bd
       0.100370064 0.41393384 0.038244687 -0.10315791
0000e0 24 48 8d bd cb 51 01 3f 31 4f 83 bc 84 76 ec 3e
       -0.06898525 0.5051543 -0.016028972 0.4618417
0000f0 8d 83 cb bc 7c fa a2 3d fc 4e a7 3e c4 41 b1 bd
       -0.024843002 0.07957932 0.32677448 -0.08655122
000100 19 30 98 be f3 bf 30 bc 65 18 14 3e 00 65 c2 3d
       -0.29724196 -0.010787952 0.14462431 0.094919205
000110 2b e1 ce 3e ce 2c 57 3d ba a1 6c bd f3 5f c6 be
       0.40406165 0.052532963 -0.057771422 -0.38745078
000120 34 5b cd be c9 80 ef 3e 04 8b 88 3e 39 d6 f7 bd
       -0.40108645 0.46777943 0.2666856 -0.121014066
000130 34 66 d8 be ee eb e0 3e c8 30 0b 3f 4e 2d 7c be
       -0.42265475 0.4393 0.5437131 -0.24626657
000140 ee 7e ce be 34 40 87 be ca 21 a7 bd 6f e9 8f 3e
       -0.40331215 -0.2641617 -0.081607416 0.28107783
000150 87 f6 a8 be 91 dd 50 bd 8a 30 36 3e 65 a1 cf be
       -0.33000585 -0.050992552 0.17791954 -0.40552822
000160 6f 6a 1a bd 86 76 68 3d 7e 67 eb 3e ed 5f ab be
       -0.03769916 0.056753658 0.45977396 -0.33471623
000170 84 5a 59 bd 17 72 2a 3e 50 31 91 be 11 7e 93 bd
       -0.053064838 0.16645084 -0.28357935 -0.0720178
000180 51 2f 82 3e 24 58 eb be 3f 2f 0d 3e bf c6 88 be
       0.25426725 -0.45965683 0.13787554 -0.2671413
000190 ef 3a b1 3c c8 23 67 be f1 39 42 3e ea 32 b5 3e
       0.021634547 -0.22572243 0.18967415 0.35390407
0001a0 59 01 ef bc b3 2c 3e be d0 c6 ac 3d 60 49 51 be
       -0.029175447 -0.18571739 0.08436358 -0.20438147
0001b0 cf c3 6c 3e 7d e9 81 bd f4 c9 6e 3d 60 00 bc be
       0.2312157 -0.063433625 0.058298066 -0.36719036
0001c0 75 da bc 3e 14 06 80 3e fe 55 e0 be 92 29 15 3e
       0.3688542 0.25004637 -0.43815607 0.14566639
0001d0 1a f1 7d 3e 87 cf 99 3e 2b 23 34 3e 1e 9d 6a bd
       0.24799004 0.30041143 0.1759154 -0.057278745
0001e0 a0 b1 c4 be 2f 28 5d be e1 54 11 3e 7a d4 d7 3d
       -0.38416767 -0.2159736 0.14192535 0.105385736
0001f0 bb 9e b4 3e 03 5f 44 be cf 84 c6 be 70 83 31 3e
       0.35277352 -0.19176869 -0.387732 0.17335296
000200 17 25 0b be be 33 9c 3e f9 71 b3 3e 00 a3 a8 be
       -0.13588367 0.30508226 0.35047892 -0.3293686
000210 6b ba 2f be 95 d9 d1 bd 81 ac 94 be 58 97 0f be
       -0.17160957 -0.102465786 -0.2903786 -0.14022577
000220 85 3c 9d 3d 12 2a 82 be 40 a5 fb 3e c4 be 06 bd
       0.07677559 -0.25422722 0.49149513 -0.032896772
000230 54 4a 22 bd 92 3d 14 bc 2d eb 8c 3d be 02 03 be
       -0.039621666 -0.009047883 0.06880794 -0.12794015
000240 f5 7d 81 3e d7 ed 01 be c2 5d 8f bd 48 a7 2e 3f
       0.2529141 -0.12688385 -0.07000305 0.68224
000250 f0 a9 2e 3e 6b a6 0c 3e 4e 35 46 be 56 de 34 3e
       0.17057014 0.13735358 -0.19356272 0.1766294
000260 c5 ac 16 3f b3 1e 7f 3d 34 bc dd 3d 10 f2 6d be
       0.58857375 0.062285136 0.108269125 -0.23236871
000270 50 70 29 3e f3 9e ff 3e cc d6 26 3e 83 e3 12 bd
       0.1654675 0.49925956 0.16292876 -0.035861503
000280 f1 17 75 3e 6f e2 3b be 31 41 ad bd 95 70 8c be
       0.23934914 -0.18348096 -0.084597 -0.27429643
000290 82 21 b1 3e 09 f9 b6 3d 39 df 05 3e 81 4d 5b be
       0.34595877 0.089342184 0.13073434 -0.21416284
0002a0 f5 80 2a 3e 25 bd bf bd 60 2c c4 be 61 6b c6 be
       0.16650756 -0.09362248 -0.38315105 -0.387538
0002b0 a1 2d 81 be 80 71 0d bd 84 5e 31 3e 3d bd 8a bc
       -0.25230125 -0.03453207 0.17321211 -0.016935939
0002c0 3a 64 70 3e f4 dc ef be 56 d3 67 be 81 5e 3a 3d
       0.23475733 -0.4684826 -0.22639212 0.045500282
0002d0 86 8f bf 3e b8 80 0d be c4 b8 6a be d8 61 d4 3c
       0.37414187 -0.13818634 -0.22922045 0.025925562
0002e0 92 66 7c 3e b9 a6 fb 3e 3d 5e 8f 3e a8 27 da 3d
       0.24648502 0.49150637 0.28001586 0.10652095
0002f0 6b 2f 8f 3d d6 52 f7 be 1e 08 88 3e 6e 3b 2c be
       0.06991466 -0.48305386 0.26568693 -0.16819546
000300 c5 11 72 3e 3f 44 51 3d e1 a8 6c 38 8a e6 fe 3d
       0.23639591 0.051090475 5.6424065e-05 0.124463156
000310 78 98 04 bd d8 42 9e 3d 7e 98 5d 3d 50 09 a2 3e
       -0.032371968 0.07727593 0.054100506 0.3164773
000320 81 fc 69 3e 11 b6 e7 3d 2f 6e 8d be a1 7b b6 bc
       0.22850229 0.11314023 -0.27623126 -0.022275748
000330 f1 5a 9d 3e 1e 5d 03 3f 6b c5 79 bb e3 f4 21 bf
       0.30733445 0.5131396 -0.0038112055 -0.6326429
000340 93 f0 84 3d c0 16 fa 3d f6 ae f2 be 73 43 ac bc
       0.064911984 0.122113705 -0.4739911 -0.021028256
000350 de 6c 53 bc e3 d7 0e bf 0d ab a8 bd d5 d0 9a 3d
       -0.012904374 -0.55798167 -0.0823575 0.07559363
000360 47 cb ae bb d0 89 8f bd 38 4e 8f 3d ad ed 60 be
       -0.005334291 -0.070087075 0.06997341 -0.21965666
000370 28 73 a4 be 38 d4 a1 3e 1e 17 0d 3f f6 ef 0b 3e
       -0.32119107 0.31607223 0.551134 0.13665757
000380 b8 9e d8 bb 57 d7 44 be 7c 22 b7 3e 2d fe fa 3d
       -0.0066107176 -0.1922277 0.35768497 0.122555114
000390 6b 5e eb be 50 6e 8f be 17 46 44 3d 46 1d 15 3e
       -0.45970473 -0.2801385 0.047918405 0.14561948
0003a0 a6 e8 3d 3d 4b e0 53 3e 34 23 0a be 29 14 12 bf
       0.04636445 0.2069103 -0.13489991 -0.5706201
0003b0 c8 11 d5 3d ac 20 08 3d d9 31 b5 be dc 67 13 be
       0.10403782 0.033234283 -0.35389593 -0.14395088
0003c0 7d 6c dd be 5a f9 04 3e 4b bc 47 3e 49 8a 20 3e
       -0.43246832 0.12985745 0.19505422 0.15677752
0003d0 4d 03 35 3e 11 25 e8 3d f3 fe 76 be 4c 07 ab 3e
       0.1767704 0.11335195 -0.24120693 0.33404005
0003e0 46 e0 1f bd 75 48 fb 3e 66 8f 5b 3e fe 46 81 3e
       -0.039032243 0.49078718 0.21441421 0.25249475
0003f0 18 bd f9 be b4 c2 81 be 89 a0 be be 18 0f 64 3c
       -0.4877708 -0.2534386 -0.37231854 0.013919614

actor.2.bias f4 [9]
000000 3a 6c 8f bc 9a ff b3 bc 51 cc 11 3d 43 25 72 3d
       -0.017507661 -0.021972466 0.035595242 0.059117567
000010 4d 82 d2 bc b9 4b bf 3a f0 d9 f1 3a 3e 1c 4e 3d
       -0.025696898 0.0014594711 0.0018451791 0.050319903
000020 4e 3f e2 3c
       0.027618077
