logs/base_env_20250602_173828/checkpoint_episode_1800.pt (torch, 541083 bytes, 39 tensors)

shared_net.0.weight f4 [128, 30]
0	0x3dab26be	0.08356999
1	0x3cf16548	0.02946724
2	0xbe6c75bb	-0.23091786
3	0x3e81b569	0.25333717
4	0x3dc69e00	0.09698105
5	0x3e22ba92	0.15891483
6	0x3cd5f194	0.02611617
7	0x3e4b1ef9	0.19836034
8	0xbe3214fd	-0.17390819
9	0x3d8de0e2	0.069276586
10	0x3dbed922	0.093187585
11	0xbe669c76	-0.22520623
12	0xbe5bd1c9	-0.21466745
13	0xbd6c6d3f	-0.057721373
14	0x3e032267	0.12806092
15	0x3e27eb35	0.16398318
16	0xbdba3249	-0.090916224
17	0xbd7efa6a	-0.062250532
18	0xbd3aee64	-0.045637503
19	0xbc5be2cb	-0.013420771
20	0xbe116725	-0.14199503
21	0xbc0787b4	-0.0082721
22	0x3e62a726	0.22134075
23	0xbcb8396b	-0.022488317
24	0xbe0f81b6	-0.14014325
25	0xbe5ba2d4	-0.21448833
26	0xbded6de3	-0.11593225
27	0x3d79d46f	0.060993608
28	0xbe8cd027	-0.27502558
29	0xbd4e6268	-0.050386816
30	0x3c4084a4	0.011750374
31	0x3d106c5f	0.0352596
32	0x3d91a4f9	0.07111544
33	0x3d8ddf6a	0.069273785
34	0xbe44a907	-0.19205104
35	0xbe0600be	-0.1308622
36	0x3dcbfe16	0.099605724
37	0xbe8037ad	-0.25042477
38	0xbec0f8df	-0.37689874
39	0x3e476d37	0.19475256
40	0x3d0fac2d	0.03507631
41	0x3e837195	0.25672594
42	0xbd5666a5	-0.052343983
43	0xbe67674e	-0.22598001
44	0xbda842e8	-0.08215886
45	0x3d8d5a48	0.069019854
46	0xbe60e7f7	-0.21963488
47	0xbe351b5b	-0.17686217
48	0xbd82de8f	-0.06390106
49	0xbd5dbe41	-0.05413652
50	0xbd1d432b	-0.038394134
51	0xbd189125	-0.037247796
52	0x3ddf0145	0.10888914
53	0xbc9733a1	-0.018457236
54	0xbe2aa190	-0.16663194
55	0xbc634cbb	-0.013873274
56	0xbd5b180b	-0.053489726
57	0x3da6c6e2	0.08143403
58	0xbe3344f3	-0.17506771
59	0xbe0c5897	-0.1370567
60	0xbe2ae74a	-0.16689792
61	0x3b66452f	0.0035136451
62	0x3e144ff4	0.14483625
63	0xbde4cb47	-0.111715846
64	0x3d8f0992	0.06984247
65	0x3e985132	0.29749447
66	0x3e5b80f2	0.21435907
67	0x3e8e9ce3	0.2785407
68	0xbe1f5490	-0.15559602
69	0xbd58d201	-0.05293465
70	0x3e38f895	0.18063577
71	0x3d36c96e	0.044625692
72	0x3db397ac	0.087691635
73	0x3c81d4ba	0.015848506
74	0xbd2c9a16	-0.042139135
75	0x3edebb2f	0.43502185
76	0xbcf2b79c	-0.029628567
77	0xbd978ac6	-0.07399516
78	0xbd183888	-0.037163287
79	0x3dcc0ed4	0.09963766
80	0x3db6cea7	0.089261346
81	0x3d31949a	0.043354608
82	0x3d7cb19f	0.06169283
83	0xbca3d8be	-0.020000812
84	0x3e3ed206	0.18634805
85	0x3d6e254a	0.05814103
86	0x3df22c15	0.11824814
87	0xb93bd648	-0.00017913536
88	0xbd7fe7db	-0.062476974
89	0x3d12f41d	0.035877336
90	0xbdb4855e	-0.088145
91	0xbe2eb31b	-0.17060511
92	0x3de13617	0.10996645
93	0x3db3c4cc	0.087777704
94	0xbe4707b4	-0.19436532
95	0xbf0b9002	-0.54516613
96	0xbe8385dc	-0.25688064
97	0xbe6f2741	-0.23354818
98	0xbe0d9e37	-0.13829885
99	0xbdb3f33b	-0.08786627
100	0xbeb18c18	-0.34677196
101	0xbeb2d61e	-0.34928983
102	0xbeca5515	-0.39518037
103	0xbe0bc7ab	-0.13650386
104	0xbca6af6a	-0.020347316
105	0xbe97fff4	-0.29687464
106	0xbe871fcc	-0.26391447
107	0xbe223498	-0.15840375
108	0xbce88c7d	-0.028387303
109	0xbddec33e	-0.10877083
110	0xbc4bba61	-0.012434573
111	0xbe85bce5	-0.26120678
112	0x3d98a521	0.07453371
113	0xbe2ee0c6	-0.17077932
114	0x3dc10541	0.0942483
115	0xbdc1bb94	-0.09459606
116	0x3d97015c	0.07373306
117	0xbc95392d	-0.01821574
118	0xbc6e5175	-0.014545788
119	0xbd3ef7e8	-0.04662314
120	0xbd83feb4	-0.06445065
121	0xbe13f9c3	-0.14450745
122	0xbde0285e	-0.109451994
123	0xbe6ee527	-0.23329602
124	0x3d3d7234	0.04625149
125	0x3e5eea35	0.2176903
126	0x3daa3e8e	0.083127126
127	0x3e5b65ca	0.21425548
128	0x3de219f4	0.110401064
129	0xbd741052	-0.059585877
130	0xbcd2fe14	-0.02575592
131	0x3c042a70	0.0080667585
132	0xbd09a8db	-0.0336083
133	0xbddcb05d	-0.10775826
134	0x3e1d8f16	0.15386614
135	0xbd20872e	-0.039191417
136	0x3e234f8b	0.15948312
137	0xbe73a44c	-0.23793143
138	0xbdb61b91	-0.088919766
139	0x3bd1de4f	0.006404675
140	0x3de156df	0.110028975
141	0xbd9dfcbf	-0.07714223
142	0x3d8595f9	0.06522746
143	0xbe49c63d	-0.19704528
144	0x3dea1270	0.11429298
145	0x3e4f0e71	0.20220353
146	0xbdd740a3	-0.10510375
147	0xbe360872	-0.17776659
148	0xbe7916f2	-0.24325159
149	0x3d23c882	0.03998614
150	0x3d36407a	0.044495083
151	0x3ccedcad	0.02525171
152	0xbf941cd5	-1.1571299
153	0x3d864acb	0.065572344
154	0xbd04001e	-0.032226674
155	0xbe0f3f71	-0.13989045
156	0x3d62f2af	0.055407222
157	0x3cc7d8e6	0.024395417
158	0xbe31e7db	-0.17373602
159	0xbd75f8ea	-0.060051836
160	0xbd930b96	-0.07179944
161	0xbd10f598	-0.035390466
162	0x3c927fb1	0.017883154
163	0x3dc6c4eb	0.09705528
164	0xbde50ba4	-0.11183861
165	0x3ddf0607	0.108898215
166	0x3e106174	0.14099675
167	0x3a473411	0.0007599006
168	0x3e7a38fc	0.244358
169	0xbe81206f	-0.25220057
170	0x3c205ca0	0.0097877085
171	0x3da30b1d	0.07961104
172	0xbc46c864	-0.012132738
173	0x3e21cc09	0.1580049
174	0xbe557759	-0.20846309
175	0xbe3b3406	-0.18281564
176	0x3d516ff7	0.05113217
177	0xbe3affca	-0.18261638
178	0x3e1d5fd0	0.15368581
179	0xbe79582d	-0.24350043
180	0xbe1d682b	-0.15371768
181	0x3e4514b9	0.19246186
182	0xbf1b7471	-0.6072455
183	0xbc9b0088	-0.018921152
184	0xbd02b6d8	-0.031912655
185	0xbd3da0d1	-0.046295945
186	0xbe08eba8	-0.13371146
187	0x3e165a8a	0.14682975
188	0x3e9b6b8f	0.30355498
189	0x3dbc116e	0.09183012
190	0x3d39a2c2	0.045321234
191	0x3d27a464	0.04092826
192	0xbb9d55b0	-0.0048014745
193	0x3d7e001f	0.062011834
194	0x3dff064f	0.12452375
195	0x3d974104	0.073854476
196	0x3da5975c	0.0808551
197	0xbe018433	-0.12648086
198	0xbc246d6b	-0.010035853
199	0x3a27211a	0.0006375477
200	0xbda814ad	-0.082070686
201	0xbe446e02	-0.1918259
202	0x3dcdfcc9	0.100579806
203	0x3d73a830	0.059486568
204	0xbe017503	-0.12642293
205	0xbd804047	-0.0626226
206	0x3df50dc7	0.119655184
207	0xbdd3bcd9	-0.10338754
208	0x3e1451ae	0.14484283
209	0xbe091c88	-0.1338979
210	0xbd86aea5	-0.065762796
211	0x3d75b4d4	0.059986904
212	0xbdc2487d	-0.09486482
213	0x3e12f5df	0.14351605
214	0x3d92fffd	0.07177732
215	0xbd256e16	-0.04038819
216	0x3e1465f5	0.14492019
217	0x3e287d39	0.16454019
218	0x3e476f4e	0.19476053
219	0x3e5756ed	0.21029253
220	0xbe3e6552	-0.18593338
221	0x3ca5652a	0.02018984
222	0x3dfc422a	0.12317307
223	0xbe44fe61	-0.19237663
224	0x3d1b81d1	0.0379656
225	0xbda99e9f	-0.08282208
226	0xbe37bdca	-0.17943493
227	0xbd167e86	-0.036741756
228	0x3dc917f5	0.098190226
229	0x3e6a6b7f	0.22892569
230	0xbd087681	-0.03331614
231	0xbe2011d0	-0.15631795
232	0xbd98ed15	-0.07467095
233	0x3eac7be0	0.3368826
234	0x3e708e2a	0.23491731
235	0xbe0ce68a	-0.13759819
236	0xbecce088	-0.40015054
237	0xbe2d9309	-0.1695062
238	0x3e1ef47d	0.15522952
239	0xbd06ea4e	-0.032938294
240	0xbdd91c69	-0.10601122
241	0xbc254181	-0.010086418
242	0x3e18c868	0.14920199
243	0x3d777b48	0.060420305
244	0xbd3fa658	-0.046789497
245	0xbe8757fc	-0.26434314
246	0xbdcca9ff	-0.09993362
247	0xbb82dadf	-0.0039933766
248	0x3e4d8ed7	0.2007402
249	0x3e721983	0.23642544
250	0xbe04761d	-0.12935682
251	0xbea17680	-0.3153572
252	0xbea22d0c	-0.31674993
253	0xbdbd9a52	-0.0925795
254	0x3e6e6eba	0.23284426
255	0xbe99b61e	-0.30021757

shared_net.0.bias f4 [128]
0	0x3d04c023	0.0324098
1	0x3d15eb2f	0.03660124
2	0x3cba382d	0.022731865
3	0x3e28591a	0.1644024
4	0x00000000	0.0
5	0x3dcca91a	0.09993191
6	0x3de19905	0.11015514
7	0x3d88d80e	0.06681834
8	0x3d3dceb3	0.0463397
9	0x3d5ed865	0.05440559
10	0x3dc86d5f	0.09786486
11	0x3c86ad1e	0.01643997
12	0x3e1aec5d	0.15129228
13	0x3d8a54c0	0.06754446
14	0x3d9fd8ba	0.07805009
15	0x3bdeccb7	0.0067993063
16	0x3e5546fa	0.20827857
17	0x3c8fe14e	0.017563488
18	0x3d781fd4	0.06057723
19	0x3dc7c31c	0.09754011
20	0xbd892f1d	-0.06698439
21	0x3da8dd85	0.082453765
22	0x3c20a9a4	0.0098060705
23	0xbd0db23b	-0.034593802
24	0xbdf579b3	-0.11986103
25	0x3d35297d	0.04422902
26	0xbc72fef9	-0.014831298
27	0x3dc2266c	0.09479985
28	0xbb17a8e1	-0.002314143
29	0xbd4fdf7f	-0.05075025
30	0xbccf3c52	-0.025297318
31	0x3d985672	0.07438363
32	0x3d4e95d6	0.050435863
33	0xbcc66137	-0.024216278
34	0x3d5a5582	0.053304203
35	0xbd50de2d	-0.050993133
36	0x3b3b33e4	0.0028564865
37	0x3d7a2cbf	0.06107783
38	0xbd1f7745	-0.038932104
39	0x3dad5901	0.08464242
40	0x00000000	0.0
41	0xbcac0ed5	-0.021003166
42	0xbda9cf97	-0.08291548
43	0x3c6da0a7	0.014503635
44	0x3d57dee5	0.052702803
45	0x3d1e1ddc	0.038602695
46	0x3d2a6d9d	0.04160844
47	0x3d1854f9	0.03719041
48	0xbc9f1c41	-0.019422652
49	0xbde183fc	-0.11011502
50	0x3d971ad2	0.073781624
51	0x3cd5df8d	0.026107574
52	0x3de92932	0.113848105
53	0x3d28312f	0.04106253
54	0xbc080fbf	-0.008304535
55	0x3c3569a4	0.01107255
56	0xbd84dd29	-0.064874955
57	0x3d61aca9	0.055096302
58	0x3e49ba4e	0.19699976
59	0xbd50c490	-0.050968707
60	0x3cb1ded9	0.021712707
61	0x3e08b24d	0.13349266
62	0x3d4192f7	0.047259297
63	0x3bbdb1a8	0.0057890005
64	0x3d8242b0	0.06360376
65	0xbc3639c9	-0.0111221755
66	0x3cc92697	0.024554534
67	0x3dfebd4f	0.124384515
68	0xbcaabbcd	-0.020841504
69	0x3d2085cd	0.039190102
70	0xbd4880c1	-0.048950914
71	0x3b7c4f1e	0.0038499306
72	0xbbea7a73	-0.0071557104
73	0x3de2cae7	0.11073857
74	0x3d6dd7ee	0.058067255
75	0x3de90187	0.113772444
76	0xbc00e499	-0.007867002
77	0x3dc020ae	0.09381233
78	0x3d0fff68	0.035155684
79	0x3dadd394	0.08487621
80	0x3c3e5a03	0.01161814
81	0xbd60d201	-0.054887775
82	0xbc19884b	-0.009370874
83	0x3e2d3f30	0.16918635
84	0xbc8d9bb9	-0.017286168
85	0x3d8c58ae	0.06852852
86	0x3d6b984e	0.057518296
87	0x3ddb422e	0.10705982
88	0x3d74c422	0.05975736
89	0xbd7db8f2	-0.061943956
90	0x3c7102e6	0.014710164
91	0x3d850168	0.06494409
92	0x3db0afc7	0.08627277
93	0x3dcc07cf	0.09962427
94	0xbcb7502c	-0.022377096
95	0x3d0cd585	0.034383316
96	0x3d80fc40	0.06298113
97	0x3dec9c2c	0.11553225
98	0xbc37c30f	-0.011215939
99	0x3d8a651c	0.06757566
100	0x00000000	0.0
101	0x3d886e12	0.06661619
102	0xba56440c	-0.0008173592
103	0x3d9a71de	0.0754125
104	0x3d6b2087	0.057404067
105	0x3d520382	0.051272877
106	0x3d8c5fe3	0.068542264
107	0x3d83d4c5	0.06437067
108	0x3c94d14d	0.018166209
109	0x3d49f132	0.049302287
110	0x3c2eff1e	0.010680942
111	0x00000000	0.0
112	0xbd9da0ac	-0.07696661
113	0x3da18c06	0.078880355
114	0x3decd106	0.115633056
115	0x3baca37b	0.005268512
116	0xbcc71155	-0.024300257
117	0x3d17f6b7	0.03710052
118	0x3de6d429	0.11270935
119	0x3d3a0c60	0.045421958
120	0xbce92d83	-0.028464084
121	0x3dee119c	0.116244525
122	0x3dbd5052	0.092438355
123	0xbcf641b8	-0.030060634
124	0x3dd750b6	0.10513441
125	0x3d374bae	0.04474991
126	0x3d86ae91	0.06576265
127	0xbdf87e9f	-0.12133526

shared_net.2.weight f4 [128, 128]
0	0x3dfa308e	0.12216292
1	0xba61df05	-0.00086163013
2	0x3da93205	0.082614936
3	0xbe2d690f	-0.16934608
4	0xbdbcd4e7	-0.092202954
5	0xbf0f94f7	-0.5608668
6	0xbca28fc4	-0.019843943
7	0x3e385414	0.18000823
8	0x3e761ed6	0.240352
9	0x3ec51611	0.38493398
10	0x3c953a94	0.018216409
11	0x3e270ce4	0.16313511
12	0xbd84765d	-0.064678885
13	0xbe1e02da	-0.15430775
14	0xbd96ef0f	-0.073698156
15	0xbd994088	-0.074830115
16	0x3dd599ec	0.10429749
17	0x3e4ac235	0.19800647
18	0xbea81023	-0.3282481
19	0xbdf5d0be	-0.12002705
20	0xbdaf5629	-0.085613556
21	0x3e305823	0.17221121
22	0xbd81c3be	-0.06336163
23	0xbcdc21e5	-0.02687163
24	0xbe4d8053	-0.20068483
25	0xbe48a7a1	-0.19595195
26	0xbdab604e	-0.08367978
27	0xbf0c8e0d	-0.5490425
28	0x3db382bc	0.0876517
29	0xbe252ef5	-0.16131194
30	0xbc037bd2	-0.0080251265
31	0xbc73ecc1	-0.0148879895
32	0xbda1853f	-0.07886743
33	0xbbaee51f	-0.005337372
34	0x3d60b804	0.05486299
35	0x3ddcb8c6	0.1077743
36	0x3de661ce	0.112491235
37	0xbe656c53	-0.22404604
38	0x3dc55b99	0.096366115
39	0xbdb103aa	-0.08643277
40	0x3c428228	0.011871852
41	0xbd795ef1	-0.06088156
42	0x3d973091	0.0738231
43	0x3de5ae02	0.1121483
44	0xba52c337	-0.00080399535
45	0x3df464c0	0.11933279
46	0xbdd478e2	-0.10374619
47	0x3e153c8a	0.14573875
48	0x3e84ab2e	0.2591185
49	0xbe17a98c	-0.14810771
50	0xbe4f377d	-0.20236011
51	0xbe2d1c73	-0.16905384
52	0xbc0aa939	-0.008463197
53	0xbe4eddbd	-0.20201774
54	0xbd6d5c31	-0.05794925
55	0x3e76e93f	0.24112414
56	0x3e51b001	0.20477296
57	0x3d949f8a	0.07256992
58	0xbd3ec0fd	-0.046570767
59	0xbdce1ef1	-0.10064495
60	0xbdd4c42d	-0.1038898
61	0x3dcb5eb5	0.09930173
62	0x3c6fbf4d	0.014633012
63	0x3e0311bc	0.12799734
64	0xbc04a361	-0.008095593
65	0x3e908631	0.2822738
66	0xbdfd3197	-0.12362974
67	0x3e224bf8	0.15849292
68	0xbe31db25	-0.17368753
69	0x3d6dbe73	0.058042955
70	0x3e0d2855	0.13784917
71	0xbdc632e4	-0.09677675
72	0x3de91274	0.11380473
73	0x3cc02f4e	0.023460057
74	0x3d94839a	0.072516635
75	0x3dceba79	0.100941606
76	0xbccbbc85	-0.024870167
77	0x3e523aa9	0.2053019
78	0x3e6712b5	0.2256573
79	0x3c7a523b	0.015278394
80	0xbc6bd074	-0.014392961
81	0xbd43a4e1	-0.047764663
82	0xbe2d4b9a	-0.16923371
83	0x3c91df60	0.017806709
84	0x3db7dc3c	0.08977553
85	0xbd52fc96	-0.051510416
86	0xbdb7655b	-0.08954879
87	0x3d9ae9bc	0.075641125
88	0xbdbfd187	-0.09366136
89	0x3c51badf	0.012800901
90	0xbc951437	-0.018198116
91	0x3e1b067a	0.1513919
92	0xbe1305d0	-0.14357686
93	0x3da32cf4	0.079675585
94	0xbd6b44fd	-0.05743884
95	0xbe87b6c8	-0.2650664
96	0x3e1ad8ae	0.15121719
97	0x3e974036	0.29541177
98	0xbdf2e224	-0.11859539
99	0x3d9e0c22	0.07717158
100	0xbdb1d64f	-0.08683454
101	0xbe7a0557	-0.244161
102	0x3dae8be4	0.08522776
103	0x3cfd3d05	0.030912885
104	0xbd4c147c	-0.049824223
105	0x3db74d63	0.08950307
106	0x3dd6a37c	0.10480401
107	0x3dbe1bb5	0.092826284
108	0x3ebf93b0	0.37417364
109	0x3e2a1d0f	0.16612647
110	0x3c8a0f6e	0.01685306
111	0x3c1d6ca8	0.009608425
112	0xbc1701e1	-0.009216757
113	0x3d279a44	0.040918604
114	0x3e47acbd	0.19499488
115	0xbe402c4d	-0.187669
116	0x3e8ed854	0.2789942
117	0xbe2320c8	-0.15930474
118	0x3a972fc1	0.0011534618
119	0xbcf354b5	-0.029703477
120	0xbea9008f	-0.3300824
121	0xbddf8047	-0.10913139
122	0xbeaa550e	-0.33268017
123	0xbe1cf29c	-0.15326923
124	0xbf019235	-0.5061372
125	0xbe008642	-0.12551215
126	0xbc13ae48	-0.00901372
127	0xbdf6ebed	-0.12056718
128	0xbc3034b2	-0.010754751
129	0x3ce470c6	0.027885806
130	0xbceee303	-0.029160982
131	0x3e19d1da	0.15021458
132	0xbd0ec53d	-0.03485607
133	0xbf14812a	-0.5800959
134	0x3d43102c	0.047622845
135	0xbe6a2ccc	-0.22868651
136	0x3e05cbf5	0.13066085
137	0x3d8f1fee	0.06988512
138	0xbdf37c10	-0.118888974
139	0x3e972eed	0.2952799
140	0xbd959f6f	-0.073058
141	0xbe8afd89	-0.27146557
142	0xbd95c588	-0.07313067
143	0x3db6e647	0.08930641
144	0xbdb8e9e5	-0.09028987
145	0x3d142a60	0.036173224
146	0x3c83ee8d	0.01610496
147	0xbb7cf61e	-0.0038598846
148	0xbd9c3d72	-0.07628907
149	0xbdc7e176	-0.097598
150	0xbe5663c6	-0.20936498
151	0x3da29738	0.07938999
152	0x3d6618af	0.056175884
153	0x3d89a237	0.06720393
154	0x3e26e5ea	0.16298643
155	0xbee3bef5	-0.44481626
156	0xbe604207	-0.21900187
157	0xbdbc5e84	-0.09197715
158	0xbea29fe4	-0.31762612
159	0x3c919e7e	0.01777577
160	0xbdbcd53b	-0.09220358
161	0xbead4d29	-0.3384793
162	0x3dee1644	0.116253406
163	0xbc6a15f9	-0.014287465
164	0x3e61e59d	0.22060247
165	0xbe0440df	-0.12915371
166	0x3d6e1995	0.058129866
167	0xbe49039d	-0.19630285
168	0x3cc25442	0.023721818
169	0xbbba6abf	-0.0056889947
170	0xbe29c1bf	-0.16577815
171	0xbe2d3f77	-0.16918741
172	0x3d5c5d9b	0.053800207
173	0x3e8c80d8	0.2744205
174	0xbe02422e	-0.12720558
175	0x3d6d1aad	0.057886768
176	0xbc9aaf4f	-0.018882422
177	0x3d805f23	0.06268146
178	0xbecc5f4c	-0.39916456
179	0x3e202b36	0.15641484
180	0xbdbda8ef	-0.09260737
181	0xbdd38db2	-0.103297606
182	0x3e64f23d	0.22358032
183	0x3e3f2752	0.18667343
184	0xbdd48adc	-0.10378048
185	0x3dce968a	0.10087307
186	0xbdc95c89	-0.09832103
187	0x3e82a45a	0.25516015
188	0xbec406b0	-0.38286352
189	0xbd6a58b0	-0.057213485
190	0x3d773102	0.060349472
191	0x3c8c2039	0.017105209
192	0x3e1eac8f	0.15495513
193	0xbdc417d7	-0.095748596
194	0xbdea5008	-0.11441046
195	0x3df5cf69	0.12002451
196	0xbe94ad96	-0.29038686
197	0x3cfb2cb4	0.030660965
198	0x3e840c0c	0.2579044
199	0xbe2708a6	-0.16311893
200	0x3d5df304	0.054186836
201	0xbcfc137c	-0.03077101
202	0x3dedcd80	0.11611462
203	0xbd368b40	-0.044566393
204	0xbd73358a	-0.05937723
205	0xbd2bd6c7	-0.041952875
206	0x3dbb4f8e	0.09146033
207	0xbe5e8819	-0.21731605
208	0x3de98635	0.11402551
209	0x3e0c88d5	0.13724072
210	0x3e3fe539	0.18739785
211	0x3e0f5ec7	0.14000998
212	0x3d53b66d	0.051687647
213	0x3bdf6607	0.0068175825
214	0xbe40c615	-0.18825562
215	0x3b8bdf63	0.004268573
216	0x3e8a3cbb	0.2699946
217	0xbe3cdda6	-0.18443927
218	0xbc8335bb	-0.016016832
219	0x3d84c98a	0.06483753
220	0xbe834d32	-0.25644833
221	0x3c973588	0.018458143
222	0xbde6fd3d	-0.1127877
223	0xbd88917e	-0.066683754
224	0x3dc6d2a0	0.09708142
225	0xbd00ad61	-0.031415347
226	0x3db614f8	0.08890718
227	0xbdedaebc	-0.116055936
228	0x3e38bfc8	0.18041909
229	0xbd18576c	-0.037192747
230	0x3e1083b3	0.1411274
231	0x3d350a55	0.044199307
232	0xbe3550d5	-0.17706616
233	0xbe21caaa	-0.15799966
234	0x3de897a7	0.113570504
235	0x3e773f45	0.24145229
236	0x3e115cbb	0.1419553
237	0x3e8af9c4	0.2714368
238	0x3e917e2b	0.2841657
239	0xbdaa90f0	-0.08328426
240	0x3dd2bbed	0.1028975
241	0x3be32612	0.0069320286
242	0x3d992c38	0.07479137
243	0x3e6ce994	0.23135978
244	0xbc932a51	-0.017964514
245	0xbd0d305e	-0.034469955
246	0x3d53e498	0.051731676
247	0x3d8bf538	0.06833881
248	0x3d84ab31	0.06477965
249	0x3c89458b	0.016756793
250	0xbf134d27	-0.575396
251	0x3df6ab0a	0.12044342
252	0xbeeb82d1	-0.45998242
253	0x3e08501c	0.1331181
254	0xbdad0678	-0.084484994
255	0xbdac3e56	-0.08410327

shared_net.2.bias f4 [128]
0	0x3da6a363	0.08136632
1	0x3dd28477	0.10279172
2	0x3d8d7908	0.069078505
3	0x3d00c6e1	0.031439666
4	0x3cbd6f39	0.023124324
5	0x3baae7bc	0.005215613
6	0x3e1a1806	0.15048227
7	0x3aa4da08	0.0012577185
8	0xbb2dbafb	-0.0026509154
9	0xbd2199b9	-0.039453242
10	0x3df17ad3	0.11791005
11	0xbd589272	-0.052874036
12	0x3c9883c3	0.018617516
13	0xbc33b090	-0.010967389
14	0xbccc8133	-0.02496395
15	0x3d1f97ba	0.038963057
16	0x3d1dee78	0.0385575
17	0xbdb88822	-0.0901034
18	0x3dc51636	0.09623377
19	0xbce2fe5f	-0.027709184
20	0x3c4c5804	0.012472156
21	0x3dbdd2a8	0.09268695
22	0x3e2e7a34	0.17038804
23	0x3e082236	0.132943
24	0x3deb5156	0.11490123
25	0x3c07d59c	0.008290675
26	0x3e0577c3	0.13033967
27	0x3e0e53ca	0.1389915
28	0x3e307934	0.17233735
29	0x3e03f28f	0.12885498
30	0xbbf5dc38	-0.0075030588
31	0x3cbb7923	0.02288491
32	0x3e24877d	0.1606731
33	0x00000000	0.0
34	0xbcdc6109	-0.026901739
35	0xbd0bced7	-0.034132805
36	0x3e2c66d1	0.16836096
37	0x3d12c62a	0.035833515
38	0x3b13d75b	0.0022558782
39	0xbb115c5c	-0.0022180295
40	0x00000000	0.0
41	0xbbb0a605	-0.005390885
42	0x3c227f05	0.009917979
43	0x3de9d580	0.11417675
44	0x3cd27f80	0.025695562
45	0x3e2848c7	0.16434012
46	0x3e2e87de	0.17044017
47	0xbd349fb6	-0.044097625
48	0xbbf2c5d0	-0.007408835
49	0x3d00c9fd	0.03144263
50	0xbd54b8ed	-0.05193417
51	0x3e0793db	0.13239996
52	0x3d4c12a3	0.04982246
53	0x3cfc2248	0.030778065
54	0x3d6570b3	0.05601568
55	0xbccb8a64	-0.024846263
56	0xbcc24cf3	-0.023718333
57	0x3e0a2f0d	0.13494511
58	0xbce93877	-0.028469307
59	0x3e01742f	0.12641977
60	0x3dbc2f8e	0.09188758
61	0x3e099958	0.13437402
62	0x3ae89ce4	0.0017746952
63	0xbd945012	-0.07241835
64	0xbd0f663d	-0.03500961
65	0x3b94ccd2	0.004541018
66	0x3dbfb248	0.09360176
67	0x3db67e1e	0.08910774
68	0xbca296b3	-0.01984725
69	0x3e0cccc6	0.1374999
70	0x3d76f26b	0.06028978
71	0x00000000	0.0
72	0x3ce5ce99	0.028052615
73	0x3d7bcb91	0.061473433
74	0x00000000	0.0
75	0x3c5a7fd1	0.013336138
76	0x3c3a878a	0.011384854
77	0x3b4b635c	0.0031034565
78	0x3c4e4ee0	0.012592047
79	0x3ce1ac2a	0.027547915
80	0x3c4ef2b9	0.012631112
81	0x3ca8a349	0.020585673
82	0x372b72b0	1.0219097e-05
83	0xba02585c	-0.0004972273
84	0xbd9892f7	-0.07449906
85	0x3d7f4f58	0.062331527
86	0x3e134773	0.14382724
87	0x3d4a367b	0.049368363
88	0x3d3dec13	0.046367716
89	0x3dc2dcae	0.095147476
90	0xbbc1bae9	-0.005912174
91	0xbc2b5a04	-0.010458473
92	0x3c25c50f	0.010117783
93	0x3da12ffd	0.07870481
94	0xbcc807aa	-0.024417717
95	0x3bba55b2	0.005686485
96	0x3c9e05bd	0.019289846
97	0x3c212086	0.009834414
98	0xbcd49e5e	-0.025954422
99	0x3d6ae992	0.057351656
100	0xbb5ac4ab	-0.0033381383
101	0x3dd5fd59	0.10448713
102	0xbc742757	-0.0149019575
103	0xbcb93c11	-0.02261165
104	0x3c4c95fa	0.012486929
105	0xbd1d1c37	-0.038356986
106	0x3d5877c6	0.0528486
107	0xbc7fd2cf	-0.0156142255
108	0xbd50eea4	-0.051008835
109	0xbcdb2aca	-0.026753802
110	0x3cecf000	0.028923035
111	0x3b552dab	0.003252844
112	0x3e0843af	0.13307069
113	0x3e26eb29	0.16300644
114	0xbcc2c227	-0.02377422
115	0x3db331d1	0.08749736
116	0x3cf30010	0.029663116
117	0x3d55c7f3	0.05219264
118	0x3d9e9064	0.07742384
119	0x3bcc7eae	0.0062406873
120	0xb9b9f74e	-0.00035470206
121	0x3dee87cd	0.11646996
122	0xbb044d44	-0.0020187655
123	0x3b161e1e	0.0022906135
124	0x3dc51bf1	0.0962447
125	0xbc91098f	-0.017704753
126	0x3c8264df	0.01591724
127	0x3da5e2fe	0.08099936

shared_net.4.weight f4 [64, 128]
0	0x3e32a439	0.17445458
1	0x3ebc7f13	0.368157
2	0x3e446980	0.1918087
3	0xbe3d21bf	-0.18469904
4	0x3d849265	0.06473235
5	0x3de168c7	0.11006313
6	0xbe0c6b06	-0.13712701
7	0xbe68ed95	-0.2274688
8	0x3d0e89f0	0.034799516
9	0xbc0b9e2e	-0.0085216
10	0xbc21e3f5	-0.009881009
11	0x3dddacfc	0.1082401
12	0x3c342aeb	0.010996561
13	0x3d143b96	0.036189638
14	0xbdfc3168	-0.12314111
15	0xbe8b6137	-0.27222607
16	0xba8948d7	-0.0010473978
17	0xbd53a20b	-0.051668208
18	0xbdcfeb58	-0.1015231
19	0xbd57b452	-0.0526622
20	0xbe67e5c7	-0.22646247
21	0xbe1483c6	-0.14503393
22	0xbbd920c0	-0.0066262186
23	0xbe797b44	-0.24363428
24	0x3cdcf883	0.026973968
25	0xbe207e6e	-0.15673229
26	0xbdb588a9	-0.088639565
27	0xbe24d961	-0.16098548
28	0xbdbd4ab9	-0.09242768
29	0xbe29fd95	-0.1660064
30	0xbe09fbf3	-0.13475017
31	0xbe49f331	-0.19721676
32	0x3dfc05ba	0.1230578
33	0xbdf1bf5e	-0.118040785
34	0x3da5823b	0.0808148
35	0x3e48724e	0.19574854
36	0xbe352ab3	-0.1769207
37	0xbc9bfdd2	-0.01904193
38	0x3d8b6183	0.06805708
39	0xbe74989c	-0.23886341
40	0x3dcf1163	0.10110738
41	0xbe2e87ea	-0.17044035
42	0xbec1910e	-0.3780598
43	0x3d17b3a6	0.03703656
44	0xbad4e2a9	-0.0016241866
45	0xbd9c04e7	-0.076181225
46	0xbd8e782d	-0.069565155
47	0xbe4bf2a4	-0.19916779
48	0xbd226361	-0.039645556
49	0xbe232ed0	-0.15935826
50	0xbd49f5dd	-0.04930674
51	0xbd201ef8	-0.039092034
52	0xbddf612b	-0.10907205
53	0xbe66a151	-0.22522475
54	0x3d70935a	0.058734275
55	0xbe8baa4d	-0.27278367
56	0xbd87750d	-0.066141225
57	0x3e058d98	0.13042295
58	0x3deb18f7	0.11479371
59	0x3e56e83e	0.20987031
60	0x3de1dffd	0.110290505
61	0x3c97732e	0.01848754
62	0x3d1467ff	0.03623199
63	0xbe2df75a	-0.16988888
64	0xbdbff204	-0.09372333
65	0xbe04ea22	-0.1297994
66	0xbe4131c9	-0.18866648
67	0x3e891df8	0.26780677
68	0x3db9b113	0.09066977
69	0x3d69f5c3	0.057119142
70	0xba7f2fd4	-0.0009734605
71	0xbe3f5055	-0.18682988
72	0xbd4a54fb	-0.04939745
73	0xbe253941	-0.16135122
74	0xbdf3d02d	-0.11904941
75	0xbe85f427	-0.26162836
76	0x3dd876b3	0.10569515
77	0xbc598e3c	-0.01327854
78	0xbd9930df	-0.074800245
79	0x3e52ad60	0.2057395
80	0x3d996a42	0.0749097
81	0x3dc8a8de	0.09797834
82	0xbc9750cf	-0.01847115
83	0x3e6aa317	0.22913776
84	0xbcabaf11	-0.020957502
85	0xbe7daa03	-0.24771886
86	0xbe0f65bf	-0.14003657
87	0x3db4d954	0.088305146
88	0x3b7a981b	0.0038237635
89	0xbddd8abc	-0.10817477
90	0x3dd5c4bf	0.10437917
91	0xbdaf4f40	-0.085600376
92	0xbe6f1303	-0.23347096
93	0xbe01651a	-0.12636223
94	0xbd1139b1	-0.03545541
95	0xbeef66ef	-0.4675822
96	0xbdc63604	-0.096782714
97	0x3e13536b	0.1438729
98	0x3d24be97	0.040220823
99	0xbe01e2dc	-0.12684196
100	0x3e07ddb0	0.13268161
101	0xbda983c6	-0.08277087
102	0xbea94ead	-0.33067837
103	0xbe01e7aa	-0.12686029
104	0x3d938c50	0.07204497
105	0x3e6f8ade	0.23392817
106	0x3d9b7d15	0.07592217
107	0xbcf2878c	-0.02960565
108	0xbe703928	-0.23459303
109	0x3d16a8df	0.03678214
110	0xbee0b957	-0.43891403
111	0x3d596d96	0.053083025
112	0x3d9267b4	0.07148686
113	0x3e00d849	0.12582506
114	0x3e811065	0.2520782
115	0x3d3da552	0.04630024
116	0xbec32a3d	-0.38118163
117	0xbe3d13eb	-0.1846463
118	0x3e2b345d	0.16719194
119	0xbd6dedc0	-0.058088064
120	0xbda99189	-0.08279712
121	0x3cf559f8	0.029950127
122	0xbe0b48a7	-0.13601933
123	0xbe43297d	-0.19058795
124	0x3de94dd3	0.11391797
125	0x3ec7f7c9	0.39056233
126	0xbdd20c56	-0.10256259
127	0x3d43f793	0.047843527
128	0xbca0b730	-0.0196186
129	0x3dbf2e41	0.09334994
130	0x3d4ac140	0.049500704
131	0xbddc6919	-0.10762233
132	0x3da633b8	0.08115333
133	0xbc9d1aa9	-0.019177752
134	0x3d9f4395	0.07776562
135	0x3c62e906	0.013849502
136	0x3e1bc7e8	0.15212977
137	0xbe8bbe5a	-0.27293664
138	0x3eafb3c8	0.3431685
139	0x3e3cb083	0.18426709
140	0xbdb38c0d	-0.08766947
141	0x3c7fa8e3	0.015604231
142	0x3d676275	0.05649038
143	0xbcd9d276	-0.026589613
144	0xbe521a57	-0.2051786
145	0x3e18eeb9	0.14934815
146	0xbd7095bd	-0.05873655
147	0x3e007766	0.12545547
148	0x3dcbb2ed	0.09946237
149	0x3df24176	0.11828892
150	0xbbf9e390	-0.0076260045
151	0x3da474b4	0.08030072
152	0xbdd0ad32	-0.101892844
153	0xbe3d28eb	-0.1847264
154	0xbdae2a66	-0.085041806
155	0x3ddd6e2f	0.108120315
156	0xbd067f76	-0.0328364
157	0xbc8e9884	-0.01740671
158	0xbe6ced56	-0.23137411
159	0xbce2c1c0	-0.027680278
160	0xbdcae95c	-0.09907791
161	0x3dbd451b	0.092416964
162	0x3d0b264f	0.03397208
163	0xbd28eec2	-0.041243322
164	0x3e3ae928	0.18253005
165	0xbd833632	-0.06406821
166	0xbc1a56e9	-0.009420135
167	0xbe0a560d	-0.13509388
168	0xbea92c44	-0.33041584
169	0xbdcc8e69	-0.099881
170	0x3d2615b6	0.04054805
171	0xbecb8b1a	-0.39754564
172	0x3d663927	0.05620685
173	0xbce11d46	-0.027479779
174	0xbda49210	-0.08035672
175	0xbe156766	-0.14590225
176	0xbe190037	-0.14941488
177	0xbe131335	-0.14362796
178	0x3e5bae9b	0.21453325
179	0xbbc042e1	-0.0058673476
180	0xbc9c428a	-0.019074697
181	0x3e490603	0.196312
182	0x3d4f0ae3	0.05054749
183	0x3e4d8907	0.20071803
184	0xbe83ed57	-0.25767013
185	0xbe0741fc	-0.13208765
186	0xbd231fcb	-0.039825242
187	0x3e7c2e8e	0.24627134
188	0x3e5e12a9	0.21686806
189	0xbe8660af	-0.2624564
190	0x3d9612f2	0.07327832
191	0x3c51b6e3	0.012799951
192	0xbde96625	-0.11396436
193	0x3dab310d	0.08358965
194	0x3adf0473	0.0017014876
195	0xbe6c76de	-0.23092219
196	0xbe674263	-0.22583918
197	0x3e2f201a	0.1710209
198	0x3ea65c35	0.32492223
199	0x3e5070d7	0.20355545
200	0x3e53c839	0.20681848
201	0x3c492a43	0.012278142
202	0x3ca4c61c	0.020113997
203	0x3c2ffd68	0.010741569
204	0xbc91493e	-0.01773512
205	0x3ddb32e6	0.107030675
206	0x3ec73805	0.38909927
207	0xbe313e9a	-0.17309037
208	0x3e6b7064	0.22992092
209	0xbdceaaef	-0.10091197
210	0xbe39e725	-0.18154581
211	0xbd88f8ab	-0.06688055
212	0x3d92d3e1	0.07169319
213	0xbd6e533c	-0.058184847
214	0x3dac476d	0.08412061
215	0x3dd6d2f7	0.10489457
216	0x3e49b88d	0.19699307
217	0x3e74f5d4	0.23921901
218	0x3e9c8351	0.30568936
219	0x3e64d7e1	0.22347976
220	0x3e0b1a9e	0.13584372
221	0x3e1417bd	0.1446218
222	0x3d9db041	0.076996334
223	0x3e0fa525	0.14027841
224	0x3e7cd682	0.24691203
225	0x3dddffcf	0.10839807
226	0xbddc6ba3	-0.107627176
227	0xbd8bf2c0	-0.0683341
228	0x3d3e62dd	0.046481002
229	0x3d25284d	0.040321637
230	0x3e11c34f	0.1423466
231	0x3d758ea5	0.05995049
232	0x3c804d38	0.01566182
233	0x3e3a37a9	0.18185295
234	0xbd43eb27	-0.04783168
235	0xbce9d9ac	-0.028546177
236	0x3b6be87e	0.003599673
237	0xbdb219f0	-0.086963534
238	0xbe219240	-0.15778446
239	0x3dcf8ca1	0.10134245
240	0x3de0415b	0.109499656
241	0x3db787bd	0.08961437
242	0xbd9430f5	-0.072359
243	0xbd82490c	-0.06361589
244	0xbe65b5ff	-0.22432707
245	0xbe3b3cf7	-0.18284975
246	0xbe21eef0	-0.15813804
247	0x3c9e090c	0.019291423
248	0x3e6abf58	0.22924554
249	0xbd482fea	-0.04887382
250	0x3e7f4eff	0.24932478
251	0xbcd3db20	-0.025861323
252	0x3d91ad27	0.07113104
253	0x3ca9f3b2	0.020746086
254	0x3e0ca98f	0.13736556
255	0x3df333db	0.11875125

shared_net.4.bias f4 [64]
0	0x3c487488	0.012234814
1	0xbbd39b57	-0.006457727
2	0x3d50f0bf	0.051010843
3	0x3e0a0643	0.13478951
4	0x3d53a5e1	0.051671866
5	0x00000000	0.0
6	0x3bda8c44	0.006669553
7	0xbd0d5033	-0.034500312
8	0x3d7a5353	0.06111462
9	0x3e5c4fbd	0.21514793
10	0xbc403bf1	-0.011733041
11	0x00000000	0.0
12	0x3e200a0a	0.1562883
13	0xbce1016d	-0.0274665
14	0xbc189234	-0.009312201
15	0xbb7af36a	-0.0038292059
16	0x3df590f0	0.11990535
17	0xba2d9d2f	-0.00066228485
18	0xbc079575	-0.008275379
19	0x3c6379e9	0.013884046
20	0x3e5204c6	0.20509633
21	0x3e17bb69	0.14817585
22	0xbb0b16f5	-0.00212234
23	0xbc0f7ac4	-0.008757297
24	0x3e1ce52e	0.153218
25	0xbd0a8597	-0.033818807
26	0xbca88089	-0.020569103
27	0x3d751f8e	0.059844546
28	0x3dac9d08	0.08428389
29	0x3d9361b4	0.0719637
30	0x3e45cf65	0.19317396
31	0x3da512d5	0.080602325
32	0x3e2ab80d	0.16671772
33	0xbc30d563	-0.010793063
34	0xbcc63c17	-0.024198575
35	0x3dd83781	0.105574615
36	0xbd0a7bdc	-0.033809528
37	0xbc240b5b	-0.010012473
38	0x3aa5e133	0.0012655616
39	0x3de3b85f	0.1111915
40	0x3d9f467c	0.07777116
41	0xbcfadb1e	-0.030622061
42	0xbce5c50f	-0.028048066
43	0xbdda51a6	-0.106601045
44	0x3e2e8e55	0.17046483
45	0x00000000	0.0
46	0x3e0dcfb9	0.13848771
47	0xbb7013bf	-0.0036632863
48	0x3c38f095	0.011287828
49	0x3ccf7fe4	0.025329538
50	0x00000000	0.0
51	0x3b9c86ff	0.004776835
52	0x00000000	0.0
53	0x3e25dafa	0.16196814
54	0xbc93a626	-0.018023562
55	0xbce04bc1	-0.027379872
56	0xbd5e4b3d	-0.05427097
57	0xbd0ae036	-0.03390523
58	0x3d823aa7	0.06358843
59	0xbce610eb	-0.028084239
60	0xbcfcbfd8	-0.030853197
61	0x3d30aee7	0.04313555
62	0x3de0d4c8	0.10978085
63	0x3e1634a6	0.14668521

actor.0.weight f4 [32, 64]
0	0xbe0f956f	-0.14021848
1	0x3e89b69c	0.26897132
2	0x3e304fe3	0.17217974
3	0x3eed9d48	0.4640906
4	0xbd228725	-0.039679665
5	0xbe1444ff	-0.14479445
6	0xbe8a6e14	-0.27037108
7	0x3d9d6ec2	0.07687141
8	0x3db46dc4	0.08809999
9	0xbce3c513	-0.027803933
10	0xbe406b9f	-0.18791054
11	0xbe19af59	-0.15008296
12	0x3e3a2a0d	0.18180104
13	0x3dd95338	0.10611576
14	0xbd5e88d0	-0.054329693
15	0xbe09728f	-0.13422607
16	0xbd86b452	-0.06577362
17	0x3d6bd6e8	0.057577997
18	0xbd166a85	-0.03672268
19	0xbe4a5558	-0.19759119
20	0x3de2850f	0.11060535
21	0xbe420ee2	-0.1895099
22	0xbecdef7d	-0.40221778
23	0x3cf8a9c3	0.030354386
24	0xbe224aca	-0.15848842
25	0xbe5c945c	-0.2154097
26	0x3dbbbea6	0.09167223
27	0xbe01b667	-0.12667237
28	0xbd62fe30	-0.055418193
29	0x3e5dc7c8	0.21658242
30	0x3dc09447	0.09403282
31	0xbec8f9a9	-0.39252976
32	0xbeb27ce6	-0.34860915
33	0x3d9ae9a9	0.075640984
34	0xbde4dae9	-0.11174566
35	0x3e8791dd	0.26478472
36	0xbe4ba1c3	-0.19885926
37	0xbe32c818	-0.17459142
38	0xbdd85148	-0.10562378
39	0xbd57bd5f	-0.052670833
40	0x3dd8177f	0.105513565
41	0xbdf55e4b	-0.119808756
42	0x3cde768e	0.02715614
43	0x3dfdf929	0.12401039
44	0xbc5f8bfd	-0.013644216
45	0xbde6ebed	-0.11275468
46	0xbde41fdf	-0.111388914
47	0x3cf4b19f	0.029869853
48	0xbe32265f	-0.1739745
49	0xbe4794a7	-0.194903
50	0x3da952ba	0.08267732
51	0xbe3722cc	-0.17884368
52	0xbe4d4fe4	-0.20050007
53	0xbdbb9cd4	-0.09160772
54	0x3eaff131	0.34363702
55	0xb98902ff	-0.00026132909
56	0xbd580b7a	-0.05274532
57	0xbdef7b14	-0.11693397
58	0xbd6fdc47	-0.058559682
59	0x3e800209	0.25001553
60	0xbeb14de1	-0.3462973
61	0xbe08061c	-0.1328358
62	0xbe6fc099	-0.23413314
63	0xbdb6ddaa	-0.08928998
64	0xbb6863ad	-0.0035459802
65	0xbddeb479	-0.10874266
66	0x3cc1d7e0	0.023662508
67	0xbea40eae	-0.3204245
68	0xbd1a6832	-0.037697025
69	0xbe424d99	-0.18974914
70	0xbcac3408	-0.021020904
71	0xbdfa3f62	-0.122191206
72	0xbb92fe78	-0.0044859014
73	0xbdad77b8	-0.084701
74	0xbdfd77b2	-0.12376346
75	0xbdd53866	-0.10411148
76	0xbe822555	-0.25419107
77	0x3b324fd1	0.0027208219
78	0x3dda8d7e	0.10671519
79	0xbd025dcb	-0.03182773
80	0x3e4b0990	0.19827867
81	0xbef27d43	-0.47361192
82	0xbe8f17e4	-0.27947915
83	0x3cf8f328	0.030389383
84	0x3da23fce	0.07922326
85	0x3e73bcdc	0.23802513
86	0xbe3a4d90	-0.1819365
87	0xbe989bc3	-0.29806337
88	0xbee68f2a	-0.450311
89	0x3dce5cf0	0.1007632
90	0x3dff45f4	0.124645144
91	0xbdb607f0	-0.08888233
92	0x3e01fcce	0.12694094
93	0x3df4f335	0.119604506
94	0xbecb4fb8	-0.39709258
95	0xbdef0f5e	-0.11672853
96	0x3e7387e7	0.23782311
97	0x3dbb1e16	0.09136598
98	0x3ec03219	0.3753822
99	0x3d10d31c	0.03535758
100	0xbd6016ea	-0.054709353
101	0xbdbc5c32	-0.09197272
102	0x3d174ec7	0.036940362
103	0xbe0ea718	-0.13930929
104	0xbbad3439	-0.0052857664
105	0x3da91e33	0.08257713
106	0xbe302c5a	-0.17204419
107	0x3eabe0a1	0.33569816
108	0x3e77cb9a	0.24198762
109	0x3c79178c	0.015203368
110	0x3ddd78e9	0.108140774
111	0xbd1bd25c	-0.03804241
112	0xbe08b517	-0.1335033
113	0xbc38d564	-0.011281345
114	0x3d8a14c6	0.067422435
115	0xbea6100f	-0.32434127
116	0xbe9152d6	-0.2838351
117	0xbd8c1b08	-0.06841093
118	0x3d99a138	0.07501453
119	0x3e11f80c	0.14254779
120	0xbb78de31	-0.0037974233
121	0x3de88c3e	0.11354874
122	0xbe055c8f	-0.1302359
123	0x3dba7479	0.09104247
124	0x3d1e8107	0.03869727
125	0x3d1b807b	0.037964325
126	0xbd0c04cb	-0.03418426
127	0x3df7a456	0.120918915
128	0x3da4e796	0.08051984
129	0xbc71270a	-0.01471878
130	0xbe8a5e80	-0.27025223
131	0x3df0bf27	0.117552094
132	0xbd24e8f7	-0.040261235
133	0x3d35288f	0.044228133
134	0xbce9bbf3	-0.028532004
135	0xbe1b7a8a	-0.15183464
136	0xbec2b8e2	-0.3803168
137	0xbcb0b568	-0.021570876
138	0x3ebc2379	0.36745813
139	0x3dfd2c15	0.123619236
140	0x3d65077b	0.055915337
141	0x3e2e64e4	0.17030674
142	0xbea4783f	-0.3212299
143	0x3e5ad488	0.21370137
144	0x3e636892	0.22207859
145	0x3ce046a1	0.027377428
146	0x3d72236a	0.059115805
147	0xbe2d2fc9	-0.1691276
148	0xbe0251a2	-0.12726453
149	0x3e889b5e	0.26681036
150	0xbe0ba219	-0.13636054
151	0x3d60c7ec	0.05487816
152	0xbdb682c0	-0.08911657
153	0xbd937d94	-0.072016865
154	0xbcadbb41	-0.021207454
155	0xbec0d164	-0.37659752
156	0x3eeac37e	0.45852274
157	0x3e346221	0.17615558
158	0x3e878f49	0.26476505
159	0x3e1a5cb7	0.1507443
160	0x3e1b7c93	0.1518424
161	0x3efa601e	0.48901457
162	0xbd01594e	-0.03157931
163	0x3c9abc9b	0.018888762
164	0xbe8133d8	-0.25234866
165	0x3e32427d	0.17408176
166	0xbc4e9b7f	-0.012610315
167	0xbd4c0c9f	-0.049816724
168	0x3e780f54	0.24224597
169	0xbde4788d	-0.11155806
170	0xbe8d0253	-0.27540836
171	0x3d97e291	0.07416261
172	0xbd9c72c7	-0.076390795
173	0x3ead5a86	0.33858126
174	0xbca74d04	-0.020422466
175	0xbe8b4858	-0.2720363
176	0xbe2e79a1	-0.17038585
177	0xbe1bdff1	-0.15222146
178	0xbe54c041	-0.20776464
179	0x3d660c21	0.05616391
180	0x3dcbe16c	0.09955105
181	0x3dc303aa	0.09522183
182	0x3e8b1e51	0.27171567
183	0x3dde689e	0.10859798
184	0x3ebee1ed	0.37281743
185	0x3e02bcb0	0.12767291
186	0x3eea6cc5	0.4578611
187	0xbcdab262	-0.026696388
188	0x3dfb33d1	0.122657426
189	0x3d814254	0.06311479
190	0xbd4b590a	-0.04964546
191	0xbd5f4063	-0.054504763
192	0x3e460a7b	0.19339935
193	0x3ec71463	0.3888274
194	0x3d2a7fd9	0.04162583
195	0xbe59d4e5	-0.21272619
196	0xbdafce4a	-0.085842684
197	0x3dcb4698	0.09925574
198	0x3dd3a118	0.103334606
199	0x3dd56218	0.104191005
200	0x3d0f815d	0.03503548
201	0xbdd0197b	-0.1016111
202	0x3eb2649e	0.3484239
203	0xbd4157ce	-0.047202878
204	0x3e08c37e	0.13355824
205	0x3d484324	0.048892155
206	0x3d9a1aab	0.07524618
207	0x3d29f625	0.041494507
208	0xbdc92efd	-0.098234154
209	0xbd83901d	-0.06423972
210	0xbeba1cf9	-0.3635023
211	0xbe7a4c6a	-0.24443212
212	0xbd57e31e	-0.05270683
213	0x3cab1c2d	0.020887459
214	0xbc4fb5e0	-0.01267764
215	0xbed6f566	-0.419841
216	0x3de0891a	0.1096365
217	0xbe0bb14a	-0.13641849
218	0x3cd4e2c6	0.02598704
219	0x3e9128ba	0.28351384
220	0xbd9a160e	-0.07523738
221	0xbd6ce0ef	-0.0578317
222	0x3e818f2c	0.25304544
223	0xbab35af3	-0.0013683721
224	0x3e213fac	0.15746945
225	0xbe8ffcd1	-0.2812257
226	0x3ded1528	0.11576301
227	0x3cac8c48	0.021062985
228	0xbe3926a9	-0.18081154
229	0xbe4a014d	-0.19727059
230	0xbcd6d252	-0.026223335
231	0x3e178975	0.1479853
232	0xbe084a48	-0.13309586
233	0x3ed78690	0.4209485
234	0x3eb0a917	0.34504005
235	0x3df74314	0.12073341
236	0xbe441f40	-0.19152546
237	0x3d2a7772	0.04161782
238	0xbdd0cd4a	-0.10195406
239	0xbe9f8efd	-0.3116378
240	0x3e99631d	0.2995843
241	0xbc98e5ce	-0.018664267
242	0xbd94634b	-0.07245501
243	0x3e29726d	0.16547556
244	0xbde8eee8	-0.11373693
245	0x3e2ef675	0.17086203
246	0xbe25691c	-0.16153377
247	0xbe9ce242	-0.3064137
248	0x3e6e9abd	0.23301215
249	0xbe593b74	-0.21214086
250	0xbef18368	-0.47170568
251	0xbd82ff34	-0.063963324
252	0xbea140ee	-0.3149485
253	0x3deaeb27	0.11470633
254	0x3c0d01da	0.0086063985
255	0xbe006213	-0.12537412

actor.0.bias f4 [32]
0	0xbcf55f7a	-0.029952753
1	0x00000000	0.0
2	0x3d523d2a	0.05132786
3	0xbb78a75f	-0.0037941558
4	0xbc63a45b	-0.013894166
5	0x3d09592a	0.0335323
6	0xb83ba069	-4.4733668e-05
7	0xba28c9b3	-0.0006438747
8	0xbd38b804	-0.045097366
9	0xbb8a069f	-0.004212215
10	0xbc4803cd	-0.012207937
11	0x3ceeab50	0.029134423
12	0x3ca359df	0.019940315
13	0xbc9df23c	-0.019280545
14	0x3ce6c47a	0.02816986
15	0xbc83b1e2	-0.016076032
16	0x3d37a33d	0.04483341
17	0xbcc457ba	-0.023967613
18	0x00000000	0.0
19	0xbc835799	-0.01603298
20	0xbc334028	-0.010940589
21	0x3ca4282e	0.02003869
22	0x00000000	0.0
23	0xbbcf8937	-0.006333496
24	0x3c554347	0.013016528
25	0x3c810268	0.015748218
26	0x3caaa900	0.020832539
27	0x3bf7c1e3	0.007560955
28	0xbc115e63	-0.008872601
29	0x3b17098e	0.0023046467
30	0xbcc357a8	-0.023845509
31	0x3d728284	0.0592065

actor.2.weight f4 [9, 32]
0	0xbe4a01db	-0.1972727
1	0xbee52cb0	-0.44760656
2	0x3e531120	0.20612001
3	0xbcda06d4	-0.026614584
4	0xbd037f4a	-0.032103814
5	0xbee3c4c6	-0.44486064
6	0x3eae0f19	0.33995894
7	0xbe2e94c5	-0.17048939
8	0x3d7c58bd	0.061608065
9	0x3ed1de92	0.4099012
10	0x3e4d645b	0.20057814
11	0xbee6aca1	-0.4505358
12	0x3e6b9b9f	0.23008583
13	0xbf172da8	-0.5905404
14	0xbe4bf1f4	-0.19916517
15	0xbe2504d0	-0.16115117
16	0x3dcd9fc5	0.10040239
17	0x3d3fb342	0.046801813
18	0x3ce0a0eb	0.027420482
19	0x3ea5609d	0.32300273
20	0x3da380a5	0.07983521
21	0xbdcb0f14	-0.09914985
22	0x3d88dbae	0.066825256
23	0x3e4933d4	0.19648677
24	0xbec9b4ae	-0.3939566
25	0xbdb66bda	-0.0890729
26	0xbec8e892	-0.39239937
27	0xbe1bc610	-0.15212274
28	0x3e2b836f	0.16749357
29	0x3e54a499	0.20765914
30	0x3ebbcd6e	0.36680168
31	0x3b292f6c	0.002581562
32	0x3e3dc16b	0.18530814
33	0xbe097927	-0.13425122
34	0x3e97d0ca	0.2965148
35	0xbd9a587b	-0.075364076
36	0xbdb3dbb3	-0.08782139
37	0xbd10b8cd	-0.03533249
38	0x3eeaf92a	0.45893222
39	0x3e1f30d9	0.15545978
40	0xbd94d478	-0.07267088
41	0xbef5456c	-0.47904527
42	0xbe15a6be	-0.14614388
43	0x3e762709	0.24038328
44	0x3c365c15	0.0111303525
45	0x3c267b8c	0.010161292
46	0x3eb61f45	0.35570732
47	0x3e8cb9d6	0.27485532
48	0xbec1113b	-0.37708458
49	0x3eee7309	0.4657214
50	0xbe801758	-0.2501781
51	0xbdc7d31c	-0.09757063
52	0x3ece9bae	0.4035315
53	0x3e151b75	0.14561255
54	0xba38a74c	-0.0007043972
55	0xbcdc5284	-0.026894815
56	0xbe42e7dc	-0.1903376
57	0x3e5a2d6a	0.21306387
58	0xbde80306	-0.11328702
59	0xbe19bb72	-0.15012911
60	0x3d57d6e9	0.05269519
61	0x3f13cdf2	0.5773612
62	0xbece2b1b	-0.40267262
63	0xbe451c18	-0.19248998
64	0xbdbb68de	-0.09150861
65	0xbf15b3ff	-0.5847778
66	0x3e14cfd1	0.145324
67	0xbddcd53c	-0.10782859
68	0xbe51306f	-0.20428632
69	0x3dc6bbf2	0.097038165
70	0xbf02cf1a	-0.5109726
71	0xbd378fc5	-0.044814844
72	0x3f12f84d	0.57410127
73	0x3de78938	0.11305469
74	0x3c0b924f	0.008518769
75	0x3d989473	0.074501894
76	0xbe06f05f	-0.13177632
77	0xbd2d6bf3	-0.042339277
78	0x3dd0da65	0.101979055
79	0x3c8e0e66	0.01734085
80	0xbeb439eb	-0.35200438
81	0xbe54da59	-0.20786418
82	0xbee25f58	-0.44213367
83	0xbe9145b9	-0.28373507
84	0xbe8c38c6	-0.27387065
85	0x3e93498c	0.2876705
86	0x3e73d842	0.23812965
87	0x3e176776	0.14785561
88	0xbda35636	-0.07975428
89	0xbe9968cb	-0.29962763
90	0x3e2be9aa	0.16788355
91	0xbe2fecd4	-0.17180187
92	0x3eb9a7b7	0.3626077
93	0xbe659d04	-0.22423178
94	0xbe65c4a5	-0.22438295
95	0xbe92268e	-0.2854504
96	0xbd731f1b	-0.059355836
97	0x3d8bb824	0.068222314
98	0xbece8d29	-0.40342072
99	0xbe89df00	-0.26927948
100	0xbea712c9	-0.3263152
101	0x3ecd2b45	0.40072075
102	0xbd0fff8b	-0.035155814
103	0xbd94d7c4	-0.072677165
104	0xbea95e0d	-0.33079568
105	0xbde1f26f	-0.11032569
106	0xbe041372	-0.12898043
107	0xbcd8c2c7	-0.026460065
108	0x3e6e3d30	0.23265529
109	0xbec98a7b	-0.39363465
110	0xbe222539	-0.15834512
111	0xbe1fdd6c	-0.1561181
112	0xbe694330	-0.22779536
113	0xbe1c3598	-0.1525482
114	0x3ddf64e5	0.10907916
115	0xbd486cbb	-0.04893182
116	0xbeca68a7	-0.39532968
117	0x3d7d2fde	0.061813228
118	0x3eaba244	0.33522236
119	0x3e197259	0.14985026
120	0xbdfb837c	-0.12280938
121	0x3ee49b3d	0.44649687
122	0x3e6e7ceb	0.2328984
123	0x3d6b9c6b	0.05752222
124	0x3e80b9ee	0.25141853
125	0x3e5aefc8	0.21380532
126	0xbe8462b7	-0.25856563
127	0x3f085384	0.53252435
128	0xbe2d2495	-0.16908486
129	0xbe98557c	-0.2975272
130	0xbda981d7	-0.08276718
131	0xbdabc994	-0.08388057
132	0x3e28f07a	0.16497985
133	0x3e581b82	0.21104243
134	0xbc65904a	-0.014011452
135	0xbe3b3dc3	-0.18285279
136	0x3de01977	0.10942357
137	0xbeb4592e	-0.3522429
138	0xbeb63a65	-0.35591426
139	0xbe164c95	-0.14677651
140	0x3f39b4b8	0.7254138
141	0x3eb3deac	0.35130823
142	0x3e843799	0.25823668
143	0xbedf0aeb	-0.43563017
144	0x3bce758e	0.0063006347
145	0x3e6693ac	0.2251727
146	0x3e26f181	0.16303064
147	0x3e4c98c0	0.19980145
148	0xbe0e782a	-0.13913026
149	0x3e03186c	0.12802285
150	0xbe56bf64	-0.20971447
151	0xbe0ea50e	-0.13930151
152	0xbe9d96e4	-0.30779183
153	0x3e239022	0.15972951
154	0x3e3c6ea3	0.1840158
155	0xbd9f1af4	-0.07768813
156	0xbda1e286	-0.07904534
157	0xbe88bc07	-0.26705953
158	0x3e3934aa	0.18086496
159	0xbea78044	-0.32715046
160	0x3db3f9d3	0.087878846
161	0x3e256afb	0.16154091
162	0xbe26c28b	-0.1628515
163	0x3e23229b	0.1593117
164	0xbed07914	-0.40717375
165	0xbe973f2b	-0.2954038
166	0xbe9a76df	-0.30168816
167	0x3e50babc	0.20383734
168	0xbd472fd7	-0.048629608
169	0x3e02ee4b	0.12786214
170	0x3c978556	0.018496197
171	0xbd18975e	-0.03725373
172	0xbe76bc61	-0.24095298
173	0xbdf075eb	-0.11741241
174	0x3f046f0e	0.51731956
175	0x3d7d4c0a	0.061840095
176	0xbe4c60fa	-0.19958869
177	0x3e5620dd	0.20910974
178	0xbbcb6f05	-0.006208303
179	0x3e8c5343	0.27407274
180	0xbc64ac47	-0.01395709
181	0x3ed6aa42	0.4192677
182	0x3e8fa2ed	0.2805399
183	0xbe4fa421	-0.20277454
184	0xbe3cf37a	-0.18452254
185	0x3e4726c7	0.19448386
186	0x3f35e161	0.71047026
187	0xbe4741b3	-0.19458656
188	0xbe61115a	-0.21979275
189	0x3e01cf08	0.12676632
190	0x3f1ed35d	0.62041265
191	0xbdd2eebe	-0.10299443
192	0x3e822818	0.25421214
193	0x3cfb355f	0.030665098
194	0x3f24fd6a	0.6444918
195	0xbedaf02c	-0.42761362
196	0x3ce9fc6c	0.028562747
197	0xbf1039ab	-0.56337994
198	0x3e7472c2	0.23871902
199	0xbc7f2399	-0.015572452
200	0xbe273c06	-0.16331491
201	0xbe3f02f4	-0.1865347
202	0x3e154b12	0.14579418
203	0xbdc4e7e1	-0.0961454
204	0x3e9225e8	0.28544545
205	0x3db6a5d2	0.089183465
206	0x3e8a7dc0	0.27049065
207	0xbeaf98d6	-0.34296292
208	0xbdfc4192	-0.12317194
209	0x3e4d3872	0.20041063
210	0x3ca2186d	0.019787038
211	0xbda5b2d0	-0.080907464
212	0xbed15442	-0.40884596
213	0xbe8077d3	-0.2509142
214	0xbccdf1ac	-0.025139652
215	0x3d4528ed	0.048134733
216	0x3ed3006c	0.4121126
217	0xbe8aa8e7	-0.27081987
218	0x3e24541e	0.16047713
219	0x3edf9192	0.4366575
220	0x3e91459d	0.28373423
221	0x3b92422b	0.0044634542
222	0xbc7d7d50	-0.015471771
223	0x3e917d7c	0.2841605
224	0x3d8bae8d	0.06820402
225	0x3dd6a472	0.10480584
226	0xbd26f061	-0.040756587
227	0xbe403b9f	-0.18772744
228	0xbeb11eff	-0.3459396
229	0x3d2789f4	0.040903047
230	0xbe52fb80	-0.20603752
231	0xbe784781	-0.24246027
232	0xbdea9264	-0.11453703
233	0xbe3a04a6	-0.18165836
234	0x3f38880e	0.720826
235	0x3f141783	0.57848376
236	0x3ed9fcfc	0.42575824
237	0x3d7ef1d9	0.062242363
238	0x3e4c9292	0.19977787
239	0xbe7b0234	-0.24512559
240	0x3e31f93a	0.17380229
241	0x3cc5c657	0.024142427
242	0x3e9c704b	0.30554423
243	0xbe9491ec	-0.2901758
244	0x3ebd61b1	0.36988595
245	0xbdb1d1d8	-0.08682603
246	0x3e031f12	0.12804821
247	0x3e0935b5	0.13399394
248	0x3e81f558	0.25382495
249	0xbdc13497	-0.09433859
250	0xbe4f6c6d	-0.20256205
251	0xbec8506f	-0.39123866
252	0xbd2c1043	-0.042007696
253	0x3eabdc34	0.3356644
254	0x3e058cb4	0.13041955
255	0xbe58fa5a	-0.21189252

actor.2.bias f4 [9]
0	0x3c271abd	0.010199246
1	0x3d0d6076	0.03451582
2	0xbc793727	-0.015210903
3	0x3d281215	0.04103287
4	0x3cb39ad3	0.021924412
5	0xbc84084f	-0.016117243
6	0x3d2fad32	0.04288978
7	0x3cd62f68	0.026145652
8	0xbcaffbeb	-0.021482429

critic.0.weight f4 [32, 64]
0	0xbe98959e	-0.2980165
1	0xbe1e3480	-0.15449715
2	0xbc2f4aa7	-0.010698951
3	0xbda25e33	-0.07928123
4	0xbd9fce70	-0.07803047
5	0x3ee1d259	0.44105795
6	0x3e309514	0.17244369
7	0x3e3218d2	0.1739228
8	0x3c8f11d6	0.01746456
9	0xbdd78bc8	-0.10524708
10	0x3dd85cc6	0.1056457
11	0xbd85a5e6	-0.06525783
12	0xbe2bca8b	-0.16776483
13	0xbe0630d6	-0.13104567
14	0xbd1b40d3	-0.037903618
15	0x3eac2611	0.33622792
16	0xbeae189f	-0.3400316
17	0xbe135d6b	-0.14391105
18	0xbb46ce3a	-0.0030335323
19	0xbc5f88b0	-0.013643429
20	0xbaf9ab15	-0.0019048179
21	0xbc1fce41	-0.009753765
22	0x3ce0a7fa	0.027423847
23	0xbeb0ff33	-0.34569702
24	0xbddc4a98	-0.10756415
25	0x3e876abf	0.26448628
26	0x3e6f5487	0.23372088
27	0x3e7f9dc3	0.24962525
28	0x3ecb2eba	0.39684087
29	0x3cd27f7e	0.025695559
30	0xbc6b5b87	-0.014365084
31	0xbcab142a	-0.020883638
32	0x3e20310b	0.15643708
33	0xbea75747	-0.32683775
34	0x3e54ecbf	0.20793436
35	0x3dbd2ade	0.09236692
36	0x3e6f9b5c	0.23399109
37	0x3dcd20af	0.100159995
38	0x3d447e5e	0.047972076
39	0x3cdfa982	0.027302507
40	0x3d19d418	0.037555784
41	0x3e21af0a	0.15789428
42	0xbd56e46d	-0.052463938
43	0xbde215c7	-0.1103931
44	0xbd02f29e	-0.03196966
45	0xbe9b608b	-0.30347094
46	0x3daed02a	0.08535798
47	0x3ebdfc49	0.3710654
48	0x3de954af	0.11393105
49	0xbe671bc9	-0.22569193
50	0x3b082b63	0.0020777814
51	0x3d77fad7	0.060541954
52	0x3e251d84	0.1612454
53	0x3da1148b	0.078652464
54	0xbe1a16e9	-0.15047802
55	0xbe3fbd6f	-0.18724607
56	0x3de5b4d9	0.112161346
57	0xbe6ff742	-0.23434165
58	0xbdc8fd38	-0.09813923
59	0x3d9cbff5	0.076538004
60	0x3ca9154e	0.020640042
61	0xbcce7980	-0.02520442
62	0xbe1d3e22	-0.15355733
63	0xbe37c548	-0.1794635
64	0x3e8535f5	0.26017728
65	0x3e8d331e	0.27578062
66	0x3caf4363	0.021394437
67	0x3e75e163	0.2401176
68	0x3ec96379	0.39333704
69	0x3cbfe452	0.023424301
70	0x3e8e2317	0.27761146
71	0x3e0d0b76	0.13773903
72	0x3ec14bbd	0.37753096
73	0x3d9d5542	0.07682277
74	0xbe66ed34	-0.22551423
75	0xbd50e64d	-0.051000882
76	0x3daa5cd3	0.08318486
77	0xbc87dc73	-0.01658461
78	0x3ddb531c	0.10709211
79	0xbe369c87	-0.17833148
80	0x3e591205	0.2119828
81	0xbe4b578f	-0.1985762
82	0x3e6c487a	0.23074523
83	0xbd946423	-0.07245662
84	0x3eba64ca	0.3640502
85	0x3e3f6519	0.1869091
86	0x3e0fd38f	0.14045547
87	0x3ea485fd	0.32133475
88	0x3e975a70	0.29561186
89	0x3c0909ba	0.008364135
90	0x3e200ebf	0.15630625
91	0x3e7021d2	0.23450401
92	0x3e110efe	0.14165875
93	0x3beafe15	0.007171402
94	0x3ee5376d	0.4476885
95	0x3ef04079	0.4692419
96	0x3e205e1f	0.15660904
97	0xbdc45b63	-0.09587743
98	0xbb9cd90b	-0.0047866157
99	0x3e6c8196	0.23096308
100	0xbde31b5f	-0.11089205
101	0x3e5ad72c	0.21371144
102	0x3ec61aa7	0.3869221
103	0x3ea10821	0.31451514
104	0x3cf9e45a	0.030504394
105	0x3e217c11	0.15769984
106	0xbed7a785	-0.42119995
107	0x3c22f084	0.009945039
108	0x3e4bc67b	0.19899933
109	0x3e43b5a3	0.19112258
110	0x3e0a0231	0.13477398
111	0x3e3fcfef	0.18731664
112	0x3c111efd	0.008857486
113	0x3e5dd58f	0.21663497
114	0xbdc01070	-0.09378135
115	0xbdcfa2cb	-0.10138472
116	0x3e81700b	0.25280795
117	0x3dea36bf	0.11436223
118	0xbe7c977b	-0.2466716
119	0xbebeaa34	-0.3723923
120	0xbd8c70cf	-0.06857454
121	0xbd280b86	-0.041026615
122	0xbe0f7b95	-0.14011987
123	0xbe955054	-0.29162848
124	0x3ee6d2bd	0.45082656
125	0xbca88d5e	-0.020575222
126	0x3e5e200a	0.2169191
127	0x3eb1918b	0.34681353
128	0x3c57fead	0.013183278
129	0xbded3be5	-0.115836896
130	0xbe35fe2a	-0.17772737
131	0x3ea93569	0.3304856
132	0x3e064888	0.13113606
133	0x3decc6ba	0.115613416
134	0x3dcb0aea	0.09914191
135	0x3d80c261	0.06287075
136	0xbe43b871	-0.19113328
137	0xbdd2fcab	-0.10302099
138	0xbeed3e83	-0.46336755
139	0x3cc0f635	0.0235549
140	0xbd10cd69	-0.035352144
141	0x3ecd3c5d	0.40085116
142	0x3d8563d6	0.06513183
143	0xbcdb4b4c	-0.026769303
144	0x3da90740	0.08253336
145	0x3e374616	0.1789783
146	0xbea843f6	-0.3286435
147	0x3e6c95f5	0.23104079
148	0xbeb455e2	-0.35221773
149	0x3c25a942	0.010111155
150	0x3dcf8397	0.10132521
151	0xbdc9c20f	-0.09851467
152	0xbeaad288	-0.33363748
153	0x3d1ec972	0.038766332
154	0xbe468afb	-0.19388954
155	0x3d261b8d	0.04055362
156	0xbdbed053	-0.093170784
157	0xbd39f62d	-0.045400787
158	0xbdf51e19	-0.11968631
159	0xbe4e29bf	-0.20133112
160	0x3d961cf7	0.07329743
161	0x3e6f85c2	0.23390868
162	0xbe58f144	-0.21185786
163	0x3dfe544e	0.124184236
164	0x3de351dc	0.11099598
165	0x3e0cdcf1	0.13756157
166	0xbcdd1c4e	-0.026991036
167	0x3d843d08	0.06456953
168	0xbe2d41b8	-0.16919601
169	0x3e921798	0.28533626
170	0xbe43b34f	-0.1911137
171	0xbe2bf056	-0.167909
172	0x3dcbd0de	0.09951948
173	0x3d59164a	0.052999772
174	0x3e2b9131	0.16754605
175	0x3e741336	0.23835453
176	0x3d9e0ac3	0.077168964
177	0xbe1c3553	-0.15254717
178	0x3e6dff89	0.2324201
179	0x3def54e1	0.11686111
180	0xbd073dd9	-0.033017967
181	0xbe25def1	-0.16198327
182	0xbedc3c30	-0.4301467
183	0x3db4affd	0.088226296
184	0x3e1a3032	0.15057448
185	0xbd22d551	-0.039754216
186	0xbc770df7	-0.015079013
187	0xbe1b414d	-0.15161629
188	0xbe613d45	-0.21996029
189	0xbe1f29b0	-0.15543246
190	0x3ec6ee97	0.38853905
191	0x3dcf6d94	0.10128322
192	0xbda643b8	-0.08118385
193	0x3e183c5e	0.14866778
194	0xbd820748	-0.06349045
195	0xbe52d6b8	-0.20589721
196	0xbdf9e13a	-0.12201162
197	0x3d946b4c	0.07247028
198	0xbd7eeaed	-0.06223576
199	0x3e0c8990	0.13724351
200	0x3dc63a4a	0.096790865
201	0xbe2988d2	-0.16556099
202	0x3e44ccab	0.192187
203	0xbe143a19	-0.14475287
204	0xbe8f0ec2	-0.27940947
205	0x3e7599a8	0.23984396
206	0xbe89ed3c	-0.26938808
207	0x3cb13196	0.02163009
208	0xbe370320	-0.17872286
209	0x3f019455	0.5061696
210	0x3e3440f0	0.17602897
211	0x3df313d3	0.118690155
212	0x3df67d22	0.12035586
213	0x3bec3a90	0.0072091296
214	0x3e2033c7	0.15644751
215	0x3e524cf5	0.2053717
216	0xbcb9ea8c	-0.022694848
217	0xbe7247a6	-0.23660144
218	0xbe9f7a84	-0.3114816
219	0x3e3cece2	0.18449739
220	0x3ebf39d3	0.37348804
221	0x3c33283a	0.010934884
222	0x3e96374f	0.29339072
223	0xbe2042b0	-0.1565044
224	0x3de16d39	0.11007161
225	0x3e4b060c	0.19826525
226	0x3eb99204	0.36244214
227	0xbe63ce29	-0.22246613
228	0x3ec54cd8	0.3853519
229	0x3c115ac4	0.008871738
230	0xbdd9ef3c	-0.106413335
231	0x3d919dcd	0.07110176
232	0x3d96298c	0.07332143
233	0x3c9f8477	0.019472344
234	0xbe1461ae	-0.14490387
235	0xbe62b127	-0.22137891
236	0xbdaa1008	-0.08303839
237	0xbdd89629	-0.10575516
238	0x3d6224a7	0.055210736
239	0xbe453391	-0.19257952
240	0x3c5356f2	0.012899147
241	0x3e0539f2	0.13010386
242	0xbd97eb03	-0.07417872
243	0xbe38563a	-0.18001643
244	0xbda7ccbf	-0.08193349
245	0x3ada2421	0.0016642847
246	0x3d445add	0.047938216
247	0x3d6a1f84	0.057158962
248	0xbe328ed0	-0.17437291
249	0x3d30b3a9	0.043140087
250	0x3eef7486	0.46768588
251	0xbe8e1a43	-0.2775441
252	0xbe2a7dce	-0.16649553
253	0x3df3a6ed	0.11897073
254	0xbe1a0d94	-0.15044242
255	0x3e5232d1	0.20527197
