logs/base_env_20250602_173828/checkpoint_episode_2700.pt (torch, 603227 bytes, 39 tensors)

shared_net.0.weight f4 [128, 30]
000000 1a 5d 14 3d a8 70 6b ba 7d 3c 5e be 35 46 69 3e
       0.0362216 -0.00089813257 -0.21702762 0.22780688
000010 84 59 a3 3d e9 47 27 3e f3 42 b1 3c 2e 21 43 3e
       0.07976058 0.16336025 0.02163837 0.19055626
000020 70 40 3d be 45 10 5c 3d 98 4f b0 3d fa fa 81 be
       -0.18481612 0.053726453 0.08608931 -0.25386792
000030 0a 6f 7c be 5d 41 b6 bd 15 da d7 3d bb 95 21 3e
       -0.24651733 -0.08899186 0.10539643 0.15779774
000040 c1 04 e5 bd 82 c1 a2 bd d2 e8 ad bd bb 41 80 bd
       -0.11182547 -0.07947065 -0.084916726 -0.06262537
000050 7d 12 1a be c4 14 09 bc 0b d4 75 3e c2 f1 2d bd
       -0.15046115 -0.008366767 0.24006669 -0.042466886
000060 8c 41 47 be 68 ad 6b be af fe 03 be e4 d4 60 3d
       -0.19458598 -0.23015368 -0.12890123 0.05489053
000070 fd 87 9c be 9a 82 c1 bd 36 c1 50 3c 14 1f 1b 3d
       -0.305725 -0.094487384 0.012741378 0.037871435
000080 d6 d4 92 3d 10 4f 91 3d c6 a4 4d be 4a d2 11 be
       0.071695015 0.07095158 -0.20082387 -0.14240375
000090 9b b8 bc 3d c5 f0 85 be 68 ad c9 be 12 f6 31 3e
       0.09214898 -0.26160255 -0.3939011 0.17379025
0000a0 46 94 bd 3c 8f 7e 7f 3e f1 1b 9e bd 4e 5e 80 be
       0.023141991 0.24950622 -0.07720173 -0.2507195
0000b0 d0 88 cc bd ee fa 8c 3d a0 2b 6b be 1a 17 3e be
       -0.099870324 0.068837985 -0.2296586 -0.185635
0000c0 e2 c6 97 bd cc d2 73 bd 02 b6 06 bd f9 24 07 bd
       -0.07410981 -0.059527203 -0.03288842 -0.032994244
0000d0 30 a2 f8 3d 04 0f 88 bc f4 fa 27 be 88 1c d9 bc
       0.1214031 -0.016608723 -0.16404325 -0.026502863
0000e0 e0 e9 4a bd 04 49 bb 3d 0c ee 1a be 48 b0 f8 bd
       -0.049539447 0.09144786 -0.1512987 -0.12142998
0000f0 79 c1 3b be 5b 1a 06 3c 91 2f 03 3e 36 c6 f4 bd
       -0.18335523 0.008184995 0.12811114 -0.11951868
000100 94 92 92 3d 02 1d a5 3e be b9 66 3e 97 9b 96 3e
       0.07156864 0.32248694 0.22531793 0.2941558
000110 c1 e5 1a be e1 7b 94 bd 70 aa 53 3e 12 c4 47 3d
       -0.15126707 -0.072501905 0.20670485 0.04877097
000120 33 d4 b9 3d 2c 1f 59 3c f5 69 3e bd 7a d4 e3 3e
       0.09073677 0.013252061 -0.046487767 0.44498044
000130 ed f2 e0 bc d0 01 94 bd af 36 07 bd cb 65 b1 3d
       -0.027459586 -0.07226908 -0.033011135 0.086619936
000140 16 9b b2 3d 78 01 0b 3d 92 1b 80 3d 48 89 13 bc
       0.087209865 0.033936948 0.062552586 -0.009004898
000150 26 55 25 3e 00 51 8d 3d b2 6d e4 3d f8 02 84 3c
       0.16145763 0.06900215 0.11153735 0.016114697
000160 5c 6a 61 bd 9a 6d 77 3c 0a cd d2 bd 26 27 37 be
       -0.055033073 0.015101815 -0.10293014 -0.17886028
000170 42 0b e3 3d c8 2c a3 3d d0 af 42 be e0 b4 1d bf
       0.11086132 0.07967526 -0.1901238 -0.6160412
000180 38 87 9b be c2 c6 8e be 5c 03 3b be 52 9c 9f bd
       -0.303766 -0.27886015 -0.18263 -0.077934876
000190 9f 8b cd be 43 36 c9 be 1a a5 df be 87 2a 24 be
       -0.40145585 -0.3929921 -0.4368065 -0.16031848
0001a0 7f be 61 bc 38 e9 9e be 07 4e 8e be b4 dc 1d be
       -0.013778328 -0.31037307 -0.27793905 -0.15416223
0001b0 34 0b ea bc 68 95 b7 bd 8c 69 59 bb cd 11 77 be
       -0.028569795 -0.08964044 -0.0033174483 -0.24127884
0001c0 f9 89 c4 3d 0a ae 19 be df d7 17 3e fc 01 b3 bd
       0.09596629 -0.15007797 0.14828442 -0.08740613
0001d0 89 a9 c5 3d 2e 5b 11 3b e7 04 d8 3c d7 78 b2 b9
       0.09651477 0.0022179591 0.026369525 -0.00034040838
0001e0 b4 fe 83 bd c3 f9 13 be 5e 28 e0 bd 27 e5 6e be
       -0.06445065 -0.14450745 -0.109451994 -0.23329602
0001f0 34 72 3d 3d 35 ea 5e 3e 8e 3e aa 3d ca 65 5b 3e
       0.04625149 0.2176903 0.083127126 0.21425548
000200 f4 19 e2 3d 52 10 74 bd 14 fe d2 bc 70 2a 04 3c
       0.110401064 -0.059585877 -0.02575592 0.0080667585
000210 db a8 09 bd 5d b0 dc bd 16 8f 1d 3e 2e 87 20 bd
       -0.0336083 -0.10775826 0.15386614 -0.039191417
000220 8b 4f 23 3e 4c a4 73 be 91 1b b6 bd 4f de d1 3b
       0.15948312 -0.23793143 -0.088919766 0.006404675
000230 df 56 e1 3d bf fc 9d bd f9 95 85 3d 3d c6 49 be
       0.110028975 -0.07714223 0.06522746 -0.19704528
000240 70 12 ea 3d 71 0e 4f 3e a3 40 d7 bd 72 08 36 be
       0.11429298 0.20220353 -0.10510375 -0.17776659
000250 f2 16 79 be 82 c8 23 3d a9 a1 1c 3d d0 3e 94 3c
       -0.24325159 0.03998614 0.03824011 0.018096358
000260 2c 1f 96 bf 5b 4b 80 3d d8 50 10 bd 04 ee 0a be
       -1.1728263 0.06264373 -0.03523335 -0.13567358
000270 18 d5 6b 3d 9d bc df 3c de b0 2e be 95 c5 4c bd
       0.05757627 0.027311618 -0.17059657 -0.049993116
000280 c7 ad 87 bd b8 b1 03 bd 82 5b a6 3c e9 7a c8 3d
       -0.06624942 -0.032151908 0.020307306 0.09789068
000290 ed 76 de bd c7 5c da 3d 85 5a 0d 3e f5 3e 13 bb
       -0.10862527 0.10662227 0.13804062 -0.0022467945
0002a0 3d 96 75 3e 0b 72 82 be 67 1b a1 3b 13 db 94 3d
       0.23983093 -0.25477633 0.0049165967 0.072683476
0002b0 94 0d a5 bc e1 3d 18 3e 13 c2 5a be a2 96 38 be
       -0.020148076 0.14867355 -0.21363096 -0.18026212
0002c0 fd a9 4a 3d 5e 2e 3e be e2 21 1a 3e f2 8b 77 be
       0.04947852 -0.18572375 0.15051988 -0.24174479
0002d0 c4 46 1a be 7c fd 3d 3e 71 71 1a bf 2b 2a 8b bc
       -0.15066057 0.18553728 -0.6032935 -0.01698788
0002e0 45 82 f2 bc 00 8e 0f bd 58 9c 0e be 57 41 0f 3e
       -0.029603133 -0.03504753 -0.13926828 0.13989769
0002f0 cd 77 9e 3e b8 5d f9 3d c6 83 3f 3d 47 b2 0d 3d
       0.30950776 0.121760786 0.04675653 0.034593847
000300 1f 29 12 bc 7d bd 8e 3d fa b3 17 3e df c5 91 3d
       -0.008920937 0.06969736 0.1481475 0.07117819
000310 a2 8e a4 3d a4 4d fe bd 35 c6 fb ba 81 68 a3 3c
       0.080350175 -0.124171525 -0.001920885 0.019947292
000320 8c 34 a4 bd 42 14 41 be 49 ef d1 3d c3 7a 81 3d
       -0.08017835 -0.18855384 0.10250718 0.06322243
000330 44 3e e6 bd 0d 22 41 bd f9 c1 04 3e 42 5f ca bd
       -0.11242345 -0.047151614 0.1296462 -0.0988145
000340 a0 e3 1a 3e 95 45 ec bd bf d6 ab bd 4c 3c c3 3c
       0.15125895 -0.11536709 -0.08390569 0.023832463
000350 81 57 cd bd 33 55 ff 3d e5 6a 9d 3d 0b db 57 bd
       -0.10026456 0.12467422 0.07686404 -0.05269913
000360 70 b8 fd 3d 45 1e 04 3e 7a b3 35 3e b2 b6 71 3e
       0.12388694 0.12902172 0.17744246 0.23604849
000370 f2 5a 56 be 8f 4b 2c bb 32 cd e7 3d fb 67 3f be
       -0.2093313 -0.0026290154 0.11318435 -0.18692009
000380 a5 53 7a 3d 40 48 d4 bd 16 e9 47 be f6 a8 01 bd
       0.061114926 -0.10365343 -0.19522509 -0.031655274
000390 97 7c dc 3d 8e 85 7c 3e fe d5 50 bd 9e 05 32 be
       0.10765951 0.24660322 -0.05098533 -0.17384955
0003a0 81 10 af bd ff 39 a6 3e 33 62 7f 3e 29 92 16 be
       -0.0854807 0.32466123 0.24939804 -0.14704193
0003b0 4c aa d1 be aa 0b 2a be 11 5e 2a 3e 61 55 95 bc
       -0.4095024 -0.16606012 0.16637446 -0.018229188
0003c0 8f 76 dd bd 8d 85 68 bb c6 db 0d 3e 82 6a 86 3d
       -0.10813629 -0.0035479993 0.13853368 0.065632835
0003d0 27 ac 3b bd 6d ca 9a be db 5b d2 bd 86 a3 46 bc
       -0.045818474 -0.30232564 -0.10271426 -0.012123948
0003e0 f0 8c 45 3e 94 16 82 3e 47 ca 36 be 31 9b a8 be
       0.19292045 0.2540785 -0.178506 -0.32930902
0003f0 bb a6 a9 be ea 62 b2 bd 29 94 7f 3e bc 13 af be
       -0.33135018 -0.087102726 0.24958862 -0.34194744

shared_net.0.bias f4 [128]
000000 e3 65 41 bc f5 8f 20 3d 4c 13 84 3c 69 95 1e 3e
       -0.011804077 0.039199788 0.016122483 0.15486683
000010 00 00 00 00 61 9e c6 3d 2f a1 e6 3d 43 cc 0c 3d
       0.0 0.09698177 0.11261212 0.034374487
000020 32 37 5f 3d a5 c4 63 3d 4e dc c6 3d eb 43 6e bc
       0.054495998 0.055607457 0.097099885 -0.01454256
000030 d2 50 19 3e b3 ac 90 3d 58 0c b3 3d ce d1 10 3c
       0.14972237 0.0706419 0.08742589 0.008839084
000040 89 25 57 3e 30 62 1f 3c e9 fb 63 3d f0 ad c2 3d
       0.21010412 0.009728 0.055660162 0.09505832
000050 f0 db bc bd 01 fe bf 3d a1 b8 81 3a 3b b2 0d bd
       -0.09221637 0.09374619 0.0009896943 -0.034593802
000060 34 5c d8 bd 2b 40 82 3d 91 c4 5b bc a0 5a d0 3d
       -0.10564461 0.06359895 -0.013413564 0.10173535
000070 3b 31 11 bc 7f df 4f bd 79 5a 13 3d 78 de ca 3d
       -0.008861835 -0.05075025 0.035974953 0.09905714
000080 1f 0a 3e 3d 6e b7 2b bd 95 dd 5a 3d 04 e6 54 bd
       0.04639637 -0.04192298 0.053433973 -0.051977172
000090 c5 de 0a bc 1e 3d 7c 3d 45 77 1f bd b8 ca b2 3d
       -0.008475964 0.061581723 -0.038932104 0.08730072
0000a0 00 00 00 00 c3 a5 e8 bc c1 63 af bd 09 de 56 3c
       0.0 -0.028399354 -0.085639484 0.013114461
0000b0 01 47 60 3d 6f 7f 1a 3d 00 09 84 3d 05 f6 23 3d
       0.054755215 0.037719186 0.06447029 0.040029544
0000c0 72 04 22 bc 03 03 df bd 9a 7f 98 3d 3a 41 d4 3c
       -0.009888755 -0.10889246 0.07446213 0.025910009
0000d0 2a a7 f1 3d 8a a0 06 3d bf 0f 08 bc 96 7e 40 3c
       0.11799462 0.032867946 -0.008304535 0.01174893
0000e0 2c 51 8c bd a4 b2 45 3d cb 40 46 3e 1b 65 5a bd
       -0.0685142 0.048266068 0.19360654 -0.053319078
0000f0 65 50 1e 3d ba ed 0a 3e d1 68 29 3d 35 b7 e4 bc
       0.03865089 0.13567248 0.041359726 -0.027919391
000100 b8 15 9c 3d df 05 15 bd 9b fd 0e 3d 55 9e 05 3e
       0.0762133 -0.036382552 0.034909826 0.1304868
000110 75 3c 2f bc e1 36 1a 3d 28 a7 25 bd 5c 71 da ba
       -0.010695566 0.037649993 -0.040442616 -0.0016665864
000120 73 7a ea bb e8 9e f4 3d 28 fc 76 3d ef d5 e9 3d
       -0.0071557104 0.119443715 0.06029907 0.11417758
000130 99 e4 00 bc 05 0c c2 3d 71 7d 1d 3d 6f cf b6 3d
       -0.007867002 0.09474949 0.03844971 0.089262836
000140 7f 6f 3f 3c 4a c9 69 bd 43 dd 43 39 2d 30 2b 3e
       0.011684298 -0.05707673 0.00018679076 0.16717596
000150 ff 55 20 bc 82 3c 95 3d b4 c5 8b 3d 65 3c d7 3d
       -0.009786128 0.072869316 0.06824818 0.10509566
000160 dd 57 82 3d 72 76 65 bd ff df 00 3c 1d 81 60 3d
       0.06364415 -0.05602116 0.007865905 0.054810632
000170 a0 d1 ba 3d e0 4b bc 3d 6a de 03 bd 3f ea f2 bb
       0.09122014 0.091941595 -0.032194532 -0.007413178
000180 42 10 8e 3d ec 2c f3 3d 0f c3 37 bc fa ff 9a 3d
       0.06936695 0.118738025 -0.011215939 0.07568355
000190 00 00 00 00 66 3b 2f 3d 8d 10 55 bc e9 d7 a0 3d
       0.0 0.042781256 -0.013004434 0.078536816
0001a0 a8 93 47 3d e7 0d 07 3d 28 cc 91 3d 84 51 3b 3d
       0.0487248 0.032972243 0.07119018 0.045732036
0001b0 3f 3f c1 3b 8e 5c 59 3d ae 5b 48 3c 00 00 00 00
       0.005897432 0.053066783 0.012228889 0.0
0001c0 95 10 a9 bd 6c dd a7 3d b1 79 e6 3d d7 b7 04 bc
       -0.08255116 0.0819653 0.112536795 -0.008100471
0001d0 55 11 c7 bc 72 ee da 3c 71 34 ed 3d e9 a2 44 3d
       -0.024300257 0.026725028 0.11582268 0.048006926
0001e0 de 2d 66 bd 66 a5 f3 3d 57 4e bc 3d 29 fb 5f bd
       -0.056196086 0.118967816 0.0919463 -0.054682884
0001f0 07 35 ca 3d 11 7f 3d 3d 89 ed 85 3d 88 dd 01 be
       0.098733954 0.046263758 0.06539447 -0.12682164

shared_net.2.weight f4 [128, 128]
000000 dd 11 cb 3d f8 8e 67 bc 58 de 92 3d c3 da 20 be
       0.099155165 -0.0141332075 0.07171315 -0.15708451
000010 e7 d4 bc bd 36 64 14 bf 6b 03 bd bc 5c 16 30 3e
       -0.092202954 -0.5796541 -0.023072919 0.1719603
000020 cd 9c 7a 3e 65 0b c9 3e 7f c7 58 3c 12 5f 1e 3e
       0.24473877 0.39266506 0.013231157 0.15465954
000030 14 48 94 bd 8e 1c 44 be 67 c0 b0 bd 00 87 c0 bd
       -0.0724031 -0.19151518 -0.08630448 -0.09400749
000040 65 64 c5 3d f6 90 36 3e c4 c5 b3 be 6a e2 08 be
       0.09638289 0.17828736 -0.3511182 -0.1336762
000050 b7 81 ad bd 95 e7 39 3e 50 52 80 bd e5 21 dc bc
       -0.08472007 0.18154748 -0.062657 -0.02687163
000060 37 d8 55 be ea 1b 6e be 00 9b d3 bd 18 3e 11 bf
       -0.2088326 -0.23252836 -0.10332298 -0.5673537
000070 bc 82 b3 3d f5 2e 25 be c6 47 32 bc c1 be d5 3c
       0.0876517 -0.16131194 -0.01088137 0.026091935
000080 71 10 83 bd 48 1d 8c bc c0 67 2a 3d 10 66 c1 3d
       -0.0639962 -0.017103806 0.04160285 0.09443295
000090 df e7 fe 3d a2 ae 88 be 99 5b c5 3d 75 de f2 bd
       0.1244657 -0.26695734 0.096366115 -0.118588366
0000a0 28 82 42 3c 75 19 9f bd 1e 8d 86 3d 80 3d f1 3d
       0.011871852 -0.077685274 0.06569885 0.11779308
0000b0 d4 b0 a6 3c 28 6c e3 3d 9f 47 fc bd bc e5 17 3e
       0.02034799 0.111046135 -0.12318348 0.1483373
0000c0 6d 3e 7e 3e 80 8a 30 be 35 ad 64 be 4a aa 39 be
       0.24828501 -0.17240334 -0.22331698 -0.18131366
0000d0 8e f6 d2 3c 3a ba 66 be 31 5c 6d bd 93 90 6e 3e
       0.025752332 -0.22531977 -0.05794925 0.23297338
0000e0 9c 7e 4c 3e 3e 00 80 3d 7d ed 44 bd 98 d9 ee bd
       0.19970173 0.06250046 -0.04807805 -0.116625965
0000f0 ec 0d 07 be 0a a5 bd 3d 6c d9 a1 bb 71 09 e6 3d
       -0.13188905 0.09259994 -0.004939249 0.112322696
000100 05 b2 d1 bb f7 71 97 3e ab f5 f2 bd 0e 30 28 3e
       -0.0063993954 0.29579136 -0.11863264 0.16424581
000110 f3 3b 4f be fc e4 29 3d 5f 8b ec 3d 6b 2f ac bd
       -0.20237713 0.041478142 0.115500204 -0.08407482
000120 74 12 e9 3d a6 d0 d4 3c 0e da 82 3d 44 db ef 3d
       0.11380473 0.025978398 0.06389247 0.117117435
000130 85 bc cb bc 3e 63 47 3e 11 25 71 3e 86 cd 2c bc
       -0.024870167 0.19471452 0.23549296 -0.0105470475
000140 96 88 09 bd 9b 0f 4e bd d1 9c 44 be 3a 8f 86 3c
       -0.033577524 -0.05030785 -0.19200446 0.016425718
000150 1a dd e7 3d be 89 8a bd e7 a7 e9 bd 56 e1 8e 3d
       0.11321469 -0.067645535 -0.11408978 0.06976573
000160 22 79 e1 bd 91 cf 79 bc 32 96 aa bc 42 be 21 3e
       -0.110094324 -0.015247242 -0.020823572 0.15795234
000170 d2 58 31 be b7 7d a2 3d 76 d5 4b bd 91 e9 8c be
       -0.17319039 0.079341345 -0.04976412 -0.27521947
000180 7e 46 13 3e f7 09 97 3e 24 e2 f2 bd 9e e6 81 3d
       0.1438236 0.2949979 -0.11859539 0.06342815
000190 4f d6 b1 bd 97 a1 55 be d9 fe ad 3d f3 be 26 3c
       -0.08683454 -0.20862423 0.08495874 0.010177362
0001a0 3f 47 73 bd 6e 6a a8 3d 72 07 bb 3d 90 c2 90 3d
       -0.059394117 0.08223425 0.091322795 0.0706836
0001b0 76 cc bb 3e a0 94 19 3e 76 e6 43 3c a8 6c 1d 3c
       0.3667943 0.14998102 0.011956802 0.009608425
0001c0 95 64 cd bc 96 58 01 3d 2b 66 3d 3e ec 04 45 be
       -0.025072375 0.031578623 0.18496005 -0.19240159
0001d0 54 d8 8e 3e 21 aa 1c be b6 46 e8 bb 11 a3 52 bd
       0.2789942 -0.15299274 -0.0070885075 -0.051425043
0001e0 5f c4 aa be a9 ca f5 bd c6 80 ad be 62 e0 11 be
       -0.33352944 -0.12001545 -0.3388731 -0.14245752
0001f0 db 28 05 bf 54 f4 12 be 95 0e ba bc d3 e5 0f be
       -0.52015465 -0.14351016 -0.022712031 -0.14052515
000200 75 45 d3 3c 56 f2 fd 3c a8 0e 37 bd a8 70 2b 3e
       0.025789956 0.030999344 -0.04469171 0.16742194
000210 3d c5 0e bd 5a 9b 0f bf 4e 03 8b 3d 9b d0 5a be
       -0.03485607 -0.5609642 0.0678774 -0.21368639
000220 16 d5 0f 3e 44 39 aa 3d 0e 84 f5 bd c4 0b 95 3e
       0.1404613 0.08311704 -0.11988078 0.2911054
000230 e6 1d 82 bd 13 70 80 be df 40 f8 bd d7 da c1 3d
       -0.06353359 -0.25085506 -0.12121748 0.094655685
000240 78 d2 9a bd 13 69 7a 3d 5a 0b da 3c 66 2f 1b 3c
       -0.07559675 0.061135363 0.026616741 0.00947175
000250 c5 b0 c7 bd 90 43 0e be 11 51 50 be 38 97 a2 3d
       -0.09750513 -0.1389296 -0.20343424 0.07938999
000260 88 64 8f 3d 6e bc bf 3d 26 c0 2b 3e 3f c2 0b bf
       0.07001597 0.09362112 0.16772518 -0.5459327
000270 07 42 60 be 84 5e bc bd 98 73 ab be 62 52 6a 3d
       -0.21900187 -0.09197715 -0.3348663 0.057207473
000280 03 2f 88 bd ef e9 af be 86 21 01 3e 19 e6 80 bc
       -0.06649592 -0.34358165 0.12610444 -0.01573472
000290 78 5e 70 3e 33 0c e4 bd 95 19 6e 3d 26 fc 39 be
       0.23473537 -0.11135139 0.058129866 -0.18162593
0002a0 42 54 c2 3c 67 24 81 bc bc 76 21 be 68 db 18 be
       0.023721818 -0.015764428 -0.1576795 -0.14927447
0002b0 76 0c 98 3d 1c 27 8c 3e e2 68 0b be 88 79 97 3d
       0.07424252 0.27373588 -0.13614228 0.07396227
0002c0 ad 76 c3 bc f6 05 7f 3d 5b 4c dd be 3b 63 28 3e
       -0.0238603 0.062261544 -0.43222317 0.16444103
0002d0 2a 96 86 bd a3 05 bd bd 3d f2 64 3e 03 0b 55 3e
       -0.0657161 -0.09229591 0.22358032 0.20804982
0002e0 d0 ea c0 bd c2 74 df 3d 7c c2 ae bd da aa 83 3e
       -0.09419787 0.10910942 -0.08533189 0.25716287
0002f0 a9 ca df be 0e 39 39 bd 68 3e a5 3d 22 e8 f6 3a
       -0.43709305 -0.045220427 0.08068544 0.0018837492
000300 61 62 32 3e e1 43 96 bd 89 80 bd bd 42 9f fe 3d
       0.17420341 -0.073371656 -0.09253032 0.1243272
000310 38 8e 91 be 86 7d 0f 3d 9d cb 8c 3e b2 6e 13 be
       -0.28428817 0.035031818 0.27499095 -0.14397696
000320 04 f3 5d 3d 38 e1 b0 bc 05 8b f5 3d 0f 06 d5 bc
       0.054186836 -0.021591768 0.119894065 -0.026003866
000330 8a 35 73 bd e4 a2 05 bd 2d b3 cd 3d b5 da 44 be
       -0.05937723 -0.032626048 0.10043941 -0.19224055
000340 35 2a fd 3d 46 9f 19 3e c5 93 48 3e 17 77 1c 3e
       0.12361566 0.15002164 0.1958762 0.15279804
000350 1c 0e bb 3d a4 d0 8c 3c 6a d4 1f be 99 47 65 3c
       0.091335505 0.017189331 -0.15608373 0.013994121
000360 01 1d 8f 3e 95 73 48 be b4 a2 b7 bd 58 20 96 3d
       0.27951816 -0.19575341 -0.0896658 0.07330388
000370 56 7c 69 be 5b a1 cc 3c 83 78 18 be 81 98 40 bd
       -0.22801337 0.024979284 -0.14889722 -0.04702044
000380 cf 4f db 3d 08 b2 8e bc f8 14 b6 3d a6 d1 e4 bd
       0.10708582 -0.017418876 0.08890718 -0.111728
000390 c8 bf 38 3e 3b d9 6a 3c c3 26 15 3e 02 ff 35 3d
       0.18041909 0.014334018 0.14565568 0.044432648
0003a0 ca 0c 27 be 05 b2 24 be 62 df f8 3d 7b 9d 8e 3e
       -0.16313472 -0.16083534 0.12151982 0.27854523
0003b0 9b 1a 15 3e 9f 81 90 3e e5 e3 94 3e f0 90 aa bd
       0.1456093 0.28223893 0.2908012 -0.08328426
0003c0 7e f2 ce 3d 91 4e 51 3c b5 f4 a5 3d 0a 2e 75 3e
       0.101048455 0.012775079 0.08103315 0.23943344
0003d0 51 2a 93 bc 39 90 4f bd 64 7c 7a 3d be e9 a1 3d
       -0.017964514 -0.05067465 0.061153784 0.07905911
0003e0 1c be 80 3d a5 4e f2 3c f2 9f 22 bf 59 fb f4 3d
       0.062862605 0.029578516 -0.6352531 0.11962003
0003f0 74 dd e6 be 39 42 13 3e 99 4b 93 bd 46 09 b8 bd
       -0.4509083 0.1438073 -0.071921535 -0.08986144

shared_net.2.bias f4 [128]
000000 d3 7b 99 3d a5 40 f8 3d 05 75 8f 3d e0 fd f3 3c
       0.07494321 0.12121705 0.070047416 0.029784143
000010 98 d2 bf 3c 67 e8 c5 3c 9d 5f 26 3e c8 9a 3a bb
       0.023415849 0.02415867 0.16247411 -0.0028473604
000020 fb ba 2d bb 9f 12 25 bd a0 65 02 3e 49 2c 02 bc
       -0.0026509154 -0.04030096 0.1273408 -0.007945129
000030 b7 2d c8 3c 90 b0 33 bc 33 81 cc bc 9a c2 0e 3d
       0.024435861 -0.010967389 -0.02496395 0.034853555
000040 ba f0 5c 3c 4c 8c d0 bd 4f e9 d4 3d f6 7d 05 bd
       0.013485128 -0.101830095 0.103960626 -0.03259083
000050 83 3f cd 3b f4 18 cb 3d d3 f7 38 3e 5d 39 0d 3e
       0.0062636747 0.09916869 0.18063287 0.13791414
000060 8d e7 f6 3d 64 52 d7 3c 69 59 0a 3e e4 19 17 3e
       0.120558836 0.026284404 0.1351067 0.1475597
000070 98 fa 3f 3e df 33 05 3e 38 dc f5 bb ff 10 8b 3c
       0.18747938 0.13008069 -0.0075030588 0.016975878
000080 7a cf 2b 3e 00 00 00 00 6a c2 40 3c c8 b3 d6 bc
       0.16778365 0.0 0.011765102 -0.026208773
000090 56 e2 38 3e 44 e0 b7 3c 54 05 5b 3a f6 ff 5b 3b
       0.1805509 0.022445805 0.0008354981 0.0033569313
0000a0 a7 40 3f bb 5e c7 21 3b 41 93 b7 bb da 91 f9 3d
       -0.0029182823 0.0024685482 -0.005602271 0.12186022
0000b0 63 18 dc 3c 3d 48 30 3e bf ab 36 3e 63 fe 37 bd
       0.026867097 0.17215057 0.17838953 -0.044920336
0000c0 d0 c5 f2 bb c4 53 27 3d 1c ef 54 bd 74 bc 0c 3e
       -0.007408835 0.04085137 -0.051985845 0.13743764
0000d0 3d 80 64 3d 5e ee 07 3d fa 32 0d 3d 22 4d 1f bd
       0.05578636 0.03318631 0.034472443 -0.03889192
0000e0 db 74 97 3c f9 24 12 3e 77 38 e9 bc 9b 57 09 3e
       0.018488338 0.14271916 -0.028469307 0.13412325
0000f0 11 cc d1 3d 28 2b 15 3e 05 98 5c bc 25 b5 8b bd
       0.10244001 0.14567244 -0.013463979 -0.0682166
000100 93 63 16 bd a0 52 e2 3b 0b 33 cf 3d f3 d2 bf 3d
       -0.036716055 0.0069068223 0.101171575 0.09366407
000110 f8 47 bd bc 16 95 10 3e 37 e5 80 3d 00 00 00 00
       -0.023105606 0.14119372 0.06293719 0.0
000120 f7 0c e1 3c 23 80 53 3d fa b0 5d 3b 30 5f 60 3b
       0.027472002 0.051635873 0.003382741 0.0034236424
000130 a0 85 42 3c 49 aa 26 3c f1 0f c4 3b c6 97 1c 3d
       0.011872679 0.010172435 0.0059833457 0.03823068
000140 5d 33 28 3d 2f 1a 9c 3c ae ac 6e 3b 3d a8 2a bc
       0.04106461 0.019055454 0.0036418843 -0.010416088
000150 b4 ac ad bd fa 02 97 3d 2e f2 1b 3e 28 f2 d5 3c
       -0.08480206 0.073736146 0.15229103 0.026116446
000160 14 89 48 3d 83 eb be 3d 22 28 a3 bc 90 57 93 bc
       0.048958853 0.09322264 -0.019916598 -0.017986089
000170 93 14 18 3b 93 3d a2 3d aa 07 c8 bc d7 fb 55 bb
       0.0023205623 0.079219006 -0.024417717 -0.003265133
000180 96 c9 08 3c b5 95 0c 3d 5e 9e d4 bc 7d 46 75 3d
       0.008348843 0.03432246 -0.025954422 0.059881676
000190 ab c4 5a bb 2a 49 e3 3d 90 48 01 bd 10 e5 b7 bc
       -0.0033381383 0.11097939 -0.03156334 -0.022448093
0001a0 d8 a1 2f 3c 37 1c 1d bd 0c f9 81 3d cf d2 7f bc
       0.010719739 -0.038356986 0.0634633 -0.0156142255
0001b0 f7 69 51 bd ca 2a db bc 4a 5d d3 3c 77 98 ad 3b
       -0.051126447 -0.026753802 0.02580132 0.0052977162
0001c0 5a 71 0f 3e 9e 82 30 3e f7 ce dc bc d3 f1 cc 3d
       0.14008084 0.17237327 -0.026954157 0.10007062
0001d0 af 2d 18 3d 1e b8 05 bc ef f2 8d 3d ae 7e cc 3b
       0.037152942 -0.008161573 0.069311015 0.0062406873
0001e0 4e f7 b9 b9 c6 af ff 3d 4a e2 e0 bc e7 a6 ef b8
       -0.00035470206 0.12484698 -0.027451653 -0.00011427496
0001f0 cf 59 d6 3d 90 36 b2 bc 2e d2 a5 3c 03 59 ac 3d
       0.104663484 -0.021754533 0.020241823 0.08415415

shared_net.4.weight f4 [64, 128]
000000 39 a4 32 3e 13 7f bc 3e 80 69 44 3e bf 21 3d be
       0.17445458 0.368157 0.1918087 -0.18469904
000010 65 92 84 3d c7 68 e1 3d 06 6b 0c be 95 ed 68 be
       0.06473235 0.11006313 -0.13712701 -0.2274688
000020 f0 89 0e 3d 2e 9e 0b bc f5 e3 21 bc fc ac dd 3d
       0.034799516 -0.0085216 -0.009881009 0.1082401
000030 eb 2a 34 3c 96 3b 14 3d 68 31 fc bd 37 61 8b be
       0.010996561 0.036189638 -0.12314111 -0.27222607
000040 d7 48 89 ba 0b a2 53 bd 58 eb cf bd 52 b4 57 bd
       -0.0010473978 -0.051668208 -0.1015231 -0.0526622
000050 c7 e5 67 be c6 83 14 be c0 20 d9 bb 44 7b 79 be
       -0.22646247 -0.14503393 -0.0066262186 -0.24363428
000060 83 f8 dc 3c 6e 7e 20 be a9 88 b5 bd 61 d9 24 be
       0.026973968 -0.15673229 -0.088639565 -0.16098548
000070 b9 4a bd bd 95 fd 29 be f3 fb 09 be 31 f3 49 be
       -0.09242768 -0.1660064 -0.13475017 -0.19721676
000080 ba 05 fc 3d 5e bf f1 bd 3b 82 a5 3d 4e 72 48 3e
       0.1230578 -0.118040785 0.0808148 0.19574854
000090 b3 2a 35 be d2 fd 9b bc 83 61 8b 3d 9c 98 74 be
       -0.1769207 -0.01904193 0.06805708 -0.23886341
0000a0 63 11 cf 3d ea 87 2e be 0e 91 c1 be a6 b3 17 3d
       0.10110738 -0.17044035 -0.3780598 0.03703656
0000b0 a9 e2 d4 ba e7 04 9c bd 2d 78 8e bd a4 f2 4b be
       -0.0016241866 -0.076181225 -0.069565155 -0.19916779
0000c0 61 63 22 bd d0 2e 23 be dd f5 49 bd f8 1e 20 bd
       -0.039645556 -0.15935826 -0.04930674 -0.039092034
0000d0 2b 61 df bd 51 a1 66 be 5a 93 70 3d 4d aa 8b be
       -0.10907205 -0.22522475 0.058734275 -0.27278367
0000e0 0d 75 87 bd 98 8d 05 3e f7 18 eb 3d 3e e8 56 3e
       -0.066141225 0.13042295 0.11479371 0.20987031
0000f0 fd df e1 3d 2e 73 97 3c ff 67 14 3d 5a f7 2d be
       0.110290505 0.01848754 0.03623199 -0.16988888
000100 04 f2 bf bd 22 ea 04 be c9 31 41 be f8 1d 89 3e
       -0.09372333 -0.1297994 -0.18866648 0.26780677
000110 13 b1 b9 3d c3 f5 69 3d d4 2f 7f ba 55 50 3f be
       0.09066977 0.057119142 -0.0009734605 -0.18682988
000120 fb 54 4a bd 41 39 25 be 2d d0 f3 bd 27 f4 85 be
       -0.04939745 -0.16135122 -0.11904941 -0.26162836
000130 b3 76 d8 3d 3c 8e 59 bc df 30 99 bd 60 ad 52 3e
       0.10569515 -0.01327854 -0.074800245 0.2057395
000140 42 6a 99 3d de a8 c8 3d cf 50 97 bc 17 a3 6a 3e
       0.0749097 0.09797834 -0.01847115 0.22913776
000150 11 af ab bc 03 aa 7d be bf 65 0f be 54 d9 b4 3d
       -0.020957502 -0.24771886 -0.14003657 0.088305146
000160 1b 98 7a 3b bc 8a dd bd bf c4 d5 3d 40 4f af bd
       0.0038237635 -0.10817477 0.10437917 -0.085600376
000170 03 13 6f be 1a 65 01 be b1 39 11 bd ef 66 ef be
       -0.23347096 -0.12636223 -0.03545541 -0.4675822
000180 04 36 c6 bd 6b 53 13 3e 97 be 24 3d dc e2 01 be
       -0.096782714 0.1438729 0.040220823 -0.12684196
000190 b0 dd 07 3e c6 83 a9 bd ad 4e a9 be aa e7 01 be
       0.13268161 -0.08277087 -0.33067837 -0.12686029
0001a0 50 8c 93 3d de 8a 6f 3e 15 7d 9b 3d 8c 87 f2 bc
       0.07204497 0.23392817 0.07592217 -0.02960565
0001b0 28 39 70 be df a8 16 3d 57 b9 e0 be 96 6d 59 3d
       -0.23459303 0.03678214 -0.43891403 0.053083025
0001c0 b4 67 92 3d 49 d8 00 3e 65 10 81 3e 52 a5 3d 3d
       0.07148686 0.12582506 0.2520782 0.04630024
0001d0 3d 2a c3 be eb 13 3d be 5d 34 2b 3e c0 ed 6d bd
       -0.38118163 -0.1846463 0.16719194 -0.058088064
0001e0 89 91 a9 bd f8 59 f5 3c a7 48 0b be 7d 29 43 be
       -0.08279712 0.029950127 -0.13601933 -0.19058795
0001f0 d3 4d e9 3d c9 f7 c7 3e 56 0c d2 bd 93 f7 43 3d
       0.11391797 0.39056233 -0.10256259 0.047843527
000200 e6 15 c2 bc 6e a6 e0 3d bd b9 58 3d 6d 6c f3 bd
       -0.023692083 0.10969244 0.05291151 -0.11885915
000210 4d 92 c1 3d 39 92 a5 bc ec c4 a8 3d c6 2a d3 3b
       0.09451733 -0.020211326 0.08240685 0.006444308
000220 e8 c7 1b 3e 21 33 8a be f6 bd b3 3e 09 05 4c 3e
       0.15212977 -0.26992133 0.35105866 0.19923796
000230 35 1f a8 bd e3 a8 7f 3c 75 62 67 3d ec 4a 08 bd
       -0.08209077 0.015604231 0.05649038 -0.033274576
000240 84 16 59 be 38 e0 24 3e fe 78 33 bd 69 8c 00 3e
       -0.21199995 0.16101158 -0.04381656 0.12553562
000250 0f ea d0 3d e8 11 08 3e bd fa 80 bc 24 9e b3 3d
       0.10200893 0.1328808 -0.015744561 0.08770397
000260 73 e1 bd bd fb 4d 44 be 53 d5 9e bd ad c9 ef 3d
       -0.09271517 -0.19170372 -0.07755532 0.117083885
000270 dc e4 ec bc a4 92 16 bc 56 ed 6c be 13 bf f3 bc
       -0.028917722 -0.009190235 -0.23137411 -0.029754197
000280 ce 4f d9 bd 1b 45 bd 3d 57 a9 35 3d e4 1e 2f bd
       -0.10610925 0.092416964 0.04435095 -0.04275407
000290 8a 21 3e 3e ad 59 98 bd 57 1d 1a bc 27 07 0b be
       0.18567482 -0.07438979 -0.009406409 -0.13576947
0002a0 0e 29 a9 be 8f 28 b2 bd 42 7c 30 3d 95 ae cf be
       -0.33039135 -0.08699142 0.04308725 -0.40562883
0002b0 06 0a 58 3d 09 c5 cf bc d8 6f a3 bd e3 8f 1b be
       0.052743934 -0.025362508 -0.07980317 -0.15191607
0002c0 37 00 19 be 90 9e 08 be a0 e4 65 3e 3f 51 6d ba
       -0.14941488 -0.13341737 0.22450495 -0.0009052939
0002d0 26 d4 f6 ba 3f 97 49 3e ee 89 fd 3c a3 5b 51 3e
       -0.0018831536 0.19686602 0.030949559 0.20445113
0002e0 4e 2d 8c be c2 d1 10 be cb 1f 23 bd 6b 59 83 3e
       -0.27378315 -0.14142516 -0.039825242 0.25654158
0002f0 fe de 6d 3e 1e af 8b be 7d d0 74 3d 2c b3 86 3c
       0.23229596 -0.2728204 0.059769142 0.016442858
000300 ad f5 e1 bd 5c c8 ac 3d 3f 9c 42 3c 49 69 63 be
       -0.11033187 0.08436653 0.011878072 -0.22208132
000310 47 41 67 be 3f 84 30 3e 57 59 b1 3e d7 70 50 3e
       -0.22583495 0.17237948 0.34638473 0.20355545
000320 f5 ad 47 3e 2e 44 91 3c cb f8 a7 3c ec 20 23 3c
       0.19499953 0.017732706 0.020504376 0.00995658
000330 6a 30 cd bc c2 02 e8 3d 2f 79 da 3e 50 e4 3d be
       -0.0250475 0.11328651 0.4267058 -0.18544126
000340 e7 9b 7c 3e 46 8c fa bd 5e d3 42 be 80 15 7e bd
       0.24668847 -0.12233786 -0.19025943 -0.062032223
000350 85 bc a6 3d 50 69 66 bd b2 e3 aa 3d 30 70 d3 3d
       0.08141426 -0.056252778 0.08344211 0.103241324
000360 4f 1a 54 3e 84 fc 7e 3e e2 7f ac 3e 0e eb 6a 3e
       0.20713161 0.24901015 0.33691317 0.22941229
000370 0f a3 07 3e 9f 85 f9 3d 41 b0 9d 3d c2 64 0e 3e
       0.13245796 0.12183689 0.076996334 0.13905624
000380 ec 17 89 3e fa 11 f8 3d a3 6b dc bd e7 1b a6 bd
       0.26776063 0.12112804 -0.107627176 -0.08110791
000390 dd 62 3e 3d 9a da 3f 3d 6b 7b 14 3e 6b 8e 47 3d
       0.046481002 0.046839334 0.14500205 0.048719805
0003a0 a4 0f 75 3c a9 37 3a 3e 34 f5 3c bd ac d9 e9 bc
       0.014957342 0.18185295 -0.04613228 -0.028546177
0003b0 39 4b 2f 3c f0 19 b2 bd 86 03 2a be 03 bf c3 3d
       0.010699087 -0.086963534 -0.16602907 0.09557917
0003c0 dd 5e dc 3d dc 57 c1 3d a7 33 94 bd 47 11 66 bd
       0.10760281 0.09440586 -0.072364144 -0.05616882
0003d0 03 9d 70 be 9a 78 2a be 41 a8 32 be 0c 09 9e 3c
       -0.23497395 -0.16647568 -0.17446996 0.019291423
0003e0 58 bf 6a 3e e4 12 1e bd ad d2 7c 3e ee a4 cc bc
       0.22924554 -0.038592234 0.24689741 -0.024980988
0003f0 8d 64 a7 3d fd 6c a9 3c 4d c7 18 3e 06 38 02 3e
       0.081734754 0.020681852 0.14919777 0.12716684

shared_net.4.bias f4 [64]
000000 88 74 48 3c 3b 7c 13 bb 52 8f 7e 3d 5e b7 11 3e
       0.012234814 -0.0022504467 0.0621484 0.14230105
000010 3e 7f 68 3d 00 00 00 00 03 fd 1a 3c 06 b1 15 bd
       0.056761973 0.0 0.009459737 -0.036545776
000020 85 7e 8b 3d 73 0f 69 3e 9c 07 8e bc 00 00 00 00
       0.06811241 0.227598 -0.017337613 0.0
000030 a8 0e 2a 3e 73 c6 29 bb 34 92 18 bc 6a f3 7a bb
       0.16607153 -0.0025905638 -0.009312201 -0.0038292059
000040 f0 ff 0d 3e ff 01 bc 3b 9b 10 3d bc ea fa 34 3c
       0.13867164 0.0057375426 -0.011539604 0.011046151
000050 32 21 61 3e 7f cf 26 3e f5 16 0b bb c4 7a 0f bc
       0.2198532 0.16290091 -0.00212234 -0.008757297
000060 67 11 2c 3e 54 3b 27 bd 89 80 a8 bc 7f 0b 63 3d
       0.16803513 -0.040828064 -0.020569103 0.055430885
000070 74 04 a6 3d c0 7b 92 3d 99 39 49 3e 5b 0e cb 3d
       0.08106318 0.0715251 0.19650878 0.099148475
000080 1b f6 38 3e c1 02 8b bc 17 3c c6 bc 34 8b ff 3d
       0.18062632 -0.016969087 -0.024198575 0.12477723
000090 10 98 4b bc 43 2a 1a bc 33 e1 a5 3a 18 4d e5 3d
       -0.012426391 -0.00940949 0.0012655616 0.11196345
0000a0 4e 1d b0 3d 25 12 08 bd 2d 90 08 bd e6 38 db bd
       0.085993394 -0.03322043 -0.03334062 -0.10704212
0000b0 a8 47 37 3e 00 00 00 00 99 2d 1a 3e bf 13 70 bb
       0.17898428 0.0 0.15056457 -0.0036632863
0000c0 98 2f 96 3c f8 51 cd 3c 00 00 00 00 b3 92 41 3b
       0.018333241 0.0250635 0.0 0.0029536902
0000d0 00 00 00 00 13 12 34 3e 33 a3 00 bd 6d c9 bb bc
       0.0 0.1758502 -0.03140564 -0.022923196
0000e0 3d 4b 5e bd 36 e0 0a bd ac 40 7f 3d 62 8f f5 bc
       -0.05427097 -0.03390523 0.062317535 -0.029975597
0000f0 d8 bf fc bc 99 e2 16 3d 72 d7 f6 3d 87 31 21 3e
       -0.030853197 0.036837194 0.12052812 0.1574155

actor.0.weight f4 [32, 64]
000000 6f 95 0f be 5f 06 8e 3e 42 89 31 3e 3c 11 ee 3e
       -0.14021848 0.27739236 0.17337516 0.46497524
000010 f7 39 05 bd ff 44 14 be 14 6e 8a be 7e 71 bf 3d
       -0.032525983 -0.14479445 -0.27037108 0.09347819
000020 0a 73 af 3d be e7 b0 bc da de 36 be 59 af 19 be
       0.08566864 -0.021594878 -0.17858449 -0.15008296
000030 f6 4f 41 3e f2 97 d7 3d d0 88 5e bd 8f 72 09 be
       0.18878159 0.10527028 -0.054329693 -0.13422607
000040 e9 24 8c bd 0c 99 87 3d 91 5c 8d bc 0a e0 3a be
       -0.068429776 0.06620988 -0.017256053 -0.18249527
000050 60 05 f5 3d 39 09 3d be 7d ef cd be c3 a9 f8 3c
       0.11963916 -0.1846055 -0.40221778 0.030354386
000060 d2 e2 19 be 5c 94 5c be a6 be bb 3d 62 1e ff bd
       -0.15027931 -0.2154097 0.09167223 -0.12456967
000070 a7 6f 82 bd f9 df 60 3e 70 34 ba 3d c2 63 ca be
       -0.06368952 0.21960439 0.09092033 -0.39529234
000080 75 2c ae be 26 87 b9 3d e9 da e4 bd 1d 18 86 3e
       -0.34018293 0.09058981 -0.11174566 0.26190272
000090 df 26 4a be 18 c8 32 be 48 51 d8 bd bb f5 5a bd
       -0.1974139 -0.17459142 -0.10562378 -0.053457003
0000a0 18 d9 e5 3d 1d ac de bd 97 b8 48 3d 97 50 f8 3d
       0.11223048 -0.10872672 0.049004164 0.12124746
0000b0 72 26 83 bc ed eb e6 bd 51 1e d6 bd 9f b1 f4 3c
       -0.016009543 -0.11275468 -0.10455001 0.029869853
0000c0 bb 6a 2d be a7 94 47 be ba 52 a9 3d f8 03 39 be
       -0.16935246 -0.194903 0.08267732 -0.1806792
0000d0 e4 4f 4d be fb ba b7 bd f0 59 b6 3e 16 6a b0 3a
       -0.20050007 -0.089712106 0.35615492 0.001345935
0000e0 7a 0b 58 bd 14 7b ef bd 78 40 6c bd 38 58 80 3e
       -0.05274532 -0.11693397 -0.05767867 0.25067306
0000f0 e1 4d b1 be 48 7f 03 be 44 77 72 be 1e df ab bd
       -0.3462973 -0.12841523 -0.23678309 -0.083921656
000100 ad 63 68 bb 79 b4 de bd e0 d7 c1 3c ae 0e a4 be
       -0.0035459802 -0.10874266 0.023662508 -0.3204245
000110 32 68 1a bd 99 4d 42 be 08 34 ac bc 62 3f fa bd
       -0.037697025 -0.18974914 -0.021020904 -0.122191206
000120 78 fe 92 bb b8 77 ad bd b2 77 fd bd 66 38 d5 bd
       -0.0044859014 -0.084701 -0.12376346 -0.10411148
000130 55 25 82 be d1 4f 32 3b 7e 8d da 3d cb 5d 02 bd
       -0.25419107 0.0027208219 0.10671519 -0.03182773
000140 90 09 4b 3e 43 7d f2 be e4 17 8f be 28 f3 f8 3c
       0.19827867 -0.47361192 -0.27947915 0.030389383
000150 ce 3f a2 3d dc bc 73 3e 90 4d 3a be c3 9b 98 be
       0.07922326 0.23802513 -0.1819365 -0.29806337
000160 2a 8f e6 be f0 5c ce 3d f4 45 ff 3d f0 07 b6 bd
       -0.450311 0.1007632 0.124645144 -0.08888233
000170 ce fc 01 3e 35 f3 f4 3d b8 4f cb be 5e 0f ef bd
       0.12694094 0.119604506 -0.39709258 -0.11672853
000180 e7 87 73 3e 16 1e bb 3d 19 32 c0 3e 1c d3 10 3d
       0.23782311 0.09136598 0.3753822 0.03535758
000190 ea 16 60 bd 32 5c bc bd c7 4e 17 3d 18 a7 0e be
       -0.054709353 -0.09197272 0.036940362 -0.13930929
0001a0 39 34 ad bb 33 1e a9 3d 5a 2c 30 be a1 e0 ab 3e
       -0.0052857664 0.08257713 -0.17204419 0.33569816
0001b0 9a cb 77 3e 8c 17 79 3c e9 78 dd 3d 5c d2 1b bd
       0.24198762 0.015203368 0.108140774 -0.03804241
0001c0 17 b5 08 be 64 d5 38 bc c6 14 8a 3d 0f 10 a6 be
       -0.1335033 -0.011281345 0.067422435 -0.32434127
0001d0 d6 52 91 be 08 1b 8c bd 38 a1 99 3d 0c f8 11 3e
       -0.2838351 -0.06841093 0.07501453 0.14254779
0001e0 31 de 78 bb 3e 8c e8 3d 8f 5c 05 be 79 74 ba 3d
       -0.0037974233 0.11354874 -0.1302359 0.09104247
0001f0 07 81 1e 3d 7b 80 1b 3d cb 04 0c bd 56 a4 f7 3d
       0.03869727 0.037964325 -0.03418426 0.120918915
000200 96 e7 a4 3d 4a 0a 78 bc b3 e4 93 be cc 10 04 3e
       0.08051984 -0.015139172 -0.2888542 0.12897032
000210 0c 6c 64 bd 8f 28 35 3d dc fb 1b bd 4f 8a 1e be
       -0.055767104 0.044228133 -0.03808199 -0.15482448
000220 c8 86 c7 be cf 8f 5c bc ab 29 ba 3e 15 2c fd 3d
       -0.38970017 -0.013462021 0.36359915 0.123619236
000230 38 1b 80 3d a4 6b 4a 3e 3f 78 a4 be 88 d4 5a 3e
       0.062551916 0.19767624 -0.3212299 0.21370137
000240 67 57 73 3e dd c5 c7 3c 96 97 69 3d 1d 8e 2f be
       0.2376381 0.02438634 0.05702933 -0.17144056
000250 03 f0 fb bd 3d a2 8c 3e 19 a2 0b be ec c7 60 3d
       -0.12301638 0.27467528 -0.13636054 0.05487816
000260 44 c6 a7 bd 18 7d 93 bd 41 bb ad bc 06 1f c2 be
       -0.08192113 -0.07201594 -0.021207454 -0.37914294
000270 ff 0f f3 3e 24 ed 40 3e 09 41 8d 3e bf c1 28 3e
       0.47473142 0.18840462 0.2758868 0.16480158
000280 4d ec 1e 3e 35 7e f9 3e 4e 59 01 bd 2c b2 0e 3d
       0.15519829 0.487291 -0.03157931 0.034837887
000290 56 ab 80 be 6e 3e 32 3e 7f 9b 4e bc dc 5d 33 bd
       -0.2513072 0.17406628 -0.012610315 -0.043790683
0002a0 5d 0c 84 3e 9e c7 01 be 49 b1 8e be 0c 48 00 3e
       0.25790682 -0.12673804 -0.27869633 0.12527484
0002b0 dd 16 86 bd 86 5a ad 3e 5a fd 87 bc 58 48 8b be
       -0.065473296 0.33858126 -0.0166003 -0.2720363
0002c0 24 a6 2b be f1 df 1b be 41 c0 54 be 19 75 71 3d
       -0.16762596 -0.15222146 -0.20776464 0.058949564
0002d0 6c e1 cb 3d 0e 76 d8 3d 5f ed 89 3e 0d c4 e0 3d
       0.09955105 0.10569392 0.26938912 0.10974894
0002e0 ed e1 be 3e b0 bc 02 3e 3f 65 fa 3e 7e c8 db bc
       0.37281743 0.12767291 0.4890537 -0.026829
0002f0 d1 33 fb 3d 1a 09 8f 3d 0e 49 22 bd 4d 43 3d bd
       0.122657426 0.06984158 -0.03962045 -0.04620676
000300 7b 0a 46 3e 06 f5 d1 3e 46 61 25 3d b2 70 67 be
       0.19339935 0.4100725 0.04037597 -0.22601584
000310 1d fe b5 bd 98 46 cb 3d f5 29 cc 3d 5e c1 f8 3d
       -0.08886359 0.09925574 0.0996894 0.12146257
000320 89 76 58 3d 3d da c9 bd a9 ba b7 3e ce 57 41 bd
       0.05284742 -0.09856079 0.35884598 -0.047202878
000330 6f 7c 10 3e 08 c1 11 3d ab 1a 9a 3d 25 f6 29 3d
       0.14109968 0.03558448 0.07524618 0.041494507
000340 32 7f e0 bd bd cd 82 bd aa de b8 be 8e fa 6d be
       -0.109617606 -0.06386898 -0.3610738 -0.2324011
000350 3a 44 4b bd 1a a4 90 3c e0 b5 4f bc 66 f5 d6 be
       -0.049625613 0.017656375 -0.01267764 -0.419841
000360 f8 76 e9 3d 4a b1 0b be c6 e2 d4 3c 7d 74 98 3e
       0.113996446 -0.13641849 0.02598704 0.29776374
000370 b5 83 ad bd f6 24 67 bd 3f 0c 7b 3e ca 38 9f bb
       -0.08472387 -0.056431733 0.2451639 -0.0048590647
000380 a2 ba 25 3e 68 09 8a be 28 15 ed 3d 90 72 2f 3c
       0.16184476 -0.269603 0.11576301 0.010708466
000390 06 8c 34 be 4d 01 4a be 52 d2 d6 bc fe 27 1f 3e
       -0.1763154 -0.19727059 -0.026223335 0.155426
0003a0 fd 18 14 be d9 bc e5 3e cc 6d b8 3e bd 2b b7 3d
       -0.14462657 0.44870642 0.36021268 0.08943889
0003b0 63 1e 4b be 72 77 2a 3d b1 db c0 bd fd 8e 9f be
       -0.1983581 0.04161782 -0.09416903 -0.3116378
0003c0 f4 ca a0 3e ce e5 98 bc 4b 63 94 bd 42 79 2a 3e
       0.3140484 -0.018664267 -0.07245501 0.16647819
0003d0 e8 ee e8 bd 9e b8 2b 3e c8 19 1b be ff 0e 9c be
       -0.11373693 0.16769645 -0.15146554 -0.3048019
0003e0 bd 9a 6e 3e 74 3b 59 be 67 98 fc be b5 26 84 bd
       0.23301215 -0.21214086 -0.49335024 -0.06452695
0003f0 ee 40 a1 be d0 10 09 3e 55 6a 37 3b 13 f5 02 be
       -0.3149485 0.1338532 0.0027986963 -0.12788801

actor.0.bias f4 [32]
000000 5f f6 8a bc 00 00 00 00 b2 ab 62 3d 9d 99 1c 3b
       -0.016963182 0.0 0.055339523 0.0023895272
000010 f2 60 99 bc e2 f5 16 3d 69 a0 3b b8 b3 c9 28 ba
       -0.018722985 0.036855586 -4.4733668e-05 -0.0006438747
000020 22 e6 32 bd 13 d5 c0 bb cd 03 48 bc 95 d7 1c 3d
       -0.043676503 -0.0058847754 -0.012207937 0.038291533
000030 20 74 99 3c 3c f2 9d bc 8e 5c d8 3c e2 b1 83 bc
       0.01873213 -0.019280545 0.026411321 -0.016076032
000040 bd 83 5a 3d a6 17 8f bb 00 00 00 00 99 57 83 bc
       0.05334829 -0.004366833 0.0 -0.01603298
000050 4b 26 c2 39 76 28 c6 3c 00 00 00 00 84 b5 67 bc
       0.00037031094 0.024189215 0.0 -0.014142398
000060 ad 27 88 3b fb 9a 9e 3c a8 34 4c 3c 7f 17 ee bb
       0.0041551203 0.01936101 0.012463726 -0.0072659845
000070 b0 e0 49 bc c7 8f ea 3b 4f 3e ca bc 4b 17 54 3d
       -0.012321636 0.007158253 -0.024687914 0.051780026

actor.2.weight f4 [9, 32]
000000 84 9c 4c be b0 2c e5 be ed f4 5c 3e 88 30 6f 3a
       -0.19981581 -0.44760656 0.21577807 0.0009124358
000010 41 72 0f bc e4 20 dc be 19 0f ae 3e c5 94 2e be
       -0.008755268 -0.42993844 0.33995894 -0.17048939
000020 a7 2e af 3d 41 57 dc 3e 5b 64 4d 3e a5 76 e8 be
       0.0855382 0.4303532 0.20057814 -0.4540302
000030 ff a2 78 3e a8 2d 17 bf c3 06 42 be d0 04 25 be
       0.24280928 -0.5905404 -0.18947892 -0.16115117
000040 cd ee e4 3d 46 6e 5f 3d eb a0 e0 3c 9d 60 a5 3e
       0.1117836 0.054548524 0.027420482 0.32300273
000050 b5 9d b3 3d 62 ed b8 bd ae db 88 3d c7 1b 60 3e
       0.087703146 -0.09029652 0.066825256 0.21885596
000060 f5 46 c0 be d2 5c 9e bd e9 22 bb be 17 7d ff bd
       -0.37554136 -0.07732548 -0.36550072 -0.12475031
000070 dd 64 37 3e ae 86 56 3e 1a d5 c0 3e 78 87 43 3c
       0.1790957 0.20949814 0.37662584 0.011934154
000080 cd 3c 35 3e 27 79 09 be 52 b1 9a 3e 8a 69 a7 bd
       0.17698975 -0.13425122 0.3021341 -0.08174427
000090 37 ca ae bd b8 6a a6 bc 2a f9 ea 3e d9 30 1f 3e
       -0.08534663 -0.02031456 0.45893222 0.15545978
0000a0 0f ef 67 bd 0a 5c eb be be a6 15 be 85 ff 7a 3e
       -0.05662447 -0.45968658 -0.14614388 0.24511535
0000b0 c0 2c 0e 3c 8c 7b 26 3c aa 7b b6 3e d6 b9 8c 3e
       0.008677661 0.010161292 0.35641223 0.27485532
0000c0 5d 77 ba be 19 24 f4 3e 58 17 80 be 1c d3 c7 bd
       -0.36419192 0.4768379 -0.2501781 -0.09757063
0000d0 24 28 ce 3e b9 98 18 3e 4c a7 38 ba 79 db 0a bc
       0.40265 0.14902009 -0.0007043972 -0.008475178
0000e0 0f dc 35 be b4 4f 77 3e 39 7f d4 bd 93 77 18 be
       -0.17759727 0.24151498 -0.10375828 -0.14889364
0000f0 ce 5a 4b 3d 15 6f 14 3f aa ed cd be ee 79 3b be
       0.049647145 0.57982 -0.40220386 -0.18308231
000100 bf 64 e3 bd ff b3 15 bf 9a 9d 20 3e 90 ab e3 bd
       -0.111032 -0.5847778 0.1568512 -0.11116707
000110 f0 03 50 be e2 fd c2 3d 1a cf 02 bf c5 8f 37 bd
       -0.20314002 0.095210806 -0.5109726 -0.044814844
000120 72 56 11 3f 32 37 dc 3d 4f 92 0b 3c 47 bc b3 3d
       0.5677253 0.10752715 0.008518769 0.087761454
000130 27 42 f0 bd f3 6b 2d bd 9f 83 e9 3d 66 0e 8e 3c
       -0.117313676 -0.042339277 0.11402058 0.01734085
000140 ef b8 b2 be 98 b8 60 be 58 5f e2 be b9 45 91 be
       -0.34906718 -0.21945417 -0.44213367 -0.28373507
000150 03 9c 88 be ed 09 98 3e 42 d8 73 3e d7 95 12 3e
       -0.26681527 0.29695073 0.23812965 0.14314972
000160 9a 50 a9 bd 71 d8 9d be 21 9b 1b 3e fe e7 2e be
       -0.08267327 -0.30829194 0.15195896 -0.17080685
000170 4d 5f bf 3e 20 37 5d be c2 17 57 be 84 69 8e be
       0.37377396 -0.2160306 -0.21005157 -0.27814877
000180 4f 92 32 bd 24 b8 8b 3d 88 74 cf be 4b 65 9e be
       -0.043596562 0.068222314 -0.40518594 -0.30936655
000190 a0 52 b1 be 3f ba c8 3e 8b ff 0f bd c4 d7 94 bd
       -0.3463335 0.39204594 -0.035155814 -0.072677165
0001a0 ae 14 ae be 0d 88 f0 bd 72 13 04 be bf 91 aa bc
       -0.34000152 -0.117446996 -0.12898043 -0.02082145
0001b0 f6 fd 60 3e 7b 8a c9 be 0f 9f 2c be 6c dd 1f be
       0.21971878 -0.39363465 -0.16857551 -0.1561181
0001c0 cd 03 6a be 3a 7d 28 be e5 64 df 3d bb 6c 48 bd
       -0.22853012 -0.1645402 0.10907916 -0.04893182
0001d0 de f2 d1 be fa 37 5d 3d 44 a2 ab 3e ba 42 0f 3e
       -0.41005605 0.05400846 0.33522236 0.13990298
0001e0 11 cf 05 be 59 87 e3 3e 5f 4a 5a 3e f6 32 15 3d
       -0.13067271 0.444392 0.21317433 0.036425553
0001f0 cf d7 70 3e 9e f0 62 3e 1f 1c 89 be bb d4 06 3f
       0.23519824 0.221621 -0.26779267 0.5266835
000200 2f ef 1d be 7c 55 98 be 1d 9f b4 bd f3 09 9d bd
       -0.15423273 -0.2975272 -0.08819411 -0.07667913
000210 37 fc 25 3e 4e 0e 62 3e 4a 90 65 bc c3 3d 3b be
       0.16209494 0.2207577 -0.014011452 -0.18285279
000220 1c 20 05 3e af 96 af be 65 3a b6 be 7c e6 1f be
       0.1300053 -0.3429465 -0.35591426 -0.15615267
000230 db d0 36 3f ac de b3 3e ce 9c 84 3e eb 0a df be
       0.7141244 0.35130823 0.25900882 -0.43563017
000240 1b 1a 74 3b 2d f7 69 3e 81 f1 26 3e c0 98 4c 3e
       0.0037247005 0.22848196 0.16303064 0.19980145
000250 df 08 19 be 0b ef 07 3e 64 bf 56 be 98 81 0b be
       -0.1494479 0.13274781 -0.20971447 -0.13623655
000260 8a 11 ae be df 5d 1c 3e 47 04 4d 3e 56 2e b3 bd
       -0.33997756 0.15270184 0.20021163 -0.08749072
000270 b9 52 b9 bd 57 dd 96 be 10 57 32 3e 64 e8 a8 be
       -0.09048981 -0.29465744 0.17416024 -0.329898
000280 fa 5c b9 3d fb 6a 25 3e 45 15 33 be ed 7a 1b 3e
       0.09050937 0.16154091 -0.17488582 0.15183611
000290 cb bd d5 be b5 1e 8f be df 76 9a be bc ba 50 3e
       -0.41746363 -0.27953115 -0.30168816 0.20383734
0002a0 da 57 5d bd 52 5c f9 3d 56 85 97 3c d5 90 3a bd
       -0.05403886 0.12175812 0.018496197 -0.04554828
0002b0 0c 5d 82 be eb 75 f0 bd 19 6a 01 3f 0a 4c 7d 3d
       -0.25461614 -0.11741241 0.5055252 0.061840095
0002c0 89 44 49 be 8a 89 6b 3e 05 6f cb bb 43 53 8c 3e
       -0.1965505 0.23001686 -0.006208303 0.27407274
0002d0 a3 de c4 bc d2 f3 cf 3e ed a2 8f 3e 2b a3 4b be
       -0.024031943 0.40615708 0.2805399 -0.19886462
0002e0 51 11 37 be af ef 59 3e 28 b0 35 3f d8 4b 47 be
       -0.178777 0.21282838 0.7097192 -0.19462526
0002f0 81 01 74 be 81 8e e2 3d 8b af 1a 3f e6 68 e6 bd
       -0.23828699 0.11062337 0.6042411 -0.112504765
000300 e0 91 7d 3e 5f 35 fb 3c 0d f1 26 3f 61 18 df be
       0.24762678 0.030665098 0.65211564 -0.43573287
000310 30 e1 ff 3c 70 fc 14 bf c2 72 74 3e 99 23 7f bc
       0.031235307 -0.5819769 0.23871902 -0.015572452
000320 4b b3 2e be cd 13 4a be 12 4b 15 3e 2f a4 d2 bd
       -0.17060582 -0.19734116 0.14579418 -0.10285222
000330 ba a7 96 3e d2 a5 b6 3d 1c c3 89 3e d6 98 af be
       0.2942484 0.089183465 0.2690667 -0.34296292
000340 32 bc 09 be 6f c5 4c 3e 6d 18 a2 3c d0 b2 a5 bd
       -0.13450697 0.1999719 0.019787038 -0.080907464
000350 15 d4 d2 be f4 ce 7f be ac f1 cd bc 14 38 09 3d
       -0.4117743 -0.2498129 -0.025139652 0.033500746
000360 09 1c ce 3e 94 75 93 be 92 8a 10 3e e2 d5 db 3e
       0.40255764 -0.28800642 0.1411536 0.42936617
000370 0d 75 98 3e 4f 73 0e 3c 62 5a 26 bc 41 1e 93 3e
       0.29776803 0.008694484 -0.010153385 0.2873402
000380 ba 10 aa 3d 72 a4 d6 3d 3d de e3 bc c8 46 43 be
       0.083039716 0.10480584 -0.027815932 -0.1906997
000390 80 b8 ac be 02 a8 17 3d 80 fb 52 be 81 47 78 be
       -0.33734512 0.03702546 -0.20603752 -0.24246027
0003a0 74 dd 00 be a2 94 3b be 0e 88 38 3f 2f 46 1c 3f
       -0.12584478 -0.18318418 0.720826 0.6104459
0003b0 c4 4c e4 3e d9 f1 7e 3d 6a b0 64 3e 34 02 7b be
       0.44589818 0.062242363 0.22332922 -0.24512559
0003c0 00 f5 3e 3e c7 51 ee 3c 4b 70 9c 3e ec 91 94 be
       0.18648148 0.029091729 0.30554423 -0.2901758
0003d0 04 41 cb 3e 30 be 8b bd 12 1f 03 3e 3b 91 02 3e
       0.3969804 -0.06823385 0.12804821 0.12750714
0003e0 ad 5b 8b 3e 47 27 d3 bd 09 45 55 be 39 11 c0 be
       0.2721838 -0.10310226 -0.20827116 -0.3751314
0003f0 91 fc d2 bc 1b 26 bf 3e 83 4b 1e 3e c8 3d 4d be
       -0.025755199 0.3733376 0.15458493 -0.20043099

actor.2.bias f4 [9]
000000 0c 07 c3 3c 03 c8 3b 3d a2 74 5b bc 02 18 1a 3d
       0.023807071 0.045845043 -0.013394507 0.037620552
000010 65 84 c1 3c 71 4a ab bc bc 82 0c 3d 11 28 22 3d
       0.023622701 -0.02090952 0.034304366 0.03958899
000020 ad b7 e5 bc
       -0.028041685
