logs/base_env_20250602_173828/checkpoint_episode_2400.pt (torch, 582491 bytes, 39 tensors)

shared_net.0.weight f4 [128, 30]
00000000: a00a 4e3d 5b24 163c 23a2 5dbe 4ff1 703e
00000010: 965e a43d 53dc 2f3e 34ac 9a3c 656c 3a3e
00000020: 39db 46be 3839 523d 4f83 bd3d b514 84be
00000030: 586c 82be 008b c0bd 4182 d83d 4ed9 1a3e
00000040: cefd ecbd 6fbc a1bd d787 a7bd 68fd 72bd
00000050: 879f 24be 2339 12bc 2db8 753e 292d 1dbd
00000060: 9a59 41be 36a3 72be 9126 04be 6305 6d3d
00000070: ee08 99be 0c8a b3bd 5177 9d3c aede 293d
00000080: d07d 9b3d 636f 953d 2108 43be f9e9 f5bd
00000090: a57a db3d ecc5 80be b5c9 c5be e5bf 373e
000000a0: 151d 163d 9390 813e 6ecf 95bd 1815 7abe
000000b0: fdf3 c9bd 9b45 9a3d f0c7 5ebe 757a 33be
000000c0: e67e 8cbd f043 7abd 7287 c0bc 9244 6bbc
000000d0: 5405 083e 5e4c 56bc 00ec 28be ce17 acbc
000000e0: 1b7b 35bd 7017 b73d 41cf 26be b949 fdbd
000000f0: c59f 40be 4fe8 933b 1039 f63d 1856 f9bd
00000100: f6b4 ab3d c5f5 9c3e e081 5f3e d99f 973e
00000110: 93dc 11be b71c 77bd 0ab7 4c3e d025 6c3d
00000120: a234 e33d 2e15 ff3c 3eba 19bd 9d11 e43e
00000130: 2ae0 c6bc ddbe 75bd f311 ebbc 1e75 bf3d
00000140: 4ec1 a63d 9973 9a3c 86e4 593d 9d04 88bc
00000150: a225 2a3e ac41 763d 32bf ca3d 41b2 f73b
00000160: 11fb 65bd 450a aa3c 394c c1bd 8fc9 31be
00000170: ba90 d93d 7b47 a73d 2a18 3abe d9cf 1abf
00000180: 6628 96be 8816 8bbe 5e40 34be d56f a7bd
00000190: 58ff c6be d294 c4be 9dd8 dcbe 5159 21be
000001a0: db8a 9bbc 1443 99be 64f9 87be 0e45 15be
000001b0: 5c74 d0bc cf88 c9bd 9be0 ab3b 1723 6fbe
000001c0: 8574 d33d 4fc8 17be 8aca 0a3e d242 b1bd
000001d0: 1bb3 c43d f3cc 4fbb f3a1 223c 10a1 1bbc
000001e0: b4fe 83bd c3f9 13be 5e28 e0bd 27e5 6ebe
000001f0: 3472 3d3d 35ea 5e3e 8e3e aa3d ca65 5b3e
00000200: f419 e23d 5210 74bd 14fe d2bc 702a 043c
00000210: dba8 09bd 5db0 dcbd 168f 1d3e 2e87 20bd
00000220: 8b4f 233e 4ca4 73be 911b b6bd 4fde d13b
00000230: df56 e13d bffc 9dbd f995 853d 3dc6 49be
00000240: 7012 ea3d 710e 4f3e a340 d7bd 7208 36be
00000250: f216 79be 82c8 233d 38f4 1d3d 9dd9 b83c
00000260: d078 96bf 04bc 843d 8247 b1bc cc8c 10be
00000270: 1e5e 663d 9f63 003d 4dc7 28be 4d7d 39bd
00000280: e927 89bd d6c1 dcbc 8e12 f23c 5fd2 d83d
00000290: aaa1 d5bd 7314 ec3d b079 1a3e aae4 393c
000002a0: 8ccd 7e3e 6533 81be 3c0c 8d3c 291d b23d
000002b0: ae4f ddbb 4015 203e 1154 5bbe 0ef4 2fbe
000002c0: 8b7e 6e3d 9ecc 36be 9bdc 1b3e f2ca 7dbe
000002d0: 1591 19be aa55 433e a16a 1cbf d55f 6fbc
000002e0: 6ce4 96bc 844b 2abd 3c2e 09be 9f1e 193e
000002f0: 4230 a03e 713d f13d 08b7 533d f54a 413d
00000300: e741 953b 525a 9c3d 1c54 163e 0cb7 a53d
00000310: 6921 bc3d 3766 e7bd 999a 903b 0377 9b3c
00000320: 458a 94bd c974 3bbe 97b5 dc3d ab16 853d
00000330: 1587 f1bd c4a4 2cbd 476a 073e 11e6 c5bd
00000340: 367f 183e eea5 03be 0f33 70bd d748 523d
00000350: 1101 d7bd db62 0a3e 6f0d 8d3d e75b 53bd
00000360: 218a 053e 3342 0a3e 0b8d 383e 7605 6e3e
00000370: 4ab5 55be acd4 a0bb d35f d23d 7189 45be
00000380: 03c7 523d caee c6bd 0982 47be af63 22bd
00000390: 5a6b d33d 1c67 723e 8de9 17bd da01 27be
000003a0: b545 acbd 4203 a53e e45c 743e ab6c 07be
000003b0: be56 cbbe c53d 29be 0cd4 213e c8c2 b3bc
000003c0: c62b d3bd 5775 af39 9093 0f3e eead 843d
000003d0: 8f68 54bd e1ce 95be 4614 cfbd 2624 d9bb
000003e0: 74f6 4a3e 1544 803e eb82 33be 222e aabe
000003f0: 9fe4 a8be 93e0 b0bd c610 793e b8bd afbe
0.0503031 0.009163941 -0.21643881 0.23529552 0.08025853 0.17173891 0.018880941 0.18205412
-0.19419564 0.0513241 0.09253561 -0.25797048 -0.25473285 -0.09401512 0.10571719 0.15121958
-0.11571847 -0.07897269 -0.08180206 -0.0593237 -0.1607648 -0.008924755 0.23996039 -0.038373146
-0.18881837 -0.23695073 -0.12905337 0.057866465 -0.29889625 -0.08766565 0.019221934 0.04147213
0.07592356 0.07296636 -0.1904607 -0.12007517 0.10716752 -0.25151002 -0.38630453 0.17944296
0.03664883 0.25305614 -0.07314955 -0.24422109 -0.0986099 0.075328074 -0.21755958 -0.17527182
-0.068601415 -0.061099946 -0.023502085 -0.01435961 0.13283283 -0.013079731 -0.16496277 -0.021007445
-0.044306856 0.08940017 -0.16289999 -0.12367577 -0.18810947 0.0045137773 0.120226026 -0.12174624
0.08384125 0.30656257 0.21826887 0.29614142 -0.14244299 -0.06033012 0.19991699 0.05765325
0.11094023 0.031138029 -0.03753113 0.44544688 -0.024276812 -0.059996475 -0.028695082 0.0934851
0.08142339 0.01885395 0.053196453 -0.016603762 0.16615918 0.060121223 0.09899749 0.0075590913
-0.05614764 0.02075685 -0.094383664 -0.17362045 0.106233075 0.08167931 -0.1817328 -0.604734
-0.29327697 -0.27165627 -0.17602679 -0.08175627 -0.38866687 -0.3839479 -0.43134013 -0.15756728
-0.01898711 -0.2993399 -0.26557457 -0.14577124 -0.02544611 -0.09840547 0.005245281 -0.2335323
0.10324959 -0.14822505 0.13553825 -0.08655323 0.09604474 -0.0031707853 0.009926307 -0.0094988495
-0.06445065 -0.14450745 -0.109451994 -0.23329602 0.04625149 0.2176903 0.083127126 0.21425548
0.110401064 -0.059585877 -0.02575592 0.0080667585 -0.0336083 -0.10775826 0.15386614 -0.039191417
0.15948312 -0.23793143 -0.088919766 0.006404675 0.110028975 -0.07714223 0.06522746 -0.19704528
0.11429298 0.20220353 -0.10510375 -0.17776659 -0.24325159 0.03998614 0.038562983 0.022564704
-1.1755619 0.06481174 -0.021640543 -0.1411621 0.0562421 0.031345006 -0.16482277 -0.04528551
-0.066970654 -0.026947897 0.029549863 0.10587 -0.104312256 0.11527338 0.15085483 0.011346022
0.24883097 -0.25234523 0.017217748 0.08696968 -0.0067538833 0.15633106 -0.21418788 -0.17182943
0.05822615 -0.17851493 0.15220873 -0.24784449 -0.1499675 0.19075647 -0.611002 -0.0146102505
-0.018419467 -0.041575924 -0.13396543 0.14953087 0.31286818 0.11779297 0.051688224 0.047190625
0.0045549753 0.07634415 0.14680523 0.08091554 0.0918606 -0.11298793 0.0044129607 0.018977648
-0.07252935 -0.18306269 0.10776823 0.06498464 -0.11793343 -0.04214932 0.13224135 -0.09663022
0.14892277 -0.12856266 -0.058642443 0.051338997 -0.1049825 0.13514273 0.06887328 -0.051601317
0.13040973 0.13501815 0.18022554 0.2324427 -0.20869938 -0.004908165 0.10272183 -0.19290711
0.051459324 -0.09713514 -0.19483198 -0.039645847 0.1032321 0.23672146 -0.037087966 -0.163093
-0.08411733 0.32229048 0.2386356 -0.13225047 -0.39714617 -0.1652747 0.15803546 -0.021943465
-0.103110835 0.00033466026 0.14021134 0.06478487 -0.051857527 -0.292594 -0.10111289 -0.0066266237
0.19820577 0.25051942 -0.1753041 -0.33238322 -0.32986924 -0.08636584 0.24322805 -0.3432443

shared_net.0.bias f4 [128]
00000000: 572c 7639 9899 2a3d 02fa 393c d849 213e
00000010: 0000 0000 0c39 cb3d 6457 ec3d 8bdc 5f3d
00000020: 6dbf 593d e83b 533d 441c d33d 3143 a1bb
00000030: 35b9 1d3e 50ae 8c3d 2743 9f3d b003 093c
00000040: ffaf 593e 4d5c 8f3c a481 6f3d fb6e c73d
00000050: a77c c4bd d12d a83d 2bfc 4c3a 3bb2 0dbd
00000060: 9979 b1bd 9984 553d 4aa4 3bbc 7e6c ca3d
00000070: 3b31 11bc 7fdf 4fbd 5cb4 7fbb ecf8 ae3d
00000080: 7fdd 3e3d d141 23bd 5989 633d 55c6 57bd
00000090: 4c8c 2fbc 80a3 623d 4577 1fbd e2eb b63d
000000a0: 0000 0000 98c1 15bd f489 adbd 445a a63c
000000b0: 20c2 4d3d 8636 203d 5e4c 7e3d 098c 4d3d
000000c0: d965 72bc 8aad e2bd 6496 a43d e1d4 c83c
000000d0: 01a8 e23d a92a 1d3d bf0f 08bc f2e6 693c
000000e0: accb 88bd f775 553d 8db8 4d3e 67d6 6ebd
000000f0: 0b2a f33c c95c 0c3e 82c3 4c3d aec0 cebc
00000100: b511 953d 280c ddbc 4d0a 233d 33cf 053e
00000110: 562c 4bbc 48c5 213d 9ae9 3bbd 89c1 8d3b
00000120: 737a eabb 8323 f93d 3c53 843d 10df f33d
00000130: 99e4 00bc 683c c53d 6a35 103d 626d b53d
00000140: 03ac 563c cf82 78bd e3e2 c03a f7af 2e3e
00000150: 6b52 47bc 1f34 963d 0d99 723d 2ace dc3d
00000160: e083 843d 5a17 8abd aee9 153c 8d14 6a3d
00000170: d680 b33d 9d17 d93d cd22 01bd d42d 91ba
00000180: 1f32 8a3d 177e f83d 0fc3 37bc ee96 913d
00000190: 0000 0000 c326 303d f08c 47bc 4ecd ad3d
000001a0: 3bc8 753d 910f e43c f118 933d 25c4 803d
000001b0: 1260 2b3c ea48 593d caaa 513c 0000 0000
000001c0: 96cb a4bd 1eba ad3d 3460 e93d 04b2 bcbb
000001d0: 5511 c7bc 2d09 e93c f7e8 ee3d 9c9f 493d
000001e0: 99a9 78bd cb10 f83d f313 ca3d 7c5d 55bd
000001f0: f6fc d23d 3cd0 3f3d 8a5d 913d afa7 04be
0.00023476906 0.041650385 0.01135111 0.15750825 0.0 0.0992299 0.11540106 0.054653686
0.053161073 0.051570803 0.103081256 -0.00492134 0.15402682 0.06869185 0.0777648 0.008362696
0.21258543 0.017500067 0.058473244 0.09737965 -0.09594088 0.08211864 0.00078195584 -0.034593802
-0.08665771 0.052128408 -0.011452744 0.098839745 -0.008861835 -0.05075025 -0.0039017415 0.08543572
0.046597954 -0.03985769 0.055550907 -0.05267938 -0.010714602 0.055331707 -0.038932104 0.0893171
0.0 -0.03656158 -0.08473578 0.020306714 0.05023396 0.039114498 0.06208455 0.050182376
-0.01479479 -0.11068256 0.08036497 0.024515571 0.110672005 0.038370762 -0.008304535 0.014276253
-0.06679472 0.052114453 0.20089932 -0.05830994 0.029683134 0.1370727 0.04999114 -0.025238361
0.07278768 -0.026983336 0.039804745 0.13067321 -0.012400707 0.039494783 -0.045877077 0.0043260497
-0.0071557104 0.121649764 0.06461188 0.1190778 -0.007867002 0.09630662 0.03520719 0.08858754
0.013102534 -0.060671624 0.0014716055 0.17059313 -0.012165646 0.0733416 0.05922799 0.1078151
0.06470466 -0.06742735 0.009149952 0.057148505 0.08764808 0.10600207 -0.03152733 -0.001107628
0.06747841 0.12133425 -0.011215939 0.07108866 0.0 0.043005716 -0.012179598 0.084864244
0.060005408 0.027839454 0.071824916 0.062874116 0.010459917 0.053048052 0.012797067 0.0
-0.080466434 0.08482765 0.113953024 -0.005758526 -0.024300257 0.028446758 0.11665528 0.04922448
-0.060708616 0.12112578 0.09867086 -0.052091107 0.10302155 0.046829447 0.07097919 -0.12954591

shared_net.2.weight f4 [128, 128]
00000000: 69fb d13d dd58 f9bb 15d3 993d 1059 2abe
00000010: e7d4 bcbd 257f 12bf dc9f 92bc abd4 333e
00000020: 1a44 773e 652e c83e 6f0d 543c ce67 203e
00000030: c18c 8abd db78 32be 972c c9bd e689 b0bd
00000040: 4521 d03d 9a88 403e 9e4c b0be 4dc5 fbbd
00000050: 16a1 9bbd 1c3e 353e f87b 8bbd e521 dcbc
00000060: 05a5 53be 95a2 4ebe 448f c4bd 18ce 12bf
00000070: bc82 b33d f52e 25be 315c eabb 189a 653c
00000080: b6c4 89bd f118 80bc a2cd 473d 9439 be3d
00000090: 3990 fa3d 7276 75be 995b c53d 8564 d8bd
000000a0: 2882 423c 96da 92bd d135 8c3d f06e f03d
000000b0: 8121 113c 8b37 e73d e949 00be b5fe 153e
000000c0: 25b5 813e c026 26be 58a1 6abe 90b8 35be
000000d0: 139b 7b3c b7b4 58be 315c 6dbd e383 713e
000000e0: 02b5 523e f7b1 883d bee5 39bd 9c7e cebd
000000f0: 2263 08be d611 c83d 91a7 743b c1f9 ea3d
00000100: 7eb4 dc38 4071 993e 5711 e6bd 545e 253e
00000110: 2cf8 44be af4d 473d 4257 013e ee35 b8bd
00000120: 7412 e93d d5d7 f33c 1a89 8a3d 1add e33d
00000130: 85bc cbbc b025 4e3e 5f9d 6e3e 36c6 ec3a
00000140: c80e babc 82cf 3bbd 2d70 3bbe c981 963c
00000150: 57c6 df3d b60b 74bd 4d49 c6bd e7a4 983d
00000160: aa2e cdbd 0f6e 97bb 4fff e1bc 4eac 1d3e
00000170: f8b9 23be b7f2 9d3d 6375 66bd ae9e 8dbe
00000180: 3f0e 173e bbe2 983e 24e2 f2bd e96d 893d
00000190: 4fd6 b1bd 2cbf 56be 89e1 ad3d 0ae3 b03c
000001a0: ba4d 62bd 5bd1 ac3d ff65 cb3d 7ff6 ad3d
000001b0: e000 bc3e 029d 233e 86f9 5b3c a86c 1d3c
000001c0: 2228 e0bc 7470 173d 02b6 413e f83e 3ebe
000001d0: 54d8 8e3e b39f 22be 085e a4ba c3b9 23bd
000001e0: a070 a6be 3083 e4bd 0e14 b2be 339c 12be
000001f0: 7c88 04bf 0891 08be 3331 65bc 2686 0dbe
00000200: 09e9 1b3b ea13 ee3c f7fd 28bd e666 303e
00000210: 3dc5 0ebd 652f 14bf 9fe5 3d3d af73 66be
00000220: d9a6 0f3e a74f aa3d 726d e8bd 2f18 963e
00000230: 6360 81bd 3dee 86be 047a bfbd d3a4 c53d
00000240: deea a4bd dc06 8e3d cf58 353c ad21 a439
00000250: 02c5 9abd ef40 c4bd 4518 57be 3897 a23d
00000260: 3f65 973d e481 d83d 49d1 293e ff92 02bf
00000270: 0742 60be 845e bcbd 3e96 9ebe 71b8 8b3d
00000280: d95b 8dbd d97a afbe c7d3 f23d 6755 a2bc
00000290: 376f 6d3e 40c3 ddbd 9519 6e3d 81f7 49be
000002a0: 4254 c23c d00e f4b7 57dd 20be 5c30 36be
000002b0: 9373 9d3d c0c8 8b3e 9a60 04be 2987 893d
000002c0: 98e9 21bd 5291 853d 2346 e1be 677c 263e
000002d0: fe43 68bd 41a3 c2bd 3df2 643e c99e 483e
000002e0: 7e91 b9bd 6d48 db3d 035f a9bd 1197 883e
000002f0: 973c d2be 24f0 39bd 001b b73d 6ba1 193c
00000300: a72a 283e 8082 90bd 3041 d3bd b797 023e
00000310: 777e 9bbe 9a57 253d e4ef 863e e089 18be
00000320: 04f3 5d3d bf03 b9bc 3dfe ec3d 856e adbc
00000330: 8a35 73bd d844 34bd 5a12 cd3d 5971 56be
00000340: 8aa2 ee3d c963 1f3e 30fe 413e 9b6b 173e
00000350: cd79 a63d 8c43 2b3c 5505 30be 6283 e23b
00000360: 3dda 8e3e b2c5 36be 3ff0 96bd 2dc5 a13d
00000370: 89f8 78be f661 e43c e54a 10be 5fbf 44bd
00000380: 31be d83d 9821 d3bc f814 b63d ee41 d4bd
00000390: c8bf 383e a819 423c d5c6 123e 4297 623d
000003a0: 07d9 1cbe 4203 24be 4b43 f33d 2751 953e
000003b0: 4546 0f3e 9bf6 8b3e d032 933e f090 aabd
000003c0: 059f c63d 55f1 223c 5580 b93d d862 713e
000003d0: 512a 93bc 4444 26bd 0182 683d 1c53 a23d
000003e0: 7018 983d 078a c53c 1568 21bf 7e55 fb3d
000003f0: 6868 efbe 89a4 0d3e b8f7 9fbd 8857 babd
0.10253031 -0.0076094703 0.07510964 -0.16635537 -0.092202954 -0.5722526 -0.017898493 0.17561595
0.24147072 0.39097896 0.012942656 0.15664598 -0.06765128 -0.17428915 -0.09822958 -0.08620052
0.10162596 0.1880211 -0.34433454 -0.122934915 -0.07599084 0.17699474 -0.068107545 -0.02687163
-0.20668419 -0.20179208 -0.09597638 -0.57345724 0.0876517 -0.16131194 -0.0071521034 0.01401379
-0.06726973 -0.015636893 0.04878009 0.09288326 0.122345395 -0.23970965 0.096366115 -0.105660476
0.011871852 -0.07170598 0.06846202 0.1173991 0.008858086 0.11289891 -0.12528194 0.14647944
0.25333515 -0.1622572 -0.2291311 -0.17746186 0.015356797 -0.21162687 -0.05794925 0.23585467
0.20576862 0.06674569 -0.045385115 -0.100827426 -0.13319066 0.09769027 0.0037331323 0.11473418
0.00010524037 0.29969215 -0.11233776 0.16149265 -0.19235295 0.04865807 0.12630942 -0.08994661
0.11380473 0.029766003 0.06764431 0.11126156 -0.024870167 0.20131564 0.2330222 0.0018064443
-0.022712126 -0.04585219 -0.1830451 0.018372433 0.10926502 -0.05958148 -0.0968195 0.074533276
-0.10018666 -0.0046212743 -0.027587561 0.1539776 -0.1598891 0.0771231 -0.056264292 -0.27660125
0.14751528 0.29860482 -0.11859539 0.06710417 -0.08683454 -0.20971364 0.08490283 0.021592636
-0.055249907 0.08438369 0.099315636 0.08494281 0.36719418 0.15977862 0.01342619 0.009608425
-0.027362887 0.036972478 0.18917087 -0.18578708 0.2789942 -0.15881233 -0.001254023 -0.039972078
-0.325078 -0.111578345 -0.34780926 -0.14317398 -0.5177076 -0.13336575 -0.013988781 -0.13820705
0.0023790023 0.02906223 -0.041257825 0.17226753 -0.03485607 -0.5788482 0.046361562 -0.22505067
0.14028491 0.08315974 -0.11349 0.29315326 -0.063172124 -0.26353636 -0.093494445 0.09650578
-0.0805261 0.06934902 0.011068537 0.00031305608 -0.075571075 -0.095826976 -0.21005352 0.07938999
0.07392358 0.1057165 0.16583742 -0.5100555 -0.21900187 -0.09197715 -0.30974 0.06822289
-0.06902284 -0.34273413 0.118567996 -0.019816114 0.23186956 -0.108282566 0.058129866 -0.19723321
0.023721818 -2.9093964e-05 -0.15709434 -0.17791885 0.0768806 0.27301598 -0.12927476 0.06715233
-0.039529413 0.06521858 -0.43998823 0.16258393 -0.056705467 -0.095037945 0.22358032 0.19591822
-0.090609536 0.107071735 -0.08270075 0.26677755 -0.4106185 -0.04539503 0.08940697 0.009376864
0.1642252 -0.07056141 -0.10315168 0.12753187 -0.30369923 0.040366746 0.26354897 -0.14896345
0.054186836 -0.022584794 0.115719296 -0.021170864 -0.05937723 -0.044010967 0.10013266 -0.20941676
0.116520956 0.15565409 0.18944621 0.14787142 0.081287004 0.010453116 -0.17189534 0.0069126347
0.27900878 -0.17848852 -0.07370042 0.078989364 -0.24313559 0.027878743 -0.1409107 -0.04803407
0.10583151 -0.025772855 0.08890718 -0.103641376 0.18041909 0.011846937 0.14333661 0.055320032
-0.15317164 -0.16016868 0.118780695 0.29163477 0.1399165 0.27336583 0.28749704 -0.08328426
0.09698299 0.009945233 0.090576805 0.23572862 -0.017964514 -0.040592447 0.056764606 0.07926008
0.07426536 0.024113668 -0.6304944 0.12272166 -0.46759343 0.13832296 -0.078109205 -0.090987265

shared_net.2.bias f4 [128]
00000000: 275e a63d 3f9c ec3d d882 8c3d 0eb3 093d
00000010: 5561 e33c 6912 ff3c 7aea 223e 95a6 b139
00000020: fbba 2dbb 83ad f8bc 5218 013e b650 b5bc
00000030: 3dbb 8a3c 90b0 33bc 3381 ccbc 93a6 0d3d
00000040: b254 b53c 9a06 c4bd d78c d63d f0f4 03bd
00000050: 8b2d 3f3c c563 d33d f740 393e 73a7 0e3e
00000060: 8b90 f93d 9a07 d73c 02e0 093e 69bd 163e
00000070: ec91 3d3e 648e 073e 38dc f5bb c4ba b33c
00000080: 96b5 2d3e 0000 0000 a218 d23b 169c 0cbd
00000090: 77bf 373e e80f f03c 5405 5b3a 57e0 8bbb
000000a0: 0000 0000 898b 433b 213e a5bb 9c93 003e
000000b0: 0218 d73c 8cc0 313e 19e9 363e 8715 34bd
000000c0: d0c5 f2bb 7ed2 283d 913d 6fbd 549c 0e3e
000000d0: bb8f 603d 1846 063d 511d 1a3d 0e51 2abd
000000e0: 1c42 f6bb 743f 143e 7738 e9bc 8fb9 093e
000000f0: 32ed ca3d 7387 153e 7485 3cbc 86c6 92bd
00000100: 8c55 1dbd c944 003c 2746 cf3d f0a6 cc3d
00000110: f847 bdbc 9e68 123e e9ef 8b3d 0000 0000
00000120: 1727 bd3c 7168 573d fab0 5d3b 18c2 e73b
00000130: 49f3 503c 8830 b63b 833b 9b3b 53c6 323d
00000140: 5523 203d cbdb ef3b a577 5c3b ed73 01bc
00000150: d256 adbd cc78 913d 4881 1b3e 7481 b13c
00000160: 1d34 3c3d 854d c63d b7e7 31bc cc6d 86bc
00000170: dd12 b93b 5f9a a93d aa07 c8bc 1d49 daba
00000180: 74f6 5f3c 92db 8b3c 5e9e d4bc babe 793d
00000190: abc4 5abb 46ed e43d 4141 fabc 5696 b1bc
000001a0: d8a1 2f3c 371c 1dbd 2404 6f3d cfd2 7fbc
000001b0: 90c6 53bd ca2a dbbc a4f7 db3c 3a64 1d3b
000001c0: c791 113e 7bc5 303e f7ce dcbc d810 c73d
000001d0: eb89 143d fef1 633c 06eb 9b3d ae7e cc3b
000001e0: 4ef7 b9b9 5981 fc3d 4117 95bc 8a73 083b
000001f0: 4b8a d63d b28e a1bc 3772 8c3c 9915 ad3d
0.08123427 0.11553239 0.06860894 0.033618025 0.027756372 0.031136708 0.15909758 0.00033884184
-0.0026509154 -0.030356174 0.12606934 -0.022133213 0.016934985 -0.010967389 -0.02496395 0.034582686
0.022135112 -0.09571572 0.10476082 -0.032216012 0.011668573 0.10321764 0.18091188 0.13931064
0.121857725 0.026248742 0.13464358 0.14720692 0.18512696 0.13237911 -0.0075030588 0.021939643
0.16963801 0.0 0.006411628 -0.034328543 0.17944132 0.02930446 0.0008354981 -0.0042686868
0.0 0.0029837808 -0.0050428067 0.12556309 0.026256565 0.17358607 0.17862357 -0.043965843
-0.007408835 0.041216366 -0.058408324 0.13926822 0.054824572 0.03278169 0.037625615 -0.041581206
-0.007515205 0.1447733 -0.028469307 0.13449691 0.09908523 0.14602451 -0.011506427 -0.071667716
-0.038411662 0.0078289 0.101208024 0.09992778 -0.023105606 0.14297721 0.068328686 0.0
0.023089929 0.052589837 0.003382741 0.0070726983 0.012753316 0.0055599846 0.004737319 0.043646168
0.039096195 0.0073199025 0.003364065 -0.007901174 -0.08463825 0.07103118 0.15186036 0.021668173
0.045948137 0.096827544 -0.010858468 -0.016409777 0.0056480006 0.08281397 -0.024417717 -0.001665387
0.013669599 0.017072473 -0.025954422 0.060972907 -0.0033381383 0.11178069 -0.030548694 -0.021678131
0.010719739 -0.038356986 0.05835356 -0.0156142255 -0.051703036 -0.026753802 0.026851483 0.0024016039
0.14215766 0.17262833 -0.026954157 0.097200096 0.03626434 0.013912676 0.076131865 0.0062406873
-0.00035470206 0.123293586 -0.018199565 0.002082082 0.10475596 -0.019721363 0.017144306 0.08451385

shared_net.4.weight f4 [64, 128]
00000000: 39a4 323e 137f bc3e 8069 443e bf21 3dbe
00000010: 6592 843d c768 e13d 066b 0cbe 95ed 68be
00000020: f089 0e3d 2e9e 0bbc f5e3 21bc fcac dd3d
00000030: eb2a 343c 963b 143d 6831 fcbd 3761 8bbe
00000040: d748 89ba 0ba2 53bd 58eb cfbd 52b4 57bd
00000050: c7e5 67be c683 14be c020 d9bb 447b 79be
00000060: 83f8 dc3c 6e7e 20be a988 b5bd 61d9 24be
00000070: b94a bdbd 95fd 29be f3fb 09be 31f3 49be
00000080: ba05 fc3d 5ebf f1bd 3b82 a53d 4e72 483e
00000090: b32a 35be d2fd 9bbc 8361 8b3d 9c98 74be
000000a0: 6311 cf3d ea87 2ebe 0e91 c1be a6b3 173d
000000b0: a9e2 d4ba e704 9cbd 2d78 8ebd a4f2 4bbe
000000c0: 6163 22bd d02e 23be ddf5 49bd f81e 20bd
000000d0: 2b61 dfbd 51a1 66be 5a93 703d 4daa 8bbe
000000e0: 0d75 87bd 988d 053e f718 eb3d 3ee8 563e
000000f0: fddf e13d 2e73 973c ff67 143d 5af7 2dbe
00000100: 04f2 bfbd 22ea 04be c931 41be f81d 893e
00000110: 13b1 b93d c3f5 693d d42f 7fba 5550 3fbe
00000120: fb54 4abd 4139 25be 2dd0 f3bd 27f4 85be
00000130: b376 d83d 3c8e 59bc df30 99bd 60ad 523e
00000140: 426a 993d dea8 c83d cf50 97bc 17a3 6a3e
00000150: 11af abbc 03aa 7dbe bf65 0fbe 54d9 b43d
00000160: 1b98 7a3b bc8a ddbd bfc4 d53d 404f afbd
00000170: 0313 6fbe 1a65 01be b139 11bd ef66 efbe
00000180: 0436 c6bd 6b53 133e 97be 243d dce2 01be
00000190: b0dd 073e c683 a9bd ad4e a9be aae7 01be
000001a0: 508c 933d de8a 6f3e 157d 9b3d 8c87 f2bc
000001b0: 2839 70be dfa8 163d 57b9 e0be 966d 593d
000001c0: b467 923d 49d8 003e 6510 813e 52a5 3d3d
000001d0: 3d2a c3be eb13 3dbe 5d34 2b3e c0ed 6dbd
000001e0: 8991 a9bd f859 f53c a748 0bbe 7d29 43be
000001f0: d34d e93d c9f7 c73e 560c d2bd 93f7 433d
00000200: 0bdc a9bc 1f07 db3d 7d7f 633d 64c7 efbd
00000210: 2ec3 b53d 31fa a7bc 0ec2 ae3d b074 7a3b
00000220: e8c7 1b3e 49fd 8bbe bade b23e be54 4b3e
00000230: 0ef1 acbd e3a8 7f3c 7562 673d 692f 0dbd
00000240: 56ad 58be 47f1 183e a48d 33bd df95 f83d
00000250: c3c3 c43d 6bc6 033e f5ba 13bc aac2 aa3d
00000260: 1da7 bfbd fa2b 44be e4c6 a4bd 41b5 ea3d
00000270: 5f1b eebc 26d8 2fbc 56ed 6cbe 5df6 08bd
00000280: 4d5b c3bd 1b45 bd3d 9a79 183d fb6c 26bd
00000290: 9ab3 3c3e 5d88 80bd 571d 1abc eb4e 0fbe
000002a0: 442c a9be 2c70 afbd a67a 183d 6a31 cbbe
000002b0: 5a5c 603d ac48 bcbc 0eb9 9abd 44c3 1cbe
000002c0: 3700 19be f673 0cbe d2b9 5d3e f7dd 553a
000002d0: 35b0 08bc 802b 443e 9a22 033d a5d2 4b3e
000002e0: a89c 83be b620 08be cb1f 23bd e42d 823e
000002f0: fdd9 6c3e 0886 86be fe5f 833d 0050 263c
00000300: 01fb f2bd 58bc a23d f2bb 3f3c c2ae 5bbe
00000310: 4741 67be dbdd 353e 0693 ae3e d770 503e
00000320: 1522 4a3e e10a 5f3c cbf8 a73c b8a8 ad3b
00000330: 4690 cbbc c6ef ef3d 62ee d33e 63fe 34be
00000340: eaaf 7f3e 6938 f3bd b031 44be 709d 8cbd
00000350: 3cb9 973d 3be4 65bd c2a1 ae3d 4d03 cd3d
00000360: 4905 533e a7ba 793e 5de7 a53e 017f 643e
00000370: e545 053e 852b 093e 41b0 9d3d 3a23 0a3e
00000380: 6ec3 843e b345 f03d a36b dcbd 6cfe 93bd
00000390: dd62 3e3d e277 4c3d ef6c 0e3e 9802 473d
000003a0: a40f 753c a937 3a3e e02a 4dbd acd9 e9bc
000003b0: 4882 553b f019 b2bd 39a3 2abe 0b23 c33d
000003c0: 3529 e03d 8394 cb3d a733 94bd 384c 67bd
000003d0: b4dc 71be 865c 2ebe 2f55 29be 0c09 9e3c
000003e0: 58bf 6a3e c804 25bd 4dfd 773e d665 f8bc
000003f0: e315 a23d 5970 a93c 7bb8 113e 3491 053e
0.17445458 0.368157 0.1918087 -0.18469904 0.06473235 0.11006313 -0.13712701 -0.2274688
0.034799516 -0.0085216 -0.009881009 0.1082401 0.010996561 0.036189638 -0.12314111 -0.27222607
-0.0010473978 -0.051668208 -0.1015231 -0.0526622 -0.22646247 -0.14503393 -0.0066262186 -0.24363428
0.026973968 -0.15673229 -0.088639565 -0.16098548 -0.09242768 -0.1660064 -0.13475017 -0.19721676
0.1230578 -0.118040785 0.0808148 0.19574854 -0.1769207 -0.01904193 0.06805708 -0.23886341
0.10110738 -0.17044035 -0.3780598 0.03703656 -0.0016241866 -0.076181225 -0.069565155 -0.19916779
-0.039645556 -0.15935826 -0.04930674 -0.039092034 -0.10907205 -0.22522475 0.058734275 -0.27278367
-0.066141225 0.13042295 0.11479371 0.20987031 0.110290505 0.01848754 0.03623199 -0.16988888
-0.09372333 -0.1297994 -0.18866648 0.26780677 0.09066977 0.057119142 -0.0009734605 -0.18682988
-0.04939745 -0.16135122 -0.11904941 -0.26162836 0.10569515 -0.01327854 -0.074800245 0.2057395
0.0749097 0.09797834 -0.01847115 0.22913776 -0.020957502 -0.24771886 -0.14003657 0.088305146
0.0038237635 -0.10817477 0.10437917 -0.085600376 -0.23347096 -0.12636223 -0.03545541 -0.4675822
-0.096782714 0.1438729 0.040220823 -0.12684196 0.13268161 -0.08277087 -0.33067837 -0.12686029
0.07204497 0.23392817 0.07592217 -0.02960565 -0.23459303 0.03678214 -0.43891403 0.053083025
0.07148686 0.12582506 0.2520782 0.04630024 -0.38118163 -0.1846463 0.16719194 -0.058088064
-0.08279712 0.029950127 -0.13601933 -0.19058795 0.11391797 0.39056233 -0.10256259 0.047843527
-0.020734807 0.106947176 0.055541504 -0.117079526 0.08875118 -0.020505043 0.08533107 0.0038216524
0.15212977 -0.2734168 0.34935552 0.19856545 -0.08444415 0.015604231 0.05649038 -0.034469042
-0.21159872 0.1493579 -0.04383625 0.12137961 0.09607651 0.12868659 -0.009016742 0.083379105
-0.09358046 -0.191574 -0.08045748 0.11460353 -0.029065786 -0.010732686 -0.23137411 -0.033438075
-0.095388986 0.092416964 0.037225343 -0.040631276 0.18427888 -0.06276009 -0.009406409 -0.13994949
-0.33041584 -0.08566317 0.03722634 -0.39686137 0.054775573 -0.022983871 -0.07554828 -0.15308863
-0.14941488 -0.1371611 0.21652916 0.00081583805 -0.008342792 0.19157219 0.03201542 0.19904573
-0.25705457 -0.13293728 -0.039825242 0.25425637 0.23130031 -0.26274133 0.064147934 0.010150909
-0.118642814 0.0794608 0.0117025245 -0.21453384 -0.22583495 0.17760412 0.34096545 0.20355545
0.19739564 0.013613434 0.020504376 0.005299654 -0.024849068 0.11715655 0.4139281 -0.17675166
0.2496945 -0.11875994 -0.1915958 -0.06865966 0.074083775 -0.05612586 0.085269466 0.10010395
0.20607485 0.24387608 0.3240308 0.22314073 0.13014944 0.13395508 0.076996334 0.1349
0.2593035 0.11732044 -0.107627176 -0.072262615 0.046481002 0.049919017 0.13908742 0.048586458
0.014957342 0.18185295 -0.050089717 -0.028546177 0.0032578874 -0.086963534 -0.16663827 0.09528168
0.109453596 0.09940436 -0.072364144 -0.056469172 -0.23619348 -0.17027482 -0.16536401 0.019291423
0.22924554 -0.040287763 0.2421772 -0.030321997 0.07914331 0.020683454 0.1423053 0.13043672

shared_net.4.bias f4 [64]
00000000: 8874 483c c935 7bbb 49bb 723d 2d18 193e
00000010: 6371 763d 0000 0000 3363 393b d148 0dbd
00000020: 78af 963d 67aa 673e d97b 7cbc 0000 0000
00000030: 5b15 283e 8e0f 903b 3492 18bc 6af3 7abb
00000040: 8a82 083e 3d4f b33b 88c6 debb c95c 383c
00000050: 706e 613e 6f4c 243e f516 0bbb c47a 0fbc
00000060: 51ef 283e 9785 0abd 8980 a8bc 98c8 773d
00000070: 54cb af3d a457 953d fc0d 473e 397b bc3d
00000080: dee3 3a3e ce09 57bc 173c c6bc 8c00 f03d
00000090: 8aeb 52bc 432a 1abc 33e1 a53a 2582 f53d
000000a0: 987b a93d 1790 0dbd d286 d0bc 1359 e6bd
000000b0: 0e94 373e 0000 0000 c3fe 163e bf13 70bb
000000c0: 3d4f 8d3c f851 cd3c 0000 0000 295d 873b
000000d0: 0000 0000 158a 313e 74de c4bc 0d7b eebc
000000e0: 3d4b 5ebd 36e0 0abd b52b 853d 1e37 e7bc
000000f0: d8bf fcbc 07d2 2c3d f865 fa3d e239 223e
0.012234814 -0.003833162 0.05926064 0.14950629 0.060166728 0.0 0.0028287887 -0.03449327
0.07357687 0.22623597 -0.015410387 0.0 0.16414396 0.0043963855 -0.009312201 -0.0038292059
0.13331047 0.0054720924 -0.006798569 0.01125259 0.22014785 0.16044782 -0.00212234 -0.008757297
0.16497542 -0.033818807 -0.020569103 0.060494035 0.08583704 0.07292107 0.19438928 0.0920319
0.18250987 -0.013124896 -0.024198575 0.11718854 -0.01287354 -0.00940949 0.0012655616 0.11987714
0.08275527 -0.034561243 -0.025454912 -0.11247458 0.17927572 0.0 0.14745621 -0.0036632863
0.017249698 0.0250635 0.0 0.0041309786 0.0 0.1733783 -0.024031855 -0.02911141
-0.05427097 -0.03390523 0.06502477 -0.028224524 -0.030853197 0.042192485 0.1222648 0.15842393

actor.0.weight f4 [32, 64]
00000000: 6f95 0fbe 8121 8e3e 6956 323e 8916 ee3e
00000010: f739 05bd ff44 14be 146e 8abe 045a be3d
00000020: c506 b03d c972 b6bc 1a9c 37be 59af 19be
00000030: 54ba 403e a298 d73d d088 5ebd 8f72 09be
00000040: 3b19 86bd 0c99 873d d0f0 95bc 64e7 3bbe
00000050: 3536 f43d 3c63 3dbe 7def cdbe c3a9 f83c
00000060: 56ae 1abe 5c94 5cbe a6be bb3d 55a6 febd
00000070: 143d 82bd 3a4d 603e 6655 c13d 8935 c9be
00000080: 3457 aebe a909 b73d e9da e4bd dc91 873e
00000090: 3e0f 4bbe 18c8 32be 4851 d8bd a96c 5abd
000000a0: 5a2e e33d bf17 debd c2ef 453d c651 f83d
000000b0: 17db 7cbc edeb e6bd 470e d5bd 9fb1 f43c
000000c0: e2f9 2cbe a794 47be ba52 a93d f803 39be
000000d0: e44f 4dbe b8f8 b7bd 0117 b63e 3a82 b03a
000000e0: 7a0b 58bd 147b efbd f23e 6cbd e757 803e
000000f0: e14d b1be 0492 03be 1a87 70be 27ac adbd
00000100: ad63 68bb 79b4 debd e0d7 c13c ae0e a4be
00000110: 3268 1abd 994d 42be 0834 acbc 623f fabd
00000120: 78fe 92bb b877 adbd b277 fdbd 6638 d5bd
00000130: 5525 82be d14f 323b 7e8d da3d cb5d 02bd
00000140: 9009 4b3e 437d f2be e417 8fbe 28f3 f83c
00000150: ce3f a23d dcbc 733e 904d 3abe c39b 98be
00000160: 2a8f e6be f05c ce3d f445 ff3d f007 b6bd
00000170: cefc 013e 35f3 f43d b84f cbbe 5e0f efbd
00000180: e787 733e 161e bb3d 1932 c03e 1cd3 103d
00000190: ea16 60bd 325c bcbd c74e 173d 18a7 0ebe
000001a0: 3934 adbb 331e a93d 5a2c 30be a1e0 ab3e
000001b0: 9acb 773e 8c17 793c e978 dd3d 5cd2 1bbd
000001c0: 17b5 08be 64d5 38bc c614 8a3d 0f10 a6be
000001d0: d652 91be 081b 8cbd 38a1 993d 0cf8 113e
000001e0: 31de 78bb 3e8c e83d 8f5c 05be 7974 ba3d
000001f0: 0781 1e3d 7b80 1b3d cb04 0cbd 56a4 f73d
00000200: 96e7 a43d 26ec 7bbc 76a3 8cbe c1cf 083e
00000210: 2b58 2fbd 8f28 353d 51b6 40bd dda7 21be
00000220: 723d c6be d348 67bc 8716 b73e 152c fd3d
00000230: e129 7f3d eaf2 4d3e 3f78 a4be 88d4 5a3e
00000240: c2d4 743e 159a ba3c 6a7a 543d c74a 34be
00000250: 4bfe fbbd b6f1 8c3e 19a2 0bbe ecc7 603d
00000260: 456f a8bd 947d 93bd 41bb adbc a2c4 bebe
00000270: bbde f23e 9ed1 3e3e ef17 8e3e 8295 293e
00000280: ecf3 1d3e accd f63e 4e59 01bd 7d11 173d
00000290: 397c 82be 6e3e 323e 7f9b 4ebc 97ca 35bd
000002a0: df59 823e c94c f2bd 1517 90be 6209 e83d
000002b0: f86d 86bd 865a ad3e 92bd 88bc 5848 8bbe
000002c0: 307c 2abe f1df 1bbe 41c0 54be 2b75 713d
000002d0: 6ce1 cb3d 2755 da3d 148c 863e 33ae e23d
000002e0: ede1 be3e b0bc 023e c78d f83e d153 dcbc
000002f0: d133 fb3d 1331 8c3d 8bd8 0ebd b083 3cbd
00000300: 7b0a 463e 41ea ce3e 70b1 203d 2777 66be
00000310: f7a0 babd 9846 cb3d 63ea e03d 231d ea3d
00000320: 3621 5b3d c246 cbbd d39a b43e ce57 41bd
00000330: 16bf 0e3e 2801 1f3d ab1a 9a3d 25f6 293d
00000340: 4f13 d8bd c145 83bd ddcd babe b7d3 74be
00000350: e851 4cbd a02a 9c3c e0b5 4fbc 66f5 d6be
00000360: 038d e63d 4ab1 0bbe c6e2 d43c 51bc 963e
00000370: dce8 a7bd bb0c 6ebd 9594 7f3e 5162 d5ba
00000380: 5603 253e 0aca 8dbe 2815 ed3d 80e3 633c
00000390: b44e 39be 4d01 4abe 52d2 d6bc c150 203e
000003a0: b9e0 13be bea6 e23e 6c20 b43e da19 c63d
000003b0: aae0 45be 7277 2a3d c94a c3bd fd8e 9fbe
000003c0: 51ba 9e3e cee5 98bc 4b63 94bd 4279 2a3e
000003d0: e8ee e8bd f387 2d3e 7885 20be 9445 9cbe
000003e0: bd9a 6e3e 743b 59be b60f f9be b526 84bd
000003f0: ee40 a1be b1d2 023e f10d ad3b fd15 02be
-0.14021848 0.27759936 0.17415775 0.46501568 -0.032525983 -0.14479445 -0.27037108 0.09294513
0.08595041 -0.02227153 -0.17930642 -0.15008296 0.18821079 0.10527159 -0.054329693 -0.13422607
-0.06547781 0.06620988 -0.018303305 -0.18349987 0.11924402 -0.18494886 -0.40221778 0.030354386
-0.15105566 -0.2154097 0.09167223 -0.12434069 -0.06359306 0.2190446 0.094401166 -0.39298657
-0.34050906 0.089373894 -0.11174566 0.2647847 -0.19830033 -0.17459142 -0.10562378 -0.053326283
0.11092825 -0.10844373 0.048324354 0.12124972 -0.015433094 -0.11275468 -0.10403114 0.029869853
-0.16892198 -0.194903 0.08267732 -0.1806792 -0.20050007 -0.08982986 0.35564426 0.0013466545
-0.05274532 -0.11693397 -0.057677217 0.25067064 -0.3462973 -0.1284867 -0.23489037 -0.08480101
-0.0035459802 -0.10874266 0.023662508 -0.3204245 -0.037697025 -0.18974914 -0.021020904 -0.122191206
-0.0044859014 -0.084701 -0.12376346 -0.10411148 -0.25419107 0.0027208219 0.10671519 -0.03182773
0.19827867 -0.47361192 -0.27947915 0.030389383 0.07922326 0.23802513 -0.1819365 -0.29806337
-0.450311 0.1007632 0.124645144 -0.08888233 0.12694094 0.119604506 -0.39709258 -0.11672853
0.23782311 0.09136598 0.3753822 0.03535758 -0.054709353 -0.09197272 0.036940362 -0.13930929
-0.0052857664 0.08257713 -0.17204419 0.33569816 0.24198762 0.015203368 0.108140774 -0.03804241
-0.1335033 -0.011281345 0.067422435 -0.32434127 -0.2838351 -0.06841093 0.07501453 0.14254779
-0.0037974233 0.11354874 -0.1302359 0.09104247 0.03869727 0.037964325 -0.03418426 0.120918915
0.08051984 -0.015376126 -0.2746846 0.13360502 -0.042808693 0.044228133 -0.04704887 -0.15786691
-0.38718754 -0.014116484 0.35759374 0.123619236 0.0622958 0.20112196 -0.3212299 0.21370137
0.23909286 0.02277855 0.051874556 -0.1760665 -0.12304362 0.2752816 -0.13636054 0.05487816
-0.08224348 -0.072016865 -0.021207454 -0.37259394 0.47435555 0.1863465 0.27752635 0.16560939
0.1542508 0.4820379 -0.03157931 0.036881912 -0.254854 0.17406628 -0.012610315 -0.044382658
0.2545919 -0.11831052 -0.2814261 0.11329915 -0.065639436 0.33858126 -0.016691957 -0.2720363
-0.16648936 -0.15222146 -0.20776464 0.05894963 0.09955105 0.10660773 0.26278746 0.11068382
0.37281743 0.12767291 0.48545668 -0.026895436 0.122657426 0.06845298 -0.03487448 -0.046024024
0.19339935 0.40413097 0.039231718 -0.2250639 -0.09112733 0.09925574 0.10982206 0.11431339
0.05349847 -0.09925605 0.35274372 -0.047202878 0.13940081 0.038819462 0.07524618 0.041494507
-0.10550558 -0.06409789 -0.36485186 -0.23908888 -0.0498828 0.019063294 -0.01267764 -0.419841
0.112573646 -0.13641849 0.02598704 0.2944055 -0.08198711 -0.05811761 0.24959023 -0.0016279911
0.16114554 -0.27693206 0.11576301 0.013909221 -0.18096429 -0.19727059 -0.026223335 0.15655805
-0.14441194 0.4426784 0.35180986 0.096728995 -0.19323984 0.04161782 -0.095357485 -0.3116378
0.31001523 -0.018664267 -0.07245501 0.16647819 -0.11373693 0.16946392 -0.15675914 -0.30521834
0.23301215 -0.21214086 -0.486448 -0.06452695 -0.3149485 0.12775685 0.005281203 -0.127037

actor.0.bias f4 [32]
00000000: b40f 90bc 0000 0000 7dc7 563d 3b63 8fba
00000010: 1107 9fbc 098e 1b3d 69a0 3bb8 b3c9 28ba
00000020: 9c76 4ebd aacb 7fbc cd03 48bc 52f4 223d
00000030: a99c 283c 3cf2 9dbc 42ac 153d e2b1 83bc
00000040: 8733 153d 6aaa c9ba 0000 0000 9957 83bc
00000050: abae 51bb b51a ca3c 0000 0000 c15c 88bc
00000060: c3ea 233c c732 e63c 12b7 c73c bc83 863b
00000070: 2ad8 66bb ae69 fa3b 939b 08bd 15d1 6c3d
-0.017585613 0.0 0.05243634 -0.0010939607 -0.01941255 0.037977252 -4.4733668e-05 -0.0006438747
-0.050406083 -0.015612522 -0.012207937 0.039783783 0.010291257 -0.019280545 0.03654123 -0.016076032
0.036426093 -0.001538587 0.0 -0.01603298 -0.003199498 0.024670938 0.0 -0.016645791
0.010004702 0.028100384 0.024379287 0.0041050594 -0.0035224059 0.0076419925 -0.033351492 0.057816584

actor.2.weight f4 [9, 32]
00000000: 70fb 4abe b02c e5be 1ee8 533e 17f9 82bc
00000010: 97e4 ddbc 2842 e7be 190f ae3e c594 2ebe
00000020: ca44 783d af62 d03e 5b64 4d3e a3f3 e8be
00000030: bd06 743e a82d 17bf 9caa 48be d004 25be
00000040: 653e c23d 5cfb 1a3d eba0 e03c 9d60 a53e
00000050: dc3d a83d 0ea8 c7bd aedb 883d 1bf4 443e
00000060: 5a26 cbbe 011a ccbd 4061 c7be 22d8 16be
00000070: 699f 333e 82d6 593e 1154 bf3e 52fa 553a
00000080: f7c1 363e 2779 09be 0354 9f3e 4331 90bd
00000090: 24b4 96bd 7469 b0bc 2af9 ea3e d930 1f3e
000000a0: a79c 4abd babc e7be bea6 15be 3d63 813e
000000b0: 509b a43c 8c7b 263c a458 bb3e d6b9 8c3e
000000c0: 852d b7be 9318 f43e 5817 80be 1cd3 c7bd
000000d0: 4a06 d43e 4d9f 223e 4ca7 38ba 5626 c0bb
000000e0: 0dc3 2fbe bd5c 753e abe6 c0bd 91c9 0dbe
000000f0: 9568 823d 2dc1 163f 67ba c8be c0bd 32be
00000100: 5bbd d8bd ffb3 15bf 7e0b 163e de8c d8bd
00000110: e7c5 51be 94f1 b93d 1acf 02bf c58f 37bd
00000120: 1ac9 103f 56ce d93d 4f92 0b3c 5789 9f3d
00000130: d826 ffbd f36b 2dbd c5d7 d73d 660e 8e3c
00000140: 294d b5be adcc 63be 585f e2be b945 91be
00000150: c6d7 89be ccf9 933e 42d8 733e 4280 123e
00000160: 041f acbd 4563 9ebe 1f11 1f3e 1a0c 30be
00000170: 726b bd3e 41d5 61be 6ce3 5fbe c619 93be
00000180: 00f7 31bd 24b8 8b3d 87fd cabe e1e0 9abe
00000190: 733b acbe 19f7 cc3e 8bff 0fbd c4d7 94bd
000001a0: 3a24 aabe 09ff e3bd 7213 04be 4f0b a7bc
000001b0: 89ef 673e 7b8a c9be 0b49 25be 6cdd 1fbe
000001c0: 8f25 64be 9576 2bbe e564 df3d bb6c 48bd
000001d0: 9cfa cebe d021 7c3d 44a2 ab3e 375d 163e
000001e0: 7681 fdbd ed35 e63e 3cdf 5f3e 1a7c 423d
000001f0: bfa2 723e 614f 5d3e c11d 87be 2a29 093f
00000200: 9feb 23be 7c55 98be a820 b7bd f604 babd
00000210: 8bb7 1e3e f957 5c3e 4a90 65bc c33d 3bbe
00000220: c8fb f33d 44b8 b3be 653a b6be 44cb 1fbe
00000230: ee94 363f acde b33e c37e 823e eb0a dfbe
00000240: eeca 99ba 84da 693e 81f1 263e c098 4c3e
00000250: 83d1 1dbe 7cb9 023e 64bf 56be 6675 13be
00000260: d5d4 aebe fe2f 1c3e 8f83 403e 1c94 c6bd
00000270: 8e7d b7bd 1055 93be ea4e 2f3e 68e6 a9be
00000280: 941d bc3d fb6a 253e 75bc 2bbe ba1b 1a3e
00000290: 6fec d1be b7cd 8bbe df76 9abe bcba 503e
000002a0: ad1a 24bd 4d27 073e 5685 973c 5266 3abd
000002b0: 1887 80be eb75 f0bd eb27 023f 0a4c 7d3d
000002c0: 854a 43be 6bd7 753e 056f cbbb 4353 8c3e
000002d0: 8a02 d5bc 1556 d23e eda2 8f3e 01ba 43be
000002e0: c501 37be 796a 5f3e ad69 363f 8b92 44be
000002f0: 9709 70be 1f1b e03d c449 1b3f dce7 d5bd
00000300: 780b 7c3e 5f35 fb3c d210 273f 44de ddbe
00000310: 666d 083d c3eb 12bf c272 743e 9923 7fbc
00000320: 8ae4 27be 30b4 43be 124b 153e d1ae c9bd
00000330: ab0d 963e d2a5 b63d 5045 8c3e d698 afbe
00000340: bd0a 06be f041 4e3e 6d18 a23c d0b2 a5bd
00000350: 0c7a d1be 7fd7 7bbe acf1 cdbc 7fe6 1d3d
00000360: f02e ce3e d398 8fbe c384 1a3e a3bc dc3e
00000370: 4ca5 963e 67ff 2f3c dbe5 f4bb cf10 943e
00000380: 5d52 a13d 72a4 d63d ae3c 25bd 70ad 3ebe
00000390: 6071 b0be 5b25 1a3d 80fb 52be 8147 78be
000003a0: c129 04be 7fbf 41be 0e88 383f 9046 183f
000003b0: 5f89 de3e d9f1 7e3d 209f 573e 3402 7bbe
000003c0: 02ea 343e b9f5 b73c 4b70 9c3e ec91 94be
000003d0: 1772 c53e 8fca a5bd 121f 033e ae51 053e
000003e0: 73bf 883e d19a d7bd d203 51be 6546 c1be
000003f0: 1c96 1abd 8b4d b73e fc25 113e a024 59be
-0.19822478 -0.44760656 0.20694014 -0.015987916 -0.02708654 -0.4516766 0.33995894 -0.17048939
0.060612477 0.4070029 0.20057814 -0.4549838 0.23830695 -0.5905404 -0.19596332 -0.16115117
0.09484557 0.03783737 0.027420482 0.32300273 0.08214924 -0.09748851 0.066825256 0.19233744
-0.39677697 -0.09965897 -0.38941383 -0.14730886 0.17541279 0.21273234 0.37368825 0.0008162606
0.17847429 -0.13425122 0.31118783 -0.07040646 -0.07358578 -0.021534659 0.45893222 0.15545978
-0.0494658 -0.45261174 -0.14614388 0.25271025 0.02009359 0.010161292 0.36591065 0.27485532
-0.35776916 0.47675 -0.2501781 -0.09757063 0.41411048 0.15881081 -0.0007043972 -0.005863945
-0.1716425 0.23961158 -0.094189964 -0.13846423 0.06367604 0.5888851 -0.39204714 -0.17455196
-0.10582992 -0.5847778 0.14652821 -0.10573743 -0.2048565 0.090792805 -0.5109726 -0.044814844
0.56556857 0.106350586 0.008518769 0.07789867 -0.12458581 -0.042339277 0.10539202 0.01734085
-0.3541043 -0.22246046 -0.44213367 -0.28373507 -0.26922435 0.28901517 0.23812965 0.14306739
-0.08404353 -0.30935112 0.15533875 -0.17192116 0.36996037 -0.22054006 -0.21864098 -0.287306
-0.04344845 0.068222314 -0.3964655 -0.30249694 -0.33639106 0.4003227 -0.035155814 -0.072677165
-0.33230764 -0.111326285 -0.12898043 -0.020391135 0.22649969 -0.39363465 -0.16141145 -0.1561181
-0.22279952 -0.16744454 0.10907916 -0.04893182 -0.40425575 0.061555684 0.33522236 0.14683996
-0.12378208 0.44963017 0.21862501 0.047481634 0.23694895 0.21612312 -0.26389888 0.53578436
-0.16007851 -0.2975272 -0.089417756 -0.090829775 0.15499704 0.21517934 -0.014011452 -0.18285279
0.11913258 -0.3510152 -0.35591426 -0.15604883 0.71321 0.35130823 0.25487337 -0.43563017
-0.0011733451 0.22837263 0.16303064 0.19980145 -0.15411954 0.12766069 -0.20971447 -0.14400253
-0.34146753 0.15252683 0.18800186 -0.09696218 -0.089594945 -0.28775835 0.17119947 -0.331836
0.09185329 0.16154091 -0.1677111 0.1504964 -0.41000697 -0.27305385 -0.30168816 0.20383734
-0.040064503 0.13198586 0.018496197 -0.045507737 -0.25103068 -0.11741241 0.5084216 0.061840095
-0.19071396 0.24007957 -0.006208303 0.27407274 -0.026002187 0.410813 0.2805399 -0.19113924
-0.17871769 0.2181796 0.71255 -0.19196527 -0.23441158 0.10942673 0.6065943 -0.10444614
0.2461375 0.030665098 0.6526004 -0.43333638 0.033307455 -0.57390994 0.23871902 -0.015572452
-0.16395774 -0.19111705 0.14579418 -0.09847797 0.29307303 0.089183465 0.2739663 -0.34296292
-0.13090034 0.2014234 0.019787038 -0.080907464 -0.40913427 -0.24593924 -0.025139652 0.038549896
0.40270185 -0.28046283 0.15089707 0.43112668 0.29422987 0.010742045 -0.00747369 0.28919074
0.07877038 0.10480584 -0.04034107 -0.18620849 -0.34461498 0.03763328 -0.20603752 -0.24246027
-0.12906553 -0.18920706 0.720826 0.5948267 0.4346418 0.062242363 0.21056795 -0.24512559
0.17667392 0.022456037 0.30554423 -0.2901758 0.38563606 -0.080952756 0.12804821 0.1301944
0.26708564 -0.10527576 -0.20411614 -0.3774902 -0.03774081 0.35801348 0.14174646 -0.21205378

actor.2.bias f4 [9]
00000000: 5b57 c03b 9072 583d d390 99bc 039c 373d
00000010: 7049 953c 996b 4bbc 596d 213d 4a27 f13c
00000020: 3c16 c0bc
0.0058697886 0.05284363 -0.018745815 0.04482652 0.018223494 -0.01241579 0.039410923 0.02943768
-0.023448102

critic.0.weight f4 [32, 64]
00000000: 9e95 98be 8034 1ebe a74a 2fbc 335e a2bd
00000010: 70ce 9fbd 59d2 e13e 1495 303e d218 323e
00000020: d611 8f3c c88b d7bd c65c d83d e6a5 85bd
00000030: 8bca 2bbe d630 06be d340 1bbd 1126 ac3e
00000040: 9f18 aebe 6b5d 13be 3ace 46bb b088 5fbc
00000050: 15ab f9ba 41ce 1fbc faa7 e03c 33ff b0be
00000060: 984a dcbd bf6a 873e 8754 6f3e c39d 7f3e
00000070: ba2e cb3e 7e7f d23c 875b 6bbc 2a14 abbc
00000080: 0b31 203e 4757 a7be bfec 543e de2a bd3d
00000090: 5c9b 6f3e af20 cd3d 5e7e 443d 82a9 df3c
000000a0: 18d4 193d 0aaf 213e 6de4 56bd c715 e2bd
000000b0: 9ef2 02bd 8b60 9bbe 2ad0 ae3d 49fc bd3e
000000c0: af54 e93d c91b 67be 632b 083b d7fa 773d
000000d0: 841d 253e 8b14 a13d e916 1abe 6fbd 3fbe
000000e0: d9b4 e53d 42f7 6fbe 38fd c8bd f5bf 9c3d
000000f0: 4e15 a93c 8079 cebc 223e 1dbe 48c5 37be
00000100: f535 853e e685 903e a7eb 073d 526e 803e
00000110: 748c d63e 52e4 bf3c 56e5 893e 9118 123e
00000120: 747d c63e 4852 b33d b1e3 60be 4de6 50bd
00000130: 3dbb c03d 93f4 2238 1c53 db3d 879c 36be
00000140: 425a 673e 36d9 64be df48 6b3e b2cd 8ebd
00000150: b8b6 bf3e d015 4a3e 8fd3 0f3e fd85 a43e
00000160: f298 9c3e ba09 093c bf0e 203e a572 773e
00000170: 283b 243e 1680 523c cfb9 eb3e 3dd4 f73e
00000180: b742 293e 5c29 c3bd 0bd9 9cbb a241 793e
00000190: bb96 c0bd edc7 5a3e a71a c63e 4b34 a63e
000001a0: 36bb 1c3d 645e 2a3e be31 d9be c3bb 1fba
000001b0: 0466 573e a3b5 433e 5577 143e efcf 3f3e
000001c0: 2423 953c 27d2 5d3e 7010 c0bd 4ba1 d9bd
000001d0: 0b70 813e 79a6 013e 36ff 71be e316 c0be
000001e0: cf70 8cbd 860b 28bd 5d82 0fbe bdc9 93be
000001f0: bdd2 e63e 2540 50bc a809 6b3e c6f0 b63e
00000200: adfe 573c e53b edbd 2afe 35be 6935 a93e
00000210: 8848 063e bac6 ec3d ea0a cb3d 61c2 803d
00000220: 71b8 43be abfc d2bd 833e edbe 35f6 c03c
00000230: 69cd 10bd 5d3c cd3e d663 853d 4c4b dbbc
00000240: 4007 a93d 1646 373e f643 a8be f595 6c3e
00000250: e255 b4be 42a9 253c 9783 cf3d 0fc2 c9bd
00000260: 88d2 aabe 72c9 1e3d fb8a 46be 8d1b 263d
00000270: 53d0 bebd 2df6 39bd 191e f5bd bf29 4ebe
00000280: f71c 963d c285 6f3e 44f1 58be 4e54 fe3d
00000290: dc51 e33d f1dc 0c3e 4e1c ddbc 083d 843d
000002a0: b841 2dbe 9817 923e 4fb3 43be 56f0 2bbe
000002b0: ded0 cb3d 4a16 593d 3191 2b3e 3613 743e
000002c0: c30a 9e3d 5335 1cbe 89ff 6d3e e154 ef3d
000002d0: d93d 07bd f1de 25be 303c dcbe fdaf b43d
000002e0: 3230 1a3e 51d5 22bd f70d 77bc 4d41 1bbe
000002f0: 453d 61be b029 1fbe 97ee c63e 946d cf3d
00000300: b843 a6bd 07da 153e f18a 55bd b716 44be
00000310: a164 00be 4c6b 943d a885 6bbd 51ef 063e
00000320: e8e1 bc3d ec70 28be a98f 403e 193a 14be
00000330: 1054 8fbe 32ac 853e 3ced 89be 9631 b13c
00000340: 7f87 38be ae65 013f d88e 363e eebe ed3d
00000350: 23a5 f53d 4cd1 383c c733 203e f54c 523e
00000360: ae0c b4bc a647 72be 847a 9fbe 1709 413e
00000370: b7a0 c13e 17ea b03c 3713 973e ef01 25be
00000380: 5323 e33d 68dd 4a3e 0492 b93e b6a6 5ebe
00000390: 7e5f bf3e c45a 113c 3cef d9bd 4e0c 8b3d
000003a0: 3d7d ab3d 8150 ba3b 4593 13be 56cb 63be
000003b0: 9fee a9bd 2996 d8bd 18ad 573d 9133 45be
000003c0: f10d 093c f239 053e 03eb 97bd 4c50 38be
000003d0: bfcc a7bd 7811 7b3b 0364 273d 841f 6a3d
000003e0: d08e 32be a9b3 303d b3ef f73e 4341 8fbe
000003f0: ce7d 2abe d5b9 f23d 6a6a 16be 4f2b 583e
-0.2980165 -0.15449715 -0.010698951 -0.07928123 -0.07803047 0.44105795 0.17244369 0.1739228
0.01746456 -0.10524708 0.1056457 -0.06525783 -0.16776483 -0.13104567 -0.037903618 0.33622792
-0.3400316 -0.14391105 -0.0030335323 -0.013643429 -0.0019048179 -0.009753765 0.027423847 -0.34569702
-0.10756415 0.26448628 0.23372088 0.24962525 0.39684087 0.025695559 -0.014365084 -0.020883638
0.15643708 -0.32683775 0.20793436 0.09236692 0.23399109 0.100159995 0.047972076 0.027302507
0.037555784 0.15789428 -0.052463938 -0.1103931 -0.03196966 -0.30347094 0.08535798 0.3710654
0.11393105 -0.22569193 0.0020777814 0.060541954 0.1612454 0.078652464 -0.15047802 -0.18724607
0.112161346 -0.23434165 -0.09813923 0.076538004 0.020640042 -0.02520442 -0.15355733 -0.1794635
0.26017728 0.28227156 0.03318372 0.25084168 0.41904032 0.023424301 0.26932782 0.14267184
0.38767588 0.08755928 -0.21961857 -0.051000882 0.09410713 3.8851587e-05 0.10709211 -0.17833148
0.22593024 -0.22348484 0.22977017 -0.06972827 0.3744409 0.19734883 0.14045547 0.32133475
0.30585438 0.008364135 0.15630625 0.24164827 0.16038191 0.012847921 0.46040198 0.48404112
0.16529356 -0.09529373 -0.0047866157 0.24341443 -0.094037496 0.21365328 0.3869221 0.3246177
0.038264476 0.1663757 -0.42420763 -0.00060933473 0.2103501 0.19112258 0.14498647 0.18731664
0.018205233 0.21662198 -0.09378135 -0.10626467 0.25280795 0.1266116 -0.23632511 -0.3751746
-0.06857454 -0.041026615 -0.14014573 -0.28864852 0.45082656 -0.012710606 0.22952902 0.3573057
0.013183278 -0.115836896 -0.17772737 0.3304856 0.13113606 0.115613416 0.09914191 0.06287075
-0.19113328 -0.10302099 -0.46336755 0.0235549 -0.035352144 0.40085116 0.06513183 -0.026769303
0.08253336 0.1789783 -0.3286435 0.23104079 -0.35221773 0.010111155 0.10132521 -0.09851467
-0.33363748 0.038766332 -0.19388954 0.04055362 -0.093170784 -0.045400787 -0.11968631 -0.20133112
0.07329743 0.23390868 -0.21185786 0.124184236 0.11099598 0.13756157 -0.026991036 0.06456953
-0.16919601 0.28533626 -0.1911137 -0.167909 0.09951948 0.052999772 0.16754605 0.23835453
0.077168964 -0.15254717 0.2324201 0.11686111 -0.033017967 -0.16198327 -0.4301467 0.088226296
0.15057448 -0.039754216 -0.015079013 -0.15161629 -0.21996029 -0.15543246 0.38853905 0.10128322
-0.08118385 0.14633952 -0.052134458 -0.1914929 -0.12538387 0.07247028 -0.05750051 0.1317723
0.09222776 -0.16449326 0.18804802 -0.14475287 -0.27993822 0.26107937 -0.26938808 0.02163009
-0.18020438 0.50545776 0.17827928 0.116086826 0.11994388 0.011280369 0.15644751 0.2053717
-0.021978702 -0.23660144 -0.3114816 0.18851124 0.37817928 0.021595998 0.29506847 -0.16114019
0.11090722 0.19811022 0.36244214 -0.21743283 0.37377542 0.008871738 -0.106413335 0.06789456
0.08373497 0.0056858663 -0.14411648 -0.22245535 -0.082974665 -0.10575516 0.05265531 -0.19257952
0.00836514 0.13010386 -0.07417872 -0.17999381 -0.08193349 0.0038309973 0.040866863 0.057158962
-0.17437291 0.043140087 0.48425063 -0.27979478 -0.16649553 0.11851851 -0.14689031 0.21110271

critic.0.bias f4 [32]
00000000: b564 cdbb 2ce9 7c3e 14b9 e6bb 138c 84bc
00000010: 55f7 b1bd bb69 16bd fa5d 2cbd 94af 7a3e
00000020: 5ff3 813e 0cfb 66bd c6db 153d e742 ef3d
00000030: c172 19be 29c9 22bd f1c6 803e a621 7b3e
00000040: e8ac 853d aa5e 44bd f122 ecbb 45bd 843d
00000050: 0000 0000 b513 7fbe 04e2 e3ba 61c7 6f3e
00000060: 8241 acbd 9769 743e 9190 05be cf94 763e
00000070: a699 84bc 98c8 423e 7194 8dbe e13d 803e
-0.0062681087 0.24698323 -0.007041106 -0.016180074 -0.08689753 -0.036721926 -0.04208181 0.2448104
0.2538099 -0.05639176 0.036586545 0.116826825 -0.14985181 -0.039742623 0.2515178 0.24524555
0.0652712 -0.04794184 -0.007206314 0.06481413 0.0 -0.24909861 -0.0017386083 0.23415901
-0.08410932 0.23868404 -0.13043429 0.24080203 -0.016186547 0.19021833 -0.27652314 0.2504721

critic.2.weight f4 [1, 32]
00000000: cc11 583d d18c bc3e 0de1 433d 06b8 65be
00000010: dcbf 85bc 6897 cebd 8ccb 14be 030b c03e
00000020: 7fd9 0e3f 3049 a6bd a6d7 49bf df37 003e
00000030: 8c83 1bbd 15a7 0fbe 5591 493f e0fe 3c3e
00000040: 3d6e 19be 4f39 12bc 16d3 02bf bbc5 4c3d
00000050: 0b93 0fbc bc6e 50bf 6a8c 5ebe 8596 473e
00000060: 1434 6cbe e02b 873e 7a14 7bbe dc50 bd3e
00000070: eda2 af3e ea51 0d3e 7413 4abe 3bf0 903e
0.052751347 0.36826184 0.047822047 -0.2243348 -0.016326837 -0.10087472 -0.14530772 0.375084
0.5580062 -0.08119428 -0.7884468 0.12521313 -0.03796725 -0.1402858 0.78737384 0.18456602
-0.14983459 -0.008924796 -0.5110334 0.049993258 -0.008763085 -0.8141897 -0.21733251 0.19491012
-0.23066741 0.2640066 -0.2451953 0.36975753 0.3430399 0.13800779 -0.19733983 0.2830828
