logs/base/checkpoint_episode_3300.pt (torch, 644270 bytes, 39 tensors)

shared_net.0.weight f4 [128, 30]
0.092984565 -0.08091529 0.23970783 -0.2751651 -0.07485455 -0.14471446 -0.31618312 0.06988737
-0.078523666 -0.0052509615 -0.17003265 -0.32475278 -0.057650026 -0.03619756 0.05406495 0.001214656
0.029620726 0.113676324 0.062990166 -0.0027156349 0.11522212 -0.09580361 0.15850216 -0.05850907
0.13897833 0.32934323 0.1661857 0.21833163 0.21415304 0.17144202 0.011710429 -0.0084306775
-0.209492 0.05818265 -0.0019762411 0.1967502 0.010368016 0.048913527 0.15431958 -0.0040036044
0.31558326 -0.08196867 -0.05918462 -0.015989034 0.046562497 0.030085238 -0.13882895 -0.031686753
0.08407586 -0.014621629 -0.124658205 -0.031896763 0.0026065886 -0.1463662 0.11887692 -0.004241313
-0.01108022 0.24022955 0.019165633 -0.0010481516 -0.03457956 0.0646329 -1.136343 0.009631977
0.22431763 -0.26009372 0.23391113 -0.1843465 0.013933117 -0.11382315 -0.09210225 0.18242171
-0.25106564 -0.12103017 -0.3644824 -0.02916637 -0.096612774 0.06862141 -0.043179344 -0.106250264
-0.14628369 -0.057196066 -0.0040355804 0.019163752 -0.15903257 -0.20943789 -0.031012306 -0.13019468
-0.09358619 -0.27757564 0.20768896 -0.15898329 0.08938686 -0.04859666 -0.031550772 -0.0995132
-0.4785507 -0.5728444 -0.56474376 -0.64215416 0.25179595 -0.1302649 -0.5244587 -0.55019337
-0.5725484 0.28288758 -0.026966745 -0.3137614 -0.32538626 -0.49501944 0.23584652 0.13650109
0.22433245 -0.04336458 -0.17105402 0.1593069 0.18051703 0.03519353 0.13824311 -0.11204934
0.07607877 -0.16256472 0.1826366 0.17986222 -0.35726237 0.07195787 -0.046329424 -0.5272788
-0.6798751 -0.7374711 -0.14112097 -0.086436115 -0.17718288 -0.7054733 -0.5341739 0.09415174
-0.18838294 -0.30313826 -0.040881235 -0.24170975 0.263764 0.13679256 -0.22122826 0.08392334
-0.15650316 0.13601676 0.26555097 0.08445547 0.0827002 0.25306642 0.058900174 -0.056786817
-0.15140095 -0.10087457 -0.07223767 0.22713105 0.20519063 -0.17272492 -0.06490807 -0.24649005
0.2566432 0.14090025 0.043993715 -0.04022996 -0.24330519 0.10411386 0.14699288 0.04599084
-0.121521614 -0.059550203 0.12533443 -0.15836002 -0.08386753 -0.20152752 -0.2600067 0.30477178
0.10361509 0.0515887 -0.34204078 -0.3395538 0.122939005 0.03522625 -0.4222185 -0.15871203
0.26004368 0.3620948 0.544771 0.23772433 -0.004098139 0.217633 0.17428456 0.36389574
0.21698438 0.18373194 0.30606058 0.3828068 0.37888157 0.1369126 0.14009447 0.042522207
0.13030502 0.40340626 0.28265628 0.14962271 -0.051732365 0.073940665 0.20570092 -0.14225522
0.028582621 -0.13604422 -0.06198049 0.023639748 -0.2534629 -0.12767029 0.56519663 0.54328406
0.24178725 0.3214308 0.35519153 0.22338976 0.33955994 0.31864458 0.38743055 0.35855153
0.17508754 0.15780042 0.23215456 0.75947773 0.6176233 0.075383976 0.14252225 0.32278615
0.1281137 0.26062736 0.2242887 0.2929303 0.17615537 -0.13387096 0.16508165 0.4255894
-0.03625585 -0.15381533 -0.13528839 -0.22393076 0.21486677 0.11158212 0.0076814825 -0.13844074
0.08886214 -0.23235142 -0.100942604 -0.0030205986 0.006716066 -0.13893473 0.067432374 -0.05927793
00000000: b16e be3d eab6 a5bd f875 753e 71e2 8cbe
00000010: 584d 99bd 0730 14be c1e2 a1be 1c21 8f3d
00000020: 04d1 a0bd 4210 acbb 0a1d 2ebe ff45 a6be
00000030: 6f22 6cbd e543 14bd 3673 5d3d 1835 9f3a
00000040: 2aa7 f23c 22cf e83d fd00 813d cbf8 31bb
00000050: 93f9 eb3d af34 c4bd 644e 223e 35a7 6fbd
00000060: 5650 0e3e ad9f a83e 962c 2a3e 5492 5f3e
00000070: ef4a 5b3e 7f8e 2f3e 19dd 3f3c d320 0abc
00000080: 1285 56be ee50 6e3d d383 01bb e278 493e
00000090: 9cde 293c 8d59 483d f405 1e3e ab30 83bb
000000a0: 2194 a13e 31df a7bd 926b 72bd 6ffb 82bc
000000b0: 51b8 3e3d 5175 f63c 2d29 0ebe f8c9 01bd
000000c0: f72f ac3d 8f8f 6fbc cd4c ffbd 2ea6 02bd
000000d0: 4dd3 2a3b 05e1 15be be75 f33d b6fa 8abb
000000e0: d089 35bc bcfe 753e 3f01 9d3c 2262 89ba
000000f0: 4ca3 0dbd 415e 843d b073 91bf 71cf 1d3c
00000100: 85b3 653e 012b 85be 6686 6f3e 54c5 3cbe
00000110: ba47 643c 1d1c e9bd 1ba0 bcbd c2cc 3a3e
00000120: ad8b 80be aade f7bd 709d babe 50ee eebc
00000130: ebdc c5bd 6289 8c3d d3dc 30bd bd99 d9bd
00000140: 64cb 15be 6c46 6abd e73c 84bb 4dfd 9c3c
00000150: 6fd9 22be e376 56be 850d febc c151 05be
00000160: 1eaa bfbd 651e 8ebe 6aac 543e 84cc 22be
00000170: 7510 b73d 4b0d 47bd 623b 01bd 94cd cbbd
00000180: 9904 f5be eea5 12bf 0c93 10bf 3764 24bf
00000190: 66eb 803e 2964 05be ed42 06bf 79d9 0cbf
000001a0: 8892 12bf a4d6 903e 5de9 dcbc 56a5 a0be
000001b0: 0799 a6be 3073 fdbe c081 713e f1c6 0b3e
000001c0: 68b7 653e 0f9f 31bd c928 2fbe 5921 233e
000001d0: 75d9 383e 1727 103d 9a8f 0d3e 207a e5bd
000001e0: 30cf 9b3d 5e77 26be 1705 3b3e cd2d 383e
000001f0: 18eb b6be a65e 933d ecc3 3dbd befb 06bf
00000200: 4b0c 2ebf e8ca 3cbf 0482 10be 6b05 b1bd
00000210: 6e6f 35be e699 34bf 9fbf 08bf a1d2 c03d
00000220: 75e7 40be f034 9bbe 1573 27bd c382 77be
00000230: 130c 873e 5913 0c3e a989 62be 00e0 ab3d
00000240: 5d42 20be fa47 0b3e 4cf6 873e fdf6 ac3d
00000250: b95e a93d ec91 813e 4f41 713d 4b99 68bd
00000260: da08 1bbe 5497 cebd 58f1 93bd 0b95 683e
00000270: 7e1d 523e cdde 30be 86ee 84bd e367 7cbe
00000280: bd66 833e 2848 103e c132 343d 2cc8 24bd
00000290: ff24 79be a639 d53d 4d85 163e e460 3c3d
000002a0: 53e0 f8bd eaea 73bd ab57 003e 2129 22be
000002b0: bdc2 abbd 3b5d 4ebe 991f 85be 0c0b 9c3e
000002c0: 2634 d43d ac4e 533d f81f afbe ffd9 adbe
000002d0: 72c7 fb3d 6649 103d 062d d8be 6885 22be
000002e0: 7224 853e 7d64 b93e 1d76 0b3f 026e 733e
000002f0: ae49 86bb 2fdb 5e3e a777 323e 8b50 ba3e
00000300: 2731 5e3e 3a24 3c3e f9b3 9c3e 41ff c33e
00000310: c4fc c13e d132 0c3e ed74 0f3e c42b 2e3d
00000320: ae6e 053e 448b ce3e 53b8 903e b236 193e
00000330: 51e5 53bd 346e 973d 43a3 523e 5aab 11be
00000340: 1a26 ea3c 2d4f 0bbe 41df 7dbd 25a8 c13c
00000350: e4c5 81be 00bc 02be bab0 103f aa14 0b3f
00000360: 1497 773e 9492 a43e aadb b53e 49c0 643e
00000370: cdda ad3e 6225 a33e 4c5d c63e 1194 b73e
00000380: 264a 333e 6f96 213e edb9 6d3e 226d 423f
00000390: 901c 1e3f ea62 9a3d 5af1 113e 3a44 a53e
000003a0: 3d30 033e f370 853e f0ab 653e f6fa 953e
000003b0: 1362 343e 7815 09be 2a0b 293e dbe6 d93e
000003c0: 0481 14bd c481 1dbe 0a89 0abe 1b4e 65be
000003d0: 0906 5c3e 2b85 e43d f2b4 fb3b 69c3 0dbe
000003e0: 5bfd b53d 88ed 6dbe ffba cebd 3cf5 45bb
000003f0: 7212 dc3b e844 0ebe fc19 8a3d 6acd 72bd

shared_net.0.bias f4 [128]
-0.084335744 0.12623946 0.08229178 -0.0136238085 0.058485877 0.073347986 0.025652343 0.0060658776
-0.013670745 -0.008289906 -0.09233584 0.018002547 0.025851123 0.0006324124 0.07555296 -0.01195559
-0.055712435 0.13228323 0.023866935 0.16496253 0.075765766 -0.013581186 0.091875084 0.07197184
0.0 0.086046554 -0.010446317 0.0029236367 -0.064117715 0.16836573 -0.10444271 0.075265884
0.018983545 0.10305128 0.23738728 0.07526205 0.03195554 0.1870917 -0.13515933 -0.0012179723
0.026827883 -0.0070118187 -0.0045277937 -0.047175847 -0.023628477 0.003607441 0.13326773 0.0037438276
0.10327056 0.004085676 -0.09459605 0.08467658 0.0632373 -0.03321127 0.081997246 0.04586721
0.0 0.01139791 -0.025652984 -0.047192384 -0.08993475 0.060134765 -0.040758617 0.13301337
0.10400786 0.0782314 0.13970287 0.11035615 -0.085231185 0.06907126 -0.08202159 -0.005750997
-0.10811167 -0.01888531 0.00031390885 0.009679885 0.1010565 0.039469633 -0.002061951 0.046575207
-0.012632323 0.037363146 0.08590227 -0.06886766 0.056271177 0.10204847 0.022828043 -0.0372547
-0.018139623 0.019911148 0.05426129 -0.033815805 0.108419314 0.11981387 -0.0007104948 -0.06569488
-0.024735976 0.08534178 0.19828196 -0.043308992 -0.0076241344 -0.027771706 -0.08184694 0.07628813
0.05448392 0.038797278 0.10950442 -0.06429396 -0.003152895 0.03696331 0.06886909 0.0
0.045960546 0.080554396 0.046975065 -0.057961278 -0.005243315 0.10133545 -0.04863892 -0.03888666
-0.013421728 0.0 0.034802996 -0.03730534 -0.031085357 -0.062001083 0.046024106 -0.015870716
00000000: 38b8 acbd eb44 013e 9888 a83d 6536 5fbc
00000010: e38e 6f3d 7837 963d dd24 d23c 45c4 c63b
00000020: 43fb 5fbc 63d2 07bc 931a bdbd 147a 933c
00000030: bcc5 d33c 7ac8 253a 83bb 9a3d 61e1 43bc
00000040: b932 64bd 4175 073e 9784 c33c f0eb 283e
00000050: 152b 9b3d 9f83 5ebc 0129 bc3d f965 933d
00000060: 0000 0000 2d39 b03d 0727 2bbc 7c9a 3f3b
00000070: 2650 83bd 1168 2c3e 0fe6 d5bd 0025 9a3d
00000080: 6183 9b3c 8d0c d33d a715 733e fd22 9a3d
00000090: d0e3 023d f794 3f3e 3567 0abe 5ea4 9fba
000000a0: 26c6 db3c 66c3 e5bb e35d 94bb 763b 41bd
000000b0: 8290 c1bc d16a 6c3b 5677 083e 015b 753b
000000c0: 847f d33d 22e1 853b 93bb c1bd ea6a ad3d
000000d0: 8f82 813d 8a08 08bd 2cee a73d 41df 3b3d
000000e0: 0000 0000 4dbe 3a3c 3526 d2bc cd4c 41bd
000000f0: b62f b8bd df4f 763d 82f2 26bd a834 083e
00000100: 1302 d53d c937 a03d 450e 0f3e 6802 e23d
00000110: b08d aebd 3c75 8d3d effa a7bd dc72 bcbb
00000120: a769 ddbd 5eb5 9abc 2294 a439 6198 1e3c
00000130: b6f6 ce3d e9aa 213d cc21 07bb a5c5 3e3d
00000140: cef7 4ebc 190a 193d 88ed af3d 7d0a 8dbd
00000150: 9b7c 663d cafe d03d e001 bb3c 6298 18bd
00000160: 8c99 94bc b41c a33c 1641 5e3d 7182 0abd
00000170: f20a de3d f960 f53d 8040 3aba 0a8b 86bd
00000180: 1aa3 cabc acc7 ae3d 6d0a 4b3e c564 31bd
00000190: e0d3 f9bb 7d81 e3bc 5e9f a7bd f33c 9c3d
000001a0: 882a 5f3d e5e9 1e3d da43 e03d 8dac 83bd
000001b0: cda0 4ebb d766 173d 3d0b 8d3d 0000 0000
000001c0: 2041 3c3d b4f9 a43d ed68 403d ce68 6dbd
000001d0: 1dd0 abbb f688 cf3d 9b39 47bd 9e47 1fbd
000001e0: cfe6 5bbc 0000 0000 968d 0e3d 7ccd 18bd
000001f0: b8a6 febc d9f4 7dbd c683 3c3d 4e03 82bc

shared_net.2.weight f4 [128, 128]
0.0341693 0.062336996 0.4921439 0.02270728 -0.026365206 0.14133723 0.05862918 0.01243481
-0.07559602 -0.09259039 0.013283048 -0.19898018 -0.18544163 0.039352965 -0.201042 -0.03628611
0.26406896 0.10724003 0.18488176 0.136279 0.65184176 -0.0030189387 0.07632785 0.2549162
-0.030374227 0.08795592 -0.18632494 0.019789744 0.03081559 -0.014141096 -0.09333162 -0.020571016
-0.15634625 0.044235453 -0.08841962 0.06175848 0.05636 0.12316013 -0.107098006 -0.33103153
0.044197574 -0.12965861 0.008231455 -0.10270592 0.07897887 0.22120239 0.10404255 0.005111724
-0.006160434 -0.06894367 0.051100794 0.27498043 -0.041450243 0.07801775 0.018965857 -0.050289746
-0.21488681 0.019105917 -0.026301336 -0.028804772 0.1369073 0.11398278 0.032223403 0.050561763
0.011342408 0.20677248 0.08010647 0.18960889 -0.2622315 0.19876541 -0.20062292 -0.2573175
-0.07774642 -0.21797818 0.24625504 0.031778533 0.62789065 0.21209598 -0.07652689 -0.10857405
-0.32408705 0.22760013 0.2566883 -0.07873073 0.23007382 0.20871203 0.06166772 0.34381074
0.1437489 -0.11305295 0.13662922 -0.21607248 0.042565793 0.073293224 0.040200356 0.09092329
-0.14370513 -0.25020897 0.11264867 -0.08762016 -0.17784098 -0.10464726 0.14282088 0.3104473
0.026170444 -0.0075532338 -0.0595613 -0.06561667 0.10583516 -0.20239978 0.017175045 -0.11267643
0.100336045 -0.06402439 0.15882258 0.034481756 -0.07893733 0.031016095 -0.023220481 -0.11638385
-0.05321976 0.15445669 0.041748166 0.21055578 -0.03450807 -0.009584191 0.14184946 -0.05507725
-0.059256766 -0.066784225 0.14044853 -0.24749868 0.11759638 0.08253022 -0.17137861 0.06288209
-0.12910454 -0.090989284 -0.09987709 0.25822648 0.022392226 0.003070357 0.046877284 -0.06872522
0.0011597503 -0.049477927 0.03273573 0.10267538 0.24537571 0.13970082 0.2914705 -0.081953205
0.03613329 -0.02127444 0.032533854 0.09601484 -0.06811471 -0.13305461 0.19671799 -0.003914652
0.24669641 -0.05122249 0.17033544 -0.10483341 0.069693945 0.15405783 0.10077258 -0.28830928
-0.18576176 -0.16698265 0.05959181 0.06749267 -0.039567582 0.21151653 -0.03515962 -0.06571233
0.04230757 -0.018284267 0.03312356 0.13250464 -0.041501988 -0.08441169 0.0936975 0.06505113
-0.052635897 0.18103273 -0.15203802 -0.058466963 -0.010523455 0.22941649 0.07549198 -0.135297
-0.09269142 0.00484847 0.044313453 0.0573823 0.09419169 -0.01732957 0.27625036 -0.22558475
-0.25000793 0.02832564 0.054644305 0.0036066964 0.0856326 -0.036569897 -0.05165443 -0.10216411
0.1634132 0.18033527 0.021085475 0.03006565 -0.04610938 -0.05271751 0.028555028 0.13658112
-0.16108972 0.07618604 0.09413876 -0.17513572 -0.08513637 0.12266369 0.086140536 -0.15728645
0.04999731 0.066493735 0.22388193 -0.076198235 0.039216742 0.17991127 -0.11009359 -0.028602699
0.31739923 0.118328854 0.12999651 0.2176435 -0.24073754 -0.039235476 0.09190977 0.069284126
0.0010214401 -0.14305586 -0.102630794 0.044721022 -0.07231406 -0.05946486 -0.013347293 0.1531349
0.1296163 0.07436421 0.018702671 -0.16785176 -0.062919684 -0.22162119 -0.15701306 -0.025134092
00000000: 1cf5 0b3d 1455 7f3d 49fa fb3e 9e04 ba3c
00000010: d8fb d7bc b5ba 103e 2725 703d 60bb 4b3c
00000020: 16d2 9abd 08a0 bdbd 24a1 593c 76c1 4bbe
00000030: 69e4 3dbe 9330 213d f4dd 4dbe bea0 14bd
00000040: 0c34 873e a9a0 db3d a551 3d3e b98c 0b3e
00000050: 1adf 263f 63d9 45bb c751 9c3d 6084 823e
00000060: 5fd3 f8bc 3c22 b43d f7cb 3ebe 1a1e a23c
00000070: fa70 fc3c 0eb0 67bc a624 bfbd 8c84 a8bc
00000080: 3b19 20be 3c30 353d 5915 b5bd 76f6 7c3d
00000090: bed9 663d 613b fc3d 3356 dbbd f77c a9be
000000a0: 8408 353d 3ac5 04be 3add 063c 7b57 d2bd
000000b0: acbf a13d e182 623e 4314 d53d 4080 a73b
000000c0: 77dd c9bb 5732 8dbd 114f 513d 3cca 8c3e
000000d0: bbc7 29bd c5c7 9f3d 495e 9b3c 9ffc 4dbd
000000e0: 4a0b 5cbe 0384 9c3c e675 d7bc fcf7 ebbc
000000f0: 6d31 0c3e ce6f e93d b0fc 033d da19 4f3d
00000100: 82d5 393c 2abc 533e dc0e a43d d528 423e
00000110: 3543 86be 2989 4b3e 1870 4dbe 1fbf 83be
00000120: 8439 9fbd ac35 5fbe 482a 7c3e 352a 023d
00000130: 71bd 203f b02f 593e 21ba 9cbd 125c debd
00000140: bdee a5be 0210 693e a66c 833e 943d a1bd
00000150: 7998 6b3e 9bb8 553e 4b97 7c3d f607 b03e
00000160: e932 133e 4e88 e7bd 88e8 0b3e 1b42 5dbe
00000170: 7859 2e3d c21a 963d 21a9 243d fd35 ba3d
00000180: 7027 13be 641b 80be 59b4 e63d 3372 b3bd
00000190: f21b 36be 4d51 d6bd a33f 123e f3f2 9e3e
000001a0: 6663 d63c 1e81 f7bb 8df6 73bd 0862 86bd
000001b0: 1bc0 d83d e341 4fbe aeb2 8c3c e6c2 e6bd
000001c0: fc7c cd3d 381f 83bd 63a2 223e be3c 0d3d
000001d0: e5a9 a1bd 7715 fe3c e138 bebc a85a eebd
000001e0: f7fc 59bd e529 1e3e 2000 2b3d ef9b 573e
000001f0: 5658 0dbd 0307 1dbc fc40 113e af98 61bd
00000200: 39b7 72bd 2bc6 88bd bdd1 0f3e 4b70 7dbe
00000210: 5fd6 f03d 9b05 a93d e07d 2fbe 53c8 803d
00000220: fb33 04be 9758 babd 5c8c ccbd 4336 843e
00000230: e76f b73c 0b38 493b 6502 403d cfbf 8cbd
00000240: c302 983a 5ea9 4abd e715 063d 7847 d23d
00000250: c543 7b3e bb0d 0f3e 9f3b 953e 15d7 a7bd
00000260: 8000 143d bc47 aebc 3842 053d 6ea3 c43d
00000270: ba7f 8bbd 783f 08be 7170 493e 7b46 80bb
00000280: fc9d 7c3e acce 51bd 6a6c 2e3e e6b2 d6bd
00000290: b3bb 8e3d 56c1 1d3e db61 ce3d 469d 93be
000002a0: 5538 3ebe 80fd 2abe 8b16 743d 9939 8a3d
000002b0: 9e11 22bd ca97 583e 8903 10bd 3094 86bd
000002c0: b44a 2d3d e3c8 95bc 92ac 073d 4caf 073e
000002d0: fdfd 29bd 09e0 acbd 7ae4 bf3d 8739 853d
000002e0: bd98 57bd a560 393e dbaf 1bbe 0e7b 6fbd
000002f0: 926a 2cbc 28ec 6a3e 8a9b 9a3d 4c8b 0abe
00000300: 00d5 bdbd eadf 9e3b 0682 353d b409 6b3d
00000310: 93e7 c03d bef6 8dbc b070 8d3e b0ff 66be
00000320: 0a01 80be 2c0b e83c b5d2 5f3d 535e 6c3b
00000330: 2560 af3d 51ca 15bd 9893 53bd 6b3b d1bd
00000340: ca55 273e cfa9 383e 72bb ac3c 3d4c f63c
00000350: 30dd 3cbd 51ee 57bd 3cec e93c ecdb 0b3e
00000360: b4f4 24be 6d07 9c3d d2cb c03d c756 33be
00000370: fa5b aebd 1a37 fb3d 736a b03d b30f 21be
00000380: fbc9 4c3d de2d 883d 4e41 653e d20d 9cbd
00000390: bca1 203d a93a 383e c078 e1bd 3550 eabc
000003a0: 2782 a23e 6656 f23d ce1d 053e f0dd 5e3e
000003b0: e783 76be 61b5 20bd 313b bc3d d6e4 8d3d
000003c0: d8e1 853a 3c7d 12be 1830 d2bd 642d 373d
000003d0: 6519 94bd 6d91 73bd 9bae 5abc 65cf 1c3e
000003e0: 23ba 043e 434c 983d 5836 993c 55e1 2bbe
000003f0: 09dc 80bd aaf0 62be 08c8 20be 03e6 cdbc

shared_net.2.bias f4 [128]
0.032513347 0.024652544 -0.042215727 0.09944362 -0.026163768 0.0037802102 -0.0074313097 0.08391243
0.0 -0.023666361 0.060513396 0.048307702 0.11142131 0.09030969 0.18817125 0.118635215
0.013890441 -0.08921299 -0.014923078 0.028227488 0.2126963 0.03044493 0.07543408 0.03856951
0.02338065 0.124465615 0.15861832 0.0 0.040151194 0.0 0.15090007 0.12434276
0.196278 -0.0141250165 -0.024209736 0.05968737 -0.026513975 0.12964858 0.10928775 0.0469224
0.12736867 0.06548778 0.0134042315 0.046302848 0.09848169 0.18053256 0.08188648 0.02119784
0.0 0.11573222 0.011425124 0.008187653 0.00824281 0.02013147 0.077566154 0.005835839
-0.11077113 0.09645131 0.21620692 0.08273544 0.0029983462 -0.035201017 0.039650563 -0.03751029
0.121993214 -0.024771513 0.15537438 0.092250705 -0.03805795 0.0286577 0.012317321 0.025859086
0.019318627 -0.007097663 0.032210246 0.030363964 0.13256669 0.043104697 0.049664073 -0.007264987
0.09160713 0.09774199 -0.029575305 -0.013399903 0.08681389 0.15273477 -0.006192394 0.026958285
0.25515696 -0.004652125 0.025763826 0.014173584 0.0565627 -0.040256955 0.062280465 0.0
-0.017267479 0.11403522 0.1402757 0.03886907 0.1821726 0.077087134 0.04351231 -0.0037295176
0.026905503 0.006401135 0.0015675108 -0.08658364 -0.018315524 0.08546028 -0.031091824 0.0060392255
0.013261083 0.032536227 0.022788815 0.0065180906 0.07027027 0.1959961 0.18280184 0.033989612
-0.035403866 0.11021774 0.09056476 -0.02374746 0.0029922395 0.13518302 0.099791355 0.063778564
00000000: b72c 053d 22f4 c93c 66ea 2cbd 19a9 cb3d
00000010: 6655 d6bc 67bd 773b 5882 f3bb 48da ab3d
00000020: 0000 0000 f5df c1bc e5dc 773d 4cde 453d
00000030: db30 e43d 49f4 b83d f7af 403e 05f7 f23d
00000040: bb94 633c 4db5 b6bd ed7f 74bc 553d e73c
00000050: 0fcd 593e a567 f93c 2f7d 9a3d 10fb 1d3d
00000060: c788 bf3c d4e7 fe3d d76c 223e 0000 0000
00000070: 9475 243d 0000 0000 8c85 1a3e 6ba7 fe3d
00000080: 1afd 483e 9d6c 67bc 7f53 c6bc be7a 743d
00000090: d633 d9bc 99c2 043e 42d2 df3d b431 403d
000000a0: ef6c 023e 751e 863d 6c9d 5b3c 0ea8 3d3d
000000b0: c5b0 c93d 87dd 383e 19b4 a73d 18a7 ad3c
000000c0: 0000 0000 0405 ed3d 7130 3b3c 8125 063c
000000d0: da0c 073c c1ea a43c 01db 9e3d 913a bf3b
000000e0: f9db e2bd 4488 c53d 5965 5d3e 3371 a93d
000000f0: e77f 443b f12e 10bd a168 223d 64a4 19bd
00000100: 94d7 f93d a1ed cabc 761a 1f3e f0ed bc3d
00000110: a7e2 1bbd 8ec3 ea3c 97ce 493c 6fd6 d33c
00000120: 1942 9e3c 8393 e8bb e4ee 033d d9bd f83c
00000130: 90bf 073e 8d8e 303d 8e6c 4b3d 210f eebb
00000140: 859c bb3d f42c c83d e947 f2bc 448b 5bbc
00000150: 7bcb b13d 8166 1c3e 91e9 cabb 9fd7 dc3c
00000160: efa3 823e da70 98bb a90e d33c 5238 683c
00000170: 4aae 673d 7ae4 24bd cd19 7f3d 0000 0000
00000180: 8774 8dbc 4c8b e93d 6fa4 0f3e 2d35 1f3d
00000190: 748b 3a3e dcdf 9d3d f739 323d ec6a 74bb
000001a0: ee68 dc3c 9dc0 d13b ef74 cd3a c352 b1bd
000001b0: 700a 96bc cd05 af3d 48b4 febc b2e4 c53b
000001c0: 0345 593c b544 053d 9caf ba3c b595 d53b
000001d0: dce9 8f3d 34b3 483e 6830 3b3e b138 0b3d
000001e0: a503 11bd d7b9 e13d 047a b93d 098a c2bc
000001f0: 7319 443b 6b6d 0a3e 695f cc3d 569e 823d

shared_net.4.weight f4 [64, 128]
-0.1883314 -0.14014184 0.0447981 0.19618188 0.05772743 -0.010567587 0.015992863 0.09720048
-0.027104998 0.28502223 0.093119435 -0.046822827 0.09502522 0.22235869 -0.0027794675 -0.077882245
0.086180784 -0.16515881 0.10224894 -0.15481927 0.18344988 -0.07963751 0.16291991 0.02430073
-0.2491155 0.10841548 0.23563558 -0.021698577 -0.18289606 -0.08084887 -0.14781563 0.10936403
0.26510102 0.17932843 0.021511834 0.08840648 -0.078786686 0.12562989 0.14777431 -0.21422987
-0.16040476 -0.18438047 0.056851164 -0.08180014 -0.084150635 0.026555065 -0.13619761 0.1460533
-0.271671 -0.16710566 -0.16548254 -0.043770194 0.05980169 -0.04289172 0.1876991 0.04013562
-0.028116245 0.07160476 0.07023811 -0.14255139 -0.0546327 -0.1183191 0.20703413 -0.36720437
-0.15723749 -0.06888008 0.1747597 -0.058229666 -0.16116038 -0.18050699 0.107241884 0.4021015
-0.06454786 0.08172637 -0.025290584 -0.2792349 0.1662263 0.20387371 -0.007435648 0.010838188
-0.0073277354 0.08519023 0.09818524 -0.20452309 -0.04977916 0.18684627 0.2662269 0.21077393
-0.13289952 0.0013012022 -0.16932301 -0.010086717 -0.048159294 -0.030522661 -0.39031428 -0.04474661
-0.16811115 0.45443583 -0.098470904 -0.12049875 0.11277963 0.036534622 0.11319643 -0.049816918
-0.23053111 -0.016595554 0.12204209 0.186804 -0.13265328 0.3994206 0.18376185 0.16796327
-0.058942623 -0.08391132 0.0922438 -0.20578352 0.41221464 0.09524995 0.059236422 0.14667103
-0.15041742 -0.16576275 -0.16474938 0.11946041 0.12807712 0.37410253 0.23489214 0.30198565
-0.1026285 0.10796183 -0.31383792 -0.19420438 0.050399475 0.063028514 0.09859015 0.20839687
0.10208287 -0.13381952 0.09822387 -0.14995499 0.12747407 0.2695669 0.25743443 0.1440229
0.137401 -0.035167553 -0.1339877 -0.020325555 0.052652843 0.060554914 -0.11976314 -0.09105539
0.008813967 0.029155754 -0.121170506 0.13021706 0.08727184 0.27213764 -0.0034003234 0.18117698
0.014991061 -0.15724662 0.08985364 -0.058999382 0.08478261 0.17840725 0.104559936 -0.3674621
0.077094 0.12562142 -0.18455243 0.0033707027 -0.09912128 0.0376292 0.04430506 -0.17675966
0.108274765 -0.13341145 -0.08223316 0.091005936 -0.1990462 -0.14797087 0.0659186 -0.14880201
-0.12660241 0.0023639468 -0.015116015 0.12020835 -0.10630567 0.25355697 0.15719956 0.06873458
-0.0652802 -0.28552154 0.1749908 0.18009204 0.13149798 -0.1666744 0.11800775 0.39059857
-0.3251452 -0.02785028 -0.06638282 0.21920477 0.122159705 -0.06553445 -0.016770462 0.0997866
0.034575917 0.22341448 -0.038262036 0.047194242 0.36883512 0.28294387 0.16793704 -0.072658375
-0.097366296 -0.036699764 0.18125361 -0.02657987 0.21483283 0.13425174 0.011741864 -0.08541324
-0.0051120496 -0.100599 0.1931287 0.18149054 0.21131344 -0.21051618 0.13851497 0.033795767
-0.30585554 0.15925567 -0.17391159 0.13120688 -0.012830927 -0.0058223237 0.18770376 -0.13804947
0.11345138 -0.32720515 0.12190949 0.262992 -0.20678782 0.1867235 -0.120667495 -0.19430219
0.046069693 0.25788262 0.068307966 -0.16821642 0.08072006 -0.050455227 0.085979484 0.023293126
00000000: f2d9 40be 5881 0fbe 367e 373d e7e3 483e
00000010: 9973 6c3d ac23 2dbc 7703 833c 0c11 c73d
00000020: 4d0b debc 6fee 913e 67b5 be3d 4bc9 3fbd
00000030: 959c c23d ffb1 633e ba27 36bb ba80 9fbd
00000040: 8d7f b03d 641f 29be e467 d13d f188 1ebe
00000050: 49da 3b3e fe18 a3bd 7ad4 263e 5312 c73c
00000060: 2218 7fbe ef08 de3d 744a 713e 37c1 b1bc
00000070: 1b49 3bbe 1894 a5bd fb5c 17be 40fa df3d
00000080: 52bb 873e dfa1 373e 9639 b03c 750e b53d
00000090: ea5a a1bd 1fa5 003e 2652 173e 135f 5bbe
000000a0: 2541 24be 3cce 3cbe c4dc 683d d586 a7bd
000000b0: 2b57 acbd 028a d93c 6377 0bbe ff8e 153e
000000c0: 7618 8bbe bf1d 2bbe 4174 29be 6048 33bd
000000d0: 9ef2 743d 3aaf 2fbd 3134 403e 3f65 243d
000000e0: 0a54 e6bc 84a5 923d 00d9 8f3d fef8 11be
000000f0: 8ac6 5fbd 4951 f2bd c100 543e 3602 bcbe
00000100: dd02 21be 0011 8dbd 35f4 323e 3b82 6ebd
00000110: 3a07 25be d3d6 38be a2a1 db3d 3fe0 cd3e
00000120: ab31 84bd 2860 a73d 332e cfbc e0f7 8ebe
00000130: 3a37 2a3e 45c4 503e bca6 f3bb a892 313c
00000140: 801d f0bb 3778 ae3d 5815 c93d 806e 51be
00000150: 3ce5 4bbd a154 3f3e e44e 883e 1fd5 573e
00000160: d016 08be 1a8d aa3a 0363 2dbe c242 25bc
00000170: ae42 45bd a90a fabc 46d7 c7be 3948 37bd
00000180: 5425 2cbe d0ab e83e 1dab c9bd 0cc8 f6bd
00000190: 02f9 e63d 54a5 153d 88d3 e73d d30c 4cbd
000001a0: 5910 6cbe 66f3 87bc 34f1 f93d 8c49 3f3e
000001b0: 43d6 07be db80 cc3e 112c 3c3e 90fe 2b3e
000001c0: d26d 71bd b3d9 abbd 51ea bc3d eab8 52be
000001d0: cc0d d33e 6812 c33d e4a1 723d ee30 163e
000001e0: 0607 1abe b6bd 29be 10b4 28be a9a7 f43d
000001f0: a626 033e 5e8a bf3e 9187 703e dd9d 9a3e
00000200: e42e d2bd 181b dd3d 5daf a0be 83dd 46be
00000210: ae6f 4e3d 1815 813d a2e9 c93d fd65 553e
00000220: d310 d13d fc07 09be 9929 c93d cd8d 19be
00000230: 9088 023e ac04 8a3e 72ce 833e bd7a 133e
00000240: d9b2 0c3e da0b 10bd 1234 09be c781 a6bc
00000250: 82aa 573d 6e08 783d 6146 f5bd 407b babd
00000260: 7568 103c 0cd8 ee3c 3e28 f8bd 9f57 053e
00000270: 94bb b23d a055 8b3e f6d7 5ebb 7586 393e
00000280: 119d 753c 4205 21be 2f05 b83d 56a9 71bd
00000290: 81a2 ad3d 64b0 363e 8523 d63d fe23 bcbe
000002a0: 76e3 9d3d e7a2 003e 50fb 3cbe 02e7 5c3b
000002b0: 1900 cbbd 1321 1a3d 3979 353d 7c00 35be
000002c0: 29bf dd3d 039d 08be dc69 a8bd 5261 ba3d
000002d0: c4d2 4bbe ad85 17be 5500 873d 8e5f 18be
000002e0: 10a4 01be 72ec 1a3b 2aa9 77bc cc2f f63d
000002f0: cab6 d9bd 38d2 813e ecf8 203e b7c4 8c3d
00000300: a0b1 85bd e12f 92be ca30 333e 0c6a 383e
00000310: 68a7 063e b2ac 2abe 0cae f13d 89fc c73e
00000320: 6f79 a6be 4526 e4bc b7f3 87bd 3777 603e
00000330: de2e fa3d ed36 86bd 3562 89bc eb5c cc3d
00000340: 7a9f 0d3d c4c6 643e a7b8 1cbd c04e 413d
00000350: f5d7 bc3e 05de 903e b0f7 2b3e eacd 94bd
00000360: fb67 c7bd 7e52 16bd 8c9a 393e 07be d9bc
00000370: 23fd 5b3e 4a79 093e f260 403c 23ed aebd
00000380: fb82 a7bb d906 cebd 88c3 453e a8d8 393e
00000390: 8d62 583e 8e91 57be ded6 0d3e 6e6d 0a3d
000003a0: 1999 9cbe eb13 233e e115 32be 195b 063e
000003b0: cf38 52bc 31c9 bebb 6a35 403e d75c 0dbe
000003c0: 3259 e83d 6f87 a7be afab f93d e3a6 863e
000003d0: 30c0 53be 7234 3f3e 8520 f7bd 27f7 46be
000003e0: 93b3 3c3d 3109 843e 0ce5 8b3d ed40 2cbe
000003f0: 8f50 a53d 24aa 4ebd 0316 b03d 3ad1 be3c

shared_net.4.bias f4 [64]
0.115599245 0.103309676 -0.018660767 0.08785446 0.065379515 -0.009008101 -0.009501829 -0.019654868
0.0 -0.009111672 0.1630614 -0.021157281 0.009922691 -0.059676006 0.2194204 0.03038147
0.02356139 -0.021444965 0.06818335 0.12808248 -0.00079514424 -0.006738312 0.004287447 0.09684615
-0.009168146 0.088600084 0.00042828073 0.0019294841 -0.015062559 0.07293702 0.049734358 -0.0055451463
-0.0075954287 0.19795142 0.13096653 0.021960637 0.23987286 0.076988496 0.18586998 0.059945233
0.01376876 0.0 0.10158005 0.14409362 -0.11718267 -0.04268087 -0.0010008478 -0.009173967
-0.023409788 -0.027459431 -0.13974552 -0.079310186 0.20203061 0.21968868 -0.022794835 0.0
0.011935408 0.08264735 0.15777221 -0.0034039114 0.004206966 -0.0064971726 0.16602515 0.17254405
00000000: 4cbf ec3d 0694 d33d 77de 98bc 0aed b33d
00000010: b2e5 853d b796 13bc 8fad 1bbc 3f03 a1bc
00000020: 0000 0000 1f49 15bc 91f9 263e 0952 adbc
00000030: c892 223c d46e 74bd beaf 603e 90e2 f83c
00000040: d103 c13c 5aad afbc b6a3 8b3d 0e28 033e
00000050: 3a71 50ba 0fcd dcbb b67d 8c3b 4657 c63d
00000060: fe35 16bc f673 b53d de8a e039 bee6 fc3a
00000070: f4c8 76bc 0160 953d 41b6 4b3d 0fb4 b5bb
00000080: 13e3 f8bb c7b3 4a3e 171c 063e cbe6 b33c
00000090: 3ba1 753e 25ac 9d3d b354 3e3e 2289 753d
000000a0: 5d96 613c 0000 0000 3409 d03d 478d 133e
000000b0: 78fd efbd 23d2 2ebd e12e 83ba 684e 16bc
000000c0: e2c5 bfbc 9af2 e0bc 7319 0fbe 616d a2bd
000000d0: 1de1 4e3e 12f6 603e 3cbc babc 0000 0000
000000e0: bb8c 433c 0443 a93d 0a8f 213e 2814 5fbb
000000f0: 97da 893b 3ce6 d4bb 7f02 2a3e 63af 303e

actor.0.weight f4 [32, 64]
0.073037334 0.093538135 0.39010575 0.059068397 -0.122256145 0.003269272 0.1494228 -0.20179582
-0.33724716 0.16655277 0.17303988 -0.05776943 -0.25100183 -0.048942287 -0.061997097 0.23849173
0.23624556 -0.13204204 -0.044591192 -0.26539952 -0.059069566 -0.18462779 0.09050124 0.016092533
0.14510985 0.16407509 -0.0747818 -0.46136728 0.28634247 0.046510477 -0.00023109617 -0.048650235
-0.41750374 -0.12082446 -0.045760214 -0.014390259 -0.24798566 -0.11830444 -0.18964885 0.30988282
0.06340568 -0.053760666 -0.023092132 0.33351877 0.12660177 0.18334761 0.0039704973 -0.09930514
-0.08283186 0.07414186 0.016383646 0.14236052 0.0937231 -0.16823795 -0.1278349 -0.08247205
-0.13334778 -0.09654989 -0.16159452 -0.3137817 0.17141736 0.19863081 -0.09689881 -0.0006792425
0.48025528 -0.27969238 -0.23221543 0.30772418 0.14728265 -0.13952616 0.35896802 -0.06031719
-0.07141401 -0.051494077 0.0773715 0.1363982 -0.044426184 -0.03343328 0.009106054 -0.031025637
-0.09805349 -0.111261025 0.10970116 0.23946545 -0.07309394 -0.013558194 -0.09257079 0.14049444
-0.47427168 -0.22739589 0.20237766 -0.1909415 0.06540808 0.22045428 0.7670712 0.15967418
0.021943217 0.014391218 -0.019896388 0.053328186 0.15736288 0.2244595 0.31806982 0.4558602
0.14017688 -0.038191702 -0.33608964 0.2485683 -0.015231645 0.31135392 -0.03058659 0.052135807
-0.016237862 0.01931222 0.10134526 0.0075776083 -0.12127702 0.11753615 -0.03848158 0.009362312
-0.14621407 -0.23368762 0.12552932 0.23607956 -0.06265602 0.017447878 -0.20986736 0.21163332
-0.032169286 -0.101350054 0.052416053 -0.123563364 0.038118377 -0.093404494 -0.27099133 0.029365432
-0.140743 -0.27889273 0.30611587 0.17383666 -0.13600823 -0.37082723 -0.2531342 0.11987225
-0.17160667 0.23863289 0.11052945 -0.028927749 -0.048390415 -0.0006187376 -0.13109429 0.2907659
0.24840157 0.090405904 -0.18530376 0.15351437 0.07609573 0.48575824 0.09221435 0.24335319
0.12343311 0.17555071 -0.14958143 0.13457929 -0.35139915 0.1617001 -0.15964626 0.046779703
0.03601284 0.11412585 -0.06976839 -0.058487628 -0.066997886 0.043878183 -0.22857073 -0.25620002
-0.2436189 0.046423543 0.16520448 -0.13004494 -0.0034592522 -0.062186964 0.26217228 0.26447272
0.049816106 0.011362886 0.19757156 0.036789987 0.22565804 -0.2109224 -0.00018943343 -0.047626935
-0.18718578 -0.23951864 -0.13422342 -0.07718907 -0.13756336 0.12902625 -0.12474015 0.28325027
-0.22633961 0.04746996 -0.14794658 -0.029874941 -0.015949197 0.18920442 -0.043462303 0.18984942
-0.017888403 0.09122474 -0.08884485 -0.030715337 -0.39888257 -0.2670212 -0.3247497 0.08173147
-0.025002459 -0.003607683 -0.11434159 0.15974806 0.021365143 -0.045640804 0.1651593 -0.06309677
0.21933065 -0.058171276 0.014488261 -0.074341625 -0.19266255 0.08605846 -0.11697477 -0.47000465
-0.05582901 -0.23770133 -0.12540738 0.2895353 0.27430645 0.16191636 -0.09697935 -0.017997207
0.230128 0.24019516 -0.084408164 -0.059934415 -0.08087638 0.050092515 0.07346388 0.08150776
-0.21937898 -0.11503999 -0.31232324 0.10849993 -0.09656064 0.40524325 -0.00060580275 -0.27487773
00000000: 9994 953d ec90 bf3d f1bb c73e b4f1 713d
00000010: 6e61 fabd 4841 563b 4a02 193e 90a3 4ebe
00000020: a9ab acbe cf8c 2a3e 5e31 313e a39f 6cbd
00000030: 5083 80be b577 48bd abf0 7dbd 2d37 743e
00000040: 5bea 713e 0736 07be 41a5 36bd 72e2 87be
00000050: eef2 71bd 110f 3dbe b758 b93d 7dd4 833c
00000060: ad97 143e 4d03 283e 3327 99bd 5538 ecbe
00000070: 7b9b 923e c581 3e3d 6852 72b9 7845 47bd
00000080: 0dc3 d5be d172 f7bd 106f 3bbd 1fc5 6bbc
00000090: f4ef 7dbe 9949 f2bd 4f33 42be f6a8 9e3e
000000a0: d6da 813d 2534 5cbd b62b bdbc f9c2 aa3e
000000b0: e5a3 013e 7abf 3b3e f21a 823b 7e60 cbbd
000000c0: c0a3 a9bd b0d7 973d ff36 863c f5c6 113e
000000d0: e6f1 bf3d 9246 2cbe 27e7 02be 1be7 a8bd
000000e0: 528c 08be f3bb c5bd 0979 25be ffa7 a0be
000000f0: 0888 2f3e e065 4b3e e272 c6bd 310f 32ba
00000100: 05e4 f53e d733 8fbe e2c9 6dbe 068e 9d3e
00000110: 43d1 163e f2df 0ebe a8ca b73e 280f 77bd
00000120: 8241 92bd 74eb 52bd f374 9e3d f8ab 0b3e
00000130: 3bf8 35bd 56f1 08bd 8f31 153c 7a29 febc
00000140: 45d0 c8bd d2dc e3bd 00ab e03d 6e36 753e
00000150: 47b2 95bd 3023 5ebc c195 bdbd c6dd 0f3e
00000160: bdd3 f2be 78da 68be 173c 4f3e 2b86 43be
00000170: acf4 853d c4be 613e c75e 443f a181 233e
00000180: 43c2 b33c 25c9 6b3c c0fd a2bc a86e 5a3d
00000190: bc23 213e b6d8 653e 0cda a23e 8266 e93e
000001a0: 878a 0f3e e76e 1cbd f113 acbe b088 7e3e
000001b0: 268e 79bc c869 9f3e ba90 fabc 5b8c 553d
000001c0: 4405 85bc a934 9e3c 1b8e cf3d 964d f83b
000001d0: 1660 f8bd cbb6 f03d dc9e 1dbd 6264 193c
000001e0: 24b9 15be cf4b 6fbe c28a 003e d7be 713e
000001f0: cd51 80bd daee 8e3c 78e7 56be 68b6 583e
00000200: f1c3 03bd 9e90 cfbd 37b2 563d ca0e fdbd
00000210: 0422 1c3d db4a bfbd 60bf 8abe c68f f03c
00000220: ef1e 10be 07cb 8ebe 38bb 9c3e 3d02 323e
00000230: be45 0bbe 11dd bdbe ce9a 81be 957f f53d
00000240: a9b9 2fbe 2e5c 743e 445d e23d e3f9 ecbc
00000250: 0735 46bd c732 22ba 953d 06be 45df 943e
00000260: fb5c 7e3e bb26 b93d 45c0 3dbe df32 1d3e
00000270: 14d8 9b3d 4eb5 f83e e1da bc3d 9431 793e
00000280: 80ca fc3d 91c3 333e e02b 19be 27cf 093e
00000290: 97ea b3be b694 253e 4f7a 23be 139c 3f3d
000002a0: 3382 133d d0ba e93d bbe2 8ebd b990 6fbd
000002b0: 3036 89bd 9cb9 333d 720e 6abe a62c 83be
000002c0: 3c77 79be 9d26 3e3d 5d2b 293e 802a 05be
000002d0: 9fb4 62bb c2b7 7ebd 723b 863e f868 873e
000002e0: f90b 4c3d 662b 3a3c 3350 4a3e 19b1 163d
000002f0: e712 673e 0bfc 57be a6a2 46b9 7614 43bd
00000300: a1ad 3fbe 6044 75be dd71 09be 4e15 9ebd
00000310: 69dd 0cbe 751f 043e c477 ffbd 2e06 913e
00000320: 92c5 67be dc6f 423d 4f7f 17be 4bbc f4bc
00000330: e4a7 82bc cebe 413e 8705 32bd e367 423e
00000340: b38a 92bc 09d4 ba3d 4af4 b5bd bb9e fbbc
00000350: 563a ccbe 01b7 88be 9845 a6be d462 a73d
00000360: f5d1 ccbc e06e 6cbb ec2b eabd ff94 233e
00000370: f405 af3c daf1 3abd 851f 293e e138 81bd
00000380: 3798 603e 0145 6ebd 2c60 6d3c 6c40 98bd
00000390: 5549 45be 6b3f b03d 7890 efbd 73a4 f0be
000003a0: f6ac 64bd fa67 73be cb6a 00be f93d 943e
000003b0: e571 8c3e 67cd 253e 1c9d c6bd e16e 93bc
000003c0: ada6 6b3e b8f5 753e 30de acbd ca7d 75bd
000003d0: 84a2 a5bd cf2d 4d3d 3b74 963d 8aed a63d
000003e0: e2a4 60be 169a ebbd d5e8 9fbe 3635 de3d
000003f0: 96c1 c5bd 0b7c cf3e bcce 1eba c6bc 8cbe

actor.0.bias f4 [32]
-0.008181682 0.036038164 -0.00076920533 0.0 -0.020394 0.024248952 -0.00585935 -0.00012460105
0.017582463 -0.007520422 0.031510208 -0.013912514 -0.020356642 -0.009687459 -0.029044416 0.018114988
0.0005231748 -0.012510366 0.049930047 0.049051028 -0.005309606 0.05836448 -0.018094638 -0.007974213
0.06874854 0.039698977 0.008499056 -0.021629214 0.025364341 0.0 0.025761057 0.015582601
00000000: 760c 06bc c19c 133d 7fa4 49ba 0000 0000
00000010: 5111 a7bc bda5 c63c caff bfbb 57a7 02b9
00000020: 1909 903c df6d f6bb d910 013d 50f1 63bc
00000030: f9c2 a6bc 26b8 1ebc 8eee edbc e265 943c
00000040: ab25 093a 47f8 4cbc 7383 4c3d bbe9 483d
00000050: 34fc adbb 980f 6f3d 353b 94bc 46a6 02bc
00000060: 09cc 8c3d 659b 223d a03f 0b3c c02f b1bc
00000070: e1c8 cf3c 0000 0000 da08 d33c 2a4e 7f3c

actor.2.weight f4 [9, 32]
0.038127255 0.3683863 0.3590246 -0.098787956 0.40418512 -0.25541013 0.062443312 0.08140981
0.48444796 -0.3785973 -0.2143954 0.07420522 0.13811293 0.04008205 0.021724703 0.5259922
0.04661509 0.30921918 -0.42435163 0.17882007 -0.01677613 0.08140066 -0.030575912 0.36526313
-0.010141747 0.23446147 0.27099517 0.2437266 0.32332367 -0.4323461 0.11911008 -0.26497176
0.38021693 0.40082264 -0.2872305 -0.032908905 0.37626237 -0.22428475 0.0045492933 -0.08411701
0.022623736 -0.13834092 0.24225666 -0.41013128 -0.37713903 0.1235545 0.21722306 -0.11377631
-0.31424308 -0.0035369028 -0.0004401257 -0.53318274 -0.10251469 -0.15789463 -0.16159965 0.058830414
0.16483341 -0.33706987 0.15490377 0.06769448 0.23485675 0.10836218 -0.16078344 0.50811315
0.15150078 0.1645054 -0.03823671 -0.16279826 0.15113914 -0.20747691 -0.34874514 0.6405035
0.48693895 0.03471198 0.32203114 0.45966646 0.08150775 0.1278001 0.03125282 -0.1290272
0.46695912 0.17674367 0.123848796 -0.18332088 -0.3770373 0.091252655 0.12107838 -0.45045897
-0.2706327 -0.119964115 -0.08058075 0.1682957 -0.23948634 0.17224318 -0.11668709 0.2826473
-0.079205856 -0.29808396 -0.0028342505 0.22705683 -0.034814842 -0.35463214 0.40282038 0.05391502
0.07869128 0.3406022 0.515819 -0.14870039 -0.21144964 0.1251671 0.33801705 0.22764361
-0.09607165 0.17387316 -0.55803174 0.5378251 0.33237863 0.12769932 -0.10370523 -0.23640785
0.03459865 0.072009794 0.34578085 -0.10351888 0.07475171 0.16402179 -0.10684634 0.41232452
-0.34507307 0.13150398 -0.054360975 0.023588166 -0.070788495 0.03226342 0.12731692 0.23107708
0.11433461 -0.26542038 -0.10880006 0.05267308 -0.8468598 -0.11368518 0.08393836 0.059084266
0.37052894 -0.45735025 -0.22102752 0.11473585 -0.3372036 0.5481507 0.6007205 0.20478676
-0.009945485 0.36225626 0.06718528 -0.31686664 0.014918571 0.06665828 -0.154518 0.12534747
-0.4853022 0.06704192 0.16583848 -0.03140415 0.106563196 0.195182 -0.75241035 0.066431336
-0.040777564 -0.1963689 0.21332568 0.056891486 -0.027086161 0.11070124 -0.24321917 0.03682095
0.1298045 0.21703845 0.08404 -0.23377697 0.21463974 0.29539245 -0.5073894 -0.40438342
0.22787379 0.33588767 0.6394148 -0.27812234 0.121484034 0.19153325 -0.1206568 0.24318981
-0.3393232 0.41382438 -0.16171278 -0.16764046 -0.22418073 -0.12126971 0.46372506 -0.13389473
0.50945604 -0.12951924 0.13538162 -0.054036774 -0.26499778 -0.23751503 -0.32354903 0.18808042
0.2103774 0.05259977 -0.050664518 0.3663689 -0.023917848 -0.3823247 -0.27252102 -0.30157384
0.512845 -0.2155948 -0.5106411 -0.24339217 0.09717442 0.023366887 0.22695825 -0.21315044
0.12445449 -0.17411755 -0.051496204 -0.18937734 -0.29245913 -0.23891705 -0.037683453 0.2671004
0.0028612262 -0.22631095 0.23099355 -0.06549891 0.021257432 0.1856313 0.24762398 -0.12935662
-0.23366019 0.2706998 0.7605303 0.29249376 0.15269352 0.19591263 -0.17032592 0.17923267
0.3472374 0.16221891 -0.21655825 -0.22446291 0.6242111 -0.16010737 -0.3040087 0.037501827
00000000: 532b 1c3d 219d bc3e 13d2 b73e 5751 cabd
00000010: 5af1 ce3e 1ec5 82be 8fc4 7f3d 30ba a63d
00000020: 9009 f83e 81d7 c1be 788a 5bbe e8f8 973d
00000030: 7a6d 0d3e 132d 243d 01f8 b13c 6da7 063f
00000040: 77ef 3e3d fa51 9e3e 9e44 d9be 9c1c 373e
00000050: 186e 89bc 64b5 a63d 567a fabc c503 bb3e
00000060: 9229 26bc ab16 703e e1bf 8a3e 7793 793e
00000070: ae8a a53e 785c ddbe fcef f33d 61aa 87be
00000080: cbab c23e a038 cd3e e00f 93be 7dcb 06bd
00000090: 76a5 c03e e7aa 65be 3d12 953b 8a45 acbd
000000a0: 6a55 b93c 3ea9 0dbe 2112 783e bafc d1be
000000b0: 5e18 c1be 240a fd3d b96f 5e3e 8e03 e9bd
000000c0: 78e4 a0be 62cb 67bb acc0 e6b9 aa7e 08bf
000000d0: 39f3 d1bd 21af 21be 617a 25be 29f8 703d
000000e0: 17ca 283e 6c94 acbe 189f 1e3e 67a3 8a3d
000000f0: 4a7e 703e feec dd3d 6aa4 24be b413 023f
00000100: 0523 1b3e 1b74 283e 199e 1cbd 96b4 26be
00000110: 38c4 1a3e d474 54be b98e b2be 0af8 233f
00000120: 1050 f93e 262e 0e3d 44e1 a43e 6759 eb3e
00000130: 89ed a63d 08de 023e f502 003d b51f 04be
00000140: 4415 ef3e 4bfc 343e 70a4 fd3d 78b8 3bbe
00000150: 080b c1be ace2 ba3d f1f7 f73d 8fa2 e6be
00000160: 5f90 8abe bfaf f5bd 8507 a5bd b555 2c3e
00000170: e83b 75be 8460 303e a4f9 eebd 26b7 903e
00000180: ae36 a2bd 769e 98be d5be 39bb 9681 683e
00000190: 029a 0ebd 5892 b5be 793e ce3e ffd5 5c3d
000001a0: e528 a13d 6963 ae3e b70c 043f ea44 18be
000001b0: 4186 58be ce2b 003e 9210 ad3e 681b 693e
000001c0: 37c1 c4bd ce0b 323e 2bdb 0ebf e8ae 093f
000001d0: 882d aa3e 9cc3 023e 6863 d4bd e614 72be
000001e0: 50b7 0d3d df79 933d 300a b13e b501 d4bd
000001f0: 6d17 993d 54f5 273e 41d2 dabd 331c d33e
00000200: 6bad b0be fba8 063e 9da9 5ebd f83b c13c
00000210: 8ff9 90bd a626 043d 5e5f 023e 789f 6c3e
00000220: 4428 ea3d 2ee5 87be 91d2 debd babf 573d
00000230: cecb 58bf c7d3 e8bd e0e7 ab3d 5802 723d
00000240: f8b5 bd3e d029 eabe 0a55 62be a1fa ea3d
00000250: f3a5 acbe 9b53 0c3f d2c8 193f 9fb3 513e
00000260: 63f2 22bc a779 b93e 7098 893d 583c a2be
00000270: 066d 743c 2384 883d f739 1ebe 165b 003e
00000280: 8879 f8be 464d 893d 90d1 293e a3a1 00bd
00000290: ce3d da3d cadd 473e f79d 40bf 270d 883d
000002a0: 6006 27bd ee14 49be 0c72 5a3e 0c07 693d
000002b0: cce3 ddbc 55b7 e23d 720e 79be 91d1 163d
000002c0: 79eb 043e 543f 5e3e 2a1d ac3d 3b63 6fbe
000002d0: 85ca 5b3e ae3d 973e 46e4 01bf 580b cfbe
000002e0: bf57 693e 78f9 ab3e b0b0 233f 0d66 8ebe
000002f0: 9fcc f83d 4b21 443e ea1a f7bd c006 793e
00000300: c5bb adbe cae0 d33e 0998 25be f1a9 2bbe
00000310: a28f 65be 415c f8bd 5f6d ed3e b31b 09be
00000320: b66b 023f b1a0 04be 7ba1 0a3e aa55 5dbd
00000330: caad 87be 2437 73be 38a8 a5be 2798 403e
00000340: 2c6d 573e db72 573d 9985 4fbd b494 bb3e
00000350: 5def c3bc 10c0 c3be e087 8bbe e367 9abe
00000360: cf49 033f e2c4 5cbe 60b9 02bf cc3b 79be
00000370: 6203 c73d ea6b bf3c be67 683e 1c44 5abe
00000380: ffe1 fe3d df4b 32be afed 52bd 22ec 41be
00000390: 34bd 95be aca6 74be f759 1abd 62c1 883e
000003a0: 6983 3b3b 0fbe 67be 9389 6c3e 4b24 86bd
000003b0: 1124 ae3c 2216 3e3e 2491 7d3e 1076 04be
000003c0: 9e44 6fbe 2a99 8a3e 1db2 423f bec1 953e
000003d0: b15b 1c3e 529d 483e eb69 2ebe c588 373e
000003e0: 1ac9 b13e b71c 263e 72c1 5dbe 9bd9 65be
000003f0: 4ccc 1f3f 30f3 23be 07a7 9bbe 849b 193d

actor.2.bias f4 [9]
-0.070693724 0.063356034 -0.012809848 -0.036407858 0.06725656 0.07598686 0.023305112 -0.0039356975
-0.010278142
00000000: dfc7 90bd cfc0 813d 66e0 51bc 6820 15bd
00000010: cfbd 893d 009f 9b3d 5dea be3c 06f7 80bb
00000020: a765 28bc

critic.0.weight f4 [32, 64]
0.20141076 0.112889245 -0.07067162 -0.014637584 0.16454937 -0.20246917 -0.13031979 -0.11853006
0.19722697 -0.047801245 0.268805 0.022240851 0.039184853 -0.17234245 0.62528193 0.059038993
0.11171248 -0.26415318 0.06709501 0.4963714 -0.15514936 0.04703683 -0.18375105 -0.03324372
0.04164429 0.1668452 0.2980325 0.31800476 0.19169831 -0.07673483 0.01369208 -0.18509567
0.10271965 0.023370929 0.042176425 0.03474896 0.036293954 0.115524136 0.43654025 0.29713106
0.25314194 -0.1626894 0.028720131 0.12733287 -0.061053973 0.064898066 -0.042655762 0.11360101
-0.23882848 0.008822797 0.0066246027 -0.1217093 0.20551035 0.33730215 0.023660483 -0.31119147
0.5629398 0.26123974 -0.17387234 -0.15579449 0.24142978 0.2032213 0.41959637 0.18743172
0.26067075 0.2211621 0.062498428 0.112911426 0.4155294 -0.08275539 0.27725676 -0.12836558
-0.31777573 -0.10425466 -0.10113132 0.15735403 -0.11216566 -0.19028173 0.05869321 -0.25317448
0.1531429 -0.0851149 0.23606376 0.23725148 -0.06086254 -0.11613442 0.055068728 -0.047574963
0.3775325 0.13007957 -0.29111952 -0.05763721 -0.20996067 0.20917608 0.30184504 -0.40257162
-0.10289677 0.21413238 0.067542315 0.0068946807 0.059952814 0.08597616 0.28596276 0.3868916
-0.036647264 0.26727423 0.049089137 0.1760546 0.22131999 -0.07309542 -0.09720047 -0.2893657
-0.1836766 0.23905374 -0.0118585 -0.0057053654 0.18381786 0.57328326 0.12243116 0.25848615
0.090100735 0.2902964 0.24794623 -0.3173406 0.00942391 0.36495996 0.330184 0.085241094
-0.07242132 0.07085762 -0.16726135 0.15441333 -0.012715761 0.11347297 0.025173249 0.29424033
0.13164552 -0.16276968 0.14259 -0.21696202 -0.19704029 -0.29023102 -0.1866853 -0.1007685
0.2043915 -0.067929275 -0.14908355 0.10832162 0.013208308 -0.12793747 -0.10945903 0.10443883
-0.10500336 0.0013552604 -0.23678036 -0.0583199 0.010479736 0.15135144 0.28621703 -0.09187474
-0.08842458 0.072574094 -0.2811513 0.020036321 -0.47069198 0.22422463 -0.045756225 -0.22347006
0.09773549 0.09730923 0.0829608 0.3668002 -0.24349947 0.20699695 -0.14666513 -0.076498024
0.36069757 -0.18376245 0.16253999 0.06800412 -0.061505347 -0.11375672 -0.2927507 0.067489915
0.14234594 -0.01692545 -0.19713347 -0.30318627 0.24909556 -0.073527 0.116678104 -0.11865678
-0.16573824 -0.16842929 0.027667172 0.075039744 -0.51603985 0.102392435 -0.042329147 -0.051397987
0.14291938 -0.17137744 0.10199328 -0.05208989 -0.27160808 0.05741473 -0.10923356 0.051554784
-0.019149786 -0.2741982 -0.10195208 -0.051321946 0.26850918 -0.2549917 0.09523176 -0.012743864
0.17371851 -0.13496828 0.10475698 0.41582388 -0.08875737 0.09372203 -0.10595136 -0.30622157
0.042201396 -0.19011876 -0.070187405 -0.1752916 -0.012277354 0.07664493 -0.44122085 0.036137734
-0.34445345 -0.3134385 0.15587583 -0.16898836 -0.18283074 -0.037191782 0.19920614 -0.13593285
0.020241523 0.23630044 -0.19398026 -0.2964973 0.19333027 -0.20587803 0.011694163 0.11097126
-0.13084751 -0.038166087 0.04336381 0.094237186 0.38707954 0.3571028 -0.14444387 -0.029124778
00000000: 9f3e 4e3e 7a32 e73d 48bc 90bd 7ad2 6fbc
00000010: a17f 283e 1454 4fbe 8d72 05be e3bf f2bd
00000020: def5 493e 3dcb 43bd cfa0 893e 7232 b63c
00000030: 4c80 203d 8a7a 30be 7a12 203f dfd2 713d
00000040: 83c9 e43d 163f 87be 1c69 893d 6424 fe3e
00000050: 79df 1ebe b1a9 403d 3c29 3cbe 912a 08bd
00000060: 3493 2a3d 78d9 2a3e b797 983e 85d1 a23e
00000070: 904c 443e 2727 9dbd bf54 603c b889 3dbe
00000080: ae5e d23d 6474 bf3c 30c1 2c3d ed54 0e3d
00000090: f8a8 143d eb97 ec3d 3482 df3e 9021 983e
000000a0: d29b 813e 0d98 26be 7b46 eb3c 8c63 023e
000000b0: bb13 7abd 47e9 843d cfb7 2ebd a5a7 e83d
000000c0: 748f 74be 7e8d 103c 3213 d93b ba42 f9bd
000000d0: 4e71 523e deb2 ac3e a1d3 c13c 7d54 9fbe
000000e0: d31c 103f 37c1 853e 970b 32be 9788 1fbe
000000f0: 5e39 773e 3f19 503e 56d5 d63e 1aee 3f3e
00000100: a376 853e 5178 623e 5afe 7f3d 1b3e e73d
00000110: 45c0 d43e a87b a9bd 99f4 8d3e 4472 03be
00000120: 80b3 a2be 7883 d5bd f01d cfbd 6a21 213e
00000130: 1cb7 e5bd 37d9 42be 4b68 703d 16a0 81be
00000140: 7ed1 1c3e b850 aebd b3ba 713e 0df2 723e
00000150: 004b 79bd e2d7 edbd bf8f 613d f7dd 42bd
00000160: f14b c13e 9433 053e 9e0d 95be ff14 6cbd
00000170: eeff 56be 4132 563e 6f8b 9a3e de1d cebe
00000180: 8bbb d2bd 8545 5b3e a053 8a3d c6ec e13b
00000190: 1591 753d 4514 b03d b669 923e a816 c63e
000001a0: 711b 16bd 2bd8 883e b111 493d a847 343e
000001b0: b5a1 623e 0db3 95bd 0a11 c7bd be27 94be
000001c0: b815 3cbe 81ca 743e 274a 42bc 13f4 babb
000001d0: c03a 3c3e b1c2 123f 30bd fa3d 4c58 843e
000001e0: bc86 b83d bba1 943e 9ee5 7d3e 787a a2be
000001f0: be66 1a3c 08dc ba3e e10d a93e e292 ae3d
00000200: a151 94bd cd1d 913d 8f46 2bbe 871e 1e3e
00000210: c455 50bc 8464 e83d 2138 ce3c aba6 963e
00000220: 15ce 063e 18ad 26be 1d03 123e 4b2b 5ebe
00000230: eec4 49be 2999 94be 6e2a 3fbe b75f cebd
00000240: 014c 513e 811e 8bbd 5ca9 18be bad7 dd3d
00000250: a967 583c 0a02 03be 0e2c e0bd 06e4 d53d
00000260: 000c d7bd fea2 b13a 8d76 72be d9e0 6ebd
00000270: 33b3 2b3c dffb 1a3e 0a8b 923e d328 bcbd
00000280: f217 b5bd baa1 943d 10f3 8fbe 3623 a43c
00000290: 8afe f0be 249b 653e e16a 3bbd 56d5 64be
000002a0: 8b29 c83d 104a c73d 5ae7 a93d 3ccd bb3e
000002b0: ed57 79be 02f7 533e 622f 16be ffaa 9cbd
000002c0: 5aad b83e 392c 3cbe e270 263e be45 8b3d
000002d0: 08ed 7bbd 49f9 e8bd 6be3 95be 2738 8a3d
000002e0: 22c3 113e 3ea7 8abc 5bdd 49be 3b3b 9bbe
000002f0: e812 7f3e 5395 96bd eef4 ee3d 5302 f3bd
00000300: 49b7 29be ba78 2cbe 44a6 e23c 70ae 993d
00000310: 301b 04bf 20b3 d13d 5461 2dbd b286 52bd
00000320: 7559 123e 917d 2fbe dae1 d03d 355c 55bd
00000330: 3710 8bbe b52b 6b3d d8b5 dfbd 1c2b 533d
00000340: 03e0 9cbc b563 8cbe 41cc d0bd f636 52bd
00000350: 097a 893e 468e 82be de08 c33d a4cb 50bc
00000360: 44e3 313e 2035 0abe d48a d63d dee6 d43e
00000370: 6dc6 b5bd 56f1 bf3d 07fd d8bd 13c9 9cbe
00000380: 5fdb 2c3d 7eae 42be 6abe 8fbd a47f 33be
00000390: f426 49bc 04f8 9c3d b3e7 e1be 2905 143d
000003a0: 345c b0be 037b a0be ea9d 1f3e 490b 2dbe
000003b0: fb37 3bbe 6956 18bd b2fc 4b3e fb31 0bbe
000003c0: 8dd1 a53c bef8 713e c3a2 46be 7ece 97be
000003d0: 5ff8 453e b1d1 52be e098 3f3c e644 e33d
000003e0: e4fc 05be 0b54 1cbd 409e 313d 6dff c03d
000003f0: 4a2f c63e 2ed6 b63e 18e9 13be 1697 eebc

critic.0.bias f4 [32]
0.25490937 0.24199106 0.0 -0.04852504 -0.025876094 0.25855875 0.24406062 -0.018668424
-0.056025483 0.24466959 0.25714707 -0.022064507 0.22352047 0.0 -0.0027968716 -0.028950443
0.24173622 -0.075592965 0.0043503726 -0.014132156 0.0 0.082264826 0.24442995 -0.10784073
0.23111136 0.27595323 0.24008605 0.25951853 0.28080192 -0.020738639 0.0 0.24349685
00000000: 7b83 823e 81cc 773e 0000 0000 31c2 46bd
00000010: 1afa d3bc d061 843e 07eb 793e 86ee 98bc
00000020: fa7a 65bd aa8a 7a3e c8a8 833e a0c0 b4bc
00000030: 8de2 643e 0000 0000 b84b 37bb 7b29 edbc
00000040: b389 773e 7cd0 9abd 928d 8e3b 8f8a 67bc
00000050: 0000 0000 767a a83d d84b 7a3e 9adb dcbd
00000060: 75a8 6c3e be49 8d3e 1ed9 753e 9ddf 843e
00000070: 45c5 8f3e 14e4 a9bc 0000 0000 3d57 793e

critic.2.weight f4 [1, 32]
0.3958103 0.28053543 0.070644274 -0.22166906 -0.29809687 0.27092043 0.47097123 -0.20682278
-0.26294467 0.43872327 0.16080846 0.44809616 0.2580811 0.1296463 0.07615303 0.22644418
0.30884045 -0.57050157 -0.39125678 0.28718585 -0.41391775 0.04069033 0.23072922 -0.22897851
0.5106094 0.4405065 0.23973471 0.20444715 0.45403725 -0.54490185 -0.20526223 0.19263364
00000000: a6a7 ca3e 57a2 8f3e f2ad 903d 37fd 62be
00000010: 27a0 98be 15b6 8a3e 2423 f13e 5ac9 53be
00000020: afa0 86be 56a0 e03e f9aa 243e dc6c e53e
00000030: 3523 843e 00c2 043e 1ff6 9b3d fce0 673e
00000040: 5620 9e3e 640c 12bf cf52 c8be 060a 933e
00000050: 07ed d3be e7aa 263d 4844 6c3e 5879 6abe
00000060: 4cb7 023f 118a e13e 047d 753e 985a 513e
00000070: 9277 e83e b07e 0bbf 4330 52be c141 453e
