logs/base/checkpoint_episode_1200.pt (torch, 499310 bytes, 39 tensors)

shared_net.0.weight f4 [128, 30]
00000000: 3189 353e db9b 8dba 608f 813e 14d5 77be
00000010: 829f 5cbd 4d55 02be 4abd a1be 91de 7b3d
00000020: 8449 89bd 4c89 613c 7f6b 34be 4798 aabe
00000030: 42bb 7ebd 556b ddbc 6b55 8c3d 1e5d 85bc
00000040: 2855 0b3d dce6 093e 6424 b33d feeb 0abb
00000050: 7b7c c13d 4e13 d4bd 1e0c 343e 6cb0 17bd
00000060: bd8e 053e a403 aa3e f24e 113e 205a 5c3e
00000070: 05cd 563e 10cf 213e 7324 a03c 5f5b 67bb
00000080: 113f 6bbe c6f9 663d 4399 243d 3715 113e
00000090: 2500 a9bc e2d6 133d 28eb da3d dde8 f7bc
000000a0: 8706 873e 1f92 8bbd fed4 3cbd 8e6f 9bbc
000000b0: 64ab 0f3c 562e 38bc 25f2 f2bd f09d 2b3c
000000c0: daf8 df3d 0471 60bc 56b8 37be b4ce e5bc
000000d0: 1cb5 443c d4f9 04be f7a9 fa3d 4473 f6bc
000000e0: 90dd abbc 34ae 7b3e 8673 993c 3cb2 f73a
000000f0: c4dc 37bd df4f 503d a83a 6ebf eefa b0bc
00000100: 42f3 4b3e e8dd 85be 2511 573e 098d 4ebe
00000110: 5e02 0c3d 3ff0 49bd eb6e f3bd 8e4e 103e
00000120: 2205 90be 1248 e3bd dc80 9cbe b410 85bd
00000130: 1bc8 0dbe df10 323d 0435 d0bc f16e 1ebd
00000140: 7085 38be b974 b5bd 83ea 5dbc 49d8 5f3d
00000150: 9bdf 9abd 04d3 7dbe bc5f 6bbd c1ca 05be
00000160: 218a 4abd 8a14 45be b764 543e aebf 1ebe
00000170: 8c2b af3d 37be 5bbd 4e77 f0ba f56a f3bd
00000180: f3c9 ccbe cf86 c2be 548f 98be 88d8 a5be
00000190: a316 3c3e 5bd9 0cbe 6bc1 dbbe cc43 bbbe
000001a0: 80bb a0be 9de3 5e3e 3960 64bd 8e6e 91be
000001b0: 12fc 6bbe 62e0 a0be 2a4c 0e3e b6b0 ac3d
000001c0: 3050 593e 54db abbc 2c91 a7bd 44dd 873d
000001d0: 6442 9b3d bd59 c3bc ed0c e73d d0c0 f0bd
000001e0: 9800 b83d 4466 0dbe 0293 3b3e 68df 463e
000001f0: 0c76 95be 486f b53d e53d d53a aa37 bcbe
00000200: 9618 efbe f34f 0cbf db50 28be b014 44bd
00000210: e941 febc 19d9 07bf b7b7 d2be 42b6 753d
00000220: dcb7 38be b07f 73be 92d4 b13c 20b5 6fbe
00000230: 1fd2 423e 5bea ce3d e0b1 62be 3460 943d
00000240: caf4 2ebe 6bd8 cc3d 2c5c 453e 019d dd3c
00000250: 45e6 4a3d fbf2 763e 748a b03d 241e 0cbd
00000260: cbca 2abe 24d7 afbd eb11 363c 645f fe3d
00000270: aac2 fd3d 6684 61be 94b2 c7bd 8dcd 82be
00000280: 5f13 203e 2297 163e faaa 753d b18f e4bb
00000290: 81b6 64be 4c76 6e3d 9939 2e3e e471 043e
000002a0: 74a4 1abd 789c 9cba f6af cd3c 48d2 24be
000002b0: 1d65 c9bc ad3f d5bd 580b 35be e2b6 6e3e
000002c0: cc87 8b3d d3a8 893d 137f 86be c969 85be
000002d0: 6117 063e 5f8b 183d c1e1 02bf 2cf2 26be
000002e0: 3f7d 4a3e edf9 6c3e f90f e13e 0f3d 213e
000002f0: 5405 c9bd 7032 213e 9e69 5f3d 8248 9e3e
00000300: f024 233e ec76 023e dcf6 893e bf0a 9f3e
00000310: edc3 ac3e 68ce 983d adef a93d 071d b43c
00000320: 3d24 f33c 1d1f c73e 8ee5 773e 2b46 ed3d
00000330: b135 73bd 9296 7fbd 1215 2e3e 434d 16be
00000340: 378c 893c 1ec4 19be be73 0ebd 0945 1a3d
00000350: 3f53 80be a1fe f6bd 4ccb 073f 734d f93e
00000360: 0209 423e d213 8c3e 036e 973e 2cbc 353e
00000370: ec36 953e abe8 933e c2c4 ac3e a0e7 a33e
00000380: 07c9 0a3e 2fd6 f53d f302 4c3e b587 393f
00000390: 8000 193f 0ca5 823d 6598 e63d 4e5b a83e
000003a0: 0c6e ec3d d20b 853e 171a 593e 2868 863e
000003b0: 5904 4a3e c29a e2bd 2c7f 2c3e d7b2 c83e
000003c0: 0481 14bd c481 1dbe 0a89 0abe 1b4e 65be
000003d0: 0906 5c3e 2b85 e43d f2b4 fb3b 69c3 0dbe
000003e0: 5bfd b53d 88ed 6dbe ffba cebd 3cf5 45bb
000003f0: 7212 dc3b e844 0ebe fc19 8a3d 6acd 72bd
0.17728116 -0.0010803895 0.253047 -0.24202377 -0.053863056 -0.12727852 -0.3158973 0.061491553
-0.06703475 0.013765644 -0.17619132 -0.33319303 -0.0621903 -0.027028719 0.0685223 -0.016279753
0.03401676 0.13466972 0.08747175 -0.0021197791 0.09447571 -0.103552446 0.17582747 -0.037033483
0.13042732 0.33205903 0.14190271 0.21518755 0.20976646 0.15801644 0.01954863 -0.0035302264
-0.22973277 0.056390546 0.040185224 0.14168249 -0.020629952 0.0360936 0.10689384 -0.030262405
0.26372167 -0.0681498 -0.046101563 -0.018974092 0.00876889 -0.011241516 -0.11862592 0.010474667
0.109361365 -0.01369882 -0.17941412 -0.028052665 0.01200607 -0.12985927 0.122394495 -0.03008426
-0.020979673 0.24578172 0.018731844 0.0018897722 -0.044888273 0.05085742 -0.9305825 -0.021604028
0.19917014 -0.26145864 0.21002634 -0.20170988 0.034181945 -0.049301382 -0.1188639 0.14092466
-0.28128916 -0.11097731 -0.30567062 -0.064973265 -0.13845865 0.04347312 -0.025415905 -0.03868002
-0.18019652 -0.08860154 -0.0135446815 0.054649625 -0.075621806 -0.24787527 -0.057464346 -0.13065626
-0.049448136 -0.19246116 0.20741545 -0.15502807 0.08553228 -0.0536482 -0.0018346102 -0.11885635
-0.39997825 -0.37993476 -0.2979685 -0.32391763 0.1836801 -0.1375479 -0.42921004 -0.36575162
-0.3139305 0.21766515 -0.055755828 -0.2840466 -0.23045376 -0.3142119 0.13896242 0.084321424
0.21221995 -0.020978607 -0.08181986 0.06634 0.075810224 -0.023846501 0.11281762 -0.11755526
0.08984488 -0.13808542 0.18317798 0.1942116 -0.29191625 0.08859116 0.0016269056 -0.36761218
-0.46698445 -0.5480949 -0.16437094 -0.04787129 -0.031037288 -0.5306564 -0.41155788 0.059988268
-0.18038887 -0.23779178 0.021707807 -0.23408937 0.19025467 0.101032935 -0.22138166 0.07244912
-0.17085567 0.10002216 0.19273442 0.027052404 0.04953601 0.24116127 0.08620158 -0.03420843
-0.16678922 -0.08585957 0.01111267 0.12420538 0.12390645 -0.22023162 -0.09750858 -0.25547448
0.1563239 0.1470609 0.05997751 -0.006975137 -0.22335245 0.058218285 0.1701416 0.12934071
-0.03775449 -0.0011948487 0.025108319 -0.16095841 -0.024584347 -0.10412536 -0.17680109 0.23311952
0.068130106 0.06721654 -0.26268825 -0.2605727 0.13094856 0.03724229 -0.51125723 -0.16303319
0.1977434 0.23142214 0.439575 0.15745948 -0.098154694 0.15741897 0.054544084 0.30914694
0.1593206 0.12740678 0.2694615 0.31062886 0.3374323 0.07461244 0.08297668 0.021986498
0.029680366 0.38890925 0.24208662 0.11585649 -0.059377376 -0.062399454 0.17000225 -0.1467791
0.016790492 -0.15016219 -0.03477835 0.037663493 -0.25063512 -0.12060285 0.5304458 0.48691902
0.18948749 0.27358872 0.2957612 0.17747563 0.29143465 0.2888845 0.33743864 0.32012653
0.13553248 0.12003743 0.19923 0.724727 0.5976639 0.063791364 0.11259536 0.3288216
0.11544427 0.2598558 0.21201359 0.2625134 0.19728221 -0.11064674 0.16845387 0.39198944
-0.03625585 -0.15381533 -0.13528839 -0.22393076 0.21486677 0.11158212 0.0076814825 -0.13844074
0.08886214 -0.23235142 -0.100942604 -0.0030205986 0.006716066 -0.13893473 0.067432374 -0.05927793

shared_net.0.bias f4 [128]
00000000: 7b29 07bd 72f8 fc3d 3119 4a3d 5478 b7bc
00000010: bf09 983d f6e7 bf3d 28ad 843c 4f25 4f3c
00000020: 43fb 5fbc 19f5 acbc 685f 2fbd 5cfc aebb
00000030: aa88 b93c 94e6 0539 1413 8d3d 8cad 683b
00000040: b932 64bd b777 e33d e062 b03c d82c 193e
00000050: 6461 2c3d 9f83 5ebc 4ef9 bd3d 554b 8e3d
00000060: 0000 0000 a1f3 5e3d 0727 2bbc b94e a03c
00000070: 5449 d9bc cec7 1f3e 1460 d1bd 0f5a 983d
00000080: 0066 ff3b 4a17 db3d 7b90 593e 1b61 b43d
00000090: 8df6 763d 057c 293e 3582 dfbd 5ea4 9fba
000000a0: 945b 783d 66c3 e5bb e35d 94bb 32b3 eabc
000000b0: f332 36bc 7ac4 a83c 69a0 083e 4ef3 173c
000000c0: ae25 193d f106 7b3c 7a1e 17be 9dae 9f3d
000000d0: 7ee1 763d 208b ceb8 9e67 c93d cf0e 2a3d
000000e0: 0000 0000 75c6 4e3c 3526 d2bc 730d 0bbd
000000f0: 8d43 9abd 6bc9 853d 0271 24bd cd60 fb3d
00000100: bc1b b23d 1d13 323d fdec 0d3e 4511 1e3d
00000110: 2a8b aebd 3100 783d c3d4 cabd dc72 bcbb
00000120: 41d8 bfbd 5eb5 9abc 9428 1f3d b4b9 98bc
00000130: c9a2 a63d 5c2b 753c cc21 07bb 1e85 333d
00000140: 3dca 87bc e98d 473c d553 633d 37ba 3dbd
00000150: 241a dd3c 1f21 5a3d 1420 d63c 6064 78bc
00000160: 16ff 5bbc a824 fb3c 2588 f83c 5ad9 0dbd
00000170: 47b4 d83d dee9 fc3d 3686 f0bb ceb9 86bd
00000180: d167 1b3c b03a 973d 60dd 383e 52fe 493c
00000190: 404d 7f3c 74ee 11bd 7f95 d8bc a87e be3d
000001a0: 144e d73c 2ffd 153d ab72 8b3d d1ab 8cbd
000001b0: 1187 493d b362 083d 145d 863d 0000 0000
000001c0: e701 c83c c6d8 993d ffc0 8b3d b084 1fbd
000001d0: 0479 d5bc 3654 d83d b933 0dbd 9cac 1ebd
000001e0: cfe6 5bbc 0000 0000 1bac fa3c bed9 d5bc
000001f0: c3bf 33bd 493e 4abd 7f58 3d3d adb9 2dbd
-0.032998543 0.12352075 0.04934043 -0.022396244 0.07423734 0.09370415 0.016195849 0.012643172
-0.013670745 -0.021112965 -0.042815596 -0.005340142 0.022648174 0.00012769765 0.068884045 0.0035503833
-0.055712435 0.11106818 0.021531522 0.14958513 0.042085066 -0.013581186 0.09276067 0.06947962
0.0 0.05443156 -0.010446317 0.019568788 -0.026524223 0.15603563 -0.102234036 0.07439052
0.007794142 0.106978014 0.21246521 0.08807584 0.060293723 0.16551216 -0.10913507 -0.0012179723
0.06063421 -0.0070118187 -0.0045277937 -0.0286499 -0.011120546 0.0206015 0.13342442 0.009274317
0.03738945 0.015321479 -0.1475772 0.07796977 0.06027364 -9.8487595e-05 0.098342165 0.04151803
0.0 0.012620558 -0.025652984 -0.033948373 -0.075324155 0.06532558 -0.040146835 0.12274323
0.08696696 0.04347526 0.13859935 0.03859069 -0.08522637 0.060547058 -0.09903862 -0.005750997
-0.09367419 -0.01888531 0.038857058 -0.018643238 0.081365176 0.014963951 -0.002061951 0.043828122
-0.016575927 0.01217983 0.05549987 -0.046320166 0.026990004 0.053254243 0.026138343 -0.01516065
-0.013427516 0.030657127 0.030338356 -0.03463111 0.1058126 0.12349294 -0.007340218 -0.06578408
0.009485201 0.073842406 0.18053198 0.012328701 0.015582383 -0.035627797 -0.026438473 0.093015015
0.026282348 0.036618408 0.068089806 -0.06868709 0.049201075 0.033297252 0.06560722 0.0
0.02441497 0.075120494 0.068239205 -0.0389449 -0.026058681 0.10562937 -0.034473155 -0.038738832
-0.013421728 0.0 0.030599644 -0.026104804 -0.04388405 -0.049375806 0.046226975 -0.042413402

shared_net.2.weight f4 [128, 128]
00000000: 1168 933b 1111 763d 7f19 bc3e 81d7 ad3d
00000010: f6bf b5bc 9d81 103e 6a61 bb3d bba6 c33c
00000020: 16d2 9abd bd3e f6bd 24ed 18bd 36a8 43be
00000030: 808c 40be 6bc9 013d 7035 4fbe df5c 72bd
00000040: 0c34 873e 78d2 e23d f54b d23d 0148 093e
00000050: a7b0 de3e 63d9 45bb c599 b13d a501 713e
00000060: 5fd3 f8bc ac39 e23d f7cb 3ebe d316 d1bc
00000070: a9d4 b83a 5114 a2bb f7df ecbd 189e 2ebd
00000080: 68f2 1fbe e665 4f3d c60e b6bd c844 b13d
00000090: 7bec 843d 7f77 f43d af76 babd f77c a9be
000000a0: 4a7e 5b3d 3ac5 04be 3add 063c bce3 a4bd
000000b0: 85e7 a13d 1bb3 643e 7d42 e33d dabb 813d
000000c0: e5c9 ecbc 44be 8fbd 6f54 683c 9c79 7f3e
000000d0: 2bfc 15bc 65a2 b33d 6d10 313d e914 aabd
000000e0: 4a0b 5cbe 1417 533d e675 d7bc 271b 3abc
000000f0: 52d0 0f3e b093 e93d b8ff 9f3c 347c 623d
00000100: 4958 ac3c e71a 273e 4d54 b63d db61 0a3e
00000110: 17cd 4fbe 6730 653e 47c6 6ebe 1fbf 83be
00000120: 4824 13be ac35 5fbe 6f61 3f3e 3622 f33c
00000130: 8bfb f53e 28c4 2b3e 21ba 9cbd 907a efbd
00000140: fbe0 a5be b176 7b3e ce5e 413e cf73 9dbd
00000150: d60b 543e 60bf 023e be5c 3e3d edb6 953e
00000160: 9e63 bc3d eac8 06be 1d37 103e c520 68be
00000170: 2d46 0e3d ea6a 753d 2b3c 313d ec43 063e
00000180: 987c 3ebe 26c7 87be afbe f63d 393c 11be
00000190: 2bb9 23be 831f ebbd 5e5c bd3d 2a2b a63e
000001a0: 702c 943d b230 e43c 2d79 88bd d98c a3bd
000001b0: 63f2 003e 539b 69be 76d9 b1ba e6c2 e6bd
000001c0: 09a7 ff3d 59d2 8ebd 2219 363e ad7a e43b
000001d0: f0d9 e3bd 81bb 97bc 143b cfbb 7ba7 d4bd
000001e0: f7fc 59bd e529 1e3e f857 713d 5036 bf3d
000001f0: 167e 0dbd 6c92 db3a cc40 f13d b024 b1bd
00000200: 7c40 83bd 6599 e8bd 9cef 743d 941c 71be
00000210: 1934 c53d 3d1b df3c 3cfe 4ebe bc07 863d
00000220: fb33 04be 6b64 f4bd f17d d7bd a2b3 813e
00000230: ee24 e0bb 0276 783c 1907 2a3c 2459 0fbe
00000240: c302 983a 21bd c4bd 8cdd c9bc f83f 4c3d
00000250: bebd 0e3e bb0d 0f3e 02d4 7c3e 7fda c8bd
00000260: 8000 143d 9d9d 8cbd 3842 053d 1c94 1c3d
00000270: e746 a7bd bc84 36be 0450 423e 5760 35bd
00000280: 3114 763e 142b c3bd 7683 ef3d 53cd e9bd
00000290: bc37 c53c 3ac2 da3d 08a6 123e 469d 93be
000002a0: f59f 71be 80fd 2abe 8b16 743d da12 933d
000002b0: 6c65 77bd 1a9c 5d3e db87 b4bd 7287 abbd
000002c0: 5373 423d 28ef fabc bb7a c93b 6156 b43d
000002d0: 1b46 b3bd 575c c4bd 733f 6c3d 78c3 8d3c
000002e0: bd98 57bd b978 373e dbaf 1bbe e64c c2bd
000002f0: e989 5fbc bc92 583e d1ae 7c3d b5e2 37be
00000300: f630 08be 4da2 2cbd 1132 0c3c cd0d 1b3d
00000310: 9ae3 223e 67ed 93bd 2818 813e b0ff 66be
00000320: 625e 7bbe 2c0b e83c 028f 123d 23cc 55bb
00000330: bba4 433b 3aa8 2bbd 9893 53bd c753 0fbe
00000340: cb4b 273e f4d8 103e c268 39bd d3bf 333d
00000350: 66c9 b8bd 7afb a9bd 2c1a d93b a661 093e
00000360: a1c2 19be ad8a 6a3d 8009 533d 321f 45be
00000370: eaa5 01be a877 9b3d 2ea7 b53d 2483 19be
00000380: f4ac 143d 06d2 de3c 2219 273e 348c 9fbd
00000390: 792e da3c ac02 313e ce29 e7bd 6b5b 97bd
000003a0: 31f7 a13e 1be0 b43d ac87 d23d be07 583e
000003b0: 700d 89be 5451 8bbd 178d 553d d6e4 8d3d
000003c0: ca3e abbc f92e 47be 57a5 d8bd 089c 0e3d
000003d0: 74f0 9dbd 64af debd 0f23 05bc 7815 213e
000003e0: 23ba 043e 434c 983d a835 9b3c d980 34be
000003f0: eedb 80bd e240 3dbe 6dce 37be 5504 19bd
0.0044984897 0.06007487 0.36738202 0.0848837 -0.02218626 0.14111944 0.0914944 0.023883214
-0.07559602 -0.12023685 -0.03733553 -0.19107136 -0.18803596 0.031686228 -0.20235229 -0.0591706
0.26406896 0.110753 0.10268394 0.13406374 0.4349415 -0.0030189387 0.08671907 0.23535784
-0.030374227 0.11046156 -0.18632494 -0.025523579 0.0014101464 -0.0049462696 -0.115661554 -0.04263124
-0.15619814 0.050634287 -0.088895366 0.08655697 0.064904176 0.119368546 -0.09104668 -0.33103153
0.053587236 -0.12965861 0.008231455 -0.080512494 0.07905487 0.22333948 0.11096666 0.06334658
-0.028904865 -0.07018712 0.014180287 0.24948734 -0.00915436 0.08771209 0.043228555 -0.083047695
-0.21488681 0.05153568 -0.026301336 -0.011359013 0.14044312 0.11405122 0.019531116 0.05529423
0.021038191 0.16318856 0.08902798 0.13513891 -0.2029308 0.22381745 -0.23317824 -0.2573175
-0.14369309 -0.21797818 0.18689512 0.029679399 0.48043475 0.16774046 -0.07652689 -0.11693299
-0.3239821 0.24556996 0.18883821 -0.07688104 0.2070764 0.12768316 0.046475165 0.29241124
0.09198688 -0.1316258 0.14083524 -0.2266875 0.034734894 0.059916414 0.04327027 0.13111848
-0.18602216 -0.26519126 0.12048089 -0.1418313 -0.15988605 -0.1148062 0.09246133 0.32454807
0.07235038 0.027855251 -0.066637374 -0.07985849 0.12592463 -0.22813158 -0.0013568837 -0.11267643
0.12483031 -0.069737144 0.17783025 0.006972632 -0.11125553 -0.018522026 -0.0063241813 -0.10383507
-0.05321976 0.15445669 0.058921784 0.09336531 -0.034544073 0.0016752011 0.11779937 -0.08649576
-0.06408784 -0.11357383 0.05979882 -0.23546058 0.096290775 0.027234668 -0.2021417 0.06544444
-0.12910454 -0.11933216 -0.10522068 0.2533236 -0.00684034 0.015164854 0.010377669 -0.13998848
0.0011597503 -0.09606386 -0.024641775 0.049865693 0.13939568 0.13970082 0.2469025 -0.098073
0.03613329 -0.06866 0.032533854 0.038227186 -0.081678204 -0.17824072 0.18975836 -0.04428133
0.2403114 -0.09529701 0.11694996 -0.114161156 0.024074428 0.10681577 0.14321148 -0.28830928
-0.23596175 -0.16698265 0.05959181 0.0718133 -0.060399458 0.2164158 -0.08814975 -0.083754435
0.047473263 -0.030631617 0.006148664 0.08805538 -0.08753606 -0.09587925 0.057677697 0.01730512
-0.052635897 0.17917146 -0.15203802 -0.094873235 -0.01364372 0.21149725 0.061690155 -0.17957576
-0.13299927 -0.04214697 0.008556859 0.03785496 0.15907136 -0.07223015 0.25213742 -0.22558475
-0.24547723 0.02832564 0.035780914 -0.0032622896 0.0029852826 -0.04190848 -0.05165443 -0.13996802
0.16337506 0.14145261 -0.04526592 0.04388411 -0.09022789 -0.082999185 0.0066254344 0.13416156
-0.15015651 0.057261158 0.05152273 -0.19250181 -0.12660947 0.07591182 0.088697776 -0.14991432
0.036297753 0.027199756 0.16318181 -0.077904135 0.026633488 0.17286175 -0.112872705 -0.073904835
0.31633905 0.08831807 0.102797836 0.21096703 -0.26768064 -0.068026215 0.052136507 0.069284126
-0.020903964 -0.19451512 -0.10578411 0.03481677 -0.077118784 -0.10873297 -0.008126034 0.15730846
0.1296163 0.07436421 0.018946484 -0.17627276 -0.06291948 -0.18481782 -0.17949839 -0.037357647

shared_net.2.bias f4 [128]
00000000: 627d 3a3d b84f f8bc 059a 11bd a707 a23d
00000010: 4fb9 21bd 37f0 e4bb 4542 9ebb c6ed 9f3d
00000020: 0000 0000 96b0 85bc c2e7 f23c abc0 233c
00000030: 631a bf3d bd86 9f3d eacc 1f3e 0b4f a23d
00000040: 8bbd b5bb 0538 a8bd b255 d0bc 4675 213d
00000050: 325b 313e 043d 003d b74f 633d a069 853d
00000060: df22 cbbb 2d94 e03d 4544 ff3d 0000 0000
00000070: 22d3 64bc 0000 0000 73e9 ee3d d41b b23d
00000080: 4f90 2c3e 9a09 d5bc 8109 04bd ea82 adba
00000090: c451 a8bc 1cd1 ce3d 1a08 943d 6f4e 6d3d
000000a0: 5109 e23d 9832 483d 434c 113d 0142 053d
000000b0: bc26 9a3d d363 203e cc62 8f3d 89d3 76bc
000000c0: 0000 0000 687c bc3d 2b46 0e3d 39af 91bb
000000d0: 124d 053d 75ee e13c ea2c 123d b3d1 0cbc
000000e0: da6e c1bd 98e1 c53d 33df 3a3e 7ee2 103d
000000f0: e5f0 55bc 2b97 8abc 6b83 0abc 92cd f6bc
00000100: 6e1e da3d 084f cebc a8a6 043e 8d9f 983d
00000110: a7e2 1bbd f461 f63c b25d b2bb 391e 2dbc
00000120: 0f21 e53c 16ff 883c 5b44 e13b 3973 3a3d
00000130: 8213 d73d 679a de3c 0000 0000 3e13 adba
00000140: 47ed ac3d a8eb 993d e947 f2bc fb1b e6bb
00000150: 3c2d 763d d49a fd3d b66d 45bc 7913 c639
00000160: 37ce 583e da70 98bb b52d 563c d8f3 df3c
00000170: b62b 21bc cf3e 1cbd aa88 7b3d 0000 0000
00000180: 8774 8dbc 25ea b83d 40bb d93d 8d92 8a3d
00000190: c6a6 193e c982 a43d a54a 673c 7512 18bb
000001a0: 483c 843b 20c7 7dbc 0000 0000 2239 b4bd
000001b0: 6afb 95bc e2f6 953d 48b4 febc 2378 073c
000001c0: 8691 cb3c 8d8c 313d 4ee8 9c3b 404f c73c
000001d0: 3135 5b3d 3e8f 2c3e 0994 233e 3c60 ad3c
000001e0: 5918 4ebd 58f3 a43d a3d0 333d 8265 c4bc
000001f0: a18f 90bb cdda dc3d 9f9a 9f3d bec2 223d
0.04552973 -0.03031145 -0.035547275 0.07911616 -0.039483365 -0.0069866437 -0.0048296773 0.078090236
0.0 -0.016319554 0.029651526 0.009994666 0.09331205 0.07789371 0.15605512 0.079252325
-0.005546277 -0.0821381 -0.025431488 0.03941848 0.17319945 0.03130819 0.055495944 0.06514287
-0.0061992253 0.10965762 0.12464193 0.0 -0.013966354 0.0 0.11665621 0.08696714
0.16851924 -0.026005555 -0.032235626 -0.0013237868 -0.020546801 0.10098478 0.07228108 0.05793613
0.11036933 0.048876375 0.03547312 0.03253365 0.07526919 0.1566308 0.07001266 -0.015065082
0.0 0.09203416 0.034734886 -0.004445937 0.032544203 0.027579525 0.035687365 -0.008594918
-0.094449714 0.09662169 0.18249206 0.03537225 -0.013057922 -0.016917786 -0.008454184 -0.03012732
0.10650335 -0.02518417 0.129542 0.07452307 -0.03805795 0.030076005 -0.0054432983 -0.010566288
0.027969865 0.016723197 0.0068746037 0.04552004 0.10501768 0.027173234 0.0 -0.0013204587
0.084436946 0.07515651 -0.029575305 -0.0070223785 0.060101733 0.12383047 -0.012050083 0.0003778001
0.21172415 -0.004652125 0.013072421 0.027337953 -0.009837082 -0.038145836 0.06140963 0.0
-0.017267479 0.090290345 0.10631418 0.067662336 0.15005025 0.08032758 0.014116918 -0.002320436
0.0040355064 -0.01548937 0.0 -0.0879996 -0.01830836 0.0732248 -0.031091824 0.008268389
0.024849664 0.04334693 0.004788435 0.024329782 0.053517524 0.16851518 0.1597444 0.021164052
-0.05031619 0.08054227 0.043900143 -0.023974184 -0.004411653 0.107839204 0.077931635 0.039736502

shared_net.4.weight f4 [64, 128]
00000000: 321a 2ebe accd 07be 4d24 413d 8677 053e
00000010: d8f1 803d b284 1b3d e77b 873d 7683 0b3d
00000020: 4d0b debc e038 923e 0308 593d 11bc e43b
00000030: 84ec 9d3d 6900 493e 5663 44bb 1ad5 7ebd
00000040: 6caa df3d fff4 35be ccab c33d b962 9fbd
00000050: e93a 163e 9bf5 ecbd f559 dd3d cd2d 2d3d
00000060: 6948 8cbe f836 b13d a286 373e 37c1 b1bc
00000070: 4c5f 28be 1894 a5bd 33a9 04be edcd a33d
00000080: 4b91 7a3e c1a4 523e e8b1 013d da35 813d
00000090: 1922 a5bd 6637 a03d 2cd6 9a3d eb07 43be
000000a0: 5e79 02be 0b51 53be dfe1 5f3d 0a13 5bbd
000000b0: a921 a6bd d9f2 0dbc 877b 14be 8d8c ac3d
000000c0: 7618 8bbe 6b60 07be 8791 10be 4fa3 78bd
000000d0: df57 a13d 56aa f0bc 7b5d 3b3e 62d2 2bbd
000000e0: 01b4 6cbc 20a8 773d 29df 2c3d b586 10be
000000f0: 07e6 cf3c bbac 81bd df39 283e 6354 bcbe
00000100: 8966 dbbd 972f aebd a312 153e 51d3 a7bd
00000110: 3a07 25be 7364 14be b84c ae3d d6e4 ad3e
00000120: 06b3 02bd 3918 b43d 934d ac3d 8343 4abe
00000130: 0b26 fb3d 3dc8 3e3e 6ea3 75bd 6ffa 303c
00000140: 3ae6 28bd d19a 783d 5815 c93d ba0d 5ebe
00000150: fa54 8fbd 6306 2a3e 604f 863e 9a46 133e
00000160: e470 14be 1a8d aa3a c81e 28be 117e b33c
00000170: 00b2 bfbd 381f 25bd bbc7 abbe 3948 37bd
00000180: 5425 2cbe 4d03 be3e c169 d9bd 2a52 10bc
00000190: 5030 b93d eddc 94bc 5568 793d f70c 4cbd
000001a0: 9611 18be cdad 31bd 6c09 fa3d 07a1 1f3e
000001b0: a3db 07be 169e b83e 112c 3c3e 4c2f 293e
000001c0: 6889 6dbd 9883 84bd d2ab ba3d b3e1 f5bd
000001d0: cf31 b53e 558a 5e3d 084b 573d af8b df3d
000001e0: 7f6c c2bd 31f3 32be 40aa 45be 1da8 f43d
000001f0: 2397 d63d fe8d ad3e bf22 3f3e 1686 7b3e
00000200: 9f12 c6bd 52cc 5e3d 536b a0be b29a 69be
00000210: ddab 903d dc5d 8f3d 669b c23d 2bd1 273e
00000220: d310 d13d fa85 08be 27db ca3c 0fdd fbbd
00000230: b80e d63d fe18 773e 2d3a 7d3e 6839 0e3e
00000240: 780a 0f3e a119 19bd 0991 0fbe e14f 023c
00000250: f781 a93c 1ed2 6e3d 579d 10be f48b c6bd
00000260: e275 3f3d 08f1 b03c ff16 2bbe 9f57 053e
00000270: 1e2f c63d a055 8b3e aae2 0dbc 5f56 193e
00000280: 64c6 0bbc 001f 18be 3b44 ba3d 6d5d 92bd
00000290: a389 ad3d c3ba 0d3e 891c c63c 2bca b3be
000002a0: ecd2 a53d 9714 c93d 2231 3fbe d776 dfba
000002b0: 1b77 e0bd 44e2 b33b d9db f43c 5c38 4fbe
000002c0: 29bf dd3d 2037 0ebe 32bb 89bd 7647 a93d
000002d0: 2e14 0bbe dd35 12be 69a6 963d c6ab 39be
000002e0: 6d04 08be 00b8 02bc 7ad1 20bd 6c50 cd3d
000002f0: a17f d5bc 6eec 843e 7617 093e b7c4 8c3d
00000300: 1dde 6fbd d0c7 95be 0d56 153e 550e 1c3e
00000310: 68a7 063e c237 11be 5de2 0c3e f275 bc3e
00000320: c376 9cbe c664 90bc b070 303b 8702 803e
00000330: 030a ab3d fa4c 9dbd 1d81 eebc 5239 d13d
00000340: e13f 143c f960 463e a7b8 1cbd e531 2b3d
00000350: d443 b03e 10b2 853e a42d 2e3e 7af7 c8bd
00000360: 8f6f ebbd 7e52 16bd dda0 213e f649 94bc
00000370: 6c77 4d3e e723 043e 97b6 293d 23ed aebd
00000380: fb82 a7bb f35e 21be 9b3b 3c3e 983a 383e
00000390: 7330 383e a742 71be 14b1 073e 6e6d 0a3d
000003a0: 4f97 79be b907 403e dd08 32be 6782 173e
000003b0: 858a 52bc beb6 edbc 6a35 403e 96fa 0dbe
000003c0: 916c e93d 4313 a6be c474 263e 2db6 7a3e
000003d0: 4f34 66be a32c 223e abfc 07be e78f 58be
000003e0: 9575 893d 06af 723e 3646 833c b640 2cbe
000003f0: 124b 893d 0da9 a8bd e3b4 483d 0293 b43b
-0.1700218 -0.13262051 0.04715376 0.13033876 0.06296128 0.037968345 0.06615429 0.034060918
-0.027104998 0.28559017 0.052986156 0.006980427 0.077111274 0.19629063 -0.0029966435 -0.06221495
0.10921177 -0.1776924 0.09554252 -0.07782502 0.1467091 -0.11570283 0.108081736 0.042280007
-0.27398995 0.086530626 0.17922452 -0.021698577 -0.16442603 -0.08084887 -0.1295517 0.079982616
0.24469487 0.20570661 0.031663805 0.063090995 -0.08063144 0.078230664 0.07560381 -0.19045989
-0.1274161 -0.20636384 0.054658767 -0.053484954 -0.08111889 -0.008663856 -0.14500247 0.084252454
-0.271671 -0.13220374 -0.14118014 -0.06070262 0.07878088 -0.029378098 0.18297379 -0.041948684
-0.014447213 0.06046307 0.04220501 -0.14113887 0.02537824 -0.06331774 0.16428326 -0.36783132
-0.107129164 -0.08505171 0.1455789 -0.08194602 -0.16116038 -0.14491443 0.08510727 0.3396365
-0.03190901 0.087936826 0.084132336 -0.19752316 0.122631155 0.18631072 -0.05997031 0.0108018955
-0.041235186 0.06069452 0.09818524 -0.21684924 -0.0699863 0.16603999 0.26232433 0.14382401
-0.1449619 0.0013012022 -0.16417992 0.0219107 -0.09360123 -0.040312976 -0.3355082 -0.04474661
-0.16811115 0.37111893 -0.10615874 -0.008808652 0.09042418 -0.018171752 0.060890514 -0.04981705
-0.14850459 -0.04337864 0.12208828 0.15588771 -0.13267379 0.3605811 0.18376185 0.16521949
-0.05799237 -0.06470412 0.091148034 -0.12005939 0.35389563 0.054331142 0.05256179 0.109153144
-0.0949335 -0.17475583 -0.19303226 0.119461276 0.10478046 0.33897394 0.18665598 0.24562868
-0.096715204 0.054394074 -0.31331882 -0.22812918 0.0706403 0.07000324 0.09502296 0.16388385
0.10208287 -0.13332358 0.024762703 -0.12298023 0.10452026 0.24130628 0.24729224 0.13889086
0.13968837 -0.037377957 -0.1402017 0.007953615 0.020691855 0.058305852 -0.1412252 -0.09694663
0.04674328 0.021599308 -0.16707991 0.13021706 0.09676956 0.27213764 -0.008659998 0.14974354
-0.008531187 -0.14855576 0.09095045 -0.07146726 0.08473518 0.13840775 0.024183528 -0.3511518
0.08096871 0.0981838 -0.18671086 -0.0017048967 -0.109602176 0.0054896194 0.029889988 -0.20236343
0.108274765 -0.13888216 -0.06725158 0.08265583 -0.13581917 -0.1427836 0.07355959 -0.18131933
-0.13282938 -0.007978439 -0.039262272 0.10025105 -0.026061835 0.25961632 0.13387856 0.06873458
-0.058561433 -0.29254007 0.14583607 0.15239842 0.13149798 -0.14181426 0.13758226 0.36808735
-0.30559358 -0.017626178 0.0026922636 0.25001928 0.08351519 -0.07680698 -0.0291143 0.10216011
0.009048433 0.1937293 -0.038262036 0.04179563 0.3442675 0.26112413 0.17009598 -0.098128274
-0.114958875 -0.036699764 0.1578402 -0.018101674 0.20065087 0.1290432 0.041433897 -0.08541324
-0.0051120496 -0.15758877 0.18382113 0.17991102 0.17987232 -0.23560582 0.13251144 0.033795767
-0.24374126 0.18752946 -0.17386194 0.14795838 -0.012850408 -0.029017802 0.18770376 -0.13865122
0.113976605 -0.3243657 0.1625548 0.24483557 -0.22480892 0.1583734 -0.13279979 -0.21148644
0.0671188 0.23699579 0.01602469 -0.1682156 0.06703772 -0.08235369 0.049000632 0.0055106888

shared_net.4.bias f4 [64]
00000000: 3bb0 b43d ebdf 923d 77de 98bc e617 b13d
00000010: 4440 893d 363e 13bc a952 47bb 3fb1 94bc
00000020: 0000 0000 1f49 15bc 4f64 f93d d5b6 1cbc
00000030: 970d 87bc c09f 42bd f7a6 303e cebd 043d
00000040: 5028 54bc bf24 90bc 8658 c13d 2692 cb3d
00000050: 3a71 50ba 0fcd dcbb be37 a83c 51e2 a93d
00000060: 98b0 c7bc a245 983d de8a e039 bee6 fc3a
00000070: f4c8 76bc e707 803d b73f 163d d91a 7f3c
00000080: b345 9cbb 50c7 1f3e 18cd c73d a8af ae3c
00000090: 7894 433e 152b 683d 4cb8 1f3e eb33 1e3d
000000a0: 88b9 b1bb 0000 0000 53a0 a13d e03e d53d
000000b0: 5543 e2bd 23d2 2ebd 4e5d 9b3c 6ab4 5e3c
000000c0: 9e5e 9abc 1783 21bc 0bdb febd c424 9dbd
000000d0: f4b0 193e 66a1 2e3e 398b 6a3c 0000 0000
000000e0: e9a2 83bb a26c 9e3d 20a6 0a3e 4736 60bd
000000f0: 97da 893b 6cc4 b6bb 1795 fd3d cfab dc3d
0.08822676 0.07171615 -0.018660767 0.086471364 0.06701711 -0.008987 -0.003041426 -0.018150924
0.0 -0.009111672 0.121773355 -0.009565075 -0.016485972 -0.04751563 0.17251192 0.032407574
-0.012949064 -0.017595647 0.09440713 0.09939985 -0.00079514424 -0.006738312 0.020534392 0.082951196
-0.024376199 0.074351564 0.00042828073 0.0019294841 -0.015062559 0.06251507 0.036681857 0.015570366
-0.004769051 0.15603375 0.097559154 0.021323994 0.19099605 0.05668171 0.15597647 0.03862373
-0.0054237284 0.0 0.078919075 0.10412383 -0.11047999 -0.04268087 0.01896539 0.013592819
-0.018843945 -0.009857914 -0.12444123 -0.07673028 0.15008909 0.17053756 0.01431542 0.0
-0.004017223 0.07735564 0.13539934 -0.054739263 0.004206966 -0.0055776145 0.12381952 0.107749574

actor.0.weight f4 [32, 64]
00000000: 9994 953d ec90 bf3d f1bb c73e b4f1 713d
00000010: 6e61 fabd 4841 563b 4a02 193e 90a3 4ebe
00000020: a9ab acbe cf8c 2a3e 5e31 313e a39f 6cbd
00000030: 5083 80be b577 48bd abf0 7dbd 2d37 743e
00000040: 5bea 713e 0736 07be 41a5 36bd 72e2 87be
00000050: eef2 71bd 110f 3dbe b758 b93d 7dd4 833c
00000060: ad97 143e 4d03 283e 3327 99bd 5538 ecbe
00000070: 7b9b 923e c581 3e3d 6852 72b9 7845 47bd
00000080: 0dc3 d5be d172 f7bd 106f 3bbd 1fc5 6bbc
00000090: f4ef 7dbe 9949 f2bd 4f33 42be f6a8 9e3e
000000a0: d6da 813d 2534 5cbd b62b bdbc f9c2 aa3e
000000b0: e5a3 013e 7abf 3b3e f21a 823b 7e60 cbbd
000000c0: c0a3 a9bd b0d7 973d ff36 863c f5c6 113e
000000d0: e6f1 bf3d 9246 2cbe 27e7 02be 1be7 a8bd
000000e0: 528c 08be f3bb c5bd 0979 25be ffa7 a0be
000000f0: 0888 2f3e e065 4b3e e272 c6bd 310f 32ba
00000100: f2a5 f13e a779 90be e2c9 6dbe 3d9c b23e
00000110: cce8 243e 27e0 0ebe 9fb6 b73e a70f 77bd
00000120: 8241 92bd 74eb 52bd 4fe0 b93d a6d4 1b3e
00000130: c9c8 c6bc fa79 42bd 3514 a03c 62d2 4dbc
00000140: 66c1 fdbd 9854 e4bd 921d 023e 229b 9c3e
00000150: 47b2 95bd 3023 5ebc fa0b a3bd db31 073e
00000160: 1c1e d8be 777b 66be 173c 4f3e 2b86 43be
00000170: acf4 853d 8bee 463e 169b 423f f654 2f3e
00000180: 088f b33c ce80 7a3c 278c 7abc f73f 843d
00000190: deef 243e 77e2 523e 3107 a33e 0d00 da3e
000001a0: 6569 c13d e76e 1cbd 26ab 9abe 51da 803e
000001b0: 7997 a13b c869 9f3e 3faa 91bc e076 893d
000001c0: 7243 7cbc 235f e23c 14a3 be3d 0603 9ebd
000001d0: 5ef3 eebd 3faa f73d 3fe3 07bd 6264 193c
000001e0: aa23 20be f646 5abe caf3 023e 09ff 873e
000001f0: cd51 80bd f1ee 8e3c 9179 4abe 3fde 5d3e
00000200: f1c3 03bd 9e90 cfbd 37b2 563d ca0e fdbd
00000210: 0422 1c3d db4a bfbd 60bf 8abe c68f f03c
00000220: ef1e 10be 07cb 8ebe 38bb 9c3e 3d02 323e
00000230: be45 0bbe 11dd bdbe ce9a 81be 957f f53d
00000240: a9b9 2fbe 2e5c 743e 445d e23d e3f9 ecbc
00000250: 0735 46bd c732 22ba 953d 06be 45df 943e
00000260: fb5c 7e3e bb26 b93d 45c0 3dbe df32 1d3e
00000270: 14d8 9b3d 4eb5 f83e e1da bc3d 9431 793e
00000280: 80ca fc3d 91c3 333e e02b 19be 27cf 093e
00000290: 97ea b3be b694 253e 4f7a 23be 139c 3f3d
000002a0: 3382 133d d0ba e93d bbe2 8ebd b990 6fbd
000002b0: 3036 89bd 9cb9 333d 720e 6abe a62c 83be
000002c0: 3c77 79be 9d26 3e3d 5d2b 293e 802a 05be
000002d0: 9fb4 62bb c2b7 7ebd 723b 863e f868 873e
000002e0: f90b 4c3d 662b 3a3c 3350 4a3e 19b1 163d
000002f0: e712 673e 0bfc 57be a6a2 46b9 7614 43bd
00000300: a1ad 3fbe 6044 75be dd71 09be 4e15 9ebd
00000310: 69dd 0cbe 751f 043e c477 ffbd 2e06 913e
00000320: 92c5 67be dc6f 423d 4f7f 17be 4bbc f4bc
00000330: e4a7 82bc cebe 413e 8705 32bd e367 423e
00000340: b38a 92bc 09d4 ba3d 4af4 b5bd bb9e fbbc
00000350: 563a ccbe 01b7 88be 9845 a6be d462 a73d
00000360: f5d1 ccbc e06e 6cbb ec2b eabd ff94 233e
00000370: f405 af3c daf1 3abd 851f 293e e138 81bd
00000380: 3798 603e 0145 6ebd 2c60 6d3c 6c40 98bd
00000390: 5549 45be 6b3f b03d 7890 efbd 73a4 f0be
000003a0: f6ac 64bd fa67 73be cb6a 00be f93d 943e
000003b0: e571 8c3e 67cd 253e 1c9d c6bd e16e 93bc
000003c0: ada6 6b3e b8f5 753e 30de acbd ca7d 75bd
000003d0: 84a2 a5bd cf2d 4d3d 3b74 963d 8aed a63d
000003e0: e2a4 60be 169a ebbd d5e8 9fbe 3635 de3d
000003f0: 96c1 c5bd 0b7c cf3e bcce 1eba c6bc 8cbe
0.073037334 0.093538135 0.39010575 0.059068397 -0.122256145 0.003269272 0.1494228 -0.20179582
-0.33724716 0.16655277 0.17303988 -0.05776943 -0.25100183 -0.048942287 -0.061997097 0.23849173
0.23624556 -0.13204204 -0.044591192 -0.26539952 -0.059069566 -0.18462779 0.09050124 0.016092533
0.14510985 0.16407509 -0.0747818 -0.46136728 0.28634247 0.046510477 -0.00023109617 -0.048650235
-0.41750374 -0.12082446 -0.045760214 -0.014390259 -0.24798566 -0.11830444 -0.18964885 0.30988282
0.06340568 -0.053760666 -0.023092132 0.33351877 0.12660177 0.18334761 0.0039704973 -0.09930514
-0.08283186 0.07414186 0.016383646 0.14236052 0.0937231 -0.16823795 -0.1278349 -0.08247205
-0.13334778 -0.09654989 -0.16159452 -0.3137817 0.17141736 0.19863081 -0.09689881 -0.0006792425
0.4719692 -0.28217813 -0.23221543 0.34884825 0.1610443 -0.13952695 0.35881516 -0.06031766
-0.07141401 -0.051494077 0.090759866 0.15217838 -0.024265664 -0.047479607 0.019540885 -0.012562366
-0.123904034 -0.111489475 0.12706593 0.30587107 -0.07309394 -0.013558194 -0.07961269 0.13202612
-0.42210472 -0.22508036 0.20237766 -0.1909415 0.06540808 0.19426934 0.7601789 0.17122254
0.021918789 0.0152894985 -0.015292204 0.06457513 0.16107127 0.20594202 0.31841424 0.42578164
0.094439305 -0.038191702 -0.302087 0.25166562 0.004931387 0.31135392 -0.017781375 0.06712127
-0.01539694 0.027633255 0.093084484 -0.077154204 -0.11667512 0.12093019 -0.033175703 0.009362312
-0.15638605 -0.21316132 0.1278831 0.26561764 -0.06265602 0.01744792 -0.19772936 0.21666811
-0.032169286 -0.101350054 0.052416053 -0.123563364 0.038118377 -0.093404494 -0.27099133 0.029365432
-0.140743 -0.27889273 0.30611587 0.17383666 -0.13600823 -0.37082723 -0.2531342 0.11987225
-0.17160667 0.23863289 0.11052945 -0.028927749 -0.048390415 -0.0006187376 -0.13109429 0.2907659
0.24840157 0.090405904 -0.18530376 0.15351437 0.07609573 0.48575824 0.09221435 0.24335319
0.12343311 0.17555071 -0.14958143 0.13457929 -0.35139915 0.1617001 -0.15964626 0.046779703
0.03601284 0.11412585 -0.06976839 -0.058487628 -0.066997886 0.043878183 -0.22857073 -0.25620002
-0.2436189 0.046423543 0.16520448 -0.13004494 -0.0034592522 -0.062186964 0.26217228 0.26447272
0.049816106 0.011362886 0.19757156 0.036789987 0.22565804 -0.2109224 -0.00018943343 -0.047626935
-0.18718578 -0.23951864 -0.13422342 -0.07718907 -0.13756336 0.12902625 -0.12474015 0.28325027
-0.22633961 0.04746996 -0.14794658 -0.029874941 -0.015949197 0.18920442 -0.043462303 0.18984942
-0.017888403 0.09122474 -0.08884485 -0.030715337 -0.39888257 -0.2670212 -0.3247497 0.08173147
-0.025002459 -0.003607683 -0.11434159 0.15974806 0.021365143 -0.045640804 0.1651593 -0.06309677
0.21933065 -0.058171276 0.014488261 -0.074341625 -0.19266255 0.08605846 -0.11697477 -0.47000465
-0.05582901 -0.23770133 -0.12540738 0.2895353 0.27430645 0.16191636 -0.09697935 -0.017997207
0.230128 0.24019516 -0.084408164 -0.059934415 -0.08087638 0.050092515 0.07346388 0.08150776
-0.21937898 -0.11503999 -0.31232324 0.10849993 -0.09656064 0.40524325 -0.00060580275 -0.27487773

actor.0.bias f4 [32]
00000000: 760c 06bc 33ff 293d 7fa4 49ba 0000 0000
00000010: 5111 a7bc fe2e d83c f799 20bb a93d c73a
00000020: bcd3 e9bb da6f bebb 6132 d33c 50f1 63bc
00000030: 728c d2bc 26b8 1ebc f6d2 0bbd f4c2 a5bc
00000040: 1bb0 8e3c 47f8 4cbc 7405 9a3d 24b7 fd3c
00000050: 34fc adbb f723 983c e4b6 31bc 46a6 02bc
00000060: bb8e 4c3d e6fe 1c3c 58a2 c6bc c02f b1bc
00000070: df7e dc3b 0000 0000 5fa3 9bbc 9ac6 ac3c
-0.008181682 0.041503143 -0.00076920533 0.0 -0.020394 0.026389595 -0.0024505833 0.0015200871
-0.0071358364 -0.0058116736 0.025780858 -0.013912514 -0.025701735 -0.009687459 -0.034136735 -0.020234562
0.017417958 -0.012510366 0.07520571 0.030971117 -0.005309606 0.018571837 -0.010846827 -0.007974213
0.049940806 0.009582257 -0.024247333 -0.021629214 0.0067289914 0.0 -0.0189988 0.021090794

actor.2.weight f4 [9, 32]
00000000: 532b 1c3d f19b a53e 13d2 b73e 5751 cabd
00000010: 5af1 ce3e f9b7 a0be 3884 b03b b28d c03c
00000020: b7e5 dc3e cb23 d4be fb18 87be e8f8 973d
00000030: 26cb 9b3d 132d 243d 5823 13bd 3a42 ef3e
00000040: 1ae7 69bb fa51 9e3e a827 f0be 623d 0b3e
00000050: 186e 89bc 59c1 a53c aefe b9bd c503 bb3e
00000060: 2809 59bd e8d1 2d3e 165c 6a3e 7793 793e
00000070: c9a6 8d3e 785c ddbe 1a95 b03d 22a7 a3be
00000080: cbab c23e 410e ce3e e00f 93be 7dcb 06bd
00000090: 76a5 c03e c191 55be cf1c db3c 3f06 9abd
000000a0: a044 043c 5864 38be 670b 703e bafc d1be
000000b0: 1b74 afbe 240a fd3d d5d8 483e e818 17be
000000c0: b54b 8ebe 62cb 67bb 8ebf 0bbc 25d0 07bf
000000d0: 39f3 d1bd b6fa 15be f0df 06be 29f8 703d
000000e0: d3c5 263e 4f50 acbe 2263 1e3e 67a3 8a3d
000000f0: f4c5 723e feec dd3d 7ebd 1ebe 70f6 fc3e
00000100: 0523 1b3e 83e9 243e 199e 1cbd 96b4 26be
00000110: 38c4 1a3e b892 48be 1480 9fbe cac3 183f
00000120: debf f73e 824b 903d 2c52 9a3e 6759 eb3e
00000130: a7c3 bd3d 08de 023e 4fc9 083d 61ed 43bd
00000140: 04b8 f63e 4bfc 343e 7bc0 113e d13d 37be
00000150: 080b c1be 4722 683d 66e7 b63d 8fa2 e6be
00000160: 7506 8fbe 3842 f1bd 963c bcbd b555 2c3e
00000170: a07f 85be 8460 303e 1aa9 a7bd 3705 a33e
00000180: ae36 a2bd e5b6 b9be d5be 39bb 9681 683e
00000190: 029a 0ebd 0167 c5be e574 c03e fb57 30bb
000001a0: c295 b83d bc48 a43e af63 e73e ea44 18be
000001b0: 2bd8 50be ce2b 003e 87df 9b3e c7a3 453e
000001c0: b11f 1bbe ce0b 323e a587 19bf 5b4e f03e
000001d0: 882d aa3e 5beb c13d e200 33be e614 72be
000001e0: 7fbc e7bc f8c3 d23c a291 993e b501 d4bd
000001f0: 6450 8e3c 54f5 273e f91a 17be 9584 bf3e
00000200: 6bad b0be 62aa f03d 9da9 5ebd f83b c13c
00000210: 8ff9 90bd 14e5 8d3c e591 ea3d df70 683e
00000220: d7e7 053e ddc9 81be 2471 cdbd babf 573d
00000230: 99b2 4cbf c7d3 e8bd 2358 c53d 3952 5e3d
00000240: a290 ae3e d029 eabe cf36 45be 59e7 e53d
00000250: f3a5 acbe fba9 0f3f fc1d 0d3f 9fb3 513e
00000260: 76c2 b8bb 6f8e c03e f7e5 753d 583c a2be
00000270: dc1f 1f3d 2384 883d a85a 32be 0694 f43d
00000280: 8879 f8be 964d 033d 90d1 293e a3a1 00bd
00000290: ce3d da3d de0c 2a3e d5be 3bbf d77d 963c
000002a0: 8939 3bbc 99d4 66be 8334 2f3e 0c07 693d
000002b0: 23ed debc 55b7 e23d 2211 89be d181 4e3c
000002c0: c91a a33d 543f 5e3e 6816 653d cb89 83be
000002d0: 85ca 5b3e 0bd2 783e aee9 fdbe 580b cfbe
000002e0: 202a 563e d316 a33e 2b94 153f 0d66 8ebe
000002f0: f078 e63d 4b21 443e 42f4 06be 106f 5b3e
00000300: c5bb adbe bba3 da3e 0998 25be f1a9 2bbe
00000310: a28f 65be bac6 e1bd fa29 d83e 705d d2bd
00000320: a14e fc3e b668 bbbd e7ee 313e aa55 5dbd
00000330: 2f1f 84be 2437 73be cbeb 94be 96fe 413e
00000340: 6b73 423e db72 573d e3cd e1bb 5e7c bc3e
00000350: 5def c3bc 458d b0be cc29 87be e367 9abe
00000360: 14f0 053f 4cee 5bbe 7dd2 f1be cc3b 79be
00000370: a05a d93d ea6b bf3c 38c9 4a3e 44af 3abe
00000380: ffe1 fe3d 0cb2 29be afed 52bd 22ec 41be
00000390: 34bd 95be 5165 58be 07f1 f03b a482 903e
000003a0: f5ef 003d 5720 99be 5206 5b3e 4b24 86bd
000003b0: 0190 9e3c 2216 3e3e f29e 603e d5a9 1abe
000003c0: 3717 1fbe 2a99 8a3e db02 3a3f 2aa6 903e
000003d0: b15b 1c3e dd49 453e db91 08be c588 373e
000003e0: 29c9 a73e cfab 333e daa4 5abe 9bd9 65be
000003f0: b85c 163f 30f3 23be 8dad 9cbe 6935 093d
0.038127255 0.32345536 0.3590246 -0.098787956 0.40418512 -0.3139036 0.0053868555 0.023505066
0.4314401 -0.41433558 -0.26386246 0.07420522 0.07607107 0.04008205 -0.03592238 0.46730214
-0.0035690726 0.30921918 -0.46905255 0.13597634 -0.01677613 0.020233797 -0.090817794 0.36526313
-0.052987248 0.16974604 0.2288669 0.2437266 0.2766631 -0.4323461 0.08622189 -0.3196345
0.38021693 0.4024525 -0.2872305 -0.032908905 0.37626237 -0.20856382 0.026747135 -0.075207226
0.008073002 -0.18007028 0.2344185 -0.41013128 -0.3426827 0.1235545 0.19613965 -0.14755595
-0.27792135 -0.0035369028 -0.008529557 -0.5305198 -0.10251469 -0.1464642 -0.13171363 0.058830414
0.16286401 -0.3365502 0.15467504 0.06769448 0.23708326 0.10836218 -0.15501973 0.49406767
0.15150078 0.16104703 -0.03823671 -0.16279826 0.15113914 -0.19587219 -0.31152403 0.5967375
0.4838857 0.07045652 0.30140817 0.45966646 0.09265833 0.1278001 0.033395108 -0.047833804
0.48187268 0.17674367 0.14233582 -0.17894675 -0.3770373 0.056673314 0.089308545 -0.45045897
-0.27934614 -0.11780208 -0.09191243 0.1682957 -0.26073933 0.17224318 -0.081865504 0.31839916
-0.079205856 -0.3627235 -0.0028342505 0.22705683 -0.034814842 -0.38555148 0.37589183 -0.002690791
0.09012939 0.32086742 0.4519324 -0.14870039 -0.20394962 0.1251671 0.30443975 0.19300757
-0.15148808 0.17387316 -0.599726 0.4693478 0.33237863 0.094687186 -0.17480806 -0.23640785
-0.028288124 0.02572821 0.29993922 -0.10351888 0.017372318 0.16402179 -0.14756383 0.3740584
-0.34507307 0.11751248 -0.054360975 0.023588166 -0.070788495 0.017321147 0.114536084 0.22699307
0.13076721 -0.25349322 -0.100313455 0.05267308 -0.7996002 -0.11368518 0.09635951 0.054277632
0.3409472 -0.45735025 -0.19259189 0.11225767 -0.3372036 0.56118745 0.5512388 0.20478676
-0.005638416 0.37608668 0.060033765 -0.31686664 0.038848743 0.06665828 -0.17417395 0.11942296
-0.4853022 0.032056414 0.16583848 -0.03140415 0.106563196 0.16606471 -0.7333806 0.018370552
-0.011427292 -0.22542037 0.17109875 0.056891486 -0.027212685 0.11070124 -0.26770884 0.012604193
0.07964093 0.21703845 0.05592957 -0.25691065 0.21463974 0.24298875 -0.49592346 -0.40438342
0.20914507 0.3185335 0.5842921 -0.27812234 0.11253536 0.19153325 -0.13179114 0.21429086
-0.3393232 0.4270304 -0.16171278 -0.16764046 -0.22418073 -0.11024232 0.42219526 -0.10271728
0.4927874 -0.091508314 0.1737629 -0.054036774 -0.2580504 -0.23751503 -0.29086146 0.18944773
0.18989341 0.05259977 -0.0068909987 0.36813635 -0.023917848 -0.3448278 -0.26399076 -0.30157384
0.52319455 -0.21477622 -0.47230902 -0.24339217 0.106129885 0.023366887 0.19803321 -0.18230921
0.12445449 -0.16571826 -0.051496204 -0.18937734 -0.29245913 -0.21132399 0.0073529514 0.2822467
0.03147884 -0.29907486 0.2138913 -0.06549891 0.019355776 0.1856313 0.21935633 -0.15103848
-0.155362 0.2706998 0.7266061 0.28251773 0.15269352 0.19266458 -0.1333689 0.17923267
0.3277066 0.17546009 -0.21351948 -0.22446291 0.5873523 -0.16010737 -0.3060116 0.0334982

actor.2.bias f4 [9]
00000000: f46c f7bd d5fc 683d 88fc 393c c61a 9cbd
00000010: 27c4 733d 8d99 433d d2e4 2b3d 1e36 1fbb
00000020: 0b11 d4bb
-0.12081328 0.056881744 0.011351712 -0.07622294 0.059513237 0.04775386 0.041966267 -0.002429373
-0.0064717582

critic.0.weight f4 [32, 64]
00000000: 867e 093e 967b b63d 48bc 90bd e90c 32bc
00000010: f0e4 3b3e e354 4fbe d0e3 05be 1acb f2bd
00000020: def5 493e 3dcb 43bd 715f 803e fb42 03bc
00000030: 9488 e03c d246 54be 97ea 193f 0bc5 293d
00000040: 4522 073e c25f 87be c842 d03d ca13 e73e
00000050: 79df 1ebe b1a9 403d 3c96 54be 27fa 35bd
00000060: 68dc a43c fa25 1b3e b797 983e 85d1 a23e
00000070: 904c 443e 321c 35bd efdc bb3b 70c2 4ebe
00000080: b459 d23d c2eb 3dbc 22b3 b23c b9a5 663b
00000090: d388 013c a95a 1c3e 4a0d cb3e d0c2 9f3e
000000a0: 02da 5c3e 0d98 26be f5b2 d73c 593f da3d
000000b0: 0667 8fbd 47e9 843d fe0c 82bd 8502 bb3d
000000c0: 9ea8 52be e571 c4bc d40b 65ba a7a5 07be
000000d0: 95d9 363e 61e4 9c3e f490 753a 7d54 9fbe
000000e0: b85d 063f fafa 763e f434 4abe 29f6 b4bd
000000f0: 5e39 773e 3d0c 503e b3ff cb3e 138c 143e
00000100: fec4 463e 3217 4b3e 5afe 7f3d 01fe ee3d
00000110: b28b de3e cb7c a9bd 92c7 8d3e 2676 03be
00000120: 80b3 a2be 7883 d5bd 1668 efbd 0107 0a3e
00000130: 9a5c fabd 33cf 60be 43dd 163d 2d19 87be
00000140: aaff 323e edb0 aebd bc6a 8a3e 1aa7 443e
00000150: 004b 79bd e2d7 edbd 877e 1e3d 3a1d 60bd
00000160: 3c84 b73e b264 ef3d 9e0d 95be ff14 6cbd
00000170: eeff 56be 25c3 773e ed77 983e 57f5 d2be
00000180: 0bbf d2bd ce16 383e 14f8 483d a756 9abc
00000190: 5cb3 0e3d d150 fd3d e3a2 7c3e e8e6 cd3e
000001a0: af06 92bd 2bd8 883e 5241 523d 8ff7 1f3e
000001b0: 7f4a 5a3e 0db3 95bd 0b69 e2bd 53ac 9bbe
000001c0: b997 13be 69c5 583e 421d 9cbc 0c4f 76bc
000001d0: 3aff 213e 0f50 0b3f 1e8e db3d 4c58 843e
000001e0: a204 5d3d 135f 8d3e e7de 673e 1b9e 75be
000001f0: be66 1a3c 7ed7 ba3e ce82 9f3e 577b 2d3d
00000200: a151 94bd cd1d 913d 8f46 2bbe 871e 1e3e
00000210: c455 50bc 8464 e83d 2138 ce3c aba6 963e
00000220: 15ce 063e 18ad 26be 1d03 123e 4b2b 5ebe
00000230: eec4 49be 2999 94be 6e2a 3fbe b75f cebd
00000240: 014c 513e 811e 8bbd 5ca9 18be bad7 dd3d
00000250: a967 583c 0a02 03be 0e2c e0bd 06e4 d53d
00000260: 000c d7bd fea2 b13a 8d76 72be d9e0 6ebd
00000270: 33b3 2b3c dffb 1a3e 0a8b 923e d328 bcbd
00000280: f217 b5bd baa1 943d 10f3 8fbe 3623 a43c
00000290: 8afe f0be 249b 653e e16a 3bbd 56d5 64be
000002a0: 8b29 c83d 104a c73d 5ae7 a93d 3ccd bb3e
000002b0: ed57 79be 02f7 533e 622f 16be ffaa 9cbd
000002c0: 5aad b83e 392c 3cbe e270 263e be45 8b3d
000002d0: 08ed 7bbd 49f9 e8bd 6be3 95be 2738 8a3d
000002e0: 22c3 113e 3ea7 8abc 5bdd 49be 3b3b 9bbe
000002f0: e812 7f3e 5395 96bd eef4 ee3d 5302 f3bd
00000300: 49b7 29be a954 2cbe 44a6 e23c 70ae 993d
00000310: 301b 04bf 20b3 d13d 5461 2dbd b286 52bd
00000320: 7559 123e 917d 2fbe a1c6 d93d 1c6b 39bd
00000330: ab01 8bbe 2c7d 833d a341 d6bd 9fc1 693d
00000340: 03e0 9cbc b563 8cbe 41cc d0bd f636 52bd
00000350: 097a 893e 468e 82be 7eea d03d 2b3a f5bb
00000360: 805c 353e a84f 06be d48a d63d dee6 d43e
00000370: 6dc6 b5bd 56f1 bf3d 3b91 cebd 1391 99be
00000380: 5fdb 2c3d ded4 42be 37ba 86bd bbba 28be
00000390: fc60 c3bb 04f8 9c3d abb8 e1be 2905 143d
000003a0: 6526 afbe 037b a0be ca7b 243e d77f 2abe
000003b0: fb37 3bbe 6956 18bd e0d6 523e 3e0f 04be
000003c0: ad71 d23c 94df 783e c3a2 46be 7ece 97be
000003d0: 036d 493e 66d7 4dbe da6d 8b3c e644 e33d
000003e0: e4fc 05be 1067 00bd 17ad 483d d79f cd3d
000003f0: 4a2f c63e 2ed6 b63e adfa 0ebe d51b febc
0.13427171 0.08910291 -0.07067162 -0.010867336 0.18349051 -0.20247225 -0.13075185 -0.11855145
0.19722697 -0.047801245 0.25072816 -0.008011575 0.027408876 -0.20730141 0.6012358 0.04144768
0.13196667 -0.26440245 0.101689875 0.45132285 -0.15514936 0.04703683 -0.20760435 -0.044428017
0.02012463 0.15151206 0.2980325 0.31800476 0.19169831 -0.044216342 0.0057331244 -0.2019136
0.10271016 -0.011591854 0.021813933 0.0035193993 0.007906157 0.15268959 0.39658576 0.31203318
0.21567538 -0.1626894 0.02633045 0.10656614 -0.07002072 0.064898066 -0.06350134 0.0913134
-0.20572135 -0.02398009 -0.0008737419 -0.13246785 0.17856438 0.3064299 0.0009367608 -0.31119147
0.52486753 0.24119177 -0.19746763 -0.08836014 0.24142978 0.20317169 0.3984352 0.14506559
0.19411084 0.19833067 0.062498428 0.11669541 0.43465954 -0.082757555 0.27691323 -0.12838039
-0.31777573 -0.10425466 -0.11689775 0.13479234 -0.122246936 -0.2195404 0.036832105 -0.26386395
0.1748034 -0.0852984 0.27034557 0.19204369 -0.06086254 -0.11613442 0.038694885 -0.054715373
0.35843074 0.11689128 -0.29111952 -0.05763721 -0.20996067 0.24195535 0.29778996 -0.41202804
-0.10290345 0.1797745 0.04906471 -0.018840147 0.03483902 0.1236893 0.24671511 0.4021523
-0.07130181 0.26727423 0.051331826 0.1562178 0.2131748 -0.07309542 -0.110551916 -0.3040491
-0.14413346 0.21169056 -0.01905692 -0.015033495 0.15820017 0.54419035 0.10720466 0.25848615
0.053959496 0.27611598 0.22643624 -0.23986094 0.00942391 0.36492532 0.31154484 0.042353954
-0.07242132 0.07085762 -0.16726135 0.15441333 -0.012715761 0.11347297 0.025173249 0.29424033
0.13164552 -0.16276968 0.14259 -0.21696202 -0.19704029 -0.29023102 -0.1866853 -0.1007685
0.2043915 -0.067929275 -0.14908355 0.10832162 0.013208308 -0.12793747 -0.10945903 0.10443883
-0.10500336 0.0013552604 -0.23678036 -0.0583199 0.010479736 0.15135144 0.28621703 -0.09187474
-0.08842458 0.072574094 -0.2811513 0.020036321 -0.47069198 0.22422463 -0.045756225 -0.22347006
0.09773549 0.09730923 0.0829608 0.3668002 -0.24349947 0.20699695 -0.14666513 -0.076498024
0.36069757 -0.18376245 0.16253999 0.06800412 -0.061505347 -0.11375672 -0.2927507 0.067489915
0.14234594 -0.01692545 -0.19713347 -0.30318627 0.24909556 -0.073527 0.116678104 -0.11865678
-0.16573824 -0.1682917 0.027667172 0.075039744 -0.51603985 0.102392435 -0.042329147 -0.051397987
0.14291938 -0.17137744 0.106335886 -0.045268163 -0.2714971 0.06420359 -0.10461738 0.057069417
-0.019149786 -0.2741982 -0.10195208 -0.051321946 0.26850918 -0.2549917 0.10200976 -0.007483741
0.17711067 -0.13116324 0.10475698 0.41582388 -0.08875737 0.09372203 -0.10086294 -0.29993495
0.042201396 -0.19026515 -0.065784864 -0.16477482 -0.005962489 0.07664493 -0.44086203 0.036137734
-0.3420898 -0.3134385 0.16062847 -0.1665033 -0.18283074 -0.037191782 0.20589781 -0.1289644
0.02568897 0.24304038 -0.19398026 -0.2964973 0.19670491 -0.20101699 0.017020155 0.11097126
-0.13084751 -0.031348288 0.048993196 0.10040253 0.38707954 0.3571028 -0.13962813 -0.03101913

critic.0.bias f4 [32]
00000000: 4dfd 4e3e c18a 463e 0000 0000 7545 2fbd
00000010: 229b 143c 7c58 3f3e 7f6d 433e 86ee 98bc
00000020: 7b4e c5bc 173d 443e 5be9 553e a0c0 b4bc
00000030: 8b01 303e 0000 0000 f95b 28ba 7b29 edbc
00000040: 553c 423e b9cc 85bd 97b2 573d 8f8a 67bc
00000050: 0000 0000 0721 c83d fbf2 4d3e 9adb dcbd
00000060: 3deb 223e c543 643e ea88 413e 9f19 5e3e
00000070: 1432 693e 96d3 cfbb 0000 0000 633c 463e
0.20213814 0.19388868 0.0 -0.04279085 0.00907019 0.18686098 0.19084738 -0.018668424
-0.024085274 0.19163929 0.208898 -0.022064507 0.17188089 0.0 -0.00064223964 -0.028950443
0.18968327 -0.065331884 0.05266055 -0.014132156 0.0 0.097719245 0.20112221 -0.10784073
0.15910049 0.22291477 0.18899885 0.21689461 0.2277301 -0.0063423617 0.0 0.19358973

critic.2.weight f4 [1, 32]
00000000: 7cc7 be3e 043f 853e f2ad 903d 9a12 64be
00000010: 9a98 a8be bb2f 743e bcf3 e33e 5ac9 53be
00000020: cc5d 80be 7cfd d43e d3c7 103e dc6c e53e
00000030: 9138 783e 00c2 043e 62cc 9c3d fce0 673e
00000040: b9f8 943e ba55 12bf f744 ddbe 060a 933e
00000050: 07ed d3be 9666 a43c 3f8c 543e 5879 6abe
00000060: 07ec f43e 7e0f d83e 9e1b 5c3e ac5a 3d3e
00000070: a5c7 dd3e 0790 11bf 4330 52be 52eb 2d3e
0.3726157 0.2602464 0.070644274 -0.22272721 -0.32928926 0.23846333 0.44521892 -0.20682278
-0.2507156 0.41599643 0.14138727 0.44809616 0.24240328 0.1296463 0.076561704 0.22644418
0.2909601 -0.5716206 -0.43216679 0.28718585 -0.41391775 0.020068448 0.20756625 -0.22897851
0.47836325 0.4219932 0.2149491 0.1849162 0.4331638 -0.56860393 -0.20526223 0.16984299
