logs/base/checkpoint_episode_1500.pt (torch, 519982 bytes, 39 tensors)

shared_net.0.weight f4 [128, 30]
0.16281958 -0.01671544 0.25586498 -0.24062304 -0.04430158 -0.1324258 -0.30857736 0.075916626
-0.050682724 0.02344398 -0.17416316 -0.31655097 -0.044349853 -0.013920174 0.07776647 -0.007235905
0.045511175 0.14423102 0.089790694 0.0076961205 0.10155565 -0.09598562 0.18447973 -0.033465777
0.14704831 0.33573404 0.15441652 0.22976324 0.22085041 0.18295017 0.009864644 -0.0058807633
-0.2321783 0.051236488 0.008214467 0.14835255 -0.014721609 0.045156147 0.12995249 0.006661781
0.27732742 -0.08583403 -0.05928126 -0.034279473 0.018550934 0.0005246257 -0.14191449 -0.021496035
0.08094863 -0.032551587 -0.18160447 -0.050797135 0.0037156774 -0.14774804 0.11320351 -0.047068574
-0.0282602 0.24240649 0.017900573 -0.0027571975 -0.052122355 0.049995642 -1.0278693 -0.01852731
0.19806744 -0.26195094 0.21699488 -0.19361487 0.032917943 -0.06222364 -0.11507554 0.14784898
-0.27744165 -0.12028941 -0.3304845 -0.055914268 -0.13158806 0.042370543 -0.04360683 -0.07492024
-0.16850735 -0.08331576 -0.019972168 0.028040465 -0.1218847 -0.23657332 -0.056159936 -0.14355023
-0.08441381 -0.24760455 0.1998127 -0.17378567 0.08938977 -0.05705658 -0.02165436 -0.1518151
-0.46204042 -0.46844387 -0.39448193 -0.42060396 0.1942318 -0.15564726 -0.48299244 -0.43599853
-0.39488915 0.2343651 -0.057994336 -0.3038656 -0.2645031 -0.37464496 0.18479162 0.096727565
0.21558763 -0.023459485 -0.11961114 0.11681672 0.11911499 0.0047068372 0.11129718 -0.14113007
0.087129205 -0.1455646 0.18748434 0.19074254 -0.31418115 0.05847686 -0.019736325 -0.42002654
-0.53382343 -0.5936507 -0.16347486 -0.06068198 -0.076104194 -0.5750746 -0.43229815 0.064189516
-0.19232674 -0.26005703 0.014653295 -0.22130382 0.21579412 0.09941496 -0.22161089 0.090565875
-0.14931768 0.110295735 0.21273972 0.053503625 0.05952911 0.23971388 0.078190535 -0.032317888
-0.1688538 -0.088952616 -0.02304764 0.13586293 0.1403279 -0.1950863 -0.06921738 -0.22954635
0.17841983 0.13648081 0.054351985 -0.013583506 -0.21542127 0.05543951 0.14450346 0.09518057
-0.064724386 -0.015884764 0.039570905 -0.17825016 -0.032511692 -0.12183917 -0.19386265 0.23059666
0.071657464 0.07176143 -0.2703033 -0.27416277 0.117884114 0.03069417 -0.5171426 -0.16571373
0.20782855 0.24333388 0.43570328 0.16225736 -0.08485493 0.1581495 0.063117154 0.30392462
0.16591449 0.130638 0.26171714 0.30622423 0.32560483 0.084697396 0.09254881 0.015933424
0.034959115 0.37269047 0.24998294 0.12145652 -0.06881838 -0.046565626 0.16626945 -0.15036663
0.013504405 -0.15991688 -0.04678706 0.028986523 -0.26160365 -0.12379583 0.53681976 0.48124245
0.18925893 0.28649247 0.30887544 0.19401814 0.2897276 0.28807586 0.35271633 0.32097715
0.13555214 0.12260738 0.19877937 0.7311009 0.590111 0.05117688 0.11013738 0.31623656
0.110847354 0.24631928 0.21059008 0.25958058 0.1773286 -0.13346834 0.15189442 0.39613396
-0.03625585 -0.15381533 -0.13528839 -0.22393076 0.21486677 0.11158212 0.0076814825 -0.13844074
0.08886214 -0.23235142 -0.100942604 -0.0030205986 0.006716066 -0.13893473 0.067432374 -0.05927793
00000000: 2dba 263e d2ee 88bc bc00 833e e365 76be
00000010: 9375 35bd a19a 07be dafd 9dbe 2d7a 9b3d
00000020: b098 4fbd 970d c03c d457 32be f812 a2be
00000030: 31a8 35bd 7111 64bc 0744 9f3d 2c1b edbb
00000040: ed69 3a3d 4cb1 133e 2fe4 b73d bd2f fc3b
00000050: 69fc cf3d 1c94 c4bd 41e8 3c3e 6913 09bd
00000060: d593 163e 55e5 ab3e 5d1f 1e3e 0e47 6b3e
00000070: 9c26 623e 4a57 3b3e 519f 213c 6bb3 c0bb
00000080: 26c0 6dbe 5add 513d f995 063c bbe9 173e
00000090: e732 71bc a7f5 383d 4412 053e 124b da3b
000000a0: dcfd 8d3e c0c9 afbd e8d0 72bd a268 0cbd
000000b0: 21f8 973c 0987 093a 0852 11be 7418 b0bc
000000c0: 65c8 a53d d054 05bd 86f6 39be a810 50bd
000000d0: b982 733b 434b 17be 3ed7 e73d faca 40bd
000000e0: ef81 e7bc 6839 783e 39a4 923c 19b2 34bb
000000f0: 407e 55bd 3bc8 4c3d 3991 83bf 96c6 97bc
00000100: 31d2 4a3e 6f1e 86be e833 5e3e fa42 46be
00000110: f7d4 063d 37de 7ebd baac ebbd b965 173e
00000120: d50c 8ebe 4b5a f6bd 4435 a9be 5c06 65bd
00000130: 05bf 06be bc8c 2d3d 139d 32bd c86f 99bd
00000140: 318d 2cbe 74a1 aabd ac9c a3bc 1eb5 e53c
00000150: b09e f9bd 4740 72be f607 66bd d5fe 12be
00000160: 26e1 acbd 0c8c 7dbe b39b 4c3e dff4 31be
00000170: fc11 b73d 29b4 69bd 7c64 b1bc 6b75 1bbe
00000180: 9090 ecbe e0d7 efbe 89f9 c9be 6759 d7be
00000190: b3e4 463e ff61 1fbe c94a f7be 333b dfbe
000001a0: e92e cabe 68fd 6f3e 788b 6dbd 4694 9bbe
000001b0: f36c 87be 77d1 bfbe 043a 3d3e 1a19 c63d
000001c0: 01c3 5c3e 1b2e c0bc aff6 f4bd 9b3d ef3d
000001d0: 8ff2 f33d d03b 9a3b c7ef e33d 6784 10be
000001e0: cc70 b23d e30e 15be e5fb 3f3e 0352 433e
000001f0: 5adc a0be 6f85 6f3d 13ae a1bc b80d d7be
00000200: a7a8 08bf 7ef9 17bf f465 27be ab8d 78bd
00000210: 84dc 9bbd 1738 13bf 2f56 ddbe cb75 833d
00000220: 4df1 44be 3226 85be 6014 703c 789d 62be
00000230: 22f9 5c3e 129a cb3d f7ed 62be 9a7a b93d
00000240: bce6 18be bbe2 e13d 71d8 593e 9e26 5b3d
00000250: ccd4 733d 8e77 753e 5c22 a03d c35f 04bd
00000260: 03e8 2cbe ca2c b6bd 68ce bcbc a71f 0b3e
00000270: 1eb2 0f3e b4c4 47be d7c1 8dbd 330e 6bbe
00000280: b0b3 363e a0c1 0b3e 30a0 5e3d 5b8d 5ebc
00000290: 6597 5cbe 8a14 633d b7f8 133e 08ee c23d
000002a0: 388e 84bd c420 82bc 1a15 223d 3687 36be
000002b0: fb2a 05bd d186 f9bd ee83 46be 8821 6c3e
000002c0: 26c1 923d a8f7 923d 3265 8abe 105f 8cbe
000002d0: 3a6d f13d 5772 fb3c 7563 04bf dcb0 29be
000002e0: 02d1 543e 842c 793e 8014 df3e cb26 263e
000002f0: 6cc8 adbd f1f1 213e 9143 813d 029c 9b3e
00000300: 7de5 293e f8c5 053e caff 853e 6cc9 9c3e
00000310: adb5 a63e d475 ad3d 3b8a bd3d d086 823c
00000320: 4a31 0f3d 49d1 be3e 87fb 7f3e 32be f83d
00000330: a7f0 8cbd 99bb 3ebd 8a42 2a3e b6f9 19be
00000340: 9441 5d3c 40c1 23be caa3 3fbd 2575 ed3c
00000350: eaf0 85be ab88 fdbd 056d 093f 6965 f63e
00000360: 18cd 413e 24af 923e ec24 9e3e b1ac 463e
00000370: 2d57 943e ae7e 933e 3c97 b43e 1e57 a43e
00000380: 2ece 0a3e 9419 fb3d d28c 4b3e 6e29 3b3f
00000390: 8411 173f d99e 513d b58f e13d c2e9 a13e
000003a0: f003 e33d 1f3b 7c3e eda4 573e bfe7 843e
000003b0: a195 353e edab 08be 368a 1b3e 12d2 ca3e
000003c0: 0481 14bd c481 1dbe 0a89 0abe 1b4e 65be
000003d0: 0906 5c3e 2b85 e43d f2b4 fb3b 69c3 0dbe
000003e0: 5bfd b53d 88ed 6dbe ffba cebd 3cf5 45bb
000003f0: 7212 dc3b e844 0ebe fc19 8a3d 6acd 72bd

shared_net.0.bias f4 [128]
-0.03154849 0.11683431 0.0527109 -0.026131488 0.07010233 0.08961552 0.012492461 0.008312292
-0.013670745 -0.0102962265 -0.028817568 0.0067420416 0.025321435 -0.009213679 0.071752824 -0.0028661003
-0.055712435 0.11444396 0.009483459 0.15077056 0.05601167 -0.013581186 0.087831624 0.08853812
0.0 0.066646025 -0.010446317 -0.0022802332 -0.015174477 0.15759155 -0.09430199 0.07967667
-0.0070481356 0.10041226 0.22164626 0.08131258 0.045065526 0.16954519 -0.12766327 -0.0012179723
0.05819581 -0.0070118187 -0.0045277937 -0.042024598 -0.006606784 0.007982048 0.12822211 -0.0001563328
0.0714459 0.012636683 -0.15477167 0.0801393 0.05623145 -0.009354438 0.09559047 0.026434472
0.0 0.017431246 -0.025652984 -0.0381884 -0.08022827 0.030122159 -0.034902163 0.12431835
0.1044404 0.033460777 0.1294113 0.09296483 -0.085469075 0.054969456 -0.07871977 -0.005750997
-0.10295606 -0.01888531 0.040439114 -0.0014209795 0.083455294 0.04401533 -0.002061951 0.047936343
-0.016575927 0.035722613 0.065664254 -0.055407982 0.03781442 0.07561515 0.028417826 -0.030163229
-0.016330086 0.027808249 0.035573117 -0.04456128 0.10850587 0.11684022 -0.015045572 -0.07343782
0.010029184 0.08012172 0.18429063 -0.0067760004 -0.006882116 -0.04932845 -0.024668895 0.0857246
0.03519721 0.036142718 0.0768604 -0.06690269 0.031070247 0.03972608 0.07077039 0.0
0.03238151 0.07984922 0.04679542 -0.04736362 -0.035230003 0.09594314 -0.023149744 -0.033073112
-0.013421728 0.0 0.021461025 -0.033525888 -0.04388405 -0.061015375 0.045977168 -0.024050461
00000000: fd38 01bd d446 ef3d 62e7 573d b411 d6bc
00000010: cf91 8f3d 5788 b73d 2ead 4c3c 4830 083c
00000020: 43fb 5fbc 81b1 28bc d212 ecbc 58ec dc3b
00000030: e66e cf3c f8f4 16bc 25f3 923d 2fd5 3bbb
00000040: b932 64bd 9861 ea3d 8360 1b3c 9963 1a3e
00000050: 7e6c 653d 9f83 5ebc 11e1 b33d 7953 b53d
00000060: 0000 0000 b67d 883d 0727 2bbc f76f 15bb
00000070: 5f9e 78bc ae5f 213e 6721 c1bd 862d a33d
00000080: 0cf4 e6bb f1a4 cd3d 3df7 623e 3687 a63d
00000090: a196 383d 419d 2d3e 29ba 02be 5ea4 9fba
000000a0: bb5e 6e3d 66c3 e5bb e35d 94bb fc21 2cbd
000000b0: b97d d8bb 23c7 023c a84c 033e 44ed 23b9
000000c0: 3a52 923d 170a 4f3c 777c 1ebe 1320 a43d
000000d0: f352 663d 5b43 19bc f0c4 c33d 1b8d d83c
000000e0: 0000 0000 f9cb 8e3c 3526 d2bc 716b 1cbd
000000f0: b84e a4bd bfc2 f63c 92f5 0ebd 9e9a fe3d
00000100: d9e4 d53d 2b0e 093d 6584 043e 5864 be3d
00000110: 690a afbd a727 613d d537 a1bd dc72 bcbb
00000120: a0da d2bd 5eb5 9abc 7ca3 253d 2940 baba
00000130: 9cea aa3d 6b49 343d cc21 07bb e658 443d
00000140: 3dca 87bc e051 123d fb7a 863d 7bf3 62bd
00000150: 4be3 1a3d 1edc 9a3d 80cc e83c e018 f7bc
00000160: acc6 85bc 20ce e33c 1eb5 113d e485 36bd
00000170: 5338 de3d ed49 ef3d b481 76bc 9166 96bd
00000180: 7251 243c db16 a43d afb6 3c3e 3609 debb
00000190: 6083 e1bb a10c 4abd 6c16 cabc 6190 af3d
000001a0: f32a 103d 630a 143d fc68 9d3d 4704 89bd
000001b0: 0887 fe3c d0b7 223d 11f0 903d 0000 0000
000001c0: 79a2 043d fd87 a33d 8eac 3f3d 5b00 42bd
000001d0: 564d 10bd d67d c43d 88a4 bdbc ac77 07bd
000001e0: cfe6 5bbc 0000 0000 08cf af3c 7152 09bd
000001f0: c3bf 33bd 42eb 79bd 8e52 3c3d 7905 c5bc

shared_net.2.weight f4 [128, 128]
0.006361773 0.058972057 0.42185083 0.056760848 -0.026089167 0.13991185 0.08709181 0.022448834
-0.07559602 -0.11794376 -0.031689394 -0.18482396 -0.18680458 0.036110684 -0.2013982 -0.066315465
0.26406896 0.11163536 0.09933663 0.13398324 0.5016875 -0.0030189387 0.08472041 0.2221228
-0.030374227 0.11954388 -0.18632494 -0.030775022 0.009277926 -0.0073087276 -0.10212458 -0.04106361
-0.1348705 0.045452427 -0.091861404 0.08284276 0.062167674 0.121784836 -0.09225138 -0.33103153
0.054315947 -0.12965861 0.008231455 -0.08290753 0.07708062 0.23726343 0.10588758 0.041349445
-0.0093682865 -0.07252594 0.025291748 0.25476116 -0.011996044 0.080504 0.03938519 -0.07993878
-0.21488681 0.036585595 -0.026301336 -0.012059624 0.14393805 0.13317527 0.01377803 0.053910967
0.02762889 0.19426748 0.08068461 0.1713249 -0.2286682 0.22511815 -0.20609269 -0.2573175
-0.13106465 -0.21797818 0.19284214 0.03916246 0.53066 0.18943757 -0.07652689 -0.117673
-0.3239821 0.25151542 0.23321365 -0.07526405 0.23037179 0.17185955 0.04876353 0.30228415
0.1070187 -0.13043179 0.15053725 -0.2200018 0.033392787 0.061591167 0.049417134 0.11529987
-0.1879788 -0.25749946 0.111978665 -0.13567427 -0.14125091 -0.10352623 0.09857491 0.31950754
0.07223779 0.021582639 -0.04804769 -0.07271995 0.12630516 -0.22349083 0.00032931956 -0.11267643
0.13567297 -0.071419425 0.17203635 0.020973364 -0.08673436 -0.008031316 -0.023636984 -0.108031146
-0.05321976 0.15445669 0.052236766 0.13518593 -0.034544073 -0.00087119796 0.12100142 -0.08324571
-0.06408784 -0.11357383 0.05979882 -0.23546058 0.096290775 0.027234668 -0.2021417 0.06544444
-0.12910454 -0.11933216 -0.10522068 0.2533236 -0.00684034 0.015164854 0.010377669 -0.13998848
0.0011597503 -0.09606386 -0.024641775 0.049865693 0.13939568 0.13970082 0.2469025 -0.098073
0.03613329 -0.06866 0.032533854 0.038227186 -0.081678204 -0.17824072 0.18975836 -0.04428133
0.2403114 -0.09529701 0.11694996 -0.114161156 0.024074428 0.10681577 0.14321148 -0.28830928
-0.23596175 -0.16698265 0.05959181 0.0718133 -0.060399458 0.2164158 -0.08814975 -0.083754435
0.047473263 -0.030631617 0.006148664 0.08805538 -0.08753606 -0.09587925 0.057677697 0.01730512
-0.052635897 0.17917146 -0.15203802 -0.094873235 -0.01364372 0.21149725 0.061690155 -0.17957576
-0.13299927 -0.04214697 0.008556859 0.03785496 0.15907136 -0.07223015 0.25213742 -0.22558475
-0.24547723 0.02832564 0.035780914 -0.0032622896 0.0029852826 -0.04190848 -0.05165443 -0.13996802
0.16337506 0.14145261 -0.04526592 0.04388411 -0.09022789 -0.082999185 0.0066254344 0.13416156
-0.15015651 0.057261158 0.05152273 -0.19250181 -0.12660947 0.07591182 0.088697776 -0.14991432
0.036297753 0.027199756 0.16318181 -0.077904135 0.026633488 0.17286175 -0.112872705 -0.073904835
0.31633905 0.08831807 0.102797836 0.21096703 -0.26768064 -0.068026215 0.052136507 0.069284126
-0.020903964 -0.19451512 -0.10578411 0.03481677 -0.077118784 -0.10873297 -0.008126034 0.15730846
0.1296163 0.07436421 0.018946484 -0.17627276 -0.06291948 -0.18481782 -0.17949839 -0.037357647
00000000: 6b76 d03b af8c 713d d5fc d73e 107e 683d
00000010: f3b8 d5bc 0d45 0f3e 315d b23d 9ee6 b73c
00000020: 16d2 9abd 7f8c f1bd bdcc 01bd 7e42 3dbe
00000030: b349 3fbe cce8 133d 543b 4ebe 67d0 87bd
00000040: 0c34 873e 14a1 e43d 0171 cb3d e732 093e
00000050: 986e 003f 63d9 45bb e581 ad3d 2974 633e
00000060: 5fd3 f8bc 6cd3 f43d f7cb 3ebe e61b fcbc
00000070: 7102 183c 0d7e efbb b126 d1bd 5132 28bd
00000080: 7e1b 0abe 532c 3a3d d521 bcbd 77a9 a93d
00000090: 88a3 7e3d 546a f93d 4bee bcbd f77c a9be
000000a0: 667a 5e3d 3ac5 04be 3add 063c 6ccb a9bd
000000b0: 72dc 9d3d 2ff5 723e 96db d83d 095e 293d
000000c0: 717d 19bc 7b88 94bd a430 cf3c 0e70 823e
000000d0: 0e8b 44bc 48df a43d 5d52 213d f1b6 a3bd
000000e0: 4a0b 5cbe c7da 153d e675 d7bc bb95 45bc
000000f0: 7f64 133e 195f 083e 3fbd 613c bfd1 5c3d
00000100: fb55 e23c 0eee 463e f93d a53d cb6f 2f3e
00000110: ff27 6abe 5f85 663e f609 53be 1fbf 83be
00000120: d035 06be ac35 5fbe 6978 453e d168 203d
00000130: 55d9 073f ecfb 413e 21ba 9cbd 8bfe f0bd
00000140: fbe0 a5be a1c6 803e 8fcf 6e3e 0a24 9abd
00000150: 95e6 6b3e f3fb 2f3e 44bc 473d fdc4 9a3e
00000160: 9f2c db3d e98f 05be 7026 1a3e 2748 61be
00000170: e0c6 083d 0547 7c3d 9f69 4a3d 5722 ec3d
00000180: 847d 40be f8d6 83be 1255 e53d 32ee 0abe
00000190: 14a4 10be 8f05 d4bd a4e1 c93d 7e96 a33e
000001a0: 68f1 933d 13ce b03c a8cd 44bd 32ee 94bd
000001b0: 2456 013e c8da 64be 86a8 ac39 e6c2 e6bd
000001c0: dbed 0a3e 5944 92bd 4c2a 303e 55d0 ab3c
000001d0: c9a1 b1bd c895 03bc 59a2 c1bc 6f3f ddbd
000001e0: f7fc 59bd e529 1e3e 38f6 553d 2e6e 0a3e
000001f0: 167e 0dbd 1b61 64ba 98cf f73d ba7c aabd
00000200: 7c40 83bd 6599 e8bd 9cef 743d 941c 71be
00000210: 1934 c53d 3d1b df3c 3cfe 4ebe bc07 863d
00000220: fb33 04be 6b64 f4bd f17d d7bd a2b3 813e
00000230: ee24 e0bb 0276 783c 1907 2a3c 2459 0fbe
00000240: c302 983a 21bd c4bd 8cdd c9bc f83f 4c3d
00000250: bebd 0e3e bb0d 0f3e 02d4 7c3e 7fda c8bd
00000260: 8000 143d 9d9d 8cbd 3842 053d 1c94 1c3d
00000270: e746 a7bd bc84 36be 0450 423e 5760 35bd
00000280: 3114 763e 142b c3bd 7683 ef3d 53cd e9bd
00000290: bc37 c53c 3ac2 da3d 08a6 123e 469d 93be
000002a0: f59f 71be 80fd 2abe 8b16 743d da12 933d
000002b0: 6c65 77bd 1a9c 5d3e db87 b4bd 7287 abbd
000002c0: 5373 423d 28ef fabc bb7a c93b 6156 b43d
000002d0: 1b46 b3bd 575c c4bd 733f 6c3d 78c3 8d3c
000002e0: bd98 57bd b978 373e dbaf 1bbe e64c c2bd
000002f0: e989 5fbc bc92 583e d1ae 7c3d b5e2 37be
00000300: f630 08be 4da2 2cbd 1132 0c3c cd0d 1b3d
00000310: 9ae3 223e 67ed 93bd 2818 813e b0ff 66be
00000320: 625e 7bbe 2c0b e83c 028f 123d 23cc 55bb
00000330: bba4 433b 3aa8 2bbd 9893 53bd c753 0fbe
00000340: cb4b 273e f4d8 103e c268 39bd d3bf 333d
00000350: 66c9 b8bd 7afb a9bd 2c1a d93b a661 093e
00000360: a1c2 19be ad8a 6a3d 8009 533d 321f 45be
00000370: eaa5 01be a877 9b3d 2ea7 b53d 2483 19be
00000380: f4ac 143d 06d2 de3c 2219 273e 348c 9fbd
00000390: 792e da3c ac02 313e ce29 e7bd 6b5b 97bd
000003a0: 31f7 a13e 1be0 b43d ac87 d23d be07 583e
000003b0: 700d 89be 5451 8bbd 178d 553d d6e4 8d3d
000003c0: ca3e abbc f92e 47be 57a5 d8bd 089c 0e3d
000003d0: 74f0 9dbd 64af debd 0f23 05bc 7815 213e
000003e0: 23ba 043e 434c 983d a835 9b3c d980 34be
000003f0: eedb 80bd e240 3dbe 6dce 37be 5504 19bd

shared_net.2.bias f4 [128]
0.041155584 -0.03031145 -0.035547275 0.081538595 -0.021150654 -0.0034748598 -0.016245412 0.057175662
0.0 -0.02361529 0.021348976 0.031010458 0.0985968 0.07919093 0.16117106 0.101164244
-0.005546277 -0.08400459 -0.025431488 0.030014787 0.18811725 0.03894456 0.061633546 0.054760795
-0.0061992253 0.11287966 0.13419065 0.0 0.055326313 0.0 0.12509036 0.107567914
0.17466734 -0.032622784 -0.037303403 0.050331634 -0.024779951 0.11101822 0.083971165 0.054556645
0.12211627 0.055844683 0.026919777 0.027793074 0.089685604 0.16211121 0.07563999 0.014077882
0.0 0.08855281 0.027367339 0.004899813 0.024927318 0.021494487 0.056397267 0.00507859
-0.10290604 0.08201233 0.19146043 0.06026074 -0.02044095 -0.025369577 -0.008454184 -0.034005128
0.106241815 -0.02518417 0.13648237 0.084529005 -0.03805795 0.024920728 0.004997259 0.011028029
0.020277819 0.008778819 0.016661827 0.031492785 0.11208042 0.027890569 0.0 -0.0013204587
0.08742687 0.08466401 -0.029575305 -0.0126010915 0.06884996 0.13287371 -0.012050083 0.013665207
0.22616823 -0.004652125 0.024493959 0.02056884 -0.009837082 -0.044265497 0.068450406 0.0
-0.017267479 0.08857562 0.11820464 0.05365743 0.16193068 0.059198182 0.041579925 -0.0037295176
0.025010945 -0.01548937 0.0 -0.0886934 -0.01830836 0.07721336 -0.031091824 0.021172823
0.013592061 0.023337645 0.00403102 0.0066219154 0.056407202 0.17614737 0.16046077 0.023972297
-0.050579287 0.09444452 0.056131326 -0.023974184 -0.008993132 0.11523385 0.08295347 0.053078104
00000000: c292 283d b84f f8bc 059a 11bd b5fd a63d
00000010: 2344 adbc 79ba 63bb 1915 85bc 0731 6a3d
00000020: 0000 0000 da74 c1bc 0ce4 ae3c a509 fe3c
00000030: 1eed c93d db2e a23d 070a 253e 332f cf3d
00000040: 8bbd b5bb 990a acbd b255 d0bc 92e1 f53c
00000050: cfa1 403e 5584 1f3d 7573 7c3d db4c 603d
00000060: df22 cbbb 742d e73d 4669 093e 0000 0000
00000070: d89d 623d 0000 0000 b017 003e 914c dc3d
00000080: ffdb 323e 789f 05bd 74cb 18bd 8b28 4e3d
00000090: 53ff cabc 855d e33d 13f9 ab3d ca76 5f3d
000000a0: 1818 fa3d 65bd 643d dd86 dc3c 4dae e33c
000000b0: 16ad b73d 7b00 263e 24e9 9a3d eba6 663c
000000c0: 0000 0000 2d5b b53d 7831 e03c 9c8e a03b
000000d0: 6034 cc3c 3515 b03c d200 673d 4d6a a63b
000000e0: 67c0 d2bd 15f6 a73d 340e 443e f7d3 763d
000000f0: c773 a7bc dcd3 cfbc 6b83 0abc f648 0bbd
00000100: 4f95 d93d 084f cebc 09c2 0b3e 8b1d ad3d
00000110: a7e2 1bbd 8e26 cc3c 0cc0 a33b e8ae 343c
00000120: ab1d a63c 09d5 0f3c 627e 883c 94fe 003d
00000130: 6b8a e53d c37a e43c 0000 0000 3e13 adba
00000140: dc0c b33d 5364 ad3d e947 f2bc cf74 4ebc
00000150: 3501 8d3d 0c10 083e b66d 45bc 08e4 5f3c
00000160: a598 673e da70 98bb 8ea7 c83c fc7f a83c
00000170: b62b 21bc bd4f 35bd ba2f 8c3d 0000 0000
00000180: 8774 8dbc 2267 b53d 4615 f23d e5c7 5b3d
00000190: 28d1 253e cb79 723d b64f 2a3d ec6a 74bb
000001a0: c1e3 cc3c 20c7 7dbc 0000 0000 e3a4 b5bd
000001b0: 6afb 95bc 0a22 9e3d 48b4 febc a172 ad3c
000001c0: 3cb1 5e3c 972e bf3c a616 843b a7fc d83b
000001d0: 3d0b 673d fa5f 343e d44f 243e 8d61 c43c
000001e0: 3a2c 4fbd 216c c13d f6e9 653d 8265 c4bc
000001f0: ee57 13bc baff eb3d 82e3 a93d 6d68 593d

shared_net.4.weight f4 [64, 128]
-0.1973831 -0.13262051 0.04715376 0.1517094 0.069076285 0.03579294 0.0374964 0.05393541
-0.027104998 0.28504106 0.052940268 -0.026771799 0.08029313 0.19151235 -0.017180681 -0.07889904
0.10921177 -0.17573702 0.09554252 -0.11955324 0.15347762 -0.11891246 0.11903994 0.020874735
-0.27398995 0.08139651 0.19921234 -0.021698577 -0.1856354 -0.08084887 -0.1495296 0.09803696
0.24566497 0.19118243 0.031554457 0.07396478 -0.07928351 0.10472851 0.09979838 -0.22334622
-0.15154277 -0.19801682 0.031517487 -0.078895755 -0.09597196 -0.001700848 -0.15401646 0.10582152
-0.271671 -0.15002486 -0.1729987 -0.058563903 0.05915901 -0.05701683 0.17705616 -0.023115253
-0.016296517 0.050952695 0.04347595 -0.14590703 -0.025077986 -0.09190637 0.16428326 -0.36720437
-0.13475119 -0.08505171 0.15415572 -0.067977205 -0.16116038 -0.17978166 0.07167496 0.37025306
-0.06727611 0.06302665 0.020377444 -0.24467671 0.14020588 0.16469817 -0.05997031 0.0108018955
-0.019010207 0.07267061 0.09818524 -0.22765729 -0.055888545 0.17367072 0.26232433 0.17624028
-0.15216745 0.0013012022 -0.16685964 -0.0105642015 -0.09360123 -0.029028561 -0.36463872 -0.04474661
-0.16811115 0.40520582 -0.1163516 -0.051857036 0.09361594 0.0063087824 0.08314629 -0.049816918
-0.20468748 -0.04337864 0.12208828 0.1682645 -0.13267379 0.3749296 0.18376185 0.17200139
-0.0589402 -0.09187656 0.10587885 -0.15582752 0.3691873 0.05939763 0.042484034 0.117797546
-0.11225623 -0.17136326 -0.20505348 0.119461276 0.10164428 0.3529039 0.197212 0.26944888
-0.09340814 0.054394074 -0.31331882 -0.20812438 0.08887189 0.06656519 0.101280525 0.19046202
0.10208287 -0.13380435 0.042374577 -0.12710944 0.118946135 0.2377223 0.2577384 0.14890593
0.13968837 -0.038970962 -0.1402017 -0.0031976132 0.04477866 0.065731116 -0.122788996 -0.08911176
0.04674328 0.030837571 -0.13856338 0.13021706 0.07845041 0.27213764 -0.0030503827 0.16805986
0.0092780525 -0.1589761 0.090786055 -0.053831477 0.086772844 0.1653504 0.046121523 -0.3557866
0.088742 0.11221874 -0.17983805 0.0020171555 -0.095379196 0.026075779 0.037708264 -0.18842667
0.108274765 -0.12791498 -0.068800114 0.0832184 -0.14863412 -0.1419383 0.06615052 -0.16486566
-0.13226254 0.004610304 -0.020235348 0.11648372 -0.07970608 0.26056147 0.13387856 0.06873458
-0.058604546 -0.29254007 0.16703926 0.17164455 0.13149798 -0.1510746 0.12094946 0.3770196
-0.31256205 -0.016667066 -0.04745662 0.23915118 0.10700887 -0.06723825 -0.0291143 0.10216011
0.023513118 0.21189019 -0.038262036 0.044186976 0.36321342 0.27883068 0.17009598 -0.07419322
-0.1020833 -0.036699764 0.16753265 -0.019228274 0.20065087 0.13430986 0.032972638 -0.08541324
-0.0051120496 -0.12763973 0.19251841 0.1794703 0.20073758 -0.21344905 0.1353688 0.033795767
-0.27639475 0.18752946 -0.17386194 0.1526436 -0.012850408 -0.013122561 0.18770376 -0.13659279
0.11345356 -0.32016602 0.17168656 0.2501991 -0.21077527 0.17609322 -0.120798916 -0.21046342
0.06467868 0.2516469 0.016721688 -0.1682156 0.06327679 -0.05991094 0.07131825 0.027861033
00000000: cc1e 4abe accd 07be 4d24 413d b559 1b3e
00000010: de77 8d3d 9e9b 123d d395 193d 60eb 5c3d
00000020: 4d0b debc e7f0 913e e5d7 583d 8850 dbbc
00000030: b970 a43d d01b 443e 80be 8cbc d295 a1bd
00000040: 6caa df3d 68f4 33be ccab c33d 54d8 f4bd
00000050: 3d29 1d3e 6088 f3bd 36cb f33d 7e01 ab3c
00000060: 6948 8cbe 37b3 a63d 52fe 4b3e 37c1 b1bc
00000070: 3517 3ebe 1894 a5bd 4a1e 19be 9ac7 c83d
00000080: 998f 7b3e 54c5 433e 3f3f 013d d97a 973d
00000090: 655f a2bd e77b d63d 1863 cc3d dfb4 64be
000000a0: 072e 1bbe ecc4 4abe 7b18 013d 1994 a1bd
000000b0: f28c c4bd fdee deba 7eb6 1dbe f4b8 d83d
000000c0: 7618 8bbe 1ea0 19be 9226 31be b4e0 6fbd
000000d0: b850 723d 7b8a 69bd 364e 353e 335c bdbc
000000e0: 4680 85bc c6b3 503d d613 323d a768 15be
000000f0: 5970 cdbc 6839 bcbd df39 283e 3602 bcbe
00000100: 37fc 09be 972f aebd ffda 1d3e a237 8bbd
00000110: 3a07 25be af18 38be 52ca 923d cf91 bd3e
00000120: 0fc8 89bd 1e14 813d 99ee a63c 888c 7abe
00000130: 2192 0f3e a3a6 283e 6ea3 75bd 6ffa 303c
00000140: 4bbb 9bbc 54d4 943d 5815 c93d fe1e 69be
00000150: 63eb 64bd bdd6 313e 604f 863e 5578 343e
00000160: c9d1 1bbe 1a8d aa3a 41dd 2abe 7915 2dbc
00000170: 00b2 bfbd 4ecd edbc edb1 babe 3948 37bd
00000180: 5425 2cbe 2377 cf3e bf49 eebd 0b68 54bd
00000190: b7b9 bf3d e7b9 ce3b 9a48 aa3d d30c 4cbd
000001a0: 9899 51be cdad 31bd 6c09 fa3d 874d 2c3e
000001b0: a3db 07be c6f6 bf3e 112c 3c3e 2221 303e
000001c0: 476b 71bd c729 bcbd 03d7 d83d 4091 1fbe
000001d0: 1e06 bd3e ee4a 733d bd03 2e3d d73f f13d
000001e0: 98e6 e5bd da79 2fbe 8af9 51be 1da8 f43d
000001f0: e02a d03d d2af b43e f1f1 493e 34f5 893e
00000200: c44c bfbd 52cc 5e3d 536b a0be 8f1e 55be
00000210: 7702 b63d 5553 883d 2a6c cf3d 7a08 433e
00000220: d310 d13d 0204 09be f790 2d3d fa28 02be
00000230: 089a f33d 7a6d 733e 4af6 833e cc7a 183e
00000240: 780a 0f3e 04a0 1fbd 0991 0fbe 0c8f 51bb
00000250: d469 373d 099e 863d cc78 fbbd 3a80 b6bd
00000260: e275 3f3d 139f fc3c 8fe3 0dbe 9f57 053e
00000270: 9caa a03d a055 8b3e eee8 47bb e217 2c3e
00000280: f902 183c a1ca 22be 0aee b93d 657e 5cbd
00000290: f6b5 b13d 9e51 293e ece9 3c3d a929 b6be
000002a0: 5ebe b53d f0d2 e53d 7727 38be 4132 043b
000002b0: 2b56 c3bd df9c d53c fb73 1a3d ecf2 40be
000002c0: 29bf dd3d 25fc 02be 13e7 8cbd 696e aa3d
000002d0: 8b33 18be 4658 11be ed79 873d 8bd2 28be
000002e0: d56f 07be 0812 973b 9ac4 a5bc 048f ee3d
000002f0: f13c a3bd 5068 853e 7617 093e b7c4 8c3d
00000300: 520b 70bd d0c7 95be 570c 2b3e 97c3 2f3e
00000310: 68a7 063e 4db3 1abe 5ab4 f73d b708 c13e
00000320: 2208 a0be 5f89 88bc df61 42bd 0ce4 743e
00000330: 7727 db3d 35b4 89bd 1d81 eebc 5239 d13d
00000340: 959e c03c bef9 583e a7b8 1cbd 67fd 343d
00000350: 1cf7 b93e e5c2 8e3e a42d 2e3e 9df2 97bd
00000360: 0d11 d1bd 7e52 16bd ae8d 2b3e 9d84 9dbc
00000370: 6c77 4d3e 8688 093e 510e 073d 23ed aebd
00000380: fb82 a7bb fdb3 02be 8c23 453e 10c7 373e
00000390: 278e 4d3e 6392 5abe 1e9e 0a3e 6e6d 0a3d
000003a0: 9d83 8dbe b907 403e dd08 32be 9b4e 1c3e
000003b0: 858a 52bc 0300 57bc 6a35 403e fbde 0bbe
000003c0: 575a e83d cdec a3be 9ace 2f3e 191a 803e
000003d0: 79d5 57be c851 343e 6c65 f7bd b983 57be
000003e0: 4176 843d ddd7 803e ecfb 883c b640 2cbe
000003f0: 4397 813d 2c65 75bd 4d0f 923d d23c e43c

shared_net.4.bias f4 [64]
0.08617652 0.09056607 -0.018660767 0.08242351 0.055545148 -0.009008101 -0.0053865653 -0.018150924
0.0 -0.009111672 0.13569139 -0.012245736 -0.01473576 -0.06085725 0.18529883 0.045424074
0.0047666067 -0.017595647 0.08608391 0.10003222 -0.00079514424 -0.006738312 0.014379412 0.083749205
-0.015813041 0.078840554 0.00042828073 0.0019294841 -0.015062559 0.04877877 0.030443473 0.0045445315
-0.0075954287 0.17039402 0.10992389 0.0097592 0.2049548 0.05978834 0.1676226 0.033800732
0.004472733 0.0 0.078243 0.11566928 -0.11564135 -0.04268087 0.013505149 0.0017107599
-0.024385644 -0.043856245 -0.14138001 -0.07417923 0.17145526 0.18449202 -0.010572582 0.0
-0.0063434048 0.07436814 0.1367398 -0.02635956 0.004206966 -0.0055776145 0.13538735 0.1478081
00000000: 517d b03d b47a b93d 77de 98bc a8cd a83d
00000010: 4f83 633d b796 13bc c981 b0bb 3fb1 94bc
00000020: 0000 0000 1f49 15bc aff2 0a3e 57a2 48bc
00000030: 426e 71bc 7445 79bd fabe 3d3e 980e 3a3d
00000040: 3231 9c3b bf24 90bc c34c b03d b1dd cc3d
00000050: 3a71 50ba 0fcd dcbb a097 6b3c b484 ab3d
00000060: 5a8a 81bc 2877 a13d de8a e039 bee6 fc3a
00000070: f4c8 76bc 3fcc 473d 9764 f93c 4bea 943b
00000080: 13e3 f8bb c57b 2e3e c71f e13d 0de5 1f3c
00000090: acdf 513e 9ee4 743d 42a5 2b3e a372 0a3d
000000a0: 0190 923b 0000 0000 de3d a03d 04e4 ec3d
000000b0: 5fd5 ecbd 23d2 2ebd b344 5d3c 943b e03a
000000c0: 67c4 c7bc 9ba2 33bd ecc5 10be 48eb 97bd
000000d0: f891 2f3e 7aeb 3c3e 9f38 2dbc 0000 0000
000000e0: 56dc cfbb 534e 983d 8505 0c3e 01f0 d7bc
000000f0: 97da 893b 6cc4 b6bb fba2 0a3e 025b 173e

actor.0.weight f4 [32, 64]
0.073037334 0.093538135 0.39010575 0.059068397 -0.122256145 0.003269272 0.1494228 -0.20179582
-0.33724716 0.16655277 0.17303988 -0.05776943 -0.25100183 -0.048942287 -0.061997097 0.23849173
0.23624556 -0.13204204 -0.044591192 -0.26539952 -0.059069566 -0.18462779 0.09050124 0.016092533
0.14510985 0.16407509 -0.0747818 -0.46136728 0.28634247 0.046510477 -0.00023109617 -0.048650235
-0.41750374 -0.12082446 -0.045760214 -0.014390259 -0.24798566 -0.11830444 -0.18964885 0.30988282
0.06340568 -0.053760666 -0.023092132 0.33351877 0.12660177 0.18334761 0.0039704973 -0.09930514
-0.08283186 0.07414186 0.016383646 0.14236052 0.0937231 -0.16823795 -0.1278349 -0.08247205
-0.13334778 -0.09654989 -0.16159452 -0.3137817 0.17141736 0.19863081 -0.09689881 -0.0006792425
0.47701824 -0.28842562 -0.23221543 0.3374467 0.16086318 -0.13952616 0.358878 -0.06031766
-0.07141401 -0.051494077 0.07501441 0.13040721 -0.04043903 -0.060099967 0.008062169 -0.0351426
-0.125442 -0.111489475 0.11623101 0.28882527 -0.07309394 -0.013558194 -0.09898291 0.1216532
-0.44510826 -0.23639704 0.20237766 -0.1909415 0.06540808 0.20290749 0.7501475 0.1518175
0.021943217 0.015247053 -0.02436385 0.04695095 0.14807123 0.21167901 0.3121441 0.43100312
0.105064206 -0.038191702 -0.3253752 0.24414831 0.004008323 0.31135392 -0.037408616 0.04554901
-0.031383745 0.010015681 0.09672955 -0.04697671 -0.12670036 0.111492224 -0.04976999 0.009362312
-0.15640567 -0.23482034 0.11736175 0.2289412 -0.06265602 0.01744792 -0.21333559 0.2145345
-0.032169286 -0.101350054 0.052416053 -0.123563364 0.038118377 -0.093404494 -0.27099133 0.029365432
-0.140743 -0.27889273 0.30611587 0.17383666 -0.13600823 -0.37082723 -0.2531342 0.11987225
-0.17160667 0.23863289 0.11052945 -0.028927749 -0.048390415 -0.0006187376 -0.13109429 0.2907659
0.24840157 0.090405904 -0.18530376 0.15351437 0.07609573 0.48575824 0.09221435 0.24335319
0.12343311 0.17555071 -0.14958143 0.13457929 -0.35139915 0.1617001 -0.15964626 0.046779703
0.03601284 0.11412585 -0.06976839 -0.058487628 -0.066997886 0.043878183 -0.22857073 -0.25620002
-0.2436189 0.046423543 0.16520448 -0.13004494 -0.0034592522 -0.062186964 0.26217228 0.26447272
0.049816106 0.011362886 0.19757156 0.036789987 0.22565804 -0.2109224 -0.00018943343 -0.047626935
-0.18718578 -0.23951864 -0.13422342 -0.07718907 -0.13756336 0.12902625 -0.12474015 0.28325027
-0.22633961 0.04746996 -0.14794658 -0.029874941 -0.015949197 0.18920442 -0.043462303 0.18984942
-0.017888403 0.09122474 -0.08884485 -0.030715337 -0.39888257 -0.2670212 -0.3247497 0.08173147
-0.025002459 -0.003607683 -0.11434159 0.15974806 0.021365143 -0.045640804 0.1651593 -0.06309677
0.21933065 -0.058171276 0.014488261 -0.074341625 -0.19266255 0.08605846 -0.11697477 -0.47000465
-0.05582901 -0.23770133 -0.12540738 0.2895353 0.27430645 0.16191636 -0.09697935 -0.017997207
0.230128 0.24019516 -0.084408164 -0.059934415 -0.08087638 0.050092515 0.07346388 0.08150776
-0.21937898 -0.11503999 -0.31232324 0.10849993 -0.09656064 0.40524325 -0.00060580275 -0.27487773
00000000: 9994 953d ec90 bf3d f1bb c73e b4f1 713d
00000010: 6e61 fabd 4841 563b 4a02 193e 90a3 4ebe
00000020: a9ab acbe cf8c 2a3e 5e31 313e a39f 6cbd
00000030: 5083 80be b577 48bd abf0 7dbd 2d37 743e
00000040: 5bea 713e 0736 07be 41a5 36bd 72e2 87be
00000050: eef2 71bd 110f 3dbe b758 b93d 7dd4 833c
00000060: ad97 143e 4d03 283e 3327 99bd 5538 ecbe
00000070: 7b9b 923e c581 3e3d 6852 72b9 7845 47bd
00000080: 0dc3 d5be d172 f7bd 106f 3bbd 1fc5 6bbc
00000090: f4ef 7dbe 9949 f2bd 4f33 42be f6a8 9e3e
000000a0: d6da 813d 2534 5cbd b62b bdbc f9c2 aa3e
000000b0: e5a3 013e 7abf 3b3e f21a 823b 7e60 cbbd
000000c0: c0a3 a9bd b0d7 973d ff36 863c f5c6 113e
000000d0: e6f1 bf3d 9246 2cbe 27e7 02be 1be7 a8bd
000000e0: 528c 08be f3bb c5bd 0979 25be ffa7 a0be
000000f0: 0888 2f3e e065 4b3e e272 c6bd 310f 32ba
00000100: bc3b f43e 86ac 93be e2c9 6dbe d0c5 ac3e
00000110: 51b9 243e f2df 0ebe dbbe b73e a70f 77bd
00000120: 8241 92bd 74eb 52bd 28a1 993d 7889 053e
00000130: 65a3 25bd 622b 76bd 3017 043c b0f1 0fbd
00000140: de73 00be 9854 e4bd 860a ee3d e8e0 933e
00000150: 47b2 95bd 3023 5ebc 8db7 cabd 5025 f93d
00000160: 3be5 e3be 1112 72be 173c 4f3e 2b86 43be
00000170: acf4 853d fbc6 4f3e ab09 403f 0c76 1b3e
00000180: 43c2 b33c c6ce 793c b296 c7bc a44f 403d
00000190: fc9f 173e 62c2 583e 5ad1 9f3e 71ac dc3e
000001a0: e72b d73d e76e 1cbd 9497 a6be 0402 7a3e
000001b0: 4058 833b c869 9f3e c739 19bd 9991 3a3d
000001c0: 3e8c 00bd d018 243c 241a c63d a76a 40bd
000001d0: bdbd 01be 0956 e43d 9edb 4bbd 6264 193c
000001e0: cf28 20be be74 70be 5b5b f03d 906f 6a3e
000001f0: cd51 80bd f1ee 8e3c a574 5abe efae 5b3e
00000200: f1c3 03bd 9e90 cfbd 37b2 563d ca0e fdbd
00000210: 0422 1c3d db4a bfbd 60bf 8abe c68f f03c
00000220: ef1e 10be 07cb 8ebe 38bb 9c3e 3d02 323e
00000230: be45 0bbe 11dd bdbe ce9a 81be 957f f53d
00000240: a9b9 2fbe 2e5c 743e 445d e23d e3f9 ecbc
00000250: 0735 46bd c732 22ba 953d 06be 45df 943e
00000260: fb5c 7e3e bb26 b93d 45c0 3dbe df32 1d3e
00000270: 14d8 9b3d 4eb5 f83e e1da bc3d 9431 793e
00000280: 80ca fc3d 91c3 333e e02b 19be 27cf 093e
00000290: 97ea b3be b694 253e 4f7a 23be 139c 3f3d
000002a0: 3382 133d d0ba e93d bbe2 8ebd b990 6fbd
000002b0: 3036 89bd 9cb9 333d 720e 6abe a62c 83be
000002c0: 3c77 79be 9d26 3e3d 5d2b 293e 802a 05be
000002d0: 9fb4 62bb c2b7 7ebd 723b 863e f868 873e
000002e0: f90b 4c3d 662b 3a3c 3350 4a3e 19b1 163d
000002f0: e712 673e 0bfc 57be a6a2 46b9 7614 43bd
00000300: a1ad 3fbe 6044 75be dd71 09be 4e15 9ebd
00000310: 69dd 0cbe 751f 043e c477 ffbd 2e06 913e
00000320: 92c5 67be dc6f 423d 4f7f 17be 4bbc f4bc
00000330: e4a7 82bc cebe 413e 8705 32bd e367 423e
00000340: b38a 92bc 09d4 ba3d 4af4 b5bd bb9e fbbc
00000350: 563a ccbe 01b7 88be 9845 a6be d462 a73d
00000360: f5d1 ccbc e06e 6cbb ec2b eabd ff94 233e
00000370: f405 af3c daf1 3abd 851f 293e e138 81bd
00000380: 3798 603e 0145 6ebd 2c60 6d3c 6c40 98bd
00000390: 5549 45be 6b3f b03d 7890 efbd 73a4 f0be
000003a0: f6ac 64bd fa67 73be cb6a 00be f93d 943e
000003b0: e571 8c3e 67cd 253e 1c9d c6bd e16e 93bc
000003c0: ada6 6b3e b8f5 753e 30de acbd ca7d 75bd
000003d0: 84a2 a5bd cf2d 4d3d 3b74 963d 8aed a63d
000003e0: e2a4 60be 169a ebbd d5e8 9fbe 3635 de3d
000003f0: 96c1 c5bd 0b7c cf3e bcce 1eba c6bc 8cbe

actor.0.bias f4 [32]
-0.008181682 0.026953405 -0.00076920533 0.0 -0.020394 0.032236803 -0.00355125 0.013067757
-0.008432833 -0.0003619721 0.038754787 -0.013912514 -0.025854597 -0.009687459 -0.0296057 0.010956879
0.0068301293 -0.012510366 0.056488756 0.038603175 -0.005309606 0.0313416 -0.018594276 -0.007974213
0.054481607 0.023352232 -0.020949349 -0.021629214 0.0073511037 0.0 -0.02414333 0.028677523
00000000: 760c 06bc 63cd dc3c 7fa4 49ba 0000 0000
00000010: 5111 a7bc bd0a 043d 17bc 68bb 251a 563c
00000020: dd29 0abc 13c7 bdb9 57bd 1e3d 50f1 63bc
00000030: 05cd d3bc 26b8 1ebc a787 f2bc 7b84 333c
00000040: 47cf df3b 47f8 4cbc c160 673d 5d1e 1e3d
00000050: 34fc adbb 0d60 003d 0653 98bc 46a6 02bc
00000060: 1b28 5f3d 2e4d bf3c f89d abbc c02f b1bc
00000070: 87e1 f03b 0000 0000 3cc8 c5bc 20ed ea3c

actor.2.weight f4 [9, 32]
0.038127255 0.31758422 0.3590246 -0.098787956 0.40418512 -0.31139478 0.0037442334 0.023444774
0.4333416 -0.3996037 -0.25943807 0.07420522 0.08160834 0.04008205 -0.026105227 0.4796901
-0.007917247 0.30921918 -0.46447986 0.13615136 -0.01677613 0.022087267 -0.07579937 0.36526313
-0.053580645 0.18123554 0.22304344 0.2437266 0.2816177 -0.4323461 0.08624689 -0.3132367
0.38021693 0.39437371 -0.2872305 -0.032908905 0.37626237 -0.21762952 0.011115391 -0.082090706
0.0018207197 -0.1767813 0.23282057 -0.41013128 -0.34942314 0.1235545 0.19932221 -0.14868858
-0.28977668 -0.0035369028 -0.012360287 -0.5375557 -0.10251469 -0.15911354 -0.15267599 0.058830414
0.15783976 -0.35758385 0.1655707 0.06769448 0.23034881 0.10836218 -0.15456535 0.48919958
0.15150078 0.17573778 -0.03823671 -0.16279826 0.15113914 -0.20044935 -0.3387143 0.6532055
0.47467232 0.053693853 0.33833566 0.45966646 0.07520499 0.1278001 0.049052432 -0.12136897
0.47746003 0.17674367 0.1377785 -0.16226915 -0.3770373 0.10282481 0.08693397 -0.45045897
-0.2506583 -0.118396826 -0.07707733 0.1682957 -0.22246468 0.17224318 -0.07592192 0.29150733
-0.079205856 -0.33368292 -0.0028342505 0.22705683 -0.034814842 -0.34096566 0.417212 0.023758624
0.08581608 0.33368516 0.47555318 -0.14870039 -0.17819697 0.1251671 0.32543984 0.2341641
-0.11074296 0.17387316 -0.5689003 0.49174997 0.33237863 0.08876129 -0.16754344 -0.23640785
-0.012395344 0.051759604 0.29617408 -0.10351888 0.02443273 0.16402179 -0.1485617 0.41746166
-0.34507307 0.11312344 -0.054360975 0.023588166 -0.070788495 0.022145407 0.1233164 0.21743712
0.12734951 -0.25303814 -0.10969017 0.05267308 -0.80016637 -0.11368518 0.09135725 0.0653133
0.3439288 -0.45735025 -0.19483313 0.10472795 -0.3372036 0.5408543 0.55021113 0.20478676
-0.01295021 0.3671048 0.049843892 -0.31686664 0.019364333 0.06665828 -0.17957345 0.12664957
-0.4853022 0.06013788 0.16583848 -0.03140415 0.106563196 0.18811598 -0.7214226 0.044051297
0.0021892616 -0.19154325 0.19306222 0.056891486 -0.016323041 0.11070124 -0.24842563 0.04153869
0.107954405 0.21703845 0.07754738 -0.23602627 0.21463974 0.2724422 -0.480503 -0.40438342
0.22316954 0.33991092 0.60363364 -0.27812234 0.12400719 0.19153325 -0.13163461 0.23762916
-0.3393232 0.41942593 -0.16171278 -0.16764046 -0.22418073 -0.1210415 0.43186077 -0.12431899
0.5053051 -0.12330599 0.15071274 -0.054036774 -0.26962587 -0.23751503 -0.31466594 0.2034466
0.1910969 0.05259977 -0.02423143 0.36253616 -0.023917848 -0.36307514 -0.2550931 -0.30157384
0.51223 -0.20651925 -0.4811991 -0.24339217 0.09991193 0.023366887 0.1934169 -0.19316566
0.12445449 -0.16977768 -0.051496204 -0.18937734 -0.29245913 -0.2293162 -0.008939608 0.2715549
0.035463616 -0.26949716 0.21462539 -0.06549891 0.0059781866 0.1856313 0.22570805 -0.14858754
-0.17929278 0.2706998 0.72349256 0.28722265 0.15269352 0.195912 -0.13400911 0.17923267
0.33486778 0.17039123 -0.2187541 -0.22446291 0.5983785 -0.16010737 -0.30366752 0.02593749
00000000: 532b 1c3d 669a a23e 13d2 b73e 5751 cabd
00000010: 5af1 ce3e 236f 9fbe d061 753b 410f c03c
00000020: f3de dd3e db98 ccbe 11d5 84be e8f8 973d
00000030: 4622 a73d 132d 243d a1da d5bc f199 f53e
00000040: 57b7 01bc fa51 9e3e 4ed0 edbe 436b 0b3e
00000050: 186e 89bc 5bf0 b43c b33c 9bbd c503 bb3e
00000060: 6177 5bbd cf95 393e 8065 643e 7793 793e
00000070: 3230 903e 785c ddbe 36a2 b03d 9060 a0be
00000080: cbab c23e 5aeb c93e e00f 93be 7dcb 06bd
00000090: 76a5 c03e 46da 5ebe 541d 363c 2c1f a8bd
000000a0: 37a5 ee3a 2806 35be 8468 6e3e bafc d1be
000000b0: 97e7 b2be 240a fd3d 1f1b 4c3e d241 18be
000000c0: 9c5d 94be 62cb 67bb cd82 4abc 409d 09bf
000000d0: 39f3 d1bd a9ee 22be 1857 1cbe 29f8 703d
000000e0: bfa0 213e 3b15 b7be 5e8b 293e 67a3 8a3d
000000f0: 8fe0 6b3e feec dd3d 6146 1ebe 5e78 fa3e
00000100: 0523 1b3e 9bf4 333e 199e 1cbd 96b4 26be
00000110: 38c4 1a3e 9842 4dbe f66b adbe 7a38 273f
00000120: 4008 f33e 16ee 5b3d 553a ad3e 6759 eb3e
00000130: 1305 9a3d 08de 023e 34eb 483d 4b90 f8bd
00000140: a475 f43e 4bfc 343e cf15 0d3e e229 26be
00000150: 080b c1be d095 d23d 700a b23d 8fa2 e6be
00000160: 4956 80be 097a f2bd b8da 9dbd b555 2c3e
00000170: c8cd 63be 8460 303e f47c 9bbd 7340 953e
00000180: ae36 a2bd 7dd8 aabe d5be 39bb 9681 683e
00000190: 029a 0ebd 0d93 aebe d09c d53e 72a1 c23c
000001a0: 57c0 af3d c8d8 aa3e b57b f33e ea44 18be
000001b0: 4479 36be ce2b 003e 0da0 a63e b7c8 6f3e
000001c0: 34cd e2bd ce0b 323e 73a3 11bf a7c6 fb3e
000001d0: 882d aa3e 7bc8 b53d 8290 2bbe e614 72be
000001e0: d715 4bbc e101 543d 21a4 973e b501 d4bd
000001f0: 2627 c83c 54f5 273e 8f20 18be 89bd d53e
00000200: 6bad b0be 43ad e73d 9da9 5ebd f83b c13c
00000210: 8ff9 90bd 496a b53c 4f8d fc3d d6a7 5e3e
00000220: e967 023e 378e 81be 3da5 e0bd babf 573d
00000230: b4d7 4cbf c7d3 e8bd 8319 bb3d fbc2 853d
00000240: 7017 b03e d029 eabe 5682 47be 9c7b d63d
00000250: f3a5 acbe 6d75 0a3f a3da 0c3f 9fb3 513e
00000260: 1e2d 54bc 29f5 bb3e 1c29 4c3d 583c a2be
00000270: f3a1 9e3c 2384 883d 1ae2 37be 6db0 013e
00000280: 8879 f8be 2353 763d 90d1 293e a3a1 00bd
00000290: ce3d da3d 7aa1 403e 27af 38bf 226f 343d
000002a0: b779 0f3b ea23 44be 1ab2 453e 0c07 693d
000002b0: e6b7 85bc 55b7 e23d 4a63 7ebe 7924 2a3d
000002c0: 3317 dd3d 543f 5e3e 29d1 9e3d dfb0 71be
000002d0: 85ca 5b3e 8b7d 8b3e 7d04 f6be 580b cfbe
000002e0: 8e86 643e ce08 ae3e bc87 1a3f 0d66 8ebe
000002f0: 7bf7 fd3d 4b21 443e 39cb 06be 0f55 733e
00000300: c5bb adbe ffbe d63e 0998 25be f1a9 2bbe
00000310: a28f 65be 9be4 f7bd db1c dd3e f49a febd
00000320: ad5b 013f da87 fcbd 7154 1a3e aa55 5dbd
00000330: 670c 8abe 2437 73be e51b a1be 4e54 503e
00000340: e8ae 433e db72 573d fe80 c6bc 579e b93e
00000350: 5def c3bc fce4 b9be 909b 82be e367 9abe
00000360: 8121 033f c879 53be ba5f f6be cc3b 79be
00000370: a09e cc3d ea6b bf3c 140f 463e 38cd 45be
00000380: ffe1 fe3d 33da 2dbe afed 52bd 22ec 41be
00000390: 34bd 95be ded1 6abe 6f77 12bc 3e09 8b3e
000003a0: 4c42 113d 88fb 89be c2c6 5b3e 4b24 86bd
000003b0: aae4 c33b 2216 3e3e 0320 673e 5527 18be
000003c0: 8798 37be 2a99 8a3e cf36 393f d90e 933e
000003d0: b15b 1c3e 289d 483e af39 09be c588 373e
000003e0: ca73 ab3e 0a7b 2e3e 1301 60be 9bd9 65be
000003f0: 552f 193f 30f3 23be 4f7a 9bbe dc7a d43c

actor.2.bias f4 [9]
-0.12057815 0.050804127 -0.0012171642 -0.036860034 0.059918355 0.07059522 0.035586648 -0.008363519
-0.004300276
00000000: adf1 f6bd fd17 503d 4189 9fba 8cfa 16bd
00000010: f36c 753d 3a94 903d 4ec3 113d 2407 09bc
00000020: 54e9 8cbb

critic.0.weight f4 [32, 64]
0.15944783 0.097977825 -0.07067162 -0.02200156 0.16616042 -0.20246917 -0.13071157 -0.11855145
0.19722697 -0.047801245 0.25494382 -0.013387819 0.027312765 -0.20962517 0.6126874 0.040148187
0.11730005 -0.26440245 0.081844255 0.45860067 -0.15514936 0.04703683 -0.20861354 -0.039257195
0.0151480315 0.15050063 0.2980325 0.31800476 0.19169831 -0.065087415 0.0040262793 -0.21083502
0.10271965 0.006226686 0.034483485 0.0038407233 0.015251542 0.12986034 0.41262728 0.30810007
0.23126368 -0.1626894 0.02697224 0.12071992 -0.06882147 0.064898066 -0.07088874 0.08420784
-0.22444698 -0.026055416 0.0028050402 -0.13334346 0.19034025 0.31963032 -0.006617853 -0.31119147
0.52485186 0.23859431 -0.18818958 -0.1775935 0.24142978 0.20317169 0.4063186 0.16142851
0.21892644 0.20679952 0.062498428 0.105536416 0.4172261 -0.08275539 0.27697533 -0.12838039
-0.31777573 -0.10425466 -0.11313415 0.12912112 -0.122696154 -0.2223242 0.04784412 -0.26539415
0.15981379 -0.0852984 0.25057733 0.1992836 -0.06086254 -0.11613442 0.03747302 -0.049911674
0.35307378 0.11544414 -0.29111952 -0.05763721 -0.20996067 0.22101939 0.29572704 -0.42119923
-0.10289677 0.19719216 0.06130799 -0.01893642 0.041711777 0.1008021 0.26234093 0.39781207
-0.056424182 0.26727423 0.05165515 0.16994755 0.21418759 -0.07309542 -0.11818379 -0.31140712
-0.16312292 0.20923375 -0.015775254 -0.016396398 0.16953939 0.55696154 0.09939136 0.25848615
0.05394834 0.27311432 0.23528029 -0.33177766 0.00942391 0.36492532 0.3189886 0.058393545
-0.07242132 0.07085762 -0.16726135 0.15441333 -0.012715761 0.11347297 0.025173249 0.29424033
0.13164552 -0.16276968 0.14259 -0.21696202 -0.19704029 -0.29023102 -0.1866853 -0.1007685
0.2043915 -0.067929275 -0.14908355 0.10832162 0.013208308 -0.12793747 -0.10945903 0.10443883
-0.10500336 0.0013552604 -0.23678036 -0.0583199 0.010479736 0.15135144 0.28621703 -0.09187474
-0.08842458 0.072574094 -0.2811513 0.020036321 -0.47069198 0.22422463 -0.045756225 -0.22347006
0.09773549 0.09730923 0.0829608 0.3668002 -0.24349947 0.20699695 -0.14666513 -0.076498024
0.36069757 -0.18376245 0.16253999 0.06800412 -0.061505347 -0.11375672 -0.2927507 0.067489915
0.14234594 -0.01692545 -0.19713347 -0.30318627 0.24909556 -0.073527 0.116678104 -0.11865678
-0.16573824 -0.1682917 0.027667172 0.075039744 -0.51603985 0.102392435 -0.042329147 -0.051397987
0.14291938 -0.17137744 0.106335886 -0.045268163 -0.2714971 0.06420359 -0.10461738 0.057069417
-0.019149786 -0.2741982 -0.10195208 -0.051321946 0.26850918 -0.2549917 0.10200976 -0.007483741
0.17711067 -0.13116324 0.10475698 0.41582388 -0.08875737 0.09372203 -0.10086294 -0.29993495
0.042201396 -0.19026515 -0.065784864 -0.16477482 -0.005962489 0.07664493 -0.44086203 0.036137734
-0.3420898 -0.3134385 0.16062847 -0.1665033 -0.18283074 -0.037191782 0.20589781 -0.1289644
0.02568897 0.24304038 -0.19398026 -0.2964973 0.19670491 -0.20101699 0.017020155 0.11097126
-0.13084751 -0.031348288 0.048993196 0.10040253 0.38707954 0.3571028 -0.13962813 -0.03101913
00000000: 4b46 233e 99a8 c83d 48bc 90bd 9e3c b4bc
00000010: f525 2a3e 1454 4fbe 41d9 05be 1acb f2bd
00000020: def5 493e 3dcb 43bd ff87 823e 9558 5bbc
00000030: 05bf df3c fba7 56be 15d9 1c3f 6d72 243d
00000040: 023b f03d c25f 87be f69d a73d b5cd ea3e
00000050: 79df 1ebe b1a9 403d ca9e 55be 27cc 20bd
00000060: 732f 783c d61c 1a3e b797 983e 85d1 a23e
00000070: 904c 443e 8d4c 85bd e1ee 833b 23e5 57be
00000080: ae5e d23d 3a09 cc3b 8e3e 0d3d a5b4 7b3b
00000090: 9be1 793c 1cfa 043e e243 d33e 4bbf 9d3e
000000a0: 63d0 6c3e 0d98 26be e3f4 dc3c 013c f73d
000000b0: 45f2 8cbd 47e9 843d 1e2e 91bd 2975 ac3d
000000c0: 6ed5 65be 2b72 d5bc c4d4 373b 308b 08be
000000d0: 8ee8 423e 96a6 a33e 93da d8bb 7d54 9fbe
000000e0: b15c 063f 1152 743e c5b4 40be 12db 35be
000000f0: 5e39 773e 3d0c 503e fe08 d03e 844d 253e
00000100: 412e 603e 41c3 533e 5afe 7f3d 7a23 d83d
00000110: a99e d53e a87b a9bd b6cf 8d3e 2676 03be
00000120: 80b3 a2be 7883 d5bd e1b2 e7bd 5438 043e
00000130: 1f48 fbbd f5a8 63be 32f8 433d bee1 87be
00000140: 3aa6 233e edb0 aebd ac4b 803e 0011 4c3e
00000150: 004b 79bd e2d7 edbd 4f7d 193d 2f70 4cbd
00000160: 16c6 b43e fa6d ec3d 9e0d 95be ff14 6cbd
00000170: eeff 56be e852 623e 8969 973e 6da7 d7be
00000180: 8bbb d2bd beec 493e 161e 7b3d 8d20 9bbc
00000190: f8d9 2a3d 5571 ce3d 8d51 863e 06ae cb3e
000001a0: 0b1d 67bd 2bd8 883e 5a94 533d bb06 2e3e
000001b0: fe53 5b3e 0db3 95bd 580a f2bd c170 9fbe
000001c0: b209 27be 5f41 563e 1b3b 81bc bd51 86bc
000001d0: bc9b 2d3e 0895 0e3f b38d cb3d 4c58 843e
000001e0: eff8 5c3d a4d5 8b3e 51ed 703e c3de a9be
000001f0: be66 1a3c 7ed7 ba3e 7952 a33e 122e 6f3d
00000200: a151 94bd cd1d 913d 8f46 2bbe 871e 1e3e
00000210: c455 50bc 8464 e83d 2138 ce3c aba6 963e
00000220: 15ce 063e 18ad 26be 1d03 123e 4b2b 5ebe
00000230: eec4 49be 2999 94be 6e2a 3fbe b75f cebd
00000240: 014c 513e 811e 8bbd 5ca9 18be bad7 dd3d
00000250: a967 583c 0a02 03be 0e2c e0bd 06e4 d53d
00000260: 000c d7bd fea2 b13a 8d76 72be d9e0 6ebd
00000270: 33b3 2b3c dffb 1a3e 0a8b 923e d328 bcbd
00000280: f217 b5bd baa1 943d 10f3 8fbe 3623 a43c
00000290: 8afe f0be 249b 653e e16a 3bbd 56d5 64be
000002a0: 8b29 c83d 104a c73d 5ae7 a93d 3ccd bb3e
000002b0: ed57 79be 02f7 533e 622f 16be ffaa 9cbd
000002c0: 5aad b83e 392c 3cbe e270 263e be45 8b3d
000002d0: 08ed 7bbd 49f9 e8bd 6be3 95be 2738 8a3d
000002e0: 22c3 113e 3ea7 8abc 5bdd 49be 3b3b 9bbe
000002f0: e812 7f3e 5395 96bd eef4 ee3d 5302 f3bd
00000300: 49b7 29be a954 2cbe 44a6 e23c 70ae 993d
00000310: 301b 04bf 20b3 d13d 5461 2dbd b286 52bd
00000320: 7559 123e 917d 2fbe a1c6 d93d 1c6b 39bd
00000330: ab01 8bbe 2c7d 833d a341 d6bd 9fc1 693d
00000340: 03e0 9cbc b563 8cbe 41cc d0bd f636 52bd
00000350: 097a 893e 468e 82be 7eea d03d 2b3a f5bb
00000360: 805c 353e a84f 06be d48a d63d dee6 d43e
00000370: 6dc6 b5bd 56f1 bf3d 3b91 cebd 1391 99be
00000380: 5fdb 2c3d ded4 42be 37ba 86bd bbba 28be
00000390: fc60 c3bb 04f8 9c3d abb8 e1be 2905 143d
000003a0: 6526 afbe 037b a0be ca7b 243e d77f 2abe
000003b0: fb37 3bbe 6956 18bd e0d6 523e 3e0f 04be
000003c0: ad71 d23c 94df 783e c3a2 46be 7ece 97be
000003d0: 036d 493e 66d7 4dbe da6d 8b3c e644 e33d
000003e0: e4fc 05be 1067 00bd 17ad 483d d79f cd3d
000003f0: 4a2f c63e 2ed6 b63e adfa 0ebe d51b febc

critic.0.bias f4 [32]
0.21503547 0.20636396 0.0 -0.04279085 0.0023810593 0.22231854 0.20386311 -0.018668424
-0.03874618 0.20460019 0.2207453 -0.022064507 0.18443307 0.0 -0.0027968716 -0.028950443
0.20241491 -0.065331884 0.036596317 -0.014132156 0.0 0.0928723 0.21359782 -0.10784073
0.20225817 0.23588358 0.20147884 0.22921385 0.24070746 -0.016458977 0.0 0.20575814
00000000: 4232 5c3e 1351 533e 0000 0000 7545 2fbd
00000010: 8c0b 1c3b 79a7 633e 7ec1 503e 86ee 98bc
00000020: 50b4 1ebd b682 513e 0e0b 623e a0c0 b4bc
00000030: 06dc 3c3e 0000 0000 b84b 37bb 7b29 edbc
00000040: db45 4f3e b9cc 85bd 05e6 153d 8f8a 67bc
00000050: 0000 0000 d533 be3d 63b9 5a3e 9adb dcbd
00000060: c41c 4f3e 778b 713e 7850 4e3e 09b7 6a3e
00000070: 047c 763e fad4 86bc 0000 0000 43b2 523e

critic.2.weight f4 [1, 32]
0.38305148 0.26942283 0.070644274 -0.22272721 -0.32872218 0.24645273 0.45686445 -0.20682278
-0.27949977 0.42586792 0.15074664 0.44809616 0.24538662 0.1296463 0.07615303 0.22644418
0.29870358 -0.5716206 -0.42558786 0.28718585 -0.41391775 0.018773006 0.21904914 -0.22897851
0.48585457 0.4332307 0.22624245 0.19586968 0.4437497 -0.57608 -0.20526223 0.17944117
00000000: 531f c43e caf1 893e f2ad 903d 9a12 64be
00000010: 464e a8be 1b5e 7c3e 23ea e93e 5ac9 53be
00000020: 981a 8fbe 5c0b da3e 545d 1a3e dc6c e53e
00000030: a146 7b3e 00c2 043e 1ff6 9b3d fce0 673e
00000040: adef 983e ba55 12bf a7e6 d9be 060a 933e
00000050: 07ed d3be d9c9 993c 6b4e 603e 5879 6abe
00000060: eec1 f83e 6ad0 dd3e 1aac 673e 1092 483e
00000070: 2933 e33e fb79 13bf 4330 52be 6dbf 373e
