logs/base/checkpoint_episode_4400.pt (torch, 720046 bytes, 39 tensors)

shared_net.0.weight f4 [128, 30]
000000 8f 1a c2 3d 55 98 a3 bd 2b 9f 7a 3e f1 df 8c be
       0.09477722 -0.079880394 0.2447478 -0.27514604
000010 c8 88 87 bd 7e bd 1e be ed 6f a2 be 26 13 8f 3d
       -0.06617886 -0.15501973 -0.31726018 0.06986074
000020 a9 d6 a0 bd 99 4d b4 bc 03 c0 32 be 96 4f a1 be
       -0.07853443 -0.022009658 -0.17456059 -0.31506032
000030 0e 20 42 bd 11 10 e6 bc ec e8 5c 3d 8e 88 ca ba
       -0.04739385 -0.028083833 0.05393307 -0.0015452073
000040 c6 17 21 3d b2 93 fa 3d de 37 9a 3d 07 ba 38 3c
       0.039329313 0.12235202 0.07530187 0.011274821
000050 ab cf f1 3d bd d0 ba bd 67 aa 26 3e 66 b0 37 bd
       0.11807188 -0.09121845 0.16275941 -0.04484596
000060 8d 4c 1f 3e 90 e1 a6 3e e2 04 28 3e a0 8d 64 3e
       0.15556546 0.32593966 0.16408113 0.2231965
000070 91 2d 66 3e 20 65 3f 3e 03 2a 56 3c cf 06 05 bc
       0.2247832 0.1869092 0.01307154 -0.008119299
000080 e1 f7 54 be da 2c 7b 3d 91 79 b7 3a c9 e2 55 3e
       -0.20797683 0.06132207 0.0013998022 0.20887293
000090 8d 91 ef 3b 13 39 5c 3d 84 e8 2d 3e 10 ba aa 3b
       0.007311052 0.053765368 0.16983229 0.0052101687
0000a0 70 d2 9e 3e a5 3c b8 bd f5 5b 5f bd 72 4a d0 bb
       0.31019926 -0.08995942 -0.054531056 -0.006356531
0000b0 40 77 4d 3d 5c 55 f9 3c f1 33 14 be c4 eb e7 bc
       0.050162554 0.03043621 -0.14472939 -0.028310664
0000c0 1a 6c b0 3d e6 a7 b6 bc 35 67 f3 bd 50 ab e7 bc
       0.08614369 -0.022296857 -0.118849196 -0.02827993
0000d0 c6 b4 68 3c 5a a8 0e be 25 15 f1 3d 55 63 05 bc
       0.014203256 -0.13931409 0.11771611 -0.008141358
0000e0 17 7a d0 bb 17 c9 7a 3e ca 53 8e 3c 99 92 bf bb
       -0.0063622105 0.24490772 0.017373938 -0.005846333
0000f0 ca 88 bd bc d5 19 a4 3d 21 b9 8e bf f5 b4 d0 3c
       -0.023136515 0.080127396 -1.1150247 0.025476912
000100 a4 3c 76 3e d3 dc 75 be 5a 38 81 3e 37 d7 26 be
       0.2404657 -0.24010019 0.25238305 -0.16293035
000110 03 cf 24 3d 8e 05 a9 bd 84 eb 97 bd 30 b6 49 3e
       0.040236484 -0.082530126 -0.07417968 0.19698405
000120 43 8f 6f be 53 95 c9 bd 6b f7 ab be 26 9e 3b bc
       -0.23394494 -0.098429345 -0.33587202 -0.01145128
000130 b2 e8 a8 bd 86 9b ad 3d 88 78 b5 bc 13 5d a2 bd
       -0.08247508 0.08476929 -0.0221522 -0.07927909
000140 4e 0d fe bd 69 4a 1b bd 6c 5c 84 3c 87 cc 2d 3d
       -0.124048814 -0.03791276 0.016157351 0.04243138
000150 09 37 06 be 1d 15 38 be 67 82 1b bb be 1c cf bd
       -0.13106932 -0.17976804 -0.002372885 -0.10112904
000160 a4 a0 80 bd 2f a6 78 be 86 ad 58 3e f5 25 21 be
       -0.0628064 -0.24282144 0.21159944 -0.15737136
000170 13 0b c3 3d 46 56 1e bd db 99 b7 bc 9d b7 b3 bd
       0.095235966 -0.038656496 -0.022412231 -0.08775256
000180 7b ba f4 be 1d ed 14 bf c8 3a 17 bf a1 66 30 bf
       -0.47798523 -0.58174306 -0.5907407 -0.689066
000190 ed dd 7c 3e 26 b6 09 be 90 78 05 bf bd 28 0d bf
       0.24694033 -0.1344839 -0.5213709 -0.55140287
0001a0 6c 25 19 bf da dd 8c 3e 97 72 f4 bc a2 f7 9b be
       -0.59822726 0.2751301 -0.029839797 -0.30462366
0001b0 c9 1c 9f be 2b 28 00 bf b8 57 68 3e ff de 0e 3e
       -0.3107665 -0.5006129 0.22689712 0.13952254
0001c0 ed 5a 73 3e 43 7c f7 bc 3e 95 2f be 46 1a 1b 3e
       0.23765154 -0.03021062 -0.17146775 0.15146741
0001d0 f2 a8 3e 3e 6b b4 36 3d 57 35 12 3e 1c 2c e5 bd
       0.18619135 0.044605654 0.1427816 -0.11190054
0001e0 15 3e 99 3d e5 88 2b be ec 37 3d 3e 2e 17 3a 3e
       0.07482544 -0.1675144 0.18478364 0.18172905
0001f0 36 28 c0 be 2c 49 90 3d 5c 52 93 bd 01 81 0e bf
       -0.3753068 0.070452064 -0.07193443 -0.55665594
000200 35 ba 38 bf 33 b5 43 bf 8f c2 1d be 68 c5 e6 bd
       -0.7215913 -0.76448363 -0.1540625 -0.11268121
000210 63 93 57 be 12 84 3e bf 29 ee 0e bf 21 b6 af 3d
       -0.21052317 -0.74420273 -0.55832154 0.0857966
000220 3e 03 4e be 0e 72 a4 be eb b5 7a bd 00 af 7d be
       -0.20118424 -0.32118267 -0.061208647 -0.24773788
000230 37 fa 80 3e 06 06 06 3e e9 74 6e be cb 9a 91 3d
       0.251909 0.13088235 -0.23286785 0.071096025
000240 ba 12 22 be 70 63 ff 3d 5e e3 86 3e a0 55 9a 3d
       -0.15827456 0.12470138 0.26345342 0.07535863
000250 18 e3 8e 3d fc 4a 80 3e d0 f7 81 3d 04 5b 5b bd
       0.069769084 0.2505721 0.063460946 -0.053553596
000260 f5 92 19 be dc 1c c6 bd a2 5e af bd 36 2f 74 3e
       -0.14997466 -0.09673473 -0.08562972 0.23846135
000270 cd 4e 49 3e 3d ab 34 be 26 7c 8e bd 80 ba 84 be
       0.19658966 -0.17643447 -0.06957273 -0.25923538
000280 e9 51 7c 3e c6 c4 fb 3d ad b0 18 3d bd be 3a bd
       0.24640621 0.12293391 0.037277866 -0.04559206
000290 fe 2c 84 be 47 46 c9 3d 99 59 0a 3e 47 86 05 3d
       -0.25815576 0.098278575 0.13510741 0.03259876
0002a0 a4 18 02 be 8d 32 92 bd 51 ff fb 3d c5 89 27 be
       -0.12704712 -0.07138548 0.12304557 -0.16361149
0002b0 9d 04 ac bd 77 10 49 be 17 cd 88 be c4 4c 9d 3e
       -0.083993174 -0.19635187 -0.2671897 0.3072263
0002c0 3f 01 e9 3d 53 34 82 3d 4a 57 ac be 28 06 b3 be
       0.11377191 0.06357636 -0.33660346 -0.34965634
0002d0 fd 76 01 3e d0 f4 29 3d eb c7 d2 be 8e 33 21 be
       0.12643047 0.041493237 -0.4116815 -0.15742323
0002e0 aa 99 87 3e 19 5e bc 3e 83 41 0b 3f cd cc 75 3e
       0.26484424 0.3679054 0.5439684 0.24003907
0002f0 e3 9b a9 3b d4 93 6a 3e 15 5e 35 3e 0f 37 ba 3e
       0.005176054 0.22907954 0.1771167 0.3637013
000300 8a 34 67 3e 26 85 49 3e a9 db a4 3e ca de c3 3e
       0.22578636 0.19679698 0.32198837 0.38255912
000310 4a 30 c0 3e b1 1d 11 3e 2f 4b 18 3e 19 ef 5c 3d
       0.37536842 0.14171483 0.1487243 0.05393896
000320 b2 9b 06 3e 7c ca ce 3e ae 44 96 3e d9 6d 23 3e
       0.1314533 0.40388858 0.29349273 0.15959872
000330 cd 96 38 bd 9e 2b 9e 3d 01 93 55 3e fe c6 09 be
       -0.04506569 0.07723163 0.20856859 -0.13454816
000340 49 6b 02 3d 50 ff 10 be ed 7b 65 bd 44 47 dd 3c
       0.031840596 -0.14159894 -0.056026388 0.027011521
000350 28 ee 7d be de 6a 02 be 58 dc 11 3f 9c d2 0e 3f
       -0.2479788 -0.12736079 0.5697684 0.55790114
000360 08 1d 81 3e ec 35 ab 3e b1 ad bd 3e 71 2d 72 3e
       0.25217462 0.33439577 0.3704658 0.23650147
000370 66 ff b3 3e 51 0d a5 3e ea 36 cc 3e a0 85 bd 3e
       0.3515579 0.32236722 0.39885646 0.3701601
000380 44 9d 3f 3e a9 e7 25 3e db 56 6a 3e c0 98 43 3f
       0.18712336 0.16201653 0.22884695 0.76404953
000390 14 8d 1f 3f 86 db a5 3d fe 90 14 3e 07 cf a4 3e
       0.62324643 0.080985114 0.14508435 0.321892
0003a0 e7 d3 0e 3e 81 0a 8b 3e 7e cc 68 3e ef 14 99 3e
       0.13948022 0.2715645 0.22734258 0.29898784
0003b0 23 97 35 3e e5 4b ff bd 41 a7 33 3e f7 ea da 3e
       0.17733435 -0.124656476 0.17544271 0.4275739
0003c0 04 81 14 bd c4 81 1d be 0a 89 0a be 1b 4e 65 be
       -0.03625585 -0.15381533 -0.13528839 -0.22393076
0003d0 09 06 5c 3e 2b 85 e4 3d f2 b4 fb 3b 69 c3 0d be
       0.21486677 0.11158212 0.0076814825 -0.13844074
0003e0 5b fd b5 3d 88 ed 6d be ff ba ce bd 3c f5 45 bb
       0.08886214 -0.23235142 -0.100942604 -0.0030205986
0003f0 72 12 dc 3b e8 44 0e be fc 19 8a 3d 6a cd 72 bd
       0.006716066 -0.13893473 0.067432374 -0.05927793

shared_net.0.bias f4 [128]
000000 36 2d ab bd 78 4b 05 3e 59 70 ca 3d 68 4c e7 ba
       -0.08358233 0.1301707 0.0988471 -0.0017646672
000010 ea a4 79 3d c9 0d a4 3d 9f f7 e5 3c 01 12 e6 3b
       0.06094829 0.08010442 0.028072177 0.007021189
000020 43 fb 5f bc b0 75 16 bc 10 9d b3 bd d2 99 72 3c
       -0.013670745 -0.009183332 -0.08770192 0.014807181
000030 dc b9 f9 3c 26 eb 34 3b 1e 18 a5 3d 1a 32 a7 bc
       0.030484132 0.002760598 0.080612406 -0.020409632
000040 b9 32 64 bd d4 92 0e 3e d7 8d cc 3c c2 02 30 3e
       -0.055712435 0.13923198 0.024969978 0.17188552
000050 34 00 98 3d 9f 83 5e bc 6c 07 d0 3d 70 4d 9c 3d
       0.07421914 -0.013581186 0.101576656 0.076319575
000060 00 00 00 00 cd b8 bb 3d 07 27 2b bc 7a d4 4b bb
       0.0 0.09166107 -0.010446317 -0.0031101988
000070 7c 02 4f bd e7 8a 32 3e 82 5c d0 bd 25 fc a7 3d
       -0.05053948 0.174358 -0.101738945 0.0820239
000080 c0 b6 f8 3c ff 56 df 3d 29 86 7b 3e a7 4b aa 3d
       0.03036058 0.10905265 0.24562897 0.08315211
000090 7e 7c f2 3c fc 67 47 3e 13 ae 0e be 5e a4 9f ba
       0.029600378 0.1947326 -0.13933592 -0.0012179723
0000a0 3c 9d e0 3c 66 c3 e5 bb e3 5d 94 bb c5 9a 31 bd
       0.027418725 -0.0070118187 -0.0045277937 -0.04336049
0000b0 3b cc a9 bc f1 19 e0 3b 38 11 0c 3e 5a 77 95 bb
       -0.020727267 0.00683903 0.13678443 -0.004561347
0000c0 31 97 df 3d 90 5a 01 3c 4d 92 9e bd 98 c9 aa 3d
       0.10917509 0.007895127 -0.077427484 0.08339232
0000d0 82 15 83 3d b7 7d 0a bd 4a 44 be 3d c1 a3 3a 3d
       0.06400587 -0.033811297 0.09290369 0.045566324
0000e0 00 00 00 00 c1 7f 19 3c 35 26 d2 bc 4e 26 4f bd
       0.0 0.009368838 -0.025652984 -0.05057364
0000f0 52 e0 a6 bd 2b 03 8e 3d 7a e3 28 bd 39 83 0e 3e
       -0.081482545 0.06934198 -0.041232564 0.13917245
000100 73 93 ec 3d cb 31 aa 3d 84 8f 1a 3e 44 5b e4 3d
       0.11551561 0.083102785 0.1509381 0.1115022
000110 b2 1a 97 bd eb 43 a0 3d 94 6b af bd dc 72 bc bb
       -0.073781386 0.07825454 -0.08565441 -0.005750997
000120 c2 7b d5 bd 5e b5 9a bc e8 52 68 3c 33 2e 40 3c
       -0.104239956 -0.01888531 0.014179923 0.011729765
000130 d2 43 de 3d cd 61 63 3d cc 21 07 bb 37 09 59 3d
       0.108527794 0.055513192 -0.002061951 0.052987304
000140 0b e5 d3 bb 2b 57 41 3d 35 d6 cc 3d 85 e3 8c bd
       -0.006466513 0.04720227 0.10001794 -0.068793334
000150 da 63 88 3d 68 b4 d3 3d fa e4 d8 3c a1 3b 08 bd
       0.0665967 0.10337144 0.026476372 -0.03325999
000160 ae a4 a9 ba 60 29 c9 3c b5 af 7d 3d b5 70 65 bc
       -0.0012942755 0.024555862 0.061935145 -0.014003922
000170 50 45 ee 3d b2 25 02 3e 91 f0 b6 3a f1 b6 6d bd
       0.11634314 0.12709692 0.0013957192 -0.058035795
000180 5d d3 14 bc e3 33 ba 3d 9c 0f 51 3e 3c dc 28 bd
       -0.009083596 0.09091928 0.20416111 -0.041225657
000190 31 cf 2b bc 29 61 ae bc be b5 ad bd 10 4d a7 3d
       -0.01048641 -0.021286564 -0.0848193 0.081689954
0001a0 05 5e 7b 3d ec 4f 20 3d 7d 03 f4 3d c4 b7 69 bd
       0.06136896 0.03913872 0.11914728 -0.05706002
0001b0 59 0b 93 bb 26 d8 28 3d e7 ad 9a 3d 00 00 00 00
       -0.0044874367 0.04122176 0.075527005 0.0
0001c0 91 1c 59 3d 38 17 b0 3d 18 24 32 3d 6b 55 75 bd
       0.05300576 0.085981786 0.043491453 -0.059895914
0001d0 d6 80 0c 3b 2d d0 c8 3d 47 93 24 bd 92 5d 38 bd
       0.0021439097 0.098053314 -0.040179517 -0.04501111
0001e0 cf e6 5b bc 00 00 00 00 20 d1 f1 3c 54 c7 28 bd
       -0.013421728 0.0 0.029518664 -0.04120572
0001f0 d8 c0 12 bd 29 c6 3c bd 64 3c 4a 3d 67 95 8a bc
       -0.03582844 -0.046087418 0.049374 -0.016916944

shared_net.2.weight f4 [128, 128]
000000 55 2f 56 3c b2 76 6e 3d ad cb fb 3e b2 d8 5b 3c
       0.013072808 0.058218665 0.4917883 0.013418363
000010 f8 dd 3a bd 9a d8 09 3e b3 df 5c 3d a2 fd 18 3c
       -0.045621842 0.13461533 0.053924274 0.0093378145
000020 16 d2 9a bd 9f f7 cb bd 9f bc 89 3b 52 cc 51 be
       -0.07559602 -0.09959339 0.0042033936 -0.20488098
000030 a3 a5 44 be 43 af 0d 3d 46 a1 54 be b1 9d e0 bc
       -0.1920381 0.03459097 -0.20764646 -0.027418943
000040 0c 34 87 3e 86 92 d3 3d a7 e9 3d 3e c6 93 02 3e
       0.26406896 0.103306815 0.18546163 0.12751684
000050 6c 38 28 3f 63 d9 45 bb 38 14 9b 3d 62 00 8f 3e
       0.6571109 -0.0030189387 0.07572216 0.2792998
000060 5f d3 f8 bc f1 10 ae 3d f7 cb 3e be 24 91 05 3d
       -0.030374227 0.08499325 -0.18632494 0.03260912
000070 8a 55 79 3c d4 16 9e bc 19 71 d3 bd c8 64 01 bd
       0.015218148 -0.019297995 -0.10324306 -0.031590253
000080 0c 5e 25 be ff 51 16 3d 61 2b c7 bd 82 ba 66 3d
       -0.16149157 0.03669929 -0.09725071 0.05633021
000090 bb 58 4d 3d 66 00 f1 3d 88 f9 d7 bd f7 7c a9 be
       0.050133448 0.11767654 -0.10545641 -0.33103153
0000a0 45 b3 33 3d 3a c5 04 be 3a dd 06 3c c7 1a f2 bd
       0.043872137 -0.12965861 0.008231455 -0.118215136
0000b0 b4 1c 96 3d 70 b0 5f 3e 3b e5 c5 3d 3f a7 cf bb
       0.073296934 0.2184465 0.09662863 -0.006337076
0000c0 1f 1f fd 3b 06 bf 9e bd 55 c1 72 3d 2f 00 88 3e
       0.007724657 -0.077512786 0.059266407 0.2656264
0000d0 6f 24 2e bd fb ff 94 3d 82 5d c0 3c 0c 75 82 bd
       -0.042515215 0.07275387 0.023482088 -0.06369981
0000e0 4a 0b 5c be 0d 6e 13 3c e6 75 d7 bc c7 2d e4 bc
       -0.21488681 0.008998406 -0.026301336 -0.02785386
0000f0 57 52 11 3e cb c4 ed 3d 1d 9f 73 3c 97 c6 36 3d
       0.14191566 0.11609801 0.0148694785 0.044622984
000100 8f 07 63 bb ca a7 59 3e c1 94 94 3d 86 e6 4f 3e
       -0.0034641956 0.21255413 0.07254935 0.20302781
000110 ba e6 89 be 26 86 49 3e 86 11 4b be 1f bf 83 be
       -0.26933843 0.1968008 -0.19830903 -0.2573175
000120 89 c3 a2 bd ac 35 5f be 60 8e 76 3e 70 b7 f2 3c
       -0.079474516 -0.21797818 0.24077749 0.029628485
000130 7c 64 21 3f 44 49 6e 3e 21 ba 9c bd 23 c6 f1 bd
       0.6304395 0.23270136 -0.07652689 -0.1180537
000140 76 f5 a5 be 14 67 68 3e 3b 0a 83 3e f3 7c b0 bd
       -0.32413834 0.22695571 0.25593743 -0.08617582
000150 8a 51 6e 3e 4d 06 78 3e f8 04 52 3d 3c 2f b1 3e
       0.23273292 0.24221154 0.05127427 0.3460635
000160 ee 1e 09 3e 35 1f fb bd f6 46 0e 3e fb 29 5e be
       0.13390705 -0.12261812 0.13894257 -0.21695702
000170 88 5f 09 3d 45 9d 8b 3d 4a c8 16 3d b9 85 a7 3d
       0.03353837 0.06817106 0.036812104 0.081798024
000180 73 72 16 be a7 66 82 be c3 a6 cb 3d 0a ae b7 bd
       -0.14692096 -0.25468943 0.09943917 -0.08968742
000190 f5 0e 40 be 02 c4 d6 bd 8f 8d 12 3e 12 c4 9b 3e
       -0.18755706 -0.10486604 0.14311813 0.30423027
0001a0 4a 97 81 3c 73 3e 41 bc 65 9b 75 bd 31 a4 98 bd
       0.01581921 -0.011794674 -0.05996265 -0.07453192
0001b0 9f 33 c7 3d 6d dc 59 be 45 28 17 3c e6 c2 e6 bd
       0.09726643 -0.21275492 0.00922591 -0.11267643
0001c0 19 1d bd 3d 54 b5 92 bd ac 31 1e 3e 9f 89 14 3d
       0.092340656 -0.07163492 0.15448636 0.03626406
0001d0 83 28 a7 bd 4b 17 2f 3d f4 70 ec bc e1 31 fb bd
       -0.08162024 0.042746823 -0.028862454 -0.12265373
0001e0 f7 fc 59 bd e5 29 1e 3e 40 dd 08 3d 24 27 5c 3e
       -0.05321976 0.15445669 0.033414125 0.21499306
0001f0 cc 63 0e bd b3 e7 38 bc ac 2d 0a 3e c5 5f 41 bd
       -0.034763142 -0.01128571 0.13493985 -0.047210474
000200 61 00 71 bd bc 03 8b bd 39 90 0c 3e 96 8e 85 be
       -0.058838252 -0.06787822 0.13726892 -0.26085347
000210 61 61 c2 3d 92 30 a3 3d a0 d2 28 be f9 9b 8f 3d
       0.0949123 0.079682484 -0.16486597 0.07012171
000220 fb 33 04 be f6 9d c3 bd f6 64 d7 bd 21 71 83 3e
       -0.12910454 -0.09551613 -0.10517304 0.25672248
000230 0a a0 b1 3c 7a 98 52 3b c1 00 3c 3d af f2 57 bd
       0.021682758 0.003213434 0.045899156 -0.052721675
000240 c3 02 98 3a 94 3d 4c bd 16 26 44 3d e3 0c c0 3d
       0.0011597503 -0.049863413 0.047887884 0.09377458
000250 58 59 7b 3e bb 0d 0f 3e 84 d8 95 3e fd 0a 5f bd
       0.245458 0.13970082 0.2926675 -0.05445384
000260 80 00 14 3d 3d a9 bb bc 38 42 05 3d 15 12 f1 3d
       0.03613329 -0.022907848 0.032533854 0.11771027
000270 8b d2 97 bd ff 5f 07 be 36 f2 3f 3e ae 77 46 bc
       -0.07413205 -0.13220213 0.1874474 -0.012113495
000280 46 5f 80 3e 84 aa 4d bd 1e b7 28 3e c9 2a ce bd
       0.25072688 -0.050211444 0.16476104 -0.10066754
000290 47 cf 89 3d 06 e6 1a 3e cc 76 ce 3d 46 9d 93 be
       0.06728988 0.1512681 0.100812525 -0.28830928
0002a0 75 f8 38 be 80 fd 2a be 8b 16 74 3d b5 ea 7a 3d
       -0.18063529 -0.16698265 0.05959181 0.06125899
0002b0 7f 33 1c bd b9 8b 55 3e 76 f3 13 bd 42 57 82 bd
       -0.038135048 0.20854081 -0.036120854 -0.06364299
0002c0 bd 5a 79 3d a2 74 9e bc 8e 9d 08 3d fe 75 f8 3d
       0.06087755 -0.019342724 0.03335338 0.1213188
0002d0 a1 c5 25 bd 1c 5f a5 bd e8 0f c5 3d 8f 29 4e 3d
       -0.040471677 -0.08074781 0.096221745 0.050332602
0002e0 bd 98 57 bd 94 f2 3a 3e db af 1b be 5d ce 5e bd
       -0.052635897 0.18256599 -0.15203802 -0.054396022
0002f0 a2 e5 2f bc 1e 74 67 3e ba f2 72 3d 31 88 0b be
       -0.010735901 0.22602889 0.059313513 -0.13626172
000300 52 23 d2 bd 0c 7c c3 3b b2 74 2b 3d f5 ee a6 3d
       -0.10260643 0.0059657153 0.041859336 0.08151046
000310 f0 43 c4 3d 1c ef 94 bc 3e 67 8a 3e b0 ff 66 be
       0.095832705 -0.018180422 0.27031893 -0.22558475
000320 db 16 82 be 2c 0b e8 3c 3a 96 48 3d 0e 2c 96 ba
       -0.25408062 0.02832564 0.048971392 -0.0011457221
000330 86 2d a8 3d 2a 6b 35 bc 98 93 53 bd 7d 8b da bd
       0.08211808 -0.011072913 -0.05165443 -0.106711365
000340 08 11 27 3e bb 6a 3e 3e 20 d3 a0 3c b6 fc fe 3c
       0.1631509 0.18595402 0.019631922 0.031126361
000350 73 88 32 bd 2d 23 db bc d5 9d ad 3c a5 9b 0a 3e
       -0.04358716 -0.026750172 0.021193424 0.13535936
000360 4d 64 34 be 29 cc 8f 3d ee c7 c7 3d a4 9b 28 be
       -0.17616387 0.07021362 0.097549304 -0.16465622
000370 9a 42 b5 bd 5d c9 f0 3d fa 28 ab 3d 18 0a 2a be
       -0.08850594 0.11757157 0.08357425 -0.16605413
000380 b0 08 52 3d 22 34 82 3d 13 4c 59 3e 25 2d 99 bd
       0.051277816 0.063576 0.21220426 -0.07479314
000390 0c 47 21 3d 7f 37 2f 3e 53 27 e9 bd 74 0c c8 bc
       0.039374396 0.17111014 -0.113844536 -0.02442
0003a0 a5 35 9e 3e 2a 39 fd 3d c0 75 f6 3d 1a a2 5a 3e
       0.30900303 0.12364419 0.12034178 0.213509
0003b0 7b 9f 71 be c3 2d 45 bd b3 11 b4 3d d6 e4 8d 3d
       -0.23595993 -0.048139345 0.08792438 0.069284126
0003c0 1d 97 fe bb 82 43 16 be 75 ec c4 bd 14 3c 47 3d
       -0.007769479 -0.1467419 -0.09615413 0.04864128
0003d0 bd 7b 9c bd 0c af 77 bd 10 19 3e bc fa c1 21 3e
       -0.07640789 -0.060469672 -0.011602655 0.15796652
0003e0 23 ba 04 3e 43 4c 98 3d ee bf 9f 3c ab 8c 2f be
       0.1296163 0.07436421 0.019500699 -0.17143504
0003f0 64 ca 80 bd 1e f7 67 be 88 b0 27 be e0 6a ee bc
       -0.06288603 -0.22652861 -0.16375935 -0.029103696

shared_net.2.bias f4 [128]
000000 8b ab c5 3c 6e 5f a2 3c 66 ea 2c bd 1c 6b c3 3d
       0.02412965 0.019820895 -0.042215727 0.09541914
000010 67 c0 43 bc fa de af 3a 1f e7 9c bb dc aa ac 3d
       -0.011947728 0.0013417893 -0.004788294 0.08431026
000020 00 00 00 00 f5 df c1 bc 02 f0 98 3d 43 e1 4c 3d
       0.0 -0.023666361 0.07467653 0.050019514
000030 ac 1e f0 3d ca 5b d9 3d ef 95 4a 3e 78 18 01 3e
       0.117246 0.106132105 0.19783758 0.1260699
000040 95 d7 59 3c c4 bc b8 bd c6 35 dc bc ff 26 cf 3c
       0.013296028 -0.09020379 -0.02688111 0.02528715
000050 f6 71 61 3e cc 4b 22 3d cf 7f 9e 3d 21 73 0f 3d
       0.22016129 0.039623067 0.07739221 0.035021905
000060 1d fd d2 3c f7 0c 05 3e 84 46 2a 3e 00 00 00 00
       0.02575546 0.12993227 0.16628462 0.0
000070 92 a0 06 3d 00 00 00 00 6f 7d 24 3e 0e 54 03 3e
       0.032867976 0.0 0.16063474 0.12825033
000080 0d e6 50 3e 70 aa 5d bc b2 fc 0f bd 4d de 94 3d
       0.20400257 -0.013529405 -0.0351531 0.07268963
000090 d6 33 d9 bc ee 66 0b 3e 1c 2c e8 3d 14 28 28 3d
       -0.026513975 0.13613483 0.11336538 0.041053846
0000a0 d9 73 08 3e a7 17 90 3d dd 95 c5 3b ef 16 5b 3d
       0.13325442 0.07035761 0.006029828 0.053488668
0000b0 a5 8d cf 3d 53 a9 3c 3e c2 5e ba 3d 11 67 db 3c
       0.101344384 0.18423967 0.09100105 0.026782544
0000c0 00 00 00 00 76 50 02 3e d6 40 97 3b 64 28 8d 3b
       0.0 0.12726006 0.0046158833 0.0043077935
0000d0 49 39 bd 3b 01 e8 8f 3c 07 f6 a8 3d 28 19 4f 3b
       0.005774651 0.017566683 0.08250051 0.0031600688
0000e0 a0 25 d5 bd fc a7 d7 3d 69 ad 65 3e bb 45 b3 3d
       -0.10407567 0.10530087 0.22429432 0.087535344
0000f0 54 ab e4 ba bb 40 e0 bc 01 17 38 3d 64 a4 19 bd
       -0.0017446079 -0.027374616 0.044943813 -0.03751029
000100 09 bb 01 3e a1 ed ca bc 48 b0 26 3e 69 a7 c8 3d
       0.12669004 -0.024771513 0.16278183 0.09797556
000110 a7 e2 1b bd 00 7c e5 3c a4 b9 4e 3c 1d 41 a7 3c
       -0.03805795 0.02801323 0.012617502 0.02041679
000120 76 9f 8d 3c 2f d9 3c bc 50 c8 e7 3c 9b 1d fc 3c
       0.017287951 -0.01152639 0.028293759 0.030775836
000130 13 f9 0e 3e 94 29 40 3d c8 84 46 3d 21 0f ee bb
       0.13962202 0.046914652 0.048466474 -0.007264987
000140 cc 7e dc 3d 05 50 d5 3d e9 47 f2 bc 0c ee 99 bc
       0.10766372 0.10415653 -0.029575305 -0.018790267
000150 9a bb b9 3d 32 8b 24 3e dd eb 82 bb b2 ac 20 3d
       0.09068985 0.16068724 -0.0039954023 0.039227195
000160 61 60 87 3e da 70 98 bb 60 68 b3 3c 96 30 05 3c
       0.2644072 -0.004652125 0.021900356 0.00812926
000170 8f 05 84 3d b9 45 21 bd fe cd 84 3d 00 00 00 00
       0.06446373 -0.039373133 0.064846024 0.0
000180 87 74 8d bc 5b 76 fd 3d b4 0a 19 3e 44 f2 3b 3d
       -0.017267479 0.1237609 0.14945489 0.04588534
000190 4c 3b 43 3e b1 54 a9 3d 77 92 32 3d ec 6a 74 bb
       0.19065589 0.08268107 0.04359671 -0.0037295176
0001a0 bb a7 c5 3c af 1c 98 3c 0c 11 34 3b 67 92 d7 bd
       0.024127832 0.018568365 0.002747598 -0.10525971
0001b0 70 0a 96 bc b6 73 c5 3d 48 b4 fe bc b2 e4 c5 3b
       -0.018315524 0.09641211 -0.031091824 0.0060392255
0001c0 03 45 59 3c 7a a1 f6 3c 6a 84 8a 3c 84 f1 1a 3c
       0.013261083 0.030106295 0.016908843 0.009456996
0001d0 e0 b6 95 3d b7 7b 4f 3e 9d 69 41 3e 49 ad 34 3d
       0.07310271 0.20262037 0.18887945 0.04411057
0001e0 c3 8c 12 bd 40 95 f1 3d da d5 bc 3d 09 8a c2 bc
       -0.035778772 0.11796045 0.092204764 -0.02374746
0001f0 73 19 44 3b 52 52 11 3e 28 22 d8 3d cf b6 8b 3d
       0.0029922395 0.14191559 0.1055339 0.06821977

shared_net.4.weight f4 [64, 128]
000000 90 a7 4c be 17 05 11 be 36 7e 37 3d 0c d1 4c 3e
       -0.19985795 -0.14162098 0.0447981 0.2000162
000010 0a b2 7d 3d 70 ad 3f bc d5 4b f5 ba e4 af e0 3d
       0.06193737 -0.011699066 -0.0018714616 0.109710485
000020 4d 0b de bc 6f ee 91 3e 45 f3 fa 3d 00 0a 74 bd
       -0.027104998 0.28502223 0.12253431 -0.05957985
000030 ed 69 bc 3d 0c 03 7f 3e 43 9d 19 bc d7 7a b1 bd
       0.09199891 0.24903506 -0.009375873 -0.08666008
000040 69 e7 aa 3d 24 ff 3b be 97 bc c4 3d 33 74 2f be
       0.08344919 -0.18359047 0.09606283 -0.1713417
000050 c2 ec 3c 3e 55 53 98 bd 36 bc 2a 3e df 6b 68 3c
       0.18449691 -0.07437769 0.1667336 0.014185875
000060 ce 53 87 be a4 cd d8 3d e9 eb 78 3e 37 c1 b1 bc
       -0.26431125 0.10586098 0.24308743 -0.021698577
000070 2a d1 48 be 18 94 a5 bd 24 ab 1f be 9e 33 e2 3d
       -0.1961104 -0.08084887 -0.15592629 0.110450014
000080 30 5f 85 3e 2c 8e 30 3e 96 be 7b 3c 9a 94 c1 3d
       0.26049185 0.17241734 0.015365263 0.094521716
000090 ea 5a a1 bd 03 af 06 3e 40 cf 27 3e 9e 0e 69 be
       -0.078786686 0.13152699 0.16387653 -0.22759482
0000a0 ee a3 2a be 2d 7f 40 be ed 0b 3c 3d 08 00 c8 bd
       -0.16664097 -0.18798514 0.04590981 -0.09765631
0000b0 64 8b a7 bd b5 3e 04 3d f1 41 0a be 98 f4 24 3e
       -0.081808835 0.032286365 -0.13501717 0.1610893
0000c0 76 18 8b be d1 78 2e be bb 34 39 be 2a a4 33 bd
       -0.271671 -0.17038275 -0.18086521 -0.04385773
0000d0 4b 49 64 3d d3 d5 72 bd 37 27 42 3e 77 fd 31 3d
       0.05573396 -0.05928595 0.18960272 0.043454614
0000e0 8b 6a 31 bd 69 5b 7d 3d 1f 97 8b 3d 57 a1 19 be
       -0.043314498 0.061854754 0.068159334 -0.15002953
0000f0 cd de 8e bd aa 2b 0a be 34 52 49 3e 36 02 bc be
       -0.069760896 -0.13493219 0.19660264 -0.36720437
000100 5c 77 24 be 00 11 8d bd 50 21 30 3e c6 b6 69 bd
       -0.16061157 -0.06888008 0.17200208 -0.057059072
000110 3a 07 25 be a1 3e 48 be bb ac d8 3d 54 09 cf 3e
       -0.16116038 -0.19555141 0.10579821 0.40436804
000120 31 d5 a6 bd c9 1e 94 3d fb 36 09 bd c3 b6 98 be
       -0.08146132 0.07232434 -0.0334997 -0.29826936
000130 c6 e7 2b 3e c3 00 48 3e 3f d0 0e bc a8 92 31 3c
       0.16787633 0.1953154 -0.008716642 0.010838188
000140 3f 6d 41 3c cc 28 a9 3d 58 15 c9 3d bd 59 55 be
       0.011805831 0.082597345 0.09818524 -0.20835014
000150 14 d0 49 bd f3 02 3c 3e e4 4e 88 3e 17 e0 56 3e
       -0.049270704 0.183605 0.2662269 0.20983921
000160 5b 52 0c be 1a 8d aa 3a 38 c8 37 be d5 24 e1 bc
       -0.13703291 0.0013012022 -0.17947471 -0.027483383
000170 20 96 63 bd 85 e7 d1 bc 4c 0a ca be 39 48 37 bd
       -0.055563092 -0.025623092 -0.3946098 -0.04474661
000180 54 25 2c be 45 60 ec 3e 7a e4 d4 bd 54 46 08 be
       -0.16811115 0.46167198 -0.10395141 -0.13308078
000190 c2 71 e3 3d 38 61 4d 3d bf ee eb 3d d3 0c 4c bd
       0.11105682 0.050141543 0.115201466 -0.049816918
0001a0 d4 77 7a be a5 48 a4 bc f3 d6 f9 3d 49 a3 2e 3e
       -0.24459773 -0.02005417 0.121992014 0.17054476
0001b0 43 d6 07 be e9 71 cd 3e 11 2c 3c 3e 90 fe 2b 3e
       -0.13265328 0.4012597 0.18376185 0.16796327
0001c0 d2 6d 71 bd 80 a7 c0 bd 6b 5a bc 3d de 3b 65 be
       -0.058942623 -0.09406948 0.09196933 -0.22386119
0001d0 bf 39 d7 3e 3b b2 c9 3d c2 09 5b 3d e4 29 21 3e
       0.42036244 0.09848448 0.053476103 0.15738636
0001e0 81 0b 2c be d6 cc 2c be b9 5b 14 be a9 a7 f4 3d
       -0.16801263 -0.16875014 -0.14488114 0.11946041
0001f0 a6 26 03 3e 83 93 be 3e 69 88 74 3e 5e 0f 9d 3e
       0.12807712 0.37221918 0.23880161 0.30675787
000200 b7 c8 ca bd 06 ab f0 3d 5d af a0 be 8f db 3b be
       -0.099015646 0.1175137 -0.31383792 -0.18345474
000210 f9 3e 72 3d 44 4b 7d 3d a6 ba d5 3d 6a d2 61 3e
       0.059142087 0.061839357 0.10435991 0.22052923
000220 d3 10 d1 3d fc 07 09 be fe b6 03 3e c4 7a 16 be
       0.10208287 -0.13381952 0.12862775 -0.14695269
000230 21 2b 0b 3e e2 8b 97 3e cf e2 87 3e 46 94 1a 3e
       0.13590671 0.2959891 0.2654023 0.15095624
000240 ad 9a 0e 3e 13 80 59 bd 3e 54 0e be fc 29 77 bc
       0.13926192 -0.053100657 -0.13899323 -0.015085693
000250 cd 79 7c 3d ef 7c 93 3d 7e 54 d4 bd 58 69 b4 bd
       0.061639596 0.072015636 -0.10367678 -0.08809155
000260 cc 32 76 3c 32 4a 1b 3d 62 36 e7 bd 9f 57 05 3e
       0.015026759 0.037912555 -0.112896696 0.13021706
000270 8b 44 a7 3d a0 55 8b 3e 58 71 64 3b 79 2b 42 3e
       0.081673704 0.27213764 0.0034857597 0.18961896
000280 44 f5 be 3c 3f 08 27 be 9c da b0 3d e6 25 2f bd
       0.023310311 -0.1631174 0.086354464 -0.042760752
000290 81 a2 ad 3d d8 65 40 3e ea 3e f4 3d c0 45 ba be
       0.08478261 0.1878885 0.119260624 -0.3638134
0002a0 29 da ab 3d cd bc 07 3e f9 ba 39 be c0 cb 14 3c
       0.0839122 0.13255616 -0.1813773 0.009081781
0002b0 e6 8b b9 bd 2a 07 43 3d a6 22 5b 3d 93 5c 24 be
       -0.09059887 0.047614254 0.05349984 -0.1605094
0002c0 29 bf dd 3d 12 82 03 be 13 4b a4 bd 25 58 ba 3d
       0.108274765 -0.12842587 -0.08022132 0.090988435
0002d0 a0 1a 3e be 17 1e 15 be 3b bc 9f 3d a3 7d 12 be
       -0.18564844 -0.1456226 0.07799574 -0.14305739
0002e0 58 b8 0c be 03 b4 22 3c d6 3e d8 bb ee da 02 3e
       -0.13742197 0.009930613 -0.0065992875 0.12778828
0002f0 bc 7d db bd 6d 3e 85 3e ca 72 22 3e b7 c4 8c 3d
       -0.10717341 0.2602419 0.15864101 0.06873458
000300 27 0e 70 bd e1 2f 92 be c4 38 3c 3e 0e 2c 40 3e
       -0.058607247 -0.28552154 0.1838103 0.18766806
000310 68 a7 06 3e a4 38 28 be 34 6d 05 3e fc 51 ce 3e
       0.13149798 -0.16427857 0.13029939 0.40296924
000320 b4 c8 a5 be 47 6f c6 bc 91 bd 82 bd f4 45 63 3e
       -0.32379687 -0.024222983 -0.06383813 0.22194654
000330 83 b5 05 3e a7 05 6e bd 7a 05 f0 bb eb 5c cc 3d
       0.13057522 -0.05811086 -0.0073248716 0.0997866
000340 15 68 62 3d 35 b6 6b 3e a7 b8 1c bd 6a b3 65 3d
       0.05527504 0.23018725 -0.038262036 0.056079306
000350 5f 7e c0 3e 25 fd 94 3e b0 f7 2b 3e 01 29 78 bd
       0.37596413 0.29099384 0.16793704 -0.06058598
000360 cf b2 b6 bd 7e 52 16 bd 53 82 40 3e d5 2a bc bc
       -0.08920824 -0.036699764 0.18799715 -0.022969643
000370 1b b5 62 3e 73 2c 0f 3e 4c 5c 8c 3c 23 ed ae bd
       0.22139399 0.139818 0.017133854 -0.08541324
000380 fb 82 a7 bb 1d e9 ae bd 3b bb 4d 3e 82 47 41 3e
       -0.0051120496 -0.085405566 0.20090954 0.18874934
000390 6d c6 61 3e 5f fc 4a be 41 7c 13 3e 6e 6d 0a 3d
       0.2204835 -0.19822834 0.14402868 0.033795767
0003a0 d6 25 9d be 4e ce 37 3e 92 20 32 be 83 48 fb 3d
       -0.3069293 0.17949793 -0.17395237 0.1226969
0003b0 cf 38 52 bc 9a 8b d2 3a 6a 35 40 3e d7 5c 0d be
       -0.012830927 0.0016063333 0.18770376 -0.13804947
0003c0 32 59 e8 3d 28 65 a4 be ff a9 fe 3d d7 5f 89 3e
       0.11345138 -0.32108426 0.12434768 0.26830932
0003d0 fb a5 42 be 51 68 49 3e 06 43 e6 bd 7a 75 3a be
       -0.19008629 0.196687 -0.112432525 -0.18208876
0003e0 17 c2 1e 3d cf 19 88 3e 00 4f af 3d ed 40 2c be
       0.038759317 0.2658219 0.0855999 -0.16821642
0003f0 8f 50 a5 3d 9f f9 2b bd db c7 c3 3d 00 16 01 3d
       0.08072006 -0.041986104 0.09559604 0.03151512

shared_net.4.bias f4 [64]
000000 36 ae e5 3d 53 69 e6 3d 77 de 98 bc 63 10 c4 3d
       0.11214869 0.11250558 -0.018660767 0.09573438
000010 83 d4 9e 3d b7 96 13 bc df 70 cb 3c 3f 03 a1 bc
       0.07755377 -0.009008101 0.024834095 -0.019654868
000020 00 00 00 00 1f 49 15 bc 18 d5 2d 3e be 2c bf bc
       0.0 -0.009111672 0.1697582 -0.023336764
000030 8f 11 06 3c c7 45 5a bd 0a 1e 68 3e 25 27 a4 3c
       0.008182897 -0.0532892 0.22667709 0.020038197
000040 a9 3d c7 3c 5a ad af bc b6 a3 8b 3d d1 82 09 3e
       0.024321394 -0.021444965 0.06818335 0.13428809
000050 3a 71 50 ba 0f cd dc bb cd a9 39 3c 4d aa cb 3d
       -0.00079514424 -0.006738312 0.011331988 0.09944592
000060 c0 2b 21 bc 7c 1b c5 3d de 8a e0 39 be e6 fc 3a
       -0.009837091 0.09624383 0.00042828073 0.0019294841
000070 f4 c8 76 bc f9 e0 af 3d 4b 3c 5f 3d 38 72 10 bc
       -0.015062559 0.08587832 0.05450086 -0.008816294
000080 13 e3 f8 bb 21 52 4c 3e 8d 4c 0f 3e 2b 61 eb 3c
       -0.0075954287 0.19953205 0.13994046 0.028732857
000090 e8 41 7f 3e 33 51 bb 3d 56 c0 46 3e 66 72 89 3d
       0.24927485 0.09146347 0.19409308 0.06711273
0000a0 d9 29 4c 3c 00 00 00 00 38 20 e1 3d ef 76 1b 3e
       0.012461149 0.0 0.10992473 0.15182088
0000b0 9e e1 ea bd 23 d2 2e bd d5 f5 40 bb 87 d9 75 bc
       -0.11468814 -0.04268087 -0.0029443402 -0.015005476
0000c0 26 e7 ab bc 69 82 a3 bc f3 db 16 be 66 63 98 bd
       -0.020984244 -0.019959645 -0.14732341 -0.07440834
0000d0 3b 21 56 3e 41 6b 6a 3e f9 29 9b bc 00 00 00 00
       0.20911114 0.22892477 -0.018940913 0.0
0000e0 da 6f 16 3c c6 b4 b7 3d a9 bf 29 3e df 1b 6a bb
       0.009181941 0.08970027 0.16577019 -0.003572218
0000f0 97 da 89 3b 3c e6 d4 bb ce 61 34 3e 70 de 39 3e
       0.004206966 -0.0064971726 0.17615435 0.1815126

actor.0.weight f4 [32, 64]
000000 99 94 95 3d ec 90 bf 3d f1 bb c7 3e b4 f1 71 3d
       0.073037334 0.093538135 0.39010575 0.059068397
000010 6e 61 fa bd 48 41 56 3b 4a 02 19 3e 90 a3 4e be
       -0.122256145 0.003269272 0.1494228 -0.20179582
000020 a9 ab ac be cf 8c 2a 3e 5e 31 31 3e a3 9f 6c bd
       -0.33724716 0.16655277 0.17303988 -0.05776943
000030 50 83 80 be b5 77 48 bd ab f0 7d bd 2d 37 74 3e
       -0.25100183 -0.048942287 -0.061997097 0.23849173
000040 5b ea 71 3e 07 36 07 be 41 a5 36 bd 72 e2 87 be
       0.23624556 -0.13204204 -0.044591192 -0.26539952
000050 ee f2 71 bd 11 0f 3d be b7 58 b9 3d 7d d4 83 3c
       -0.059069566 -0.18462779 0.09050124 0.016092533
000060 ad 97 14 3e 4d 03 28 3e 33 27 99 bd 55 38 ec be
       0.14510985 0.16407509 -0.0747818 -0.46136728
000070 7b 9b 92 3e c5 81 3e 3d 68 52 72 b9 78 45 47 bd
       0.28634247 0.046510477 -0.00023109617 -0.048650235
000080 0d c3 d5 be d1 72 f7 bd 10 6f 3b bd 1f c5 6b bc
       -0.41750374 -0.12082446 -0.045760214 -0.014390259
000090 f4 ef 7d be 99 49 f2 bd 4f 33 42 be f6 a8 9e 3e
       -0.24798566 -0.11830444 -0.18964885 0.30988282
0000a0 d6 da 81 3d 25 34 5c bd b6 2b bd bc f9 c2 aa 3e
       0.06340568 -0.053760666 -0.023092132 0.33351877
0000b0 e5 a3 01 3e 7a bf 3b 3e f2 1a 82 3b 7e 60 cb bd
       0.12660177 0.18334761 0.0039704973 -0.09930514
0000c0 c0 a3 a9 bd b0 d7 97 3d ff 36 86 3c f5 c6 11 3e
       -0.08283186 0.07414186 0.016383646 0.14236052
0000d0 e6 f1 bf 3d 92 46 2c be 27 e7 02 be 1b e7 a8 bd
       0.0937231 -0.16823795 -0.1278349 -0.08247205
0000e0 52 8c 08 be f3 bb c5 bd 09 79 25 be ff a7 a0 be
       -0.13334778 -0.09654989 -0.16159452 -0.3137817
0000f0 08 88 2f 3e e0 65 4b 3e e2 72 c6 bd 31 0f 32 ba
       0.17141736 0.19863081 -0.09689881 -0.0006792425
000100 e6 b7 f9 3e f6 fb 8b be e2 c9 6d be d2 14 9f 3e
       0.48773116 -0.27340668 -0.23221543 0.31070572
000110 6c a5 1d 3e f2 df 0e be f8 b7 b4 3e 28 0f 77 bd
       0.15395135 -0.13952616 0.35296607 -0.06031719
000120 82 41 92 bd 74 eb 52 bd 33 e6 a3 3d 75 5e 0a 3e
       -0.07141401 -0.051494077 0.080028914 0.13512595
000130 bc af 38 bd 42 df 07 bd 35 f2 5b 3c 44 1c 03 bd
       -0.04508947 -0.0331719 0.013424446 -0.032009378
000140 21 3b c6 bd d2 dc e3 bd 00 ab e0 3d b8 07 7b 3e
       -0.09679247 -0.111261025 0.10970116 0.24514663
000150 47 b2 95 bd 30 23 5e bc a3 78 bd bd 64 fd 14 3e
       -0.07309394 -0.013558194 -0.09251525 0.14549786
000160 12 46 f5 be 27 86 64 be 17 3c 4f 3e 2b 86 43 be
       -0.47905022 -0.223168 0.20237766 -0.1909415
000170 ac f4 85 3d f7 5d 6b 3e 15 2b 45 3f 95 03 22 3e
       0.06540808 0.22985063 0.7701886 0.15821679
000180 43 c2 b3 3c fd 51 b3 3c a0 91 80 bc 64 b0 57 3d
       0.021943217 0.021889681 -0.01569444 0.052658454
000190 b8 0b 24 3e 1c ef 6f 3e 4a 93 a6 3e 42 b7 ec 3e
       0.16020095 0.23431057 0.32534248 0.46233565
0001a0 7f c7 1b 3e e7 6e 1c bd 8d 49 ab be 3d 18 82 3e
       0.1521282 -0.038191702 -0.33454552 0.25409117
0001b0 3c b2 c6 bc c8 69 9f 3e b6 60 03 bd 0f f2 4c 3d
       -0.02425491 0.31135392 -0.032074653 0.050035533
0001c0 f1 38 93 bc d9 7e 94 3c a5 92 ce 3d 56 28 4f 3c
       -0.017971488 0.018126892 0.10086564 0.012643894
0001d0 45 3d ee bd df c7 f9 3d c7 80 21 bd 62 64 19 3c
       -0.1163278 0.121963255 -0.039429452 0.009362312
0001e0 35 c6 0c be c5 de 6f be 16 b1 05 3e ec 24 70 3e
       -0.13747485 -0.23424824 0.13055834 0.23451585
0001f0 cd 51 80 bd da ee 8e 3c 05 63 53 be df 40 61 3e
       -0.06265602 0.017447878 -0.20643242 0.21997403
000200 f1 c3 03 bd 9e 90 cf bd 37 b2 56 3d ca 0e fd bd
       -0.032169286 -0.101350054 0.052416053 -0.123563364
000210 04 22 1c 3d db 4a bf bd 60 bf 8a be c6 8f f0 3c
       0.038118377 -0.093404494 -0.27099133 0.029365432
000220 ef 1e 10 be 07 cb 8e be 38 bb 9c 3e 3d 02 32 3e
       -0.140743 -0.27889273 0.30611587 0.17383666
000230 be 45 0b be 11 dd bd be ce 9a 81 be 95 7f f5 3d
       -0.13600823 -0.37082723 -0.2531342 0.11987225
000240 a9 b9 2f be 2e 5c 74 3e 44 5d e2 3d e3 f9 ec bc
       -0.17160667 0.23863289 0.11052945 -0.028927749
000250 07 35 46 bd c7 32 22 ba 95 3d 06 be 45 df 94 3e
       -0.048390415 -0.0006187376 -0.13109429 0.2907659
000260 fb 5c 7e 3e bb 26 b9 3d 45 c0 3d be df 32 1d 3e
       0.24840157 0.090405904 -0.18530376 0.15351437
000270 14 d8 9b 3d 4e b5 f8 3e e1 da bc 3d 94 31 79 3e
       0.07609573 0.48575824 0.09221435 0.24335319
000280 80 ca fc 3d 91 c3 33 3e e0 2b 19 be 27 cf 09 3e
       0.12343311 0.17555071 -0.14958143 0.13457929
000290 97 ea b3 be b6 94 25 3e 4f 7a 23 be 13 9c 3f 3d
       -0.35139915 0.1617001 -0.15964626 0.046779703
0002a0 33 82 13 3d d0 ba e9 3d bb e2 8e bd b9 90 6f bd
       0.03601284 0.11412585 -0.06976839 -0.058487628
0002b0 30 36 89 bd 9c b9 33 3d 72 0e 6a be a6 2c 83 be
       -0.066997886 0.043878183 -0.22857073 -0.25620002
0002c0 3c 77 79 be 9d 26 3e 3d 5d 2b 29 3e 80 2a 05 be
       -0.2436189 0.046423543 0.16520448 -0.13004494
0002d0 9f b4 62 bb c2 b7 7e bd 72 3b 86 3e f8 68 87 3e
       -0.0034592522 -0.062186964 0.26217228 0.26447272
0002e0 f9 0b 4c 3d 66 2b 3a 3c 33 50 4a 3e 19 b1 16 3d
       0.049816106 0.011362886 0.19757156 0.036789987
0002f0 e7 12 67 3e 0b fc 57 be a6 a2 46 b9 76 14 43 bd
       0.22565804 -0.2109224 -0.00018943343 -0.047626935
000300 a1 ad 3f be 60 44 75 be dd 71 09 be 4e 15 9e bd
       -0.18718578 -0.23951864 -0.13422342 -0.07718907
000310 69 dd 0c be 75 1f 04 3e c4 77 ff bd 2e 06 91 3e
       -0.13756336 0.12902625 -0.12474015 0.28325027
000320 92 c5 67 be dc 6f 42 3d 4f 7f 17 be 4b bc f4 bc
       -0.22633961 0.04746996 -0.14794658 -0.029874941
000330 e4 a7 82 bc ce be 41 3e 87 05 32 bd e3 67 42 3e
       -0.015949197 0.18920442 -0.043462303 0.18984942
000340 b3 8a 92 bc 09 d4 ba 3d 4a f4 b5 bd bb 9e fb bc
       -0.017888403 0.09122474 -0.08884485 -0.030715337
000350 56 3a cc be 01 b7 88 be 98 45 a6 be d4 62 a7 3d
       -0.39888257 -0.2670212 -0.3247497 0.08173147
000360 f5 d1 cc bc e0 6e 6c bb ec 2b ea bd ff 94 23 3e
       -0.025002459 -0.003607683 -0.11434159 0.15974806
000370 f4 05 af 3c da f1 3a bd 85 1f 29 3e e1 38 81 bd
       0.021365143 -0.045640804 0.1651593 -0.06309677
000380 37 98 60 3e 01 45 6e bd 2c 60 6d 3c 6c 40 98 bd
       0.21933065 -0.058171276 0.014488261 -0.074341625
000390 55 49 45 be 6b 3f b0 3d 78 90 ef bd 73 a4 f0 be
       -0.19266255 0.08605846 -0.11697477 -0.47000465
0003a0 f6 ac 64 bd fa 67 73 be cb 6a 00 be f9 3d 94 3e
       -0.05582901 -0.23770133 -0.12540738 0.2895353
0003b0 e5 71 8c 3e 67 cd 25 3e 1c 9d c6 bd e1 6e 93 bc
       0.27430645 0.16191636 -0.09697935 -0.017997207
0003c0 ad a6 6b 3e b8 f5 75 3e 30 de ac bd ca 7d 75 bd
       0.230128 0.24019516 -0.084408164 -0.059934415
0003d0 84 a2 a5 bd cf 2d 4d 3d 3b 74 96 3d 8a ed a6 3d
       -0.08087638 0.050092515 0.07346388 0.08150776
0003e0 e2 a4 60 be 16 9a eb bd d5 e8 9f be 36 35 de 3d
       -0.21937898 -0.11503999 -0.31232324 0.10849993
0003f0 96 c1 c5 bd 0b 7c cf 3e bc ce 1e ba c6 bc 8c be
       -0.09656064 0.40524325 -0.00060580275 -0.27487773

actor.0.bias f4 [32]
000000 76 0c 06 bc ab f2 17 3d 7f a4 49 ba 00 00 00 00
       -0.008181682 0.03709666 -0.00076920533 0.0
000010 51 11 a7 bc 3a 59 d3 3c 08 1d 2a bb 80 34 5d 3b
       -0.020394 0.025799382 -0.0025957245 0.0033753216
000020 30 7d 0e 3c 20 ce 20 bb cc bf 21 3d 50 f1 63 bc
       0.008696839 -0.0024536923 0.039489552 -0.013912514
000030 27 3b a6 bc 26 b8 1e bc 26 66 03 bd 31 4e 56 3c
       -0.020291878 -0.009687459 -0.03207984 0.013080166
000040 b4 a5 13 bb 47 f8 4c bc b7 e6 53 3d d0 66 45 3d
       -0.0022529187 -0.012510366 0.0517337 0.048193753
000050 34 fc ad bb b2 6b 64 3d 62 cd 3e bc 46 a6 02 bc
       -0.005309606 0.05576677 -0.011645647 -0.007974213
000060 30 ef 9c 3d ec 4a 10 3d 03 19 f1 3b c0 2f b1 bc
       0.07662809 0.0352277 0.007357718 -0.021629214
000070 28 ed c2 3c 00 00 00 00 dc 89 f1 3c 30 96 b4 3c
       0.023794726 0.0 0.029484682 0.022044271

actor.2.weight f4 [9, 32]
000000 53 2b 1c 3d a0 8b b9 3e 13 d2 b7 3e 57 51 ca bd
       0.038127255 0.36239338 0.3590246 -0.098787956
000010 5a f1 ce 3e 37 3b 88 be bc 92 5a 3d d4 f7 9a 3d
       0.40418512 -0.26607677 0.053362593 0.07566801
000020 6e 43 f8 3e 13 16 c4 be c1 13 61 be e8 f8 97 3d
       0.48488945 -0.3829809 -0.21980192 0.07420522
000030 64 60 09 3e 13 2d 24 3d 3c 11 6c 3c 65 25 05 3f
       0.13415676 0.04008205 0.014408406 0.52010185
000040 52 58 1d 3d fa 51 9e 3e d0 aa db be ad 77 32 3e
       0.038414307 0.30921918 -0.42903757 0.17428465
000050 18 6e 89 bc 73 65 9c 3d 73 bf e8 bc c5 03 bb 3e
       -0.01677613 0.076365374 -0.028411603 0.36526313
000060 3e f9 68 bc 62 3f 6a 3e 35 28 88 3e 77 93 79 3e
       -0.01421958 0.22875741 0.26593176 0.2437266
000070 32 d3 a3 3e 78 5c dd be 58 ca eb 3d 2a cd 8b be
       0.31997067 -0.4323461 0.115132034 -0.27304965
000080 cb ab c2 3e 8c 84 d3 3e e0 0f 93 be 7d cb 06 bd
       0.38021693 0.41312063 -0.2872305 -0.032908905
000090 76 a5 c0 3e 53 e3 5b be d7 23 3f 3c 54 31 a3 bd
       0.37626237 -0.21473436 0.01166626 -0.07968393
0000a0 89 58 f3 3c 8f 63 09 be d8 65 80 3e ba fc d1 be
       0.029705303 -0.13416885 0.250777 -0.41013128
0000b0 1e 0f bd be 24 0a fd 3d 46 17 68 3e f4 ad d9 bd
       -0.36925596 0.1235545 0.22665128 -0.10628882
0000c0 ab 66 9b be 62 cb 67 bb 86 0e f4 3b e7 5b 06 bf
       -0.30351767 -0.0035369028 0.0074480204 -0.5248398
0000d0 39 f3 d1 bd 9d 35 16 be 47 95 25 be 29 f8 70 3d
       -0.10251469 -0.1466889 -0.16170226 0.058830414
0000e0 5c ef 30 3e 72 7b a7 be d3 86 24 3e 67 a3 8a 3d
       0.17278808 -0.3271137 0.16067056 0.06769448
0000f0 fa 2e 78 3e fe ec dd 3d 25 2e 1f be b2 7a 04 3f
       0.2423667 0.10836218 -0.15544946 0.5174972
000100 05 23 1b 3e 28 0e 2d 3e 19 9e 1c bd 96 b4 26 be
       0.15150078 0.16899931 -0.03823671 -0.16279826
000110 38 c4 1a 3e 34 50 5c be 4b 64 b6 be f9 ec 26 3f
       0.15113914 -0.2151497 -0.35623392 0.6520534
000120 e4 dc f6 3e 3e 80 03 3d 48 1a a9 3e 67 59 eb 3e
       0.482154 0.032104723 0.33027864 0.45966646
000130 71 4d 95 3d 08 de 02 3e bc cf f0 3c 7e 46 0c be
       0.072901614 0.1278001 0.02939593 -0.13698766
000140 aa ab ed 3e 4b fc 34 3e 83 9c fc 3d e4 eb 33 be
       0.46420032 0.17674367 0.1233454 -0.17570454
000150 08 0b c1 be 1e 44 c8 3d 44 62 09 3e 8f a2 e6 be
       -0.3770373 0.09778617 0.13416392 -0.45045897
000160 7d f3 85 be f7 3f f6 bd f7 4d 8d bd b5 55 2c 3e
       -0.2616233 -0.12023919 -0.06899636 0.1682957
000170 93 cf 6a be 84 60 30 3e 9a a6 d7 bd e2 09 8e 3e
       -0.22930746 0.17224318 -0.105298236 0.27741915
000180 ae 36 a2 bd b6 b3 97 be d5 be 39 bb 96 81 68 3e
       -0.079205856 -0.29629296 -0.0028342505 0.22705683
000190 02 9a 0e bd 9e 5d b4 be 6e 25 d2 3e 5b af 50 3d
       -0.034814842 -0.35227674 0.41044182 0.050948482
0001a0 cc 96 a6 3d 00 55 ac 3e b8 b8 03 3f ea 44 18 be
       0.08134231 0.336586 0.51453733 -0.14870039
0001b0 0c 90 55 be ce 2b 00 3e 08 d0 ad 3e 48 13 6b 3e
       -0.20855731 0.1251671 0.33947778 0.22956574
0001c0 23 c9 bd bd ce 0b 32 3e c3 46 0f bf bb 78 0a 3f
       -0.092668794 0.17387316 -0.5596735 0.5409047
0001d0 88 2d aa 3e 8c 6a 02 3e 76 0c c7 bd e6 14 72 be
       0.33237863 0.12735957 -0.097191736 -0.23640785
0001e0 e0 91 15 3d 21 30 99 3d 11 b2 b0 3e b5 01 d4 bd
       0.03651607 0.07479883 0.34510854 -0.10351888
0001f0 ff 29 9e 3d 54 f5 27 3e 9f 20 d8 bd 11 cf d3 3e
       0.07722854 0.16402179 -0.10553097 0.41368917
000200 6b ad b0 be 7b 67 0a 3e 9d a9 5e bd f8 3b c1 3c
       -0.34507307 0.13516037 -0.054360975 0.023588166
000210 8f f9 90 bd e8 98 fe 3c 08 27 04 3e c4 55 6f 3e
       -0.070788495 0.03107877 0.12905514 0.2337256
000220 1e 82 db 3d 03 28 8a be 9a af dd bd ba bf 57 3d
       0.10718177 -0.26983652 -0.10824509 0.05267308
000230 29 c0 5c bf c7 d3 e8 bd 35 ef a6 3d 37 97 6f 3d
       -0.86230713 -0.11368518 0.08151094 0.05849382
000240 69 7b bf 3e d0 29 ea be 07 1b 6d be a0 1e f2 3d
       0.37398842 -0.45735025 -0.23154841 0.118222475
000250 f3 a5 ac be 0c 6e 0c 3f 50 01 1c 3f 9f b3 51 3e
       -0.3372036 0.5485542 0.609395 0.20478676
000260 f5 c9 ee bb 9b 5a b9 3e bb cd 8b 3d 58 3c a2 be
       -0.0072872587 0.3620194 0.06826349 -0.31686664
000270 90 5d 7f 3c 23 84 88 3d 86 aa 1b be ad 1d fb 3d
       0.015586272 0.06665828 -0.15201768 0.122615196
000280 88 79 f8 be d2 c4 8a 3d 90 d1 29 3e a3 a1 00 bd
       -0.4853022 0.06775822 0.16583848 -0.03140415
000290 ce 3d da 3d ea 5d 4a 3e a6 6c 43 bf b0 09 94 3d
       0.106563196 0.19762388 -0.7633766 0.0722841
0002a0 f5 37 2b bd fb fc 40 be b0 1f 5f 3e 0c 07 69 3d
       -0.04180141 -0.18846504 0.21789432 0.056891486
0002b0 f4 74 eb bc 55 b7 e2 3d bf 82 77 be b6 c9 25 3d
       -0.028742291 0.11070124 -0.2417097 0.04047557
0002c0 08 9f 06 3e 54 3f 5e 3e 1f 42 b1 3d 56 14 72 be
       0.13146603 0.21703845 0.0865519 -0.2364057
0002d0 85 ca 5b 3e c4 1c 99 3e 5b c1 03 bf 58 0b cf be
       0.21463974 0.2990476 -0.5146691 -0.40438342
0002e0 c8 95 67 3e 2a 77 ac 3e a7 c7 24 3f 0d 66 8e be
       0.22615731 0.33684665 0.64367145 -0.27812234
0002f0 5f 50 f4 3d 4b 21 44 3e ab 39 f9 bd f5 13 7f 3e
       0.11929392 0.19153325 -0.121692024 0.24909957
000300 c5 bb ad be e3 9b d6 3e 09 98 25 be f1 a9 2b be
       -0.3393232 0.41915807 -0.16171278 -0.16764046
000310 a2 8f 65 be 75 03 e6 bd 59 b4 f2 3e 79 76 05 be
       -0.22418073 -0.11231128 0.4740322 -0.13033475
000320 fe 65 03 3f e1 48 f2 bd ab 57 0d 3e aa 55 5d bd
       0.513275 -0.11830307 0.13802974 -0.054036774
000330 89 f3 84 be 24 37 73 be f1 ab a2 be bb ab 45 3e
       -0.25967053 -0.23751503 -0.31771806 0.19303791
000340 28 76 5f 3e db 72 57 3d fe 81 38 bd f6 a8 be 3e
       0.21822417 0.05259977 -0.045045845 0.37238282
000350 5d ef c3 bc 66 ef c1 be e5 c2 8e be e3 67 9a be
       -0.023917848 -0.3787796 -0.27883068 -0.30157384
000360 8b fe 04 3f ad 83 56 be 4e 7a 01 bf cc 3b 79 be
       0.519509 -0.20948668 -0.5057725 -0.24339217
000370 85 4c d1 3d ea 6b bf 3c 84 b3 71 3e 97 40 56 be
       0.10219673 0.023366887 0.23603636 -0.20923077
000380 ff e1 fe 3d f2 9b 3c be af ed 52 bd 22 ec 41 be
       0.12445449 -0.18418863 -0.051496204 -0.18937734
000390 34 bd 95 be aa df 74 be e7 da 1e bd 4e d3 83 3e
       -0.29245913 -0.23913446 -0.03878298 0.2574715
0003a0 28 6f f0 3b c0 12 5e be 0c 36 67 3e 4b 24 86 bd
       0.0073374696 -0.2168684 0.22579211 -0.06549891
0003b0 83 f8 0b 3d 22 16 3e 3e 40 e2 7c 3e 63 8b ff bd
       0.034172546 0.1856313 0.24695683 -0.12477758
0003c0 d1 f4 7b be 2a 99 8a 3e 5d e1 43 3f 3d d6 91 3e
       -0.24605109 0.2706998 0.7651575 0.28483763
0003d0 b1 5b 1c 3e 52 ff 40 3e e2 cc 33 be c5 88 37 3e
       0.15269352 0.18847397 -0.17558625 0.17923267
0003e0 36 d3 ad 3e 78 9a 20 3e fd e8 66 be 9b d9 65 be
       0.33950204 0.15683925 -0.22549815 -0.22446291
0003f0 a5 b7 1e 3f 30 f3 23 be 12 94 a0 be 52 6b 1e 3d
       0.6199897 -0.16010737 -0.3136297 0.038676567

actor.2.bias f4 [9]
000000 b6 94 a3 bd 56 9b 94 3d e9 44 8c bc 13 9a 0c bd
       -0.07987349 0.072561905 -0.017122703 -0.034326624
000010 aa a1 8a 3d 2c e0 a4 3d 3c 00 e7 3c 40 5e c4 bb
       0.06769116 0.0805057 0.028198354 -0.005992681
000020 a4 d0 36 bc
       -0.011158142
