logs/base/checkpoint_episode_3900.pt (torch, 685614 bytes, 39 tensors)

shared_net.0.weight f4 [128, 30]
0.092987776 -0.07955449 0.24277341 -0.27582648 -0.06972585 -0.1495767 -0.3157709 0.06992914
-0.07955296 -0.017535515 -0.1694152 -0.31778818 -0.051187567 -0.030685226 0.050930556 0.003552619
0.038371935 0.11880503 0.0702475 0.0023175029 0.117174916 -0.09158448 0.15933624 -0.049189974
0.15024266 0.325934 0.1655232 0.22169286 0.22402681 0.18132815 0.009256934 -0.0116826175
-0.2111893 0.057687066 -0.0016795347 0.19928771 0.0021140464 0.046667024 0.16415906 -0.00018241635
0.30743083 -0.09353869 -0.06125377 -0.01274045 0.048341554 0.024910562 -0.14486933 -0.031389974
0.084078275 -0.01874957 -0.123989776 -0.031431988 0.012624147 -0.14049493 0.11789995 -0.0061933203
-0.008924781 0.24503882 0.01825454 -0.003125996 -0.026416136 0.07710686 -1.1258764 0.020174606
0.23642048 -0.25570443 0.2396409 -0.17456822 0.028975291 -0.09293581 -0.08683541 0.1884647
-0.24112289 -0.10574026 -0.3434822 -0.022431124 -0.08857729 0.08072418 -0.025893953 -0.08351109
-0.13583344 -0.044409975 0.0127631975 0.040389556 -0.133062 -0.19512817 -0.012554532 -0.10741035
-0.06682294 -0.24640371 0.21067575 -0.15932205 0.0963243 -0.041134536 -0.020536484 -0.090192586
-0.4786736 -0.58491 -0.5954183 -0.69214535 0.2517068 -0.12966359 -0.521166 -0.5568823
-0.6044076 0.28115416 -0.024713816 -0.30274805 -0.31441697 -0.506472 0.23510772 0.14354181
0.2391054 -0.030299762 -0.1729304 0.16179834 0.18931496 0.04665998 0.14451706 -0.11090081
0.07746486 -0.1648012 0.18409699 0.18330942 -0.3623044 0.06832836 -0.06517734 -0.55016077
-0.7165928 -0.7671421 -0.14912023 -0.09944943 -0.1945654 -0.73098767 -0.5578416 0.08963995
-0.19296446 -0.30818027 -0.048639055 -0.24561787 0.25973204 0.13612692 -0.22389425 0.08137482
-0.15587813 0.1357021 0.26809463 0.081941165 0.07665508 0.2557426 0.05921531 -0.058500115
-0.15419793 -0.100042716 -0.08221423 0.23286936 0.19464132 -0.18125995 -0.07373031 -0.25699365
0.24772164 0.12452852 0.035699308 -0.04824131 -0.2595379 0.09706388 0.13844043 0.036014017
-0.12749857 -0.07512422 0.1248094 -0.16471635 -0.08540878 -0.19990252 -0.27282175 0.31267223
0.110698506 0.060670264 -0.34033066 -0.3533459 0.12336942 0.03983127 -0.41131875 -0.15906441
0.2623513 0.3703463 0.5443304 0.2383599 0.0032245752 0.22726548 0.17816919 0.36157674
0.22149889 0.19056137 0.31531242 0.38428506 0.37669215 0.13922174 0.14283969 0.04406386
0.13500448 0.40578285 0.2915759 0.1545049 -0.054348975 0.08250381 0.21055554 -0.1371344
0.026324721 -0.14898159 -0.058920946 0.025653109 -0.25294304 -0.12939422 0.56420887 0.5524726
0.24393383 0.32627857 0.36430603 0.2323614 0.3456969 0.31593803 0.3913957 0.36199862
0.17967886 0.16054334 0.22809763 0.75848997 0.6170811 0.0727493 0.14438905 0.32156524
0.13475817 0.26483253 0.2211931 0.29491895 0.17565727 -0.1309659 0.16568883 0.41890514
-0.03625585 -0.15381533 -0.13528839 -0.22393076 0.21486677 0.11158212 0.0076814825 -0.13844074
0.08886214 -0.23235142 -0.100942604 -0.0030205986 0.006716066 -0.13893473 0.067432374 -0.05927793
00000000: 6070 be3d 77ed a2bd 9899 783e 2139 8dbe
00000010: 6dcc 8ebd a22a 19be b9ac a1be 0237 8f3d
00000020: aaec a2bd a4a6 8fbc 2e7b 2dbe 22b5 a2be
00000030: 0eaa 51bd 955f fbbc 8f9c 503d 0ed3 683b
00000040: e42b 1d3d 0d50 f33d ecdd 8f3d 3fe1 173b
00000050: 67f9 ef3d a590 bbbd 0a29 233e 6d7b 49bd
00000060: 36d9 193e d2e0 a63e ea7e 293e 7403 633e
00000070: 4967 653e 16ae 393e 65aa 173c 7368 3fbc
00000080: 0242 58be 4649 6c3d d523 dcba 1412 4c3e
00000090: d08b 0a3b ec25 3f3d 5019 283e 0447 3fb9
000000a0: 9367 9d3e 3691 bfbd 3ce5 7abd 52bd 50bc
000000b0: cb01 463d 3c11 cc3c a058 14be c692 00bd
000000c0: 3b31 ac3d b398 99bc 5aee fdbd d4be 00bd
000000d0: 83d5 4e3c e7dd 0fbe 8775 f13d 56f1 cabb
000000e0: 3f39 12bc 75eb 7a3e 8c8a 953c 83dd 4cbb
000000f0: a766 d8bc 34ea 9d3d b81c 90bf 3745 a53c
00000100: 3618 723e b1eb 82be 6d64 753e 03c2 32be
00000110: 975d ed3c 2155 bebd c3d6 b1bd e4fc 403e
00000120: ebe8 76be 598e d8bd e6dc afbe 7ac1 b7bc
00000130: 0368 b5bd b852 a53d 8e1f d4bc dd07 abbd
00000140: ec17 0bbe 3ce7 35bd bb1c 513c 856f 253d
00000150: 6841 08be aecf 47be 86b1 4dbc f5f9 dbbd
00000160: 77da 88bd 4151 7cbe 62bb 573e 5225 23be
00000170: ad45 c53d b07c 28bd 213c a8bc e4b6 b8bd
00000180: b514 f5be a9bc 15bf 556d 18bf 7030 31bf
00000190: b7df 803e 88c6 04be 236b 05bf d78f 0ebf
000001a0: 75ba 1abf 70f3 8f3e a174 cabc cb01 9bbe
000001b0: 43fb a0be 26a8 01bf 14c0 703e a0fc 123e
000001c0: 0cd8 743e 3537 f8bc ab14 31be 77ae 253e
000001d0: c8db 413e 891e 3f3d 48fc 133e f71f e3bd
000001e0: e6a5 9e3d a5c1 28be ec83 3c3e 77b5 3b3e
000001f0: f67f b9be bdef 8b3d b27b 85bd 56d7 0cbf
00000200: a072 37bf 6d63 44bf f9b2 18be 25ac cbbd
00000210: 273c 47be 0222 3bbf b5ce 0ebf 2695 b73d
00000220: 7a98 45be cec9 9dbe bf39 47bd 4083 7bbe
00000230: 99fb 843e db64 0b3e 8944 65be d7a7 a63d
00000240: 849e 1fbe 7ef5 0a3e b343 893e c5d0 a73d
00000250: 57fd 9c3d b2f0 823e c18b 723d d19d 6fbd
00000260: 10e6 1dbe 32e3 ccbd ef5f a8bd 4e75 6e3e
00000270: 0e50 473e 359c 39be ebff 96bd ac94 83be
00000280: beaa 7d3e cf08 ff3d 7039 123d ae98 45bd
00000290: 27e2 84be 6dc9 c63d 54c3 0d3e 6f83 133d
000002a0: fc8e 02be bada 99bd 129c ff3d 67ab 28be
000002b0: ccea aebd 3fb3 4cbe 4baf 8bbe 9316 a03e
000002c0: e6b5 e23d 6281 783d d23f aebe c1e9 b4be
000002d0: 1ba9 fc3d 1d26 233d 5f98 d2be c8e1 22be
000002e0: e952 863e 089e bd3e 3d59 0b3f 9e14 743e
000002f0: 6553 533b 48b8 683e fc71 363e 9620 b93e
00000300: 9bd0 623e 8522 433e a170 a13e 03c1 c43e
00000310: cbdd c03e 2590 0e3e 9144 123e 4e7c 343d
00000320: 9d3e 0a3e c5c2 cf3e 7049 953e 8836 1e3e
00000330: 089d 5ebd c2f7 a83d df9b 573e f66c 0cbe
00000340: f1a6 d73c a18e 18be 1757 71bd 7826 d23c
00000350: c081 81be eb7f 04be fe6f 103f d86e 0d3f
00000360: cac9 793e fc0d a73e 5286 ba3e 26f0 6d3e
00000370: 2fff b03e a1c2 a13e 0465 c83e e257 b93e
00000380: bcfd 373e 7965 243e 6d92 693e 662c 423f
00000390: 07f9 1d3f 96fd 943d b9da 133e 33a4 a43e
000003a0: 0cfe 093e 2198 873e 7280 623e 9eff 963e
000003b0: 80df 333e ed1b 06be 55aa 293e bc7a d63e
000003c0: 0481 14bd c481 1dbe 0a89 0abe 1b4e 65be
000003d0: 0906 5c3e 2b85 e43d f2b4 fb3b 69c3 0dbe
000003e0: 5bfd b53d 88ed 6dbe ffba cebd 3cf5 45bb
000003f0: 7212 dc3b e844 0ebe fc19 8a3d 6acd 72bd

shared_net.0.bias f4 [128]
-0.08445123 0.12557526 0.093306534 -0.0048554176 0.06275229 0.07445544 0.0254867 0.0038845849
-0.013670745 -0.006527095 -0.08687634 0.014739904 0.03086522 0.0024978505 0.08068002 -0.017026756
-0.055712435 0.13618508 0.018842068 0.16865635 0.07710718 -0.013581186 0.091113225 0.06703902
0.0 0.08449757 -0.010446317 0.00018605012 -0.046195976 0.17099434 -0.09904119 0.081348196
0.030769039 0.10684734 0.24135533 0.08114407 0.030745635 0.19184026 -0.14100522 -0.0012179723
0.026484162 -0.0070118187 -0.0045277937 -0.0358108 -0.021942938 0.002204013 0.13270028 -0.0009534211
0.10154804 0.008654056 -0.07832102 0.08263094 0.06015375 -0.031680025 0.08403714 0.046591695
0.0 0.010332517 -0.025652984 -0.05593759 -0.08669187 0.067033485 -0.041487813 0.13721155
0.110682376 0.07702432 0.14392118 0.11158753 -0.080169454 0.07134973 -0.08067599 -0.005750997
-0.10192315 -0.01888531 0.008158468 0.010677687 0.10519158 0.0475658 -0.002061951 0.052791324
-0.009750062 0.040096786 0.09353921 -0.073373996 0.059887554 0.09789332 0.027504204 -0.0326244
-0.0033189845 0.025550522 0.055862 -0.019469585 0.11305676 0.12339066 0.0071613058 -0.06031694
-0.015765535 0.089950606 0.20106323 -0.038421858 -0.0065969513 -0.018877199 -0.08256994 0.08074251
0.05751996 0.037638485 0.11311245 -0.054644015 -0.0032793223 0.042262673 0.07415884 0.0
0.05249169 0.08429703 0.044745937 -0.05676635 0.0025766506 0.10080722 -0.038506974 -0.039943125
-0.013421728 0.0 0.03395213 -0.037834372 -0.034676928 -0.05266329 0.0495131 -0.014483154
00000000: c4f4 acbd cd96 003e 7f17 bf3d 321a 9fbb
00000010: 4684 803d 187c 983d 7cc9 d03c 8594 7e3b
00000020: 43fb 5fbc 3ee1 d5bb 39ec b1bd a37f 713c
00000030: 0fd9 fc3c fab2 233b 913b a53d b27b 8bbc
00000040: b932 64bd 1a74 0b3e ae5a 9a3c 40b4 2c3e
00000050: 5fea 9d3d 9f83 5ebc 9299 ba3d c14b 893d
00000060: 0000 0000 100d ad3d 0727 2bbc 7316 4339
00000070: fe37 3dbd 2419 2f3e 1cd6 cabd e299 a63d
00000080: 5a0f fc3c c7d2 da3d da25 773e dd2e a63d
00000090: 45de fb3c c671 443e ac63 10be 5ea4 9fba
000000a0: 50f5 d83c 66c3 e5bb e35d 94bb 58ae 12bd
000000b0: adc1 b3bc 3471 103b 95e2 073e 02ef 79ba
000000c0: 6bf8 cf3d bec9 0d3c c566 a0bd 693a a93d
000000d0: c763 763d eac2 01bd aa1b ac3d efd6 3e3d
000000e0: 0000 0000 b849 293c 3526 d2bc d01e 65bd
000000f0: 828b b1bd da48 893d 20ef 29bd 2f81 0c3e
00000100: 71ad e23d edbe 9d3d 1360 133e 0188 e43d
00000110: e22f a4bd cf1f 923d 7439 a5bd dc72 bcbb
00000120: 16bd d0bd 5eb5 9abc 18ab 053c 77f1 2e3c
00000130: af6e d73d 5bd4 423d cc21 07bb b73b 583d
00000140: b9be 1fbc 873c 243d 7c91 bf3d 1b45 96bd
00000150: a74c 753d 4b7c c83d 7f50 e13c 2aa1 05bd
00000160: 5283 59bb 544f d13c 8dcf 643d ae7e 9fbc
00000170: 4d8a e73d 3eb4 fc3d 63a9 ea3b e50e 77bd
00000180: b926 81bc 0638 b83d 85e3 4d3e 3d60 1dbd
00000190: 3d2b d8bb 5ba4 9abc 6e1a a9bd 545c a53d
000001a0: 0d9a 6b3d d02a 1a3d 80a7 e73d 67d2 5fbd
000001b0: e6e9 56bb a01b 2d3d 97e0 973d 0000 0000
000001c0: 8701 573d eca3 ac3d 8447 373d d583 68bd
000001d0: 06dd 283b 0474 ce3d 7db9 1dbd 679b 23bd
000001e0: cfe6 5bbc 0000 0000 6311 0b3d 37f8 1abd
000001f0: 6509 0ebd 76b5 57bd 40ce 4a3d c04a 6dbc

shared_net.2.weight f4 [128, 128]
0.018867103 0.05615594 0.4964194 0.010025675 -0.0462605 0.13421896 0.053010974 0.0076119667
-0.07559602 -0.09839339 0.013969025 -0.20272776 -0.19274782 0.03361215 -0.20874634 -0.021830862
0.26406896 0.102883145 0.18027778 0.13068345 0.66447693 -0.0030189387 0.07437124 0.26827967
-0.030374227 0.08468143 -0.18632494 0.021825291 0.019935772 -0.021084098 -0.09666236 -0.032973647
-0.16031569 0.034430265 -0.09883695 0.054243688 0.048740484 0.11676653 -0.10928162 -0.33103153
0.04898725 -0.12965861 0.008231455 -0.11274581 0.07304351 0.21872944 0.094195604 -0.0005327898
-0.002297174 -0.078811474 0.06101381 0.26833 -0.043080557 0.07414482 0.023204897 -0.060769707
-0.21488681 0.006801623 -0.026301336 -0.027069692 0.13713062 0.10784991 0.023357488 0.043555066
-0.0032289987 0.21347713 0.07068484 0.19757964 -0.26739514 0.19868462 -0.18979076 -0.2573175
-0.075843 -0.21797818 0.24424472 0.029409157 0.63586754 0.223856 -0.07652689 -0.11925595
-0.32412 0.226331 0.26005796 -0.086924545 0.23119482 0.22632802 0.050578743 0.3465709
0.13730174 -0.1238487 0.13795011 -0.22088379 0.031467527 0.06744342 0.037134152 0.08670435
-0.14259756 -0.2551272 0.10300515 -0.08982688 -0.18396807 -0.10069026 0.14327246 0.30177557
0.015490775 -0.012108665 -0.059473407 -0.06503824 0.095902205 -0.21351384 0.006601482 -0.11267643
0.090878405 -0.07315274 0.15388945 0.037154127 -0.07702744 0.029559866 -0.029112902 -0.12397479
-0.05321976 0.15445669 0.03241744 0.2163378 -0.034630924 -0.009814625 0.13191935 -0.042677443
-0.06178503 -0.0677203 0.14118874 -0.25969753 0.09485579 0.08164212 -0.16561402 0.06402147
-0.12910454 -0.09294328 -0.10420232 0.2566678 0.021253217 -0.00043366235 0.045038156 -0.047677707
0.0011597503 -0.048420127 0.039560445 0.097100586 0.25063014 0.13970082 0.29389048 -0.06989727
0.03613329 -0.020479992 0.032533854 0.11343354 -0.074115396 -0.13335675 0.19117622 -0.013564177
0.24762323 -0.052454013 0.1653642 -0.107439786 0.07186781 0.1516528 0.099792525 -0.28830928
-0.17687944 -0.16698265 0.05959181 0.06148109 -0.03519385 0.21023212 -0.03706914 -0.06476375
0.051190387 -0.020190014 0.03321223 0.12452515 -0.038425673 -0.08412409 0.09615203 0.054510217
-0.052635897 0.17626628 -0.15203802 -0.051504917 -0.010856852 0.22115318 0.06402388 -0.13632117
-0.10497383 0.00809448 0.03827008 0.07146841 0.09778758 -0.014523717 0.27702084 -0.22558475
-0.25322857 0.02832564 0.050993677 -0.00231621 0.08641517 -0.024923885 -0.05165443 -0.106422305
0.1634261 0.18660988 0.023732476 0.026632922 -0.04304503 -0.04232446 0.020317405 0.13421273
-0.1708893 0.06932866 0.098333955 -0.17047428 -0.09144344 0.11879203 0.08542775 -0.16295706
0.049528923 0.06307608 0.21633674 -0.076350786 0.03786903 0.17844154 -0.113721035 -0.026176918
0.30635926 0.122305125 0.12153934 0.21586142 -0.23774467 -0.048076246 0.08594413 0.069284126
-0.009795637 -0.14554925 -0.101313636 0.043990515 -0.07489406 -0.068952456 -0.011990745 0.1524984
0.1296163 0.07436421 0.01374564 -0.17060378 -0.062918626 -0.22157028 -0.16783257 -0.027632494
00000000: 2f8f 9a3c c503 663d af2a fe3e bb42 243c
00000010: a67b 3dbd b270 093e 0922 593d ce6d f93b
00000020: 16d2 9abd 7982 c9bd 56de 643c de97 4fbe
00000030: af5f 45be e5ac 093d 9ac1 55be a3d6 b2bc
00000040: 0c34 873e 66b4 d23d bd9a 383e e2d1 053e
00000050: 291b 2a3f 63d9 45bb f34f 983d f45b 893e
00000060: 5fd3 f8bc 756d ad3d f7cb 3ebe f4ca b23c
00000070: 5850 a33c 8fb8 acbc eaf6 c5bd 600f 07bd
00000080: cc29 24be c006 0d3d 076b cabd a12e 5e3d
00000090: 1aa4 473d 4a23 ef3d 0bcf dfbd f77c a9be
000000a0: dba6 483d 3ac5 04be 3add 063c 46e7 e6bd
000000b0: d697 953d 9cfa 5f3e a0e9 c03d ebaa 0bba
000000c0: 2f8c 16bb e967 a1bd 9ee9 793d 8d62 893e
000000d0: 3d75 30bd 3dd9 973d 3218 be3c a8e9 78bd
000000e0: 4a0b 5cbe 26e0 de3b e675 d7bc 42c1 ddbc
000000f0: f86b 0c3e 6ae0 dc3d 3458 bf3c cc66 323d
00000100: 9c9d 53bb c099 5a3e 37c3 903d 5152 4a3e
00000110: 04e8 88be fb73 4b3e 8258 42be 1fbf 83be
00000120: 9353 9bbd ac35 5fbe 4a1b 7a3e 79eb f03c
00000130: 37c8 223f 823a 653e 21ba 9cbd 773c f4bd
00000140: 0ef3 a5be 50c3 673e 5126 853e 7f05 b2bd
00000150: 56be 6c3e 88c2 673e a82b 4f3d be71 b13e
00000160: d498 0c3e 63a4 fdbd cb42 0d3e 5c2f 62be
00000170: 18e4 003d c71f 8a3d fb19 183d 0d92 b13d
00000180: 1805 12be 08a0 82be 5df4 d23d 28f7 b7bd
00000190: 2062 3cbe b236 cebd 04b6 123e 5482 9a3e
000001a0: 05cd 7d3c 6c63 46bc 639a 73bd c532 85bd
000001b0: 6068 c43d 5fa3 5abe 3f51 d83b e6c2 e6bd
000001c0: 751e ba3d 1bd1 95bd 3295 1d3e ed2e 183d
000001d0: 90c0 9dbd 8827 f23c 2e7e eebc 7fe6 fdbd
000001e0: f7fc 59bd e529 1e3e 26c8 043d a887 5d3e
000001f0: 28d9 0dbd 85cd 20bc de15 073e 8bce 2ebd
00000200: 4d12 7dbd f1b0 8abd c893 103e 13f7 84be
00000210: c143 c23d fc33 a73d b996 29be b01d 833d
00000220: fb33 04be 0c59 bebd 0768 d5bd f669 833e
00000230: 3a1b ae3c 2d5d e3b9 ee79 383d b349 43bd
00000240: c302 983a 2f54 46bd 220a 223d acdc c63d
00000250: 9852 803e bb0d 0f3e d078 963e 4d26 8fbd
00000260: 8000 143d a8c5 a7bc 3842 053d d84f e83d
00000270: d0c9 97bd ac8e 08be b3c3 433e 483c 5ebc
00000280: f290 7d3e 05da 56bd 3c55 293e 6409 dcbd
00000290: 6e2f 933d df4a 1b3e 0660 cc3d 469d 93be
000002a0: e21f 35be 80fd 2abe 8b16 743d 98d3 7b3d
000002b0: 6d27 10bd 1747 573e cfd5 17bd dba2 84bd
000002c0: 03ad 513d 8765 a5bc 8c09 083d 0b07 ff3d
000002d0: 3d64 1dbd 4049 acbd 5beb c43d 1b46 5f3d
000002e0: bd98 57bd 267f 343e dbaf 1bbe d2f6 52bd
000002f0: f0e0 31bc fb75 623e f41e 833d c797 0bbe
00000300: 85fc d6bd b69e 043c 16c1 1c3d 085e 923d
00000310: db44 c83d e2f4 6dbc add5 8d3e b0ff 66be
00000320: 2da7 81be 2c0b e83c bfde 503d 8ecb 17bb
00000330: 70fa b03d 2d2d ccbc 9893 53bd f0f3 d9bd
00000340: 2c59 273e a916 3f3e 9c6a c23c 492d da3c
00000350: fc4f 30bd 6a5c 2dbd b070 a63c 106f 093e
00000360: 9bfd 2ebe 2ffc 8d3d 5063 c93d cf90 2ebe
00000370: b346 bbbd 3c49 f33d bff4 ae3d 37de 26be
00000380: d7de 4a3d 082e 813d 6187 5d3e cd5d 9cbd
00000390: 8e1c 1b3d 61b9 363e 93e6 e8bd fa70 d6bc
000003a0: 1fdb 9c3e 1c7b fa3d 9ee9 f83d c70a 5d3e
000003b0: 5773 73be 99eb 44bd 7a03 b03d d6e4 8d3d
000003c0: e17d 20bc dd0a 15be 867d cfbd 662f 343d
000003d0: 0f62 99bd f236 8dbd d474 44bc 8a28 1c3e
000003e0: 23ba 043e 434c 983d 6535 613c c2b2 2ebe
000003f0: 7bdb 80bd 52e3 62be 4ddc 2bbe 8a5d e2bc

shared_net.2.bias f4 [128]
0.02377243 0.020941755 -0.042215727 0.09873946 -0.018531282 0.0013417893 -0.0077103074 0.0873694
0.0 -0.023666361 0.070373796 0.04714682 0.115904875 0.10635256 0.19436495 0.12281111
0.011836326 -0.08768582 -0.024539668 0.024244282 0.21750623 0.036989085 0.07446886 0.03343992
0.023428673 0.1268089 0.16410947 0.0 0.03821083 0.0 0.15698647 0.12835449
0.20156413 -0.013177624 -0.028605841 0.06942927 -0.026513975 0.13561596 0.11228607 0.038033873
0.13028331 0.06987978 0.004284236 0.04995439 0.09918431 0.18106313 0.090030715 0.023837864
0.0 0.12139974 0.0024984048 0.0043077935 0.0092592705 0.014955107 0.08101409 0.009009057
-0.10436307 0.101537146 0.22178291 0.086194195 -0.0034304461 -0.028557178 0.041949075 -0.03751029
0.12207526 -0.024771513 0.16029066 0.09794749 -0.03805795 0.024723332 0.008348765 0.02515316
0.014664388 -0.016104547 0.028127652 0.029412726 0.1375409 0.050326955 0.048656013 -0.007264987
0.10449519 0.100861624 -0.029575305 -0.013878275 0.0929013 0.1580482 -0.0039954023 0.034506716
0.26090983 -0.004652125 0.023910347 0.008538907 0.062369697 -0.03767574 0.06158141 0.0
-0.017267479 0.12106823 0.1471975 0.04282896 0.18828212 0.08516311 0.04909412 -0.0037295176
0.021688921 0.01112054 0.0015675108 -0.10239489 -0.018315524 0.09317512 -0.031091824 0.0060392255
0.013261083 0.024477895 0.018776966 0.011601503 0.07080003 0.20197617 0.18599975 0.04240644
-0.033789705 0.11605046 0.09566397 -0.02374746 0.0029922395 0.13957456 0.104206115 0.06964965
00000000: 66be c23c 0b8e ab3c 66ea 2cbd ea37 ca3d
00000010: eace 97bc fade af3a bfa6 fcbb baee b23d
00000020: 0000 0000 f5df c1bc 2320 903d 061d 413d
00000030: 895f ed3d 5fcf d93d 9b07 473e 6484 fb3d
00000040: 26ed 413c a094 b3bd 6a07 c9bc f29b c63c
00000050: f4b9 5e3e de81 173d 2183 983d 4cf8 083d
00000060: 7ded bf3c 31da 013e 500c 283e 0000 0000
00000070: f682 1c3d 0000 0000 10c1 203e 5c6f 033e
00000080: d466 4e3e f6e6 57bc cc56 eabc ef30 8e3d
00000090: d633 d9bc e9de 0a3e 3df6 e53d 68c9 1b3d
000000a0: fd68 053e 211d 8f3d c762 8c3b f99c 4c3d
000000b0: 2521 cb3d 9d68 393e 0662 b83d a047 c33c
000000c0: 0000 0000 6da0 f83d 47bc 233b 6428 8d3b
000000d0: 32b4 173c 4406 753c b7ea a53d b99a 133c
000000e0: 4ebc d5bd b5f2 cf3d 0f1b 633e 9586 b03d
000000f0: 56d1 60bb bef0 e9bc cbd2 2b3d 64a4 19bd
00000100: 9802 fa3d a1ed cabc 3c23 243e b298 c83d
00000110: a7e2 1bbd 9688 ca3c 42c9 083c 000e ce3c
00000120: e742 703c afed 83bc f66b e63c f5f2 f03c
00000130: 86d7 0c3e a323 4e3d 874b 473d 210f eebb
00000140: 9301 d63d 8a90 ce3d e947 f2bc b461 63bc
00000150: 0943 be3d 63d7 213e ddeb 82bb ea56 0d3d
00000160: f995 853e da70 98bb a2df c33c c6e6 0b3c
00000170: 5e77 7f3d e051 1abd ca3c 7c3d 0000 0000
00000180: 8774 8dbc 9ff2 f73d f1ba 163e 6b6d 2f3d
00000190: 07cd 403e ff69 ae3d ea16 493d ec6a 74bb
000001a0: f7ac b13c ed32 363c ef74 cd3a 69b4 d1bd
000001b0: 700a 96bc 99d2 be3d 48b4 febc b2e4 c53b
000001c0: 0345 593c de85 c83c 27d2 993c 3b14 3e3c
000001d0: 9bff 903d d7d2 4e3e b876 3e3e 60b2 2d3d
000001e0: 1367 0abd ddab ed3d 79eb c33d 098a c2bc
000001f0: 7319 443b a2ec 0e3e 046a d53d 7aa4 8e3d

shared_net.4.weight f4 [64, 128]
-0.19508658 -0.14295617 0.0447981 0.19925681 0.060677312 -0.011699066 0.00066499 0.106574334
-0.027104998 0.28502223 0.11523862 -0.058123164 0.09360828 0.24536937 -0.0070538954 -0.08464304
0.088206135 -0.17798693 0.09620014 -0.1637072 0.18463662 -0.07563266 0.16650988 0.018368112
-0.25911725 0.10838767 0.24182512 -0.021698577 -0.19069168 -0.08084887 -0.15249255 0.10940981
0.2622567 0.174276 0.016043566 0.09353443 -0.078786686 0.12999405 0.15909065 -0.2226404
-0.16482872 -0.18709514 0.05061311 -0.09201437 -0.081539 0.0315914 -0.13350365 0.15744196
-0.271671 -0.16981818 -0.17439725 -0.04385773 0.0566754 -0.05252939 0.18744576 0.04506245
-0.03536735 0.06354544 0.06894772 -0.14805134 -0.066547036 -0.1328335 0.19941123 -0.36720437
-0.15863867 -0.06888008 0.17306614 -0.057072688 -0.16116038 -0.19013236 0.104820736 0.40397835
-0.074956894 0.0760654 -0.031174522 -0.29192165 0.16791251 0.1998528 -0.009104678 0.010838188
0.006614551 0.084082626 0.09818524 -0.20598744 -0.04897999 0.18448937 0.2662269 0.20798731
-0.13483275 0.0013012022 -0.17566313 -0.021185484 -0.053370763 -0.028444737 -0.3927465 -0.04474661
-0.16811115 0.46095976 -0.100781836 -0.1279901 0.11176911 0.046274126 0.11738414 -0.049816918
-0.23868191 -0.018896233 0.12204209 0.17376314 -0.13265328 0.40160647 0.18376185 0.16796327
-0.058942623 -0.091072515 0.09199819 -0.21841004 0.42047122 0.09916561 0.055711787 0.15840346
-0.16229515 -0.1673499 -0.15017605 0.11946041 0.12807712 0.37320876 0.23818809 0.30383137
-0.09949111 0.11420532 -0.31383792 -0.18482918 0.054086357 0.061839357 0.10337502 0.22029085
0.10208287 -0.13381952 0.1212951 -0.14776263 0.13548753 0.29246554 0.26504916 0.1502647
0.14335538 -0.046571825 -0.13892175 -0.015707208 0.06164301 0.07017617 -0.10844663 -0.08852578
0.012737972 0.038634975 -0.11219016 0.13021706 0.08578493 0.27213764 0.0037285113 0.18915135
0.022987057 -0.16017875 0.09054091 -0.047488134 0.08478261 0.18737432 0.11484962 -0.36470276
0.0838289 0.13256112 -0.18224832 0.009326172 -0.08954931 0.046652675 0.054003466 -0.16414404
0.108274765 -0.12780748 -0.080053106 0.090988435 -0.19190362 -0.14568363 0.073941074 -0.14103897
-0.13105877 0.00878194 -0.007082461 0.12733753 -0.10653167 0.2578887 0.1605688 0.06873458
-0.05807521 -0.28552154 0.18332525 0.18728551 0.13149798 -0.16451067 0.123278506 0.40056846
-0.3232328 -0.026238665 -0.06447318 0.22191487 0.13076591 -0.0575607 -0.0075615803 0.0997866
0.049258806 0.23021461 -0.038262036 0.05656956 0.37570548 0.29031873 0.16793704 -0.064658016
-0.08915532 -0.036699764 0.18774009 -0.023017632 0.22179204 0.13752836 0.016111793 -0.08541324
-0.0051120496 -0.089244075 0.2015515 0.18877143 0.22009426 -0.19966145 0.14789844 0.033795767
-0.30591968 0.17530306 -0.17391159 0.12578738 -0.012830927 0.0016387654 0.18770376 -0.13804947
0.11345138 -0.32182992 0.12416721 0.26814714 -0.19392933 0.19710994 -0.1126159 -0.18136005
0.04256096 0.2655773 0.08100647 -0.16821642 0.08072006 -0.042310897 0.09572872 0.03099448
00000000: c7c4 47be 1a63 12be 367e 373d fa09 4c3e
00000010: c688 783d 70ad 3fbc b952 2e3a a543 da3d
00000020: 4d0b debc 6fee 913e 3a02 ec3d 8e12 6ebd
00000030: b3b5 bf3d 1c42 7b3e 5d24 e7bb 5559 adbd
00000040: 6ba5 b43d 3542 36be 9404 c53d dca2 27be
00000050: 6211 3d3e 4ce5 9abd 9181 2a3e b978 963c
00000060: 04ab 84be 5bfa dd3d 01a1 773e 37c1 b1bc
00000070: ae44 43be 1894 a5bd 0227 1cbe 4012 e03d
00000080: 8346 863e 6875 323e cc6d 833c fb8e bf3d
00000090: ea5a a1bd 291d 053e a9e8 223e d8fb 63be
000000a0: dcc8 28be de95 3fbe b14f 4f3d 0872 bcbd
000000b0: ebfd a6bd fc65 013d 2eb5 08be 7738 213e
000000c0: 7618 8bbe d1e4 2dbe 3195 32be 2aa4 33bd
000000d0: 7724 683d 0f29 57bd c8f1 3f3e 6793 383d
000000e0: 5bdd 10bd 1d24 823d 7634 8d3d c59a 17be
000000f0: d049 88bd 8105 08be 7532 4c3e 3602 bcbe
00000100: 2d72 22be 0011 8dbd 4038 313e 0dc5 69bd
00000110: 3a07 25be 0fb2 42be 41ac d63d 40d6 ce3e
00000120: 0083 99bd 2dc8 9b3d b661 ffbc c176 95be
00000130: 42f1 2b3e 36a6 4c3e ca2b 15bc a892 313c
00000140: e0be d83b 8333 ac3d 5815 c93d 5fee 52be
00000150: 3e9f 48bd c8ea 3c3e e44e 883e a0fa 543e
00000160: 9911 0abe 1a8d aa3a 09e1 33be 2e8d adbc
00000170: 4d9b 5abd f004 e9bc 1216 c9be 3948 37bd
00000180: 5425 2cbe eb02 ec3e b566 cebd d60f 03be
00000190: 34e7 e43d f089 3d3d 1967 f03d d30c 4cbd
000001a0: 0869 74be 46cc 9abc 34f1 f93d f7ee 313e
000001b0: 43d6 07be 5d9f cd3e 112c 3c3e 90fe 2b3e
000001c0: d26d 71bd 3a84 babd 8c69 bc3d e2a6 5fbe
000001d0: 0148 d73e 5717 cb3d 0b32 643d 8434 223e
000001e0: b330 26be c65d 2bbe c0c7 19be a9a7 f43d
000001f0: a626 033e 3815 bf3e 94e7 733e c98f 9b3e
00000200: ffc1 cbbd 7be4 e93d 5daf a0be dc43 3dbe
00000210: a889 5d3d 444b 7d3d 48b6 d33d ed93 613e
00000220: d310 d13d fc07 09be 9169 f83d 164f 17be
00000230: 3ebd 0a3e 0bbe 953e 86b4 873e fdde 193e
00000240: c1cb 123e 19c2 3ebd 8141 0ebe 67ac 80bc
00000250: 617d 7c3d 86b8 8f3d 4419 debd 014d b5bd
00000260: edb2 503c b53f 1e3d f4c3 e5bd 9f57 053e
00000270: 02b0 af3d a055 8b3e 0a5a 743b e4b0 413e
00000280: 5a4f bc3c e605 24be 836d b93d eb82 42bd
00000290: 81a2 ad3d 0edf 3f3e 4736 eb3d 52ba babe
000002a0: 7cae ab3d 1abe 073e 4e9f 3abe cdcc 183c
000002b0: a165 b7bd e016 3f3d bd32 5d3d 6015 28be
000002c0: 29bf dd3d f7df 02be e2f2 a3bd 2558 ba3d
000002d0: 6282 44be 172e 15be 6b6e 973d 856c 10be
000002e0: 4534 06be 20e2 0f3c fd13 e8bb c564 023e
000002f0: 472d dabd fd09 843e 266c 243e b7c4 8c3d
00000300: 45e0 6dbd e12f 92be 9db9 3b3e c6c7 3f3e
00000310: 68a7 063e 7c75 28be 7179 fc3d 4f17 cd3e
00000320: c57e a5be 78f2 d6bc 840a 84bd a73d 633e
00000330: 80e7 053e c5c4 6bbd 22c7 f7bb eb5c cc3d
00000340: 9ac3 493d 61bd 6b3e a7b8 1cbd 7cb5 673d
00000350: 785c c03e a8a4 943e b0f7 2b3e 6c6b 84bd
00000360: 1097 b6bd 7e52 16bd f03e 403e 798f bcbc
00000370: 741d 633e 3cd4 0c3e e1fc 833c 23ed aebd
00000380: fb82 a7bb 99c5 b6bd 8463 4e3e 4c4d 413e
00000390: 6460 613e 0d74 4cbe b072 173e 6e6d 0a3d
000003a0: 81a1 9cbe a582 333e e115 32be 68ce 003e
000003b0: cf38 52bc d8cb d63a 6a35 403e d75c 0dbe
000003c0: 3259 e83d e4c6 a4be 614b fe3d 954a 893e
000003d0: 6995 46be 30d7 493e 2aa3 e6bd 73b6 39be
000003e0: 6754 2e3d bff9 873e b8e6 a53d ed40 2cbe
000003f0: 8f50 a53d 314e 2dbd 6b0d c43d 23e8 fd3c

shared_net.4.bias f4 [64]
0.11378874 0.11166739 -0.018660767 0.09227661 0.072628915 -0.009008101 0.0223628 -0.019654868
0.0 -0.009111672 0.16658208 -0.021623194 0.010120629 -0.05582196 0.22352825 0.025477394
0.026589824 -0.021444965 0.06818335 0.13293262 -0.00079514424 -0.006738312 0.0065455446 0.09298936
-0.009349303 0.094856046 0.00042828073 0.0019294841 -0.015062559 0.085353576 0.049586393 -0.00900281
-0.0075954287 0.19929661 0.13790846 0.026568107 0.24476561 0.08544558 0.19244857 0.065731555
0.015249141 0.0 0.10479857 0.148459 -0.114909515 -0.04268087 -0.004798893 -0.013835012
-0.020644614 -0.023634017 -0.14576851 -0.07143242 0.20700054 0.22505066 -0.022524392 0.0
0.013475976 0.087693386 0.16270919 -0.005827961 0.004206966 -0.0064971726 0.17361653 0.18200292
00000000: 120a e93d dfb1 e43d 77de 98bc 85fb bc3d
00000010: 78be 943d b796 13bc 3132 b73c 3f03 a1bc
00000020: 0000 0000 1f49 15bc 7e94 2a3e 2023 b1bc
00000030: ffd0 253c 91a5 64bd 97e4 643e f8b5 d03c
00000040: e7d2 d93c 5aad afbc b6a3 8b3d 7d1f 083e
00000050: 3a71 50ba 0fcd dcbb 027c d63b 3571 be3d
00000060: d22d 19bc e343 c23d de8a e039 bee6 fc3a
00000070: f4c8 76bc dbcd ae3d 1a1b 4b3d 8680 13bc
00000080: 13e3 f8bb 6914 4c3e e037 0d3e 5ca5 d93c
00000090: d6a3 7a3e 18fe ae3d 3d11 453e 449e 863d
000000a0: 88d7 793c 0000 0000 a2a0 d63d a305 183e
000000b0: ae55 ebbd 23d2 2ebd 0840 9dbb 3fac 62bc
000000c0: e51e a9bc 209c c1bc 5744 15be 294b 92bd
000000d0: f3f7 533e ae73 663e 1385 b8bc 0000 0000
000000e0: 57ca 5c3c 9798 b33d 3d9d 263e 7bf8 bebb
000000f0: 97da 893b 3ce6 d4bb 88c8 313e f95e 3a3e

actor.0.weight f4 [32, 64]
0.073037334 0.093538135 0.39010575 0.059068397 -0.122256145 0.003269272 0.1494228 -0.20179582
-0.33724716 0.16655277 0.17303988 -0.05776943 -0.25100183 -0.048942287 -0.061997097 0.23849173
0.23624556 -0.13204204 -0.044591192 -0.26539952 -0.059069566 -0.18462779 0.09050124 0.016092533
0.14510985 0.16407509 -0.0747818 -0.46136728 0.28634247 0.046510477 -0.00023109617 -0.048650235
-0.41750374 -0.12082446 -0.045760214 -0.014390259 -0.24798566 -0.11830444 -0.18964885 0.30988282
0.06340568 -0.053760666 -0.023092132 0.33351877 0.12660177 0.18334761 0.0039704973 -0.09930514
-0.08283186 0.07414186 0.016383646 0.14236052 0.0937231 -0.16823795 -0.1278349 -0.08247205
-0.13334778 -0.09654989 -0.16159452 -0.3137817 0.17141736 0.19863081 -0.09689881 -0.0006792425
0.48193625 -0.2759455 -0.23221543 0.30498284 0.1499359 -0.13952616 0.34629792 -0.06031719
-0.07141401 -0.051494077 0.07260094 0.12954304 -0.048042376 -0.038840845 0.006780078 -0.03959113
-0.094406486 -0.111261025 0.10970116 0.24059184 -0.07309394 -0.013558194 -0.09963244 0.13575566
-0.47918725 -0.22588204 0.20237766 -0.1909415 0.06540808 0.22679657 0.7610999 0.15143518
0.021943217 0.017414007 -0.022125805 0.049909938 0.15303284 0.22947948 0.32153013 0.4584447
0.14790548 -0.038191702 -0.34295845 0.24761352 -0.025025977 0.31135392 -0.038751785 0.043764144
-0.024826212 0.013022735 0.10077076 0.012851053 -0.12240191 0.116125755 -0.04625153 0.009362312
-0.14129668 -0.24059875 0.125258 0.2277061 -0.06265602 0.017447878 -0.2133255 0.2132922
-0.032169286 -0.101350054 0.052416053 -0.123563364 0.038118377 -0.093404494 -0.27099133 0.029365432
-0.140743 -0.27889273 0.30611587 0.17383666 -0.13600823 -0.37082723 -0.2531342 0.11987225
-0.17160667 0.23863289 0.11052945 -0.028927749 -0.048390415 -0.0006187376 -0.13109429 0.2907659
0.24840157 0.090405904 -0.18530376 0.15351437 0.07609573 0.48575824 0.09221435 0.24335319
0.12343311 0.17555071 -0.14958143 0.13457929 -0.35139915 0.1617001 -0.15964626 0.046779703
0.03601284 0.11412585 -0.06976839 -0.058487628 -0.066997886 0.043878183 -0.22857073 -0.25620002
-0.2436189 0.046423543 0.16520448 -0.13004494 -0.0034592522 -0.062186964 0.26217228 0.26447272
0.049816106 0.011362886 0.19757156 0.036789987 0.22565804 -0.2109224 -0.00018943343 -0.047626935
-0.18718578 -0.23951864 -0.13422342 -0.07718907 -0.13756336 0.12902625 -0.12474015 0.28325027
-0.22633961 0.04746996 -0.14794658 -0.029874941 -0.015949197 0.18920442 -0.043462303 0.18984942
-0.017888403 0.09122474 -0.08884485 -0.030715337 -0.39888257 -0.2670212 -0.3247497 0.08173147
-0.025002459 -0.003607683 -0.11434159 0.15974806 0.021365143 -0.045640804 0.1651593 -0.06309677
0.21933065 -0.058171276 0.014488261 -0.074341625 -0.19266255 0.08605846 -0.11697477 -0.47000465
-0.05582901 -0.23770133 -0.12540738 0.2895353 0.27430645 0.16191636 -0.09697935 -0.017997207
0.230128 0.24019516 -0.084408164 -0.059934415 -0.08087638 0.050092515 0.07346388 0.08150776
-0.21937898 -0.11503999 -0.31232324 0.10849993 -0.09656064 0.40524325 -0.00060580275 -0.27487773
00000000: 9994 953d ec90 bf3d f1bb c73e b4f1 713d
00000010: 6e61 fabd 4841 563b 4a02 193e 90a3 4ebe
00000020: a9ab acbe cf8c 2a3e 5e31 313e a39f 6cbd
00000030: 5083 80be b577 48bd abf0 7dbd 2d37 743e
00000040: 5bea 713e 0736 07be 41a5 36bd 72e2 87be
00000050: eef2 71bd 110f 3dbe b758 b93d 7dd4 833c
00000060: ad97 143e 4d03 283e 3327 99bd 5538 ecbe
00000070: 7b9b 923e c581 3e3d 6852 72b9 7845 47bd
00000080: 0dc3 d5be d172 f7bd 106f 3bbd 1fc5 6bbc
00000090: f4ef 7dbe 9949 f2bd 4f33 42be f6a8 9e3e
000000a0: d6da 813d 2534 5cbd b62b bdbc f9c2 aa3e
000000b0: e5a3 013e 7abf 3b3e f21a 823b 7e60 cbbd
000000c0: c0a3 a9bd b0d7 973d ff36 863c f5c6 113e
000000d0: e6f1 bf3d 9246 2cbe 27e7 02be 1be7 a8bd
000000e0: 528c 08be f3bb c5bd 0979 25be ffa7 a0be
000000f0: 0888 2f3e e065 4b3e e272 c6bd 310f 32ba
00000100: 59c0 f63e bb48 8dbe e2c9 6dbe b626 9c3e
00000110: cc88 193e f2df 0ebe f64d b13e 280f 77bd
00000120: 8241 92bd 74eb 52bd cdaf 943d eea6 043e
00000130: 15c8 44bd 9417 1fbd 6b2b de3b 4f2a 22bd
00000140: 3058 c1bd d2dc e3bd 00ab e03d b55d 763e
00000150: 47b2 95bd 3023 5ebc 180c ccbd 8803 0b3e
00000160: 0858 f5be 9f4d 67be 173c 4f3e 2b86 43be
00000170: acf4 853d 5c3d 683e 71d7 423f d311 1b3e
00000180: 43c2 b33c d2a7 8e3c 2d41 b5bc 5d6e 4c3d
00000190: a4b4 1c3e abfc 6a3e 999f a43e 44b9 ea3e
000001a0: 8974 173e e76e 1cbd 4098 afbe 668e 7d3e
000001b0: 4703 cdbc c869 9f3e 31ba 1ebd 0842 333d
000001c0: 5760 cbbc 4f5d 553c e660 ce3d 398d 523c
000001d0: daad fabd 57d3 ed3d 3f72 3dbd 6264 193c
000001e0: 14b0 10be 855f 76be a243 003e ca2b 693e
000001f0: cd51 80bd daee 8e3c 0072 5abe 4569 5a3e
00000200: f1c3 03bd 9e90 cfbd 37b2 563d ca0e fdbd
00000210: 0422 1c3d db4a bfbd 60bf 8abe c68f f03c
00000220: ef1e 10be 07cb 8ebe 38bb 9c3e 3d02 323e
00000230: be45 0bbe 11dd bdbe ce9a 81be 957f f53d
00000240: a9b9 2fbe 2e5c 743e 445d e23d e3f9 ecbc
00000250: 0735 46bd c732 22ba 953d 06be 45df 943e
00000260: fb5c 7e3e bb26 b93d 45c0 3dbe df32 1d3e
00000270: 14d8 9b3d 4eb5 f83e e1da bc3d 9431 793e
00000280: 80ca fc3d 91c3 333e e02b 19be 27cf 093e
00000290: 97ea b3be b694 253e 4f7a 23be 139c 3f3d
000002a0: 3382 133d d0ba e93d bbe2 8ebd b990 6fbd
000002b0: 3036 89bd 9cb9 333d 720e 6abe a62c 83be
000002c0: 3c77 79be 9d26 3e3d 5d2b 293e 802a 05be
000002d0: 9fb4 62bb c2b7 7ebd 723b 863e f868 873e
000002e0: f90b 4c3d 662b 3a3c 3350 4a3e 19b1 163d
000002f0: e712 673e 0bfc 57be a6a2 46b9 7614 43bd
00000300: a1ad 3fbe 6044 75be dd71 09be 4e15 9ebd
00000310: 69dd 0cbe 751f 043e c477 ffbd 2e06 913e
00000320: 92c5 67be dc6f 423d 4f7f 17be 4bbc f4bc
00000330: e4a7 82bc cebe 413e 8705 32bd e367 423e
00000340: b38a 92bc 09d4 ba3d 4af4 b5bd bb9e fbbc
00000350: 563a ccbe 01b7 88be 9845 a6be d462 a73d
00000360: f5d1 ccbc e06e 6cbb ec2b eabd ff94 233e
00000370: f405 af3c daf1 3abd 851f 293e e138 81bd
00000380: 3798 603e 0145 6ebd 2c60 6d3c 6c40 98bd
00000390: 5549 45be 6b3f b03d 7890 efbd 73a4 f0be
000003a0: f6ac 64bd fa67 73be cb6a 00be f93d 943e
000003b0: e571 8c3e 67cd 253e 1c9d c6bd e16e 93bc
000003c0: ada6 6b3e b8f5 753e 30de acbd ca7d 75bd
000003d0: 84a2 a5bd cf2d 4d3d 3b74 963d 8aed a63d
000003e0: e2a4 60be 169a ebbd d5e8 9fbe 3635 de3d
000003f0: 96c1 c5bd 0b7c cf3e bcce 1eba c6bc 8cbe

actor.0.bias f4 [32]
-0.008181682 0.029425813 -0.00076920533 0.0 -0.020394 0.026226038 0.0012530714 0.0043067876
0.010897379 -0.0016281558 0.04066633 -0.013912514 -0.016503178 -0.009687459 -0.027218342 0.016749429
-0.0045392364 -0.012510366 0.048727285 0.05072766 -0.005309606 0.05492108 -0.012168171 -0.007974213
0.072645165 0.03696209 0.011494653 -0.021629214 0.0221716 0.0 0.026682012 0.02426165
00000000: 760c 06bc 670e f13c 7fa4 49ba 0000 0000
00000010: 5111 a7bc fdd7 d63c 193e a43a f41f 8d3b
00000020: ec8a 323c d867 d5ba bd91 263d 50f1 63bc
00000030: ac31 87bc 26b8 1ebc 00f9 debc 1936 893c
00000040: e0bd 94bb 47f8 4cbc 4396 473d cfc7 4f3d
00000050: 34fc adbb edf4 603d 025d 47bc 46a6 02bc
00000060: fdc6 943d 8f65 173d 1254 3c3c c02f b1bc
00000070: 37a1 b53c 0000 0000 3c94 da3c 5ec0 c63c

actor.2.weight f4 [9, 32]
0.038127255 0.36158508 0.3590246 -0.098787956 0.40418512 -0.2641191 0.054924555 0.07407096
0.48485976 -0.3850827 -0.22213677 0.07420522 0.13588314 0.04008205 0.012617508 0.5201834
0.040613696 0.30921918 -0.43116292 0.17282803 -0.01677613 0.07480239 -0.025569288 0.36526313
-0.015897823 0.22819506 0.26532057 0.2437266 0.3175887 -0.4323461 0.11403371 -0.27306253
0.38021693 0.40817654 -0.2872305 -0.032908905 0.37626237 -0.22065762 0.0068763453 -0.0811054
0.026059506 -0.1358022 0.24716997 -0.41013128 -0.3752527 0.1235545 0.22198236 -0.11059368
-0.3077178 -0.0035369028 0.0020444451 -0.527759 -0.10251469 -0.15088353 -0.15873098 0.058830414
0.16962953 -0.33228728 0.15888715 0.06769448 0.23946904 0.10836218 -0.15687793 0.5124146
0.15150078 0.1634652 -0.03823671 -0.16279826 0.15113914 -0.21868399 -0.3605382 0.64639044
0.48010045 0.03322381 0.32461813 0.45966646 0.06918995 0.1278001 0.025569221 -0.13844714
0.46089974 0.17674367 0.11933574 -0.18137494 -0.3770373 0.09275801 0.13374157 -0.45045897
-0.26779652 -0.12459399 -0.07359691 0.1682957 -0.23580761 0.17224318 -0.110136606 0.27467272
-0.079205856 -0.2893054 -0.0028342505 0.22705683 -0.034814842 -0.345654 0.41445243 0.058010686
0.08446719 0.34127143 0.5216584 -0.14870039 -0.20328481 0.1251671 0.3462627 0.23507439
-0.08730186 0.17387316 -0.5521457 0.5466634 0.33237863 0.13452326 -0.09727 -0.23640785
0.04259667 0.08181683 0.3515656 -0.10351888 0.082540855 0.16402179 -0.09934766 0.42046773
-0.34507307 0.13452531 -0.054360975 0.023588166 -0.070788495 0.03112947 0.12950799 0.23444198
0.10309357 -0.27509815 -0.10743584 0.05267308 -0.85956556 -0.11368518 0.080727436 0.05309369
0.3747474 -0.45735025 -0.23123556 0.11888972 -0.3372036 0.54924613 0.60912025 0.20478676
-0.006716046 0.36132178 0.06959746 -0.31686664 0.017635278 0.06665828 -0.15124619 0.120127276
-0.4853022 0.0671441 0.16583848 -0.03140415 0.106563196 0.1977841 -0.75759673 0.070753865
-0.042709697 -0.19068943 0.21814352 0.056891486 -0.024866542 0.11070124 -0.23955458 0.039091315
0.12923576 0.21703845 0.08923374 -0.2344463 0.21463974 0.29818088 -0.51774323 -0.40438342
0.22825521 0.33653593 0.6425826 -0.27812234 0.122188084 0.19153325 -0.12042429 0.24723022
-0.3393232 0.41519853 -0.16171278 -0.16764046 -0.22418073 -0.1147175 0.47107494 -0.13320652
0.5109756 -0.12223501 0.13432713 -0.054036774 -0.26134706 -0.23751503 -0.32219017 0.18928292
0.21633641 0.05259977 -0.04921019 0.36865494 -0.023917848 -0.3818643 -0.2748509 -0.30157384
0.51545554 -0.2131641 -0.5080073 -0.24339217 0.098132774 0.023366887 0.23276822 -0.21251471
0.12445449 -0.1821012 -0.051496204 -0.18937734 -0.29245913 -0.24170063 -0.042676903 0.25892317
0.007270442 -0.2169441 0.22575769 -0.06549891 0.027130878 0.1856313 0.24564715 -0.12426579
-0.24440467 0.2706998 0.7619831 0.28449616 0.15269352 0.18926403 -0.16995454 0.17923267
0.33927557 0.1570817 -0.22578694 -0.22446291 0.6185757 -0.16010737 -0.31427893 0.03880175
00000000: 532b 1c3d ae21 b93e 13d2 b73e 5751 cabd
00000010: 5af1 ce3e 9e3a 87be 92f8 603d 84b2 973d
00000020: 8a3f f83e 8f29 c5be d277 63be e8f8 973d
00000030: f324 0b3e 132d 243d aab9 4e3c bd2a 053f
00000040: 8c5a 263d fa51 9e3e 63c1 dcbe d5f9 303e
00000050: 186e 89bc ff31 993d af76 d1bc c503 bb3e
00000060: 273c 82bc f7ab 693e 19d8 873e 7793 793e
00000070: fc9a a23e 785c ddbe 818a e93d dace 8bbe
00000080: cbab c23e 84fc d03e e00f 93be 7dcb 06bd
00000090: 76a5 c03e 12f4 61be f752 e13b 971a a6bd
000000a0: bf7a d53c bb0f 0bbe 201a 7d3e bafc d1be
000000b0: 1f21 c0be 240a fd3d 584f 633e f07e e2bd
000000c0: 308d 9dbe 62cb 67bb 19fc 053b 371b 07bf
000000d0: 39f3 d1bd 3681 1abe 608a 22be 29f8 703d
000000e0: 5db3 2d3e 8f21 aabe 50b3 223e 67a3 8a3d
000000f0: 5f37 753e feec dd3d 9ca4 20be 9a2d 033f
00000100: 0523 1b3e 6c63 273e 199e 1cbd 96b4 26be
00000110: 38c4 1a3e b2ee 5fbe 7798 b8be d879 253f
00000120: bacf f53e b115 083d 5934 a63e 6759 eb3e
00000130: 76b3 8d3d 08de 023e 8b76 d13c 16c5 0dbe
00000140: 0dfb eb3e 4bfc 343e 4c66 f43d 5aba 39be
00000150: 080b c1be e9f7 bd3d 8df3 083e 8fa2 e6be
00000160: a01c 89be 222b ffbd fab9 96bd b555 2c3e
00000170: 8d77 71be 8460 303e 4d8f e1bd e7a1 8c3e
00000180: ae36 a2bd d61f 94be d5be 39bb 9681 683e
00000190: 029a 0ebd 90f9 b0be 1c33 d43e 9d9c 6d3d
000001a0: 22fd ac3d 21bb ae3e 688b 053f ea44 18be
000001b0: e529 50be ce2b 003e 5849 b13e 57b7 703e
000001c0: 51cb b2bd ce0b 323e 6c59 0dbf 22f2 0b3f
000001d0: 882d aa3e 77c0 093e 7e35 c7bd e614 72be
000001e0: d979 2e3d 958f a73d 6800 b43e b501 d4bd
000001f0: 2e0b a93d 54f5 273e c976 cbbd 8c47 d73e
00000200: 6bad b0be 01c1 093e 9da9 5ebd f83b c13c
00000210: 8ff9 90bd 3b03 ff3c be9d 043e 8f11 703e
00000220: b922 d33d aad9 8cbe 5207 dcbd babf 573d
00000230: 7d0c 5cbf c7d3 e8bd 6d54 a53d c578 593d
00000240: e4de bf3e d029 eabe 04c9 6cbe 747c f33d
00000250: f3a5 acbe 659b 0c3f 4eef 1b3f 9fb3 513e
00000260: 4712 dcbb 2bff b83e 1d89 8e3d 583c a2be
00000270: dc77 903c 2384 883d 48e0 1abe 4a05 f63d
00000280: 8879 f8be d982 893d 90d1 293e a3a1 00bd
00000290: ce3d da3d ea87 4a3e dcf1 41bf 67e7 903d
000002a0: 5df0 2ebd 1744 43be 0461 5f3e 0c07 693d
000002b0: ebb4 cbbc 55b7 e23d cc4d 75be 371e 203d
000002c0: 6156 043e 543f 5e3e 2ec0 b63d b112 70be
000002d0: 85ca 5b3e 2aab 983e d28a 04bf 580b cfbe
000002e0: bcbb 693e 704e ac3e 4b80 243f 0d66 8ebe
000002f0: bf3d fa3d 4b21 443e 03a1 f6bd eb29 7d3e
00000300: c5bb adbe e794 d43e 0998 25be f1a9 2bbe
00000310: a28f 65be 02f1 eabd bc30 f13e 4a67 08be
00000320: 4ccf 023f 5956 fabd 0d8d 093e aa55 5dbd
00000330: 48cf 85be 2437 73be 1cf6 a4be 62d3 413e
00000340: 4b87 5d3e db72 573d a090 49bd 57c0 bc3e
00000350: 5def c3bc b883 c3be 42b9 8cbe e367 9abe
00000360: e5f4 033f b147 5abe c40c 02bf cc3b 79be
00000370: d6f9 c83d ea6b bf3c cb5a 6e3e 759d 59be
00000380: ffe1 fe3d bd78 3abe afed 52bd 22ec 41be
00000390: 34bd 95be 5f80 77be facd 2ebd 9491 843e
000003a0: e33c ee3b 9826 5ebe 062d 673e 4b24 86bd
000003b0: 9341 de3c 2216 3e3e ed8a 7b3e 107f febd
000003c0: 3845 7abe 2a99 8a3e 5311 433f 7ba9 913e
000003d0: b15b 1c3e 6ece 413e 9008 2ebe c588 373e
000003e0: 87b5 ad3e 06da 203e b134 67be 9bd9 65be
000003f0: fa5a 1e3f 30f3 23be 2be9 a0be 95ee 1e3d

actor.2.bias f4 [9]
-0.079681836 0.06742804 -0.020400548 -0.027759273 0.06544156 0.079319485 0.024446579 -0.0052155983
-0.007683574
00000000: 3b30 a3bd b617 8a3d 0d1f a7bc 6a67 e3bc
00000010: 3906 863d 4172 a23d 3144 c83c 9ce7 aabb
00000020: 7ec6 fbbb

critic.0.weight f4 [32, 64]
0.20914021 0.121316746 -0.07067162 -0.0065176273 0.1682607 -0.20246917 -0.1658829 -0.11853006
0.19722697 -0.047801245 0.2748031 0.024914172 0.04516414 -0.1707283 0.6333344 0.062304657
0.11758327 -0.26415318 0.06709501 0.50812954 -0.15514936 0.04703683 -0.18104903 -0.029015664
0.043098066 0.1733777 0.2980325 0.31800476 0.19169831 -0.069711454 0.016837277 -0.18496111
0.10271965 0.032264896 0.049745936 0.03810916 0.042423587 0.11804362 0.4468391 0.30325964
0.2664812 -0.1626894 0.03340199 0.13600774 -0.067604996 0.064898066 -0.042095985 0.11408881
-0.2348941 0.009219883 0.009835442 -0.11909973 0.21388164 0.3455661 0.02725381 -0.31119147
0.57223237 0.2640363 -0.16516365 -0.15585987 0.24142978 0.2032213 0.4260236 0.19513999
0.26852283 0.22958374 0.062498428 0.12109714 0.41929802 -0.08275539 0.24344079 -0.12836558
-0.31777573 -0.10425466 -0.09496493 0.16019158 -0.10626069 -0.18850319 0.06685962 -0.24938382
0.15893072 -0.0851149 0.23606376 0.24904312 -0.06086254 -0.11613442 0.058307953 -0.042880084
0.37882662 0.13655429 -0.29111952 -0.05763721 -0.20996067 0.21619451 0.30550888 -0.4017289
-0.10289677 0.22309582 0.07524282 0.010127411 0.06621993 0.08848014 0.2962855 0.3929802
-0.023386296 0.26727423 0.054077834 0.1848475 0.2150174 -0.07309542 -0.095961966 -0.2883054
-0.17870818 0.2395294 -0.009061079 -0.0031263311 0.19229345 0.5816127 0.12686077 0.25848615
0.09934691 0.29319435 0.2566912 -0.31669822 0.00942391 0.36495996 0.33669072 0.09323775
-0.07242132 0.07085762 -0.16726135 0.15441333 -0.012715761 0.11347297 0.025173249 0.29424033
0.13164552 -0.16276968 0.14259 -0.21696202 -0.19704029 -0.29023102 -0.1866853 -0.1007685
0.2043915 -0.067929275 -0.14908355 0.10832162 0.013208308 -0.12793747 -0.10945903 0.10443883
-0.10500336 0.0013552604 -0.23678036 -0.0583199 0.010479736 0.15135144 0.28621703 -0.09187474
-0.08842458 0.072574094 -0.2811513 0.020036321 -0.47069198 0.22422463 -0.045756225 -0.22347006
0.09773549 0.09730923 0.0829608 0.3668002 -0.24349947 0.20699695 -0.14666513 -0.076498024
0.36069757 -0.18376245 0.16253999 0.06800412 -0.061505347 -0.11375672 -0.2927507 0.067489915
0.14234594 -0.01692545 -0.19713347 -0.30318627 0.24909556 -0.073527 0.116678104 -0.11865678
-0.16573824 -0.16842929 0.027667172 0.075039744 -0.51603985 0.102392435 -0.04236286 -0.051397987
0.14291938 -0.17137744 0.10177533 -0.052213166 -0.27161402 0.057257902 -0.109351985 0.05144172
-0.019149786 -0.2741982 -0.10195208 -0.051321946 0.26850918 -0.2549917 0.095043354 -0.012904313
0.17366341 -0.13497911 0.10475698 0.41582388 -0.08875737 0.09372203 -0.10613779 -0.30645126
0.042201396 -0.19011876 -0.0702512 -0.17530626 -0.012586598 0.07664493 -0.44122085 0.036137734
-0.34445345 -0.3134385 0.15572043 -0.16902524 -0.18283074 -0.037191782 0.19896917 -0.13616776
0.020116724 0.23612526 -0.19398026 -0.2964973 0.19321918 -0.20598343 0.0115800435 0.11097126
-0.13084751 -0.038413588 0.043345343 0.094024494 0.38707954 0.3571028 -0.14457251 -0.02915734
00000000: da28 563e ea74 f83d 48bc 90bd d291 d5bb
00000010: 884c 2c3e 1454 4fbe 35dd 29be e3bf f2bd
00000020: def5 493e 3dcb 43bd feb2 8c3e ce18 cc3c
00000030: 09fe 383d 66d3 2ebe 3422 223f 2b33 7f3d
00000040: 7fcf f03d 163f 87be 1c69 893d c714 023f
00000050: 79df 1ebe b1a9 403d eb64 39be 42b2 edbc
00000060: 9987 303d ec89 313e b797 983e 85d1 a23e
00000070: 904c 443e e1c4 8ebd 54ee 893c 7266 3dbe
00000080: ae5e d23d 3228 043d 65c2 4b3d 5a18 1c3d
00000090: 5bc4 2d3d dac0 f13d 18c8 e43e d944 9b3e
000000a0: 3970 883e 0d98 26be 86d0 083d 9d45 0b3e
000000b0: 7d74 8abd 47e9 843d d76c 2cbd 65a7 e93d
000000c0: 1488 70be fe0e 173c d524 213c 8fea f3bd
000000d0: ca03 5b3e 0aee b03e 6243 df3c 7d54 9fbe
000000e0: d27d 123f c42f 873e a920 29be bb99 1fbe
000000f0: 5e39 773e 3f19 503e c41f da3e c7d2 473e
00000100: d37b 893e 0018 6b3e 5afe 7f3d c701 f83d
00000110: 3bae d63e a87b a9bd 8b48 793e 4472 03be
00000120: 80b3 a2be 7883 d5bd f97c c2bd 4309 243e
00000130: 349f d9bd fb06 41be b2ed 883d 795e 7fbe
00000140: bcbe 223e b850 aebd b3ba 713e 2905 7f3e
00000150: 004b 79bd e2d7 edbd 52d4 6e3d 07a3 2fbd
00000160: 90f5 c13e e3d4 0b3e 9e0d 95be ff14 6cbd
00000170: eeff 56be 1862 5d3e a96b 9c3e 69af cdbe
00000180: 8bbb d2bd 3b73 643e e818 9a3d 71ed 253c
00000190: 519e 873d 1335 b53d bcb2 973e b334 c93e
000001a0: 9e94 bfbc 2bd8 883e b880 5d3d aa48 3d3e
000001b0: 852d 5c3e 0db3 95bd b587 c4bd c49c 93be
000001c0: 47ff 36be 3247 753e eb74 14bc 22e3 4cbb
000001d0: 93e8 443e 92e4 143f cae7 013e 4c58 843e
000001e0: 6576 cb3d 921d 963e 076d 833e 4526 a2be
000001f0: be66 1a3c 08dc ba3e ba62 ac3e 6ff3 be3d
00000200: a151 94bd cd1d 913d 8f46 2bbe 871e 1e3e
00000210: c455 50bc 8464 e83d 2138 ce3c aba6 963e
00000220: 15ce 063e 18ad 26be 1d03 123e 4b2b 5ebe
00000230: eec4 49be 2999 94be 6e2a 3fbe b75f cebd
00000240: 014c 513e 811e 8bbd 5ca9 18be bad7 dd3d
00000250: a967 583c 0a02 03be 0e2c e0bd 06e4 d53d
00000260: 000c d7bd fea2 b13a 8d76 72be d9e0 6ebd
00000270: 33b3 2b3c dffb 1a3e 0a8b 923e d328 bcbd
00000280: f217 b5bd baa1 943d 10f3 8fbe 3623 a43c
00000290: 8afe f0be 249b 653e e16a 3bbd 56d5 64be
000002a0: 8b29 c83d 104a c73d 5ae7 a93d 3ccd bb3e
000002b0: ed57 79be 02f7 533e 622f 16be ffaa 9cbd
000002c0: 5aad b83e 392c 3cbe e270 263e be45 8b3d
000002d0: 08ed 7bbd 49f9 e8bd 6be3 95be 2738 8a3d
000002e0: 22c3 113e 3ea7 8abc 5bdd 49be 3b3b 9bbe
000002f0: e812 7f3e 5395 96bd eef4 ee3d 5302 f3bd
00000300: 49b7 29be ba78 2cbe 44a6 e23c 70ae 993d
00000310: 301b 04bf 20b3 d13d ae84 2dbd b286 52bd
00000320: 7559 123e 917d 2fbe 966f d03d 79dd 55bd
00000330: fe10 8bbe 4387 6a3d eff3 dfbd 8eb4 523d
00000340: 03e0 9cbc b563 8cbe 41cc d0bd f636 52bd
00000350: 097a 893e 468e 82be 17a6 c23d 9d6c 53bc
00000360: d2d4 313e f737 0abe d48a d63d dee6 d43e
00000370: 6dc6 b5bd 56f1 bf3d c55e d9bd 2ee7 9cbe
00000380: 5fdb 2c3d 7eae 42be dcdf 8fbd 7c83 33be
00000390: 0538 4ebc 04f8 9c3d b3e7 e1be 2905 143d
000003a0: 345c b0be 037b a0be 2d75 1f3e f414 2dbe
000003b0: fb37 3bbe 6956 18bd 93be 4b3e 906f 0bbe
000003c0: d4cb a43c d2ca 713e c3a2 46be 7ece 97be
000003d0: 40db 453e 52ed 52be 39ba 3d3c e644 e33d
000003e0: e4fc 05be 9157 1dbd e38a 313d ea8f c03d
000003f0: 4a2f c63e 2ed6 b63e d10a 14be 60db eebc

critic.0.bias f4 [32]
0.25999877 0.24732113 0.0 -0.048660226 -0.029526468 0.25974464 0.24915999 -0.018668424
-0.05229682 0.24976255 0.2621458 -0.022064507 0.2285403 0.0 -0.0027968716 -0.028950443
0.24681191 -0.075592965 -0.0021350603 -0.014132156 0.0 0.0902653 0.24950133 -0.10784073
0.23474129 0.28104863 0.24514188 0.2638624 0.28590596 -0.025065128 0.0 0.24851872
00000000: 8f1e 853e c041 7d3e 0000 0000 f24f 47bd
00000010: 7ee1 f1bc 40fd 843e cc23 7f3e 86ee 98bc
00000020: 3135 56bd c1c1 7f3e f937 863e a0c0 b4bc
00000030: 7806 6a3e 0000 0000 b84b 37bb 7b29 edbc
00000040: 43bc 7c3e 7cd0 9abd 5eec 0bbb 8f8a 67bc
00000050: 0000 0000 03dd b83d 477d 7f3e 9adb dcbd
00000060: 0560 703e 9be5 8f3e 7906 7b3e f918 873e
00000070: 4462 923e 6255 cdbc 0000 0000 b17b 7e3e

critic.2.weight f4 [1, 32]
0.40441048 0.28902096 0.070644274 -0.22166304 -0.29516685 0.28061214 0.4790403 -0.20682278
-0.26004532 0.44717693 0.16888863 0.44809616 0.26429626 0.1296463 0.07615303 0.22644418
0.31710777 -0.57050157 -0.3897336 0.28718585 -0.41391775 0.0412162 0.2396859 -0.22897851
0.5206928 0.4484906 0.24803607 0.21314874 0.4627516 -0.5438192 -0.20526223 0.20088048
00000000: e40e cf3e 8efa 933e f2ad 903d a3fb 62be
00000010: 1c20 97be 65ac 8f3e c544 f53e 5ac9 53be
00000020: a924 85be 60f4 e43e 24f1 2c3e dc6c e53e
00000030: d751 873e 00c2 043e 1ff6 9b3d fce0 673e
00000040: f35b a23e 640c 12bf 2a8b c7be 060a 933e
00000050: 07ed d3be 51d2 283d 3870 753e 5879 6abe
00000060: 204c 053f 8fa0 e53e 2bfd 7d3e aa43 5a3e
00000070: c7ed ec3e bc37 0bbf 4330 52be 9db3 4d3e
