logs/20250602_014535/checkpoint_episode_1400.pt (torch, 769735 bytes, 19 tensors)

cnn.0.weight f4 [32, 1, 3, 3]
-0.19710423 -0.123252146 0.021641558 -0.18315029 -0.076188646 0.15940887 -0.30025005 0.02092738
-0.065570734 0.06816867 -0.16749495 -0.30581835 -0.036323577 -0.07827015 -0.22887921 -0.2324678
-0.13139181 0.01521485 0.021423794 0.20885214 0.16212724 0.30076432 0.13494283 0.106537074
-0.33109686 -0.26882035 -0.27173194 -0.20407888 0.034652233 -0.25791904 0.22517586 -0.02579987
-0.057462852 0.1409965 -0.020882249 -0.32717466 -0.3057056 -0.25957564 0.21018814 0.27216822
0.28862232 0.2708281 0.3322359 0.29226124 -0.26215363 -0.25923848 -0.14148483 -0.26350293
-0.09563832 0.030087035 -0.11422615 0.08041366 0.063668095 -0.18376467 -0.2907349 -0.30490416
0.015705746 0.22957787 -0.19138722 -0.2931075 -0.026389759 0.3231183 -0.18399644 -0.01587048
0.3283027 -0.15363099 0.14201331 0.17874573 0.18481559 0.329882 -0.11114045 0.1086886
0.0836173 0.09054237 0.31543216 0.07324265 -0.22748777 0.06673316 0.20700523 0.21244095
0.13311167 -0.09383307 0.32129255 0.03629395 -0.19317074 0.124551155 -0.09537871 -0.30110613
-0.026541043 0.23830223 -0.19713342 -0.12217828 0.037565153 0.108667135 -0.058063947 -0.1658129
0.114187084 0.029091557 0.30475876 0.14638813 -0.070627466 0.053472925 0.053101525 0.19547383
-0.32412514 0.18922974 -0.1483928 0.2603027 0.0006645521 -0.1740272 -0.1362997 -0.0016038816
0.075569674 -0.27975973 0.17216942 0.25296825 0.32115692 -0.30235806 -0.021325242 -0.07636583
-0.0072694975 -0.09467729 -0.2940145 0.27158308 0.045136727 -0.111378446 0.10970854 -0.30749232
0.08642198 0.1058269 0.16707931 0.01119521 -0.30133057 -0.04514025 -0.09800653 0.17062978
-0.18328536 0.04706233 0.090298526 0.28637385 0.32159838 0.1365293 -0.20680118 0.028291548
-0.04134643 0.020237565 0.23908226 0.10393366 -0.02307807 0.23813096 -0.1302305 -0.13059497
0.11935687 0.28210422 0.0340662 -0.07708287 0.009965062 0.30370855 -0.26524335 -0.31710035
-0.25305778 -0.103987694 0.20319349 0.19992895 -0.21829644 0.04986358 0.2093082 -0.27034464
-0.099133655 -0.09341708 0.16871367 0.038864367 -0.054960705 0.31251758 -0.1052624 0.13547435
0.033386033 0.011252929 -0.30807945 0.118013844 0.23026977 -0.23845558 0.32672054 -0.17372952
-0.086097926 0.19139826 0.23438361 -0.27016652 -0.1841623 0.10465821 -0.045678735 0.29649994
0.2910889 -0.07850194 -0.10856502 0.26067528 0.09476066 -0.26064044 -0.15003674 0.295254
-0.16989589 0.31218064 0.11656666 -0.11077277 -0.1409754 -0.22561514 0.10027759 0.1493063
0.039287023 -0.19665195 -0.27401865 -0.13141657 0.110360615 0.17200226 0.03290904 0.1984562
-0.05050616 -0.068498455 0.22834381 -0.017475842 -0.078416385 -0.04415329 -0.22122906 0.086686336
0.01587882 0.026151022 -0.1458962 0.31621522 -0.33150572 0.10736553 -0.30825067 -0.034230035
-0.08199553 0.15494415 -0.2516304 0.16510247 -0.02747773 0.04257872 0.07870546 0.26982933
0.21459526 0.2428838 -0.19169657 0.22807859 -0.04005009 0.14537731 -0.10931893 -0.24127693
0.21029137 -0.030838223 0.25139853 -0.14892419 0.17481115 -0.29930514 0.057968754 0.06390714
00000000: b1d5 49be 9f6b fcbd a349 b13c c08b 3bbe
00000010: cb08 9cbd 143c 233e 60ba 99be e66f ab3c
00000020: f349 86bd 049c 8b3d cc83 2bbe 3994 9cbe
00000030: 08c8 14bd 1a4c a0bd 505f 6abe 0a0c 6ebe
00000040: 938b 06be b547 793c f480 af3c 56dd 553e
00000050: af04 263e c8fd 993e 742e 0a3e 1c30 da3d
00000060: 8785 a9be d2a2 89be 7320 8bbe 0efa 50be
00000070: 80ef 0d3d f70d 84be 8094 663e 405a d3bc
00000080: 2b5e 6bbd 6361 103e 4011 abbc 7083 a7be
00000090: 7285 9cbe 19e7 84be 8f3b 573e a259 8b3e
000000a0: 4ec6 933e fba9 8a3e d31a aa3e 44a3 953e
000000b0: 0039 86be e8ba 84be 66e1 10be dbe9 86be
000000c0: 06de c3bd 1679 f63c 66ef e9bd ebaf a43d
000000d0: 6b64 823d ce2c 3cbe 34db 94be 661c 9cbe
000000e0: 56a9 803c 7616 6b3e 03fb 43be 3012 96be
000000f0: 562f d8bc c36f a53e 9069 3cbe cf02 82bc
00000100: 4b17 a83e 7151 1dbe f06b 113e 1f09 373e
00000110: 4c40 3d3e 4be6 a83e 9b9d e3bd 2198 de3d
00000120: 8c3f ab3d 476e b93d 5380 a13e 3e00 963d
00000130: 8ef2 68be 65ab 883d 2ef9 533e 1f8a 593e
00000140: 6d4e 083e 8d2b c0bd 7580 a43e f7a8 143d
00000150: 8dce 45be ad14 ff3d ea55 c3bd 952a 9abe
00000160: 9a6c d9bc 8005 743e 58dd 49be 9b38 fabd
00000170: ebdd 193d e08c de3d 76d4 6dbd dbca 29be
00000180: ebda e93d 6b51 ee3c 5709 9c3e c5e6 153e
00000190: 22a5 90bd 6d06 5b3d fc80 593d 4b2a 483e
000001a0: bbf3 a5be 71c5 413e 48f4 17be 6546 853e
000001b0: 5635 2e3a 3034 32be 2692 0bbe 5639 d2ba
000001c0: 46c4 9a3d ab3c 8fbe 2e4d 303e 0e85 813e
000001d0: ae6e a43e adce 9abe 46b2 aebc b065 9cbd
000001e0: f734 eebb 2be6 c1bd 1289 96be f00c 8b3e
000001f0: 4ae1 383d 621a e4bd dfae e03d a26f 9dbe
00000200: 02fe b03d c6bb d83d d716 2b3e 1d6c 373c
00000210: 0048 9abe fce4 38bd a6b7 c8bd 93b9 2e3e
00000220: 28af 3bbe 6ec4 403d 6fee b83d 989f 923e
00000230: 8ba8 a43e 56ce 0b3e b0c3 53be adc3 e73c
00000240: e05a 29bd 40c9 a53c fbd1 743e 2cdb d43d
00000250: 380e bdbc 9ad8 733e 255b 05be b0ba 05be
00000260: 6071 f43d f76f 903e 0089 0b3d a0dd 9dbd
00000270: 8044 233c b07f 9b3e facd 87be fa5a a2be
00000280: ca90 81be 80f7 d4bd f411 503e 2dba 4c3e
00000290: 1a89 5fbe c13d 4c3d e454 563e 9d6a 8abe
000002a0: 9606 cbbd 7451 bfbd 47c3 2c3e 3e30 1f3d
000002b0: 7a1e 61bd 4e02 a03e d093 d7bd cab9 0a3e
000002c0: cbbf 083d 355e 383c 97bc 9dbe 3eb1 f13d
000002d0: d7cb 6b3e b32d 74be ea47 a73e 27e6 31be
000002e0: 1c54 b0bd e8fd 433e 4202 703e 4453 8abe
000002f0: 0b95 3cbe 0b57 d63d a019 3bbd d7ce 973e
00000300: 9b09 953e a0c5 a0bd 5657 debd 3b77 853e
00000310: e011 c23d aa72 85be 3ba3 19be 882b 973e
00000320: 30f9 2dbe 24d6 9f3e 80ba ee3d d6dc e2bd
00000330: db5b 10be a807 67be 565e cd3d c0e3 183e
00000340: 6eeb 203d 215f 49be 2c4c 8cbe 1192 06be
00000350: bf04 e23d 5c21 303e a1cb 063d 1a38 4b3e
00000360: 8cdf 4ebd eb48 8cbd f6d2 693e 7f29 8fbc
00000370: c598 a0bd 15da 34bd df89 62be 9b88 b13d
00000380: 4d14 823c ab3a d63c d065 15be f6e6 a13e
00000390: 1ebb a9be 76e2 db3d 08d3 9dbe cb34 0cbd
000003a0: 46ed a7bd aea9 1e3e b3d5 80be 9f10 293e
000003b0: fa18 e1bc 0667 2e3d 5430 a13d 1227 8a3e
000003c0: dcbe 5b3e 88b6 783e 1b4c 44be 6f8d 693e
000003d0: 900b 24bd cadd 143e 9ae2 dfbd 4d11 77be
000003e0: 9f56 573e 71a0 fcbc 4fb7 803e 957f 18be
000003f0: b201 333e 863e 99be a570 6d3d bfe1 823d

cnn.0.bias f4 [32]
0.74130285 0.26929373 -0.036439802 -0.17407143 0.057776015 -0.09664571 -0.27652365 0.27114615
0.08871921 0.15722513 -0.20340216 0.109334245 -0.22953403 0.42462742 0.044916704 -0.107257105
0.1957943 -0.22042525 0.34254166 0.0653517 0.36876696 -0.27941817 -0.19807136 0.4944774
0.11436534 -0.2113756 0.3192624 0.41424736 0.13197367 0.067416444 0.24751014 0.708883
00000000: 06c6 3d3f dee0 893e e741 15bd c83f 32be
00000010: 8ba6 6c3d 30ee c5bd 8294 8dbe abd3 8a3e
00000020: 6bb2 b53d a0ff 203e a848 50be a2ea df3d
00000030: f80a 6bbe c468 d93e 94fa 373d 9da9 dbbd
00000040: 4d7e 483e 28b7 61be 9f61 af3e 1dd7 853d
00000050: 06cf bc3e e60f 8fbe 38d3 4abe 242c fd3e
00000060: 6038 ea3d d872 58be 5c76 a33e 3b18 d43e
00000070: 1b24 073e a211 8a3d 4c73 7d3e 5b79 353f

cnn.2.weight f4 [64, 32, 3, 3]
-0.018332565 -0.040441565 -0.022538878 0.034974445 0.009826713 -0.011339933 0.012629718 0.024160266
0.008695154 0.04815245 -0.023374235 0.047850102 0.014714828 -0.026592309 0.03906368 0.023466866
0.014667363 0.021111652 0.052379 -0.030798092 -0.0072479653 -0.019173171 -0.026897887 0.020410609
0.058175296 0.043619003 0.008997573 0.034172136 -0.018443756 0.05795793 0.048122387 -0.044208456
0.020196784 -0.030830124 -0.008029115 -0.044830274 -0.028093101 0.028663917 -0.04125406 0.020559007
-0.055180144 -0.011691255 -0.024084691 -0.04632855 -0.048809487 -0.012612515 0.01611578 -0.025574744
0.015714915 -0.019278713 -0.040994015 0.042988345 -0.050200418 -0.049110014 -0.028062742 -0.027627358
0.03095129 -0.017832998 0.037892744 -0.0438317 0.045514017 0.04775584 -0.055479497 0.017303936
-0.043920323 0.01562208 0.03648083 0.03927806 0.0042972434 -0.01811546 -0.04796596 -0.025249207
-0.018562997 0.0014184451 0.03616031 -0.05638031 -0.015901417 0.0033118783 -0.045101427 0.018312778
0.0027146714 0.014816247 -0.021532424 0.053857 0.018801738 0.038907077 0.026676496 -0.01580825
0.058804773 0.020881895 0.052008543 -0.018197324 -0.03408844 0.036389012 -0.026873933 0.01746557
0.057449568 -0.0021446354 0.05156726 0.01380362 0.01986905 -0.02620212 -0.04897055 0.014727008
0.017919358 -0.056258254 -0.056366958 -0.047863062 -0.0006264497 -0.040120266 0.017985037 0.02293479
-0.0024446507 -0.05357099 0.026996475 -0.0381644 -0.026341612 0.052558005 -0.03796491 0.025288165
-0.0006050461 -0.048785478 -0.054491702 0.0026252079 -0.046649396 -0.048171677 0.022765957 -0.007276787
-0.044392947 -0.046230014 0.050095156 -0.033849426 -0.03189228 -0.04276468 -0.011522864 0.0008028694
0.020480601 0.05039677 0.0137183005 0.030322423 0.045156907 -0.03955973 0.038276087 0.022427447
0.0036286681 -0.0060754614 0.031006867 0.0061315587 0.04814386 -0.019033257 0.053654525 -0.0016668728
-0.037614867 -0.04653767 -0.0139011545 0.03464527 -0.013049908 0.026933951 -0.011659315 -0.020261507
0.057229485 -0.028842079 0.047605336 0.02630033 0.055534873 0.043388966 0.048037503 -0.052650567
-0.016924454 0.038656823 0.014284326 0.048881058 -0.058295056 -0.030134652 0.037668288 0.017899366
0.016337397 0.013862099 0.007193399 -0.014199758 -0.040870313 -0.0145718865 -0.031470433 -0.04861835
-0.014790938 -0.0393793 -0.005103464 0.056551736 -0.012051055 0.026590945 0.04018291 0.026862849
0.015004994 -0.038048994 -0.007149349 -0.0078588985 0.052924957 0.012958681 -0.05161762 -0.005281541
-0.01766366 -0.0072744405 -0.054207217 -0.024372224 -0.050178338 0.052273065 -0.03430101 0.044742145
-0.058510378 0.043760695 -0.00022892763 -0.0031649193 -0.031184005 0.012142479 -0.017656587 -0.049679805
-0.023598371 -0.008112137 0.008388585 0.035217956 0.008837752 0.014213041 0.01918672 -0.047797784
-0.016192215 -0.034049343 -0.018163241 0.035762556 0.014233743 0.022786638 0.05053464 0.031754117
-0.0076175863 0.02715161 -0.05340619 -0.057633363 -0.043266036 0.012975392 0.04212593 -0.04764286
-0.026646208 -0.03966098 0.056293517 -0.013968927 -0.02186412 -0.054713305 0.042102024 0.04736602
0.051049035 0.0108728055 -0.034111585 0.008740877 -0.03545336 0.01907905 -0.034450203 0.0038844994
00000000: 2d2e 96bc 0ea6 25bd 74a3 b8bc 5d41 0f3d
00000010: 3900 213c 20cb 39bc e0ec 4e3c c0eb c53c
00000020: 1f76 0e3c 813b 453d 537b bfbc 78fe 433d
00000030: 7616 713c 1dd8 d9bc 3d01 203d 963d c03c
00000040: 614f 703c 58f2 ac3c 5d8b 563d 484c fcbc
00000050: 5780 edbb 0e11 9dbc f558 dcbc 2634 a73c
00000060: 3849 6e3d d7a9 323d 8e6a 133c 15f8 0b3d
00000070: 5c17 97bc 4b65 6d3d fb1b 453d ed13 35bd
00000080: ba73 a53c 758f fcbc 8d8c 03bc f39f 37bd
00000090: 8123 e6bc 97d0 ea3c 04fa 28bd 5d6b a83c
000000a0: 9304 62bd ad8c 3fbc 424d c5bc 01c3 3dbd
000000b0: 75ec 47bd b9a4 4ebc 3e05 843c 2082 d1bc
000000c0: 91bc 803c 64ee 9dbc 57e9 27bd 8c14 303d
000000d0: f49e 4dbd 9527 49bd d6e3 e5bc c552 e2bc
000000e0: 8f8d fd3c 8216 92bc 6c35 1b3d de88 33bd
000000f0: e86c 3a3d a19b 433d 783e 63bd fcc0 8d3c
00000100: cce5 33bd c1f3 7f3c ec6c 153d 08e2 203d
00000110: e4cf 8c3b e066 94bc f477 44bd 6dd7 cebc
00000120: 6d11 98bc 1feb b93a d51c 143d 0aef 66bd
00000130: b043 82bc 190c 593b 46bc 38bd ae04 963c
00000140: a1e8 313b d8bf 723c c464 b0bc 2899 5c3d
00000150: 1a06 9a3c 075d 1f3d ab88 da3c 4e80 81bc
00000160: 46dd 703d 8210 ab3c e906 553d 8e12 95bc
00000170: 52a0 0bbd a50c 153d b926 dcbc f413 8f3c
00000180: 3d50 6b3d 038d 0cbb 3138 533d 9428 623c
00000190: 6bc4 a23c d4a5 d6bc 5895 48bd 8c49 713c
000001a0: 9ecb 923c 0e6f 66bd 0ae1 66bd 0f0c 44bd
000001b0: 5438 24ba 2655 24bd 5b55 933c bee1 bb3c
000001c0: 6f36 20bb 416d 5bbd b627 dd3c 4652 1cbd
000001d0: 5dca d7bc 1047 573d 1881 1bbd 2029 cf3c
000001e0: f59b 1eba 48d3 47bd b132 5fbd ae0b 2c3b
000001f0: 7013 3fbd aa4f 45bd ac7f ba3c 1d72 eebb
00000200: 61d5 35bd af5b 3dbd 9430 4d3d b2a5 0abd
00000210: 7ba1 02bd 042a 2fbd 65ca 3cbc a777 523a
00000220: efc6 a73c d86c 4e3d b9c2 603c bb66 f83c
00000230: 73f6 383d 6209 22bd 63c7 1c3d c4b9 b73c
00000240: f3ce 6d3b aa14 c7bb 1d02 fe3c 3eeb c83b
00000250: 7f32 453d a2eb 9bbc d9c4 5b3d f87a daba
00000260: 0c12 1abd 499e 3ebd abc1 63bc 33e8 0d3d
00000270: 48cf 55bc 97a4 dc3c b606 3fbc 76fb a5bc
00000280: 7769 6a3d 3946 ecbc d0fd 423d ca73 d73c
00000290: 8978 633d a1b8 313d f9c2 443d 1fa8 57bd
000002a0: 27a5 8abc 9e56 1e3d ce08 6a3c 8137 483d
000002b0: ccc6 6ebd f2dc f6bc 104a 1a3d b1a1 923c
000002c0: 01d6 853c db1d 633c 9bb6 eb3b 1aa6 68bc
000002d0: a167 27bd ecbe 6ebc 24e7 00bd 0924 47bd
000002e0: b155 72bc 304c 21bd f53a a7bb cba2 673d
000002f0: ca71 45bc 41d5 d93c d696 243d 7a0f dc3c
00000300: 82d7 753c 43d9 1bbd 1645 eabb 9cc2 00bc
00000310: d7c7 583d a650 543c ff6c 53bd c710 adbb
00000320: 61b3 90bc 6e5e eebb 6308 5ebd 42a8 c7bc
00000330: cd87 4dbd 481c 563d 377f 0cbd 8a43 373d
00000340: 94a8 6fbd 6a3e 333d 4b0c 70b9 896a 4fbb
00000350: 9975 ffbc 40f1 463c 8ca4 90bc 0d7d 4bbd
00000360: 5f51 c1bc c5e8 04bc 4770 093c b440 103d
00000370: 38cc 103c d1dd 683c 782d 9d3c 9cc7 43bd
00000380: 89a5 84bc 5377 0bbd 14cb 94bc c27b 123d
00000390: a534 693c 0bab ba3c 69fd 4e3d 9b10 023d
000003a0: f29c f9bb 0e6d de3c 73c0 5abd f610 6cbd
000003b0: ba37 31bd bd96 543c 3d8c 2c3d 2925 43bd
000003c0: 2649 dabc 8d73 22bd 0894 663d eddd 64bc
000003d0: 621c b3bc 0f1b 60bd 2c73 2c3d df02 423d
000003e0: cb18 513d da23 323c 97b8 0bbd e535 0f3c
000003f0: 8b37 11bd ab4b 9c3c a81b 0dbd 1693 7e3b

cnn.2.bias f4 [64]
0.00408698 0.048970427 0.13825738 -0.03235363 -0.029922541 0.012553123 0.10444602 0.102293335
-0.03479063 -0.0015609312 -0.032653384 0.08269222 0.050536588 0.17846997 0.04971397 0.111085095
0.016751766 -0.036550213 0.00787129 -0.045280732 -0.041782048 -0.02717314 0.15235898 -0.016477788
0.023918876 0.050207257 -0.018406583 -0.03208918 -0.046562035 0.060330532 0.08495942 -0.0008190889
-0.030407757 0.07570029 0.24034774 0.06954757 0.109807186 0.058130614 -0.047569014 0.00655583
0.00909389 -0.055669054 -0.058247022 0.029928958 0.123770095 -0.05698684 0.14236757 0.013594382
0.1800758 -0.013635194 -0.039996617 0.109561116 -0.005085769 0.037439507 0.058836162 -0.008069472
0.1006476 0.047971666 -0.03309324 0.017542755 0.022324609 -0.045121897 0.053767543 0.01378255
00000000: 13ec 853b 3795 483d 5893 0d3e 3d85 04bd
00000010: 1e20 f5bc 9dab 4d3c cce7 d53d 2b7f d13d
00000020: 9f80 0ebd 2998 ccba 8ebf 05bd 8a5a a93d
00000030: 74ff 4e3d d5c0 363e e0a0 4b3d 9580 e33d
00000040: 003b 893c adb5 15bd 95f6 003c 4a78 39bd
00000050: a723 2bbd 349a debc fe03 1c3e 6dfc 86bc
00000060: 85f1 c33c 20a6 4d3d 67c9 96bc f26f 03bd
00000070: d5b7 3ebd 261d 773d 34ff ad3d 20b8 56ba
00000080: b019 f9bc c108 9b3d b81d 763e f56e 8e3d
00000090: 97e2 e03d 5e1a 6e3d bad7 42bd 4ad2 d63b
000000a0: 8afe 143c 3c05 64bd 6e94 6ebd 932d f53c
000000b0: 2d7b fd3d 086b 69bd cec8 113e f9ba 5e3c
000000c0: ca65 383e 2666 5fbc 7ed3 23bd 9461 e03d
000000d0: 86a6 a6bb 2b5a 193d 30fe 703d d235 04bc
000000e0: 5420 ce3d f07d 443d c78c 07bd d3b5 8f3c
000000f0: 19e2 b63c bdd1 38bd 5b3b 5c3d 34d0 613c

state_net.0.weight f4 [32, 4]
0.30623502 0.13779092 -0.26778603 -0.34612864 0.14044794 0.25313276 0.49499208 -0.18059383
-0.42129022 0.22445309 -0.4491678 -0.34949434 -0.11083156 0.23099238 -0.275016 -0.15497965
-0.23751241 0.46544075 -0.26368904 -0.40302265 0.14686662 0.13077797 0.042201687 0.11456323
0.18441598 0.17750399 0.3939721 0.46709004 -0.19647528 0.19900386 0.09151445 0.17882949
0.22849084 0.39626336 0.28278673 -0.21804315 0.17264707 0.07985423 0.38940766 -0.44696128
-0.47892863 0.101587534 -0.08587086 -0.3846674 -0.46623373 -0.29007137 -0.3857913 -0.12324214
-0.3882189 -0.0072392155 0.47775877 0.3296282 -0.33738178 0.47600567 -0.15945894 -0.43685168
0.34192908 -0.023478845 -0.515456 0.35077697 0.12957527 0.4489641 -0.29592526 0.3056436
0.2578586 0.30237362 0.46201164 -0.28120148 0.07009648 -0.22461398 -0.11660401 0.34035125
0.29919484 -0.100414485 -0.3379544 0.45756298 -0.3023801 -0.29676613 0.080362365 0.10413933
-0.46003252 0.06073587 0.00413209 -0.4544718 -0.48712143 0.19494332 0.47560996 0.35183957
0.12904383 0.37663093 0.31813627 0.1723362 -0.251062 -0.49493736 -0.13841234 0.46265116
-0.3225254 0.4251467 0.4406775 0.42570862 -0.14710319 -0.038556576 0.0367952 -0.0013334751
-0.49450958 -0.3323167 0.45325208 -0.44588384 -0.45223856 0.13599157 0.0046803355 -0.17565626
0.079770245 0.054265305 0.28237188 0.22366245 0.14956461 0.479604 -0.4410712 -0.32053283
-0.48313397 -0.3419873 0.24523163 0.33843338 0.08449117 -0.09991119 0.12874281 -0.041281316
00000000: d6ca 9c3e 1019 0d3e 401b 89be c637 b1be
00000010: 96d1 0f3e 9e9a 813e 9a6f fd3e 97ed 38be
00000020: 5ab3 d7be 08d7 653e 52f9 e5be ecf0 b2be
00000030: a8fb e2bd 4489 6c3e e6ce 8cbe fcb2 1ebe
00000040: 7436 73be 404e ee3e 4002 87be fc58 cebe
00000050: 3464 163e a9ea 053e addb 2c3d 20a0 ea3d
00000060: 8bd7 3c3e 9bc3 353e b6b6 c93e 6d26 ef3e
00000070: d130 49be abc7 4b3e ee6b bb3d 141f 373e
00000080: 81f9 693e 08e3 ca3e 6cc9 903e b446 5fbe
00000090: 65ca 303e 9d8a a33d 7160 c73e 1cd8 e4be
000000a0: 2236 f5be 200d d03d 10dd afbd 20f3 c4be
000000b0: 30b6 eebe 3c84 94be 7086 c5be 6066 fcbd
000000c0: a1c4 c6be f136 edbb cc9c f43e 07c5 a83e
000000d0: 4ebd acbe 04b7 f33e 3449 23be 06ab dfbe
000000e0: 5411 af3e b556 c0bc edf4 03bf 0a99 b33e
000000f0: 61af 043e 9fde e53e 8483 97be 517d 9c3e
00000100: 0b06 843e b7d0 9a3e ca8c ec3e a4f9 8fbe
00000110: be8e 8f3d 3501 66be 15ce eebd 8542 ae3e
00000120: 1130 993e 1ca6 cdbd 5c08 adbe b245 ea3e
00000130: 91d1 9abe bbf1 97be 0695 a43d 0047 d53d
00000140: 6289 ebbe 2dc6 783d 7c66 873b 87b0 e8be
00000150: fb67 f9be 399f 473e 2683 f33e 5124 b43e
00000160: 1124 043e c5d5 c03e c2e2 a23e e778 303e
00000170: 338b 80be 6e68 fdbe f7bb 0dbe 9de0 ec3e
00000180: 0d22 a5be d4ac d93e 7ba0 e13e 7bf6 d93e
00000190: 38a2 16be 80ed 1dbd 90b6 163d 00c8 aeba
000001a0: 5c30 fdbe 6a25 aabe a810 e83e e34a e4be
000001b0: d08b e7be 6041 0b3e 805d 993b 3cdf 33be
000001c0: 955e a33d 4c45 5e3d 0c93 903e c507 653e
000001d0: 7727 193e a88e f53e 16d4 e1be e11c a4be
000001e0: 565d f7be f618 afbe 001e 7b3e 2447 ad3e
000001f0: b509 ad3d 3d9e ccbd 28d5 033e 9916 29bd

state_net.0.bias f4 [32]
-0.2810313 0.18269964 0.013002551 -0.3545053 -0.08572757 -0.1262698 0.28008917 0.45096797
-0.071655795 0.055054862 -0.3232438 -0.26824343 0.48417854 -0.39299095 0.405052 -0.24007739
0.24509345 0.5019186 -0.071086906 0.24406666 0.4746338 0.46401572 -0.20086683 0.36742237
-0.05488612 -0.28654087 -0.0021518576 -0.07262236 -0.025844077 -0.023218155 -0.3065483 -0.081826076
00000000: 56e3 8fbe 9d15 3b3e a708 553c b881 b5be
00000010: f091 afbd df4c 01be d967 8f3e 46e5 e63e
00000020: 46c0 92bd 3581 613d 3680 a5be 3457 89be
00000030: 40e6 f73e 1c36 c9be fa62 cf3e d9d6 75be
00000040: c7f9 7a3e bd7d 003f 0396 91bd 9cec 793e
00000050: 3403 f33e 7893 ed3e 09b0 4dbe c91e bc3e
00000060: 45d0 60bd 7cb5 92be 2e06 0dbb 08bb 94bd
00000070: f5b6 d3bc 0034 bebc e6f3 9cbe 6e94 a7bd

state_net.2.weight f4 [32, 32]
0.13114892 -0.101938225 0.16008304 -0.03736356 -0.083674245 -0.11423592 -0.108353354 0.09176714
-0.018537814 -0.037477825 0.07328536 0.16453788 -0.012211723 0.17312331 -0.06476297 0.020993108
-0.0195183 0.13556044 0.13233513 0.02881217 -0.01803453 0.06862043 0.01103814 -0.005333938
0.055779636 -0.046903964 0.17345704 0.015999807 0.09095723 0.02436878 -0.11156454 0.08513895
0.07933177 0.08476268 -0.14636917 -0.10286623 0.048214875 -0.016816402 0.19246325 -0.012445955
0.12965697 0.047208548 -0.15081276 -0.1713333 0.082099505 -0.03934406 -0.08173316 -0.038422324
-0.08502741 -0.06026486 0.08813665 0.10256542 0.16994253 -0.08412086 -0.010744736 -0.07875006
0.150667 -0.11004028 0.005873777 0.10941777 0.054681502 -0.012836112 0.09012783 0.032147415
0.10101286 -0.053018223 -0.141564 0.1319462 -0.114198804 0.014504749 0.060024846 0.12932175
-0.09624124 -0.11661468 0.0032347073 -0.1451225 0.06480687 0.039979424 0.15220289 -0.03744813
-0.14187633 0.06493873 0.08949086 -0.08195403 0.014139477 -0.1454063 0.072538406 0.00627344
0.15172163 -0.049488027 0.07795998 0.13397124 -0.16399701 -0.048755046 -0.10335427 0.011297038
0.17232223 0.11644267 -0.10491368 -0.09386057 -0.06194615 -0.030535882 0.15468973 0.17323582
-0.12100411 0.03409099 0.0003840842 -0.08950469 -0.16029851 -0.15219003 -0.026429748 -0.08209787
-0.0062315026 0.1249485 -0.15793256 -0.0003691238 0.13457188 0.07956819 -0.10246324 0.038369626
-0.112748 0.08636448 -0.06105221 0.108001575 0.14323612 -0.110066615 0.06703429 0.10330757
-0.10233272 0.045420166 0.009114825 0.14420877 0.09180346 -0.027055593 0.02885621 -0.14224797
0.11171123 0.045347188 0.17613363 -0.041617338 -0.052001208 -0.17356479 -0.1471389 -0.11498505
0.12030585 0.015571868 -0.08751292 -0.17317154 -0.13098024 0.059949968 -0.00012574953 0.17143112
-0.0050052023 0.072724156 0.050437365 -0.14473389 0.010982546 -0.13440676 0.16847555 -0.14123082
0.10875423 -0.10155703 -0.045211513 -0.076026715 0.07792299 0.034672864 0.09295777 0.18203942
-0.1473766 0.0025215494 -0.13791178 0.057059605 -0.06842152 0.029663816 0.061267074 0.13024294
-0.065281816 0.17144246 0.08115388 -0.1416582 -0.017198293 -0.1557884 0.071395166 -0.104212075
-0.04372133 -0.084108226 0.078064054 0.1330619 0.0077194124 -0.06023014 -0.12677068 0.14870656
0.10529962 -0.152395 0.07138247 0.024358582 -0.14136235 -0.14046887 0.169885 -0.109399736
0.079001896 -0.098933935 -0.17206648 -0.022663308 0.047958925 -0.124018304 0.060283437 0.08512975
0.0741396 0.102835655 -0.15176305 0.15731357 -0.15747401 -0.0389054 0.014890046 -0.054715805
-0.0086477585 -0.029672688 -0.17255935 -0.10246025 -0.124906085 0.0889288 -0.05509632 0.112686396
0.13648035 -0.17059764 0.0955265 -0.055367135 -0.10693681 -0.04562919 0.006193658 0.0072761453
-0.004658692 0.15318903 0.093533546 0.01997474 0.0383756 0.1759871 -0.016333278 -0.09786532
0.1627768 0.013702931 -0.11232982 -0.05504196 0.11402283 -0.0715279 -0.16872308 -0.076491
0.08984639 -0.044018716 -0.017156053 -0.066585384 -0.08437487 -0.08944297 0.10193203 0.07090695
00000000: e74b 063e fdc4 d0bd cfec 233e 880a 19bd
00000010: 675d abbd 86f4 e9bd 5de8 ddbd 69f0 bb3d
00000020: 9ddc 97bc 5982 19bd a316 963d 9e7c 283e
00000030: ae13 48bc 3d47 313e 73a2 84bd bdf9 ab3c
00000040: d8e4 9fbc 5bd0 0a3e dc82 073e 8007 ec3c
00000050: 27bd 93bc de88 8c3d 51d9 343c 51c8 aebb
00000060: 3079 643d 5f1e 40bd b99e 313e 0712 833c
00000070: c947 ba3d 09a1 c73c f37b e4bd 545d ae3d
00000080: b278 a23d 0e98 ad3d cde1 15be 88ab d2bd
00000090: f67c 453d 8dc2 89bc 1615 453e 1eea 4bbc
000000a0: ccc4 043e c05d 413d a96e 1abe ff71 2fbe
000000b0: c923 a83d 3d27 21bd b763 a7bd ba60 1dbd
000000c0: da22 aebd 49d8 76bd fd80 b43d d20d d23d
000000d0: 6a05 2e3e 8f47 acbd b00a 30bc b647 a1bd
000000e0: 7348 1a3e cc5c e1bd d078 c03b 6c16 e03d
000000f0: b6f9 5f3d 8e4e 52bc f194 b83d 02ad 033d
00000100: d5df ce3d a329 59bd 27f6 10be e81c 073e
00000110: 10e1 e9bd 54a5 6d3c 9ddc 753d ec6c 043e
00000120: 211a c5bd add3 eebd 62fd 533b fe9a 14be
00000130: 77b9 843d 77c1 233d 13db 1b3e 3663 19bd
00000140: 0748 11be 99fe 843d fc46 b73d 84d7 a7bd
00000150: 44a9 673c 64e5 14be 048f 943d 6e91 cd3b
00000160: ea5c 1b3e f5b3 4abd 7ba9 9f3d c22f 093e
00000170: d5ee 27be 5fb3 47bd 67ab d3bd 3617 393c
00000180: 3d75 303e 7f79 ee3d fcdc d6bd f839 c0bd
00000190: 3fbb 7dbd 6326 fabc fc66 1e3e bb64 313e
000001a0: 01d1 f7bd fea2 0b3d e95e c939 3c4e b7bd
000001b0: 4b25 24be b4d7 1bbe 3383 d8bc ee22 a8bd
000001c0: a231 ccbb 00e5 ff3d 13b9 21be f586 c1b9
000001d0: 36cd 093e a6f4 a23d 3fd8 d1bd 7829 1d3d
000001e0: 6ce8 e6bd dcdf b03d e211 7abd ee2f dd3d
000001f0: 7dac 123e 9b6a e1bd 4649 893d eb92 d33d
00000200: d193 d1bd 7f0a 3a3d 5956 153c 77ab 133e
00000210: 7403 bc3d b1a3 ddbc dc63 ec3c 74a9 11be
00000220: dbc8 e43d f9bd 393d 605c 343e f176 2abd
00000230: 38ff 54bd f8ba 31be 94ab 16be 487d ebbd
00000240: ea62 f63d 2621 7f3c f939 b3bd e153 31be
00000250: af1f 06be 198e 753d a2db 03b9 a48b 2f3e
00000260: ae02 a4bb 67f0 943d 6997 4e3d 1f35 14be
00000270: 23f0 333c eda1 09be db84 2c3e d09e 10be
00000280: 8aba de3d 22fd cfbd b52f 39bd e5b3 9bbd
00000290: 1796 9f3d 2205 0e3d a560 be3d 8b68 3a3e
000002a0: e4e9 16be 9440 253b bf38 0dbe 55b7 693d
000002b0: 9520 8cbd 8801 f33c 2ff3 7a3d 685e 053e
000002c0: 79b2 85bd 9d8e 2f3e 0134 a63d d90e 11be
000002d0: 6fe3 8cbc ff86 1fbe a137 923d 246d d5bd
000002e0: 2315 33bd ef40 acbd 0ce0 9f3d 6141 083e
000002f0: 20f3 fc3b e1b3 76bd 2cd0 01be 8846 183e
00000300: 54a7 d73d 6f0d 1cbe f930 923d a68b c73c
00000310: 4bc1 10be 12d7 0fbe 55f6 2d3e f80c e0bd
00000320: bfcb a13d e09d cabd 3232 30be 67a8 b9bc
00000330: 9470 443d 4ffd fdbd c4eb 763d 8258 ae3d
00000340: 81d6 973d 809b d23d c667 1bbe cf16 213e
00000350: de40 21be 455b 1fbd 61f5 733c ae1d 60bd
00000360: 54af 0dbc 2314 f3bc 66b3 30be aed6 d1bd
00000370: c3ce ffbd 4d20 b63d aeac 61bd 20c8 e63d
00000380: 81c1 0b3e 26b1 2ebe 66a3 c33d a6c8 62bd
00000390: b001 dbbd ace5 3abd 2bf4 ca3b bb6c ee3b
000003a0: f1a7 98bb 96dd 1c3e 848e bf3d 11a2 a33c
000003b0: bc2f 1d3d f635 343e 5ecd 85bc 9d6d c8bd
000003c0: f6ae 263e 4282 603c 2d0d e6bd ae73 61bd
000003d0: cd84 e93d 387d 92bd bec5 2cbe 50a7 9cbd
000003e0: 6201 b83d f84c 34bd da8a 8cbc eb5d 88bd
000003f0: bbcc acbd e02d b7bd bdc1 d03d aa37 913d

state_net.2.bias f4 [32]
0.14368853 -0.076434955 0.14012022 0.13225348 -0.061483666 0.0034181054 0.09072785 -0.049542125
0.07283625 0.084433414 -0.12636949 -0.16329966 -0.16493303 -0.08699038 -0.093284756 -0.018769607
0.041368164 -0.046628196 -0.11044586 0.13981664 -0.01896212 -0.092033714 0.13307557 0.12639475
0.06490255 -0.16273874 0.0009840443 -0.13759336 0.15965351 0.08862275 -0.028901836 0.056699354
00000000: 1623 133e ee89 9cbd ad7b 0f3e 756d 073e
00000010: 4cd6 7bbd 4b02 603b 86cf b93d afec 4abd
00000020: 2c2b 953d 6deb ac3d 0167 01be 0738 27be
00000030: 34e4 28be 0328 b2bd 140c bfbd b8c2 99bc
00000040: aa71 293d 35fd 3ebd 7031 e2bd 182c 0f3e
00000050: 7356 9bbc 2c7c bcbd f644 083e a06d 013e
00000060: a1eb 843d fca4 26be 0cfb 803a 46e5 0cbe
00000070: 367c 233e d87f b53d 8bc3 ecbc 953d 683d

shared_net.0.weight f4 [128, 1056]
0.02454324 0.0017724374 -0.002380862 -0.025493333 0.022373874 0.027103815 0.016368238 -0.016019568
-0.018577958 -0.01740944 -0.026161278 -0.013249967 0.022816835 0.012015404 -0.021075934 -0.0030675153
-0.009946627 -0.011460641 -0.012906598 0.02126925 -0.0030837073 0.0032594514 -0.0010523316 -0.017897822
0.025204627 -0.009211829 0.0017146008 0.01806226 -0.013383214 -0.022441117 0.019794973 0.0026031667
-0.010653 0.0128418775 0.014997178 0.0146696055 0.009188212 -0.025709983 -0.02464561 0.0088991765
-3.4292654e-05 0.0031236222 -0.030085737 -0.018253664 0.024746861 -0.023820296 -0.02594439 -0.017125847
0.02830913 -0.025673252 0.026339928 -0.017956536 0.026976872 0.00086510065 -0.010311879 -0.0265878
0.022901038 0.0042494945 -0.0031482566 0.021530436 -0.011395374 -0.016707474 0.015421168 -0.015856992
0.02635894 -0.015654875 -0.022079902 -0.022118056 0.025836425 -0.009579641 -0.025396032 0.022284243
0.0011710966 -0.0011546217 -0.008526567 0.008866633 -0.0049897158 0.005615932 -0.016138483 -0.01771455
-0.00028984493 0.01027088 0.017166259 -0.0050390046 -0.027481 0.008356196 -0.009462684 0.025778249
0.016257372 -0.028584994 0.0057142167 -0.002907565 0.030292435 0.02661875 0.020163076 -0.008915808
-0.013518047 -0.013462727 0.025694283 0.023149956 -0.007896194 -0.025049146 -0.030241476 0.009612472
-0.00057173765 -0.0005215656 0.0079144705 0.026128165 -1.4222215e-05 0.02831815 -0.011941295 0.0070866863
0.023530692 -0.019463142 -0.028210538 -0.015285496 0.016038517 -0.01800958 0.024511935 0.002306388
-0.01267854 0.009600717 0.0089777075 0.017234147 -0.0138106 0.027564432 -0.010588234 0.024940813
-0.018197706 -0.026425973 -0.006541021 0.030070785 0.025490336 0.0025479323 0.00020215886 0.007707393
0.01608827 0.0021375364 -0.005386469 -0.024571568 0.013782518 0.022567336 -0.027347742 0.023554347
-0.0051276297 -0.010258635 -0.025650704 -0.013244366 0.018685957 0.0023499543 -0.026272794 -0.02823662
-0.00081321364 -0.005698508 -2.9474484e-05 -0.005227359 -0.029072398 -0.021201259 -0.009092512 0.026254015
0.01999725 0.009004767 -0.011501859 0.019761201 -0.01731741 -0.003290452 0.007920612 -0.030352406
-0.005662223 -0.0025937948 -0.008401123 0.0057881568 0.010553526 -0.012912642 -0.029804999 -0.016982783
-0.001243896 -0.022184616 0.011813251 0.013701422 0.019403938 0.022988152 -0.010671174 -0.0152603565
-0.020226406 -0.006148067 0.009069359 -0.0104905665 -0.027447697 0.02965413 -0.009379371 0.019349562
0.0067592394 -0.014709936 -0.012966861 -0.010458273 -0.028098978 -0.0069353753 0.027921434 -0.021552028
0.0015532232 0.02178479 -0.011091753 -0.017782908 0.015515652 0.021021558 -0.03074019 -0.004812579
0.0198924 0.02512161 -0.007813194 0.009590523 -0.025209496 0.026081568 0.018902272 -0.028883565
0.012670523 0.01445515 0.0029219585 -0.01430904 0.0051904484 -0.031138599 0.021544682 0.00045704076
0.011685258 -0.030738194 -0.0087467665 0.01667892 0.01820109 0.020894052 -0.030423228 -0.019462153
0.02301608 0.0189867 -0.015262494 0.0034758004 -0.025760595 0.007479984 -0.029926442 0.01133852
0.0008644368 0.0016042823 -0.020674357 -0.014353216 0.018529704 -0.02072775 -0.015551301 0.02833077
-0.031129416 0.009774333 -0.015264834 -0.028256185 0.01577543 0.011817434 -0.022666013 -0.012739776
00000000: e80e c93c 2151 e83a 3c08 1cbb 65d7 d0bc
00000010: 6a49 b73c d208 de3c af16 863c 783b 83bc
00000020: cd30 98bc 3e9e 8ebc 2d50 d6bc 6416 59bc
00000030: 5fea ba3c 42dc 443c 70a7 acbc 5e08 49bb
00000040: 2df7 22bc 6ac5 3bbc 3276 53bc da3c ae3c
00000050: 0618 4abb 859c 553b 64ee 89ba 749e 92bc
00000060: ef79 ce3c 36ed 16bc 75bc e03a 4ef7 933c
00000070: 4545 5bbc 6fd6 b7bc 1129 a23c e499 2a3b
00000080: ec89 2ebc bd66 523c b9b6 753c c958 703c
00000090: 288a 163c be9d d2bc 97e5 c9bc dacd 113c
000000a0: 75d5 0fb8 afb5 4c3b 5d76 f6bc b588 95bc
000000b0: eeb9 ca3c c822 c3bc 5489 d4bc 814b 8cbc
000000c0: 8ce8 e73c b650 d2bc d5c6 d73c 9619 93bc
000000d0: 9afe dc3c ecc7 623a 28f3 28bc a8ce d9bc
000000e0: f59a bb3c 583f 8b3b fb52 4ebb 9960 b03c
000000f0: aab3 3abc 1dde 88bc 11a9 7c3c 86e6 81bc
00000100: b4ee d73c a73e 80bc e9e0 b4bc ed30 b5bc
00000110: e9a6 d33c edf3 1cbc 570b d0bc 728d b63c
00000120: 7b7f 993a ad56 97ba 04b3 0bbc 5b45 113c
00000130: c580 a3bb da05 b83b da34 84bc 1b1e 91bc
00000140: 54f6 97b9 3147 283c 41a0 8c3c 3c1e a5bb
00000150: d61f e1bc 6de8 083c 6009 1bbc e82c d33c
00000160: 2e2e 853c 142b eabc 533e bb3b d98c 3ebb
00000170: d727 f83c 910f da3c 092d a53c 9c13 12bc
00000180: cc7a 5dbc c592 5cbc d17c d23c faa4 bd3c
00000190: 0a5f 01bc de33 cdbc f9bc f7bc a17d 1d3c
000001a0: aae0 15ba adb9 08ba b2ab 013c bc0a d63c
000001b0: f39b 6eb7 77fb e73c 6ca5 43bc 6f37 e83b
000001c0: 70c3 c03c 2b71 9fbc c919 e7bc 0470 7abc
000001d0: 3563 833c d488 93bc 41cd c83c c526 173b
000001e0: a7b9 4fbc 534c 1d3c 3c17 133c a02e 8d3c
000001f0: db45 62bc cece e13c 467a 2dbc ad50 cc3c
00000200: 5b13 95bc 487b d8bc 1056 d6bb 0257 f63c
00000210: 1cd1 d03c 36fb 263b 9bfa 5339 4c8e fc3b
00000220: 8ccb 833c e915 0c3b fa80 b0bb 504a c9bc
00000230: 12d0 613c 22df b83c 5f08 e0bc 0cf5 c03c
00000240: ad05 a8bb d513 28bc 6d21 d2bc e6fe 58bc
00000250: 4b13 993c b101 1a3b 0b3a d7bc 7c50 e7bc
00000260: d82d 55ba 8dba babb f93f f7b7 444a abbb
00000270: 3d29 eebc 43ae adbc c2f8 14bc a912 d73c
00000280: 46d1 a33c bb88 133c 4b72 3cbc 3ee2 a13c
00000290: 3edd 8dbc a0a4 57bb 74c5 013c 9ca5 f8bc
000002a0: 2b8a b9bb a8fc 29bb dda4 09bc 94aa bd3b
000002b0: b2e8 2c3c 8c8f 53bc 9d29 f4bc 7a1f 8bbc
000002c0: 390a a3ba 83bc b5bc 5e8c 413c ee7b 603c
000002d0: 02f5 9e3c a651 bc3c 26d6 2ebc 9306 7abc
000002e0: d9b1 a5bc b975 c9bb a697 143c a0e0 2bbc
000002f0: fed9 e0bc 38ed f23c efab 19bc f982 9e3c
00000300: 9c7c dd3b f201 71bc f572 54bc 2d59 2bbc
00000310: d42f e6bc 2542 e3bb 7ebb e43c e18d b0bc
00000320: 8695 cb3a 0476 b23c 2fba 35bc 76ad 91bc
00000330: 5c35 7e3c 6735 ac3c dad2 fbbc d7b2 9dbb
00000340: 63f5 a23c d6cb cd3c e902 00bc 9221 1d3c
00000350: 2584 cebc 03a9 d53c f0d8 9a3c 3a9d ecbc
00000360: 0698 4f3c 4bd5 6c3c 547e 3f3b 7770 6abc
00000370: a314 aa3b 6016 ffbc 797e b03c f99e ef39
00000380: 8673 3f3c aace fbbc 994e 0fbc 3ba2 883c
00000390: 741a 953c 012a ab3c 223a f9bc 186f 9fbc
000003a0: 388c bc3c ff89 9b3c 8a0f 7abc 41ca 633b
000003b0: e207 d3bc a71a f53b 4c28 f5bc 33c5 393c
000003c0: 5f9b 623a c846 d23a 455d a9bc c029 6bbc
000003d0: 9bcb 973c 3ecd a9bc e2ca 7ebc ee15 e83c
000003e0: 1e03 ffbc 8624 203c 5b19 7abc 8479 e7bc
000003f0: 793b 813c e99d 413c 13ae b9bc 7eba 50bc

shared_net.0.bias f4 [128]
0.011998432 0.011075527 -0.008872209 0.010038478 -0.0052069044 -0.03931622 -0.027916474 0.0031520282
-0.0049960297 0.05169716 -0.014631638 0.015121812 -0.023736576 -0.017193584 -0.012469783 0.013119658
-0.012320478 0.011162862 0.108462036 -0.02208721 -0.016286818 -0.015340739 0.016476193 0.013655433
0.00046196007 -0.030126901 0.03580801 -0.02365155 -0.0005334058 0.011117908 0.061232395 -0.03382338
0.0037092417 -0.020507999 0.007763854 0.009986359 -0.0022402562 -0.021222588 0.04221134 0.04058002
0.00044100592 0.04397824 0.015323083 0.0138649475 -0.00092953164 -0.0010886975 0.0038053817 0.010505685
-0.0287705 -0.028406633 0.037338883 0.009104687 0.07400419 -0.012188061 0.059976384 -0.011259898
-0.017358769 -0.0017639282 -0.0066141114 -0.015752072 0.01717556 -0.013645558 -0.000114647686 -0.0042230655
-0.021494059 -0.0011826728 0.023207316 0.02251355 -0.0060253083 -0.02795045 -0.019212872 0.027386013
-0.016278425 -0.03044195 -0.019357584 0.045887817 -0.006671371 -0.018248491 0.0060879514 0.052254856
0.0012838233 0.106702805 0.04482842 -0.02192409 -0.021452148 0.014858994 -0.0027190654 -0.0049366653
0.044195585 -0.019704774 -0.029957293 -0.011714546 -0.031201059 -0.024477331 0.06689174 -0.017966082
0.027439468 0.089591056 -0.02607135 -0.01133335 0.013328614 -0.0035202636 0.030157514 0.072105065
-0.026132273 0.060060315 0.0065596346 -0.016700007 -0.016101032 -0.013839914 0.026478566 0.0211878
-0.016228883 0.0014126799 0.03686892 0.026597682 0.018811952 0.048172224 -0.024745438 0.009123239
-0.0057629985 -0.006446675 0.061619345 0.009268418 -0.022655215 -0.004292457 0.07371461 0.0016299892
00000000: 1295 443c 2176 353c be5c 11bc 6e78 243c
00000010: ae9e aabb 0b0a 21bd 17b1 e4bc 4292 4e3b
00000020: bcb5 a3bb 67c0 533d 8ab9 6fbc 7ac1 773c
00000030: 3573 c2bc 8fd9 8cbc 104e 4cbc d6f3 563c
00000040: d5db 49bc 70e4 363c 5821 de3d 3df0 b4bc
00000050: ef6b 85bc b957 7bbc 15f9 863c 0abb 5f3c
00000060: 3b33 f239 b1cc f6bc 6bab 123d e5c0 c1bc
00000070: 42d4 0bba e327 363c d2ce 7a3d 628a 0abd
00000080: c016 733b 6400 a8bc ee67 fe3b d39d 233c
00000090: 43d1 12bb feda adbc cce5 2c3d 3c37 263d
000000a0: d036 e739 8722 343d ab0d 7b3c ce29 633c
000000b0: d0ab 73ba a0b2 8eba b663 793b 0920 2c3c
000000c0: 1db0 ebbc 07b5 e8bc a8f0 183d d32b 153c
000000d0: 828f 973d 6fb0 47bc cca9 753d 6f7b 38bc
000000e0: fa33 8ebc 9c33 e7ba 30bb d8bb 7d0a 81bc
000000f0: c3b3 8c3c 9e91 5fbc 026f f0b8 a461 8abb
00000100: 4f14 b0bc ea03 9bba 451d be3c 566e b83c
00000110: f36f c5bb 58f8 e4bc 5064 9dbc a258 e03c
00000120: 555a 85bc 6561 f9bc cc93 9ebc ddf4 3b3d
00000130: 849b dabb dc7d 95bc 707d c73b 3009 563d
00000140: f645 a83a 0087 da3d 019e 373d 269a b3bc
00000150: 6abc afbc 2373 733c 5932 32bb c0c3 a1bb
00000160: 6e06 353d e86b a1bc ff68 f5bc 5eee 3fbc
00000170: 5d99 ffbc af84 c8bc 89fe 883d 9b2d 93bc
00000180: bcc8 e03c 847b b73d 9593 d5bc 84af 39bc
00000190: 4260 5a3c 39b4 66bb e40c f73c d2ab 933d
000001a0: 5913 d6bc ce01 763d 34f2 d63b 74ce 88bc
000001b0: 50e6 83bc cfc0 62bc 94e9 d83c 0a92 ad3c
000001c0: 6ff2 84bc ac29 b93a dd03 173d 62e3 d93c
000001d0: 861b 9a3c 3d50 453d f2b6 cabc a379 153c
000001e0: 89d7 bcbb a13e d3bb 9164 7c3d 90da 173c
000001f0: 6e97 b9bc bda7 8cbb aff7 963d 5da5 d53a

shared_net.2.weight f4 [64, 128]
-0.027948337 -0.017364701 -0.020930577 0.047339156 -0.03999384 -0.0006001824 -0.07031448 0.019829543
-0.013893118 -0.027027978 0.0052373568 -0.06730534 0.04881991 -0.029546153 -0.071340255 0.030926168
-0.010348212 -0.006176884 -0.032076035 0.026642729 0.016236791 -0.03685265 -0.051132187 -0.088387914
0.06522447 -0.064210236 0.06021649 -0.03550503 0.050507076 -0.084183306 -0.03265834 -0.07940177
-0.046971336 -0.050176412 -0.043541495 0.07496738 0.04322387 0.046962038 0.049722336 0.06918027
-0.06300824 -0.006273454 0.03499119 0.048789453 0.07290403 -0.021021478 -0.048166506 0.07449877
0.05696563 0.018734073 -0.046119295 0.045133553 0.056687366 0.057556346 -0.028210739 0.0060538785
-0.0012643328 0.040359616 -0.037868194 -0.03904163 0.0770943 0.042207118 -0.047528256 0.08230957
0.03861118 -0.081647925 -0.0776512 -0.017539583 -0.021376418 -0.07410141 0.083901465 -0.085338466
-0.0045634923 0.03769548 -0.045215055 0.07370213 -0.027423805 -0.02576929 -0.031636458 -0.021498902
-0.081223585 -0.08177392 -0.073690146 -0.07216461 0.024815295 0.08495627 0.0019186322 0.04173254
0.03266348 0.022427412 0.038389824 -0.06819736 -0.07470917 0.044398744 0.03733318 0.050357834
0.052915763 -0.005478962 -0.006867751 0.035180606 0.020252073 0.04742439 0.07747356 -0.013177135
0.0056577716 0.058580507 -0.075765975 -0.019552618 -0.05586709 0.025494227 0.031006765 -0.041152902
0.0280596 -0.021204637 -0.05271795 -3.052901e-05 -0.007100625 0.030843373 -0.03365129 -0.021324208
-0.052348018 0.08483722 -0.007287782 -0.087501496 -0.08452767 0.046324126 -0.014974131 -0.08295083
-0.032116994 -0.023502694 -0.04773159 -0.044026483 0.057464674 0.025902951 0.080435775 0.0015181716
0.055011615 0.040358562 0.012557442 0.012272519 0.0023242617 -0.08783065 0.04201004 0.0753757
-0.014014547 -0.0840051 -0.0024913053 0.0002637495 -0.037621126 -0.084435634 0.06529767 -0.06333792
0.057955887 -0.034471337 -0.083729304 0.07220406 -0.025544964 0.07019787 -0.04585361 0.0031320024
-0.020434067 -0.037598193 -0.017557697 0.078623 -0.0018264294 -0.044275016 0.053625464 -0.020132374
-0.02266729 0.023741795 -0.084090285 0.018506428 -0.0234775 0.06536153 0.016508972 0.067410305
0.039612174 -0.028058548 0.030225176 -0.084128186 0.044208303 -0.03156882 -0.037410755 -0.05619651
0.07791399 -0.036573265 0.0667846 0.0061002295 0.06242375 0.031934176 -0.027712973 0.020084174
-0.020438796 0.08327108 0.017531287 -0.034954917 0.018802341 0.009142146 0.0859243 0.04955445
-0.075188935 0.04577967 -0.0013920893 0.06427494 0.004871038 0.041531906 -0.074901946 -0.0072242282
0.038170576 -0.083451785 -0.023924783 0.0029793186 0.03322966 0.03475265 0.07657901 0.038284242
0.058251113 -0.08505456 -0.03618977 0.056371287 -0.020202378 0.0076659955 -0.065172076 -0.020265585
0.06529924 0.037671853 0.061432295 0.044507038 0.067499906 0.024299823 -0.029845437 0.057011887
-0.07201908 0.01970326 -0.031502746 -0.05357622 0.029530548 -0.08680992 -0.057039596 -0.0842093
-0.028278923 0.0870597 -0.042444345 -0.086566426 -0.02069586 0.047754634 0.07448316 -0.0704492
-0.06021417 -0.047660552 0.027097708 -0.03856579 -0.0010857766 -0.0041333204 -0.06863492 0.08201491
00000000: e9f3 e4bc 6b40 8ebc 9a76 abbc b4e6 413d
00000010: 95d0 23bd 8f55 1dba 0a01 90bd 9171 a23c
00000020: f69f 63bc c769 ddbc 229e ab3b 62d7 89bd
00000030: 63f7 473d c60a f2bc d71a 92bd e058 fd3c
00000040: 8c8b 29bc 7567 cabb 2962 03bd da41 da3c
00000050: 0503 853c cef2 16bd fc6f 51bd b904 b5bd
00000060: 6894 853d a880 83bd 91a5 763d b96d 11bd
00000070: 82e0 4e3d 4c68 acbd c0c4 05bd 659d a2bd
00000080: 0465 40bd c885 4dbd 9158 32bd 7f88 993d
00000090: 830b 313d 445b 403d a6a9 4b3d 63ae 8d3d
000000a0: 770a 81bd 8c91 cdbb ec52 0f3d 73d7 473d
000000b0: b54e 953d 3c35 acbc 3e4a 45bd d092 983d
000000c0: cb54 693d 3378 993c 96e7 3cbd f6dd 383d
000000d0: 0331 683d 34c0 6b3d 351a e7bc 9d5f c63b
000000e0: f8b7 a5ba 2050 253d ae1b 1bbd 1eea 1fbd
000000f0: 9ee3 9d3d 5fe1 2c3d fdac 42bd eb91 a83d
00000100: c226 1e3d 0737 a7bd 9807 9fbd 2caf 8fbc
00000110: 991d afbc 7bc2 97bd 88d4 ab3d efc5 aebd
00000120: 5989 95bb 9366 1a3d 6c33 39bd 24f1 963d
00000130: e3a7 e0bc 1e1a d3bc 3b95 01bd 771e b0bc
00000140: 8d58 a6bd 1679 a7bd dcea 96bd 0acb 93bd
00000150: 7249 cb3c 8efd ad3d 9d7a fb3a bdef 2a3d
00000160: 24ca 053d b1b9 b73c a63e 1d3d 0fab 8bbd
00000170: 1f01 99bd 75db 353d adea 183d 0444 4e3d
00000180: 33be 583d dd88 b3bb df0a e1bb 8a19 103d
00000190: ade7 a53c 1440 423d 75aa 9e3d e9e4 57bc
000001a0: d464 b93b 1df2 6f3d 312b 9bbd d02c a0bc
000001b0: e4d4 64bd 45d9 d03c e601 fe3c f28f 28bd
000001c0: 3fdd e53c 59b5 adbc c7ee 57bd 460c 00b8
000001d0: 5cac e8bb 3eab fc3c efd5 09bd 1bb0 aebc
000001e0: e06a 56bd 23bf ad3d 59ce eebb fc33 b3bd
000001f0: d81c adbd 5ebe 3d3d 0f56 75bc 20e2 a9bd
00000200: 1c8d 03bd b988 c0bc 3382 43bd 1d55 34bd
00000210: 1460 6b3d 6d32 d43c 83bb a43d 63fd c63a
00000220: dc53 613d 054f 253d bbbd 4d3c ad12 493c
00000230: a452 183b 8ee0 b3bd b812 2c3d 935e 9a3d
00000240: 459d 65bc de0a acbd 2b45 23bb dc47 8a39
00000250: 9c18 1abd 97ec acbd c9ba 853d 50b7 81bd
00000260: 2763 6d3d d131 0dbd 457a abbd b9df 933d
00000270: ac43 d1bc e7c3 8f3d ffd0 3bbd 4842 4d3b
00000280: 5865 a7bc 9000 1abd 29d5 8fbc 1805 a13d
00000290: cd64 efba b859 35bd 60a6 5b3d a6ec a4bc
000002a0: c1b0 b9bc 277e c23c 8737 acbd cb9a 973c
000002b0: e353 c0bc 44dc 853d d33d 873c 6a0e 8a3d
000002c0: 6040 223d 0adb e5bc ca9a f73c 664b acbd
000002d0: c413 353d 4f4e 01bd 053c 19bd 502e 66bd
000002e0: 5f91 9f3d d9cd 15bd 5dc6 883d 6fe4 c73b
000002f0: 0cb0 7f3d 69cd 023d 5106 e3bc 9187 a43c
00000300: 436f a7bc 078a aa3d c69d 8f3c e32c 0fbd
00000310: 5e07 9a3c f1c8 153c 14f9 af3d 9bf9 4a3d
00000320: a8fc 99bd 7783 3b3d c476 b6ba 94a2 833d
00000330: 3a9d 9f3b 5c1d 2a3d 3166 99bd 38b9 ecbb
00000340: c058 1c3d c5e8 aabd e8fd c3bc ac40 433b
00000350: d31b 083d cb58 0e3d 75d5 9c3d f0cf 1c3d
00000360: b898 6e3d 1631 aebd b93b 14bd 94e5 663d
00000370: 757f a5bc 0833 fb3b f078 85bd 0304 a6bc
00000380: 9cbb 853d cd4d 1a3d 6ea0 7b3d 034d 363d
00000390: 643d 8a3d 6c10 c73c 6b7e f4bc 4c85 693d
000003a0: bd7e 93bd bb68 a13c 0609 01bd bd72 5bbd
000003b0: 0cea f13c 66c9 b1bd 5aa2 69bd ed75 acbd
000003c0: 33a9 e7bc 5b4c b23d 1fda 2dbd bd49 b1bd
000003d0: 5d8a a9bc 5d9a 433d a18a 983d ac47 90bd
000003e0: 22a3 76bd b637 43bd 03fc dd3c 29f7 1dbd
000003f0: 9e50 8eba ce70 87bb 7790 8cbd 6ff7 a73d

shared_net.2.bias f4 [64]
0.007599934 -0.05341159 0.07084936 0.006118846 0.2254314 -0.03747664 0.15308943 0.0074266857
0.05064715 -0.053839434 0.052275617 0.092825696 -0.062117614 -0.08553862 -0.01395004 -0.076469354
0.043005347 -0.01087637 0.04896877 -0.08059806 0.017044866 0.1967631 -0.0661241 -0.0525335
0.09889973 -0.07447407 0.31697607 0.029737558 -0.026604934 -0.099479154 -0.00371077 -0.08636731
-0.050781526 0.06875064 0.011372889 -0.08975072 0.29543152 -0.020526215 0.07027573 -0.04008966
-0.025278836 -0.055230416 0.032229345 -0.008995296 0.1450874 0.13644397 0.10534202 0.012464682
-0.07732932 0.05807339 0.024360564 0.028055454 0.049759634 -0.07845872 -0.07264058 -0.012693412
0.021397943 -0.052349854 0.02210444 0.15330979 -0.07554545 -0.018521832 0.031214299 0.06948476
00000000: de08 f93b 1dc6 5abd 7819 913d 9a80 c83b
00000010: 7dd7 663e 1b81 19bd 7ac3 1c3e 8e5b f33b
00000020: 6373 4f3d bd86 5cbd f51e 563d 661b be3d
00000030: 0a6f 7ebd df2e afbd b58e 64bc f79b 9cbd
00000040: 6026 303d cd32 32bc 7a93 483d 9810 a5bd
00000050: ada1 8b3c 447c 493e 126c 87bd 5e2d 57bd
00000060: f18b ca3d dc85 98bd b04a a23e 2e9c f33c
00000070: 97f2 d9bc babb cbbd 6430 73bb 58e1 b0bd
00000080: 4a00 50bd 23cd 8c3d 5b55 3a3c 3acf b7bd
00000090: cd42 973e 9826 a8bc b9ec 8f3d 0e35 24bd
000000a0: 9015 cfbc 4a39 62bd eb02 043d 0261 13bc
000000b0: cb91 143e f8b7 0b3e 8fbd d73d aa38 4c3c
000000c0: d65e 9ebd 5dde 6d3d ce8f c73c 8dd4 e53c
000000d0: c2d0 4b3d f7ae a0bd 96c4 94bd 07f8 4fbc
000000e0: bd4a af3c cd6c 56bd 5f14 b53c 3efd 1c3e
000000f0: 93b7 9abd 19bb 97bc 21b5 ff3c 074e 8e3d

actor.0.weight f4 [32, 64]
-0.07498616 0.035445407 -0.042409703 -0.031764165 -0.021091089 -0.08772637 0.019143105 0.08430566
0.079761505 -0.049120918 0.047843993 -0.047414586 -0.03232284 0.06138125 0.03399159 0.038840994
-0.020655125 -0.060929373 0.023203418 -0.030392095 -0.075815275 0.025828928 -0.09634067 -0.096448705
0.024507165 -0.08739355 -0.1146242 -0.06289753 -0.08612418 -0.007861331 0.023948878 0.023202077
0.05558172 -0.12047343 0.120899215 -0.06642714 0.0545924 -0.012207955 -0.10851014 -0.057128415
-0.025376022 -0.10209085 0.028926626 0.04742165 0.07976152 0.07350944 0.082157865 -0.10692936
-0.0048683733 0.06932321 -0.0074979067 0.113611326 -0.012232244 -0.043298557 0.081589326 -0.10990694
0.018239766 0.1143529 0.023136854 -0.016328558 -0.029503122 0.020328984 0.026971266 -0.09906791
0.10809101 -0.086305365 -0.0062523903 -0.09462218 -0.080204844 0.015030846 -0.09237073 0.02777563
-0.0002137893 0.005409792 -0.022041183 -0.009528437 0.03977698 0.06752409 0.10962957 0.061650634
-0.08423279 0.07887703 0.07793109 -0.046605825 -0.002943171 0.044634562 0.0877787 -0.10527867
-0.04848062 0.09052186 -0.11049026 0.115927204 -0.108443856 0.0065289885 -0.091405734 -0.07959601
-0.11192578 0.08697541 0.09712115 -0.03137228 -0.089392185 -0.004821807 -0.10824871 -0.096980706
0.061901957 0.040051043 0.012202159 0.052032217 0.015770093 -0.10689697 -0.05348643 0.07482399
-0.06032081 -0.053126752 0.05259949 -0.118020594 -0.10944013 0.015844822 -0.06490986 0.014397636
0.09503704 -0.017334223 0.061142847 -0.11133516 0.10151711 0.0065585226 0.043950967 -0.013406446
-0.029930137 0.068369836 0.054233454 -0.022442238 -0.12408353 0.07199448 -0.0608075 0.11188848
0.087757915 0.07119906 0.014424471 -0.1130479 -0.12266342 0.121232376 0.08291307 0.1102885
0.042909607 -0.038304374 0.015358793 -0.0061790734 -0.11580305 0.013166682 0.1231904 -0.111050814
-0.11171211 0.02509357 -0.117150314 0.11050542 0.11845179 0.069319546 -0.033086225 0.0051553547
0.0084168315 0.020961441 0.09862149 0.11957827 0.120127305 0.09275073 -0.008899517 0.060696423
-0.061787263 -0.11465949 0.108990476 0.013520807 0.0076537076 0.0867333 -0.10113682 0.028522179
0.0069405437 -0.002120315 -0.0048233657 -0.10396932 0.08841558 0.011130169 -0.030930504 -0.04589522
0.116727024 -0.0066185147 0.09903315 0.002769755 0.06299281 -0.05862151 0.09775546 -0.10196373
0.12176506 -0.013618965 -0.010893658 0.11149335 0.062467504 -0.07160825 0.060721237 -0.015333638
0.024349049 -0.020886265 -0.101885 -0.018183535 0.11716075 -0.1041019 -0.036742512 0.022398993
0.051713794 0.112447664 -0.011707813 0.03310276 -0.12082806 0.10143806 0.10322464 -0.031274647
-0.038806118 0.061360553 0.0014584878 -0.084771514 -0.029217213 0.053896636 0.03602481 0.033086818
-0.07379598 -0.06741123 0.007187158 -0.014893845 -0.014173925 0.07163148 0.06297892 -0.06112373
-0.07044053 0.020074317 0.051175322 0.08849217 0.0022244689 0.017943192 0.02284593 -0.07773855
0.059908804 -0.055505604 0.06490249 0.09822114 0.0302172 0.051784024 0.08266461 -0.07968123
0.018333167 0.02583204 -0.0763042 0.026951594 0.093222305 -0.08082865 -0.09131269 -0.031860564
00000000: 5892 99bd 342f 113d ccb5 2dbd 241b 02bd
00000010: 38c7 acbc e2a9 b3bd 00d2 9c3c 72a8 ac3d
00000020: 005a a33d 0433 49bd 10f8 433d cc35 42bd
00000030: f464 04bd e86a 7b3d c43a 0b3d bc17 1f3d
00000040: f034 a9bc 1491 79bd 1815 be3c d8f8 f8bc
00000050: 0a45 9bbd 3097 d33c 424e c5bd e686 c5bd
00000060: 40c3 c83c 64fb b2bd 18c0 eabd 6cd0 80bd
00000070: e061 b0bd d0cc 00bc 7030 c43c 4812 be3c
00000080: a8a9 633d c6ba f6bd 029a f73d f40a 88bd
00000090: 489c 5f3d e003 48bc 903a debd 7cff 69bd
000000a0: 60e1 cfbc 0215 d1bd 88f7 ec3c 343d 423d
000000b0: 025a a33d 1e8c 963d 6242 a83d c8fd dabd
000000c0: e086 9fbb 54f9 8d3d 00b1 f5bb 0ead e83d
000000d0: c069 48bc d459 31bd 4e18 a73d e416 e1bd
000000e0: 906b 953c da31 ea3d 8089 bd3c 78c3 85bc
000000f0: 88b0 f1bc f888 a63c d8f2 dc3c 1ee4 cabd
00000100: d25e dd3d dec0 b0bd dae0 ccbb 46c9 c1bd
00000110: 7042 a4bd f043 763c de2c bdbd b889 e33c
00000120: a12c 60b9 a044 b13b b68f b4bc 291d 1cbc
00000130: 30ed 223d 124a 8a3d 7885 e03d 6085 7c3d
00000140: 3e82 acbd 488a a13d 569a 9f3d c0e5 3ebd
00000150: 37e2 40bb bbd2 363d 52c5 b33d 589c d7bd
00000160: 9d93 46bd 8663 b93d b848 e2bd 3e6b ed3d
00000170: d017 debd 20f1 d53b ee32 bbbd 3c03 a3bd
00000180: 5839 e5bd 2a20 b23d 74e7 c63d 3880 00bd
00000190: 4013 b7bd 4000 9ebb 80b1 ddbd d29d c6bd
000001a0: e88c 7d3d 900c 243d 90eb 473c bc1f 553d
000001b0: 4830 813c ccec dabd 9614 5bbd 523d 993d
000001c0: f412 77bd 709b 59bd 9072 573d c8b4 f1bd
000001d0: 2622 e0bd 00cd 813c 76ef 84bd 10e4 6b3c
000001e0: c8a2 c23d 8000 8ebc ec70 7a3d b003 e4bd
000001f0: 34e8 cf3d e0e8 d63b ee05 343d b6a6 5bbc
00000200: 0c30 f5bc 7c05 8c3d e623 5e3d c9d8 b7bc
00000210: 811f febd d871 933d 4911 79bd ca25 e53d
00000220: 6cba b33d d0d0 913d 9e54 6c3c a885 e7bd
00000230: f636 fbbd ae48 f83d 54ce a93d f0de e13d
00000240: fcc1 2f3d 0ce5 1cbd 72a3 7b3c d379 cabb
00000250: 262a edbd 11b9 573c 404b fc3d 9c6e e3bd
00000260: 52c9 e4bd 0891 cd3c 81ec efbd aa50 e23d
00000270: da96 f23d 68f7 8d3d 6c85 07bd 40ee a83b
00000280: c0e6 093c 54b7 ab3c 10fa c93d 74e5 f43d
00000290: 4e05 f63d 18f4 bd3d 48cf 11bc d09c 783d
000002a0: a414 7dbd 98d2 eabd 6636 df3d 6086 5d3c
000002b0: f4cb fa3b 3aa1 b13d d220 cfbd 58a7 e93c
000002c0: 806d e33b fcf4 0abb 530d 9ebb deed d4bd
000002d0: 3a13 b53d 505b 363c f861 fdbc a0fc 3bbd
000002e0: 940e ef3d 20e0 d8bb e4d1 ca3d c784 353b
000002f0: 6002 813d 1c1d 70bd 0434 c83d 5cd2 d0bd
00000300: f65f f93d 1422 5fbc 507b 32bc a056 e43d
00000310: eddd 7f3d 59a7 92bd d5b6 783d f039 7bbc
00000320: a877 c73c ac19 abbc 15a9 d0bd a3f5 94bc
00000330: faf1 ef3d 6033 d5bd 517f 16bd 187e b73c
00000340: d8d1 533d f64a e63d 20d2 3fbc c296 073d
00000350: b474 f7bd c2be cf3d 7167 d33d d819 00bd
00000360: 2af3 1ebd 3455 7b3d bb2a bf3a b09c adbd
00000370: f058 efbc b8c2 5c3d c08e 133d 0b86 073d
00000380: 5922 97bd e60e 8abd 4082 eb3b 5005 74bc
00000390: c039 68bc 86b3 923d 18fb 803d e05c 7abd
000003a0: 2043 90bd e572 a43c 379d 513d 623b b53d
000003b0: 65c8 113b 9afd 923c 6327 bb3c 6435 9fbd
000003c0: ef62 753d d859 63bd 99eb 843d 2a28 c93d
000003d0: 108a f73c 7c1b 543d 104c a93d ea2f a3bd
000003e0: 702f 963c b79d d33c 6045 9cbd 97c9 dc3c
000003f0: 56eb be3d 7e89 a5bd 2602 bbbd 3980 02bd
