logs/20250602_014535/checkpoint_episode_0.pt (torch, 680505 bytes, 19 tensors)

cnn.0.weight f4 [32, 1, 3, 3]
-0.19869682 -0.12708518 0.01798324 -0.18699253 -0.081924796 0.15378559 -0.3041707 0.01510151
-0.07103829 0.067542955 -0.16877858 -0.30720365 -0.03777075 -0.08036856 -0.23112282 -0.23379871
-0.13339333 0.013049737 0.022115111 0.20940714 0.16272804 0.3008518 0.13509557 0.10666768
-0.33109462 -0.26881453 -0.2717275 -0.20407888 0.034652233 -0.25791904 0.22517586 -0.02579987
-0.057462852 0.1409965 -0.020882249 -0.32717466 -0.30589637 -0.25987038 0.20979452 0.272011
0.28822196 0.27061248 0.3320181 0.2917939 -0.26252744 -0.25923848 -0.14148483 -0.26350293
-0.09563832 0.030087035 -0.11422615 0.08041366 0.063668095 -0.18376467 -0.2907349 -0.30490416
0.015705746 0.22957787 -0.19138722 -0.2931075 -0.026389759 0.3231183 -0.18399644 -0.016450804
0.3269231 -0.15479688 0.14065123 0.1765285 0.18275976 0.3286109 -0.11354371 0.10652872
0.08347492 0.09048092 0.3152144 0.07306695 -0.22770254 0.0663418 0.20656137 0.21208653
0.13239114 -0.09412392 0.3199386 0.035458606 -0.19390962 0.123158574 -0.096640944 -0.30252755
-0.02775541 0.23722553 -0.19713342 -0.12217828 0.037565153 0.108667135 -0.058063947 -0.1658129
0.114187084 0.029091557 0.30475876 0.14627533 -0.07106169 0.053061806 0.052886646 0.19475886
-0.32454002 0.18868332 -0.14930098 0.2597713 0.0006645521 -0.1740272 -0.1362997 -0.0016038816
0.075569674 -0.27975973 0.17216942 0.25296825 0.32115692 -0.30325186 -0.023370784 -0.078254305
-0.009395043 -0.0979085 -0.29742646 0.26944464 0.042034667 -0.114494525 0.109454274 -0.30755565
0.086057186 0.105577156 0.167002 0.01090466 -0.30142248 -0.04532373 -0.0984395 0.17062978
-0.18328536 0.047048133 0.09029921 0.2863739 0.32155418 0.1365293 -0.20680118 0.02827422
-0.042208076 0.018882912 0.2379789 0.10246444 -0.024942955 0.23645143 -0.13157241 -0.13239174
0.117890045 0.28210422 0.0340662 -0.07708287 0.009965062 0.30370855 -0.26524335 -0.31710035
-0.25305778 -0.103987694 0.20219597 0.19820218 -0.21983537 0.04792472 0.20664021 -0.27266395
-0.10093868 -0.09600942 0.16622393 0.038608234 -0.05514022 0.31236905 -0.10574961 0.13513029
0.032954615 0.010785049 -0.30842137 0.117412135 0.22910058 -0.24077988 0.32496953 -0.17578463
-0.08912452 0.18852906 0.23245883 -0.27307618 -0.18680736 0.10465821 -0.045678735 0.29649994
0.2910889 -0.07850194 -0.10856502 0.26067528 0.09476066 -0.26064044 -0.15003674 0.295254
-0.16989589 0.31218064 0.11656666 -0.11077277 -0.1409754 -0.22561514 0.10027759 0.14774708
0.036536496 -0.1990987 -0.2770508 -0.13543686 0.10653615 0.1690863 0.028791985 0.19465065
-0.050544463 -0.06909084 0.22787988 -0.018058658 -0.07941183 -0.045155965 -0.2217389 0.08575301
0.015043642 0.026151022 -0.1458962 0.31621522 -0.33150572 0.10736553 -0.30825067 -0.034230035
-0.08199553 0.15494415 -0.2525211 0.16301033 -0.029132804 0.040536206 0.07583034 0.26743743
0.21276252 0.24003641 -0.1940336 0.22660339 -0.042860072 0.14296167 -0.111782275 -0.2448357
0.20692842 -0.033180993 0.24781923 -0.15218131 0.17440169 -0.3009617 0.057097793 0.063104436
00000000: 2e77 4bbe 9e22 02be 9651 933c f87a 3fbe
00000010: 30c8 a7bd f879 1d3e 43bc 9bbe 536c 773c
00000020: 867c 91bd f653 8a3d 4bd4 2cbe cc49 9dbe
00000030: 80b5 1abd 4698 a4bd 76ab 6cbe ee68 6fbe
00000040: 4398 08be 90ce 553c c02a b53c d36e 563e
00000050: 2ea2 263e 3f09 9a3e 7e56 0a3e 9674 da3d
00000060: 3c85 a9be 0fa2 89be de1f 8bbe 0efa 50be
00000070: 80ef 0d3d f70d 84be 8094 663e 405a d3bc
00000080: 2b5e 6bbd 6361 103e 4011 abbc 7083 a7be
00000090: 739e 9cbe bb0d 85be 60d4 563e 0745 8b3e
000000a0: d491 933e b88d 8a3e 47fe a93e 0366 953e
000000b0: ff69 86be e8ba 84be 66e1 10be dbe9 86be
000000c0: 06de c3bd 1679 f63c 66ef e9bd ebaf a43d
000000d0: 6b64 823d ce2c 3cbe 34db 94be 661c 9cbe
000000e0: 56a9 803c 7616 6b3e 03fb 43be 3012 96be
000000f0: 562f d8bc c36f a53e 9069 3cbe d6c3 86bc
00000100: 7762 a73e 1383 1ebe e006 103e e3c3 343e
00000110: 6025 3b3e b03f a83e 9b89 e8bd bb2b da3d
00000120: e6f4 aa3d 104e b93d c863 a13e 20a4 953d
00000130: db2a 69be 36de 873d d384 533e 362d 593e
00000140: 8b91 073e 0bc4 c0bd fece a33e 0b3d 113d
00000150: 3e90 46be 903a fc3d b0eb c5bd e4e4 9abe
00000160: 505f e3bc 40eb 723e 58dd 49be 9b38 fabd
00000170: ebdd 193d e08c de3d 76d4 6dbd dbca 29be
00000180: ebda e93d 6b51 ee3c 5709 9c3e 33c9 153e
00000190: cb88 91bd 5657 593d ab9f 583d de6e 473e
000001a0: 1c2a a6be 3336 413e 5be2 18be be00 853e
000001b0: 5635 2e3a 3034 32be 2692 0bbe 5639 d2ba
000001c0: 46c4 9a3d ab3c 8fbe 2e4d 303e 0e85 813e
000001d0: ae6e a43e d443 9bbe 1674 bfbc cb43 a0bd
000001e0: abed 19bc 4084 c8bd 4848 98be a6f4 893e
000001f0: 8b2c 2c3d 1b7c eabd 9029 e03d ef77 9dbe
00000200: c03e b03d d638 d83d 9302 2b3e 76a9 323c
00000210: 0c54 9abe 60a5 39bd a69a c9bd 93b9 2e3e
00000220: 28af 3bbe 8bb5 403d cbee b83d 9a9f 923e
00000230: c0a2 a43e 56ce 0b3e b0c3 53be 569f e73c
00000240: 60e2 2cbd 56b0 9a3c beb0 733e e0d8 d13d
00000250: 2b55 ccbc 5320 723e ebba 06be b391 07be
00000260: 5670 f13d f76f 903e 0089 0b3d a0dd 9dbd
00000270: 8044 233c b07f 9b3e facd 87be fa5a a2be
00000280: ca90 81be 80f7 d4bd 760c 4f3e 83f5 4a3e
00000290: 861c 61be b64c 443d 7e99 533e 9c9a 8bbe
000002a0: f0b8 cebd 96a0 c4bd 9b36 2a3e ab23 1e3d
000002b0: b6da 61bd d6ee 9f3e 4093 d8bd 985f 0a3e
000002c0: 6bfb 063d c6b3 303c 68e9 9dbe c675 f03d
000002d0: 5899 6a3e 008f 76be 6862 a63e e300 34be
000002e0: eb86 b6bd c30d 413e b009 6e3e a4d0 8bbe
000002f0: 6e4a 3fbe 0b57 d63d a019 3bbd d7ce 973e
00000300: 9b09 953e a0c5 a0bd 5657 debd 3b77 853e
00000310: e011 c23d aa72 85be 3ba3 19be 882b 973e
00000320: 30f9 2dbe 24d6 9f3e 80ba ee3d d6dc e2bd
00000330: db5b 10be a807 67be 565e cd3d 034b 173e
00000340: 4ba7 153d 88e0 4bbe 9ad9 8dbe f6af 0abe
00000350: a02f da3d f624 2d3e 2bdd eb3c 8052 473e
00000360: b607 4fbd 807f 8dbd 5859 693e c0ef 93bc
00000370: aba2 a2bd 76f5 38bd 860f 63be 469f af3d
00000380: 9c79 763c ab3a d63c d065 15be f6e6 a13e
00000390: 1ebb a9be 76e2 db3d 08d3 9dbe cb34 0cbd
000003a0: 46ed a7bd aea9 1e3e 724a 81be 2eec 263e
000003b0: eba7 eebc 4b09 263d f04c 9b3d 8fed 883e
000003c0: 6bde 593e 1bcc 753e beb0 46be b80a 683e
000003d0: 0b8e 2fbd 8b64 123e 1bee e4bd 36b6 7abe
000003e0: 0be5 533e cbe8 07bd 53c4 7d3e 6bd5 1bbe
000003f0: 5b96 323e a717 9abe 60df 693d e63c 813d

cnn.0.bias f4 [32]
0.31916288 0.11308226 -0.03134102 -0.17407143 0.0033951309 -0.09664571 -0.27652365 0.103276014
0.08417446 0.06475516 -0.20340216 0.0751988 -0.22953403 0.17373088 0.02969161 -0.107404396
0.0731153 -0.22042525 0.15872161 0.06167181 0.14463712 -0.27941817 -0.19807136 0.19957455
0.045334466 -0.2113756 0.109449245 0.15336175 0.023345036 0.059370633 0.14399368 0.3054537
00000000: 5169 a33e ac97 e73d 715f 00bd c83f 32be
00000010: d880 5e3b 30ee c5bd 8294 8dbe 6082 d33d
00000020: a963 ac3d 5a9e 843d a848 50be d401 9a3d
00000030: f80a 6bbe 82e6 313e d23b f33c d6f6 dbbd
00000040: 79bd 953d 28b7 61be eb87 223e 949b 7c3d
00000050: c11b 143e e60f 8fbe 38d3 4abe 455d 4c3e
00000060: a2b0 393d d872 58be ed26 e03d dd0a 1d3e
00000070: 173e bf3c 9f2e 733d 1473 133e 6d64 9c3e

cnn.2.weight f4 [64, 32, 3, 3]
-0.018332565 -0.040441565 -0.022538878 0.034974445 0.009826713 -0.011339933 0.012629718 0.024160266
0.008695154 0.04815245 -0.023374235 0.047850102 0.014714828 -0.026592309 0.03906368 0.023466866
0.014667363 0.021111652 0.052379 -0.030798092 -0.0072479653 -0.019173171 -0.026897887 0.020410609
0.058175296 0.043619003 0.008997573 0.034172136 -0.018443756 0.05795793 0.048122387 -0.044208456
0.020196784 -0.030830124 -0.008029115 -0.044830274 -0.028093101 0.028663917 -0.04125406 0.020559007
-0.055180144 -0.011691255 -0.024084691 -0.04632855 -0.048809487 -0.012612515 0.01611578 -0.025574744
0.015714915 -0.019278713 -0.040994015 0.042988345 -0.050200418 -0.049110014 -0.028062742 -0.027627358
0.03095129 -0.017832998 0.037892744 -0.0438317 0.045514017 0.04775584 -0.055479497 0.017303936
-0.043920323 0.01562208 0.03648083 0.03927806 0.0042972434 -0.01811546 -0.04796596 -0.025249207
-0.018562997 0.0014184451 0.03616031 -0.05638031 -0.015901417 0.0033118783 -0.045101427 0.018312778
0.0027146714 0.014816247 -0.021532424 0.053857 0.018801738 0.038907077 0.026676496 -0.01580825
0.058804773 0.020881895 0.052008543 -0.018197324 -0.03408844 0.036389012 -0.026873933 0.01746557
0.057449568 -0.0021446354 0.05156726 0.01380362 0.01986905 -0.02620212 -0.04897055 0.014727008
0.017919358 -0.056258254 -0.056366958 -0.047863062 -0.0006264497 -0.040120266 0.017985037 0.02293479
-0.0024446507 -0.05357099 0.026996475 -0.0381644 -0.026341612 0.052558005 -0.03796491 0.025288165
-0.0006050461 -0.048785478 -0.054491702 0.0026252079 -0.046649396 -0.048171677 0.022765957 -0.007276787
-0.044392947 -0.046230014 0.050095156 -0.033849426 -0.03189228 -0.04276468 -0.011522864 0.0008028694
0.020480601 0.05039677 0.0137183005 0.030322423 0.045156907 -0.03955973 0.038276087 0.022427447
0.0036286681 -0.0060754614 0.031006867 0.0061315587 0.04814386 -0.019033257 0.053654525 -0.0016668728
-0.037614867 -0.04653767 -0.0139011545 0.03464527 -0.013049908 0.026933951 -0.011659315 -0.020261507
0.057229485 -0.028842079 0.047605336 0.02630033 0.055534873 0.043388966 0.048037503 -0.052650567
-0.016924454 0.038656823 0.014284326 0.048881058 -0.058295056 -0.030134652 0.037668288 0.017899366
0.016337397 0.013862099 0.007193399 -0.014199758 -0.040870313 -0.0145718865 -0.031470433 -0.04861835
-0.014790938 -0.0393793 -0.005103464 0.056551736 -0.012051055 0.026590945 0.04018291 0.026862849
0.015004994 -0.038048994 -0.007149349 -0.0078588985 0.052924957 0.012958681 -0.05161762 -0.005281541
-0.01766366 -0.0072744405 -0.054207217 -0.024372224 -0.050178338 0.052273065 -0.03430101 0.044742145
-0.058510378 0.043760695 -0.00022892763 -0.0031649193 -0.031184005 0.012142479 -0.017656587 -0.049679805
-0.023598371 -0.008112137 0.008388585 0.035217956 0.008837752 0.014213041 0.01918672 -0.047797784
-0.016192215 -0.034049343 -0.018163241 0.035762556 0.014233743 0.022786638 0.05053464 0.031754117
-0.0076175863 0.02715161 -0.05340619 -0.057633363 -0.043266036 0.012975392 0.04212593 -0.04764286
-0.026646208 -0.03966098 0.056293517 -0.013968927 -0.02186412 -0.054713305 0.042102024 0.04736602
0.051049035 0.0108728055 -0.034111585 0.008740877 -0.03545336 0.01907905 -0.034450203 0.0038844994
00000000: 2d2e 96bc 0ea6 25bd 74a3 b8bc 5d41 0f3d
00000010: 3900 213c 20cb 39bc e0ec 4e3c c0eb c53c
00000020: 1f76 0e3c 813b 453d 537b bfbc 78fe 433d
00000030: 7616 713c 1dd8 d9bc 3d01 203d 963d c03c
00000040: 614f 703c 58f2 ac3c 5d8b 563d 484c fcbc
00000050: 5780 edbb 0e11 9dbc f558 dcbc 2634 a73c
00000060: 3849 6e3d d7a9 323d 8e6a 133c 15f8 0b3d
00000070: 5c17 97bc 4b65 6d3d fb1b 453d ed13 35bd
00000080: ba73 a53c 758f fcbc 8d8c 03bc f39f 37bd
00000090: 8123 e6bc 97d0 ea3c 04fa 28bd 5d6b a83c
000000a0: 9304 62bd ad8c 3fbc 424d c5bc 01c3 3dbd
000000b0: 75ec 47bd b9a4 4ebc 3e05 843c 2082 d1bc
000000c0: 91bc 803c 64ee 9dbc 57e9 27bd 8c14 303d
000000d0: f49e 4dbd 9527 49bd d6e3 e5bc c552 e2bc
000000e0: 8f8d fd3c 8216 92bc 6c35 1b3d de88 33bd
000000f0: e86c 3a3d a19b 433d 783e 63bd fcc0 8d3c
00000100: cce5 33bd c1f3 7f3c ec6c 153d 08e2 203d
00000110: e4cf 8c3b e066 94bc f477 44bd 6dd7 cebc
00000120: 6d11 98bc 1feb b93a d51c 143d 0aef 66bd
00000130: b043 82bc 190c 593b 46bc 38bd ae04 963c
00000140: a1e8 313b d8bf 723c c464 b0bc 2899 5c3d
00000150: 1a06 9a3c 075d 1f3d ab88 da3c 4e80 81bc
00000160: 46dd 703d 8210 ab3c e906 553d 8e12 95bc
00000170: 52a0 0bbd a50c 153d b926 dcbc f413 8f3c
00000180: 3d50 6b3d 038d 0cbb 3138 533d 9428 623c
00000190: 6bc4 a23c d4a5 d6bc 5895 48bd 8c49 713c
000001a0: 9ecb 923c 0e6f 66bd 0ae1 66bd 0f0c 44bd
000001b0: 5438 24ba 2655 24bd 5b55 933c bee1 bb3c
000001c0: 6f36 20bb 416d 5bbd b627 dd3c 4652 1cbd
000001d0: 5dca d7bc 1047 573d 1881 1bbd 2029 cf3c
000001e0: f59b 1eba 48d3 47bd b132 5fbd ae0b 2c3b
000001f0: 7013 3fbd aa4f 45bd ac7f ba3c 1d72 eebb
00000200: 61d5 35bd af5b 3dbd 9430 4d3d b2a5 0abd
00000210: 7ba1 02bd 042a 2fbd 65ca 3cbc a777 523a
00000220: efc6 a73c d86c 4e3d b9c2 603c bb66 f83c
00000230: 73f6 383d 6209 22bd 63c7 1c3d c4b9 b73c
00000240: f3ce 6d3b aa14 c7bb 1d02 fe3c 3eeb c83b
00000250: 7f32 453d a2eb 9bbc d9c4 5b3d f87a daba
00000260: 0c12 1abd 499e 3ebd abc1 63bc 33e8 0d3d
00000270: 48cf 55bc 97a4 dc3c b606 3fbc 76fb a5bc
00000280: 7769 6a3d 3946 ecbc d0fd 423d ca73 d73c
00000290: 8978 633d a1b8 313d f9c2 443d 1fa8 57bd
000002a0: 27a5 8abc 9e56 1e3d ce08 6a3c 8137 483d
000002b0: ccc6 6ebd f2dc f6bc 104a 1a3d b1a1 923c
000002c0: 01d6 853c db1d 633c 9bb6 eb3b 1aa6 68bc
000002d0: a167 27bd ecbe 6ebc 24e7 00bd 0924 47bd
000002e0: b155 72bc 304c 21bd f53a a7bb cba2 673d
000002f0: ca71 45bc 41d5 d93c d696 243d 7a0f dc3c
00000300: 82d7 753c 43d9 1bbd 1645 eabb 9cc2 00bc
00000310: d7c7 583d a650 543c ff6c 53bd c710 adbb
00000320: 61b3 90bc 6e5e eebb 6308 5ebd 42a8 c7bc
00000330: cd87 4dbd 481c 563d 377f 0cbd 8a43 373d
00000340: 94a8 6fbd 6a3e 333d 4b0c 70b9 896a 4fbb
00000350: 9975 ffbc 40f1 463c 8ca4 90bc 0d7d 4bbd
00000360: 5f51 c1bc c5e8 04bc 4770 093c b440 103d
00000370: 38cc 103c d1dd 683c 782d 9d3c 9cc7 43bd
00000380: 89a5 84bc 5377 0bbd 14cb 94bc c27b 123d
00000390: a534 693c 0bab ba3c 69fd 4e3d 9b10 023d
000003a0: f29c f9bb 0e6d de3c 73c0 5abd f610 6cbd
000003b0: ba37 31bd bd96 543c 3d8c 2c3d 2925 43bd
000003c0: 2649 dabc 8d73 22bd 0894 663d eddd 64bc
000003d0: 621c b3bc 0f1b 60bd 2c73 2c3d df02 423d
000003e0: cb18 513d da23 323c 97b8 0bbd e535 0f3c
000003f0: 8b37 11bd ab4b 9c3c a81b 0dbd 1693 7e3b

cnn.2.bias f4 [64]
0.00408698 0.057217836 0.038270667 -0.03505799 -0.029922541 0.01255766 -0.052213244 -0.0026633174
-0.03478857 -0.006707508 -0.034405194 0.028083963 0.052132264 0.05699093 0.057810653 0.013149193
-0.003531993 -0.048449863 0.003984591 -0.045280732 -0.041875478 -0.021646032 0.04931666 -0.016686197
0.025964664 0.05110645 -0.018191049 -0.032588717 -0.04616416 0.030779459 0.024517728 -0.0008190889
-0.030407757 0.014207807 0.03351887 0.018918226 0.015200348 0.01250458 -0.047569014 0.00655583
0.020970697 -0.05310958 -0.058247022 0.023968214 0.05352025 -0.056981865 0.054054853 -0.031069975
0.051880386 -0.013635194 -0.042562243 0.055822983 -0.0037577038 -0.032343436 -0.009509781 -0.008069885
0.04309517 0.043870028 -0.03309324 0.017420981 0.026494246 -0.045121897 0.041685242 0.0023606098
00000000: 13ec 853b 405d 6a3d b4c1 1c3d f898 0fbd
00000010: 1e20 f5bc a5be 4d3c 8edd 55bd 0d8b 2ebb
00000020: 767e 0ebd a8ca dbbb 76ec 0cbd 5710 e63c
00000030: a488 553d 526f 693d ddca 6c3d b66f 573c
00000040: 0279 67bb 5d73 46bd 2c91 823b 4a78 39bd
00000050: 9f85 2bbd 0553 b1bc 4400 4a3d 7eb1 88bc
00000060: d9b3 d43c ff54 513d 6505 95bc bf7b 05bd
00000070: a116 3dbd 3425 fc3c 67d9 c83c 20b8 56ba
00000080: b019 f9bc ddc7 683c 154b 093d 65fa 9a3c
00000090: e10a 793c 03e0 4c3c bad7 42bd 4ad2 d63b
000000a0: bdca ab3c 6e89 59bd 6e94 6ebd fd58 c43c
000000b0: 0d38 5b3d d165 69bd 9f68 5d3d 7686 febc
000000c0: 8780 543d 2666 5fbc bf55 2ebd a4a6 643d
000000d0: cf43 76bb 8d7a 04bd eace 1bbc 8d37 04bc
000000e0: 9084 303d 0fb1 333d c78c 07bd 72b6 8e3c
000000f0: 760a d93c bdd1 38bd 25be 2a3d 76b4 1a3b

state_net.0.weight f4 [32, 4]
0.30623502 0.13779092 -0.26778603 -0.34612864 0.13836858 0.25138617 0.49475098 -0.18351057
-0.42129022 0.22445309 -0.4491678 -0.34949434 -0.11083156 0.23099238 -0.275016 -0.15497965
-0.23751241 0.46544075 -0.26368904 -0.40302265 0.14622349 0.1300576 0.04151779 0.113534644
0.18143517 0.17514125 0.39512342 0.46282536 -0.19981894 0.19454038 0.112102 0.17247319
0.22741175 0.39642185 0.27398795 -0.21872908 0.16800556 0.075520396 0.38133174 -0.45383012
-0.47892863 0.101587534 -0.08587086 -0.3846674 -0.46623373 -0.29007137 -0.3857913 -0.12324214
-0.3871426 -0.0056009716 0.47289634 0.3316484 -0.33738178 0.47600567 -0.15945894 -0.43685168
0.34134853 -0.025460634 -0.4969923 0.34854156 0.1253671 0.44482172 -0.29100138 0.29882306
0.25946832 0.30389982 0.45766056 -0.27893448 0.066535935 -0.22961873 -0.08872858 0.33334798
0.3000182 -0.098260306 -0.34183764 0.46004272 -0.3023643 -0.29593647 0.07361281 0.10508922
-0.4602939 0.060544528 0.0019927719 -0.45481634 -0.4852227 0.19607145 0.48336506 0.35412878
0.12869394 0.37509692 0.3335607 0.17069948 -0.2490843 -0.49306768 -0.13986814 0.46581042
-0.32397968 0.42405683 0.44717723 0.4235978 -0.14710319 -0.038556576 0.0367952 -0.0013334751
-0.4945467 -0.332372 0.45291978 -0.44596952 -0.45223856 0.13599157 0.0046803355 -0.17565626
0.07922445 0.054011464 0.27426016 0.22311789 0.15309429 0.4862697 -0.43965024 -0.31271648
-0.48313397 -0.3419873 0.24523163 0.33843338 0.09223163 -0.09597486 0.14035636 -0.03221798
00000000: d6ca 9c3e 1019 0d3e 401b 89be c637 b1be
00000010: 7eb0 0d3e b0b5 803e 0050 fd3e 32ea 3bbe
00000020: 5ab3 d7be 08d7 653e 52f9 e5be ecf0 b2be
00000030: a8fb e2bd 4489 6c3e e6ce 8cbe fcb2 1ebe
00000040: 7436 73be 404e ee3e 4002 87be fc58 cebe
00000050: 9cbb 153e d22d 053e 8f0e 2a3d da84 e83d
00000060: 24ca 393e 3a58 333e 9e4d ca3e 72f7 ec3e
00000070: 569d 4cbe 9835 473e bc95 e53d d09c 303e
00000080: a0de 683e cef7 ca3e 2648 8c3e 84fa 5fbe
00000090: a609 2c3e 70aa 9a3d ea3d c33e 6c5c e8be
000000a0: 2236 f5be 200d d03d 10dd afbd 20f3 c4be
000000b0: 30b6 eebe 3c84 94be 7086 c5be 6066 fcbd
000000c0: 8e37 c6be 5b88 b7bb 781f f23e d2cd a93e
000000d0: 4ebd acbe 04b7 f33e 3449 23be 06ab dfbe
000000e0: 3cc5 ae3e d292 d0bc c675 febe 0a74 b23e
000000f0: 3c60 003e acbf e33e 22fe 94be 56ff 983e
00000100: 08d9 843e c298 9b3e 7c52 ea3e 80d0 8ebe
00000110: fe43 883d 2c21 6bbe 54b7 b5bd 96ac aa3e
00000120: fc9b 993e b33c c9bd 5805 afbe b88a eb3e
00000130: 7ecf 9abe fc84 97be 50c2 963d 0439 d73d
00000140: a4ab ebbe 8afd 773d 2a99 023b b0dd e8be
00000150: 1c6f f8be f4c6 483e a07b f73e 5e50 b53e
00000160: 58c8 033e b40c c03e 78c8 aa3e d8cb 2e3e
00000170: f40f 7fbe 5e73 fcbe 9839 0fbe b47e ee3e
00000180: aae0 a5be fa1d d93e 6af4 e43e d0e1 d83e
00000190: 38a2 16be 80ed 1dbd 90b6 163d 00c8 aeba
000001a0: 3a35 fdbe aa2c aabe 1ae5 e73e 1e56 e4be
000001b0: d08b e7be 6041 0b3e 805d 993b 3cdf 33be
000001c0: 6e40 a23d 203b 5d3d d46b 8c3e 0479 643e
000001d0: c0c4 1c3e 58f8 f83e d619 e1be 601c a0be
000001e0: 565d f7be f618 afbe 001e 7b3e 2447 ad3e
000001f0: f0e3 bc3d 788e c4bd 94b9 0f3e 00f7 03bd

state_net.0.bias f4 [32]
-0.2810313 0.17823273 0.013001561 -0.3545053 -0.08572757 -0.12777549 0.27345538 0.4402532
-0.072220564 0.047036573 -0.3232438 -0.26824343 0.4872594 -0.39299095 0.4000095 -0.25013626
0.24878177 0.48870903 -0.066504285 0.246501 0.47376186 0.46730042 -0.20300654 0.37165457
-0.058863483 -0.28654087 -0.0026542894 -0.07262236 -0.025290232 -0.014349936 -0.3065483 -0.06849605
00000000: 56e3 8fbe a482 363e 8004 553c b881 b5be
00000010: f091 afbd 94d7 02be 5802 8c3e de68 e13e
00000020: 60e8 93bd 6ca9 403d 3680 a5be 3457 89be
00000030: 107a f93e 1c36 c9be 0cce cc3e dc11 80be
00000040: a6c0 7e3e 1238 fa3e 6633 88bd c26a 7c3e
00000050: ea90 f23e 0042 ef3e f2e0 4fbe 8249 be3e
00000060: d61a 71bd 7cb5 92be 96f3 2dbb 08bb 94bd
00000070: 762d cfbc fe1b 6bbc e6f3 9cbe a847 8cbd

state_net.2.weight f4 [32, 32]
0.13114892 -0.0921363 0.16008304 -0.03736356 -0.083674245 -0.11329934 -0.101309456 0.092252985
-0.012586453 -0.03249655 0.07328536 0.16453788 -0.0039346414 0.17312331 -0.07685349 0.016873237
-0.010559223 0.13175772 0.1264531 0.029508846 -0.018952068 0.07685734 0.018049635 -0.009449932
0.06473217 -0.046903964 0.1738196 0.015999807 0.09672368 0.023867695 -0.11156454 0.08576616
0.07933177 0.06931101 -0.14636917 -0.10286623 0.048214875 -0.018564222 0.17488766 -0.019251062
0.12187925 0.040904246 -0.15081276 -0.1713333 0.065093964 -0.03934406 -0.075371616 -0.034167632
-0.10033723 -0.0638255 0.092152916 0.10026122 0.16992171 -0.10083477 -0.020356018 -0.078596465
0.13769208 -0.11004028 0.0053710775 0.10941777 0.045244683 -0.012275962 0.09012783 0.03144294
0.10101286 -0.027745033 -0.141564 0.1319462 -0.114198804 0.01675178 0.07614624 0.12841576
-0.08055821 -0.103158414 0.0032347073 -0.1451225 0.0846953 0.039979424 0.11728953 -0.049250934
-0.119137436 0.052478157 0.07278902 -0.080447316 0.01116268 -0.12585361 0.090722695 -0.00602195
0.1744095 -0.049488027 0.07903642 0.13397124 -0.14925076 -0.050182335 -0.10335427 0.013072438
0.17232223 0.12602057 -0.10491368 -0.09386057 -0.06194615 -0.03013561 0.15670276 0.16917974
-0.11456217 0.040164907 0.0003840842 -0.08950469 -0.15513112 -0.15219003 -0.04686884 -0.08884563
0.0017255428 0.11529051 -0.1675242 -0.00012730021 0.13278621 0.084302835 -0.095522024 0.03065317
-0.10475237 0.08636448 -0.060576342 0.108001575 0.14839089 -0.11086727 0.06703429 0.1041813
-0.10233272 0.045966253 0.009114825 0.14420877 0.09180346 -0.0269865 0.02974002 -0.14181839
0.111905426 0.045505468 0.17613363 -0.041617338 -0.05122676 -0.17356479 -0.1469726 -0.11497449
0.120858006 0.016026715 -0.087493464 -0.17311025 -0.13095453 0.060756844 0.00021465395 0.17155266
-0.004472405 0.072724156 0.050445687 -0.14473389 0.01132945 -0.13440676 0.16847555 -0.14122325
0.10875423 -0.10692534 -0.045211513 -0.076026715 0.07792299 0.032827403 0.0752684 0.1686614
-0.14877409 0.0030931572 -0.13791178 0.057059605 -0.08099289 0.029663816 0.04332306 0.124534175
-0.07216589 0.15633385 0.07351158 -0.1429347 -0.018254327 -0.16959336 0.06767003 -0.112294026
-0.050943565 -0.084108226 0.078064054 0.1330619 0.003281033 -0.06073338 -0.12677068 0.14880216
0.10529962 -0.14468606 0.07138247 0.024358582 -0.14136235 -0.13970648 0.17513518 -0.109416
0.08377027 -0.09491974 -0.17206648 -0.022663308 0.054159895 -0.124018304 0.0501792 0.081734605
0.08112371 0.09939657 -0.15657522 0.15778476 -0.15839282 -0.0327695 0.02050373 -0.058282707
-0.0016448523 -0.029672688 -0.1722901 -0.10246025 -0.120353214 0.088553034 -0.05509632 0.1131928
0.13648035 -0.1706075 0.0955265 -0.055367135 -0.10693681 -0.04562919 0.00618553 0.0072696223
-0.0046613268 0.15318425 0.093533546 0.01997474 0.038362883 0.1759871 -0.016333126 -0.09786532
0.16276634 0.013698378 -0.11232982 -0.055047072 0.114015445 -0.071541324 -0.16872448 -0.076493345
0.089840285 -0.044018716 -0.017162029 -0.066585384 -0.084377944 -0.08944297 0.10193203 0.07090625
00000000: e74b 063e f5b1 bcbd cfec 233e 880a 19bd
00000010: 675d abbd 7c09 e8bd 557b cfbd 22ef bc3d
00000020: 6937 4ebc 1a1b 05bd a316 963d 9e7c 283e
00000030: 2aee 80bb 3d47 313e 5d65 9dbd be39 8a3c
00000040: 9700 2dbc 7feb 063e ec7c 013e 89bc f13c
00000050: 5e41 9bbc 6267 9d3d d4dc 933c e3d3 1abc
00000060: 4d92 843d 5f1e 40bd c4fd 313e 0712 833c
00000070: 1117 c63d 2f86 c33c f37b e4bd 2ba6 af3d
00000080: b278 a23d eef2 8d3d cde1 15be 88ab d2bd
00000090: f67c 453d ff13 98bc c015 333e 67b4 9dbc
000000a0: d49b f93d 368b 273d a96e 1abe ff71 2fbe
000000b0: fc4f 853d 3d27 21bd 6f5c 9abd 5cf3 0bbd
000000c0: 9b7d cdbd f2b6 82bd abba bc3d c155 cd3d
000000d0: f5ff 2d3e 7682 cebd aac1 a6bc 2ff7 a0bd
000000e0: 27ff 0c3e cc5c e1bd ddff af3b 6c16 e03d
000000f0: 7d52 393d 1e21 49bc f194 b83d 50ca 003d
00000100: d5df ce3d 8d49 e3bc 27f6 10be e81c 073e
00000110: 10e1 e9bd 073b 893c 8ff2 9b3d 6c7f 033e
00000120: b4fb a4bd b844 d3bd 62fd 533b fe9a 14be
00000130: bb74 ad3d 77c1 233d 7e35 f03d 59bb 49bd
00000140: 54fe f3bd 56f3 563d 6912 953d 90c1 a4bd
00000150: ace3 363c c5df 00be d2cc b93d c753 c5bb
00000160: 6798 323e f5b3 4abd d9dd a13d c22f 093e
00000170: 31d5 18be fe8b 4dbd 67ab d3bd c72d 563c
00000180: 3d75 303e 890b 013e fcdc d6bd f839 c0bd
00000190: 3fbb 7dbd f4de f6bc b076 203e 743d 2d3e
000001a0: 929f eabd f583 243d e95e c939 3c4e b7bd
000001b0: b1da 1ebe b4d7 1bbe 8af9 3fbd b3f4 b5bd
000001c0: 9c2b e23a 6e1d ec3d 778b 2bbe e47b 05b9
000001d0: 1cf9 073e f7a6 ac3d 0da1 c3bd 5b1c fb3c
000001e0: 6988 d6bd dcdf b03d e61e 78bd ee2f dd3d
000001f0: c8f3 173e 610e e3bd 4649 893d 015d d53d
00000200: d193 d1bd 1c47 3c3d 5956 153c 77ab 133e
00000210: 7403 bc3d cb12 ddbc 58a1 f33c d738 11be
00000220: ac2e e53d f163 3a3d 605c 343e f176 2abd
00000230: 27d3 51bd f8ba 31be fc7f 16be bf77 ebbd
00000240: 6784 f73d 754a 833c c62f b3bd d043 31be
00000250: f218 06be 2bdc 783d bb14 6139 80ab 2f3e
00000260: 418d 92bb 67f0 943d 23a0 4e3d 1f35 14be
00000270: 289f 393c eda1 09be db84 2c3e d49c 10be
00000280: 8aba de3d acfb dabd b52f 39bd e5b3 9bbd
00000290: 1796 9f3d 0776 063d 5226 9a3d 93b5 2c3e
000002a0: 3c58 18be 91b6 4a3b bf38 0dbe 55b7 693d
000002b0: 9adf a5bd 8801 f33c 8573 313d c60b ff3d
000002c0: b6cb 93bd fb15 203e 3d8d 963d 795d 12be
000002d0: 198a 95bc e2a9 2dbe 9696 8a3d 69fa e5bd
000002e0: 33aa 50bd ef40 acbd 0ce0 9f3d 6141 083e
000002f0: 9906 573b 91c3 78bd 2cd0 01be 985f 183e
00000300: 54a7 d73d 9528 14be f930 923d a68b c73c
00000310: 4bc1 10be 370f 0fbe a356 333e 7f15 e0bd
00000320: bf8f ab3d 4865 c2bd 3232 30be 67a8 b9bc
00000330: c4d6 5d3d 4ffd fdbd b488 4d3d 7964 a73d
00000340: 3024 a63d 6e90 cb3d 4155 20be 5492 213e
00000350: ba31 22be 5039 06bd 70f7 a73c d9b9 6ebd
00000360: 1698 d7ba 2314 f3bc d16c 30be aed6 d1bd
00000370: bf7b f6bd 4b5b b53d aeac 61bd a0d1 e73d
00000380: 81c1 0b3e bcb3 2ebe 66a3 c33d a6c8 62bd
00000390: b001 dbbd ace5 3abd fdaf ca3b 0336 ee3b
000003a0: 0bbe 98bb 55dc 1c3e 848e bf3d 11a2 a33c
000003b0: 6622 1d3d f635 343e 0ccd 85bc 9d6d c8bd
000003c0: 38ac 263e 296f 603c 2d0d e6bd 0a79 61bd
000003d0: ee80 e93d 4284 92bd 1cc6 2cbe 8ba8 9cbd
000003e0: 2ffe b73d f84c 34bd 6297 8cbc eb5d 88bd
000003f0: 58ce acbd e02d b7bd bdc1 d03d 4c37 913d

state_net.2.bias f4 [32]
0.14057232 -0.085135914 0.12804918 0.12050176 -0.060679603 -0.019300777 0.087490834 -0.049554683
0.0596961 0.08470489 -0.12636949 -0.16329966 -0.16622348 -0.08699038 -0.093284756 -0.024347497
0.028498674 -0.046628196 -0.11044586 0.12985133 -0.018963005 -0.09556429 0.11914996 0.11822791
0.061638873 -0.16273874 -0.0014099382 -0.13759336 0.15596242 0.08862275 -0.024248695 0.056699354
00000000: 31f2 0f3e bd5b aebd 531f 033e a0c9 f63d
00000010: 2d8b 78bd aa1c 9ebc 652e b33d daf9 4abd
00000020: e683 743d c279 ad3d 0167 01be 0738 27be
00000030: 7d36 2abe 0328 b2bd 140c bfbd 6774 c7bc
00000040: 0d76 e93c 35fd 3ebd 7031 e2bd bff7 043e
00000050: 4e58 9bbc 36b7 c3bd e504 f43d 7921 f23d
00000060: 0b79 7c3d fca4 26be adcd b8ba 46e5 0cbe
00000070: 9db4 1f3e d87f b53d 33a5 c6bc 953d 683d

shared_net.0.weight f4 [128, 1056]
0.02454324 0.0017724374 -0.002380862 -0.025493333 0.022373874 0.027103815 0.016368238 -0.016019568
-0.018577958 -0.01740944 -0.026161278 -0.013249967 0.022816835 0.012015404 -0.021075934 -0.0030675153
-0.009572769 -0.011165082 -0.012612016 0.021560032 -0.0027028094 0.0035408367 -0.0007752344 -0.017622523
0.02558567 -0.008932476 0.0019927628 0.018337378 -0.013005079 -0.0221639 0.020070743 0.0028773723
-0.0098693725 0.013794126 0.015952036 0.015628306 0.01001349 -0.02465834 -0.023591468 0.009959895
0.0007891746 0.0041793194 -0.02903985 -0.017193027 0.025575481 -0.022767827 -0.024888411 -0.016064523
0.028310236 -0.025670135 0.026343087 -0.017953468 0.026980033 0.00087065325 -0.010306467 -0.026583215
0.022904307 0.0042486074 -0.003157523 0.021535473 -0.011392593 -0.016702982 0.015426832 -0.015852872
0.02635894 -0.015654875 -0.022079902 -0.022118056 0.025836425 -0.009579641 -0.025396032 0.022284243
0.0011710966 -0.0011546217 -0.008526567 0.008866633 -0.0049897158 0.005615932 -0.016138483 -0.01771455
-0.00028984493 0.01027088 0.017166259 -0.0050390046 -0.027481 0.008356196 -0.009462684 0.025778249
0.016257372 -0.028584994 0.0057136216 -0.002907565 0.030292435 0.02661875 0.020163076 -0.008915808
-0.01175136 -0.0113188205 0.027835056 0.02529219 -0.0058850935 -0.02264516 -0.027842754 0.012012361
0.0014390766 0.0018818865 0.010321842 0.028527489 0.0019967244 0.030724408 -0.009539674 0.009490322
0.024794945 -0.018218502 -0.026966715 -0.014035506 0.017578062 -0.016502094 0.026019918 0.0038225849
-0.011142787 0.0111113405 0.010487842 0.018748023 -0.012268057 0.029075187 -0.009077489 0.026461322
-0.018197706 -0.026425973 -0.006541021 0.030070785 0.025490336 0.0025479323 0.00020215886 0.007707393
0.01608827 0.0021373895 -0.005386469 -0.024571568 0.013782518 0.022567336 -0.027347742 0.023554347
-0.0051276297 -0.010258635 -0.025650704 -0.013244366 0.018685957 0.002349875 -0.02627351 -0.02823662
-0.00081321364 -0.005698508 -3.064715e-05 -0.005227359 -0.029072398 -0.021201259 -0.009092512 0.026254015
0.020048684 0.009004767 -0.011501859 0.019761201 -0.017283345 -0.003290452 0.007920612 -0.030352406
-0.0056276033 -0.0025937948 -0.008401123 0.0057881568 0.010586999 -0.012912642 -0.029804999 -0.016982783
-0.0008641857 -0.021760963 0.012233032 0.0141260205 0.01968488 0.023353085 -0.010306725 -0.014896472
-0.019945884 -0.005792031 0.009439887 -0.010129411 -0.027163504 0.030025173 -0.009015242 0.019719679
0.0067859227 -0.014709936 -0.012966861 -0.010458273 -0.02808997 -0.0069353753 0.027921434 -0.021552028
0.0015621486 0.02178479 -0.011091753 -0.017782908 0.015524413 0.021021558 -0.03074019 -0.004812579
0.021758623 0.027063899 -0.005875502 0.01152369 -0.02345958 0.027877485 0.02069141 -0.02710083
0.014420872 0.016247248 0.004716678 -0.012527279 0.0069349543 -0.029345602 0.023331577 0.0022385495
0.012137791 -0.030314015 -0.008326948 0.017104913 0.018686395 0.021345349 -0.029969117 -0.01901153
0.023502532 0.019434243 -0.014810717 0.0039255223 -0.025270913 0.00793992 -0.029472234 0.011797399
0.001854862 0.00247896 -0.019800376 -0.013478 0.01963404 -0.019698232 -0.014518527 0.02935844
-0.030023942 0.010796352 -0.014244108 -0.027227843 0.016881192 0.012848029 -0.021635765 -0.011709973
00000000: e80e c93c 2151 e83a 3c08 1cbb 65d7 d0bc
00000010: 6a49 b73c d208 de3c af16 863c 783b 83bc
00000020: cd30 98bc 3e9e 8ebc 2d50 d6bc 6416 59bc
00000030: 5fea ba3c 42dc 443c 70a7 acbc 5e08 49bb
00000040: 1ad7 1cbc c0ed 36bc a1a2 4ebc aa9e b03c
00000050: 9e21 31bb 620d 683b 1a39 4bba 1c5d 90bc
00000060: 0a99 d13c 8559 12bc 0399 023b 4538 963c
00000070: 4113 55bc 1191 b5bc 666b a43c 4c92 3c3b
00000080: 26b3 21bc c200 623c d8ad 823c ef06 803c
00000090: 9f0f 243c 4900 cabc e542 c1bc d42e 233c
000000a0: 9ce0 4e3a acf2 883b fbe4 edbc 64d8 8cbc
000000b0: ac83 d13c 9883 babc c8e2 cbbc bf99 83bc
000000c0: deea e73c 2d4a d2bc 75cd d73c 2713 93bc
000000d0: 3b05 dd3c 8d3c 643a 75dc 28bc 0bc5 d9bc
000000e0: d0a1 bb3c e737 8b3b 72ee 4ebb 296b b03c
000000f0: 00a8 3abc b1d4 88bc d3c0 7c3c e2dd 81bc
00000100: b4ee d73c a73e 80bc e9e0 b4bc ed30 b5bc
00000110: e9a6 d33c edf3 1cbc 570b d0bc 728d b63c
00000120: 7b7f 993a ad56 97ba 04b3 0bbc 5b45 113c
00000130: c580 a3bb da05 b83b da34 84bc 1b1e 91bc
00000140: 54f6 97b9 3147 283c 41a0 8c3c 3c1e a5bb
00000150: d61f e1bc 6de8 083c 6009 1bbc e82c d33c
00000160: 2e2e 853c 142b eabc 5539 bb3b d98c 3ebb
00000170: d727 f83c 910f da3c 092d a53c 9c13 12bc
00000180: c788 40bc 9372 39bc 5806 e43c 9131 cf3c
00000190: bed7 c0bb 5882 b9bc 7d16 e4bc 7ecf 443c
000001a0: 669f bc3a a2a9 f63a f11c 293c 7bb2 e93c
000001b0: 7adb 023b c1b1 fb3c 4b4c 1cbc 4c7d 1b3c
000001c0: c51e cb3c f83e 95bc 4de9 dcbc 2ef5 65bc
000001d0: deff 8f3c 662f 87bc b927 d53c 5584 7a3b
000001e0: 3c90 36bc 570c 363c 33d5 2b3c 7495 993c
000001f0: f6ff 48bc 162f ee3c c0b9 14bc 6ac5 d83c
00000200: 5b13 95bc 487b d8bc 1056 d6bb 0257 f63c
00000210: 1cd1 d03c 36fb 263b 9bfa 5339 4c8e fc3b
00000220: 8ccb 833c 7213 0c3b fa80 b0bb 504a c9bc
00000230: 12d0 613c 22df b83c 5f08 e0bc 0cf5 c03c
00000240: ad05 a8bb d513 28bc 6d21 d2bc e6fe 58bc
00000250: 4b13 993c 5c00 1a3b 8b3b d7bc 7c50 e7bc
00000260: d82d 55ba 8dba babb 208b 00b8 444a abbb
00000270: 3d29 eebc 43ae adbc c2f8 14bc a912 d73c
00000280: 233d a43c bb88 133c 4b72 3cbc 3ee2 a13c
00000290: cd95 8dbc a0a4 57bb 74c5 013c 9ca5 f8bc
000002a0: c267 b8bb a8fc 29bb dda4 09bc 94aa bd3b
000002b0: 1875 2d3c 8c8f 53bc 9d29 f4bc 7a1f 8bbc
000002c0: 858a 62ba 0c44 b2bc 0e6d 483c d370 673c
000002d0: 2f42 a13c f84e bf3c 8add 28bc 5510 74bc
000002e0: 8d65 a3bc 14cb bdbb c1a9 1a3c d4f5 25bc
000002f0: ff85 debc 5af7 f53c aab4 13bc 2a8b a13c
00000300: 725c de3b f201 71bc f572 54bc 2d59 2bbc
00000310: f01c e6bc 2542 e3bb 7ebb e43c e18d b0bc
00000320: 02c1 cc3a 0476 b23c 2fba 35bc 76ad 91bc
00000330: 1c5a 7e3c 6735 ac3c dad2 fbbc d7b2 9dbb
00000340: 243f b23c 1cb5 dd3c 4887 c0bb dccd 3c3c
00000350: 4e2e c0bc 535f e43c 0881 a93c 8f02 debc
00000360: 8545 6c3c f318 853c 5d8e 9a3b 373f 4dbc
00000370: 9d3e e33b 3066 f0bc dd21 bf3c a1b4 123b
00000380: 96dd 463c 1955 f8bc c06d 08bc 9a1f 8c3c
00000390: 3614 993c 71dc ae3c cb81 f5bc 11be 9bbc
000003a0: 6288 c03c 9034 9f3c a6a8 72bc aba1 803b
000003b0: f204 cfbc 7016 023c c16f f1bc e149 413c
000003c0: d71e f33a 0c76 223b 6634 a2bc d4d2 5cbc
000003d0: 91d7 a03c 305e a1bc 1edf 6dbc 1c81 f03c
000003e0: c5f4 f5bc 2fe3 303c 1f60 69bc ed0c dfbc
000003f0: 6d4a 8a3c 8a80 523c 7d3d b1bc 30db 3fbc

shared_net.0.bias f4 [128]
0.025411319 0.011075527 -0.008872209 0.01541393 -0.02545458 -0.029453315 -0.027916474 0.0031520282
-0.004992588 0.019171948 -0.014631638 0.015121812 -0.023555664 -0.017193584 -0.012020011 0.013606862
-0.010437512 -0.0022375963 0.027603533 -0.02153836 -0.014951742 -0.014248843 0.016476193 0.015004842
-0.008924402 -0.030126901 0.0127235465 -0.02365155 -0.0025269047 0.011117908 -0.0003587344 -0.028863685
0.0037092417 -0.020507999 -0.0055521284 0.0097193 -0.0071409387 -0.012240263 -0.014084761 0.01822938
0.00041342722 -0.013975192 0.019926634 0.027044637 -0.00092953164 -0.0010701052 -0.029800143 -0.008194708
-0.028671928 -0.028406633 0.019654358 0.012599128 0.0289952 -0.012188061 0.02699227 -0.011259898
-0.013302582 -0.023080109 -0.004480597 -0.015364851 0.021125209 -0.011722111 -0.0018138941 -0.029895818
-0.02039401 0.0055398787 0.023210041 -0.018816914 -0.0060253083 -0.02795045 -0.019212872 0.009669767
-0.016278425 -0.027388453 -0.019357584 0.015465561 -0.006671371 -0.018248491 0.008414759 0.024914825
0.0012838233 0.02902003 0.030339994 -0.02192409 -0.021452148 0.019164981 0.0047046603 -0.019515242
0.015835647 -0.019704774 -0.029957293 -0.006564236 -0.030513031 -0.024477331 0.02324027 -0.017966082
0.02166228 0.011834585 -0.025671162 -0.011308251 -0.0020408893 0.008352324 0.030157514 0.02650497
-0.026132273 0.030187184 0.012630581 -0.01445817 -0.016101032 -0.013839914 0.030582335 0.021126246
-0.017216347 0.0014126799 0.019251287 -0.0010155729 -0.010062473 0.02786392 -0.015769884 0.009123239
-0.0057629985 -0.00608372 0.025601268 0.015401097 -0.022655215 -0.004292457 0.015438695 0.0016299892
00000000: 662b d03c 2176 353c be5c 11bc b58a 7c3c
00000010: 2086 d0bc 1448 f1bc 17b1 e4bc 4292 4e3b
00000020: dd98 a3bb 7d0e 9d3c 8ab9 6fbc 7ac1 773c
00000030: cff7 c0bc 8fd9 8cbc 95ef 44bc 51ef 5e3c
00000040: 1902 2bbc a3a4 12bb ce20 e23c 3771 b0bc
00000050: 27f8 74bc fb73 69bc 15f9 863c ded6 753c
00000060: a837 12bc b1cc f6bc 6c76 503c e5c0 c1bc
00000070: 6d9a 25bb e327 363c 8414 bcb9 8973 ecbc
00000080: c016 733b 6400 a8bc a1ee b5bb b33d 1f3c
00000090: 89fe e9bb 628b 48bc c5c3 66bc c855 953c
000000a0: 43c1 d839 34f8 64bc 2e3d a33c b78c dd3c
000000b0: d0ab 73ba c642 8cba 6e1f f4bc 1943 06bc
000000c0: 64e1 eabc 07b5 e8bc 2d02 a13c 936c 4e3c
000000d0: 5787 ed3c 6fb0 47bc e51e dd3c 6f7b 38bc
000000e0: 13f3 59bc 7f12 bdbc f9d1 92bb dbbc 7bbc
000000f0: c60e ad3c 190e 40bc 30c0 edba 13e8 f4bc
00000100: 5711 a7bc df87 b53b fc22 be3c ee25 9abc
00000110: f36f c5bb 58f8 e4bc 5064 9dbc f16d 1e3c
00000120: 555a 85bc c05d e0bc cc93 9ebc 4463 7d3c
00000130: 849b dabb dc7d 95bc 0fde 093c 2d1a cc3c
00000140: f645 a83a 6abb ed3c 948b f83c 269a b3bc
00000150: 6abc afbc e1ff 9c3c 8d29 9a3b 6ede 9fbc
00000160: c2b9 813c e86b a1bc ff68 f5bc cd18 d7bb
00000170: 77f6 f9bc af84 c8bc 6162 be3c 9b2d 93bc
00000180: 1875 b13c d9e5 413c 544c d2bc 3e46 39bc
00000190: 71c0 05bb 30d8 083c e40c f73c f320 d93c
000001a0: 5913 d6bc 1d4b f73c 7ff0 4e3c f6e1 6cbc
000001b0: 50e6 83bc cfc0 62bc ce87 fa3c f310 ad3c
000001c0: 4c09 8dbc ac29 b93a e0b4 9d3c f91c 85ba
000001d0: 12dd 24bc e042 e43c d82f 81bc a379 153c
000001e0: 89d7 bcbb f159 c7bb c0b9 d13c e254 7c3c
000001f0: 6e97 b9bc bda7 8cbb 95f2 7c3c 5da5 d53a

shared_net.2.weight f4 [64, 128]
-0.025523802 -0.017364701 -0.020930577 0.04866515 -0.03941474 -0.00036819655 -0.07031448 0.019829543
-0.013893118 -0.021153491 0.0052373568 -0.06730534 0.04881634 -0.029546153 -0.07132149 0.030927967
-0.0084468415 -0.004698949 -0.025061913 0.026228087 0.016361097 -0.036833268 -0.051132187 -0.087281376
0.0649783 -0.064210236 0.062329117 -0.03550503 0.0505209 -0.084183306 -0.028218245 -0.078693785
-0.046971336 -0.050176412 -0.039394908 0.07449507 0.044166524 0.047471516 0.053541973 0.0730917
-0.06300854 -0.0006974219 0.035603184 0.049923807 0.07290403 -0.021021478 -0.045604452 0.07577562
0.056811865 0.018734073 -0.042091463 0.0458393 0.06129612 0.057556346 -0.023395734 0.0060538785
0.0005166477 0.04123714 -0.036094926 -0.038955476 0.07714754 0.042261705 -0.04718049 0.08385427
0.039056398 -0.081075996 -0.07765105 -0.014074798 -0.021376418 -0.07410141 0.083901465 -0.08060446
-0.0045634923 0.03770768 -0.045215055 0.07636065 -0.027423805 -0.02576929 -0.03157526 -0.017597474
-0.081223585 -0.07474074 -0.069328964 -0.07216461 0.024815295 0.08542454 0.0024796193 0.04255413
0.04079419 0.022427412 0.038389824 -0.06809592 -0.07476924 0.044398744 0.046069615 0.050357834
0.05838475 0.0020462123 -0.00713841 0.03518053 0.024144499 0.048125356 0.07747356 -0.0063559255
0.0056577716 0.061587423 -0.07492284 -0.018592922 -0.05586709 0.025494227 0.031803094 -0.036401853
0.028043438 -0.021204637 -0.05010796 0.002055741 -0.005638848 0.03573899 -0.03318652 -0.021324208
-0.052348018 0.084834576 -0.0020081366 -0.08630412 -0.08452767 0.046324126 -0.01039782 -0.08295083
-0.032116994 -0.023502694 -0.04773159 -0.044026483 0.058209233 0.025908025 0.080435775 0.0015181716
0.055011615 0.04143273 0.012557442 0.012272519 0.0023242617 -0.08783065 0.04201004 0.0753757
-0.014110469 -0.08381011 -0.0006469436 -0.00045270982 -0.037474196 -0.084435634 0.06529767 -0.06327097
0.0576008 -0.034471337 -0.08326783 0.07220406 -0.025509812 0.07019787 -0.044189125 0.0031321323
-0.020434067 -0.037598193 -0.01718345 0.07812589 -0.0012110897 -0.044336345 0.05485721 -0.01988876
-0.02266729 0.025387945 -0.084090285 0.018506428 -0.0234775 0.06536153 0.01716128 0.0676877
0.039384734 -0.028058548 0.030621834 -0.084128186 0.04549374 -0.03156882 -0.03664342 -0.05619651
0.07809575 -0.03603608 0.066730514 0.0061002295 0.06242375 0.031724144 -0.027299272 0.02142105
-0.01984692 0.083173156 0.017531287 -0.034285355 0.018802341 0.009142146 0.0859243 0.05018853
-0.075188935 0.04578431 -0.0013920893 0.06509267 0.004871038 0.041531906 -0.074901946 -0.006351804
0.038170576 -0.08135142 -0.023758199 0.0029793186 0.03322966 0.03475265 0.07657901 0.03815372
0.058982566 -0.08505456 -0.03618977 0.055979412 -0.020326603 0.0076659955 -0.063658275 -0.020265585
0.06603094 0.039508097 0.061039995 0.044507038 0.06810741 0.024207663 -0.029845437 0.0585973
-0.07201908 0.020615561 -0.031502746 -0.05357622 0.029530548 -0.08680992 -0.057039596 -0.08391634
-0.028301882 0.0870597 -0.041929074 -0.08610245 -0.019524707 0.04856457 0.07427353 -0.0704492
-0.06021417 -0.047660552 0.027611528 -0.03856579 -0.0010857766 -0.0041333204 -0.06758526 0.08201491
00000000: 4b17 d1bc 6b40 8ebc 9a76 abbc 1c55 473d
00000010: 5a71 21bd 810a c1b9 0a01 90bd 9171 a23c
00000020: f69f 63bc 164a adbc 229e ab3b 62d7 89bd
00000030: a4f3 473d c60a f2bc 0011 92bd a65c fd3c
00000040: 9f64 0abc a4f9 99bb a44e cdbc 49dc d63c
00000050: b507 863c 7bde 16bd fc6f 51bd 94c0 b2bd
00000060: 5813 853d a880 83bd d14c 7f3d b96d 11bd
00000070: 01ef 4e3d 4c68 acbd f329 e7bc 352a a1bd
00000080: 0465 40bd c885 4dbd 8e5c 21bd df90 983d
00000090: f5e7 343d 7e71 423d d44e 5b3d 1ab1 953d
000000a0: 9f0a 81bd 31d3 36ba a5d4 113d e87c 4c3d
000000b0: b54e 953d 3c35 acbc bccb 3abd 4030 9b3d
000000c0: 8fb3 683d 3378 993c 1968 2cbd fdc1 3b3d
000000d0: a411 7b3d 34c0 6b3d 69a8 bfbc 9d5f c63b
000000e0: a46f 073a 46e8 283d 46d8 13bd c78f 1fbd
000000f0: 88ff 9d3d 9c1a 2d3d 5440 41bd cabb ab3d
00000100: 9af9 1f3d 2c0b a6bd 8407 9fbd fb99 66bc
00000110: 991d afbc 7bc2 97bd 88d4 ab3d f313 a5bd
00000120: 5989 95bb 5e73 1a3d 6c33 39bd f962 9c3d
00000130: e3a7 e0bc 1e1a d3bc 0f55 01bd 9428 90bc
00000140: 8d58 a6bd ac11 99bd 58fc 8dbd 0acb 93bd
00000150: 7249 cb3c 10f3 ae3d 1c81 223b 3d4d 2e3d
00000160: cf17 273d b1b9 b73c a63e 1d3d e075 8bbd
00000170: 9e20 99bd 75db 353d 7eb3 3c3d 0444 4e3d
00000180: d924 6f3d bf19 063b 53e9 e9bb 7619 103d
00000190: afca c53c 181f 453d 75aa 9e3d 5e45 d0bb
000001a0: d464 b93b 1843 7c3d 2571 99bd 2f50 98bc
000001b0: e4d4 64bd 45d9 d03c f643 023d 1c1a 15bd
000001c0: 5abb e53c 59b5 adbc 013e 4dbd 9cb9 063b
000001d0: 16c6 b8bb 0c63 123d 97ee 07bd 1bb0 aebc
000001e0: e06a 56bd c0bd ad3d f19a 03bb 37c0 b0bd
000001f0: d81c adbd 5ebe 3d3d 9e5b 2abc 20e2 a9bd
00000200: 1c8d 03bd b988 c0bc 3382 43bd 1d55 34bd
00000210: ce6c 6e3d 113d d43c 83bb a43d 63fd c63a
00000220: dc53 613d 5eb5 293d bbbd 4d3c ad12 493c
00000230: a452 183b 8ee0 b3bd b812 2c3d 935e 9a3d
00000240: 992f 67bc a3a4 abbd a697 29ba af59 edb9
00000250: 8b7e 19bd 97ec acbd c9ba 853d 3694 81bd
00000260: d1ee 6b3d d131 0dbd 5388 aabd b9df 933d
00000270: f4f9 d0bc e7c3 8f3d a8ff 34bd 7644 4d3b
00000280: 5865 a7bc 9000 1abd 4ec4 8cbc 7700 a03d
00000290: 6dbd 9eba 079a 35bd f4b1 603d c1ed a2bc
000002a0: c1b0 b9bc 61fa cf3c 8737 acbd cb9a 973c
000002b0: e353 c0bc 44dc 853d d095 8c3c d99f 8a3d
000002c0: e351 213d 0adb e5bc a4da fa3c 664b acbd
000002d0: a557 3a3d 4f4e 01bd 6917 16bd 502e 66bd
000002e0: aaf0 9f3d 929a 13bd 02aa 883d 6fe4 c73b
000002f0: 0cb0 7f3d 2df1 013d b9a2 dfbc 337b af3c
00000300: 0296 a2bc b056 aa3d c69d 8f3c cd6e 0cbd
00000310: 5e07 9a3c f1c8 153c 14f9 af3d 7d92 4d3d
00000320: a8fc 99bd 5488 3b3d c476 b6ba 4e4f 853d
00000330: 3a9d 9f3b 5c1d 2a3d 3166 99bd cb22 d0bb
00000340: c058 1c3d 939b a6bd 8ea0 c2bc ac40 433b
00000350: d31b 083d cb58 0e3d 75d5 9c3d 1347 1c3d
00000360: b497 713d 1631 aebd b93b 14bd ab4a 653d
00000370: fa83 a6bc 0833 fb3b 455f 82bd 0304 a6bc
00000380: 3b3b 873d 3ed3 213d 1305 7a3d 034d 363d
00000390: e67b 8b3d 264f c63c 6b7e f4bc b903 703d
000003a0: bd7e 93bd f7e1 a83c 0609 01bd bd72 5bbd
000003b0: 0cea f13c 66c9 b1bd 5aa2 69bd 54dc abbd
000003c0: 59d9 e7bc 5b4c b23d d2bd 2bbd 7b56 b0bd
000003d0: 47f2 9fbc a4eb 463d b81c 983d ac47 90bd
000003e0: 22a3 76bd b637 43bd 9231 e23c 29f7 1dbd
000003f0: 9e50 8eba ce70 87bb 246a 8abd 6ff7 a73d

shared_net.2.bias f4 [64]
0.0593125 -0.052790917 0.06958254 0.028989103 0.05612612 -0.039318964 0.08420279 0.0074266857
0.0598091 -0.05436899 0.04717956 0.00979566 -0.062117614 -0.08793009 -0.067163065 -0.03677696
0.00045906514 -0.01127681 0.08329176 -0.024652079 0.018335454 0.06986926 -0.07329459 -0.05134855
0.057820633 -0.072626 0.06720037 0.05762903 -0.073304296 -0.079036064 0.011042692 -0.08170052
-0.034757074 0.041171096 0.02397421 -0.08768975 0.0634041 -0.039165728 0.05132049 -0.04008966
-0.025278836 -0.071125954 0.002183697 -0.005330449 0.076745406 0.073439285 0.05133859 0.04309463
-0.081006855 0.06760484 0.00041803299 0.026071038 0.03631221 -0.07845872 -0.072421506 -0.009703879
0.059508044 -0.0503328 0.022728642 0.043088656 -0.07554545 -0.018521832 0.060557276 0.0024772892
00000000: aaf1 723d 4a3b 58bd 4a81 8e3d 8e7a ed3c
00000010: 81e4 653d ec0c 21bd 8372 ac3d 8e5b f33b
00000020: 63fa 743d 05b2 5ebd 5b3f 413d fa7d 203c
00000030: 0a6f 7ebd b114 b4bd ca8c 89bd 70a3 16bd
00000040: aeae f039 5fc2 38bc df94 aa3d 28f3 c9bc
00000050: 3c34 963c 9d17 8f3d 791b 96bd db52 52bd
00000060: 54d5 6c3d f1bc 94bd 59a0 893d 6b0c 6c3d
00000070: 9020 96bd a9dd a1bd 68ec 343c 9a52 a7bd
00000080: 6f5d 0ebd 06a3 283d 9065 c43c af96 b3bd
00000090: 02da 813d 3e6c 20bd 6f35 523d 0e35 24bd
000000a0: 9015 cfbc 7caa 91bd 5b1c 0f3b 0cab aebb
000000b0: b22c 9d3d 5667 963d 6a48 523d ff83 303d
000000c0: ece6 a5bd 6874 8a3d 702b db39 ee92 d53c
000000d0: 1dbc 143d f7ae a0bd ba51 94bd 05fd 1ebc
000000e0: b5be 733d c429 4ebd 6b31 ba3c bb7d 303d
000000f0: 93b7 9abd 19bb 97bc e80a 783d 045a 223b

actor.0.weight f4 [32, 64]
-0.07498616 0.035445407 -0.042409703 -0.031764165 -0.021091089 -0.08772637 0.019143105 0.08430566
0.079761505 -0.049120918 0.047843993 -0.047414586 -0.03232284 0.06138125 0.03399159 0.038840994
-0.020655125 -0.060929373 0.023203418 -0.030392095 -0.075815275 0.025828928 -0.09634067 -0.096448705
0.024507165 -0.08739355 -0.1146242 -0.06289753 -0.08612418 -0.007861331 0.023948878 0.023202077
0.05558172 -0.12047343 0.120899215 -0.06642714 0.0545924 -0.012207955 -0.10851014 -0.057128415
-0.025376022 -0.10209085 0.028926626 0.04742165 0.07976152 0.07350944 0.082157865 -0.10692936
-0.0048683733 0.06932321 -0.0074979067 0.113611326 -0.012232244 -0.043298557 0.081589326 -0.10990694
0.018239766 0.1143529 0.023136854 -0.016328558 -0.029503122 0.020328984 0.026971266 -0.09906791
0.10809086 -0.086305365 -0.0062523726 -0.094622254 -0.08020499 0.015030846 -0.09237081 0.02777563
-0.00021375739 0.005409792 -0.022041056 -0.009528384 0.03977698 0.06752409 0.10962957 0.061650634
-0.08423279 0.07887703 0.07793102 -0.046605825 -0.0029431651 0.044634476 0.0877787 -0.10527867
-0.04848063 0.09052186 -0.11049041 0.11592713 -0.108443856 0.0065289885 -0.091405734 -0.07959601
-0.11192578 0.08697526 0.097121075 -0.03137228 -0.08939226 -0.004821807 -0.10824886 -0.096980706
0.061901957 0.040051043 0.012202159 0.052032217 0.015770145 -0.106897116 -0.05348654 0.07482377
-0.06032081 -0.053126827 0.05259949 -0.11802067 -0.10944013 0.015844822 -0.06490986 0.014397636
0.09503682 -0.017334223 0.061142847 -0.11133523 0.10151711 0.0065585226 0.043950856 -0.0134064
-0.0299301 0.068369836 0.054233566 -0.022442237 -0.1240834 0.07199448 -0.06080717 0.11188848
0.08775821 0.07119906 0.014424562 -0.11304794 -0.12266342 0.121232376 0.08291307 0.1102885
0.042909548 -0.038304374 0.015358852 -0.006179031 -0.11580297 0.013166683 0.1231904 -0.111050814
-0.111711964 0.02509357 -0.117149934 0.11050564 0.11845179 0.069319546 -0.033086225 0.0051553547
0.0084168315 0.020961367 0.09862156 0.11957827 0.120127425 0.09275073 -0.008899607 0.060696423
-0.061787263 -0.11465949 0.108990476 0.013520807 0.007653797 0.08673337 -0.10113682 0.028522119
0.0069405437 -0.0021203062 -0.004823357 -0.103969246 0.08841565 0.011130169 -0.030930504 -0.04589522
0.1167274 -0.0066185147 0.09903315 0.002769785 0.06299281 -0.05862151 0.097755685 -0.101963595
0.121765584 -0.013616189 -0.010893658 0.11149335 0.06313431 -0.07157706 0.061114103 -0.015333638
0.024349049 -0.020872638 -0.10177 -0.017657861 0.11716075 -0.10405971 -0.036233485 0.02239941
0.051911876 0.11245379 -0.011707813 0.03310302 -0.12082806 0.10193069 0.103330135 -0.03127432
-0.03861311 0.061360553 0.0025327355 -0.084771514 -0.028749347 0.053896636 0.03602481 0.033087447
-0.073784634 -0.06741123 0.007187158 -0.014893845 -0.013298586 0.071799755 0.06300695 -0.06112373
-0.07044053 0.020298153 0.051201433 0.08849217 0.0026507676 0.018286765 0.023114651 -0.07773855
0.06003104 -0.055505604 0.06494863 0.09822114 0.030270606 0.051784024 0.08266461 -0.079681024
0.018333167 0.025832236 -0.0763042 0.027436495 0.093222305 -0.08082865 -0.09131269 -0.03149335
00000000: 5892 99bd 342f 113d ccb5 2dbd 241b 02bd
00000010: 38c7 acbc e2a9 b3bd 00d2 9c3c 72a8 ac3d
00000020: 005a a33d 0433 49bd 10f8 433d cc35 42bd
00000030: f464 04bd e86a 7b3d c43a 0b3d bc17 1f3d
00000040: f034 a9bc 1491 79bd 1815 be3c d8f8 f8bc
00000050: 0a45 9bbd 3097 d33c 424e c5bd e686 c5bd
00000060: 40c3 c83c 64fb b2bd 18c0 eabd 6cd0 80bd
00000070: e061 b0bd d0cc 00bc 7030 c43c 4812 be3c
00000080: a8a9 633d c6ba f6bd 029a f73d f40a 88bd
00000090: 489c 5f3d e003 48bc 903a debd 7cff 69bd
000000a0: 60e1 cfbc 0215 d1bd 88f7 ec3c 343d 423d
000000b0: 025a a33d 1e8c 963d 6242 a83d c8fd dabd
000000c0: e086 9fbb 54f9 8d3d 00b1 f5bb 0ead e83d
000000d0: c069 48bc d459 31bd 4e18 a73d e416 e1bd
000000e0: 906b 953c da31 ea3d 8089 bd3c 78c3 85bc
000000f0: 88b0 f1bc f888 a63c d8f2 dc3c 1ee4 cabd
00000100: be5e dd3d dec0 b0bd b4e0 ccbb 50c9 c1bd
00000110: 8442 a4bd f043 763c e82c bdbd b889 e33c
00000120: 1024 60b9 a044 b13b 728f b4bc f01c 1cbc
00000130: 30ed 223d 124a 8a3d 7885 e03d 6085 7c3d
00000140: 3e82 acbd 488a a13d 4c9a 9f3d c0e5 3ebd
00000150: 1ee2 40bb a4d2 363d 52c5 b33d 589c d7bd
00000160: a093 46bd 8663 b93d cc48 e2bd 346b ed3d
00000170: d017 debd 20f1 d53b ee32 bbbd 3c03 a3bd
00000180: 5839 e5bd 1620 b23d 6ae7 c63d 3880 00bd
00000190: 4a13 b7bd 4000 9ebb 94b1 ddbd d29d c6bd
000001a0: e88c 7d3d 900c 243d 90eb 473c bc1f 553d
000001b0: 6430 813c e0ec dabd b414 5bbd 343d 993d
000001c0: f412 77bd 849b 59bd 9072 573d d2b4 f1bd
000001d0: 2622 e0bd 00cd 813c 76ef 84bd 10e4 6b3c
000001e0: aaa2 c23d 8000 8ebc ec70 7a3d ba03 e4bd
000001f0: 34e8 cf3d e0e8 d63b d005 343d 84a6 5bbc
00000200: f82f f5bc 7c05 8c3d 0424 5e3d c8d8 b7bc
00000210: 701f febd d871 933d f010 79bd ca25 e53d
00000220: 94ba b33d d0d0 913d 0055 6c3c ae85 e7bd
00000230: f636 fbbd ae48 f83d 54ce a93d f0de e13d
00000240: ecc1 2f3d 0ce5 1cbd b2a3 7b3c 7879 cabb
00000250: 1c2a edbd 12b9 573c 404b fc3d 9c6e e3bd
00000260: 3ec9 e4bd 0891 cd3c 4eec efbd c850 e23d
00000270: da96 f23d 68f7 8d3d 6c85 07bd 40ee a83b
00000280: c0e6 093c 2cb7 ab3c 1afa c93d 74e5 f43d
00000290: 5e05 f63d 18f4 bd3d a8cf 11bc d09c 783d
000002a0: a414 7dbd 98d2 eabd 6636 df3d 6086 5d3c
000002b0: b4cc fa3b 44a1 b13d d220 cfbd 38a7 e93c
000002c0: 806d e33b d6f4 0abb 400d 9ebb d4ed d4bd
000002d0: 4413 b53d 505b 363c f861 fdbc a0fc 3bbd
000002e0: c60e ef3d 20e0 d8bb e4d1 ca3d 4885 353b
000002f0: 6002 813d 1c1d 70bd 2234 c83d 4ad2 d0bd
00000300: 3c60 f93d 7016 5fbc 507b 32bc a056 e43d
00000310: 904c 813d fe96 92bd c852 7a3d f039 7bbc
00000320: a877 c73c 18fd aabc ca6c d0bd 38a7 90bc
00000330: faf1 ef3d 421d d5bd 9069 14bd f87e b73c
00000340: 8ca1 543d 2c4e e63d 20d2 3fbc 0897 073d
00000350: b474 f7bd 0ac1 d03d c09e d33d 8019 00bd
00000360: c828 1ebd 3455 7b3d 40fc 253b b09c adbd
00000370: c083 ebbc b8c2 5c3d c08e 133d b486 073d
00000380: 661c 97bd e60e 8abd 4082 eb3b 5005 74bc
00000390: 50e2 59bc c00b 933d ca09 813d e05c 7abd
000003a0: 2043 90bd 5048 a63c 98b8 513d 623b b53d
000003b0: 80b8 2d3b 20ce 953c f05a bd3c 6435 9fbd
000003c0: 1ce3 753d d859 63bd ca03 853d 2a28 c93d
000003d0: 10fa f73c 7c1b 543d 104c a93d ce2f a3bd
000003e0: 702f 963c 209e d33c 6045 9cbd 80c2 e03c
000003f0: 56eb be3d 7e89 a5bd 2602 bbbd 2cff 00bd
