logs/20250602_014535/checkpoint_episode_1000.pt (torch, 744327 bytes, 19 tensors)

cnn.0.weight f4 [32, 1, 3, 3]
-0.1972977 -0.12441357 0.020554937 -0.18430099 -0.0781502 0.15748015 -0.30145043 0.018935831
-0.06742177 0.068089046 -0.16785008 -0.30620942 -0.0367503 -0.078974344 -0.22964899 -0.23283559
-0.13205151 0.014480511 0.021702671 0.20908219 0.16238053 0.3008014 0.13500278 0.10658813
-0.33109626 -0.26881856 -0.2717306 -0.20407888 0.034652233 -0.25791904 0.22517586 -0.02579987
-0.057462852 0.1409965 -0.020882249 -0.32717466 -0.30578995 -0.25970846 0.2101133 0.2720984
0.28844526 0.27072626 0.33214018 0.2920584 -0.2623181 -0.25923848 -0.14148483 -0.26350293
-0.09563832 0.030087035 -0.11422615 0.08041366 0.063668095 -0.18376467 -0.2907349 -0.30490416
0.015705746 0.22957787 -0.19138722 -0.2931075 -0.026389759 0.3231183 -0.18399644 -0.015937122
0.32789847 -0.15396285 0.14161421 0.17797725 0.18410759 0.32953292 -0.11198882 0.107946105
0.08356312 0.09052312 0.31533203 0.073170565 -0.22759558 0.06657466 0.20679966 0.21227302
0.13278483 -0.093857445 0.32081237 0.03602629 -0.19337997 0.12405445 -0.0958274 -0.30160856
-0.026952332 0.2379385 -0.19713342 -0.12217828 0.037565153 0.108667135 -0.058063947 -0.1658129
0.114187084 0.029091557 0.30475876 0.14637117 -0.07077992 0.05333639 0.053037114 0.1952071
-0.3243133 0.18903011 -0.14874257 0.26006427 0.0006645521 -0.1740272 -0.1362997 -0.0016038816
0.075569674 -0.27975973 0.17216942 0.25296825 0.32115692 -0.30248043 -0.021914024 -0.07689918
-0.007879175 -0.095765255 -0.2952084 0.27091664 0.04410283 -0.11241806 0.10961355 -0.3075162
0.08628987 0.10573024 0.16705002 0.011097972 -0.30136752 -0.045195967 -0.09817823 0.17062978
-0.18328536 0.047055505 0.09029886 0.28637385 0.32157856 0.1365293 -0.20680118 0.028283743
-0.041577827 0.019794459 0.23871616 0.103448115 -0.02373594 0.23752835 -0.13068345 -0.1312384
0.11886772 0.28210422 0.0340662 -0.07708287 0.009965062 0.30370855 -0.26524335 -0.31710035
-0.25305778 -0.103987694 0.20296672 0.1993861 -0.21875846 0.049250454 0.20836891 -0.27113727
-0.09969198 -0.094315365 0.1678479 0.03876364 -0.055034976 0.31244984 -0.105460376 0.135328
0.03319932 0.011060737 -0.30822712 0.11775859 0.23001216 -0.23920462 0.32617298 -0.1743521
-0.08714512 0.19041274 0.23381522 -0.27118254 -0.18504609 0.10465821 -0.045678735 0.29649994
0.2910889 -0.07850194 -0.10856502 0.26067528 0.09476066 -0.26064044 -0.15003674 0.295254
-0.16989589 0.31218064 0.11656666 -0.11077277 -0.1409754 -0.22561514 0.10027759 0.14895327
0.038436417 -0.19739571 -0.27496913 -0.1328111 0.10904744 0.17108992 0.031483587 0.1971473
-0.050448816 -0.06867887 0.22823602 -0.017637538 -0.07876022 -0.04450294 -0.22134945 0.086370416
0.015604464 0.026151022 -0.1458962 0.31621522 -0.33150572 0.10736553 -0.30825067 -0.034230035
-0.08199553 0.15494415 -0.25179332 0.1644159 -0.02797046 0.04194059 0.07770421 0.26900718
0.21402648 0.24187863 -0.19249302 0.22775301 -0.040948644 0.14462778 -0.11007067 -0.24250773
0.20913815 -0.03153904 0.2501167 -0.1500316 0.17474811 -0.29987255 0.057729375 0.06368424
00000000: 6908 4abe 8bcc febd d462 a83c 66b9 3cbe
00000010: 360d a0bd 7a42 213e b657 9abe 511f 9b3c
00000020: 6d14 8abd 4572 8b3d e4e0 2bbe 7bc7 9cbe
00000030: 7c87 16bd 4dbd a1bd 1b29 6bbe 746c 6ebe
00000040: 8338 07be aa3f 6d3c cdc9 b13c a419 563e
00000050: 1547 263e a402 9a3e 2b3e 0a3e e14a da3d
00000060: 7385 a9be 96a2 89be 4620 8bbe 0efa 50be
00000070: 80ef 0d3d f70d 84be 8094 663e 405a d3bc
00000080: 2b5e 6bbd 6361 103e 4011 abbc 7083 a7be
00000090: 8090 9cbe 82f8 84be f127 573e 7b50 8b3e
000000a0: 19af 933e a29c 8a3e 470e aa3e ae88 953e
000000b0: 8f4e 86be e8ba 84be 66e1 10be dbe9 86be
000000c0: 06de c3bd 1679 f63c 66ef e9bd ebaf a43d
000000d0: 6b64 823d ce2c 3cbe 34db 94be 661c 9cbe
000000e0: 56a9 803c 7616 6b3e 03fb 43be 3012 96be
000000f0: 562f d8bc c36f a53e 9069 3cbe 918e 82bc
00000100: 4fe2 a73e 70a8 1dbe 5103 113e ab3f 363e
00000110: b386 3c3e 8ab8 a83e 655a e5bd d912 dd3d
00000120: 2423 ab3d 2f64 b93d 3373 a13e 73da 953d
00000130: d10e 69be 4c58 883d 4ac3 533e 195e 593e
00000140: bff8 073e 5538 c0bd 8541 a43e 4e90 133d
00000150: 6605 46be 4210 fe3d 2841 c4bd 706c 9abe
00000160: 23cb dcbc 26a6 733e 58dd 49be 9b38 fabd
00000170: ebdd 193d e08c de3d 76d4 6dbd dbca 29be
00000180: ebda e93d 6b51 ee3c 5709 9c3e 53e2 153e
00000190: 10f5 90bd 4277 5a3d 723d 593d 5fe4 473e
000001a0: 650c a6be 1c91 413e f94f 18be 2527 853e
000001b0: 5635 2e3a 3034 32be 2692 0bbe 5639 d2ba
000001c0: 46c4 9a3d ab3c 8fbe 2e4d 303e 0e85 813e
000001d0: ae6e a43e b7de 9abe 0a85 b3bc 517d 9dbd
000001e0: a817 01bc 9320 c4bd 8e25 97be 96b5 8a3e
000001f0: 2ba5 343d 713b e6bd 127d e03d c372 9dbe
00000200: beb8 b03d 1989 d83d 290f 2b3e 45d4 353c
00000210: d84c 9abe 681f 39bd ab11 c9bd 93b9 2e3e
00000220: 28af 3bbe 46bd 403d 9cee b83d 989f 923e
00000230: f2a5 a43e 56ce 0b3e b0c3 53be 4fb3 e73c
00000240: 834d 2abd fd27 a23c 0272 743e 9bdc d33d
00000250: e071 c2bc a23a 733e e2d1 05be 5c63 06be
00000260: eb70 f33d f76f 903e 0089 0b3d a0dd 9dbd
00000270: 8044 233c b07f 9b3e facd 87be fa5a a2be
00000280: ca90 81be 80f7 d4bd 82d6 4f3e df2b 4c3e
00000290: 3802 60be d8ba 493d a95e 553e 81d2 8abe
000002a0: 4f2b ccbd 6a28 c1bd 52e0 2b3e 9fc6 1e3d
000002b0: 5b6c 61bd 6df9 9f3e 9cfb d7bd 6c93 0a3e
000002c0: 03fc 073d 1838 353c f2cf 9dbe 6a2b f13d
000002d0: 4f88 6b3e 0ef2 74be 2500 a73e 5b89 32be
000002e0: 2479 b2bd 8ffb 423e 426d 6f3e 70d8 8abe
000002f0: b97c 3dbe 0b57 d63d a019 3bbd d7ce 973e
00000300: 9b09 953e a0c5 a0bd 5657 debd 3b77 853e
00000310: e011 c23d aa72 85be 3ba3 19be 882b 973e
00000320: 30f9 2dbe 24d6 9f3e 80ba ee3d d6dc e2bd
00000330: db5b 10be a807 67be 565e cd3d 3587 183e
00000340: 816f 1d3d 1a22 4abe c1c8 8cbe a2ff 07be
00000350: 4454 df3d 3232 2f3e eff4 003d fbe0 493e
00000360: 6ba3 4ebd 82a7 8cbd b4b6 693e 997c 90bc
00000370: 0a4d a1bd b748 36bd 6ea9 62be f9e2 b03d
00000380: dea9 7f3c ab3a d63c d065 15be f6e6 a13e
00000390: 1ebb a9be 76e2 db3d 08d3 9dbe cb34 0cbd
000003a0: 46ed a7bd aea9 1e3e 0eeb 80be a45c 283e
000003b0: 4e22 e5bc e5c9 2b3d 6323 9f3d 4fbb 893e
000003c0: c229 5b3e 08af 773e e41c 45be 1638 693e
000003d0: c4b9 27bd 4e19 143e bb6c e1bd f253 78be
000003e0: 5028 563e 152f 01bd 4c0f 803e e2a1 19be
000003f0: 2bf1 323e e588 99be a375 6c3d e26c 823d

cnn.0.bias f4 [32]
0.735953 0.26737088 -0.034416847 -0.17407143 0.05686339 -0.09664571 -0.27652365 0.26908892
0.08821862 0.1559114 -0.20340216 0.10857533 -0.22953403 0.42157683 0.04467882 -0.10732417
0.19423737 -0.22042525 0.34010696 0.0648898 0.36611897 -0.27941817 -0.19807136 0.49074203
0.11353492 -0.2113756 0.3167218 0.41115463 0.13077079 0.0668593 0.2458735 0.7037147
00000000: 6a67 3c3f d6e4 883e aef8 0cbd c83f 32be
00000010: 96e9 683d 30ee c5bd 8294 8dbe 06c6 893e
00000020: f7ab b43d 3da7 1f3e a848 50be be5c de3d
00000030: f80a 6bbe ebd8 d73e 2301 373d c6cc dbbd
00000040: 29e6 463e 28b7 61be 8022 ae3e f2e4 843d
00000050: f273 bb3e e60f 8fbe 38d3 4abe 8a42 fb3e
00000060: ff84 e83d d872 58be 5c29 a23e dc82 d23e
00000070: c7e8 053e 87ed 883d 43c6 7b3e a626 343f

cnn.2.weight f4 [64, 32, 3, 3]
-0.018332565 -0.040441565 -0.022538878 0.034974445 0.009826713 -0.011339933 0.012629718 0.024160266
0.008695154 0.04815245 -0.023374235 0.047850102 0.014714828 -0.026592309 0.03906368 0.023466866
0.014667363 0.021111652 0.052379 -0.030798092 -0.0072479653 -0.019173171 -0.026897887 0.020410609
0.058175296 0.043619003 0.008997573 0.034172136 -0.018443756 0.05795793 0.048122387 -0.044208456
0.020196784 -0.030830124 -0.008029115 -0.044830274 -0.028093101 0.028663917 -0.04125406 0.020559007
-0.055180144 -0.011691255 -0.024084691 -0.04632855 -0.048809487 -0.012612515 0.01611578 -0.025574744
0.015714915 -0.019278713 -0.040994015 0.042988345 -0.050200418 -0.049110014 -0.028062742 -0.027627358
0.03095129 -0.017832998 0.037892744 -0.0438317 0.045514017 0.04775584 -0.055479497 0.017303936
-0.043920323 0.01562208 0.03648083 0.03927806 0.0042972434 -0.01811546 -0.04796596 -0.025249207
-0.018562997 0.0014184451 0.03616031 -0.05638031 -0.015901417 0.0033118783 -0.045101427 0.018312778
0.0027146714 0.014816247 -0.021532424 0.053857 0.018801738 0.038907077 0.026676496 -0.01580825
0.058804773 0.020881895 0.052008543 -0.018197324 -0.03408844 0.036389012 -0.026873933 0.01746557
0.057449568 -0.0021446354 0.05156726 0.01380362 0.01986905 -0.02620212 -0.04897055 0.014727008
0.017919358 -0.056258254 -0.056366958 -0.047863062 -0.0006264497 -0.040120266 0.017985037 0.02293479
-0.0024446507 -0.05357099 0.026996475 -0.0381644 -0.026341612 0.052558005 -0.03796491 0.025288165
-0.0006050461 -0.048785478 -0.054491702 0.0026252079 -0.046649396 -0.048171677 0.022765957 -0.007276787
-0.044392947 -0.046230014 0.050095156 -0.033849426 -0.03189228 -0.04276468 -0.011522864 0.0008028694
0.020480601 0.05039677 0.0137183005 0.030322423 0.045156907 -0.03955973 0.038276087 0.022427447
0.0036286681 -0.0060754614 0.031006867 0.0061315587 0.04814386 -0.019033257 0.053654525 -0.0016668728
-0.037614867 -0.04653767 -0.0139011545 0.03464527 -0.013049908 0.026933951 -0.011659315 -0.020261507
0.057229485 -0.028842079 0.047605336 0.02630033 0.055534873 0.043388966 0.048037503 -0.052650567
-0.016924454 0.038656823 0.014284326 0.048881058 -0.058295056 -0.030134652 0.037668288 0.017899366
0.016337397 0.013862099 0.007193399 -0.014199758 -0.040870313 -0.0145718865 -0.031470433 -0.04861835
-0.014790938 -0.0393793 -0.005103464 0.056551736 -0.012051055 0.026590945 0.04018291 0.026862849
0.015004994 -0.038048994 -0.007149349 -0.0078588985 0.052924957 0.012958681 -0.05161762 -0.005281541
-0.01766366 -0.0072744405 -0.054207217 -0.024372224 -0.050178338 0.052273065 -0.03430101 0.044742145
-0.058510378 0.043760695 -0.00022892763 -0.0031649193 -0.031184005 0.012142479 -0.017656587 -0.049679805
-0.023598371 -0.008112137 0.008388585 0.035217956 0.008837752 0.014213041 0.01918672 -0.047797784
-0.016192215 -0.034049343 -0.018163241 0.035762556 0.014233743 0.022786638 0.05053464 0.031754117
-0.0076175863 0.02715161 -0.05340619 -0.057633363 -0.043266036 0.012975392 0.04212593 -0.04764286
-0.026646208 -0.03966098 0.056293517 -0.013968927 -0.02186412 -0.054713305 0.042102024 0.04736602
0.051049035 0.0108728055 -0.034111585 0.008740877 -0.03545336 0.01907905 -0.034450203 0.0038844994
00000000: 2d2e 96bc 0ea6 25bd 74a3 b8bc 5d41 0f3d
00000010: 3900 213c 20cb 39bc e0ec 4e3c c0eb c53c
00000020: 1f76 0e3c 813b 453d 537b bfbc 78fe 433d
00000030: 7616 713c 1dd8 d9bc 3d01 203d 963d c03c
00000040: 614f 703c 58f2 ac3c 5d8b 563d 484c fcbc
00000050: 5780 edbb 0e11 9dbc f558 dcbc 2634 a73c
00000060: 3849 6e3d d7a9 323d 8e6a 133c 15f8 0b3d
00000070: 5c17 97bc 4b65 6d3d fb1b 453d ed13 35bd
00000080: ba73 a53c 758f fcbc 8d8c 03bc f39f 37bd
00000090: 8123 e6bc 97d0 ea3c 04fa 28bd 5d6b a83c
000000a0: 9304 62bd ad8c 3fbc 424d c5bc 01c3 3dbd
000000b0: 75ec 47bd b9a4 4ebc 3e05 843c 2082 d1bc
000000c0: 91bc 803c 64ee 9dbc 57e9 27bd 8c14 303d
000000d0: f49e 4dbd 9527 49bd d6e3 e5bc c552 e2bc
000000e0: 8f8d fd3c 8216 92bc 6c35 1b3d de88 33bd
000000f0: e86c 3a3d a19b 433d 783e 63bd fcc0 8d3c
00000100: cce5 33bd c1f3 7f3c ec6c 153d 08e2 203d
00000110: e4cf 8c3b e066 94bc f477 44bd 6dd7 cebc
00000120: 6d11 98bc 1feb b93a d51c 143d 0aef 66bd
00000130: b043 82bc 190c 593b 46bc 38bd ae04 963c
00000140: a1e8 313b d8bf 723c c464 b0bc 2899 5c3d
00000150: 1a06 9a3c 075d 1f3d ab88 da3c 4e80 81bc
00000160: 46dd 703d 8210 ab3c e906 553d 8e12 95bc
00000170: 52a0 0bbd a50c 153d b926 dcbc f413 8f3c
00000180: 3d50 6b3d 038d 0cbb 3138 533d 9428 623c
00000190: 6bc4 a23c d4a5 d6bc 5895 48bd 8c49 713c
000001a0: 9ecb 923c 0e6f 66bd 0ae1 66bd 0f0c 44bd
000001b0: 5438 24ba 2655 24bd 5b55 933c bee1 bb3c
000001c0: 6f36 20bb 416d 5bbd b627 dd3c 4652 1cbd
000001d0: 5dca d7bc 1047 573d 1881 1bbd 2029 cf3c
000001e0: f59b 1eba 48d3 47bd b132 5fbd ae0b 2c3b
000001f0: 7013 3fbd aa4f 45bd ac7f ba3c 1d72 eebb
00000200: 61d5 35bd af5b 3dbd 9430 4d3d b2a5 0abd
00000210: 7ba1 02bd 042a 2fbd 65ca 3cbc a777 523a
00000220: efc6 a73c d86c 4e3d b9c2 603c bb66 f83c
00000230: 73f6 383d 6209 22bd 63c7 1c3d c4b9 b73c
00000240: f3ce 6d3b aa14 c7bb 1d02 fe3c 3eeb c83b
00000250: 7f32 453d a2eb 9bbc d9c4 5b3d f87a daba
00000260: 0c12 1abd 499e 3ebd abc1 63bc 33e8 0d3d
00000270: 48cf 55bc 97a4 dc3c b606 3fbc 76fb a5bc
00000280: 7769 6a3d 3946 ecbc d0fd 423d ca73 d73c
00000290: 8978 633d a1b8 313d f9c2 443d 1fa8 57bd
000002a0: 27a5 8abc 9e56 1e3d ce08 6a3c 8137 483d
000002b0: ccc6 6ebd f2dc f6bc 104a 1a3d b1a1 923c
000002c0: 01d6 853c db1d 633c 9bb6 eb3b 1aa6 68bc
000002d0: a167 27bd ecbe 6ebc 24e7 00bd 0924 47bd
000002e0: b155 72bc 304c 21bd f53a a7bb cba2 673d
000002f0: ca71 45bc 41d5 d93c d696 243d 7a0f dc3c
00000300: 82d7 753c 43d9 1bbd 1645 eabb 9cc2 00bc
00000310: d7c7 583d a650 543c ff6c 53bd c710 adbb
00000320: 61b3 90bc 6e5e eebb 6308 5ebd 42a8 c7bc
00000330: cd87 4dbd 481c 563d 377f 0cbd 8a43 373d
00000340: 94a8 6fbd 6a3e 333d 4b0c 70b9 896a 4fbb
00000350: 9975 ffbc 40f1 463c 8ca4 90bc 0d7d 4bbd
00000360: 5f51 c1bc c5e8 04bc 4770 093c b440 103d
00000370: 38cc 103c d1dd 683c 782d 9d3c 9cc7 43bd
00000380: 89a5 84bc 5377 0bbd 14cb 94bc c27b 123d
00000390: a534 693c 0bab ba3c 69fd 4e3d 9b10 023d
000003a0: f29c f9bb 0e6d de3c 73c0 5abd f610 6cbd
000003b0: ba37 31bd bd96 543c 3d8c 2c3d 2925 43bd
000003c0: 2649 dabc 8d73 22bd 0894 663d eddd 64bc
000003d0: 621c b3bc 0f1b 60bd 2c73 2c3d df02 423d
000003e0: cb18 513d da23 323c 97b8 0bbd e535 0f3c
000003f0: 8b37 11bd ab4b 9c3c a81b 0dbd 1693 7e3b

cnn.2.bias f4 [64]
0.00408698 0.048970427 0.1376644 -0.032368176 -0.029922541 0.012553123 0.1034182 0.10162697
-0.03479063 -0.0016130013 -0.032656793 0.08237184 0.050536588 0.17770658 0.04971397 0.11050094
0.016609574 -0.036670152 0.007711464 -0.045280732 -0.04183068 -0.027156264 0.15169823 -0.016453125
0.023904026 0.050208773 -0.01840612 -0.03203019 -0.046558727 0.060154863 0.08454552 -0.0008190889
-0.030407757 0.075315945 0.23901086 0.06917607 0.109206356 0.057808507 -0.047569014 0.00655583
0.008809616 -0.055632237 -0.058247022 0.029874071 0.12338012 -0.05698684 0.14185205 0.013287207
0.17928211 -0.013635194 -0.040194195 0.10924605 -0.0050835116 0.037000522 0.05841753 -0.00807014
0.10021146 0.047972567 -0.03309324 0.017538939 0.022325505 -0.045121897 0.053680986 0.013653289
00000000: 13ec 853b 3795 483d e5f7 0c3e 7e94 04bd
00000010: 1e20 f5bc 9dab 4d3c eccc d33d cd21 d03d
00000020: 9f80 0ebd 586b d3ba 21c3 05bd 91b2 a83d
00000030: 74ff 4e3d b7f8 353e e0a0 4b3d 514e e23d
00000040: cd10 883c 7133 16bd 73b0 fc3b 4a78 39bd
00000050: a656 2bbd d076 debc c856 1b3e b4c8 86bc
00000060: 60d2 c33c b7a7 4d3d 6ec8 96bc 1732 03bd
00000070: 5db4 3ebd f264 763d 3426 ad3d 20b8 56ba
00000080: b019 f9bc 3f3f 9a3d 43bf 743e 2fac 8d3d
00000090: 95a7 df3d 9dc8 6c3d bad7 42bd 4ad2 d63b
000000a0: 3556 103c a1de 63bd 6e94 6ebd 78ba f43c
000000b0: b7ae fc3d 086b 69bd aa41 113e 96b2 593c
000000c0: bb95 373e 2666 5fbc aba2 24bd 65bc df3d
000000d0: 9693 a6bb dc8d 173d 3847 6f3d 9f38 04bc
000000e0: aa3b cd3d e27e 443d c78c 07bd d2ad 8f3c
000000f0: fae3 b63c bdd1 38bd 98e0 5b3d 0bb2 5f3c

state_net.0.weight f4 [32, 4]
0.30623502 0.13779092 -0.26778603 -0.34612864 0.14011712 0.2532312 0.4909594 -0.18066438
-0.42129022 0.22445309 -0.4491678 -0.34949434 -0.11083156 0.23099238 -0.275016 -0.15497965
-0.23751241 0.46544075 -0.26368904 -0.40302265 0.14634757 0.13016711 0.04216784 0.11372145
0.18372549 0.17719245 0.39142093 0.46629694 -0.19610718 0.1984995 0.09961433 0.1785663
0.22759564 0.39632654 0.27593035 -0.21861003 0.1694966 0.076927066 0.38395447 -0.4516557
-0.47892863 0.101587534 -0.08587086 -0.3846674 -0.46623373 -0.29007137 -0.3857913 -0.12324214
-0.38791275 -0.0065863607 0.47579455 0.3303408 -0.33738178 0.47600567 -0.15945894 -0.43685168
0.34227175 -0.024221161 -0.50510913 0.3503298 0.12892696 0.44813073 -0.29397887 0.30435425
0.25805673 0.30274236 0.4599069 -0.280798 0.07025227 -0.22550632 -0.10556579 0.33962578
0.29856104 -0.10078087 -0.3388984 0.45680103 -0.302738 -0.29654366 0.07757748 0.1041325
-0.46007806 0.06090606 0.002471851 -0.45433164 -0.48605037 0.19593522 0.47783726 0.35349616
0.12981537 0.37679127 0.32386556 0.1729815 -0.25061095 -0.49435025 -0.13904908 0.4635244
-0.3224657 0.42540854 0.4415237 0.4259568 -0.14710319 -0.038556576 0.0367952 -0.0013334751
-0.4945299 -0.33234707 0.4530632 -0.44593042 -0.45223856 0.13599157 0.0046803355 -0.17565626
0.07928768 0.05413486 0.2769725 0.22325182 0.15026435 0.4809964 -0.440807 -0.31892103
-0.48313397 -0.3419873 0.24523163 0.33843338 0.08723276 -0.098914675 0.13239515 -0.038263626
00000000: d6ca 9c3e 1019 0d3e 401b 89be c637 b1be
00000010: dd7a 0f3e 85a7 813e 085f fb3e 1500 39be
00000020: 5ab3 d7be 08d7 653e 52f9 e5be ecf0 b2be
00000030: a8fb e2bd 4489 6c3e e6ce 8cbe fcb2 1ebe
00000040: 7436 73be 404e ee3e 4002 87be fc58 cebe
00000050: 23dc 153e 874a 053e 2fb8 2c3d cbe6 e83d
00000060: 8922 3c3e f071 353e 5368 c83e 79be ee3e
00000070: 52d0 48be 7443 4b3e 9902 cc3d 16da 363e
00000080: d50e 693e 50eb ca3e be46 8d3e 4fdb 5fbe
00000090: 8490 2d3e f08b 9d3d ae95 c43e 6a3f e7be
000000a0: 2236 f5be 200d d03d 10dd afbd 20f3 c4be
000000b0: 30b6 eebe 3c84 94be 7086 c5be 6066 fcbd
000000c0: 809c c6be 66d2 d7bb 589b f33e 6e22 a93e
000000d0: 4ebd acbe 04b7 f33e 3449 23be 06ab dfbe
000000e0: 3e3e af3e 756b c6bc d54e 01bf 6d5e b33e
000000f0: 6e05 043e 6471 e53e 6684 96be 52d4 9b3e
00000100: 0320 843e 0c01 9b3e eb78 eb3e c1c4 8fbe
00000110: 6ce0 8f3d 21eb 66be e032 d8bd 6ee3 ad3e
00000120: fedc 983e 3366 cebd 1784 adbe d3e1 e93e
00000130: 7a00 9bbe 92d4 97be f1e0 9e3d 6c43 d53d
00000140: 5a8f ebbe a278 793d c7fe 213b 289e e8be
00000150: 98db f8be 3ea3 483e 16a7 f43e 73fd b43e
00000160: 52ee 043e c9ea c03e b5d1 a53e 1022 313e
00000170: 1450 80be 7a1b fdbe e262 0ebe 1253 ed3e
00000180: 391a a5be 26cf d93e 650f e23e 0217 da3e
00000190: 38a2 16be 80ed 1dbd 90b6 163d 00c8 aeba
000001a0: 0633 fdbe 6529 aabe e6f7 e73e fe50 e4be
000001b0: d08b e7be 6041 0b3e 805d 993b 3cdf 33be
000001c0: 9461 a23d 84bc 5d3d 57cf 8d3e 209c 643e
000001d0: e6de 193e 2945 f63e 75b1 e1be 9e49 a3be
000001e0: 565d f7be f618 afbe 001e 7b3e 2447 ad3e
000001f0: 17a7 b23d c793 cabd 9892 073e 52ba 1cbd

state_net.0.bias f4 [32]
-0.2810313 0.18304752 0.013002458 -0.3545053 -0.08572757 -0.1274688 0.27907977 0.4497791
-0.07188798 0.04968961 -0.3232438 -0.26824343 0.48541847 -0.39299095 0.4031365 -0.24228014
0.24604045 0.4994237 -0.072025776 0.24449775 0.47497973 0.46662506 -0.19996296 0.36871323
-0.05458388 -0.28654087 -0.0024377 -0.07262236 -0.025673835 -0.02139384 -0.3065483 -0.077453144
00000000: 56e3 8fbe cf70 3b3e 4308 553c b881 b5be
00000010: f091 afbd 2e87 02be 8be3 8e3e 7249 e63e
00000020: 013a 93bd 5587 4b3d 3680 a5be 3457 89be
00000030: c588 f83e 1c36 c9be e867 ce3e 4918 78be
00000040: 07f2 7b3e 77b4 ff3e 4082 93bd 9e5d 7a3e
00000050: 8b30 f33e 7be9 ee3e 17c3 4cbe fbc7 bc3e
00000060: 5993 5fbd 7cb5 92be d2c1 1fbb 08bb 94bd
00000070: ef51 d2bc 2242 afbc e6f3 9cbe c19f 9ebd

state_net.2.weight f4 [32, 32]
0.13114892 -0.09714386 0.16008304 -0.03736356 -0.083674245 -0.1136685 -0.10403724 0.092673436
-0.015728269 -0.03517503 0.07328536 0.16453788 -0.007730034 0.17312331 -0.069143094 0.01937874
-0.014985819 0.13473688 0.13019711 0.029222392 -0.018395549 0.0730708 0.014402066 -0.006673328
0.06014484 -0.046903964 0.1736253 0.015999807 0.09389828 0.024179675 -0.11156454 0.08534438
0.07933177 0.07561316 -0.14636917 -0.10286623 0.048214875 -0.017916122 0.18259993 -0.015717005
0.12477423 0.043227073 -0.15081276 -0.1713333 0.07250517 -0.03934406 -0.076637 -0.03580503
-0.09397316 -0.061240193 0.09091607 0.10139693 0.17027149 -0.09353677 -0.01669839 -0.07791905
0.14276032 -0.11004028 0.0055611 0.10941777 0.04900605 -0.012511294 0.09012783 0.03177034
0.10101286 -0.039191436 -0.141564 0.1319462 -0.114198804 0.016139043 0.07248217 0.13193084
-0.08813401 -0.10997839 0.0032347073 -0.1451225 0.07772413 0.039979424 0.13957988 -0.04209102
-0.12881114 0.06255622 0.08332991 -0.08077718 0.013091001 -0.13257883 0.08224646 0.0024064586
0.16431437 -0.049488027 0.07848887 0.13397124 -0.15551619 -0.049301185 -0.10335427 0.011943752
0.17232223 0.120529026 -0.10491368 -0.09386057 -0.06194615 -0.030067068 0.15834518 0.17400323
-0.1186223 0.036051944 0.0003840842 -0.08950469 -0.156472 -0.15219003 -0.030185439 -0.08350213
-0.0023715373 0.12424533 -0.1597798 -4.8994857e-06 0.13428296 0.08336383 -0.09961434 0.03723658
-0.109045856 0.08636448 -0.06089653 0.108001575 0.14573115 -0.11021713 0.06703429 0.10348478
-0.10233272 0.045599956 0.009114825 0.14420877 0.09180346 -0.02703346 0.029149255 -0.1421132
0.11177375 0.045400552 0.17613363 -0.041617338 -0.05174603 -0.17356479 -0.14709026 -0.1149829
0.1204855 0.015721288 -0.08750753 -0.17315319 -0.13097417 0.060213234 -1.5264563e-05 0.17146808
-0.004830808 0.072724156 0.05043947 -0.14473389 0.011098625 -0.13440676 0.16847555 -0.14122978
0.10875423 -0.10342079 -0.045211513 -0.076026715 0.07792299 0.03411429 0.08565632 0.17569509
-0.14755066 0.0029944866 -0.13791178 0.057059605 -0.073964484 0.029663816 0.05270964 0.12750705
-0.067832656 0.16440909 0.07779325 -0.14247662 -0.018040378 -0.16197142 0.070397064 -0.10819995
-0.046560746 -0.084108226 0.078064054 0.1330619 0.0062654135 -0.060471706 -0.12677068 0.14877646
0.10529962 -0.14886554 0.07138247 0.024358582 -0.14136235 -0.14005151 0.1730562 -0.108737245
0.08106797 -0.09724239 -0.17206648 -0.022663308 0.05125711 -0.124018304 0.057053685 0.083934024
0.077473044 0.10222585 -0.1533432 0.1576331 -0.15773928 -0.03563186 0.017363088 -0.05570161
-0.0054381993 -0.029672688 -0.17244717 -0.10246025 -0.12274441 0.08880253 -0.05509632 0.11283292
0.13648035 -0.1705974 0.0955265 -0.055367135 -0.10693681 -0.04562919 0.006195536 0.00727775
-0.004658216 0.15318944 0.093533546 0.01997474 0.038377862 0.1759871 -0.016333278 -0.09786532
0.16277713 0.013704103 -0.11232982 -0.05504175 0.11402299 -0.07152563 -0.16872293 -0.07649075
0.089846514 -0.044018716 -0.017155008 -0.066585384 -0.08437459 -0.08944297 0.10193203 0.070907004
00000000: e74b 063e 5cf3 c6bd cfec 233e 880a 19bd
00000010: 675d abbd 08cb e8bd 7a11 d5bd 92cb bd3d
00000020: 92d8 80bc b113 10bd a316 963d 9e7c 283e
00000030: 3a4c fdbb 3d47 313e e59a 8dbd 2ac0 9e3c
00000040: 1587 75bc 77f8 093e 6452 053e cc63 ef3c
00000050: 43b2 96bc 25a6 953d a5f6 6b3c efab dabb
00000060: 705a 763d 5f1e 40bd d5ca 313e 0712 833c
00000070: be4d c03d 7414 c63c f37b e4bd 09c9 ae3d
00000080: b278 a23d 13db 9a3d cde1 15be 88ab d2bd
00000090: f67c 453d d5c4 92bc 7afb 3a3e f3c0 80bc
000000a0: a289 ff3d df0e 313d a96e 1abe ff71 2fbe
000000b0: 977d 943d 3d27 21bd dcf3 9cbd 4ca8 12bd
000000c0: 0075 c0bd ffd6 7abd 3432 ba3d 32a9 cf3d
000000d0: a65b 2e3e 3590 bfbd 10cb 88bc 0694 9fbd
000000e0: c32f 123e cc5c e1bd e339 b63b 6c16 e03d
000000f0: 91ba 483d 2cfc 4cbc f194 b83d 9e21 023d
00000100: d5df ce3d 3387 20bd 27f6 10be e81c 073e
00000110: 10e1 e9bd 0736 843c 8871 943d e118 073e
00000120: 9b7f b4bd 5a3c e1bd 62fd 533b fe9a 14be
00000130: d42d 9f3d 77c1 233d 07ee 0e3e a267 2cbd
00000140: 11e7 03be 7a1d 803d dfa8 aa3d 826e a5bd
00000150: a37b 563c bfc2 07be d570 a83d adb5 1d3b
00000160: 0742 283e f5b3 4abd c6be a03d c22f 093e
00000170: a33f 1fbe 0af0 49bd 67ab d3bd baaf 433c
00000180: 3d75 303e ecd7 f63d fcdc d6bd f839 c0bd
00000190: 3fbb 7dbd 364f f6bc 3d25 223e e72d 323e
000001a0: 40f0 f2bd 34ab 133d e95e c939 3c4e b7bd
000001b0: 323a 20be b4d7 1bbe 7447 f7bc 2a03 abbd
000001c0: cb6b 1bbb 5674 fe3d 519d 23be 4366 a4b6
000001d0: 7981 093e a8ba aa3d 9a02 ccbd 6285 183d
000001e0: 6f53 dfbd dcdf b03d a46e 79bd ee2f dd3d
000001f0: 8c3a 153e 85b9 e1bd 4649 893d d4ef d33d
00000200: d193 d1bd 05c7 3a3d 5956 153c 77ab 133e
00000210: 7403 bc3d 4675 ddbc 6bca ee3c 1f86 11be
00000220: a3e9 e43d eef5 393d 605c 343e f176 2abd
00000230: a5f3 53bd f8ba 31be d49e 16be 287c ebbd
00000240: 1ac1 f63d eec9 803c 2637 b3bd 124f 31be
00000250: 181e 06be 27a2 763d 660c 80b7 5495 2f3e
00000260: c14b 9ebb 67f0 943d 9e99 4e3d 1f35 14be
00000270: 02d7 353c eda1 09be db84 2c3e 8a9e 10be
00000280: 8aba de3d 47ce d3bd b52f 39bd e5b3 9bbd
00000290: 1796 9f3d 6dbb 0b3d 956c af3d 6ae9 333e
000002a0: 8517 17be 263f 443b bf38 0dbe 55b7 693d
000002b0: b17a 97bd 8801 f33c 10e6 573d 3591 023e
000002c0: d9eb 8abd db5a 283e 1152 9f3d 64e5 11be
000002d0: 6ac9 93bc d6db 25be 562c 903d ef97 ddbd
000002e0: 7bb6 3ebd ef40 acbd 0ce0 9f3d 6141 083e
000002f0: 194e cd3b 2eb1 77bd 2cd0 01be db58 183e
00000300: 54a7 d73d 3570 18be f930 923d a68b c73c
00000310: 4bc1 10be aa69 0fbe a535 313e a2b1 debd
00000320: f706 a63d 0527 c7bd 3232 30be 67a8 b9bc
00000330: faf2 513d 4ffd fdbd 20b1 693d 9ae5 ab3d
00000340: 30aa 9e3d c95b d13d 0006 1dbe 926a 213e
00000350: 6886 21be b7f2 11bd 093d 8e3c 5f27 64bd
00000360: ec32 b2bb 2314 f3bc fe95 30be aed6 d1bd
00000370: 6c61 fbbd 1ade b53d aeac 61bd f214 e73d
00000380: 81c1 0b3e 16b1 2ebe 66a3 c33d a6c8 62bd
00000390: b001 dbbd ace5 3abd ec03 cb3b 317a ee3b
000003a0: f3a3 98bb b1dd 1c3e 848e bf3d 11a2 a33c
000003b0: 1b32 1d3d f635 343e 5ecd 85bc 9d6d c8bd
000003c0: 0caf 263e 2d87 603c 2d0d e6bd 7573 61bd
000003d0: e384 e93d 087c 92bd b4c5 2cbe 2fa7 9cbd
000003e0: 7301 b83d f84c 34bd a988 8cbc eb5d 88bd
000003f0: 96cc acbd e02d b7bd bdc1 d03d b137 913d

state_net.2.bias f4 [32]
0.14366165 -0.07996991 0.14004327 0.13224256 -0.061217856 -0.007436755 0.090708405 -0.049539447
0.06492257 0.08445409 -0.12636949 -0.16329966 -0.16547585 -0.08699038 -0.093284756 -0.018932713
0.04136405 -0.046628196 -0.11044586 0.13986656 -0.018962415 -0.09179232 0.13303748 0.1263618
0.06327742 -0.16273874 0.0015860485 -0.13759336 0.15964428 0.08862275 -0.028935285 0.056699354
00000000: 0a1c 133e 44c7 a3bd 8167 0f3e 986a 073e
00000010: 93bf 7abd 06b0 f3bb 54c5 b93d e0e9 4abd
00000020: 20f6 843d 44f6 ac3d 0167 01be 0738 27be
00000030: 8072 29be 0328 b2bd 140c bfbd c718 9bbc
00000040: 5a6d 293d 35fd 3ebd 7031 e2bd 2e39 0f3e
00000050: 1157 9bbc 9dfd bbbd fa3a 083e fd64 013e
00000060: 9897 813d fca4 26be f5e2 cf3a 46e5 0cbe
00000070: ca79 233e d87f b53d b109 edbc 953d 683d

shared_net.0.weight f4 [128, 1056]
0.02454324 0.0017724374 -0.002380862 -0.025493333 0.022373874 0.027103815 0.016368238 -0.016019568
-0.018577958 -0.01740944 -0.026161278 -0.013249967 0.022816835 0.012015404 -0.021075934 -0.0030675153
-0.009946627 -0.011460641 -0.012906598 0.02126925 -0.0030837073 0.0032594514 -0.0010523316 -0.017897822
0.025204627 -0.009211829 0.0017146008 0.01806226 -0.013383214 -0.022441117 0.019794973 0.0026031667
-0.010653 0.0128418775 0.014997178 0.0146696055 0.009188212 -0.025709983 -0.02464561 0.0088991765
-3.4292654e-05 0.0031236222 -0.030085737 -0.018253664 0.024746861 -0.023820296 -0.02594439 -0.017125847
0.02830913 -0.025673252 0.026339928 -0.017956536 0.026976872 0.00086510065 -0.010311879 -0.0265878
0.022901038 0.0042494945 -0.0031482566 0.021530436 -0.011395374 -0.016707474 0.015421168 -0.015856992
0.02635894 -0.015654875 -0.022079902 -0.022118056 0.025836425 -0.009579641 -0.025396032 0.022284243
0.0011710966 -0.0011546217 -0.008526567 0.008866633 -0.0049897158 0.005615932 -0.016138483 -0.01771455
-0.00028984493 0.01027088 0.017166259 -0.0050390046 -0.027481 0.008356196 -0.009462684 0.025778249
0.016257372 -0.028584994 0.0057142167 -0.002907565 0.030292435 0.02661875 0.020163076 -0.008915808
-0.013518047 -0.013462727 0.025694283 0.023149956 -0.007896194 -0.025049146 -0.030241476 0.009612472
-0.00057173765 -0.0005215656 0.0079144705 0.026128165 -1.4222215e-05 0.02831815 -0.011941295 0.0070866863
0.023530692 -0.019463142 -0.028210538 -0.015285496 0.016038517 -0.01800958 0.024511935 0.002306388
-0.01267854 0.009600717 0.0089777075 0.017234147 -0.0138106 0.027564432 -0.010588234 0.024940813
-0.018197706 -0.026425973 -0.006541021 0.030070785 0.025490336 0.0025479323 0.00020215886 0.007707393
0.01608827 0.0021375364 -0.005386469 -0.024571568 0.013782518 0.022567336 -0.027347742 0.023554347
-0.0051276297 -0.010258635 -0.025650704 -0.013244366 0.018685957 0.0023499543 -0.026272794 -0.02823662
-0.00081321364 -0.005698508 -2.9474484e-05 -0.005227359 -0.029072398 -0.021201259 -0.009092512 0.026254015
0.01999725 0.009004767 -0.011501859 0.019761201 -0.01731741 -0.003290452 0.007920612 -0.030352406
-0.005662223 -0.0025937948 -0.008401123 0.0057881568 0.010553526 -0.012912642 -0.029804999 -0.016982783
-0.001243896 -0.022184616 0.011813251 0.013701422 0.019403938 0.022988152 -0.010671174 -0.0152603565
-0.020226406 -0.006148067 0.009069359 -0.0104905665 -0.027447697 0.02965413 -0.009379371 0.019349562
0.0067592394 -0.014709936 -0.012966861 -0.010458273 -0.028098978 -0.0069353753 0.027921434 -0.021552028
0.0015532232 0.02178479 -0.011091753 -0.017782908 0.015515652 0.021021558 -0.03074019 -0.004812579
0.0198924 0.02512161 -0.007813194 0.009590523 -0.025209496 0.026081568 0.018902272 -0.028883565
0.012670523 0.01445515 0.0029219585 -0.01430904 0.0051904484 -0.031138599 0.021544682 0.00045704076
0.011685258 -0.030738194 -0.0087467665 0.01667892 0.01820109 0.020894052 -0.030423228 -0.019462153
0.02301608 0.0189867 -0.015262494 0.0034758004 -0.025760595 0.007479984 -0.029926442 0.01133852
0.0008644368 0.0016042823 -0.020674357 -0.014353216 0.018529704 -0.02072775 -0.015551301 0.02833077
-0.031129416 0.009774333 -0.015264834 -0.028256185 0.01577543 0.011817434 -0.022666013 -0.012739776
00000000: e80e c93c 2151 e83a 3c08 1cbb 65d7 d0bc
00000010: 6a49 b73c d208 de3c af16 863c 783b 83bc
00000020: cd30 98bc 3e9e 8ebc 2d50 d6bc 6416 59bc
00000030: 5fea ba3c 42dc 443c 70a7 acbc 5e08 49bb
00000040: 2df7 22bc 6ac5 3bbc 3276 53bc da3c ae3c
00000050: 0618 4abb 859c 553b 64ee 89ba 749e 92bc
00000060: ef79 ce3c 36ed 16bc 75bc e03a 4ef7 933c
00000070: 4545 5bbc 6fd6 b7bc 1129 a23c e499 2a3b
00000080: ec89 2ebc bd66 523c b9b6 753c c958 703c
00000090: 288a 163c be9d d2bc 97e5 c9bc dacd 113c
000000a0: 75d5 0fb8 afb5 4c3b 5d76 f6bc b588 95bc
000000b0: eeb9 ca3c c822 c3bc 5489 d4bc 814b 8cbc
000000c0: 8ce8 e73c b650 d2bc d5c6 d73c 9619 93bc
000000d0: 9afe dc3c ecc7 623a 28f3 28bc a8ce d9bc
000000e0: f59a bb3c 583f 8b3b fb52 4ebb 9960 b03c
000000f0: aab3 3abc 1dde 88bc 11a9 7c3c 86e6 81bc
00000100: b4ee d73c a73e 80bc e9e0 b4bc ed30 b5bc
00000110: e9a6 d33c edf3 1cbc 570b d0bc 728d b63c
00000120: 7b7f 993a ad56 97ba 04b3 0bbc 5b45 113c
00000130: c580 a3bb da05 b83b da34 84bc 1b1e 91bc
00000140: 54f6 97b9 3147 283c 41a0 8c3c 3c1e a5bb
00000150: d61f e1bc 6de8 083c 6009 1bbc e82c d33c
00000160: 2e2e 853c 142b eabc 533e bb3b d98c 3ebb
00000170: d727 f83c 910f da3c 092d a53c 9c13 12bc
00000180: cc7a 5dbc c592 5cbc d17c d23c faa4 bd3c
00000190: 0a5f 01bc de33 cdbc f9bc f7bc a17d 1d3c
000001a0: aae0 15ba adb9 08ba b2ab 013c bc0a d63c
000001b0: f39b 6eb7 77fb e73c 6ca5 43bc 6f37 e83b
000001c0: 70c3 c03c 2b71 9fbc c919 e7bc 0470 7abc
000001d0: 3563 833c d488 93bc 41cd c83c c526 173b
000001e0: a7b9 4fbc 534c 1d3c 3c17 133c a02e 8d3c
000001f0: db45 62bc cece e13c 467a 2dbc ad50 cc3c
00000200: 5b13 95bc 487b d8bc 1056 d6bb 0257 f63c
00000210: 1cd1 d03c 36fb 263b 9bfa 5339 4c8e fc3b
00000220: 8ccb 833c e915 0c3b fa80 b0bb 504a c9bc
00000230: 12d0 613c 22df b83c 5f08 e0bc 0cf5 c03c
00000240: ad05 a8bb d513 28bc 6d21 d2bc e6fe 58bc
00000250: 4b13 993c b101 1a3b 0b3a d7bc 7c50 e7bc
00000260: d82d 55ba 8dba babb f93f f7b7 444a abbb
00000270: 3d29 eebc 43ae adbc c2f8 14bc a912 d73c
00000280: 46d1 a33c bb88 133c 4b72 3cbc 3ee2 a13c
00000290: 3edd 8dbc a0a4 57bb 74c5 013c 9ca5 f8bc
000002a0: 2b8a b9bb a8fc 29bb dda4 09bc 94aa bd3b
000002b0: b2e8 2c3c 8c8f 53bc 9d29 f4bc 7a1f 8bbc
000002c0: 390a a3ba 83bc b5bc 5e8c 413c ee7b 603c
000002d0: 02f5 9e3c a651 bc3c 26d6 2ebc 9306 7abc
000002e0: d9b1 a5bc b975 c9bb a697 143c a0e0 2bbc
000002f0: fed9 e0bc 38ed f23c efab 19bc f982 9e3c
00000300: 9c7c dd3b f201 71bc f572 54bc 2d59 2bbc
00000310: d42f e6bc 2542 e3bb 7ebb e43c e18d b0bc
00000320: 8695 cb3a 0476 b23c 2fba 35bc 76ad 91bc
00000330: 5c35 7e3c 6735 ac3c dad2 fbbc d7b2 9dbb
00000340: 63f5 a23c d6cb cd3c e902 00bc 9221 1d3c
00000350: 2584 cebc 03a9 d53c f0d8 9a3c 3a9d ecbc
00000360: 0698 4f3c 4bd5 6c3c 547e 3f3b 7770 6abc
00000370: a314 aa3b 6016 ffbc 797e b03c f99e ef39
00000380: 8673 3f3c aace fbbc 994e 0fbc 3ba2 883c
00000390: 741a 953c 012a ab3c 223a f9bc 186f 9fbc
000003a0: 388c bc3c ff89 9b3c 8a0f 7abc 41ca 633b
000003b0: e207 d3bc a71a f53b 4c28 f5bc 33c5 393c
000003c0: 5f9b 623a c846 d23a 455d a9bc c029 6bbc
000003d0: 9bcb 973c 3ecd a9bc e2ca 7ebc ee15 e83c
000003e0: 1e03 ffbc 8624 203c 5b19 7abc 8479 e7bc
000003f0: 793b 813c e99d 413c 13ae b9bc 7eba 50bc

shared_net.0.bias f4 [128]
0.011998432 0.011075527 -0.008872209 0.010038478 -0.005265101 -0.03931271 -0.027916474 0.0031520282
-0.004995744 0.051626895 -0.014631638 0.015121812 -0.023736576 -0.017193584 -0.012469783 0.013119658
-0.012334558 0.011135721 0.1083101 -0.022068579 -0.01628974 -0.015340503 0.016476193 0.01365168
0.000442528 -0.030126901 0.035758592 -0.02365155 -0.00054514484 0.011117908 0.06111561 -0.033821467
0.0037092417 -0.020507999 0.007721768 0.010008822 -0.0022568034 -0.021293152 0.04210022 0.040531278
0.00044100592 0.0438762 0.015323083 0.0138649475 -0.00092953164 -0.0010886975 0.0037471554 0.010457337
-0.028757054 -0.028406633 0.037289333 0.009104687 0.07391376 -0.012188061 0.059910625 -0.011259898
-0.017354088 -0.0018159566 -0.0066145044 -0.015752072 0.01717556 -0.013637179 -0.0001257266 -0.004289276
-0.021496566 -0.0011694966 0.023207316 0.022431258 -0.0060253083 -0.02795045 -0.019212872 0.027354121
-0.016278425 -0.030435821 -0.019357584 0.04583823 -0.006671371 -0.018248491 0.0060879514 0.052197106
0.0012838233 0.106550604 0.04479956 -0.02192409 -0.021452148 0.014858994 -0.0027184074 -0.004955187
0.04411786 -0.019704774 -0.029957293 -0.011684593 -0.031198496 -0.024477331 0.06678673 -0.017966082
0.027405255 0.08944091 -0.026046693 -0.01133335 0.013293625 -0.0035067624 0.030157514 0.071999446
-0.026132273 0.059998944 0.0065596346 -0.016700007 -0.016101032 -0.013839914 0.026478566 0.02116321
-0.01623736 0.0014126799 0.036843635 0.026537381 0.018744025 0.048120108 -0.024717517 0.009123239
-0.0057629985 -0.006446675 0.061548736 0.009268418 -0.022655215 -0.004292457 0.07360773 0.0016299892
00000000: 1295 443c 2176 353c be5c 11bc 6e78 243c
00000010: de86 acbb 5d06 21bd 17b1 e4bc 4292 4e3b
00000020: 57b3 a3bb b976 533d 8ab9 6fbc 7ac1 773c
00000030: 3573 c2bc 8fd9 8cbc 104e 4cbc d6f3 563c
00000040: e316 4abc 9972 363c b0d1 dd3d 2ac9 b4bc
00000050: 1072 85bc bc56 7bbc 15f9 863c 4cab 5f3c
00000060: 1a03 e839 b1cc f6bc 9a77 123d e5c0 c1bc
00000070: 0de8 0eba e327 363c 5d54 7a3d 6188 0abd
00000080: c016 733b 6400 a8bc e306 fd3b 0bfc 233c
00000090: e1e6 13bb fa6e aebc 4871 2c3d 2004 263d
000000a0: d036 e739 88b7 333d ab0d 7b3c ce29 633c
000000b0: d0ab 73ba a0b2 8eba d692 753b 4055 2b3c
000000c0: ea93 ebbc 07b5 e8bc b3bc 183d d32b 153c
000000d0: 1960 973d 6fb0 47bc d864 753d 6f7b 38bc
000000e0: 292a 8ebc 6405 eeba 7cbe d8bb 7d0a 81bc
000000f0: c3b3 8c3c 796e 5fbc 7ad5 03b9 0e8d 8cbb
00000100: 9119 b0bc cb49 99ba 451d be3c c2c1 b73c
00000110: f36f c5bb 58f8 e4bc 5064 9dbc c015 e03c
00000120: 555a 85bc 8b54 f9bc cc93 9ebc dec0 3b3d
00000130: 849b dabb dc7d 95bc 707d c73b a2cc 553d
00000140: f645 a83a 3437 da3d be7f 373d 269a b3bc
00000150: 6abc afbc 2373 733c 4f27 32bb 1f5f a2bb
00000160: eeb4 343d e86b a1bc ff68 f5bc bc70 3fbc
00000170: fd93 ffbc af84 c8bc 7bc7 883d 9b2d 93bc
00000180: fc80 e03c cc2c b73d e05f d5bc 84af 39bc
00000190: 81cd 593c b6d1 65bb e40c f73c 7274 933d
000001a0: 5913 d6bc 74c1 753d 34f2 d63b 74ce 88bc
000001b0: 50e6 83bc cfc0 62bc 94e9 d83c 785e ad3c
000001c0: 3604 85bc ac29 b93a 5ae9 163d ec64 d93c
000001d0: 128d 993c 9719 453d 647c cabc a379 153c
000001e0: 89d7 bcbb a13e d3bb 871a 7c3d 90da 173c
000001f0: 6e97 b9bc bda7 8cbb a6bf 963d 5da5 d53a

shared_net.2.weight f4 [64, 128]
-0.027948337 -0.017364701 -0.020930577 0.047339156 -0.039813776 -0.0006001784 -0.07031448 0.019829543
-0.013893118 -0.026822442 0.0052373568 -0.06730534 0.04881991 -0.029546153 -0.071340255 0.030926168
-0.010363499 -0.0061616073 -0.031725015 0.026434356 0.016269915 -0.03685265 -0.051132187 -0.08834791
0.06509125 -0.064210236 0.06030463 -0.03550503 0.050524063 -0.084183306 -0.03230598 -0.07940177
-0.046971336 -0.050176412 -0.04348753 0.07481037 0.043352123 0.046920467 0.049968652 0.069180615
-0.06300824 -0.005899848 0.03499119 0.048789453 0.07290403 -0.021021478 -0.048045028 0.07452867
0.056882687 0.018734073 -0.046040505 0.045133553 0.056957807 0.057556346 -0.028061386 0.0060538785
-0.0012388149 0.04047314 -0.03789949 -0.03904163 0.0770943 0.042127818 -0.04741624 0.08263277
0.038763136 -0.0817054 -0.0776512 -0.01745808 -0.021376418 -0.07410141 0.083901465 -0.08519394
-0.0045634923 0.03769548 -0.045215055 0.07389936 -0.027423805 -0.02576929 -0.031636458 -0.021322014
-0.081223585 -0.081323825 -0.07367237 -0.07216461 0.024815295 0.08495627 0.0019186321 0.041663237
0.03278694 0.022427412 0.038389824 -0.068331614 -0.0747405 0.044398744 0.037620563 0.050357834
0.05310384 -0.005110916 -0.0069977553 0.035180606 0.020393573 0.04737693 0.07747356 -0.012842396
0.0056577716 0.058797203 -0.075765975 -0.019552618 -0.05586709 0.025494227 0.031006765 -0.04111328
0.028055947 -0.021204637 -0.05259584 5.0052626e-05 -0.006821862 0.031016435 -0.03373738 -0.021324208
-0.052348018 0.08483722 -0.007236757 -0.087501496 -0.08452767 0.046324126 -0.01476388 -0.08295083
-0.032116994 -0.023502694 -0.04773159 -0.044026483 0.05773665 0.025902955 0.080435775 0.0015181716
0.055011615 0.04067133 0.012557442 0.012272519 0.0023242617 -0.08783065 0.04201004 0.0753757
-0.014035552 -0.08397923 -0.0019546347 -4.4809603e-05 -0.037577245 -0.084435634 0.06529767 -0.06330513
0.057764303 -0.034471337 -0.08359503 0.07220406 -0.025522152 0.07019787 -0.04531683 0.0031320045
-0.020434067 -0.037598193 -0.017473951 0.07839982 -0.0016347269 -0.044336345 0.054001816 -0.020129558
-0.02266729 0.024306817 -0.084090285 0.018506428 -0.0234775 0.06536153 0.016695343 0.06745836
0.03948831 -0.028058548 0.030346923 -0.084128186 0.044620372 -0.03156882 -0.03718226 -0.05619651
0.077951215 -0.036399398 0.06675948 0.0061002295 0.06242375 0.03182466 -0.027554741 0.02056938
-0.020225164 0.08319487 0.017531287 -0.034824774 0.018802341 0.009142146 0.0859243 0.049769565
-0.075188935 0.04577967 -0.0013920893 0.06457281 0.004871038 0.041531906 -0.074901946 -0.0069564823
0.038170576 -0.08276834 -0.023901552 0.0029793186 0.03322966 0.03475265 0.07657901 0.038185745
0.05844251 -0.08505456 -0.03618977 0.056173135 -0.020267686 0.0076659955 -0.06473377 -0.020265585
0.06558212 0.03823341 0.061238922 0.044507038 0.06771096 0.024231026 -0.029845437 0.057518344
-0.07201908 0.02003021 -0.031502746 -0.05357622 0.029530548 -0.08680992 -0.057039596 -0.084144786
-0.028281882 0.0870597 -0.04226184 -0.08644215 -0.02027599 0.048014946 0.074353 -0.0704492
-0.06021417 -0.047660552 0.02718177 -0.03856579 -0.0010857766 -0.0041333204 -0.06831217 0.08201491
00000000: e9f3 e4bc 6b40 8ebc 9a76 abbc b4e6 413d
00000010: c513 23bd 4a55 1dba 0a01 90bd 9171 a23c
00000020: f69f 63bc bdba dbbc 229e ab3b 62d7 89bd
00000030: 63f7 473d c60a f2bc d71a 92bd e058 fd3c
00000040: aacb 29bc 4fe7 c9bb 17f2 01bd dd8c d83c
00000050: 7c48 853c cef2 16bd fc6f 51bd c0ef b4bd
00000060: 904e 853d a880 83bd fd01 773d b96d 11bd
00000070: 52f2 4e3d 4c68 acbd 4653 04bd 659d a2bd
00000080: 0465 40bd c885 4dbd fb1f 32bd 2e36 993d
00000090: ff91 313d ad2f 403d eeab 4c3d 91ae 8d3d
000000a0: 770a 81bd 8353 c1bb ec52 0f3d 73d7 473d
000000b0: b54e 953d 3c35 acbc ddca 44bd 7da2 983d
000000c0: d2fd 683d 3378 993c f894 3cbd f6dd 383d
000000d0: 974c 693d 34c0 6b3d fee0 e5bc 9d5f c63b
000000e0: bb5f a2ba 2ac7 253d 7f3c 1bbd 1eea 1fbd
000000f0: 9ee3 9d3d 388e 2c3d 8837 42bd 5f3b a93d
00000100: 18c6 1e3d 2955 a7bd 9807 9fbd 3f04 8fbc
00000110: 991d afbc 7bc2 97bd 88d4 ab3d 297a aebd
00000120: 5989 95bb 9366 1a3d 6c33 39bd 8c58 973d
00000130: e3a7 e0bc 1e1a d3bc 3b95 01bd 81ab aebc
00000140: 8d58 a6bd 1b8d a6bd 8ae1 96bd 0acb 93bd
00000150: 7249 cb3c 8efd ad3d 9c7a fb3a 12a7 2a3d
00000160: 994b 063d b1b9 b73c a63e 1d3d 72f1 8bbd
00000170: 8c11 99bd 75db 353d 0518 1a3d 0444 4e3d
00000180: 6a83 593d 7979 a7bb 6d4d e5bb 8a19 103d
00000190: 6c10 a73c 500e 423d 75aa 9e3d ea68 52bc
000001a0: d464 b93b 56d5 703d 312b 9bbd d02c a0bc
000001b0: e4d4 64bd 45d9 d03c e601 fe3c 6666 28bd
000001c0: 96d5 e53c 59b5 adbc bc6e 57bd 99ef 5138
000001d0: ed89 dfbb 2e16 fe3c 3530 0abd 1bb0 aebc
000001e0: e06a 56bd 23bf ad3d 5122 edbb fc33 b3bd
000001f0: d81c adbd 5ebe 3d3d 33e4 71bc 20e2 a9bd
00000200: 1c8d 03bd b988 c0bc 3382 43bd 1d55 34bd
00000210: 447d 6c3d 6f32 d43c 83bb a43d 63fd c63a
00000220: dc53 613d fb96 263d bbbd 4d3c ad12 493c
00000230: a452 183b 8ee0 b3bd b812 2c3d 935e 9a3d
00000240: 5ff5 65bc 4dfd abbd 5419 00bb f2f1 3bb8
00000250: 99ea 19bd 97ec acbd c9ba 853d 1fa6 81bd
00000260: 439a 6c3d d131 0dbd df33 abbd b9df 933d
00000270: d513 d1bc e7c3 8f3d 249e 39bd 5142 4d3b
00000280: 5865 a7bc 9000 1abd 8825 8fbc 1690 a03d
00000290: 5544 d6ba 079a 35bd 0231 5d3d bee6 a4bc
000002a0: c1b0 b9bc 171f c73c 8737 acbd cb9a 973c
000002b0: e353 c0bc 44dc 853d acc4 883c 9c27 8a3d
000002c0: 7fbe 213d 0adb e5bc 1c9a f83c 664b acbd
000002d0: dac3 363d 4f4e 01bd 6d4c 18bd 502e 66bd
000002e0: e3a4 9f3d 8917 15bd 32b9 883d 6fe4 c73b
000002f0: 0cb0 7f3d 935a 023d 7bba e1bc 1e81 a83c
00000300: 3eaf a5bc 1262 aa3d c69d 8f3c 6ca4 0ebd
00000310: 5e07 9a3c f1c8 153c 14f9 af3d 2cdb 4b3d
00000320: a8fc 99bd 7783 3b3d c476 b6ba c03e 843d
00000330: 3a9d 9f3b 5c1d 2a3d 3166 99bd 34f3 e3bb
00000340: c058 1c3d 7382 a9bd 30cd c3bc ac40 433b
00000350: d31b 083d cb58 0e3d 75d5 9c3d a868 1c3d
00000360: 6a61 6f3d 1631 aebd b93b 14bd cd15 663d
00000370: 6b08 a6bc 0833 fb3b 2493 84bd 0304 a6bc
00000380: eb4f 863d a39a 1c3d aad5 7a3d 034d 363d
00000390: 0bac 8a3d 2580 c63c 6b7e f4bc 5b98 6b3d
000003a0: bd7e 93bd 6516 a43c 0609 01bd bd72 5bbd
000003b0: 0cea f13c 66c9 b1bd 5aa2 69bd 1a54 acbd
000003c0: 68af e7bc 5b4c b23d c01a 2dbd 9508 b1bd
000003d0: d519 a6bc 52ab 443d 6346 983d ac47 90bd
000003e0: 22a3 76bd b637 43bd 4eac de3c 29f7 1dbd
000003f0: 9e50 8eba ce70 87bb 40e7 8bbd 6ff7 a73d

shared_net.2.bias f4 [64]
0.0076167444 -0.053385247 0.07084936 0.006118846 0.22533263 -0.037491698 0.15303858 0.0074266857
0.05064715 -0.05384386 0.052252382 0.09275745 -0.062117614 -0.085548654 -0.014022091 -0.07646178
0.042979 -0.010885918 0.04896877 -0.08059165 0.017044866 0.19668832 -0.06613847 -0.05252556
0.098870255 -0.07447387 0.3168249 0.029737558 -0.02666762 -0.099479154 -0.00371077 -0.086374454
-0.050777018 0.06875064 0.011372889 -0.089750685 0.2953029 -0.02055286 0.070271805 -0.04008966
-0.025278836 -0.055256054 0.032224715 -0.008993099 0.14503007 0.1363945 0.10530315 0.012464682
-0.07734157 0.05807339 0.024349762 0.028055454 0.04974778 -0.07845872 -0.0726406 -0.012682106
0.021397943 -0.0523467 0.02210444 0.15323609 -0.07554545 -0.018521832 0.031214299 0.06942961
00000000: e295 f93b 7daa 5abd 7819 913d 9a80 c83b
00000010: 99bd 663e e590 19bd 25b6 1c3e 8e5b f33b
00000020: 6373 4f3d 618b 5cbd 9806 563d 9ef7 bd3d
00000030: 0a6f 7ebd 2234 afbd eabc 65bc fe97 9cbd
00000040: bf0a 303d d95a 32bc 7a93 483d 3c0d a5bd
00000050: ada1 8b3c aa68 493e 9b73 87bd 0b25 57bd
00000060: 7d7c ca3d c285 98bd e036 a23e 2e9c f33c
00000070: 0d76 dabc babb cbbd 6430 73bb 17e5 b0bd
00000080: 90fb 4fbd 23cd 8c3d 5b55 3a3c 35cf b7bd
00000090: f131 973e 795e a8bc aaea 8f3d 0e35 24bd
000000a0: 9015 cfbc 2c54 62bd 10fe 033d cb57 13bc
000000b0: c382 143e 00ab 0b3e 2ea9 d73d aa38 4c3c
000000c0: 4265 9ebd 5dde 6d3d 2779 c73c 8dd4 e53c
000000d0: 54c4 4b3d f7ae a0bd 98c4 94bd 9cc8 4fbc
000000e0: bd4a af3c 7e69 56bd 5f14 b53c ece9 1c3e
000000f0: 93b7 9abd 19bb 97bc 21b5 ff3c 1d31 8e3d

actor.0.weight f4 [32, 64]
-0.07498616 0.035445407 -0.042409703 -0.031764165 -0.021091089 -0.08772637 0.019143105 0.08430566
0.079761505 -0.049120918 0.047843993 -0.047414586 -0.03232284 0.06138125 0.03399159 0.038840994
-0.020655125 -0.060929373 0.023203418 -0.030392095 -0.075815275 0.025828928 -0.09634067 -0.096448705
0.024507165 -0.08739355 -0.1146242 -0.06289753 -0.08612418 -0.007861331 0.023948878 0.023202077
0.05558172 -0.12047343 0.120899215 -0.06642714 0.0545924 -0.012207955 -0.10851014 -0.057128415
-0.025376022 -0.10209085 0.028926626 0.04742165 0.07976152 0.07350944 0.082157865 -0.10692936
-0.0048683733 0.06932321 -0.0074979067 0.113611326 -0.012232244 -0.043298557 0.081589326 -0.10990694
0.018239766 0.1143529 0.023136854 -0.016328558 -0.029503122 0.020328984 0.026971266 -0.09906791
0.10809101 -0.086305365 -0.0062523903 -0.09462218 -0.080204844 0.015030846 -0.09237073 0.02777563
-0.0002137893 0.005409792 -0.022041183 -0.009528437 0.03977698 0.06752409 0.10962957 0.061650634
-0.08423279 0.07887703 0.07793109 -0.046605825 -0.002943171 0.044634562 0.0877787 -0.10527867
-0.04848062 0.09052186 -0.11049026 0.115927204 -0.108443856 0.0065289885 -0.091405734 -0.07959601
-0.11192578 0.08697541 0.09712115 -0.03137228 -0.089392185 -0.004821807 -0.10824871 -0.096980706
0.061901957 0.040051043 0.012202159 0.052032217 0.015770093 -0.10689697 -0.05348643 0.07482399
-0.06032081 -0.053126752 0.05259949 -0.118020594 -0.10944013 0.015844822 -0.06490986 0.014397636
0.09503704 -0.017334223 0.061142847 -0.11133516 0.10151711 0.0065585226 0.043950967 -0.013406446
-0.029930137 0.068369836 0.054233454 -0.022442238 -0.12408353 0.07199448 -0.0608075 0.11188848
0.087757915 0.07119906 0.014424471 -0.1130479 -0.12266342 0.121232376 0.08291307 0.1102885
0.042909607 -0.038304374 0.015358793 -0.0061790734 -0.11580305 0.013166682 0.1231904 -0.111050814
-0.11171211 0.02509357 -0.117150314 0.11050542 0.11845179 0.069319546 -0.033086225 0.0051553547
0.0084168315 0.020961441 0.09862149 0.11957827 0.120127305 0.09275073 -0.008899517 0.060696423
-0.061787263 -0.11465949 0.108990476 0.013520807 0.0076537076 0.0867333 -0.10113682 0.028522179
0.0069405437 -0.002120315 -0.0048233657 -0.10396932 0.08841558 0.011130169 -0.030930504 -0.04589522
0.116727024 -0.0066185147 0.09903315 0.002769755 0.06299281 -0.05862151 0.09775546 -0.10196373
0.121765226 -0.013617796 -0.010893658 0.11149335 0.06272068 -0.071595624 0.060871284 -0.015333638
0.024349049 -0.020881033 -0.10184179 -0.017984036 0.11716075 -0.1040851 -0.03654953 0.022399161
0.05178955 0.11245008 -0.011707813 0.033102833 -0.12082806 0.10162607 0.103264034 -0.031274535
-0.038732324 0.061360553 0.0018662635 -0.084771514 -0.029040175 0.053896636 0.03602481 0.033087138
-0.073791355 -0.06741123 0.007187158 -0.014893845 -0.013841624 0.07169443 0.06299024 -0.06112373
-0.07044053 0.020159325 0.051185384 0.08849217 0.0023862203 0.018073637 0.022947982 -0.07773855
0.059954613 -0.055505604 0.06492073 0.09822114 0.03023738 0.051784024 0.08266461 -0.07968112
0.018333167 0.025832105 -0.0763042 0.027135495 0.093222305 -0.08082865 -0.09131269 -0.031720348
00000000: 5892 99bd 342f 113d ccb5 2dbd 241b 02bd
00000010: 38c7 acbc e2a9 b3bd 00d2 9c3c 72a8 ac3d
00000020: 005a a33d 0433 49bd 10f8 433d cc35 42bd
00000030: f464 04bd e86a 7b3d c43a 0b3d bc17 1f3d
00000040: f034 a9bc 1491 79bd 1815 be3c d8f8 f8bc
00000050: 0a45 9bbd 3097 d33c 424e c5bd e686 c5bd
00000060: 40c3 c83c 64fb b2bd 18c0 eabd 6cd0 80bd
00000070: e061 b0bd d0cc 00bc 7030 c43c 4812 be3c
00000080: a8a9 633d c6ba f6bd 029a f73d f40a 88bd
00000090: 489c 5f3d e003 48bc 903a debd 7cff 69bd
000000a0: 60e1 cfbc 0215 d1bd 88f7 ec3c 343d 423d
000000b0: 025a a33d 1e8c 963d 6242 a83d c8fd dabd
000000c0: e086 9fbb 54f9 8d3d 00b1 f5bb 0ead e83d
000000d0: c069 48bc d459 31bd 4e18 a73d e416 e1bd
000000e0: 906b 953c da31 ea3d 8089 bd3c 78c3 85bc
000000f0: 88b0 f1bc f888 a63c d8f2 dc3c 1ee4 cabd
00000100: d25e dd3d dec0 b0bd dae0 ccbb 46c9 c1bd
00000110: 7042 a4bd f043 763c de2c bdbd b889 e33c
00000120: a12c 60b9 a044 b13b b68f b4bc 291d 1cbc
00000130: 30ed 223d 124a 8a3d 7885 e03d 6085 7c3d
00000140: 3e82 acbd 488a a13d 569a 9f3d c0e5 3ebd
00000150: 37e2 40bb bbd2 363d 52c5 b33d 589c d7bd
00000160: 9d93 46bd 8663 b93d b848 e2bd 3e6b ed3d
00000170: d017 debd 20f1 d53b ee32 bbbd 3c03 a3bd
00000180: 5839 e5bd 2a20 b23d 74e7 c63d 3880 00bd
00000190: 4013 b7bd 4000 9ebb 80b1 ddbd d29d c6bd
000001a0: e88c 7d3d 900c 243d 90eb 473c bc1f 553d
000001b0: 4830 813c ccec dabd 9614 5bbd 523d 993d
000001c0: f412 77bd 709b 59bd 9072 573d c8b4 f1bd
000001d0: 2622 e0bd 00cd 813c 76ef 84bd 10e4 6b3c
000001e0: c8a2 c23d 8000 8ebc ec70 7a3d b003 e4bd
000001f0: 34e8 cf3d e0e8 d63b ee05 343d b6a6 5bbc
00000200: 0c30 f5bc 7c05 8c3d e623 5e3d c9d8 b7bc
00000210: 811f febd d871 933d 4911 79bd ca25 e53d
00000220: 6cba b33d d0d0 913d 9e54 6c3c a885 e7bd
00000230: f636 fbbd ae48 f83d 54ce a93d f0de e13d
00000240: fcc1 2f3d 0ce5 1cbd 72a3 7b3c d379 cabb
00000250: 262a edbd 11b9 573c 404b fc3d 9c6e e3bd
00000260: 52c9 e4bd 0891 cd3c 81ec efbd aa50 e23d
00000270: da96 f23d 68f7 8d3d 6c85 07bd 40ee a83b
00000280: c0e6 093c 54b7 ab3c 10fa c93d 74e5 f43d
00000290: 4e05 f63d 18f4 bd3d 48cf 11bc d09c 783d
000002a0: a414 7dbd 98d2 eabd 6636 df3d 6086 5d3c
000002b0: f4cb fa3b 3aa1 b13d d220 cfbd 58a7 e93c
000002c0: 806d e33b fcf4 0abb 530d 9ebb deed d4bd
000002d0: 3a13 b53d 505b 363c f861 fdbc a0fc 3bbd
000002e0: 940e ef3d 20e0 d8bb e4d1 ca3d c784 353b
000002f0: 6002 813d 1c1d 70bd 0434 c83d 5cd2 d0bd
00000300: 0c60 f93d 2d1d 5fbc 507b 32bc a056 e43d
00000310: b373 803d baa0 92bd 2b54 793d f039 7bbc
00000320: a877 c73c b30e abbc 6e92 d0bd 4253 93bc
00000330: faf1 ef3d 922a d5bd f6b4 15bd 727e b73c
00000340: 4721 543d 3a4c e63d 20d2 3fbc d696 073d
00000350: b474 f7bd 5421 d03d 187c d33d ba19 00bd
00000360: c9a5 1ebd 3455 7b3d 699d f43a b09c adbd
00000370: a9e5 edbc b8c2 5c3d c08e 133d 6186 073d
00000380: ec1f 97bd e60e 8abd 4082 eb3b 5005 74bc
00000390: fbc7 62bc 88d4 923d 0701 813d e05c 7abd
000003a0: 2043 90bd 2b25 a53c c4a7 513d 623b b53d
000003b0: 2262 1c3b 2a0f 943c 68fd bb3c 6435 9fbd
000003c0: f892 753d d859 63bd 29f5 843d 2a28 c93d
000003d0: 62b4 f73c 7c1b 543d 104c a93d db2f a3bd
000003e0: 702f 963c da9d d33c 6045 9cbd 424b de3c
000003f0: 56eb be3d 7e89 a5bd 2602 bbbd 32ed 01bd
