logs/20250602_014535/checkpoint_episode_1600.pt (torch, 782407 bytes, 19 tensors)

cnn.0.weight f4 [32, 1, 3, 3]
0	0xbe49d5b5	-0.19710429
1	0xbdfb615d	-0.1227443
2	0x3cb5363f	0.022120593
3	0xbe3b08e2	-0.18265107
4	0xbd9a2568	-0.07526666
5	0x3e242c99	0.16032638
6	0xbe997521	-0.29972175
7	0x3cb3334b	0.021875044
8	0xbd847a17	-0.06468599
9	0x3d8b9cac	0.06816992
10	0xbe2b5dfc	-0.16735071
11	0xbe9c7e30	-0.30565023
12	0xbd14082c	-0.036140606
13	0xbd9f9fcf	-0.07794153
14	0xbe69fde9	-0.22850765
15	0xbe6de38e	-0.23231336
16	0xbe063a9a	-0.13108292
17	0x3c7f007e	0.015564082
18	0x3cae5aa1	0.02128345
19	0x3e55bf69	0.20873798
20	0x3e25e384	0.16200072
21	0x3e99fbce	0.30074924
22	0x3e0a26a5	0.13491304
23	0x3dda2236	0.106510565
24	0xbea9857d	-0.33109656
25	0xbe89a2db	-0.2688206
26	0xbe8b2076	-0.27173203
27	0xbe50fa0e	-0.20407888
28	0x3d0def80	0.034652233
29	0xbe840df7	-0.25791904
30	0x3e669480	0.22517586
31	0xbcd35a40	-0.02579987
32	0xbd6b5e2b	-0.057462852
33	0x3e106163	0.1409965
34	0xbcab1140	-0.020882249
35	0xbea78370	-0.32717466
36	0xbe9c7fa6	-0.30566138
37	0xbe84de17	-0.2595069
38	0x3e57421a	0.2102131
39	0x3e8b5e1c	0.27220237
40	0x3e93d247	0.28871366
41	0x3e8ab0c9	0.27088
42	0x3eaa2125	0.33228412
43	0x3e95b187	0.29237005
44	0xbe862deb	-0.26206908
45	0xbe84bae8	-0.25923848
46	0xbe10e166	-0.14148483
47	0xbe86e9db	-0.26350293
48	0xbdc3de06	-0.09563832
49	0x3cf67916	0.030087035
50	0xbde9ef66	-0.11422615
51	0x3da4afeb	0.08041366
52	0x3d82646b	0.063668095
53	0xbe3c2cce	-0.18376467
54	0xbe94db34	-0.2907349
55	0xbe9c1c66	-0.30490416
56	0x3c80a956	0.015705746
57	0x3e6b1676	0.22957787
58	0xbe43fb03	-0.19138722
59	0xbe961230	-0.2931075
60	0xbcd82f56	-0.026389759
61	0x3ea56fc3	0.3231183
62	0xbe3c6990	-0.18399644
63	0xbc81ffe6	-0.015869092
64	0x3ea82f49	0.32848576
65	0xbe1d2bdf	-0.15348767
66	0x3e1199be	0.14218804
67	0x3e376b17	0.17911945
68	0x3e3d9a3e	0.1851587
69	0x3ea8faea	0.33003932
70	0xbde2c474	-0.11072627
71	0x3ddf5807	0.10905462
72	0x3dab4d3b	0.0836434
73	0x3db9721b	0.09054967
74	0x3ea187bb	0.31548867
75	0x3d961242	0.07327701
76	0xbe68e1af	-0.22742341
77	0x3d88d5a4	0.06681374
78	0x3e5416ae	0.20711777
79	0x3e59a30a	0.212536
80	0x3e087bbc	0.13328451
81	0xbdc03042	-0.093842044
82	0x3ea49dba	0.32151586
83	0x3d152880	0.036415577
84	0xbe45b846	-0.19308576
85	0x3dff9076	0.124787256
86	0xbdc2e685	-0.09516624
87	0xbe9a0c03	-0.3008729
88	0xbcd7d7a5	-0.026347945
89	0x3e74332f	0.2384765
90	0xbe49dd58	-0.19713342
91	0xbdfa389b	-0.12217828
92	0x3d19ddeb	0.037565153
93	0x3dde8ce0	0.108667135
94	0xbd6dd476	-0.058063947
95	0xbe29cadb	-0.1658129
96	0x3de9daeb	0.114187084
97	0x3cee516b	0.029091557
98	0x3e9c0957	0.30475876
99	0x3e15e61c	0.14638561
100	0xbd907e99	-0.070553966
101	0x3d5b4884	0.053535953
102	0x3d599c1c	0.053127393
103	0x3e484c91	0.19560458
104	0xbea5e71f	-0.32402894
105	0x3e41de2d	0.1893241
106	0xbe17c630	-0.14821696
107	0x3e855682	0.26042563
108	0x3a2e3556	0.0006645521
109	0xbe323430	-0.1740272
110	0xbe0b9226	-0.1362997
111	0xbad23956	-0.0016038816
112	0x3d9ac446	0.075569674
113	0xbe8f3cab	-0.27975973
114	0x3e304d2e	0.17216942
115	0x3e81850e	0.25296825
116	0x3ea46eae	0.32115692
117	0xbe9ad0ae	-0.30237335
118	0xbcaca3d8	-0.02107422
119	0xbd9bed06	-0.07613568
120	0xbbe59aac	-0.0070069637
121	0xbdc0d9ed	-0.09416566
122	0xbe963e5b	-0.29344448
123	0x3e8b339a	0.27187806
124	0x3d3ae203	0.045625698
125	0xbde317a3	-0.11088493
126	0x3de0c5e3	0.10975244
127	0xbe9d6e1e	-0.30748075
128	0x3db11ea2	0.08648421
129	0x3dd8d33c	0.10587165
130	0x3e2b1a09	0.1670915
131	0x3c382e78	0.011241548
132	0xbe9a45e1	-0.30131438
133	0xbd38ccf2	-0.045117326
134	0xbdc88d29	-0.09792549
135	0x3e2eb993	0.17062978
136	0xbe3baf28	-0.18328536
137	0x3d40c853	0.047066044
138	0x3db8ee51	0.0902983
139	0x3e929f98	0.28637385
140	0x3ea4aa38	0.32161117
141	0x3e0bce56	0.1365293
142	0xbe53c3b0	-0.20680118
143	0x3ce7ccd0	0.028295904
144	0xbd28fb87	-0.0412555
145	0x3ca7737f	0.020440815
146	0x3e74fe46	0.23925123
147	0x3dd55272	0.10416116
148	0xbcba75d1	-0.022761257
149	0x3e74253b	0.23842327
150	0xbe0523fb	-0.13002007
151	0xbe05696a	-0.13028494
152	0x3df4ecc0	0.11959219
153	0x3e906ff7	0.28210422
154	0x3d0b8900	0.0340662
155	0xbd9ddda0	-0.07708287
156	0x3c234480	0.009965062
157	0x3e9b7fb0	0.30370855
158	0xbe87cdfa	-0.26524335
159	0xbea25afa	-0.31710035
160	0xbe8190ca	-0.25305778
161	0xbdd4f780	-0.103987694
162	0x3e5024e8	0.20326579
163	0x3e4cf8c7	0.20016776
164	0xbe5f5372	-0.21809176
165	0x3d4d5c90	0.050137103
166	0x3e56c8e8	0.20975077
167	0xbe8a38ab	-0.2699636
168	0xbdca8403	-0.098884605
169	0xbdbe70ee	-0.092988834
170	0x3e2d2f2b	0.16912524
171	0x3d1f5d1c	0.038907155
172	0xbd60fe0e	-0.054929785
173	0x3ea0069b	0.3125504
174	0xbdd76279	-0.10516829
175	0x3e0acc20	0.1355443
176	0x3d091e13	0.033475947
177	0x3c39deea	0.011344651
178	0xbe9db27c	-0.30800235
179	0x3df1f479	0.118142076
180	0x3e6be0fa	0.2303504
181	0xbe73d4da	-0.23811665
182	0x3ea7682c	0.32696664
183	0xbe319e71	-0.17345597
184	0xbdaf5045	-0.08560232
185	0x3e447921	0.19186832
186	0x3e704375	0.23463233
187	0xbe8a13ba	-0.26968175
188	0xbe3c26bf	-0.18374155
189	0x3dd6570b	0.10465821
190	0xbd3b19a0	-0.045678735
191	0x3e97ced7	0.29649994
192	0x3e95099b	0.2910889
193	0xbda0c5a0	-0.07850194
194	0xbdde5756	-0.10856502
195	0x3e85773b	0.26067528
196	0x3dc211e0	0.09476066
197	0xbe8572aa	-0.26064044
198	0xbe19a33b	-0.15003674
199	0x3e972b88	0.295254
200	0xbe2df930	-0.16989589
201	0x3e9fd624	0.31218064
202	0x3deeba80	0.11656666
203	0xbde2dcd6	-0.11077277
204	0xbe105bdb	-0.1409754
205	0xbe6707a8	-0.22561514
206	0x3dcd5e56	0.10027759
207	0x3e19027e	0.14942357
208	0x3d227a97	0.039667692
209	0xbe490861	-0.19632103
210	0xbe8c13cd	-0.27358857
211	0xbe05e42c	-0.13075322
212	0x3de34eca	0.11099012
213	0x3e308e38	0.17241752
214	0x3d099a5d	0.033594478
215	0x3e4bdd34	0.19908601
216	0xbd4f12e8	-0.05055514
217	0xbd8c2075	-0.06842128
218	0x3e69dd3e	0.22838303
219	0xbc8e9e0b	-0.017409345
220	0xbda04411	-0.07825483
221	0xbd342aeb	-0.043986242
222	0xbe627e4a	-0.22118488
223	0x3db1d5f0	0.086833835
224	0x3c8321e2	0.016007368
225	0x3cd63aab	0.026151022
226	0xbe1565d0	-0.1458962
227	0x3ea1e6f6	0.31621522
228	0xbea9bb1e	-0.33150572
229	0x3ddbe276	0.10736553
230	0xbe9dd308	-0.30825067
231	0xbd0c34cb	-0.034230035
232	0xbda7ed46	-0.08199553
233	0x3e1ea9ae	0.15494415
234	0xbe80cfe2	-0.25158602
235	0x3e296318	0.16541708
236	0xbcdf4874	-0.027256228
237	0x3d2f954c	0.04286699
238	0x3da22bf4	0.0791854
239	0x3e8a5b7a	0.27022916
240	0x3e5c01a0	0.21484995
241	0x3e793627	0.24337064
242	0xbe43e936	-0.19131932
243	0x3e69aa66	0.22818908
244	0xbd225af0	-0.039637506
245	0x3e153762	0.14571908
246	0xbddf32ed	-0.10898385
247	0xbe767711	-0.24068858
248	0x3e57e882	0.21084788
249	0xbcfa0cb9	-0.030523645
250	0x3e8107bd	0.25201216
251	0xbe17f319	-0.14838828
252	0x3e3305c9	0.17482676
253	0xbe991ae8	-0.2990334
254	0x3d6de2d1	0.058077637
255	0x3d8313ab	0.06400236

cnn.0.bias f4 [32]
0	0x3f393830	0.7235136
1	0x3e869555	0.26285806
2	0xbd195d4d	-0.037442494
3	0xbe323fc8	-0.17407143
4	0x3d659513	0.05605037
5	0xbdc5ee30	-0.09664571
6	0xbe8d9482	-0.27652365
7	0x3e8739e6	0.2641136
8	0x3db2a5fe	0.08723067
9	0x3e1d302b	0.15350406
10	0xbe5048a8	-0.20340216
11	0x3ddb9447	0.10721641
12	0xbe6b0af8	-0.22953403
13	0x3ed41624	0.41423142
14	0x3d349496	0.044087015
15	0xbddb95a1	-0.10721899
16	0x3e435b3d	0.19077773
17	0xbe61b728	-0.22042525
18	0x3eab3c5f	0.33444497
19	0x3d83cb55	0.06435267
20	0x3eb82462	0.35965258
21	0xbe8f0fe6	-0.27941817
22	0xbe4ad338	-0.19807136
23	0x3ef6e62d	0.48222485
24	0x3de4c96a	0.11171229
25	0xbe5872d8	-0.2113756
26	0x3e9f33f2	0.3109432
27	0x3ecebe44	0.40379536
28	0x3e039cf8	0.12852848
29	0x3d87c87d	0.06630037
30	0x3e77d49d	0.242022
31	0x3f3112d2	0.6916934

cnn.2.weight f4 [64, 32, 3, 3]
0	0xbc962e2d	-0.018332565
1	0xbd25a60e	-0.040441565
2	0xbcb8a374	-0.022538878
3	0x3d0f415d	0.034974445
4	0x3c210039	0.009826713
5	0xbc39cb20	-0.011339933
6	0x3c4eece0	0.012629718
7	0x3cc5ebc0	0.024160266
8	0x3c0e761f	0.008695154
9	0x3d453b81	0.04815245
10	0xbcbf7b53	-0.023374235
11	0x3d43fe78	0.047850102
12	0x3c711676	0.014714828
13	0xbcd9d81d	-0.026592309
14	0x3d20013d	0.03906368
15	0x3cc03d96	0.023466866
16	0x3c704f61	0.014667363
17	0x3cacf258	0.021111652
18	0x3d568b5d	0.052379
19	0xbcfc4c48	-0.030798092
20	0xbbed8057	-0.0072479653
21	0xbc9d110e	-0.019173171
22	0xbcdc58f5	-0.026897887
23	0x3ca73426	0.020410609
24	0x3d6e4938	0.058175296
25	0x3d32a9d7	0.043619003
26	0x3c136a8e	0.008997573
27	0x3d0bf815	0.034172136
28	0xbc97175c	-0.018443756
29	0x3d6d654b	0.05795793
30	0x3d451bfb	0.048122387
31	0xbd3513ed	-0.044208456
32	0x3ca573ba	0.020196784
33	0xbcfc8f75	-0.030830124
34	0xbc038c8d	-0.008029115
35	0xbd379ff3	-0.044830274
36	0xbce62381	-0.028093101
37	0x3cead097	0.028663917
38	0xbd28fa04	-0.04125406
39	0x3ca86b5d	0.020559007
40	0xbd620493	-0.055180144
41	0xbc3f8cad	-0.011691255
42	0xbcc54d42	-0.024084691
43	0xbd3dc301	-0.04632855
44	0xbd47ec75	-0.048809487
45	0xbc4ea4b9	-0.012612515
46	0x3c84053e	0.01611578
47	0xbcd18220	-0.025574744
48	0x3c80bc91	0.015714915
49	0xbc9dee64	-0.019278713
50	0xbd27e957	-0.040994015
51	0x3d30148c	0.042988345
52	0xbd4d9ef4	-0.050200418
53	0xbd492795	-0.049110014
54	0xbce5e3d6	-0.028062742
55	0xbce252c5	-0.027627358
56	0x3cfd8d8f	0.03095129
57	0xbc921682	-0.017832998
58	0x3d1b356c	0.037892744
59	0xbd3388de	-0.0438317
60	0x3d3a6ce8	0.045514017
61	0x3d439ba1	0.04775584
62	0xbd633e78	-0.055479497
63	0x3c8dc0fc	0.017303936
64	0xbd33e5cc	-0.043920323
65	0x3c7ff3c1	0.01562208
66	0x3d156cec	0.03648083
67	0x3d20e208	0.03927806
68	0x3b8ccfe4	0.0042972434
69	0xbc9466e0	-0.01811546
70	0xbd4477f4	-0.04796596
71	0xbcced76d	-0.025249207
72	0xbc98116d	-0.018562997
73	0x3ab9eb1f	0.0014184451
74	0x3d141cd5	0.03616031
75	0xbd66ef0a	-0.05638031
76	0xbc8243b0	-0.015901417
77	0x3b590c19	0.0033118783
78	0xbd38bc46	-0.045101427
79	0x3c9604ae	0.018312778
80	0x3b31e8a1	0.0027146714
81	0x3c72bfd8	0.014816247
82	0xbcb064c4	-0.021532424
83	0x3d5c9928	0.053857
84	0x3c9a061a	0.018801738
85	0x3d1f5d07	0.038907077
86	0x3cda88ab	0.026676496
87	0xbc81804e	-0.01580825
88	0x3d70dd46	0.058804773
89	0x3cab1082	0.020881895
90	0x3d5506e9	0.052008543
91	0xbc95128e	-0.018197324
92	0xbd0ba052	-0.03408844
93	0x3d150ca5	0.036389012
94	0xbcdc26b9	-0.026873933
95	0x3c8f13f4	0.01746557
96	0x3d6b503d	0.057449568
97	0xbb0c8d03	-0.0021446354
98	0x3d533831	0.05156726
99	0x3c622894	0.01380362
100	0x3ca2c46b	0.01986905
101	0xbcd6a5d4	-0.02620212
102	0xbd489558	-0.04897055
103	0x3c71498c	0.014727008
104	0x3c92cb9e	0.017919358
105	0xbd666f0e	-0.056258254
106	0xbd66e10a	-0.056366958
107	0xbd440c0f	-0.047863062
108	0xba243854	-0.0006264497
109	0xbd245526	-0.040120266
110	0x3c93555b	0.017985037
111	0x3cbbe1be	0.02293479
112	0xbb20366f	-0.0024446507
113	0xbd5b6d41	-0.05357099
114	0x3cdd27b6	0.026996475
115	0xbd1c5246	-0.0381644
116	0xbcd7ca5d	-0.026341612
117	0x3d574710	0.052558005
118	0xbd1b8118	-0.03796491
119	0x3ccf2920	0.025288165
120	0xba1e9bf5	-0.0006050461
121	0xbd47d348	-0.048785478
122	0xbd5f32b1	-0.054491702
123	0x3b2c0bae	0.0026252079
124	0xbd3f1370	-0.046649396
125	0xbd454faa	-0.048171677
126	0x3cba7fac	0.022765957
127	0xbbee721d	-0.007276787
128	0xbd35d561	-0.044392947
129	0xbd3d5baf	-0.046230014
130	0x3d4d3094	0.050095156
131	0xbd0aa5b2	-0.033849426
132	0xbd02a17b	-0.03189228
133	0xbd2f2a04	-0.04276468
134	0xbc3cca65	-0.011522864
135	0x3a5277a7	0.0008028694
136	0x3ca7c6ef	0.020480601
137	0x3d4e6cd8	0.05039677
138	0x3c60c2b9	0.0137183005
139	0x3cf866bb	0.030322423
140	0x3d38f673	0.045156907
141	0xbd220962	-0.03955973
142	0x3d1cc763	0.038276087
143	0x3cb7b9c4	0.022427447
144	0x3b6dcef3	0.0036286681
145	0xbbc714aa	-0.0060754614
146	0x3cfe021d	0.031006867
147	0x3bc8eb3e	0.0061315587
148	0x3d45327f	0.04814386
149	0xbc9beba2	-0.019033257
150	0x3d5bc4d9	0.053654525
151	0xbada7af8	-0.0016668728
152	0xbd1a120c	-0.037614867
153	0xbd3e9e49	-0.04653767
154	0xbc63c1ab	-0.0139011545
155	0x3d0de833	0.03464527
156	0xbc55cf48	-0.013049908
157	0x3cdca497	0.026933951
158	0xbc3f06b6	-0.011659315
159	0xbca5fb76	-0.020261507
160	0x3d6a6977	0.057229485
161	0xbcec4639	-0.028842079
162	0x3d42fdd0	0.047605336
163	0x3cd773ca	0.02630033
164	0x3d637889	0.055534873
165	0x3d31b8a1	0.043388966
166	0x3d44c2f9	0.048037503
167	0xbd57a81f	-0.052650567
168	0xbc8aa527	-0.016924454
169	0x3d1e569e	0.038656823
170	0x3c6a08ce	0.014284326
171	0x3d483781	0.048881058
172	0xbd6ec6cc	-0.058295056
173	0xbcf6dcf2	-0.030134652
174	0x3d1a4a10	0.037668288
175	0x3c92a1b1	0.017899366
176	0x3c85d601	0.016337397
177	0x3c631ddb	0.013862099
178	0x3bebb69b	0.007193399
179	0xbc68a61a	-0.014199758
180	0xbd2767a1	-0.040870313
181	0xbc6ebeec	-0.0145718865
182	0xbd00e724	-0.031470433
183	0xbd472409	-0.04861835
184	0xbc7255b1	-0.014790938
185	0xbd214c30	-0.0393793
186	0xbba73af5	-0.005103464
187	0x3d67a2cb	0.056551736
188	0xbc4571ca	-0.012051055
189	0x3cd9d541	0.026590945
190	0x3d2496d6	0.04018291
191	0x3cdc0f7a	0.026862849
192	0x3c75d782	0.015004994
193	0xbd1bd943	-0.038048994
194	0xbbea4516	-0.007149349
195	0xbc00c29c	-0.0078588985
196	0x3d58c7d7	0.052924957
197	0x3c5450a6	0.012958681
198	0xbd536cff	-0.05161762
199	0xbbad10c7	-0.005281541
200	0xbc90b361	-0.01766366
201	0xbbee5e6e	-0.0072744405
202	0xbd5e0863	-0.054207217
203	0xbcc7a842	-0.024372224
204	0xbd4d87cd	-0.050178338
205	0x3d561c48	0.052273065
206	0xbd0c7f37	-0.03430101
207	0x3d37438a	0.044742145
208	0xbd6fa894	-0.058510378
209	0x3d333e6a	0.043760695
210	0xb9700c4b	-0.00022892763
211	0xbb4f6a89	-0.0031649193
212	0xbcff7599	-0.031184005
213	0x3c46f140	0.012142479
214	0xbc90a48c	-0.017656587
215	0xbd4b7d0d	-0.049679805
216	0xbcc1515f	-0.023598371
217	0xbc04e8c5	-0.008112137
218	0x3c097047	0.008388585
219	0x3d1040b4	0.035217956
220	0x3c10cc38	0.008837752
221	0x3c68ddd1	0.014213041
222	0x3c9d2d78	0.01918672
223	0xbd43c79c	-0.047797784
224	0xbc84a589	-0.016192215
225	0xbd0b7753	-0.034049343
226	0xbc94cb14	-0.018163241
227	0x3d127bc2	0.035762556
228	0x3c6934a5	0.014233743
229	0x3cbaab0b	0.022786638
230	0x3d4efd69	0.05053464
231	0x3d02109b	0.031754117
232	0xbbf99cf2	-0.0076175863
233	0x3cde6d0e	0.02715161
234	0xbd5ac073	-0.05340619
235	0xbd6c10f6	-0.057633363
236	0xbd3137ba	-0.043266036
237	0x3c5496bd	0.012975392
238	0x3d2c8c3d	0.04212593
239	0xbd432529	-0.04764286
240	0xbcda4926	-0.026646208
241	0xbd22738d	-0.03966098
242	0x3d669408	0.056293517
243	0xbc64dded	-0.013968927
244	0xbcb31c62	-0.02186412
245	0xbd601b0f	-0.054713305
246	0x3d2c732c	0.042102024
247	0x3d4202df	0.04736602
248	0x3d5118cb	0.051049035
249	0x3c3223da	0.0108728055
250	0xbd0bb897	-0.034111585
251	0x3c0f35e5	0.008740877
252	0xbd11378b	-0.03545336
253	0x3c9c4bab	0.01907905
254	0xbd0d1ba8	-0.034450203
255	0x3b7e9316	0.0038844994

cnn.2.bias f4 [64]
0	0x3b85ec13	0.00408698
1	0x3d489537	0.048970427
2	0x3e0b8e05	0.13628395
3	0xbd04f6e6	-0.032462023
4	0xbcf5201e	-0.029922541
5	0x3c4dab9d	0.012553123
6	0x3dcecc78	0.10097593
7	0x3dccd2fb	0.10001179
8	0xbd0e809f	-0.03479063
9	0xbae34e7b	-0.0017342115
10	0xbd05d372	-0.032672353
11	0x3da72b00	0.081624985
12	0x3d4eff74	0.050536588
13	0x3e3424a0	0.17592096
14	0x3d4ba0e0	0.04971397
15	0x3ddf7dff	0.10912704
16	0x3c8540db	0.016266277
17	0xbd174bb7	-0.03693744
18	0x3c01bbd1	0.007918314
19	0xbd39784a	-0.045280732
20	0xbd2b0abd	-0.041758288
21	0xbcde661c	-0.027148299
22	0x3e19c97d	0.15018268
23	0xbc86cb65	-0.016454408
24	0x3cc3d49b	0.02390509
25	0x3d4da866	0.050209425
26	0xbc96c716	-0.018405478
27	0xbd03a1e0	-0.032136798
28	0xbd3eb0ef	-0.046555456
29	0x3d74adf3	0.059736203
30	0x3dab24f5	0.08356658
31	0xba56b820	-0.0008190889
32	0xbcf919b0	-0.030407757
33	0x3d986577	0.07441228
34	0x3e7187be	0.23586938
35	0x3d8bc911	0.0682546
36	0x3ddcbbfc	0.10778043
37	0x3d69d10b	0.057084125
38	0xbd42d7ba	-0.047569014
39	0x3bd6d24a	0.00655583
40	0x3c174102	0.009231808
41	0xbd63c81a	-0.055610754
42	0xbd6e946e	-0.058247022
43	0x3cf3d4e4	0.0297646
44	0x3dfacaa4	0.12245682
45	0xbd696b08	-0.05698684
46	0x3e100596	0.14064631
47	0x3c4d3157	0.012523971
48	0x3e35aaa6	0.17740878
49	0xbc5f6626	-0.013635194
50	0xbd23fd40	-0.04003644
51	0x3dde2dcb	0.10848578
52	0xbba67fc6	-0.0050811497
53	0x3d13921d	0.036028016
54	0x3d6b2910	0.057412207
55	0xbc043373	-0.008068907
56	0x3dcb2a36	0.099201605
57	0x3d44802f	0.047973808
58	0xbd078cc7	-0.03309324
59	0x3c8f9dd9	0.017531322
60	0x3cb6e401	0.022325518
61	0xbd38d1bd	-0.045121897
62	0x3d5b1c2f	0.053493675
63	0x3c5b4333	0.013382721

state_net.0.weight f4 [32, 4]
0	0x3e9ccad6	0.30623502
1	0x3e0d1910	0.13779092
2	0xbe891b40	-0.26778603
3	0xbeb137c6	-0.34612864
4	0x3e103021	0.1408086
5	0x3e81b3d0	0.253325
6	0x3effe5a7	0.49979898
7	0xbe38982d	-0.180268
8	0xbed7b35a	-0.42129022
9	0x3e65d708	0.22445309
10	0xbee5f952	-0.4491678
11	0xbeb2f0ec	-0.34949434
12	0xbde2fba8	-0.11083156
13	0x3e6c8944	0.23099238
14	0xbe8ccee6	-0.275016
15	0xbe1eb2fc	-0.15497965
16	0xbe733674	-0.23751241
17	0x3eee4e40	0.46544075
18	0xbe870240	-0.26368904
19	0xbece58fc	-0.40302265
20	0x3e16a5cd	0.14711685
21	0x3e065468	0.13118136
22	0x3d2bde47	0.041960027
23	0x3deba2d0	0.115056634
24	0x3e3d4bbc	0.18485922
25	0x3e3617af	0.17782472
26	0x3ecb7958	0.39741015
27	0x3eef6f96	0.4676482
28	0xbe496a35	-0.19669421
29	0x3e4bf1ea	0.19916502
30	0x3db3a7da	0.087722495
31	0x3e3731d1	0.17890097
32	0x3e6aa9f2	0.22916391
33	0x3ecafdee	0.39646858
34	0x3e93ac00	0.28842163
35	0xbe5eab7c	-0.21745104
36	0x3e333c9d	0.17503591
37	0x3da889eb	0.08229431
38	0x3ec99f7d	0.39379492
39	0xbee2ee89	-0.44322613
40	0xbef53622	-0.47892863
41	0x3dd00d20	0.101587534
42	0xbdafdd10	-0.08587086
43	0xbec4f320	-0.3846674
44	0xbeeeb630	-0.46623373
45	0xbe94843c	-0.29007137
46	0xbec58670	-0.3857913
47	0xbdfc6660	-0.12324214
48	0xbec6dad3	-0.38838825
49	0xbbf9cd51	-0.0076233526
50	0x3ef53b23	0.4789668
51	0x3ea88970	0.32917356
52	0xbeacbd4e	-0.33738178
53	0x3ef3b704	0.47600567
54	0xbe234934	-0.15945894
55	0xbedfab06	-0.43685168
56	0x3eaee8b0	0.341619
57	0xbcbdfa5e	-0.023190673
58	0xbf05ccd0	-0.52265644
59	0x3eb3ab3e	0.35091585
60	0x3e04f026	0.12982234
61	0x3ee60b51	0.4493051
62	0xbe97f0ca	-0.29675895
63	0x3e9cc48f	0.30618712
64	0x3e840b60	0.25789928
65	0x3e9ac75c	0.30230224
66	0x3eed4b45	0.4634649
67	0xbe9000d1	-0.28125623
68	0x3d8f7fce	0.07006799
69	0xbe6595ff	-0.224205
70	0xbdfa330d	-0.122167684
71	0x3eae7a3d	0.34077635
72	0x3e995890	0.2995038
73	0xbdccc7d7	-0.09999054
74	0xbead15cf	-0.338057
75	0x3eea9198	0.45814204
76	0xbe9ac5da	-0.30229074
77	0xbe9811f9	-0.29701212
78	0x3da78f8b	0.081816755
79	0x3dd4e292	0.10394777
80	0xbeeb8f40	-0.4600773
81	0x3d780ef8	0.06056115
82	0x3bb7507d	0.0055943117
83	0xbee8c791	-0.45464757
84	0xbef99fe7	-0.48754808
85	0x3e47053e	0.19435593
86	0x3ef34f13	0.47521266
87	0x3eb3b80f	0.35101363
88	0x3e03c674	0.12868673
89	0x3ec0c22e	0.37648147
90	0x3ea1ad42	0.31577498
91	0x3e301f76	0.17199501
92	0xbe809d32	-0.2511993
93	0xbefd9317	-0.49526283
94	0xbe0d8aa1	-0.13822414
95	0x3eeca898	0.46222377
96	0xbea522e0	-0.3225317
97	0x3ed994c3	0.4249631
98	0x3ee21ed1	0.44164136
99	0x3ed9e39c	0.42556465
100	0xbe16a238	-0.14710319
101	0xbd1ded80	-0.038556576
102	0x3d16b690	0.0367952
103	0xbaaec800	-0.0013334751
104	0xbefd2cd6	-0.4944827
105	0xbeaa226a	-0.3322938
106	0x3ee8255d	0.45341006
107	0xbee4453a	-0.44584066
108	0xbee78bd0	-0.45223856
109	0x3e0b4160	0.13599157
110	0x3b995d80	0.0046803355
111	0xbe33df3c	-0.17565626
112	0x3da41281	0.08011342
113	0x3d5f3bfc	0.054500565
114	0x3e92b3b9	0.28652743
115	0x3e656bb1	0.22404362
116	0x3e18f97e	0.14938924
117	0x3ef560e1	0.47925475
118	0xbee1dc4b	-0.44113383
119	0xbea45274	-0.32094157
120	0xbef75d56	-0.48313397
121	0xbeaf18f6	-0.3419873
122	0x3e7b1e00	0.24523163
123	0x3ead4724	0.33843338
124	0x3daa65fa	0.08320232
125	0xbdcd6e21	-0.10030771
126	0x3e0226aa	0.12710062
127	0xbd2ec636	-0.042669497

state_net.0.bias f4 [32]
0	0xbe8fe356	-0.2810313
1	0x3e3adf56	0.18249258
2	0x3c550a61	0.013002963
3	0xbeb581b8	-0.3545053
4	0xbdaf91f0	-0.08572757
5	0xbe007e60	-0.12548208
6	0x3e8fad17	0.28061745
7	0x3ee751c0	0.45179558
8	0xbd924fab	-0.07144102
9	0x3d7293e6	0.05922308
10	0xbea58036	-0.3232438
11	0xbe895734	-0.26824343
12	0x3ef75fb5	0.48315206
13	0xbec9361c	-0.39299095
14	0x3ed0205c	0.40649688
15	0xbe74ca02	-0.23905185
16	0x3e7a8bf1	0.24467446
17	0x3f00f2be	0.50370395
18	0xbd8f9b1d	-0.070120074
19	0x3e79371e	0.24337432
20	0x3ef2c543	0.47416124
21	0x3eeccc1e	0.4624948
22	0xbe4e2719	-0.20132102
23	0x3ebbbaaa	0.3666585
24	0xbd62821b	-0.05529986
25	0xbe92b57c	-0.28654087
26	0xbafc1874	-0.0019233362
27	0xbd94bb08	-0.07262236
28	0xbcd45734	-0.025920488
29	0xbcc24c6d	-0.023718083
30	0xbe9cf3e6	-0.3065483
31	0xbdaba046	-0.08380179

state_net.2.weight f4 [32, 32]
0	0x3e064be7	0.13114892
1	0xbdd69ec4	-0.10479501
2	0x3e23eccf	0.16008304
3	0xbd190a88	-0.03736356
4	0xbdab5d67	-0.083674245
5	0xbdeab2e8	-0.11459905
6	0xbde363db	-0.1110303
7	0x3dbab0da	0.09115763
8	0xbca5ed8c	-0.020254873
9	0xbd1f6229	-0.038911972
10	0x3d9616a3	0.07328536
11	0x3e287c9e	0.16453788
12	0xbc745f2f	-0.014915272
13	0x3e31473d	0.17312331
14	0xbd7f14af	-0.062275585
15	0x3cb2b568	0.021815017
16	0xbcb5eeb3	-0.022208547
17	0x3e0b4a23	0.136025
18	0x3e08baa4	0.13352448
19	0x3cea1075	0.0285723
20	0xbc9231e0	-0.017846048
21	0x3d86f9bb	0.06590601
22	0x3c13d52e	0.009022994
23	0xbb956505	-0.0045591616
24	0x3d59773a	0.05309222
25	0xbd401e5f	-0.046903964
26	0x3e318a6b	0.17337959
27	0x3c831207	0.015999807
28	0x3db6a0c8	0.08917385
29	0x3cc86213	0.024460828
30	0xbde47bf3	-0.11156454
31	0x3dae3186	0.085055396
32	0x3da278b2	0.07933177
33	0x3dbad51f	0.09122681
34	0xbe15e1cd	-0.14636917
35	0xbdd2ab88	-0.10286623
36	0x3d457cf6	0.048214875
37	0xbc83267a	-0.016009558
38	0x3e4b9e2b	0.19884555
39	0xbc2fada5	-0.010722552
40	0x3e089f57	0.13342033
41	0x3d4e4967	0.05036297
42	0xbe1a6ea9	-0.15081276
43	0xbe2f71ff	-0.1713333
44	0x3db52c6f	0.08846366
45	0xbd21273d	-0.03934406
46	0xbdb17dcd	-0.08666573
47	0xbd24c203	-0.040224086
48	0xbda18a8d	-0.078877546
49	0xbd78cb4e	-0.06074076
50	0x3daf7e90	0.08569062
51	0x3dd366e7	0.103223614
52	0x3e2daf8c	0.16961497
53	0xbd9f4580	-0.07776928
54	0xbbceff4c	-0.006317055
55	0xbda40cb1	-0.08010233
56	0x3e206214	0.15662414
57	0xbde15ccc	-0.11004028
58	0x3bc68a3e	0.00605896
59	0x3de0166c	0.10941777
60	0x3d707cf6	0.058712922
61	0xbc55a019	-0.013038659
62	0x3db894f1	0.09012783
63	0x3d048462	0.032352813
64	0x3dcedfd5	0.10101286
65	0xbd7cab8b	-0.061687034
66	0xbe10f627	-0.141564
67	0x3e071ce8	0.1319462
68	0xbde9e110	-0.114198804
69	0x3c5b91e0	0.0134014785
70	0x3d549e70	0.05190891
71	0x3e0289c2	0.12747863
72	0xbdcfc6e5	-0.10145358
73	0xbdf7bcee	-0.12096582
74	0x3b53fd62	0.0032347073
75	0xbe149afe	-0.1451225
76	0x3d67debc	0.0566089
77	0x3d23c177	0.039979424
78	0x3e2398bb	0.15976231
79	0xbd0f26d4	-0.03494914
80	0xbe19a306	-0.15003595
81	0x3d87e444	0.06635335
82	0x3dbeb18f	0.0931121
83	0xbda953be	-0.08267926
84	0x3c712151	0.014717416
85	0xbe1d534b	-0.15363805
86	0x3d880762	0.06642033
87	0x3c0d6ffc	0.008632656
88	0x3e13016e	0.14356014
89	0xbd4ab3f5	-0.049488027
90	0x3d9f246c	0.07770619
91	0x3e092fc2	0.13397124
92	0xbe2d79bd	-0.1694097
93	0xbd468d93	-0.04847486
94	0xbdd3ab67	-0.10335427
95	0x3c3469ae	0.011011524
96	0x3e30753d	0.17232223
97	0x3deb5df4	0.114925295
98	0xbdd6dcfc	-0.10491368
99	0xbdc039f8	-0.09386057
100	0xbd7dbb3f	-0.06194615
101	0xbcfbc059	-0.030731367
102	0x3e1cf1eb	0.1532666
103	0x3e311121	0.1729169
104	0xbdf9ae77	-0.1219148
105	0x3d0884e7	0.03332987
106	0x39c95ee9	0.0003840842
107	0xbdb74e3c	-0.08950469
108	0xbe259d3f	-0.16173266
109	0xbe1bd7b4	-0.15219003
110	0xbccdc29d	-0.025117213
111	0xbda73f61	-0.081663854
112	0xbbfb0ba3	-0.0076612993
113	0x3e0030c6	0.12518606
114	0xbe211505	-0.15730675
115	0xba01c108	-0.00049497234
116	0x3e09e7c7	0.13467322
117	0x3da002d8	0.078130424
118	0xbdd40a29	-0.103535004
119	0x3d1ed6e6	0.038779162
120	0xbde9d2d6	-0.11417167
121	0x3db0dfdc	0.08636448
122	0xbd7a422b	-0.06109826
123	0x3ddd2fee	0.108001575
124	0x3e11b3c4	0.14228731
125	0xbde1542a	-0.11002381
126	0x3d894946	0.06703429
127	0x3dd37daa	0.10326703
128	0xbdd193d1	-0.10233272
129	0x3d39ccaa	0.0453612
130	0x3c155659	0.009114825
131	0x3e13ab77	0.14420877
132	0x3dbc0374	0.09180346
133	0xbcddb1cf	-0.027062325
134	0x3ceb970b	0.028758546
135	0xbe11b3fa	-0.14228812
136	0x3de4be7b	0.11169144
137	0x3d39ab1c	0.0453292
138	0x3e345c60	0.17613363
139	0xbd2a76f1	-0.041617338
140	0xbd555705	-0.05208494
141	0xbe31baf8	-0.17356479
142	0xbe16af67	-0.14715348
143	0xbdeb7dc2	-0.11498596
144	0x3df6462b	0.12025102
145	0x3c7e51b3	0.015522408
146	0xbdb33ae8	-0.0875147
147	0xbe315565	-0.17317732
148	0xbe06204f	-0.13098262
149	0x3d7533f3	0.059863996
150	0xb929b4a2	-0.00016184387
151	0x3e2f88ef	0.1714208
152	0xbba5e83b	-0.0050630844
153	0x3d94f067	0.072724156
154	0x3d4e9647	0.050436284
155	0xbe14351f	-0.14473389
156	0x3c334cf6	0.010943642
157	0xbe09a1ed	-0.13440676
158	0x3e2c84db	0.16847555
159	0xbe109ed0	-0.14123082
160	0x3ddeba8a	0.10875423
161	0xbdcec132	-0.10095443
162	0xbd392fb5	-0.045211513
163	0xbd9bb3e5	-0.076026715
164	0x3d9f9617	0.07792299
165	0x3d0e685e	0.0347675
166	0x3dc60dc5	0.09670595
167	0x3e3e848f	0.18605255
168	0xbe174b88	-0.14774907
169	0x3affb600	0.0019509196
170	0xbe0d38bf	-0.13791178
171	0x3d69b755	0.057059605
172	0xbd85b659	-0.06528921
173	0x3cf30188	0.029663816
174	0x3d8920af	0.06695687
175	0x3e0709c5	0.1318732
176	0xbd83842a	-0.06421693
177	0x3e3437e5	0.17599447
178	0x3daa570c	0.08317384
179	0xbe1057fc	-0.14096063
180	0xbc84cf42	-0.01621211
181	0xbe1bec54	-0.15226871
182	0x3d92032d	0.07129512
183	0xbdcfb540	-0.101419926
184	0xbd2eb68e	-0.042654566
185	0xbdac40ef	-0.084108226
186	0x3d9fe00c	0.078064054
187	0x3e084161	0.1330619
188	0x3c0445aa	0.00807325
189	0xbd7620aa	-0.060089745
190	0xbe01d02c	-0.12677068
191	0x3e183690	0.14864564
192	0x3dd7a754	0.10529962
193	0xbe1e08cb	-0.15433042
194	0x3d9230f9	0.07138247
195	0x3cc78ba6	0.024358582
196	0xbe10c14b	-0.14136235
197	0xbe101878	-0.14071834
198	0x3e2c1a08	0.16806805
199	0xbde0e928	-0.10981971
200	0x3d9f6aae	0.077840194
201	0xbdcc9cf1	-0.09990872
202	0xbe303232	-0.17206648
203	0xbcb9a867	-0.022663308
204	0x3d3ce8ac	0.04612033
205	0xbdfdfd4f	-0.124018304
206	0x3d7dcb50	0.061961472
207	0x3daf7af4	0.08568373
208	0x3d941985	0.0723143
209	0x3dd33c48	0.10314232
210	0xbe1a952d	-0.15095969
211	0x3e20e8a9	0.15713753
212	0xbe212137	-0.15735327
213	0xbd26e9ad	-0.040750194
214	0x3c5da0ad	0.013527078
215	0xbd5dfce4	-0.054196253
216	0xbc2b820a	-0.010468015
217	0xbcf31423	-0.029672688
218	0xbe30c0a8	-0.17260993
219	0xbdd1d6ae	-0.10246025
220	0xbe0123e8	-0.12611353
221	0x3db63e05	0.08898548
222	0xbd61acae	-0.05509632
223	0x3de6ac35	0.11263315
224	0x3e0bc181	0.13648035
225	0xbe2eb14e	-0.17059824
226	0x3dc3a366	0.0955265
227	0xbd62c8a6	-0.055367135
228	0xbddb01b0	-0.10693681
229	0xbd3ae5ac	-0.04562919
230	0x3bcae432	0.006191754
231	0x3bee5f67	0.0072745564
232	0xbb98ac6b	-0.0046592257
233	0x3e1cdd4b	0.15318792
234	0x3dbf8e84	0.093533546
235	0x3ca3a211	0.01997474
236	0x3d1d2d4e	0.038373284
237	0x3e3435f6	0.1759871
238	0xbc85cd4a	-0.016333241
239	0xbdc86d9d	-0.09786532
240	0x3e26aec2	0.16277602
241	0x3c607d6f	0.013701781
242	0xbde60d2d	-0.11232982
243	0xbd61747c	-0.05504273
244	0x3de9845f	0.11402201
245	0xbd927e1b	-0.07152959
246	0xbe2cc5c2	-0.16872314
247	0xbd9ca78f	-0.07649147
248	0x3db80132	0.08984603
249	0xbd344cf8	-0.044018716
250	0xbc8c8c9a	-0.017156888
251	0xbd885deb	-0.066585384
252	0xbdacccfb	-0.084375344
253	0xbdb72de0	-0.08944297
254	0x3dd0c1bd	0.10193203
255	0x3d9137ad	0.070906974

state_net.2.bias f4 [32]
0	0x3e130b5f	0.14359806
1	0xbd9a724d	-0.075413324
2	0x3e0f38ec	0.13986558
3	0x3e075e94	0.13219672
4	0xbd7c31ee	-0.061571054
5	0x3c2d90ff	0.010593652
6	0x3db9a969	0.090655155
7	0xbd4aef8b	-0.049544852
8	0x3da051a8	0.07828075
9	0x3dad0b31	0.084494
10	0xbe016701	-0.12636949
11	0xbe273807	-0.16329966
12	0xbe2881bd	-0.16455741
13	0xbdb22803	-0.08699038
14	0xbdbf0c14	-0.093284756
15	0xbc95fa04	-0.018307693
16	0x3d294e61	0.041334514
17	0xbd3efd35	-0.046628196
18	0xbde23170	-0.11044586
19	0x3e0f53d5	0.13996823
20	0xbc9b5673	-0.01896212
21	0xbdbc3b68	-0.09191018
22	0x3e08238d	0.13294812
23	0x3e014ecd	0.12627716
24	0x3d8768fc	0.06611821
25	0xbe26a4fc	-0.16273874
26	0x3a48c20f	0.00076583115
27	0xbe0ce546	-0.13759336
28	0x3e237510	0.15962625
29	0x3db57fd8	0.08862275
30	0xbce9cc89	-0.028539913
31	0x3d683d95	0.056699354

shared_net.0.weight f4 [128, 1056]
0	0x3cc90ee8	0.02454324
1	0x3ae85121	0.0017724374
2	0xbb1c083c	-0.002380862
3	0xbcd0d765	-0.025493333
4	0x3cb7496a	0.022373874
5	0x3cde08d2	0.027103815
6	0x3c8616af	0.016368238
7	0xbc833b78	-0.016019568
8	0xbc9830cd	-0.018577958
9	0xbc8e9e3e	-0.01740944
10	0xbcd6502d	-0.026161278
11	0xbc591664	-0.013249967
12	0x3cbaea5f	0.022816835
13	0x3c44dc42	0.012015404
14	0xbcaca770	-0.021075934
15	0xbb49085e	-0.0030675153
16	0xbc22f72d	-0.009946627
17	0xbc3bc56a	-0.011460641
18	0xbc537632	-0.012906598
19	0x3cae3cda	0.02126925
20	0xbb4a1806	-0.0030837073
21	0x3b559c85	0.0032594514
22	0xba89ee64	-0.0010523316
23	0xbc929e74	-0.017897822
24	0x3cce79ef	0.025204627
25	0xbc16ed36	-0.009211829
26	0x3ae0bc75	0.0017146008
27	0x3c93f74e	0.01806226
28	0xbc5b4545	-0.013383214
29	0xbcb7d66f	-0.022441117
30	0x3ca22911	0.019794973
31	0x3b2a99e4	0.0026031667
32	0xbc2e89ec	-0.010653
33	0x3c5266bd	0.0128418775
34	0x3c75b6b9	0.014997178
35	0x3c7058c9	0.0146696055
36	0x3c168a28	0.009188212
37	0xbcd29dbe	-0.025709983
38	0xbcc9e597	-0.02464561
39	0x3c11cdda	0.0088991765
40	0xb80fd575	-3.4292654e-05
41	0x3b4cb5af	0.0031236222
42	0xbcf6765d	-0.030085737
43	0xbc9588b5	-0.018253664
44	0x3ccab9ee	0.024746861
45	0xbcc322c8	-0.023820296
46	0xbcd48954	-0.02594439
47	0xbc8c4b81	-0.017125847
48	0x3ce7e88c	0.02830913
49	0xbcd250b6	-0.025673252
50	0x3cd7c6d5	0.026339928
51	0xbc931996	-0.017956536
52	0x3cdcfe9a	0.026976872
53	0x3a62c7ec	0.00086510065
54	0xbc28f328	-0.010311879
55	0xbcd9cea8	-0.0265878
56	0x3cbb9af5	0.022901038
57	0x3b8b3f58	0.0042494945
58	0xbb4e52fb	-0.0031482566
59	0x3cb06099	0.021530436
60	0xbc3ab3aa	-0.011395374
61	0xbc88de1d	-0.016707474
62	0x3c7ca911	0.015421168
63	0xbc81e686	-0.015856992
64	0x3cd7eeb4	0.02635894
65	0xbc803ea7	-0.015654875
66	0xbcb4e0e9	-0.022079902
67	0xbcb530ed	-0.022118056
68	0x3cd3a6e9	0.025836425
69	0xbc1cf3ed	-0.009579641
70	0xbcd00b57	-0.025396032
71	0x3cb68d72	0.022284243
72	0x3a997f7b	0.0011710966
73	0xba9756ad	-0.0011546217
74	0xbc0bb304	-0.008526567
75	0x3c11455b	0.008866633
76	0xbba380c5	-0.0049897158
77	0x3bb805da	0.005615932
78	0xbc8434da	-0.016138483
79	0xbc911e1b	-0.01771455
80	0xb997f654	-0.00028984493
81	0x3c284731	0.01027088
82	0x3c8ca041	0.017166259
83	0xbba51e3c	-0.0050390046
84	0xbce11fd6	-0.027481
85	0x3c08e86d	0.008356196
86	0xbc1b0960	-0.009462684
87	0x3cd32ce8	0.025778249
88	0x3c852e2e	0.016257372
89	0xbcea2b14	-0.028584994
90	0x3bbb3e53	0.0057142167
91	0xbb3e8cd9	-0.002907565
92	0x3cf827d7	0.030292435
93	0x3cda0f91	0.02661875
94	0x3ca52d09	0.020163076
95	0xbc12139c	-0.008915808
96	0xbc5d7acc	-0.013518047
97	0xbc5c92c5	-0.013462727
98	0x3cd27cd1	0.025694283
99	0x3cbda4fa	0.023149956
100	0xbc015f0a	-0.007896194
101	0xbccd33de	-0.025049146
102	0xbcf7bcf9	-0.030241476
103	0x3c1d7da1	0.009612472
104	0xba15e0aa	-0.00057173765
105	0xba08b9ad	-0.0005215656
106	0x3c01abb2	0.0079144705
107	0x3cd60abc	0.026128165
108	0xb76e9bf3	-1.4222215e-05
109	0x3ce7fb77	0.02831815
110	0xbc43a56c	-0.011941295
111	0x3be8376f	0.0070866863
112	0x3cc0c370	0.023530692
113	0xbc9f712b	-0.019463142
114	0xbce719c9	-0.028210538
115	0xbc7a7004	-0.015285496
116	0x3c836335	0.016038517
117	0xbc9388d4	-0.01800958
118	0x3cc8cd41	0.024511935
119	0x3b1726c5	0.002306388
120	0xbc4fb9a7	-0.01267854
121	0x3c1d4c53	0.009600717
122	0x3c13173c	0.0089777075
123	0x3c8d2ea0	0.017234147
124	0xbc6245db	-0.0138106
125	0x3ce1cece	0.027564432
126	0xbc2d7a46	-0.010588234
127	0x3ccc50ad	0.024940813
128	0xbc95135b	-0.018197706
129	0xbcd87b48	-0.026425973
130	0xbbd65610	-0.006541021
131	0x3cf65702	0.030070785
132	0x3cd0d11c	0.025490336
133	0x3b26fb36	0.0025479323
134	0x3953fa9b	0.00020215886
135	0x3bfc8e4c	0.007707393
136	0x3c83cb8c	0.01608827
137	0x3b0c15e9	0.0021375364
138	0xbbb080fa	-0.005386469
139	0xbcc94a50	-0.024571568
140	0x3c61d012	0.013782518
141	0x3cb8df22	0.022567336
142	0xbce0085f	-0.027347742
143	0x3cc0f50c	0.023554347
144	0xbba805ad	-0.0051276297
145	0xbc2813d5	-0.010258635
146	0xbcd2216d	-0.025650704
147	0xbc58fee6	-0.013244366
148	0x3c99134b	0.018685957
149	0x3b1a01b1	0.0023499543
150	0xbcd73a0b	-0.026272794
151	0xbce7507c	-0.02823662
152	0xba552dd8	-0.00081321364
153	0xbbbaba8d	-0.005698508
154	0xb7f73ff9	-2.9474484e-05
155	0xbbab4a44	-0.005227359
156	0xbcee293d	-0.029072398
157	0xbcadae43	-0.021201259
158	0xbc14f8c2	-0.009092512
159	0x3cd712a9	0.026254015
160	0x3ca3d146	0.01999725
161	0x3c1388bb	0.009004767
162	0xbc3c724b	-0.011501859
163	0x3ca1e23e	0.019761201
164	0xbc8ddd3e	-0.01731741
165	0xbb57a4a0	-0.003290452
166	0x3c01c574	0.007920612
167	0xbcf8a59c	-0.030352406
168	0xbbb98a2b	-0.005662223
169	0xbb29fca8	-0.0025937948
170	0xbc09a4dd	-0.008401123
171	0x3bbdaa94	0.0057881568
172	0x3c2ce8b2	0.010553526
173	0xbc538f8c	-0.012912642
174	0xbcf4299d	-0.029804999
175	0xbc8b1f7a	-0.016982783
176	0xbaa30a39	-0.001243896
177	0xbcb5bc83	-0.022184616
178	0x3c418c5e	0.011813251
179	0x3c607bee	0.013701422
180	0x3c9ef502	0.019403938
181	0x3cbc51a6	0.022988152
182	0xbc2ed626	-0.010671174
183	0xbc7a0693	-0.0152603565
184	0xbca5b1d9	-0.020226406
185	0xbbc975b9	-0.006148067
186	0x3c1497a6	0.009069359
187	0xbc2be0a0	-0.0104905665
188	0xbce0d9fe	-0.027447697
189	0x3cf2ed38	0.02965413
190	0xbc19abef	-0.009379371
191	0x3c9e82f9	0.019349562
192	0x3bdd7c9c	0.0067592394
193	0xbc7101f2	-0.014709936
194	0xbc5472f5	-0.012966861
195	0xbc2b592d	-0.010458273
196	0xbce62fd4	-0.028098978
197	0xbbe34225	-0.0069353753
198	0x3ce4bb7e	0.027921434
199	0xbcb08de1	-0.021552028
200	0x3acb9586	0.0015532232
201	0x3cb27604	0.02178479
202	0xbc35ba2f	-0.011091753
203	0xbc91ad76	-0.017782908
204	0x3c7e355c	0.015515652
205	0x3cac3567	0.021021558
206	0xbcfbd2da	-0.03074019
207	0xbb9db2d7	-0.004812579
208	0x3ca2f563	0.0198924
209	0x3ccdcbd6	0.02512161
210	0xbc0002e9	-0.007813194
211	0x3c1d2192	0.009590523
212	0xbcce8425	-0.025209496
213	0x3cd5a903	0.026081568
214	0x3c9ad8f0	0.018902272
215	0xbcec9d3a	-0.028883565
216	0x3c4f9806	0.012670523
217	0x3c6cd54b	0.01445515
218	0x3b3f7e54	0.0029219585
219	0xbc6a7077	-0.01430904
220	0x3baa14a3	0.0051904484
221	0xbcff1660	-0.031138599
222	0x3cb07e79	0.021544682
223	0x39ef9ef9	0.00045704076
224	0x3c3f7386	0.011685258
225	0xbcfbceaa	-0.030738194
226	0xbc0f4e99	-0.0087467665
227	0x3c88a23b	0.01667892
228	0x3c951a74	0.01820109
229	0x3cab2a01	0.020894052
230	0xbcf93a22	-0.030423228
231	0xbc9f6f18	-0.019462153
232	0x3cbc8c38	0.02301608
233	0x3c9b89ff	0.0189867
234	0xbc7a0f8a	-0.015262494
235	0x3b63ca41	0.0034758004
236	0xbcd307e2	-0.025760595
237	0x3bf51aa7	0.007479984
238	0xbcf5284c	-0.029926442
239	0x3c39c533	0.01133852
240	0x3a629b5f	0.0008644368
241	0x3ad246c8	0.0016042823
242	0xbca95d45	-0.020674357
243	0xbc6b29c0	-0.014353216
244	0x3c97cb9b	0.018529704
245	0xbca9cd3e	-0.02072775
246	0xbc7ecae2	-0.015551301
247	0x3ce815ee	0.02833077
248	0xbcff031e	-0.031129416
249	0x3c202486	0.009774333
250	0xbc7a195b	-0.015264834
251	0xbce77984	-0.028256185
252	0x3c813b79	0.01577543
253	0x3c419de9	0.011817434
254	0xbcb9ae13	-0.022666013
255	0xbc50ba7e	-0.012739776

shared_net.0.bias f4 [128]
0	0x3c449512	0.011998432
1	0x3c357621	0.011075527
2	0xbc115cbe	-0.008872209
3	0x3c24786e	0.010038478
4	0xbbb11bae	-0.005404911
5	0xbd2104c8	-0.0393112
6	0xbce4b117	-0.027916474
7	0x3b4e9242	0.0031520282
8	0xbba3b5bc	-0.0049960297
9	0x3d52ce49	0.05146626
10	0xbc6fb98a	-0.014631638
11	0x3c77c17a	0.015121812
12	0xbcc27335	-0.023736576
13	0xbc8cd98f	-0.017193584
14	0xbc4c4e10	-0.012469783
15	0x3c56f3d6	0.013119658
16	0xbc4a9fed	-0.012367231
17	0x3c3584c5	0.011079018
18	0x3ddd0e4e	0.10793744
19	0xbcb44fdd	-0.022010738
20	0xbc85644b	-0.016283175
21	0xbc7b56bc	-0.015340503
22	0x3c86f915	0.016476193
23	0x3c5f75e1	0.013638944
24	0x39cf9941	0.000395963
25	0xbcf6ccb1	-0.030126901
26	0x3d12050a	0.035649337
27	0xbcc1c0e5	-0.02365155
28	0xba183483	-0.00058061647
29	0x3c3627e3	0.011117908
30	0x3d7929e9	0.060830984
31	0xbd0a8b18	-0.033824056
32	0x3b7316c0	0.0037092417
33	0xbca80064	-0.020507999
34	0x3bf9e084	0.0076256413
35	0x3c24f79a	0.010068798
36	0xbb16b49c	-0.0022995835
37	0xbcad2d47	-0.021139754
38	0x3d2b59d8	0.04183373
39	0x3d25945b	0.040424686
40	0x39e736d0	0.00044100592
41	0x3d32bd1b	0.043637376
42	0x3c7b0dab	0.015323083
43	0x3c6329ce	0.0138649475
44	0xba73abd0	-0.00092953164
45	0xba8eb2a0	-0.0010886975
46	0x3b6d0719	0.003616756
47	0x3c2981a9	0.010345855
48	0xbceb4244	-0.028718121
49	0xbce8b507	-0.028406633
50	0x3d184a69	0.037180338
51	0x3c152bd3	0.009104687
52	0x3d96f09c	0.07370111
53	0xbc47b06f	-0.012188061
54	0x3d74bfae	0.059753112
55	0xbc387b6f	-0.011259898
56	0xbc8e080a	-0.017337818
57	0xbafd7bc2	-0.0019339251
58	0xbbd8cedb	-0.006616456
59	0xbc810a7d	-0.015752072
60	0x3c8cb3c3	0.01717556
61	0xbc5f0238	-0.013611369
62	0xb920caf4	-0.00015334395
63	0xbb9177a5	-0.0044393116
64	0xbcb01329	-0.021493511
65	0xba93416d	-0.0011234708
66	0x3cbe1d45	0.023207316
67	0x3cb61ccf	0.022230534
68	0xbbc56ff3	-0.0060253083
69	0xbce4f858	-0.02795045
70	0xbc9d6450	-0.019212872
71	0x3cdf8867	0.027286721
72	0xbc855a55	-0.016278425
73	0xbcf965d3	-0.030444061
74	0xbc9e93cc	-0.019357584
75	0x3d3b3f0e	0.04571443
76	0xbbda9b84	-0.006671371
77	0xbc957ddc	-0.018248491
78	0x3bc77d70	0.0060879514
79	0x3d55374f	0.0520547
80	0x3aa845f6	0.0012838233
81	0x3dd979b2	0.10618915
82	0x3d3737e2	0.04473103
83	0xbcb39a26	-0.02192409
84	0xbcafbc6a	-0.021452148
85	0x3c737323	0.014858994
86	0xbb3233b5	-0.0027191464
87	0xbba3919f	-0.0049917246
88	0x3d33ebe3	0.04392613
89	0xbca16be8	-0.019704774
90	0xbcf568ff	-0.029957293
91	0xbc3e1b47	-0.011603183
92	0xbcff8543	-0.031191474
93	0xbcc884af	-0.024477331
94	0x3d8841f0	0.066532016
95	0xbc932d9b	-0.017966082
96	0x3cdfd85a	0.027324844
97	0x3db67249	0.08908517
98	0xbcd4e785	-0.025989303
99	0xbc39af84	-0.01133335
100	0x3c586ee4	0.013210032
101	0xbb634f46	-0.0034684702
102	0x3cf70ce4	0.030157514
103	0x3d92eca4	0.07174042
104	0xbcd61359	-0.026132273
105	0x3d752d9d	0.059857953
106	0x3bd6f234	0.0065596346
107	0xbc88ce74	-0.016700007
108	0xbc83e650	-0.016101032
109	0xbc62c0cf	-0.013839914
110	0x3cd8e994	0.026478566
111	0x3cacec31	0.021108719
112	0xbc8536e9	-0.016261535
113	0x3ab929ac	0.0014126799
114	0x3d16a6d9	0.036780212
115	0x3cd83475	0.026392201
116	0x3c9831f5	0.018578509
117	0x3d449937	0.04799768
118	0xbcc9f134	-0.024651147
119	0x3c1579a3	0.009123239
120	0xbbbcd789	-0.0057629985
121	0xbbd33ea1	-0.006446675
122	0x3d7b6ba5	0.061381955
123	0x3c17da90	0.009268418
124	0xbcb9976e	-0.022655215
125	0xbb8ca7bd	-0.004292457
126	0x3d963da8	0.07335979
127	0x3ad5a55d	0.0016299892

shared_net.2.weight f4 [64, 128]
0	0xbce4f3e9	-0.027948337
1	0xbc8e406b	-0.017364701
2	0xbcab769a	-0.020930577
3	0x3d41e6b4	0.047339156
4	0xbd22f180	-0.039781094
5	0xba1d5487	-0.000600167
6	0xbd90010a	-0.07031448
7	0x3ca27191	0.019829543
8	0xbc639ff6	-0.013893118
9	0xbcdaca09	-0.026707666
10	0x3bab9e22	0.0052373568
11	0xbd89d762	-0.06730534
12	0x3d47f763	0.04881991
13	0xbcf20ac6	-0.029546153
14	0xbd921ad7	-0.071340255
15	0x3cfd58e0	0.030926168
16	0xbc285c8f	-0.010275974
17	0xbbc527bb	-0.006016699
18	0xbd007d96	-0.031369768
19	0x3cdb4c8c	0.026769899
20	0x3c84ee58	0.016226932
21	0xbd16f2ce	-0.03685265
22	0xbd516ffc	-0.051132187
23	0xbdb51529	-0.088419266
24	0x3d860509	0.06543929
25	0xbd8380a8	-0.064210236
26	0x3d7789e4	0.060434237
27	0xbd116db9	-0.03550503
28	0x3d4f0941	0.050545935
29	0xbdac684c	-0.084183306
30	0xbd03db24	-0.03219141
31	0xbda29d65	-0.07940177
32	0xbd406504	-0.046971336
33	0xbd4d85c8	-0.050176412
34	0xbd316c2d	-0.043316055
35	0x3d99b9bf	0.075061314
36	0x3d314112	0.043274947
37	0x3d40a04c	0.04702787
38	0x3d4dc2fd	0.050234783
39	0x3d8e517c	0.06949136
40	0xbd810a77	-0.06300824
41	0xbbc0f08a	-0.0058880495
42	0x3d0f52ec	0.03499119
43	0x3d47d773	0.048789453
44	0x3d954eb5	0.07290403
45	0xbcac353c	-0.021021478
46	0xbd441d99	-0.04787979
47	0x3d9921cf	0.074771516
48	0x3d69939d	0.05702554
49	0x3c997833	0.018734073
50	0xbd3bf862	-0.045891173
51	0x3d38ddf6	0.045133553
52	0x3d69c711	0.05707461
53	0x3d6bc034	0.057556346
54	0xbce4a886	-0.02791239
55	0x3bc65f9d	0.0060538785
56	0xbaa661f1	-0.0012693984
57	0x3d263b1e	0.040583722
58	0xbd1af8da	-0.03783498
59	0xbd1fea1e	-0.03904163
60	0x3d9de39e	0.0770943
61	0x3d2d16be	0.042258017
62	0xbd42bcb3	-0.04754324
63	0x3da8f69c	0.08250162
64	0x3d1de638	0.03854963
65	0xbda71e28	-0.08160049
66	0xbd9f0798	-0.0776512
67	0xbc8be7d2	-0.017078314
68	0xbcaf1d99	-0.021376418
69	0xbd97c27b	-0.07410141
70	0x3dabd488	0.083901465
71	0xbdae922a	-0.08523972
72	0xbb958959	-0.0045634923
73	0x3d1a6693	0.03769548
74	0xbd39336c	-0.045215055
75	0x3d974c2f	0.07387578
76	0xbce0a7e3	-0.027423805
77	0xbcd31a1e	-0.02576929
78	0xbd01953b	-0.031636458
79	0xbcae183a	-0.021251787
80	0xbda6588d	-0.081223585
81	0xbda63fd4	-0.08117643
82	0xbd96976d	-0.07353101
83	0xbd93cb0a	-0.07216461
84	0x3ccb4972	0.024815295
85	0x3dadfd8e	0.08495627
86	0x3afb7a9d	0.0019186322
87	0x3d2bb3b4	0.041919425
88	0x3d0772a2	0.033068307
89	0x3cb7b9b1	0.022427412
90	0x3d1d3ea6	0.038389824
91	0xbd8b7852	-0.06810059
92	0xbd98f3ee	-0.07468401
93	0x3d35db75	0.044398744
94	0x3d1ae0d2	0.03781206
95	0x3d4e4404	0.050357834
96	0x3d591a03	0.053003322
97	0xbb9d41a3	-0.0047990843
98	0xbbde0ffd	-0.0067768083
99	0x3d10198a	0.035180606
100	0x3ca6eb79	0.020375954
101	0x3d426b74	0.047465757
102	0x3d9eaa75	0.07747356
103	0xbc50da22	-0.012747319
104	0x3bb964d4	0.0056577716
105	0x3d70cbe4	0.058788195
106	0xbd9b2b31	-0.075765975
107	0xbca02cd0	-0.019552618
108	0xbd64d4e4	-0.05586709
109	0x3cd0d945	0.025494227
110	0x3cfe01e6	0.031006765
111	0xbd280ad4	-0.04102595
112	0x3ce628d5	0.028095642
113	0xbcadb559	-0.021204637
114	0xbd579afc	-0.05263804
115	0x39887de4	0.00026033737
116	0xbbe1a202	-0.006885768
117	0x3cfe5dad	0.031050527
118	0xbd098ccc	-0.03358154
119	0xbcaeb01b	-0.021324208
120	0xbd566ae0	-0.052348018
121	0x3dadbf23	0.08483722
122	0xbbe15b2a	-0.0068773227
123	0xbdb333fc	-0.087501496
124	0xbdad1cd8	-0.08452767
125	0x3d3dbe5e	0.046324126
126	0xbc6da042	-0.0145035405
127	0xbda9e220	-0.08295083
128	0xbd038d1c	-0.032116994
129	0xbcc088b9	-0.023502694
130	0xbd438233	-0.04773159
131	0xbd34551d	-0.044026483
132	0x3d6ca5c0	0.05777526
133	0x3cd43275	0.025902966
134	0x3da4bb83	0.080435775
135	0x3ac6fd63	0.0015181716
136	0x3d6153dc	0.055011615
137	0x3d273bc2	0.040828474
138	0x3c4dbdbb	0.012557442
139	0x3c4912ad	0.012272519
140	0x3b1852a4	0.0023242617
141	0xbdb3e08e	-0.08783065
142	0x3d2c12b8	0.04201004
143	0x3d9a5e93	0.0753757
144	0xbc63e0a9	-0.013908544
145	0xbdab8f18	-0.08376902
146	0xbabedd3c	-0.0014561783
147	0x39ed21f0	0.00045229448
148	0xbd1a26f1	-0.037634794
149	0xbdacec97	-0.084435634
150	0x3d85bac9	0.06529767
151	0xbd81c0ef	-0.06335627
152	0x3d6eae96	0.058271967
153	0xbd0d31d1	-0.034471337
154	0xbdaad259	-0.08340902
155	0x3d93dfb9	0.07220406
156	0xbcd0c88a	-0.02548625
157	0x3d8fc3e7	0.07019787
158	0xbd390464	-0.045170203
159	0x3b4d424f	0.003132004
160	0xbca76558	-0.020434067
161	0xbd1a0090	-0.037598193
162	0xbc8d1fb2	-0.017227028
163	0x3da1503f	0.07876634
164	0xbae5a6df	-0.0017521045
165	0xbd34f296	-0.04417666
166	0x3d5eb8c4	0.054375425
167	0xbca133a8	-0.019677952
168	0xbcb9b0c1	-0.02266729
169	0x3cc71b6f	0.024305074
170	0xbdac3787	-0.084090285
171	0x3c979acb	0.018506428
172	0xbcc053e3	-0.0234775
173	0x3d85dc44	0.06536153
174	0x3c8aaee6	0.016929101
175	0x3d8ae34a	0.06781633
176	0x3d229d03	0.03970052
177	0xbce5db0a	-0.028058548
178	0x3cfa57b9	0.030559408
179	0xbdac4b66	-0.084128186
180	0x3d3766ba	0.044775702
181	0xbd014e4f	-0.03156882
182	0xbd17718f	-0.036973532
183	0xbd662e50	-0.05619651
184	0x3d9f8e46	0.077908084
185	0xbd147563	-0.03624476
186	0x3d88db4e	0.06682454
187	0x3bc7e46f	0.0061002295
188	0x3d7fb00c	0.06242375
189	0x3d032029	0.032013092
190	0xbce3341a	-0.027734805
191	0x3ca6d6d9	0.02036612
192	0xbca822f1	-0.020524474
193	0x3daaa84d	0.08332882
194	0x3c8f9dc6	0.017531287
195	0xbd0c6703	-0.034277927
196	0x3c9a075e	0.018802341
197	0x3c15c8f1	0.009142146
198	0x3daff914	0.0859243
199	0x3d4b97b5	0.049705226
200	0xbd99fca8	-0.075188935
201	0x3d3b8377	0.04577967
202	0xbab676c4	-0.0013920893
203	0x3d8429b8	0.0645327
204	0x3b9f9d3a	0.004871038
205	0x3d2a1d5c	0.041531906
206	0xbd996631	-0.074901946
207	0xbbe0deee	-0.006862513
208	0x3d1c58c0	0.038170576
209	0xbda91e56	-0.08257739
210	0xbcc211c0	-0.023690104
211	0x3b4340ac	0.0029793186
212	0x3d081bd3	0.03322966
213	0x3d0e58cb	0.03475265
214	0x3d9cd575	0.07657901
215	0x3d1df1ec	0.038560793
216	0x3d7107e2	0.05884541
217	0xbdae3116	-0.08505456
218	0xbd143bb9	-0.03618977
219	0x3d677c92	0.056515284
220	0xbca51972	-0.020153735
221	0x3bfb3308	0.0076659955
222	0xbd84094a	-0.06447084
223	0xbca60403	-0.020265585
224	0x3d85fe53	0.06542649
225	0x3d1e62b8	0.038668364
226	0x3d7c2d76	0.061566792
227	0x3d364d03	0.044507038
228	0x3d8a9bc7	0.067679934
229	0x3cc790b0	0.024360985
230	0xbcf47e6b	-0.029845437
231	0x3d6c18c5	0.05764081
232	0xbd937ebd	-0.07201908
233	0x3ca3e561	0.020006837
234	0xbd010906	-0.031502746
235	0xbd5b72bd	-0.05357622
236	0x3cf1ea0c	0.029530548
237	0xbdb1c966	-0.08680992
238	0xbd69a25a	-0.057039596
239	0xbdac1424	-0.08402279
240	0xbce74019	-0.028228806
241	0x3db24c5b	0.0870597
242	0xbd2d5ec9	-0.042326722
243	0xbdb06a4c	-0.086140245
244	0xbca6f7db	-0.020381859
245	0x3d44d824	0.04805769
246	0x3d98c0bb	0.074586354
247	0xbd9047ac	-0.0704492
248	0xbd76a322	-0.06021417
249	0xbd4337b6	-0.047660552
250	0x3ce2ebb1	0.027700277
251	0xbd1df729	-0.03856579
252	0xba8e509e	-0.0010857766
253	0xbb8770ce	-0.0041333204
254	0xbd8b26cc	-0.06794509
255	0x3da7f76f	0.08201491

shared_net.2.bias f4 [64]
0	0x3bfb503c	0.007669477
1	0xbd5a5a9c	-0.053309068
2	0x3d911978	0.07084936
3	0x3bc8809a	0.006118846
4	0x3e668072	0.22509935
5	0xbd19a696	-0.037512384
6	0x3e1c92ce	0.15290377
7	0x3bf35b8e	0.0074266857
8	0x3d4f7363	0.05064715
9	0xbd5c9c91	-0.05386025
10	0x3d55e047	0.05221584
11	0x3dbd9ba3	0.09258201
12	0xbd7e6f0a	-0.062117614
13	0xbdaf3f91	-0.08557046
14	0xbc68428b	-0.014176021
15	0xbd9c878e	-0.076430425
16	0x3d2fbcd7	0.0429047
17	0xbc32dd54	-0.010917027
18	0x3d48937a	0.04896877
19	0xbda50056	-0.08056705
20	0x3c8ba1ad	0.017044866
21	0x3e493867	0.19650422
22	0xbd878973	-0.06618013
23	0xbd570b17	-0.05250081
24	0x3dca5694	0.09879795
25	0xbd9885dc	-0.07447407
26	0x3ea206ea	0.316459
27	0x3cf39c2e	0.029737558
28	0xbcdbb03d	-0.026817435
29	0xbdcbbbba	-0.099479154
30	0xbb733064	-0.00371077
31	0xbdb0ba6c	-0.08629307
32	0xbd4ff7a7	-0.05077329
33	0x3d8ccd23	0.06875064
34	0x3c3a555b	0.011372889
35	0xbdb7cf3a	-0.08975072
36	0x3e97090d	0.29499093
37	0xbca8e1b9	-0.020615445
38	0x3d8fdb4c	0.070242494
39	0xbd24350e	-0.04008966
40	0xbccf1590	-0.025278836
41	0xbd628f80	-0.055312634
42	0x3d03ea79	0.032206032
43	0xbc136458	-0.008996092
44	0x3e145de7	0.14488946
45	0x3e0b8def	0.13628362
46	0x3dd77445	0.105202235
47	0x3c4c38aa	0.012464682
48	0xbd9e764a	-0.077374056
49	0x3d6dde5d	0.05807339
50	0x3cc73cad	0.024320925
51	0x3ce5d48d	0.028055454
52	0x3d4bb0f4	0.049729303
53	0xbda0aef7	-0.07845872
54	0xbd94c496	-0.07264058
55	0xbc4f5cf6	-0.012656441
56	0x3caf4abd	0.021397943
57	0xbd565689	-0.05232862
58	0x3cb5145f	0.02210444
59	0x3e1cbeba	0.15307131
60	0xbd9ab793	-0.07554545
61	0xbc97bb19	-0.018521832
62	0x3cffb521	0.031214299
63	0x3d8df663	0.0693176
