logs/20250602_090044/best_model.pt (torch, 694965 bytes, 19 tensors)

cnn.0.weight f4 [32, 1, 3, 3]
0	0xbe4c90fd	-0.19977184
1	0x3e84f0e9	0.2596505
2	0x3d3ca58f	0.046056326
3	0x3ce4e535	0.027941326
4	0xbe76d9e4	-0.24106556
5	0x3e9b5686	0.3033945
6	0x3d3ae4be	0.0456283
7	0xbe256531	-0.16151883
8	0xbe8aba1c	-0.27095115
9	0xbcdfa736	-0.027301412
10	0xbde8db9d	-0.11370013
11	0xbe15d815	-0.1463321
12	0x3e449d87	0.19200717
13	0xbe5b8096	-0.2143577
14	0xbe261e2f	-0.16222452
15	0x3d8a6b97	0.067588024
16	0x3db1ace0	0.086755514
17	0xbeaa71df	-0.33290002
18	0x3e91f20e	0.28504986
19	0x3e885f3b	0.26635155
20	0x3d3c95e6	0.04604139
21	0xbdc86017	-0.09783953
22	0x3e504c55	0.20341618
23	0x3ea06f44	0.3133489
24	0xbd87ba55	-0.06627337
25	0x3e7199e4	0.23593861
26	0xbe6806f6	-0.22658905
27	0x3e8f451a	0.27982408
28	0x3e96cfee	0.29455513
29	0xbe903db6	-0.28172082
30	0xbd810ff0	-0.06301868
31	0xbd4903b6	-0.049075805
32	0xbc210aab	-0.009829204
33	0xbde8e080	-0.11370945
34	0x3de49506	0.111612365
35	0x3e9217a4	0.2853366
36	0x3e9f5f21	0.31127265
37	0xbe8c4a33	-0.2740036
38	0xbe0bb40c	-0.13642901
39	0xbcaa647a	-0.020799864
40	0xbe5d3718	-0.21603048
41	0xbe86d814	-0.2633673
42	0x3c19553d	0.009358701
43	0xbe1d77b3	-0.15377693
44	0xbd9f5e1d	-0.077816226
45	0x3e90dc7b	0.28293213
46	0x3c68c656	0.014207443
47	0xbe23712e	-0.15961143
48	0x3de3dd30	0.111261725
49	0x3e4fd0c6	0.20294484
50	0xbd1f7c80	-0.03893709
51	0xbe320f46	-0.17388639
52	0xbe5c5e13	-0.21520261
53	0x3e91743b	0.2840899
54	0xbd98c8d0	-0.07460177
55	0xbe4c55b6	-0.19954571
56	0xbd589916	-0.05288037
57	0xbe59b5e3	-0.2126079
58	0xbe4b1f40	-0.1983614
59	0xbd74da56	-0.059778534
60	0xbe8c2267	-0.27369997
61	0xbc7d4080	-0.0154572725
62	0xbdfbfc70	-0.12304008
63	0x3dc0cf4a	0.09414537
64	0xbc55327b	-0.013012524
65	0x3e8976cb	0.26848444
66	0xbe0e5709	-0.13900389
67	0x3e11f85d	0.142549
68	0xbc5a76e6	-0.013334012
69	0xbe8f3732	-0.27971798
70	0x3cf8fea2	0.030394856
71	0xbe870bf5	-0.2637631
72	0x3d98d2a5	0.07462052
73	0xbd413473	-0.04716916
74	0x3d02e136	0.03195306
75	0xbea7f7d3	-0.32806262
76	0xbe6dd30d	-0.2322504
77	0x3e649737	0.22323309
78	0x3e5535c2	0.20821288
79	0xbe626f43	-0.22112755
80	0x3e6278bc	0.22116369
81	0xbe2c7b2e	-0.16843864
82	0x3e74868e	0.23879454
83	0xbe2ee0ce	-0.17077944
84	0x3e0ffec0	0.14062023
85	0xbd98feb6	-0.07470457
86	0x3e927b32	0.28609616
87	0x3e1cdcd3	0.15318613
88	0xbe6dfb7b	-0.23240463
89	0xbd03f80b	-0.032218974
90	0xbe5a30a3	-0.21307616
91	0xbdb92106	-0.09039502
92	0x3e96297a	0.2932852
93	0xbea7c03f	-0.3276386
94	0xbe8d8f2f	-0.27648303
95	0x3c8dda56	0.017316025
96	0x3cc13c96	0.02358846
97	0xbe831d14	-0.25608122
98	0xbe7e8a5e	-0.2485747
99	0xbda1a94b	-0.07893618
100	0x3e177908	0.14792264
101	0x3ce2d716	0.027690452
102	0xbe72ffb8	-0.23730361
103	0xbe557173	-0.20844059
104	0xbea06d03	-0.3133317
105	0x3e4e4bb6	0.20146069
106	0x3dd3f82b	0.10350069
107	0xbe8ab5d4	-0.2709185
108	0x3e24babe	0.16086861
109	0xbea7f63e	-0.32805055
110	0x3df19824	0.11796597
111	0x3de25f74	0.110533625
112	0xbd38084e	-0.044929795
113	0x3e0ce824	0.1376043
114	0xbe27bb23	-0.1637998
115	0x3e854b74	0.2603413
116	0x3dd83a80	0.10558033
117	0xbe1989e3	-0.14994006
118	0xbbfa0d01	-0.0076309447
119	0xbe41a46b	-0.18910377
120	0x3d8e84a4	0.06958893
121	0xbea13276	-0.3148381
122	0xbe2e2f56	-0.17010245
123	0xbe5e2bd2	-0.21696404
124	0x3e5bc0dc	0.21460289
125	0xbe9c8ee4	-0.30577767
126	0xbea18b6b	-0.3155168
127	0x3c0cc600	0.008592129
128	0xbe53c66e	-0.20681164
129	0x3e0a3348	0.13496125
130	0x3e8401b6	0.25782555
131	0xbd7ca300	-0.061678886
132	0xbdaf16f0	-0.08549297
133	0x3e420b5e	0.18949649
134	0x3e03880e	0.1284487
135	0xbe8af518	-0.27140117
136	0xbe5bd3f8	-0.21467578
137	0x3e6479ef	0.22312139
138	0xbe1933cb	-0.14961164
139	0xbdf7ae2b	-0.12093767
140	0x3e7dfa63	0.24802546
141	0x3e158fee	0.14605686
142	0xbe80bff4	-0.2514645
143	0xbdef236b	-0.11676677
144	0x3e5e6d7a	0.2172145
145	0x3e690da2	0.22759107
146	0xbd98ce0f	-0.074611776
147	0xbd5ec418	-0.05438623
148	0x3da4f202	0.08053972
149	0x3e0e635e	0.13905093
150	0xbde2721b	-0.1105692
151	0x3e352d60	0.1769309
152	0xbe315779	-0.17318524
153	0x3c4cb5c1	0.012494505
154	0x3c2839c3	0.010267678
155	0xbe8bf4b5	-0.27335134
156	0xbd5a7539	-0.05333445
157	0xbc93e497	-0.018053336
158	0x3e345040	0.17608738
159	0x3ddc5a82	0.107594505
160	0x3e73551d	0.23762937
161	0xbd7eb4f7	-0.0621843
162	0xbd5f14a0	-0.05446303
163	0xbde2449b	-0.11048242
164	0xbd9de71b	-0.077100955
165	0x3e072003	0.13195805
166	0xbe95cde0	-0.29258633
167	0x3c016f2b	0.00790004
168	0xbe0ad13b	-0.13556378
169	0xbdf52f50	-0.11971915
170	0xbe68286b	-0.22671668
171	0x3e067a6b	0.13132636
172	0x3cf4e400	0.029893875
173	0xbd9953eb	-0.07486709
174	0xbe85bb93	-0.2611967
175	0xbe788a58	-0.24271524
176	0xbe3be34e	-0.18348429
177	0x3db00c50	0.085960984
178	0x3ab710e0	0.0013966821
179	0x3e9c847b	0.30569825
180	0xbe9f54f6	-0.31119508
181	0xbdb13c30	-0.08654058
182	0x3e635c4b	0.22203176
183	0xbd7d0db6	-0.061780654
184	0xbcddbaab	-0.02706655
185	0x3e29afc0	0.1657095
186	0xbc2c532b	-0.010517876
187	0x3e10d1ab	0.14142482
188	0x3e28bd80	0.16478539
189	0xbca1d1e9	-0.019753413
190	0x3e0b8bc7	0.1362754
191	0x3e9d7adf	0.30757806
192	0xbe5d35c1	-0.21602537
193	0xbe01efcf	-0.12689136
194	0x3aaf5b86	0.0013378717
195	0x3e674ac6	0.22587118
196	0xbe1a44a4	-0.15065247
197	0x3e46534b	0.19367711
198	0xbdf6fb56	-0.12059657
199	0xbe8bc7e8	-0.27300954
200	0x3e90010c	0.281258
201	0x3bb47c56	0.005507986
202	0xbe957f60	-0.29198742
203	0x3d899956	0.067187
204	0xbdd2a2c6	-0.10284953
205	0xbdfed94b	-0.12443789
206	0xbe8c9eca	-0.27464896
207	0x3e90f991	0.28315404
208	0xbe13da2c	-0.14438695
209	0xbe584031	-0.21118237
210	0xbdee96fe	-0.11649893
211	0xbe5ccc04	-0.21562201
212	0x3e92c070	0.28662443
213	0xbe15d4d4	-0.14631969
214	0x3d6b5786	0.057456516
215	0xbe17c9ca	-0.1482307
216	0xbdb5d41e	-0.08878349
217	0x3df2f244	0.11862615
218	0x3e825e18	0.25462413
219	0x3e6965ce	0.22792742
220	0x3dc4283a	0.09577985
221	0xbe948d1a	-0.29013902
222	0x3e4580ca	0.1928741
223	0x3e973406	0.29531878
224	0xbe365961	-0.17807533
225	0xbdf6cf30	-0.12051237
226	0xbdc2a610	-0.0950433
227	0x3e27525e	0.16340014
228	0x3e2b11e8	0.1670605
229	0xbe85c5e3	-0.26127538
230	0xbe7df028	-0.24798644
231	0xbea6f090	-0.3260541
232	0x3ea1c3b0	0.3159461
233	0xbe8a3d62	-0.26999956
234	0x3e127533	0.1430252
235	0xbea3b86f	-0.3197665
236	0x3d25f9cb	0.040521424
237	0xbe970c0a	-0.29501373
238	0x3e85bd6e	0.26121086
239	0x3e1cdd60	0.15318823
240	0x3dc6b7a6	0.09702997
241	0xbe9a875c	-0.30181396
242	0x3e8536cc	0.2601837
243	0x3ddf5d35	0.1090645
244	0xbe4bbea4	-0.19896942
245	0xbc322cd2	-0.010874944
246	0x3c6c174b	0.01440985
247	0x3db988aa	0.0905927
248	0x3e43a8ad	0.19107313
249	0x3da14d1f	0.07876038
250	0x3e4e3bb4	0.20139962
251	0x3dbafdd4	0.09130445
252	0x3d94be5d	0.072628714
253	0x3e03793b	0.12839215
254	0xbdae85cb	-0.08521613
255	0xbe27c49f	-0.16383599

cnn.0.bias f4 [32]
0	0x3e8ff924	0.28119767
1	0x3eab6ef8	0.334831
2	0x3da776b3	0.08176937
3	0xbe240139	-0.16016091
4	0x3e1737ce	0.14767382
5	0xbe5d094e	-0.2158558
6	0xbe4ae213	-0.19812803
7	0x3ea76411	0.32693532
8	0x3e791c60	0.2432723
9	0xbe6dcbab	-0.23222224
10	0xbe66db88	-0.22544682
11	0xbdc11686	-0.09428124
12	0x3de275a0	0.110575914
13	0x3e8bbe5c	0.2729367
14	0xbe2258e3	-0.1585422
15	0xbb9cc3a3	-0.004784064
16	0x3eb7835f	0.35842416
17	0x3ea7b5ca	0.32755882
18	0xbe9a7ee0	-0.30174923
19	0xbdd9c8d6	-0.106340095
20	0xbe96ba70	-0.29439116
21	0x3e81caee	0.25350136
22	0xbea49a5c	-0.32149017
23	0x3e897c19	0.26852491
24	0x3dc2ea1b	0.09517308
25	0xbdfd1396	-0.12357251
26	0xbd62f264	-0.055406943
27	0x3e873861	0.264102
28	0x3e9dc345	0.3081304
29	0xbe51de50	-0.20494962
30	0xbe34f7b8	-0.17672622
31	0xbdcffe4b	-0.101559244

cnn.2.weight f4 [64, 32, 3, 3]
0	0xbc856796	-0.016284745
1	0xbd4feb00	-0.050761223
2	0x3d0e1adb	0.03469358
3	0xbd2358d6	-0.039879642
4	0xbd4b5265	-0.049639124
5	0xb98ba74c	-0.00026636792
6	0x3d122b2a	0.035685696
7	0x3c74a913	0.014932889
8	0x3cbc6f46	0.023002278
9	0x3d3158d3	0.0432976
10	0x3d1a2ed4	0.037642315
11	0xbc8b9e31	-0.017043205
12	0x3d2f9eef	0.04287618
13	0xbd04a260	-0.032381415
14	0xbcdf7df9	-0.027281748
15	0xbb4671c3	-0.003028021
16	0x3d2bb83a	0.04192374
17	0xbcc43c16	-0.023954432
18	0x3c70ce5a	0.014697636
19	0x3cd5ad06	0.02608348
20	0x3d2f3929	0.04277912
21	0x3cc20404	0.023683555
22	0xbd0ed7bd	-0.034873713
23	0xbd0e897c	-0.034799084
24	0x3d44a8c6	0.048012517
25	0x3ce18f3a	0.027534116
26	0xbcc643ff	-0.024202345
27	0x3d55a6da	0.052161075
28	0x3ce47803	0.027889257
29	0x3cfabac7	0.03060664
30	0xbc550c00	-0.013003349
31	0xbd35b585	-0.044362564
32	0x3d26e93f	0.040749785
33	0x3d6bd901	0.057579998
34	0x3d69ed1e	0.0571109
35	0x3ccc64bd	0.02495038
36	0xbd03f0af	-0.032211956
37	0xbd27f31b	-0.041003328
38	0xbc8c56bb	-0.0171312
39	0x3d6883a9	0.056766186
40	0xbc93c90a	-0.018040199
41	0x3d171136	0.036881648
42	0x3d22f65d	0.03978573
43	0x3d1cade6	0.03825178
44	0xbcd2e182	-0.025742296
45	0xbc9262e8	-0.017869428
46	0x3d38b386	0.045093082
47	0x39ce15b5	0.00039307555
48	0xbd608a6b	-0.054819506
49	0xbcb92946	-0.022602689
50	0xbd1c2e82	-0.03813029
51	0xbd074e40	-0.03303361
52	0xbc01fda0	-0.007934004
53	0xbd412f0e	-0.047164015
54	0xbcb0f5d8	-0.021601602
55	0xbcb510e2	-0.022102777
56	0x3d650834	0.055916026
57	0xbc901ab4	-0.017590858
58	0xbccc0105	-0.02490283
59	0xbbade6f9	-0.005307075
60	0x3d370b90	0.04468876
61	0xbd00b581	-0.031423096
62	0x3ca1e641	0.019763114
63	0xbd2b1a9f	-0.041773435
64	0xbd5f2cff	-0.05448627
65	0xba6f4292	-0.0009127046
66	0x3cd7b6b3	0.026332235
67	0x3d2c6896	0.04209193
68	0x3cea4e06	0.028601658
69	0x3c32cd78	0.010913245
70	0xbd36cded	-0.04462998
71	0x3d39bf78	0.045348614
72	0xbd47c2c8	-0.048769742
73	0x3c6bd950	0.014395073
74	0x3c80661c	0.01567369
75	0xbd5ebeb1	-0.054381076
76	0xbc76d59f	-0.01506558
77	0x3cf53a7a	0.02993511
78	0xbd3e8b1c	-0.046519384
79	0xbc92e377	-0.01793073
80	0x3cc9ff6b	0.024657926
81	0xbd1c664d	-0.0381835
82	0xbd4b006e	-0.049560957
83	0x3cf4c56e	0.029879298
84	0x3bf1c295	0.0073779323
85	0x3d3f0ed0	0.046644986
86	0xbd63f295	-0.055651266
87	0x3b63946a	0.0034725913
88	0x3cd43acd	0.025906945
89	0xbd1fc3ef	-0.039005216
90	0x3d301527	0.042988922
91	0xbd4969b6	-0.04917308
92	0xbd66db54	-0.05636151
93	0xbcbdb24c	-0.023156308
94	0xbd616cb7	-0.05503532
95	0xbd0cf28c	-0.034411
96	0xbd03fe96	-0.032225214
97	0x3d69cc08	0.057079345
98	0xbc1e1e9f	-0.009650855
99	0xbd258c3d	-0.040416945
100	0x3d418686	0.047247432
101	0x3d5a5ae6	0.053309344
102	0xbb6969b5	-0.0035615985
103	0x3c3bf477	0.011471859
104	0xbd2b5515	-0.041829187
105	0x3d514442	0.051090486
106	0x3d6c0418	0.05762109
107	0x3cb90cae	0.022589054
108	0x3cbc3741	0.022975566
109	0xbb1525c9	-0.0022758117
110	0xbcafc87e	-0.021457907
111	0xbd0bec42	-0.03416086
112	0x3d1aead6	0.037821613
113	0xbcb4a528	-0.022051409
114	0xbd1ff857	-0.039055195
115	0x3cfe1f12	0.031020675
116	0xbc27699e	-0.010218052
117	0x3b4d5f1b	0.0031337205
118	0xbce4571f	-0.027873574
119	0xbd50ffcf	-0.051025208
120	0xbd35482d	-0.044258285
121	0xbd00b6aa	-0.031424202
122	0x3cac3b93	0.021024501
123	0xbc1f9453	-0.009739953
124	0x3caa99a8	0.020825222
125	0x3cabd095	0.020973483
126	0x3d534a7d	0.05158471
127	0x3d2ea8de	0.042641513
128	0x3d670a5c	0.056406364
129	0x3d2252d1	0.03962976
130	0x3bed309d	0.007238461
131	0x3d40a0cf	0.04702836
132	0xbc894456	-0.016756218
133	0xbcb32ccb	-0.021871945
134	0x3c1ea334	0.009682465
135	0x3a208497	0.0006123273
136	0xbc8df20e	-0.017327335
137	0x3c9ea1da	0.019364286
138	0xbce4053e	-0.02783453
139	0xbd6d57c0	-0.057945013
140	0x3d382ce8	0.0449647
141	0x3b2e17c6	0.0026564463
142	0x3d2871ed	0.041124273
143	0x3bc30e9c	0.0059526693
144	0xbd197feb	-0.037475508
145	0x3aa0191f	0.0012214518
146	0x3c3fa2fd	0.011696574
147	0xbd784353	-0.06061108
148	0x3d358b22	0.04432214
149	0xbce233ee	-0.027612653
150	0x3d58da6a	0.05294267
151	0x3cc1b774	0.023647048
152	0x3c80e99c	0.015736394
153	0xbcfd7994	-0.030941762
154	0x3cfdead5	0.030995766
155	0x3d4ccb5b	0.049998622
156	0x3d0a4761	0.03375948
157	0xbca8904a	-0.020576615
158	0x3d239e12	0.03994567
159	0xbc07a1e2	-0.008278342
160	0x3c796da5	0.015223895
161	0x3ca8b203	0.020592695
162	0xbc9106e4	-0.017703481
163	0x3d0c8bea	0.03431312
164	0xbce05448	-0.027383938
165	0xbb8bb129	-0.0042630625
166	0xbd0f570c	-0.034995124
167	0x3c7646e8	0.015031554
168	0xbc665002	-0.014057161
169	0x3d18037f	0.03711271
170	0xbd63ff39	-0.05566332
171	0xbc91be7a	-0.017791022
172	0xbd33c542	-0.04388929
173	0x3c94ce59	0.0181648
174	0xbb89ec42	-0.0042090723
175	0xbcc44ecd	-0.023963356
176	0xbad7c899	-0.0016462981
177	0x3d6e19bb	0.058130007
178	0xbbbb3d0f	-0.005714066
179	0x3c2fc9ed	0.010729295
180	0x3d3357a6	0.04378476
181	0x3ca86d71	0.020559998
182	0x3cd0fcbf	0.025511144
183	0xbcb4de8f	-0.02207878
184	0xbd4a63e9	-0.049411688
185	0x3c0112dd	0.0078780325
186	0x3cadd023	0.021217411
187	0x3c0249f6	0.007952204
188	0x3b93b913	0.0045081466
189	0x3b747f90	0.0037307478
190	0xbc554eae	-0.013019247
191	0xbd746bb6	-0.059673034
192	0x3d27e3d5	0.040988762
193	0xba6e771e	-0.00090967293
194	0xbc3d2124	-0.011543546
195	0x3cfd36e3	0.030909961
196	0xbd117fff	-0.035522457
197	0x3c7819bd	0.015142855
198	0x3d225a89	0.039637122
199	0x3d169223	0.03676046
200	0x3caa5c54	0.020795979
201	0xbd4bd824	-0.049766675
202	0x3d343221	0.04399312
203	0xbd65ebee	-0.056133203
204	0x3d4ce5e0	0.050023913
205	0xbcbb0e1c	-0.022833876
206	0xbc26d41a	-0.010182405
207	0xbb95a367	-0.004566598
208	0x3b801b0c	0.0039094742
209	0x3d2e58cb	0.04256515
210	0x3a21c393	0.00061708054
211	0x3cd1da9e	0.02561694
212	0x3d5526b7	0.052038874
213	0x3cf12062	0.029434387
214	0xbd3d4eb1	-0.046217624
215	0x3cc7cb5a	0.024388958
216	0x3d4176a7	0.047232296
217	0xbd47247d	-0.048618782
218	0xbca10a54	-0.019658245
219	0x3d1e78d4	0.03868945
220	0xba66f16a	-0.0008809777
221	0xbd3297b8	-0.04360172
222	0x3bbd7bf2	0.0057825977
223	0x3d37d407	0.04487994
224	0xbc53c37d	-0.012925026
225	0xbc0b5597	-0.008504293
226	0x3d6ee28b	0.058321517
227	0x3d435396	0.047687136
228	0xbcd31ad8	-0.025769636
229	0xbcd8f1a8	-0.026482418
230	0x3cc0c67c	0.023532145
231	0xbba5a020	-0.005054489
232	0x3d5baaaf	0.053629573
233	0xbc899992	-0.01679686
234	0xbd5ee9cb	-0.05442218
235	0xbcff8930	-0.031193346
236	0x3d0fada9	0.035077725
237	0xbd3f910b	-0.046769183
238	0xbcb5612b	-0.02214106
239	0x3ccc09af	0.024906961
240	0x3d20db4b	0.039271634
241	0xbabac872	-0.0014250411
242	0xbcf01014	-0.029304542
243	0xbd17f676	-0.037100278
244	0xbd0d4986	-0.034493946
245	0x3bcc5ac6	0.006236407
246	0xbc5e58db	-0.0135709895
247	0xbd0bcb8e	-0.03412967
248	0x3d35aa7b	0.044352036
249	0x3d100792	0.03516347
250	0xbcfdcffe	-0.030982967
251	0xbd693a1d	-0.056940187
252	0x3c6501f5	0.013977517
253	0xbd575106	-0.052567504
254	0x3c21eb34	0.009882737
255	0xbd3a0c96	-0.04542216

cnn.2.bias f4 [64]
0	0x3c90d759	0.01768081
1	0xbd69ee72	-0.057112165
2	0xbc71a920	-0.014749795
3	0xbd561896	-0.05226954
4	0xbd6855d6	-0.056722485
5	0xbcae5f9d	-0.021285826
6	0x3cd10203	0.025513655
7	0xbd1172cf	-0.03550988
8	0xbd3fa744	-0.046790376
9	0xbcbf75f6	-0.023371678
10	0x3d6a3366	0.057177924
11	0x3bca171c	0.0061673056
12	0xbd506541	-0.050877813
13	0xbd2a5663	-0.04158629
14	0xbcb28b6b	-0.021794995
15	0x3d43a2f7	0.047762837
16	0x3c892533	0.01674137
17	0xbd59956e	-0.053121023
18	0x3d53a9bd	0.051675547
19	0x3d86c5cf	0.06580698
20	0x3caf7617	0.021418614
21	0x3d92cf83	0.07168486
22	0xbd37e532	-0.044896312
23	0x3da02e1b	0.07821294
24	0xbbf8b4f8	-0.0075899325
25	0x3cff19dd	0.031140262
26	0x3a047aba	0.0005053688
27	0x3d0e2337	0.034701552
28	0x3d6f3c39	0.058407042
29	0x3d87aa98	0.06624335
30	0xbc22509a	-0.009906912
31	0xbb2e0383	-0.0026552386
32	0x3d453852	0.048149414
33	0xbd5cff55	-0.05395444
34	0xbd6b7edd	-0.057494033
35	0x3d61bb6d	0.055110384
36	0x3ce16f8c	0.02751901
37	0x3d6987c4	0.05701424
38	0x3d1318f7	0.03591248
39	0xbcfda57c	-0.030962698
40	0x3d168568	0.03674832
41	0x3c18d007	0.009326941
42	0xbd4c632e	-0.049899273
43	0x3cd28a97	0.02570085
44	0xbd04c9b1	-0.03241891
45	0x3a8cc3d1	0.001073951
46	0xbd1ae6c9	-0.03781775
47	0xbca14e9f	-0.01969081
48	0x3d1015db	0.035177093
49	0x3b2a6c7d	0.0026004605
50	0xbd01a248	-0.031648904
51	0x3cb10c15	0.021612206
52	0x3d00734d	0.03135996
53	0x3d4fab79	0.05070064
54	0xbc7d0ff8	-0.015445702
55	0xbc6abff6	-0.014327994
56	0x3da7038a	0.08154972
57	0x3ccffde2	0.025389615
58	0x3d3644f2	0.044499345
59	0xbd1ee533	-0.0387928
60	0xbd515939	-0.05111048
61	0xbc1044dd	-0.008805481
62	0xbcb9051b	-0.022585442
63	0xbba61f43	-0.0050696447

state_net.0.weight f4 [32, 2]
0	0x3eb9070b	0.36138186
1	0xbe67ab36	-0.22623906
2	0xbe0dcdb1	-0.13847996
3	0xbe57a04a	-0.21057239
4	0xbf055348	-0.520802
5	0xbf08288c	-0.5318687
6	0x3ea70e74	0.32628214
7	0x3c3c2283	0.011482838
8	0xbf07de21	-0.53073317
9	0x3ebcd4fc	0.36881244
10	0xbe8ceaf1	-0.27522996
11	0x3d47d3e8	0.048786074
12	0xbec0012e	-0.375009
13	0x3ebc1f4c	0.36742628
14	0xbda83a19	-0.08214206
15	0xbd84e7d8	-0.06489533
16	0x3f2abd9a	0.6669556
17	0x3eb43167	0.3519394
18	0xbd2ea1a5	-0.042634625
19	0x3f084adc	0.53239226
20	0xbd559411	-0.05214316
21	0xbf1c5927	-0.61073536
22	0xbf2302cd	-0.6367615
23	0x3f0d82c8	0.5527768
24	0x3f01ebc4	0.50750375
25	0xbe40aee0	-0.1881671
26	0x3e2de0bb	0.16980259
27	0xbbc1db36	-0.0059160246
28	0xbece1e40	-0.40257454
29	0xbf14c306	-0.5811008
30	0xbdf038b9	-0.11729569
31	0x3e460843	0.19339089
32	0x3f122869	0.5709291
33	0x3f206eee	0.62669265
34	0xbe6992c8	-0.22809899
35	0xbf1e00d1	-0.61719996
36	0x3d0d8110	0.03454691
37	0x3f03742f	0.5134916
38	0x3e9637c2	0.29339415
39	0x3f307c8a	0.6894003
40	0xbed420f6	-0.41431397
41	0xbec7e421	-0.39041236
42	0x3e7eaf00	0.24871445
43	0x3e3149be	0.17313287
44	0xbe9c2f8d	-0.30505028
45	0xbd85fa43	-0.06541874
46	0xbec5b2ae	-0.38612884
47	0xbe9b73d6	-0.30361813
48	0xbde4da89	-0.11174495
49	0x3e7545a5	0.23952349
50	0xbde51c85	-0.1118708
51	0x3d2c8eba	0.042128302
52	0xbf2a40ab	-0.66504925
53	0xbc2e68e8	-0.010645129
54	0xbdea9b99	-0.11455459
55	0x3eaba746	0.33526057
56	0x3e52556c	0.20540398
57	0xbe093638	-0.13399589
58	0xbea10fd9	-0.31457403
59	0xbed27526	-0.41105002
60	0xbf11a582	-0.5689317
61	0x3d5b1eb1	0.053496066
62	0xbeda8a3b	-0.42683586
63	0x3e6f49c8	0.23367989

state_net.0.bias f4 [32]
0	0xbe81979f	-0.2531099
1	0xbd543cef	-0.051815923
2	0x3e7e9902	0.24863055
3	0x3d86f4c6	0.065896556
4	0x3e73bf82	0.23803523
5	0xbf09ee40	-0.53879166
6	0xbec56a83	-0.38557824
7	0x3ec7fef5	0.39061704
8	0x3dedf3d2	0.11618771
9	0xbec8a7b5	-0.3919045
10	0x3eeec37e	0.46633524
11	0xbef3ab12	-0.47591454
12	0xbe88d840	-0.26727486
13	0x3c563c6e	0.013075931
14	0xbebda23d	-0.3703784
15	0xbeaaf693	-0.33391246
16	0x3edd4681	0.43217853
17	0xbdaef0eb	-0.08542045
18	0x3ef0485c	0.46930206
19	0xbd07096a	-0.032967962
20	0x3e8bf41a	0.27334672
21	0x3eb07c36	0.34469765
22	0x3d071c1c	0.03298579
23	0x3eb24338	0.3481691
24	0xbf091f78	-0.5356364
25	0xbee237d3	-0.44183215
26	0x3f2ec5f1	0.68270785
27	0x3e53e97c	0.20694536
28	0xbe2dbeed	-0.16967364
29	0xbc0df238	-0.0086637065
30	0xbe5aedca	-0.21379772
31	0xbdae218c	-0.08502492

state_net.2.weight f4 [32, 32]
0	0xbd0d86c3	-0.034552347
1	0x3de98fe6	0.114043996
2	0x3e272c09	0.16325392
3	0xbe0c338b	-0.13691537
4	0xbda53575	-0.08066837
5	0xbe10edc7	-0.14153205
6	0xbd6d9eb7	-0.05801269
7	0xbdabb9f6	-0.083850786
8	0xbdd5f429	-0.104469605
9	0x3e1985f4	0.14992505
10	0xbe2c1c78	-0.16807735
11	0xbe2fea99	-0.17179336
12	0x3db4320e	0.0879861
13	0xbd42bc53	-0.04754288
14	0xbd3df1a8	-0.04637304
15	0x3dda627e	0.10663317
16	0xbc2f1031	-0.010685013
17	0xbb2f0468	-0.0026705507
18	0x3e2f4552	0.17116287
19	0xbd727b16	-0.059199415
20	0x3cc179d2	0.023617659
21	0x3dedcfac	0.11611876
22	0xbc174470	-0.009232625
23	0xbdf53393	-0.119727276
24	0xbe101471	-0.14070298
25	0x3c791711	0.015203253
26	0x3d13b454	0.036060646
27	0x3e30f565	0.1728111
28	0xbd0bbd41	-0.034116033
29	0xbe1980b4	-0.14990503
30	0xbcbbff3c	-0.022948854
31	0x3e0d4251	0.13794829
32	0x3d575a49	0.052576337
33	0xbdba38ad	-0.09092841
34	0xbc8d4cd8	-0.017248556
35	0xbe20330b	-0.15644471
36	0x3d80a928	0.06282264
37	0x3cdc6615	0.026904145
38	0xbd0770ac	-0.033066437
39	0x3e2e9882	0.17050365
40	0xbe00bcfe	-0.12572095
41	0xbe326bba	-0.17423907
42	0x3dac7f8f	0.08422767
43	0x3e238a55	0.15970738
44	0xbb28de08	-0.0025767107
45	0x3cb0215f	0.021500288
46	0x3d27dfeb	0.04098503
47	0xbc9866d6	-0.018603723
48	0xbdf8f421	-0.12155939
49	0x3e170bc8	0.14750588
50	0x3c89667f	0.016772507
51	0x3dd6f4df	0.10495924
52	0x3d2195b9	0.039449427
53	0xbd481572	-0.048848577
54	0x3ddec3b2	0.1087717
55	0xbe21f155	-0.15814717
56	0x3e17b174	0.14813787
57	0x3cc23f54	0.023711838
58	0xbdbc2d7e	-0.091883644
59	0x3dcb46e5	0.099256314
60	0xbe2803ba	-0.16407672
61	0xbd4bccf2	-0.049755998
62	0x3e21dfbc	0.15808004
63	0x3e18d1a2	0.14923719
64	0xbd169af4	-0.03676887
65	0x3dc6538c	0.09683904
66	0xbe1afa0b	-0.15134446
67	0x3e22cd4f	0.15898632
68	0x3d932405	0.071846046
69	0x3dac32f5	0.08408157
70	0x3d1c08ba	0.03809426
71	0x3b58ecfc	0.0033100238
72	0xbdbaef4c	-0.091276735
73	0xbd239436	-0.039936267
74	0x3dc9db1c	0.09856245
75	0x3d9fe562	0.07807423
76	0x3c87342b	0.016504368
77	0x3e2548c7	0.16141044
78	0xbc78d784	-0.015188102
79	0xbcf319c0	-0.029675364
80	0x3b661af2	0.0035111276
81	0x3e08094f	0.13284801
82	0xbd9130f5	-0.07089416
83	0x3d866ff8	0.06564325
84	0xbe0ad024	-0.13555962
85	0x3d675a50	0.056482613
86	0xbe1a934f	-0.15095256
87	0x3c81d254	0.015847363
88	0x3d13db84	0.03609802
89	0xbe31aa84	-0.17350203
90	0x3cdef729	0.027217465
91	0x3d32fa82	0.043695934
92	0x3e1d0daf	0.15337251
93	0xbe009764	-0.12557751
94	0x3d3bf835	0.045891006
95	0xbdcb5b8e	-0.09929572
96	0xbd5dda8f	-0.05416351
97	0x3d9842c3	0.07434609
98	0x3e032e12	0.12810543
99	0xbe2b377c	-0.16720384
100	0x3e2a6726	0.1664091
101	0x3dbb483a	0.091446355
102	0xbdd6269e	-0.104565844
103	0xbe21b4a6	-0.15791568
104	0xbcf2cc63	-0.029638475
105	0xb9b23cd1	-0.00033996117
106	0xbd8ca84e	-0.06868039
107	0xbdcdd86b	-0.10051044
108	0x3d849806	0.06474309
109	0x3cbfd0bf	0.023414968
110	0x3e1e5d18	0.154652
111	0xbe02b08d	-0.12762661
112	0x3e25e494	0.16200477
113	0xbad3255d	-0.0016109158
114	0xbe046214	-0.12928039
115	0xbd86feee	-0.06591593
116	0x3df2a448	0.118477404
117	0xbe06baeb	-0.13157241
118	0x3d0fcac7	0.035105493
119	0xbc98d0ac	-0.01865419
120	0x3c94051a	0.018068839
121	0xbdba3066	-0.090912625
122	0xbe184771	-0.14871003
123	0x3df17e63	0.117916845
124	0xbe32d208	-0.17462933
125	0xbd667163	-0.056260478
126	0x3d5b1b66	0.053492926
127	0xbd88955c	-0.06669113
128	0xbbe17c92	-0.006881305
129	0x3ba4de24	0.005031364
130	0x3dbe1221	0.092808016
131	0xbdf7b912	-0.12095846
132	0x3dee5ec9	0.116391726
133	0xbe2a7803	-0.16647343
134	0x3de041b9	0.109500356
135	0x3d1622c1	0.036654238
136	0x3e0546cf	0.13015293
137	0xbc6f2019	-0.014595055
138	0x3d22ae48	0.03971699
139	0xbde79a7e	-0.11308764
140	0xbd4412e3	-0.047869574
141	0x3dc20caf	0.094750755
142	0x3b37d961	0.0028053152
143	0x3d1876c5	0.037222642
144	0xbd7aed8e	-0.061261706
145	0x3deaaacc	0.11458358
146	0xbc02ec0f	-0.007990851
147	0x3dc65a72	0.0968522
148	0x3dffc0c6	0.124879405
149	0x3dcf8dac	0.10134444
150	0x3d708681	0.058722023
151	0x3d91fcfe	0.071283326
152	0x3d80d696	0.06290929
153	0x3cf4e33f	0.029893516
154	0xbe1e616c	-0.15466851
155	0xbe09b65c	-0.13448471
156	0x3db25928	0.087084115
157	0xbdc93bb3	-0.0982584
158	0xbd8e72fa	-0.06955524
159	0xbd874d5f	-0.06606554
160	0xbdd129d7	-0.102130584
161	0xbe0aecc9	-0.13566889
162	0xbe2edea2	-0.17077115
163	0x3e2fafb5	0.1715687
164	0x3d428a1d	0.047494996
165	0x3defdf40	0.117125034
166	0xbd94c5b0	-0.072642684
167	0xbdd987e1	-0.1062162
168	0x3dee3f65	0.11633185
169	0x3e08136b	0.13288657
170	0xbd8a8330	-0.06763303
171	0x3c3950f1	0.011310802
172	0xbcba8297	-0.022767348
173	0x3e14891e	0.14505431
174	0xbe229c1b	-0.15879862
175	0xbc975415	-0.01847271
176	0x3cd3c5b7	0.025851114
177	0xbe236eaa	-0.15960184
178	0xbe144d95	-0.1448272
179	0xbe116894	-0.1420005
180	0x3cf77708	0.030208126
181	0x3d8a147a	0.06742187
182	0xbd886078	-0.06659025
183	0x3d7ffd71	0.06249756
184	0x3d8e06d3	0.06934895
185	0x3da39eac	0.07989249
186	0x3e307eb6	0.17235836
187	0xbde79b2d	-0.11308894
188	0xbe039c6c	-0.12852639
189	0x3cba140f	0.022714643
190	0xbccd98d4	-0.025097288
191	0xbe02c2fd	-0.12769695
192	0xbdb8fe50	-0.09032881
193	0xbd9b55d4	-0.0758473
194	0x3dc691ac	0.096957535
195	0x3daa3534	0.08310929
196	0x3c01948f	0.007908954
197	0x3ddc0c89	0.107445784
198	0x3d9f2da5	0.07772378
199	0x3dacf679	0.084454484
200	0xbdeb48e5	-0.11488513
201	0xbe257af6	-0.16160187
202	0xbdeeafa3	-0.11654594
203	0x3e2c3f7e	0.16821095
204	0xbd898337	-0.0671448
205	0x3b4e2ee0	0.0031461045
206	0xbe005ee4	-0.12536198
207	0xbdb8a8e8	-0.09016591
208	0x3dfa05b8	0.12208122
209	0xbc30456f	-0.010758742
210	0x3ddb8af5	0.10719863
211	0x3dc36880	0.09541416
212	0xbe1f2392	-0.15540913
213	0x3c03e7ce	0.008050872
214	0xbdb12870	-0.08650291
215	0xbdd77d46	-0.10521941
216	0x3d9c1d39	0.07622761
217	0xbdaf15ee	-0.08549105
218	0xbd8a1ee3	-0.067441724
219	0xbc2990d0	-0.010349467
220	0xbc0b52db	-0.008503641
221	0xbe103232	-0.14081648
222	0xbdf6919c	-0.120394915
223	0x3c4c7d64	0.012481067
224	0x3d7eb26d	0.06218188
225	0xbcb726ed	-0.022357428
226	0xbe199c56	-0.15001044
227	0x3cdd606b	0.027023515
228	0x3dab67a5	0.08369378
229	0x3c488c48	0.012240477
230	0xbddb7292	-0.10715212
231	0x3d169aeb	0.036768835
232	0x3df0859d	0.11744235
233	0x3e0b66a9	0.1361338
234	0xbe25c707	-0.16189204
235	0xbe19784a	-0.14987293
236	0x3d1708e7	0.036873724
237	0x3e09b0f8	0.13446414
238	0xbbdbfab1	-0.0067132344
239	0x3dee120d	0.11624537
240	0x3de6cf4a	0.11270006
241	0xbe189676	-0.14901146
242	0xbe0bd234	-0.13654405
243	0x3c9074c2	0.0176338
244	0xbdf6438a	-0.12024601
245	0x3d50d67c	0.0509858
246	0x3d74723e	0.059679262
247	0xbd6d8070	-0.057983816
248	0xbd89f9af	-0.067370765
249	0x3ddaa876	0.106766626
250	0xbe2a5147	-0.16632567
251	0xbd2cd936	-0.042199336
252	0xbe0ab827	-0.13546811
253	0xb89cd85a	-7.478958e-05
254	0xbd918747	-0.0710588
255	0xbddf4c09	-0.109031744

state_net.2.bias f4 [32]
0	0x3e2a52d0	0.16633153
1	0x3d2307b8	0.039802283
2	0xbe020eae	-0.12700912
3	0x3e1f2ff1	0.15545632
4	0xbda87539	-0.082254834
5	0xbd148214	-0.036256865
6	0xbc893da4	-0.016753025
7	0xbdb4d966	-0.08830528
8	0xbdaa0a97	-0.08302801
9	0xbd938019	-0.07202167
10	0x3c95d4d1	0.018289955
11	0xbd9c08d0	-0.07618868
12	0x3c83adc5	0.01607407
13	0x3d780dd9	0.06056008
14	0xbdc5aa43	-0.096516155
15	0x3c93bbf5	0.01803396
16	0xbe180e41	-0.14849187
17	0xbd7c365c	-0.06157528
18	0x3d20fd94	0.03930433
19	0xbe2e5d4b	-0.17027776
20	0x3e02e623	0.12783103
21	0xbd8f9733	-0.07011261
22	0x3df10a48	0.11769539
23	0xbcf1425f	-0.029450594
24	0xbd6c06d3	-0.057623696
25	0x3e09fb21	0.13474704
26	0x3e22fbc8	0.1591636
27	0x3dc9825e	0.09839319
28	0x3dfbc4fc	0.12293431
29	0x3d2b9526	0.041890286
30	0xbdf941a5	-0.12170724
31	0xbe0171aa	-0.12641016

shared_net.0.weight f4 [128, 1056]
0	0x3cdfc1b4	0.027314045
1	0x3b7468a7	0.0037293823
2	0xbb9f1407	-0.0048546824
3	0xbc4f8ad8	-0.01266738
4	0xbc322810	-0.010873809
5	0xbcc7c14b	-0.024384161
6	0x3c8ef0c4	0.01744879
7	0x3c030a3d	0.007998046
8	0xbc89f129	-0.016838627
9	0xba7be668	-0.00096092233
10	0x3be07393	0.006849715
11	0x3ceac33a	0.028657544
12	0x3b4b899f	0.003105737
13	0x3b829a13	0.0039856522
14	0x3cd0f7bd	0.025508756
15	0x3cda1ffd	0.026626581
16	0x3cf66aa6	0.03008015
17	0x3c14e2e1	0.009087295
18	0x3bac85f4	0.005264992
19	0xbb972ab3	-0.0046132444
20	0xbc2d0fd3	-0.010562855
21	0xbcaf2d8f	-0.021384029
22	0xbbd6717b	-0.0065442896
23	0xbb0929f6	-0.0020929552
24	0xbbe397be	-0.0069455793
25	0xbc3be0d0	-0.011467174
26	0x3cbe95da	0.023264814
27	0xbc9a3d57	-0.018828077
28	0x3ce5e076	0.028061133
29	0x3cd44016	0.025909465
30	0xbc7fce6c	-0.01561318
31	0xbb5ce453	-0.0033705428
32	0xbc4c193b	-0.012457187
33	0x3ca2bc76	0.019865256
34	0xbb2ab46f	-0.0026047488
35	0x3b3f6891	0.0029206614
36	0x3c5fb249	0.013653346
37	0x3c334027	0.010940588
38	0x3babb2b6	0.00523981
39	0x3c1bd93f	0.009512245
40	0x3c5b2388	0.0133751705
41	0xba9f664e	-0.0012161226
42	0xbcd3af7f	-0.025840519
43	0xbc6bb2c5	-0.014385884
44	0x3ce9ed82	0.028555635
45	0xbca91d47	-0.020643843
46	0xbcbdc9eb	-0.023167571
47	0x3cb267c4	0.021777995
48	0xbbc8a9bd	-0.00612375
49	0xbbe2f00a	-0.0069255875
50	0xbcfa5f0a	-0.030562896
51	0x3cae0d3c	0.021246545
52	0xbb83b380	-0.004019201
53	0xbcbf4c14	-0.023351707
54	0x3c58c4b1	0.013230489
55	0xbcb233eb	-0.021753272
56	0xbc607566	-0.013699865
57	0x3ad21c2d	0.0016030126
58	0xbc39777c	-0.011319991
59	0xba87348a	-0.001031534
60	0x3bf5041f	0.007477298
61	0xbc83c44b	-0.01608481
62	0xbceab19c	-0.028649144
63	0x3bc55a96	0.0060227616
64	0x39abcd15	0.0003276846
65	0xbc095093	-0.008381027
66	0xbac105f8	-0.001472651
67	0xbcc70980	-0.024296522
68	0x3cdf090e	0.027225997
69	0x3cef3c73	0.02920363
70	0xbcf98505	-0.030458936
71	0x3c30d192	0.010792153
72	0x3be0e1bc	0.006862847
73	0xbc8aaab5	-0.016927103
74	0xbc3cf89a	-0.011533881
75	0x3c8566a2	0.01628429
76	0x3c3669ba	0.011133606
77	0xbce71970	-0.028210372
78	0xbbcce111	-0.006252416
79	0xbc3fdf36	-0.0117109325
80	0x3c03ec66	0.008051967
81	0x3cd4890b	0.025944253
82	0x3be3312c	0.006933352
83	0xbccd60ab	-0.025070509
84	0xbc423581	-0.011853577
85	0x3bfd84dc	0.0077367853
86	0xbcab5c0f	-0.02091792
87	0xbbd5efde	-0.0065288385
88	0x3c787479	0.015164488
89	0x3cf0b14e	0.02938142
90	0x3c7dcdf5	0.0154909985
91	0xbcda72bb	-0.026666036
92	0x3c425a65	0.011862372
93	0xbcbe368a	-0.023219366
94	0xbb3eedbc	-0.00291334
95	0x3cbdc0cf	0.023163227
96	0xbc877060	-0.016533077
97	0x3caa8999	0.020817565
98	0xbb849252	-0.004045763
99	0xbbf0c342	-0.0073474953
100	0xbc350e90	-0.011050835
101	0x3c4ea88e	0.012613429
102	0x3cd47bd4	0.025937952
103	0xbcd59ca6	-0.026075672
104	0x3c423e0e	0.011855615
105	0xbcfb06a3	-0.030642813
106	0xbcf27152	-0.029595051
107	0x3c5464e5	0.012963508
108	0x3c32d567	0.010915137
109	0xba947774	-0.0011327104
110	0x3cf91778	0.030406699
111	0xbcdac460	-0.026704967
112	0x3cd99c14	0.026563682
113	0xbc33b872	-0.010969268
114	0xbcc3f41b	-0.02392011
115	0x3ac372d8	0.0014911545
116	0x3bcb50a7	0.006204683
117	0xbcda661a	-0.026660014
118	0x3cdb76c9	0.02679004
119	0xbb91aa72	-0.0044453675
120	0x3c37cc3b	0.011218126
121	0x3c655fa8	0.013999857
122	0xbcbf33c9	-0.023340123
123	0x3c8feef6	0.01757
124	0xbcf91f43	-0.030410415
125	0x3bb01dac	0.005374631
126	0xbc9302d9	-0.017945694
127	0x3cd80876	0.026371222
128	0x3b0646b7	0.0020488927
129	0x3bc8a700	0.0061234236
130	0xbc76fada	-0.015074456
131	0xba188ac6	-0.00058190187
132	0xbaba7c2c	-0.001422768
133	0xbc9007cf	-0.017581848
134	0xbc457b03	-0.012053254
135	0xbcbee2b1	-0.023301454
136	0x3c798693	0.015229839
137	0x3cc5642a	0.024095614
138	0x3b81c598	0.0039603226
139	0xbcf8458f	-0.030306606
140	0xbc17d8c5	-0.0092679905
141	0xbcde5e1d	-0.027144486
142	0xbbf98415	-0.0076146224
143	0x3b908441	0.004410297
144	0x3ca2741c	0.019830756
145	0x3c96bdd9	0.018401073
146	0xbc865e46	-0.016402375
147	0xbba73e5d	-0.00510387
148	0x3c274494	0.010209221
149	0xbc804c30	-0.015661329
150	0xbce71076	-0.028206091
151	0x3b0362c0	0.0020047873
152	0xbcccd6ff	-0.025004862
153	0x3ce1996c	0.027538978
154	0xbc12872c	-0.00894336
155	0xbc79a012	-0.015235918
156	0xbb4a7c37	-0.0030896792
157	0x3cc82406	0.02443124
158	0x3c0e90b3	0.008701491
159	0xbb94ce7e	-0.0045412173
160	0xbc962ebe	-0.018332835
161	0x3c51ee44	0.012813155
162	0x3cd69c1e	0.02619749
163	0x3c9b7d94	0.018980779
164	0xbc841002	-0.016120914
165	0xbcfa8f6e	-0.03058597
166	0x3cb12d54	0.02162806
167	0xbc27ce64	-0.010242078
168	0xbcb37c08	-0.021909729
169	0xbadc3045	-0.0016799053
170	0x3cf81b1c	0.030286364
171	0xbbcae255	-0.0061915317
172	0x3c43107a	0.011905784
173	0x3cb4d1aa	0.022072632
174	0xbc5362da	-0.012901986
175	0xbcf7a469	-0.030229764
176	0x3cde9089	0.02716853
177	0xbce49c4c	-0.02790656
178	0xbbdcbadb	-0.006736142
179	0xbb9623af	-0.0045818905
180	0x3cfb99f8	0.030713066
181	0x3cd5da9e	0.026105221
182	0x3cb454d5	0.022013107
183	0x3ce413bb	0.02784144
184	0xbceb8aef	-0.028752772
185	0x3c7c99e6	0.015417552
186	0xbc2fec51	-0.010737495
187	0xbc70b553	-0.014691669
188	0x3ccceb7c	0.025014631
189	0x3cbe9f62	0.023269359
190	0x3c5d3eff	0.013503789
191	0x3b523962	0.003207766
192	0x3c8c1f76	0.017104845
193	0xbb308751	-0.0026936124
194	0x3ce27868	0.027645305
195	0x3cf79686	0.030223142
196	0x3cc31624	0.023814268
197	0x3c83f0d6	0.01610605
198	0x3c3b4c89	0.011431822
199	0x39660404	0.00021936005
200	0xbbfd54b8	-0.0077310465
201	0x3c0ff08f	0.008785381
202	0x3c167b64	0.009184692
203	0xbbdec165	-0.006797957
204	0xbcdbe119	-0.026840733
205	0x3aa39d53	0.0012482799
206	0xbc5cbd55	-0.013472875
207	0x3c9fcc18	0.0195065
208	0xbcd4d3f3	-0.025979972
209	0x3c8de6ca	0.017321963
210	0xbcdb0807	-0.026737226
211	0xbcb73273	-0.022362923
212	0x3cb89c0c	0.022535346
213	0xbc8b6a62	-0.0170185
214	0xbbdaa3a2	-0.0066723386
215	0xbc486718	-0.012231611
216	0x3c65cad3	0.014025408
217	0xbc8a7413	-0.016901052
218	0x3c825eee	0.015914407
219	0xbcdafbb5	-0.026731351
220	0xbc72ac1d	-0.014811543
221	0xbce7b5ab	-0.028284868
222	0xbcb25d1e	-0.021772917
223	0xbb798173	-0.0038071543
224	0x3b70c72b	0.0036739807
225	0xbcd17dee	-0.025572743
226	0x3c41e3e0	0.011834115
227	0xbc78a965	-0.015177106
228	0xbcb9c6b0	-0.02267775
229	0x3ca44714	0.020053424
230	0x3ce1754d	0.027521754
231	0x3d03a8e1	0.032143477
232	0x3d05db5d	0.032679904
233	0xbc3acd98	-0.011401556
234	0x3c61fc7d	0.013793108
235	0x3ca32e9e	0.01991969
236	0x3b237165	0.0024939415
237	0x3bc3df10	0.005977519
238	0xbc9b4579	-0.018954026
239	0x38b9ac25	8.853552e-05
240	0x3c88df6e	0.016708102
241	0x3d068c9c	0.03284894
242	0x3cbe2619	0.023211526
243	0xbb488374	-0.003059593
244	0xbcd2dbf8	-0.025739655
245	0x3c4602a6	0.012085592
246	0x3ccbd515	0.024881879
247	0x3c62ca65	0.0138422
248	0x3d1104e9	0.035405073
249	0x3c9b353f	0.018946288
250	0xbca8ee18	-0.020621344
251	0x3cd650c0	0.026161551
252	0x3c9d803a	0.019226182
253	0x3add3b7c	0.001687869
254	0xbcaeb472	-0.021326277
255	0x3c55976b	0.013036589

shared_net.0.bias f4 [128]
0	0x3d6b329f	0.057421323
1	0x3d11c30e	0.03558641
2	0x3c94936a	0.018136699
3	0x3cc848d5	0.024448792
4	0xbc68bb1a	-0.014204765
5	0xbc8e878d	-0.01739862
6	0xbca21175	-0.019783715
7	0x3cefb42e	0.029260721
8	0x3b3feaad	0.0029284165
9	0xbc6c9d08	-0.014441736
10	0xbc773e21	-0.015090496
11	0xbbbe0273	-0.005798632
12	0x3bef5f53	0.0073050647
13	0x3c4a1fbc	0.012336668
14	0xb9ef0546	-0.0004558956
15	0x3c511136	0.012760451
16	0x3c9dacd3	0.019247448
17	0x3ca419eb	0.02003189
18	0x3cd368eb	0.025806865
19	0x3c4182aa	0.011810938
20	0x3ca45de8	0.02006431
21	0xbc53a417	-0.01291754
22	0xbce5b889	-0.028042095
23	0x3d191f18	0.03738317
24	0x3b8b2e04	0.004247429
25	0x3cafb60e	0.021449115
26	0x3bfd446f	0.007729105
27	0x3b96c37e	0.004600941
28	0x3bc69005	0.006059649
29	0xbcaf5c54	-0.02140633
30	0x3cae6e17	0.02129273
31	0x3d424864	0.04743232
32	0x3c9cad87	0.019125713
33	0xba6ecd96	-0.0009109614
34	0xbc2bbed9	-0.010482513
35	0xbc5260aa	-0.012840429
36	0x3c845d25	0.016157696
37	0xbca76693	-0.020434653
38	0x3ceb9f52	0.028762493
39	0x3cdf0a04	0.027226456
40	0x3d3f4a31	0.046701614
41	0x3d40f720	0.047110677
42	0x3c875cf8	0.016523823
43	0x3c7586e7	0.0149857765
44	0x3cdcfd0c	0.02697613
45	0xbcbc4fae	-0.022987213
46	0xbcd33e01	-0.025786402
47	0x3cb2f446	0.021844994
48	0x3c86805b	0.016418627
49	0xbcd09f4e	-0.025466587
50	0xbb503ec6	-0.0031775697
51	0x3d12213e	0.035676233
52	0xbc1cf1b9	-0.009579116
53	0xbae47acb	-0.0017431615
54	0xbb5b5fd1	-0.003347386
55	0x3ceadc2b	0.028669437
56	0x3d04b127	0.03239551
57	0x3bd5deaa	0.0065267878
58	0x3b0bfd36	0.0021360642
59	0x3ca24a62	0.01981086
60	0xbc08bdae	-0.008346004
61	0xbc86d7c7	-0.016460313
62	0xbc5e4b1c	-0.013567712
63	0xbcd1c0ea	-0.025604684
64	0xbd0bc1f8	-0.03412053
65	0xbbfa352e	-0.007635734
66	0x3cf19813	0.02949146
67	0x3d2ee32d	0.04269712
68	0x3ba77269	0.0051100743
69	0xbc405c17	-0.011740706
70	0xbca963fc	-0.02067756
71	0x3c982ecc	0.018577002
72	0x3ced9803	0.029003149
73	0x3a089fb5	0.00052117865
74	0xbae5fed8	-0.0017547263
75	0x3cbf07d4	0.023319162
76	0xbce2bd76	-0.027678233
77	0x3ca23b47	0.019803656
78	0x3a44cb19	0.00075070705
79	0x3c2e7e2f	0.010650202
80	0x3c8ab79f	0.01693326
81	0xbd027865	-0.0318531
82	0xbc93abd0	-0.018026263
83	0x3926375b	0.00015851615
84	0xbcfb7167	-0.030693723
85	0xb985ea75	-0.0002554242
86	0x3c9a97bf	0.018871186
87	0x3bc90246	0.006134304
88	0x3b3e7575	0.002906171
89	0x3ba946ab	0.005165895
90	0x3ca325ad	0.019915426
91	0xbba6f27d	-0.005094825
92	0x3d10a29f	0.035311338
93	0xbb7c9805	-0.003854276
94	0xbcb7a7a9	-0.022418814
95	0x3c3ababf	0.011397063
96	0x3bedcb14	0.007256875
97	0x3c277cac	0.010222595
98	0x3cd2f417	0.025751157
99	0xbb1e61a2	-0.002416708
100	0x3bd8da72	0.0066178376
101	0xbc32637f	-0.0108879795
102	0x3cc3e334	0.02391205
103	0xbcfafbc0	-0.030637622
104	0x3cc2aa2b	0.023762783
105	0x3d33ec59	0.04392657
106	0xbcc191e1	-0.02362913
107	0xbc928bf4	-0.017889
108	0x3c0f0b3e	0.008730708
109	0x3cfc89f6	0.030827504
110	0x3ca824b0	0.020525306
111	0x3cbf74c3	0.023371106
112	0xbc832d9d	-0.016012961
113	0xbc9599c9	-0.018261807
114	0xbcaf0d6d	-0.021368707
115	0xbc302cde	-0.010752885
116	0x3bc24f06	0.0059298305
117	0xbc211b83	-0.009833219
118	0xbcf42b44	-0.029805787
119	0xbb43ddd5	-0.002988686
120	0x3c8cd58d	0.017191673
121	0x3a5b0d87	0.0008356203
122	0x3ae9cec0	0.0017838106
123	0xbcdeed80	-0.027212858
124	0x3c0aefe3	0.008480045
125	0x3c0c2408	0.008553512
126	0xbc536cc6	-0.012904352
127	0x3cf87db9	0.030333387

shared_net.2.weight f4 [64, 128]
0	0xbc44bf2c	-0.01200847
1	0x3d4c5c66	0.049892806
2	0xbcaae030	-0.020858854
3	0x3d83b6ae	0.06431328
4	0x3d520340	0.05127263
5	0x3dada0f2	0.084779635
6	0xbd8f4394	-0.069953114
7	0x3d825e1d	0.06365607
8	0xbd031fce	-0.032012753
9	0xbdaebfb6	-0.0853266
10	0x3d8fd71c	0.07023451
11	0x3d96d91f	0.07365631
12	0xbd6abb53	-0.057307553
13	0xbcae3556	-0.021265667
14	0xbcd8a2f0	-0.026444882
15	0x3d43654c	0.047704026
16	0xbb198c3e	-0.0023429538
17	0x3d93b211	0.07211698
18	0xbd99bd6d	-0.07506833
19	0xbb3a107b	-0.002839117
20	0xbcdfc932	-0.027317617
21	0xbc13b5dc	-0.009015527
22	0xbd5d84d0	-0.054081738
23	0xbce5087f	-0.027958153
24	0x3cfba080	0.03071618
25	0x3d3ae990	0.0456329
26	0x3d34c4bc	0.044132933
27	0xbd267e30	-0.040647686
28	0xbd49a9fd	-0.04923438
29	0xbd7743ca	-0.060367383
30	0xbd5375aa	-0.051625885
31	0x3d5f59ea	0.054529108
32	0x3cdc500d	0.02689364
33	0x3d31e18e	0.043427996
34	0xbd5f8117	-0.05456647
35	0xbcc794f9	-0.024363028
36	0xbc5ff2cd	-0.013668728
37	0x3d61db0a	0.055140533
38	0x3c8046b9	0.015658723
39	0x3d4986dd	0.04920088
40	0xbdb29834	-0.08720437
41	0xbd4202fb	-0.047366124
42	0xbdaee3fb	-0.085395776
43	0xbbc137e3	-0.005896555
44	0xbd9261de	-0.07147573
45	0xbd1dd086	-0.03852894
46	0x3cf1d0ec	0.029518567
47	0xbc8355b0	-0.01603207
48	0xbda535a4	-0.08066872
49	0x3d30493f	0.043038603
50	0xbd895710	-0.06706059
51	0x3d249de5	0.040189642
52	0xbc8d5362	-0.017251674
53	0x3db28ebf	0.08718633
54	0x3c159ec8	0.009132095
55	0xbd449708	-0.047995597
56	0xbd8dd11b	-0.06924649
57	0xbb0c9406	-0.0021450534
58	0x3d5180a0	0.051148057
59	0xbd5c8d13	-0.053845476
60	0x3d3ec63e	0.046575777
61	0x3d7a9542	0.0611775
62	0xbd84b0af	-0.06479012
63	0xbd908d61	-0.07058216
64	0x3da14dc8	0.07876164
65	0x3d41f290	0.047350466
66	0x3d2f55c5	0.042806406
67	0x3c88bb77	0.016690953
68	0x3dac968b	0.08427151
69	0xbd957a69	-0.072987385
70	0x3c905ff1	0.017623873
71	0x3c7c3b44	0.015394989
72	0x3d8cd345	0.06876234
73	0xbd971cb9	-0.07378525
74	0xbc307e93	-0.010772365
75	0xba776130	-0.00094367843
76	0xbda6e36d	-0.08148847
77	0xbd9c0dc9	-0.07619817
78	0xbd9312b5	-0.071813025
79	0xbd1574c6	-0.036488317
80	0xbda915f5	-0.08256141
81	0xbd55f97c	-0.05223988
82	0x3c9289e4	0.017888017
83	0xbd59dd72	-0.053189702
84	0xbcf65a5e	-0.030072387
85	0x3d092f7c	0.03349255
86	0xbda437b4	-0.08018437
87	0xbd1dd83f	-0.038536306
88	0xbdb19555	-0.08671061
89	0xbd1b8931	-0.037972633
90	0xbc8710b4	-0.016487457
91	0xbc9e5dae	-0.01933178
92	0xbd671c4c	-0.05642347
93	0x3be7dbde	0.0070757708
94	0x3cdc243c	0.026872747
95	0x3d88b4b5	0.06675092
96	0x3c48ae7d	0.0122486325
97	0x3cf0a2b9	0.029374467
98	0xbd3869ee	-0.045022897
99	0xbd86affb	-0.06576534
100	0xbd3d1d45	-0.04617049
101	0x3db44828	0.08802825
102	0xbce2f4f4	-0.027704693
103	0xbc64bb61	-0.01396069
104	0xbd9528c4	-0.07283166
105	0xbd90263c	-0.07038543
106	0x3cbb12a9	0.022836046
107	0x3d5362f0	0.051608026
108	0xbccd4cba	-0.025061
109	0xbd075819	-0.033043
110	0xbab1afd3	-0.0013556428
111	0xbd26d4c9	-0.04073027
112	0xbd20e840	-0.03928399
113	0x3d2a546f	0.04158443
114	0xbda5a086	-0.08087258
115	0xbc79210e	-0.015205635
116	0xbd1f180f	-0.038841303
117	0x3d89a198	0.06720275
118	0xb91e3f90	-0.00015091733
119	0xbcb15923	-0.021648949
120	0xbd90b864	-0.0706642
121	0xbd3c4f6f	-0.04597419
122	0x3d678348	0.056521684
123	0x3b69517c	0.0035601547
124	0xbd616f0a	-0.055037536
125	0xbd23a64f	-0.039953526
126	0x3d82f723	0.06394794
127	0x3c4b887d	0.012422678
128	0xbda27276	-0.07931988
129	0xbd8d3e31	-0.06896628
130	0x3bfe1c86	0.007754865
131	0x3d64bdb1	0.055844966
132	0xbc547688	-0.012967713
133	0xbd8db5a8	-0.06919414
134	0xba0dfb69	-0.0005416186
135	0xbd183a92	-0.037165232
136	0xbd134550	-0.035954773
137	0xbc0e50c0	-0.0086862445
138	0x3d78ccfa	0.060742356
139	0x3cd03aa9	0.025418596
140	0xbda5614f	-0.08075201
141	0x3d1f4dcc	0.038892552
142	0x3cd92af7	0.026509745
143	0xbd668c75	-0.056286294
144	0x3d9b3e77	0.075802736
145	0x3da3e617	0.080028705
146	0xbcb491ef	-0.022042243
147	0xbca62af2	-0.02028415
148	0x3b4331a0	0.0029784217
149	0xbd836c0f	-0.06417095
150	0xbd60395c	-0.054742202
151	0x3d3f631e	0.046725385
152	0xbc8da346	-0.017289769
153	0xbca40124	-0.020020075
154	0xbd636f67	-0.055526163
155	0x3ce01ceb	0.02735754
156	0x3d820e14	0.063503414
157	0x3d041aaa	0.03225199
158	0x3d42608e	0.047455363
159	0xbd951a2f	-0.07280385
160	0xbda25acd	-0.07927475
161	0x3d9d3576	0.076762125
162	0xbd7aeed9	-0.06126294
163	0xbd679bc1	-0.056545023
164	0xbd59d1fc	-0.053178772
165	0x3d69d46c	0.057087347
166	0x3da803b5	0.08203832
167	0xbccaa32b	-0.024736008
168	0x3cab260d	0.020892167
169	0xbdb42b98	-0.08797377
170	0x3d83127d	0.06400011
171	0x3d8dc41f	0.06922173
172	0xbd6102f6	-0.054934464
173	0x3b4db78b	0.0031389918
174	0x3c557221	0.013027699
175	0x3d2ef7b8	0.04271671
176	0x3cfe2617	0.031024022
177	0xbd9e3bb6	-0.07726233
178	0xbdab4e1c	-0.083645076
179	0x3cfd5dc8	0.030928507
180	0xbda270d4	-0.079316765
181	0x3d1c7ef6	0.038207017
182	0x3d95f56c	0.07322201
183	0xbd94e5ac	-0.07270369
184	0xbd6e1b1b	-0.05813132
185	0xbccb8ad5	-0.024846474
186	0x3c7738ee	0.015089257
187	0x3d8ca1f0	0.068668246
188	0xbd2a99b7	-0.0416505
189	0x3d936a66	0.07198028
190	0xbd83a2f9	-0.06427569
191	0xbd95709d	-0.0729687
192	0x3d54538e	0.051837496
193	0x3dafc4ec	0.08582482
194	0x3d82c2cf	0.06384813
195	0x3cc5464c	0.024081372
196	0xbd539803	-0.05165864
197	0xbd01940c	-0.03163533
198	0xbda0256d	-0.078196384
199	0x3b6c5dcb	0.0036066647
200	0xbb8e6384	-0.0043453593
201	0x3d9eb9c6	0.07750277
202	0xbd9f30fa	-0.077730134
203	0xbc38912f	-0.011265083
204	0x3d3fdf5c	0.04684387
205	0xbda3a115	-0.07989708
206	0xbd04f787	-0.032462623
207	0xbc54163d	-0.012944755
208	0x3d89575e	0.06706117
209	0xbd8ce97f	-0.06880473
210	0x3d8a1e2c	0.06744036
211	0x3d99471e	0.07484268
212	0x3da85a34	0.0822033
213	0x3cd45779	0.025920616
214	0x3c20885d	0.009798137
215	0x3db0e243	0.08636906
216	0x3d4e3855	0.05034669
217	0x3b8d4cee	0.0043121492
218	0xbda0b614	-0.07847229
219	0xbcc12bc2	-0.023580436
220	0x3d710882	0.058846004
221	0x3cc5edc9	0.024161236
222	0x3d406f29	0.04698101
223	0x3d1f4c78	0.038891286
224	0x3d4f9da0	0.050687432
225	0xbca7ddbb	-0.020491472
226	0x3d045dd1	0.032316033
227	0xbc9fd041	-0.019508483
228	0xbd2f680e	-0.042823844
229	0xbd90602f	-0.070495956
230	0xbc770447	-0.015076703
231	0x3d6506bf	0.055914637
232	0x3c95fb7c	0.018308394
233	0xbda295b5	-0.079387106
234	0x3cba96e0	0.02277702
235	0x3da4ac64	0.080406934
236	0x3d156a36	0.036478244
237	0x3d7f541c	0.062336072
238	0xbd9494d9	-0.07254953
239	0x3ce42b16	0.027852576
240	0x3d62d9da	0.05538354
241	0x3d45d184	0.048295513
242	0xbc0a94b2	-0.008458303
243	0xbcff6297	-0.031174941
244	0x3daf785a	0.08567877
245	0x3d18185f	0.037132617
246	0x3caa5c7d	0.020796055
247	0x3d95e7c4	0.073195964
248	0x3c60ea1d	0.013727692
249	0xbcd4d6c1	-0.025981309
250	0x3d3a1e6d	0.045439173
251	0xbda46afb	-0.080282174
252	0xbca2c200	-0.019867897
253	0x3b552d2d	0.0032528148
254	0x3c01c665	0.007920836
255	0x3c847d4a	0.016173024

shared_net.2.bias f4 [64]
0	0xbd55a5de	-0.052160136
1	0x3bd72838	0.0065660737
2	0x3df6a077	0.12042325
3	0x3da12aed	0.078695156
4	0xbd9e151d	-0.07718871
5	0xbda99c32	-0.08281745
6	0xbda35486	-0.07975106
7	0x3e010503	0.12599568
8	0xbd84034f	-0.064459436
9	0x3e1154fd	0.14192577
10	0xbd9f0bd5	-0.07765929
11	0x3d2c33a9	0.042041454
12	0x3d0e7dd8	0.034787983
13	0x3be0040f	0.0068364213
14	0xbca787dc	-0.020450525
15	0xbbf9d6a9	-0.0076244664
16	0xb68ed5e8	-4.2568317e-06
17	0x3d4db4f6	0.050221406
18	0x3dade85b	0.08491584
19	0xbd868415	-0.065681614
20	0xbd282e76	-0.041059934
21	0xbbba542a	-0.0056863027
22	0x3d84f86d	0.06492696
23	0xbd432f1a	-0.04765234
24	0xbd910db5	-0.070826925
25	0x3d5a0a68	0.05323258
26	0x3d6e1b8c	0.05813174
27	0x3cf31142	0.029671315
28	0x3df1bfd2	0.11804165
29	0xbc0ea20a	-0.008705625
30	0xbd1959af	-0.037439045
31	0xbcd7dd8b	-0.026350757
32	0xbda248b9	-0.07924027
33	0x3d05e235	0.03268643
34	0x3d304cc1	0.04304195
35	0x3d26196c	0.040551588
36	0xbd786587	-0.0606437
37	0xbc0993dc	-0.008397069
38	0xbd1cdf39	-0.03829882
39	0xbd5d4d5d	-0.054028857
40	0xbd78957d	-0.060689438
41	0x3be69409	0.00703669
42	0x3d6a8eab	0.057264965
43	0x3cd52a65	0.026021192
44	0xbdaa08d2	-0.083024636
45	0x3db4273f	0.08796548
46	0xbd601897	-0.05471095
47	0xbc5c8d48	-0.013461418
48	0x3df66af9	0.12032122
49	0x3d2cc46a	0.042179503
50	0xbd75e909	-0.060036693
51	0xbd8f1bbe	-0.06987713
52	0x3d49f2b4	0.049303725
53	0xbd14dabe	-0.03634142
54	0xbc320881	-0.010866285
55	0xbdc1c0f0	-0.09460628
56	0x3d96a947	0.07356506
57	0xbdae86f2	-0.085218325
58	0x3e251fe0	0.1612544
59	0xbc85bb0f	-0.016324548
60	0xbd09dc62	-0.03365744
61	0xbd2a40ee	-0.041565828
62	0x3e2b6f81	0.16741754
63	0x3cd00e65	0.025397489
