logs/20250602_090044/checkpoint_episode_200.pt (torch, 691949 bytes, 19 tensors)

cnn.0.weight f4 [32, 1, 3, 3]
-0.1997889 0.25964886 0.046058968 0.027927447 -0.2411089 0.30339167 0.04562476 -0.16155948
-0.27094612 -0.027275836 -0.113693796 -0.14632633 0.19201866 -0.21435702 -0.16222991 0.067594044
0.08674331 -0.3328989 0.28504896 0.26634666 0.0460278 -0.097850695 0.2033726 0.313344
-0.06627888 0.23589964 -0.22662021 0.27982408 0.29455513 -0.28172082 -0.06301868 -0.049075805
-0.009829204 -0.11370945 0.111612365 0.2853366 0.31127226 -0.27400535 -0.13643521 -0.020793976
-0.21603326 -0.26337087 0.009366036 -0.15377854 -0.07782342 0.28293213 0.014207443 -0.15961143
0.111261725 0.20294484 -0.03893709 -0.17388639 -0.21520261 0.2840899 -0.07460177 -0.19954571
-0.05288037 -0.2126079 -0.1983614 -0.059778534 -0.27369997 -0.0154572725 -0.12304008 0.09415808
-0.0130102625 0.268495 -0.13900635 0.1425334 -0.013341417 -0.27971065 0.030377261 -0.26376358
0.07463609 -0.04716673 0.03196197 -0.32804972 -0.23224705 0.22323889 0.2082208 -0.22112444
0.22116913 -0.16843864 0.23879454 -0.17077944 0.14062023 -0.07470457 0.28609616 0.15318613
-0.23240463 -0.032218974 -0.21307616 -0.09039502 0.2932852 -0.3276386 -0.27648303 0.017316025
0.02358846 -0.25608122 -0.2485747 -0.07893618 0.14792264 0.027690452 -0.23730361 -0.20844059
-0.3133317 0.20146069 0.10350069 -0.2709185 0.16087477 -0.3281313 0.11795333 0.1105314
-0.044941925 0.13759652 -0.16379884 0.26026917 0.10556975 -0.14993878 -0.0076371483 -0.18910874
0.06957341 -0.3148452 -0.17010486 -0.21696545 0.21460082 -0.30578035 -0.3155168 0.008592129
-0.20681164 0.13496125 0.25782555 -0.061678886 -0.08549297 0.18949649 0.1284487 -0.27140117
-0.21467578 0.22311926 -0.14961164 -0.12093767 0.24802546 0.14605686 -0.2514645 -0.11676677
0.21719359 0.22756614 -0.0746227 -0.054403402 0.08051904 0.13901925 -0.11057823 0.17690264
-0.17321609 0.01251778 0.010279221 -0.2733408 -0.05333076 -0.018056696 0.17609005 0.107588656
0.23762253 -0.062192097 -0.05446303 -0.11048242 -0.077100955 0.13195805 -0.29258633 0.00790004
-0.13556378 -0.11971915 -0.22671668 0.13132636 0.029893875 -0.07486709 -0.2611967 -0.24271524
-0.18348429 0.085960984 0.0013967204 0.30569825 -0.31119508 -0.08654058 0.22203176 -0.061780654
-0.02706655 0.1657095 -0.010517876 0.14142482 0.16478539 -0.019749511 0.13625102 0.30758294
-0.21604392 -0.12692378 0.0013301403 0.22585233 -0.15068285 0.1936501 -0.12059657 -0.27300954
0.281258 0.005507986 -0.29198742 0.067187 -0.10284953 -0.12443789 -0.27464896 0.2831388
-0.14438277 -0.21117668 -0.116503336 -0.21562251 0.2865748 -0.14631763 0.05744823 -0.14823182
-0.0887804 0.11862867 0.25462413 0.22792815 0.09578231 -0.29013902 0.19287671 0.29531878
-0.17808108 -0.12051237 -0.0950433 0.16340014 0.1670605 -0.26127538 -0.24798644 -0.3260541
0.3159461 -0.26999956 0.1430252 -0.3197665 0.040521424 -0.29501373 0.26121086 0.15318823
0.09702997 -0.30181396 0.2601837 0.1090495 -0.19897838 -0.010878761 0.014400571 0.0905738
0.19106667 0.078743555 0.20137765 0.09128556 0.07264136 0.12839411 -0.08521509 -0.16385187
00000000: 7695 4cbe b2f0 843e 54a8 3c3d 1ac8 e43c
00000010: 40e5 76be 2756 9b3e 07e1 3a3d d96f 25be
00000020: 73b9 8abe 9371 dfbc 4bd8 e8bd 92d6 15be
00000030: 8aa0 443e 6880 5bbe 991f 26be bf6e 8a3d
00000040: 7aa6 b13d ba71 aabe f0f1 913e 975e 883e
00000050: a587 3c3d f265 c8bd e840 503e a06e a03e
00000060: 39bd 87bd ad8f 713e 210f 68be 1a45 8f3e
00000070: eecf 963e b63d 90be f00f 81bd b603 49bd
00000080: ab0a 21bc 80e0 e8bd 0695 e43d a417 923e
00000090: 145f 9f3e 6e4a 8cbe acb5 0bbe 2158 aabc
000000a0: d337 5dbe 8cd8 86be 0174 193c 1f78 1dbe
000000b0: e361 9fbd 7bdc 903e 56c6 683c 2e71 23be
000000c0: 30dd e33d c6d0 4f3e 807c 1fbd 460f 32be
000000d0: 135e 5cbe 3b74 913e d0c8 98bd b655 4cbe
000000e0: 1699 58bd e3b5 59be 401f 4bbe 56da 74bd
000000f0: 6722 8cbe 8040 7dbc 70fc fbbd f4d5 c03d
00000100: ff28 55bc 2d78 893e ae57 0ebe 47f4 113e
00000110: f595 5abc 3c36 8fbe bcd9 f83c 050c 87be
00000120: ceda 983d e731 41bd 8eea 023d 22f6 a7be
00000130: 2cd2 6dbe bc98 643e d537 553e 726e 62be
00000140: 297a 623e 2e7b 2cbe 8e86 743e cee0 2ebe
00000150: c0fe 0f3e b6fe 98bd 327b 923e d3dc 1c3e
00000160: 7bfb 6dbe 0bf8 03bd a330 5abe 0621 b9bd
00000170: 7a29 963e 3fc0 a7be 2f8f 8dbe 56da 8d3c
00000180: 963c c13c 141d 83be 5e8a 7ebe 4ba9 a1bd
00000190: 0879 173e 16d7 e23c b8ff 72be 7371 55be
000001a0: 036d a0be b64b 4e3e 2bf8 d33d d4b5 8abe
000001b0: 5bbc 243e d300 a8be 8491 f13d 495e e23d
000001c0: 0615 38bd 1ae6 0c3e e2ba 27be 0042 853e
000001d0: f434 d83d 8d89 19be 0b41 fabb b9a5 41be
000001e0: 817c 8e3d 6433 a1be f82f 2ebe 312c 5ebe
000001f0: 51c0 5b3e 3e8f 9cbe 6b8b a1be 00c6 0c3c
00000200: 6ec6 53be 4833 0a3e b601 843e 00a3 7cbd
00000210: f016 afbd 5e0b 423e 0e88 033e 18f5 8abe
00000220: f8d3 5bbe 6079 643e cb33 19be 2bae f7bd
00000230: 63fa 7d3e ee8f 153e f4bf 80be 6b23 efbd
00000240: ff67 5e3e 1907 693e c9d3 98bd 1ad6 5ebd
00000250: 2be7 a43d 105b 0e3e d776 e2bd f725 353e
00000260: 8f5f 31be 6017 4d3c 2e6a 283c 53f3 8bbe
00000270: 5b71 5abd a3eb 93bc f350 343e 7157 dc3d
00000280: 5253 733e 24bd 7ebd a014 5fbd 9b44 e2bd
00000290: 1be7 9dbd 0320 073e e0cd 95be 2b6f 013c
000002a0: 3bd1 0abe 502f f5bd 6b28 68be 6b7a 063e
000002b0: 00e4 f43c eb53 99bd 93bb 85be 588a 78be
000002c0: 4ee3 3bbe 500c b03d 2912 b73a 7b84 9c3e
000002d0: f654 9fbe 303c b1bd 4b5c 633e b60d 7dbd
000002e0: abba ddbc c0af 293e 2b53 2cbc abd1 103e
000002f0: 80bd 283e bac9 a1bc 6385 0b3e 837b 9d3e
00000300: 9e3a 5dbe 4ff8 01be 1a58 ae3a d545 673e
00000310: 9b4c 1abe 364c 463e 56fb f6bd e8c7 8bbe
00000320: 0c01 903e 567c b43b 607f 95be 5699 893d
00000330: c6a2 d2bd 4bd9 febd ca9e 8cbe 92f7 903e
00000340: 14d9 13be b33e 58be 4d99 eebd 26cc 5cbe
00000350: efb9 923e 4ad4 15be d64e 6b3d 15ca 17be
00000360: 80d2 b5bd 97f3 f23d 185e 823e ff65 693e
00000370: 8429 c43d 1a8d 94be 7981 453e 0634 973e
00000380: e35a 36be 30cf f6bd 10a6 c2bd 5e52 273e
00000390: e811 2b3e e3c5 85be 28f0 7dbe 90f0 a6be
000003a0: b0c3 a13e 623d 8abe 3375 123e 6fb8 a3be
000003b0: cbf9 253d 0a0c 97be 6ebd 853e 60dd 1c3e
000003c0: a6b7 c63d 5c87 9abe cc36 853e 5855 df3d
000003d0: fdc0 4bbe d53c 32bc 5ff0 6b3c c27e b93d
000003e0: fba6 433e 4d44 a13d f135 4e3e ecf3 ba3d
000003f0: fec4 943d bf79 033e 4085 aebd c9c8 27be

cnn.0.bias f4 [32]
0.28502637 0.3402138 0.083288565 -0.16016181 0.14945914 -0.2158558 -0.19812803 0.3333044
0.24604023 -0.23222224 -0.22544682 -0.09428326 0.11319687 0.2750589 -0.1585422 -0.0048621367
0.3627202 0.33239958 -0.30174923 -0.106340095 -0.29439116 0.25738174 -0.32149017 0.2715487
0.096236356 -0.12357251 -0.055401742 0.26606646 0.3123459 -0.20494962 -0.17672622 -0.101564236
00000000: faee 913e 8130 ae3e 3293 aa3d 7501 24be
00000010: d10b 193e 4e09 5dbe 13e2 4abe e0a6 aa3e
00000020: f8f1 7b3e abcb 6dbe 88db 66be 9517 c1bd
00000030: c3d3 e73d 85d4 8c3e e358 22be 8f52 9fbb
00000040: 76b6 b93e 4730 aa3e e07e 9abe d6c8 d9bd
00000050: 70ba 96be 8ac7 833e 5c9a a4be 6e08 8b3e
00000060: 9117 c53d 9613 fdbd f0ec 62bd dd39 883e
00000070: cdeb 9f3e 50de 51be b8f7 34be e900 d0bd

cnn.2.weight f4 [64, 32, 3, 3]
-0.016315488 -0.05079647 0.034660786 -0.03990926 -0.049670935 -0.00029674725 0.03565588 0.014901313
0.022970965 0.043266103 0.03760367 -0.01708708 0.042843584 -0.032417167 -0.027320856 -0.0030612461
0.041887283 -0.023993216 0.014672789 0.026060356 0.04276161 0.023662835 -0.034892384 -0.034813784
0.047992315 0.02751806 -0.02421452 0.052161075 0.027889257 0.03060664 -0.013003349 -0.044362564
0.040749785 0.057579998 0.0571109 0.02495038 -0.03221909 -0.04101561 -0.017152682 0.05675652
-0.018053893 0.036863457 0.039770406 0.038235307 -0.025760584 -0.017869428 0.045093082 0.00039307555
-0.054819506 -0.022602689 -0.03813029 -0.03303361 -0.007934004 -0.047164015 -0.021601602 -0.022102777
0.055916026 -0.017590858 -0.02490283 -0.005307075 0.04468876 -0.031423096 0.019763114 -0.04180895
-0.05452647 -0.00095301657 0.02629626 0.042054687 0.02856464 0.010874484 -0.044669084 0.045310885
-0.048795667 0.014368154 0.01564623 -0.054402176 -0.015089792 0.02990987 -0.04654436 -0.017956706
0.024631612 -0.0381835 -0.049560957 0.029879298 0.0073779323 0.046644986 -0.055651266 0.0034725913
0.025906945 -0.039005216 0.042988922 -0.04917308 -0.05636151 -0.023156308 -0.05503532 -0.034411
-0.032225214 0.057079345 -0.009650855 -0.040416945 0.047247432 0.053309344 -0.0035615985 0.011471859
-0.041829187 0.051090486 0.05762109 0.022589054 0.022959339 -0.002289406 -0.02147343 -0.034175884
0.03780822 -0.022064554 -0.039068624 0.031007238 -0.010230933 0.0031188084 -0.027898867 -0.05105574
-0.044277623 -0.031449195 0.020995712 -0.009762771 0.02079767 0.020943303 0.05158471 0.042641513
0.056406364 0.03962976 0.007238461 0.04702836 -0.016756218 -0.021871945 0.009682465 0.000609595
-0.017327335 0.019364286 -0.02783453 -0.057945013 0.0449647 0.002656368 0.041124273 0.0059527536
-0.037522838 0.0011682531 0.011645696 -0.060656674 0.044275917 -0.02765709 0.052896228 0.023601543
0.015693003 -0.030979821 0.030952498 0.049955312 0.033724554 -0.020614533 0.03990775 -0.008312884
0.015186809 0.020554898 -0.017703481 0.03431312 -0.027383938 -0.0042630625 -0.034995124 0.015031554
-0.014057161 0.03711271 -0.05566332 -0.017791022 -0.04388929 0.0181648 -0.0042090723 -0.023963356
-0.0016462981 0.058130007 -0.005714066 0.010729295 0.04378476 0.020559998 0.025511144 -0.02207878
-0.049411688 0.0078780325 0.021217411 0.007952204 0.0045081466 0.0036954512 -0.013053558 -0.05970323
0.040960293 -0.0009391279 -0.01157136 0.03088095 -0.035551656 0.015114715 0.039637122 0.03676046
0.020795979 -0.049766675 0.04399312 -0.056133203 0.050023913 -0.022833876 -0.010182405 -0.004591382
0.0038795525 0.042529836 0.00059170526 0.025588123 0.052007552 0.029403731 -0.046248764 0.024357315
0.04720804 -0.04864068 -0.019675301 0.038669437 -0.00089800067 -0.043615203 0.0057688844 0.04486725
-0.012937043 -0.008504293 0.058321517 0.047687136 -0.025769636 -0.026482418 0.023532145 -0.005054489
0.053629573 -0.01679686 -0.05442218 -0.031193346 0.035077725 -0.046769183 -0.02214106 0.024906961
0.039271634 -0.0014250411 -0.029304542 -0.0371376 -0.034530535 0.006200323 -0.013603979 -0.034161862
0.044320747 0.035133403 -0.03101404 -0.056970485 0.013941199 -0.052610643 0.009840223 -0.04545608
00000000: 0fa8 85bc f60f 50bd 78f8 0d3d e477 23bd
00000010: c073 4bbd be94 9bb9 e60b 123d a324 743c
00000020: 9b2d bc3c cc37 313d 4e06 1a3d 34fa 8bbc
00000030: c17c 2f3d ddc7 04bd fdcf dfbc 309f 48bb
00000040: 0092 2b3d 6c8d c4bc 2366 703c 877c d53c
00000050: cc26 2f3d 90d8 c13c 51eb 0ebd e698 0ebd
00000060: 9793 443d 8e6d e13c 875d c6bc daa6 553d
00000070: 0378 e43c c7ba fa3c 000c 55bc 85b5 35bd
00000080: 3fe9 263d 01d9 6b3d 1eed 693d bd64 cc3c
00000090: 2af8 03bd fcff 27bd c883 8cbc 8679 683d
000000a0: c2e5 93bc 23fe 163d 4be6 223d a09c 1c3d
000000b0: dc07 d3bc e862 92bc 86b3 383d b515 ce39
000000c0: 6b8a 60bd 4629 b9bc 822e 1cbd 404e 07bd
000000d0: a0fd 01bc 0e2f 41bd d8f5 b0bc e210 b5bc
000000e0: 3408 653d b41a 90bc 0501 ccbc f9e6 adbb
000000f0: 900b 373d 81b5 00bd 41e6 a13c dd3f 2bbd
00000100: 2657 5fbd dcd3 79ba 416b d73c 8941 2c3d
00000110: 6400 ea3c e42a 323c eef6 36bd e897 393d
00000120: f7dd 47bd 6868 6b3c 862c 803c d1d4 5ebd
00000130: 2d3b 77bc 8b05 f53c 4da5 3ebd f119 93bc
00000140: 3cc8 c93c 4d66 1cbd 6e00 4bbd 6ec5 f43c
00000150: 95c2 f13b d00e 3f3d 95f2 63bd 6a94 633b
00000160: cd3a d43c efc3 1fbd 2715 303d b669 49bd
00000170: 54db 66bd 4cb2 bdbc b76c 61bd 8cf2 0cbd
00000180: 96fe 03bd 08cc 693d 9f1e 1ebc 3d8c 25bd
00000190: 8686 413d e65a 5a3d b569 69bb 77f4 3b3c
000001a0: 1555 2bbd 4244 513d 1804 6c3d ae0c b93c
000001b0: 3915 bc3c dc09 16bb 0ce9 afbc 03fc 0bbd
000001c0: cbdc 1a3d b9c0 b4bc 6c06 20bd e402 fe3c
000001d0: a59f 27bc ec64 4c3b 2a8c e4bc d31f 51bd
000001e0: 745c 35bd dfd0 00bd 33ff ab3c 08f4 1fbc
000001f0: e05f aa3c 4a91 ab3c 7d4a 533d dea8 2e3d
00000200: 5c0a 673d d152 223d 9d30 ed3b cfa0 403d
00000210: 5644 89bc cb2c b3bc 34a3 1e3c 3acd 1f3a
00000220: 0ef2 8dbc daa1 9e3c 3e05 e4bc c057 6dbd
00000230: e82c 383d 7616 2e3b ed71 283d 510f c33b
00000240: 8cb1 19bd 1220 993a 97cd 3e3c 2273 78bd
00000250: aa5a 353d 1f91 e2bc b7a9 583d 0658 c13c
00000260: 9d8e 803c 65c9 fdbc 1890 fd3c f19d 4c3d
00000270: c222 0a3d cfdf a8bc 4f76 233d c332 08bc
00000280: 18d2 783c bf62 a83c e406 91bc ea8b 0c3d
00000290: 4854 e0bc 29b1 8bbb 0c57 0fbd e846 763c
000002a0: 0250 66bc 7f03 183d 39ff 63bd 7abe 91bc
000002b0: 42c5 33bd 59ce 943c 42ec 89bb cd4e c4bc
000002c0: 99c8 d7ba bb19 6e3d 0f3d bbbb edc9 2f3c
000002d0: a657 333d 716d a83c bffc d03c 8fde b4bc
000002e0: e963 4abd dd12 013c 23d0 ad3c f649 023c
000002f0: 13b9 933b 622f 723b 97de 55bc 608b 74bd
00000300: fbc5 273d ce2f 76ba cd95 3dbc 0cfa fc3c
00000310: 9d9e 11bd b6a3 773c 895a 223d 2392 163d
00000320: 545c aa3c 24d8 4bbd 2132 343d eeeb 65bd
00000330: e0e5 4c3d 1c0e bbbc 1ad4 26bc 4e73 96bb
00000340: 1740 7e3b c433 2e3d ab1c 1b3a 2f9e d13c
00000350: df05 553d 18e0 f03c 586f 3dbd fe88 c73c
00000360: 385d 413d 733b 47bd 192e a1bc d863 1e3d
00000370: ce67 6bba dba5 32bd e908 bd3b b9c6 373d
00000380: e4f5 53bc 9755 0bbc 8be2 6e3d 9653 433d
00000390: d81a d3bc a8f1 d8bc 7cc6 c03c 20a0 a5bb
000003a0: afaa 5b3d 9299 89bc cbe9 5ebd 3089 ffbc
000003b0: a9ad 0f3d 0b91 3fbd 2b61 b5bc af09 cc3c
000003c0: 4bdb 203d 72c8 baba 1410 f0bc 991d 18bd
000003d0: e46f 0dbd 142c cb3b 39e3 5ebc 4fed 0bbd
000003e0: ac89 353d 0be8 0f3d 2811 febc e259 69bd
000003f0: a069 643c 427e 57bd e338 213c 2830 3abd

cnn.2.bias f4 [64]
0.017566614 -0.05743586 -0.014749795 -0.052825008 -0.056722485 -0.020651564 0.025589297 -0.03550988
-0.046790376 -0.02320774 0.057177924 0.0062321736 -0.050877813 -0.04083383 -0.020774156 0.049646635
0.018689878 -0.053121023 0.05167549 0.06729027 0.022390015 0.073130526 -0.04343391 0.08253855
-0.0076083094 0.031140262 0.0005053688 0.035486 0.060473636 0.070742324 -0.009906912 0.00059791264
0.05037875 -0.054049272 -0.057494033 0.055637322 0.028910449 0.057362426 0.037667558 -0.030962698
0.036613945 0.009360254 -0.049753144 0.026893755 -0.03237255 0.0020115455 -0.03781775 -0.0196795
0.035177093 0.0026004605 -0.031079909 0.022748858 0.032558583 0.050719112 -0.012664076 -0.01432646
0.08375296 0.025888987 0.045284744 -0.038862843 -0.05111048 -0.008805481 -0.022585442 -0.0042667193
00000000: dce7 8f3c dd41 6bbd 20a9 71bc 095f 58bd
00000010: d655 68bd 782d a9bc a5a0 d13c cf72 11bd
00000020: 44a7 3fbd 291e bebc 6633 6a3d 4337 cc3b
00000030: 4165 50bd 6041 27bd 902e aabc 455a 4b3d
00000040: 841b 993c 6e95 59bd aea9 533d 7bcf 893d
00000050: 446b b73c 75c5 953d c1e7 31bd f909 a93d
00000060: 204f f9bb dd19 ff3c ba7a 043a c559 113d
00000070: 34b3 773d 5ae1 903d 9a50 22bc 3dbd 1c3a
00000080: f359 4e3d c562 5dbd dd7e 6bbd f6e3 633d
00000090: 9bd5 ec3c ddf4 6a3d 4c49 1a3d 7ca5 fdbc
000000a0: 81f8 153d c05b 193c f4c9 4bbd 4b50 dc3c
000000b0: 1499 04bd 22d4 033b c9e6 1abd e736 a1bc
000000c0: db15 103d 7d6c 2a3b 4b9b febc d05b ba3c
000000d0: 265c 053d d8be 4f3d fc7c 4fbc 87b9 6abc
000000e0: ac86 ab3d 2415 d43c 7f7c 393d a52e 1fbd
000000f0: 3959 51bd dd44 10bc 1b05 b9bc d6cf 8bbb

state_net.0.weight f4 [32, 2]
0.36138216 -0.22623906 -0.13847996 -0.21057239 -0.520802 -0.5318669 0.326303 0.011506439
-0.5307597 0.36878133 -0.27522996 0.048786074 -0.375009 0.36742628 -0.08217051 -0.06487093
0.6670347 0.35197636 -0.042491328 0.5326039 -0.052125547 -0.6106868 -0.6367615 0.5527768
0.50758815 -0.18811885 0.16980658 -0.0059185023 -0.40257454 -0.5811008 -0.11729569 0.19339089
0.57085127 0.62668407 -0.22809899 -0.61719996 0.034725964 0.5135581 0.2934319 0.6894147
-0.41431803 -0.39042982 0.24891052 0.17321214 -0.30505028 -0.06542388 -0.38612777 -0.3036155
-0.11174495 0.23952349 -0.1118708 0.042128302 -0.6650299 -0.010643186 -0.11447465 0.3352871
0.20543306 -0.13399589 -0.31457403 -0.41105002 -0.5689317 0.053496066 -0.42683586 0.23368882
00000000: 1507 b93e 36ab 67be b1cd 0dbe 4aa0 57be
00000010: 4853 05bf 6e28 08bf 3011 a73e 8185 3c3c
00000020: dedf 07bf e8d0 bc3e f1ea 8cbe e8d3 473d
00000030: 2e01 c0be 4c1f bc3e 0349 a8bd 0ddb 84bd
00000040: c9c2 2a3f 3f36 b43e 630b 2ebd bb58 083f
00000050: 9981 55bd f855 1cbf cd02 23bf c882 0d3f
00000060: 4cf1 013f 3aa2 40be c7e1 2d3e ffef c1bb
00000070: 401e cebe 06c3 14bf b938 f0bd 4308 463e
00000080: 4f23 123f 5e6e 203f c892 69be d100 1ebf
00000090: d03c 0e3d 8b78 033f b53c 963e 7b7d 303f
000000a0: 7e21 d4be 6be6 c7be 66e2 7e3e 865e 313e
000000b0: 8d2f 9cbe f5fc 85bd 8ab2 c5be 7e73 9bbe
000000c0: 89da e4bd a545 753e 851c e5bd ba8e 2c3d
000000d0: 663f 2abf c260 2ebc af71 eabd c0aa ab3e
000000e0: 0b5d 523e 3836 09be d90f a1be 2675 d2be
000000f0: 82a5 11bf b11e 5b3d 3b8a dabe 1f4c 6f3e

state_net.0.bias f4 [32]
-0.2531096 -0.051815923 0.24870233 0.06588644 0.23798431 -0.53879166 -0.38557824 0.39062816
0.116279595 -0.3916848 0.4663522 -0.47591424 -0.26718125 0.01312446 -0.3703784 -0.33391246
0.43217653 -0.08542045 0.46943176 -0.032952145 0.27326965 0.34486172 0.032959837 0.3481858
-0.5356364 -0.44183215 0.6827108 0.20702381 -0.1696424 -0.0086637065 -0.21379772 -0.08501593
00000000: 9597 81be ef3c 54bd d3ab 7e3e 78ef 863d
00000010: 29b2 733e 40ee 09bf 836a c5be 6a00 c83e
00000020: ff23 ee3d e98a c8be b7c5 ee3e 08ab f3be
00000030: fbcb 88be fa07 573c 3da2 bdbe 93f6 aabe
00000040: 3e46 dd3e ebf0 aebd 5c59 f03e d4f8 06bd
00000050: 00ea 8b3e b791 b03e e500 073d 6945 b23e
00000060: 781f 09bf d337 e2be 23c6 2e3f 0dfe 533e
00000070: bdb6 2dbe 38f2 0dbc caed 5abe d51c aebd

state_net.2.weight f4 [32, 32]
-0.034542132 0.114043996 0.16328734 -0.13683857 -0.080659635 -0.14153205 -0.05801269 -0.08380423
-0.1043036 0.14994307 -0.16798635 -0.17179336 0.08804463 -0.047506854 -0.04637304 0.10663317
-0.010473301 -0.0026705507 0.17126977 -0.05911987 0.023662923 0.11623362 -0.009230955 -0.1196723
-0.14070298 0.015203253 0.03604356 0.17283739 -0.03411541 -0.14990503 -0.022948854 0.13795899
0.052576337 -0.09092841 -0.017248556 -0.15644471 0.06282264 0.026904145 -0.033066437 0.17050365
-0.12572095 -0.17423907 0.08422767 0.15970738 -0.0025767107 0.021500288 0.04098503 -0.018603723
-0.12155939 0.14750588 0.016772507 0.10495924 0.039449427 -0.048848577 0.1087717 -0.15814717
0.14813787 0.023711838 -0.091883644 0.099256314 -0.16407672 -0.049755998 0.15808004 0.14923719
-0.03676887 0.09683904 -0.15134446 0.15898632 0.071846046 0.08408157 0.03809426 0.0033100238
-0.091276735 -0.039936267 0.09856245 0.07807423 0.016504368 0.16141044 -0.015188102 -0.029675364
0.0035111276 0.13284801 -0.07089416 0.06564325 -0.13555962 0.056482613 -0.15095256 0.015847363
0.03609802 -0.17350203 0.027217465 0.043695934 0.15337251 -0.12557751 0.045891006 -0.09929572
-0.05415907 0.07434609 0.12812021 -0.16718535 0.1664163 0.091446355 -0.104565844 -0.15790057
-0.029598676 -0.00032991738 -0.068637565 -0.10051023 0.064763844 0.023424348 0.154652 -0.12762661
0.16205566 -0.0016109158 -0.1292535 -0.065902896 0.118503876 -0.13154407 0.03510588 -0.018617988
0.018068839 -0.090912625 -0.14870904 0.11792247 -0.17462933 -0.056260478 0.053492926 -0.066684864
-0.006880127 0.005031364 0.092808016 -0.1209078 0.11640046 -0.16647343 0.109500356 0.03669252
0.13028833 -0.014591003 0.03972447 -0.11308764 -0.047862615 0.09477169 0.0028053152 0.037222642
-0.061065186 0.11458358 -0.00786725 0.09695602 0.124879405 0.10144207 0.058722023 0.071283326
0.06290929 0.029893516 -0.15466131 -0.13443664 0.087084115 -0.0982584 -0.06955524 -0.06606554
-0.10213014 -0.13566889 -0.17077115 0.17158927 0.04749309 0.117125034 -0.072642684 -0.10619611
0.1163805 0.13288657 -0.06760896 0.011310802 -0.022757042 0.14506295 -0.15879862 -0.01847271
0.025914319 -0.15960184 -0.1447932 -0.14198418 0.03020683 0.0674588 -0.06659025 0.06249702
0.06934895 0.07989249 0.1723611 -0.11308167 -0.12852639 0.022714643 -0.025097288 -0.12769695
-0.09032749 -0.0758473 0.096963435 0.083128616 0.0079151625 0.107445784 0.07772378 0.08445928
-0.114843234 -0.1615971 -0.1165286 0.16821095 -0.06712626 0.0031547297 -0.12536198 -0.09016591
0.12212878 -0.010758742 0.10722046 0.095436886 -0.15540186 0.008074581 -0.08650291 -0.105206765
0.07622761 -0.08549105 -0.067457065 -0.010345121 -0.008503382 -0.14081648 -0.120394915 0.012485915
0.06217428 -0.022357428 -0.15001044 0.026896313 0.083694905 0.012240477 -0.10715212 0.036698375
0.117126316 0.13612577 -0.16193019 -0.14987293 0.0368333 0.13440688 -0.0067132344 0.11624537
0.11227492 -0.14901146 -0.13678356 0.017417796 -0.12024601 0.05077529 0.059679262 -0.057984225
-0.067370765 0.106766626 -0.16629979 -0.042282764 -0.13546811 -7.478958e-05 -0.0710588 -0.109031744
00000000: 0d7c 0dbd e68f e93d cc34 273e 691f 0cbe
00000010: e130 a5bd c7ed 10be b79e 6dbd 8da1 abbd
00000020: 209d d5bd ad8a 193e 9d04 2cbe 99ea 2fbe
00000030: be50 b43d 8c96 42bd a8f1 3dbd 7e62 da3d
00000040: 3598 2bbc 6804 2fbb 5861 2f3e ad27 72bd
00000050: bfd8 c13c e40b ee3d 6e3d 17bc c016 f5bd
00000060: 7114 10be 1117 793c 69a2 133d 49fc 303e
00000070: 9abc 0bbd b480 19be 3cff bbbc 1f45 0d3e
00000080: 495a 573d ad38 babd d84c 8dbc 0b33 20be
00000090: 28a9 803d 1566 dc3c ac70 07bd 8298 2e3e
000000a0: febc 00be ba6b 32be 8f7f ac3d 558a 233e
000000b0: 08de 28bb 5f21 b03c ebdf 273d d666 98bc
000000c0: 21f4 f8bd c80b 173e 7f66 893c dff4 d63d
000000d0: b995 213d 7215 48bd b2c3 de3d 55f1 21be
000000e0: 74b1 173e 543f c23c 7e2d bcbd e546 cb3d
000000f0: ba03 28be f2cc 4bbd bcdf 213e a2d1 183e
00000100: f49a 16bd 8c53 c63d 0bfa 1abe 4fcd 223e
00000110: 0524 933d f532 ac3d ba08 1c3d fcec 583b
00000120: 4cef babd 3694 23bd 1cdb c93d 62e5 9f3d
00000130: 2b34 873c c748 253e 84d7 78bc c019 f3bc
00000140: f21a 663b 4f09 083e f530 91bd f86f 863d
00000150: 24d0 0abe 505a 673d 4f93 1abe 54d2 813c
00000160: 84db 133d 84aa 31be 29f7 de3c 82fa 323d
00000170: af0d 1d3e 6497 00be 35f8 3b3d 8e5b cbbd
00000180: e7d5 5dbd c342 983d f231 033e a332 2bbe
00000190: 0969 2a3e 3a48 bb3d 9e26 d6bd b0b0 21be
000001a0: ec78 f2bc c3f8 acb9 da91 8cbd 4fd8 cdbd
000001b0: e8a2 843d 6be4 bf3c 185d 1e3e 8db0 02be
000001c0: ebf1 253e 5d25 d3ba 085b 04be 19f8 86bd
000001d0: 29b2 f23d 7db3 06be 2fcb 0f3d c084 98bc
000001e0: 1a05 943c 6630 babd 2f47 18be 5681 f13d
000001f0: 08d2 32be 6371 66bd 661b 5b3d 1392 88bd
00000200: b072 e1bb 24de a43b 2112 be3d 829e f7bd
00000210: 5d63 ee3d 0378 2abe b941 e03d e54a 163d
00000220: 4e6a 053e 1a0f 6fbc 20b6 223d 7e9a e7bd
00000230: 970b 44bd a917 c23d 61d9 373b c576 183d
00000240: 7d1f 7abd ccaa ea3d a3e5 00bc e190 c63d
00000250: c6c0 ff3d dcc0 cf3d 8186 703d fefc 913d
00000260: 96d6 803d 3fe3 f43c 895f 1ebe c2a9 09be
00000270: 2859 b23d b33b c9bd fa72 8ebd 5f4d 87bd
00000280: 9b29 d1bd c9ec 0abe a2de 2ebe 19b5 2f3e
00000290: 1d88 423d 40df ef3d b0c5 94bd 597d d9bd
000002a0: e658 ee3d 6b13 083e 9176 8abd f150 393c
000002b0: fa6c babc 628b 143e 1b9c 22be 1554 97bc
000002c0: 444a d43c aa6e 23be ab44 14be 4d64 11be
000002d0: 5074 f73c d727 8a3d 7860 88bd e0fc 7f3d
000002e0: d306 8e3d ac9e a33d 6e7f 303e 5d97 e7bd
000002f0: 6c9c 03be 0f14 ba3c d498 cdbc fdc2 02be
00000300: 9efd b8bd d455 9bbd c494 c63d 563f aa3d
00000310: 99ae 013c 890c dc3d a52d 9f3d fdf8 ac3d
00000320: ee32 ebbd b679 25be 8ca6 eebd 7e3f 2c3e
00000330: 7e79 89bd 95bf 4e3b e45e 00be e8a8 b8bd
00000340: a71e fa3d 6f45 30bc 6796 db3d 6a74 c33d
00000350: aa21 1fbe 3f4b 043c 7028 b1bd a576 d7bd
00000360: 391d 9c3d ee15 afbd ee26 8abd 957e 29bc
00000370: c551 0bbc 3232 10be 9c91 f6bd b991 4c3c
00000380: 75aa 7e3d ed26 b7bc 569c 19be a855 dc3c
00000390: 3c68 ab3d 488c 483c 9272 dbbd 0951 163d
000003a0: ecdf ef3d 8e64 0b3e 07d1 25be 4a78 19be
000003b0: 84de 163d f5a1 093e b1fa dbbb 0d12 ee3d
000003c0: 65f0 e53d 7696 18be fd10 0cbe c4af 8e3c
000003d0: 8a43 f6bd c0f9 4f3d 3e72 743d de80 6dbd
000003e0: aff9 89bd 76a8 da3d 7e4a 2abe b130 2dbd
000003f0: 27b8 0abe 5ad8 9cb8 4787 91bd 094c dfbd

state_net.2.bias f4 [32]
0.16650173 0.039802283 -0.12700912 0.15550986 -0.08211414 -0.0361937 -0.016726622 -0.0885858
-0.08269186 -0.07202167 0.01831241 -0.07609986 0.01607407 0.06063125 -0.096516155 0.018104255
-0.14849187 -0.06157528 0.03953072 -0.1700057 0.127648 -0.07011261 0.11769539 -0.029474365
-0.057623696 0.1346515 0.15918252 0.09846416 0.12289014 0.041945696 -0.121669516 -0.12641016
00000000: 6e7f 2a3e b807 233d ae0e 02be fa3d 1f3e
00000010: 752b a8bd d83f 14bd 4506 89bc 796c b5bd
00000020: 5a5a a9bd 1980 93bd e803 963c 3eda 9bbd
00000030: c5ad 833c 7958 783d 43aa c5bd 604f 943c
00000040: 410e 18be 5c36 7cbd f7ea 213d f915 2ebe
00000050: 28b6 023e 3397 8fbd 480a f13d 3974 f1bc
00000060: d306 6cbd 15e2 093e be00 233e 94a7 c93d
00000070: d3ad fb3d 40cf 2b3d de2d f9bd aa71 01be

shared_net.0.weight f4 [128, 1056]
0.02736509 0.003783439 -0.00480194 -0.012615376 -0.010854266 -0.024379488 0.017454403 0.008010499
-0.016820168 -0.0009417154 0.0068908925 0.028670486 0.0031237246 0.0039976346 0.025519226 0.026636813
0.030080445 0.009088213 0.005266156 -0.0046123643 -0.010562357 -0.021381883 -0.006533559 -0.0020915451
-0.006945218 -0.011422243 0.023295056 -0.018827274 0.028062336 0.025909739 -0.015612605 -0.003369796
-0.012457187 0.019865256 -0.0026047488 0.0029206614 0.013653346 0.010940588 0.00523981 0.009512245
0.0133751705 -0.0012161226 -0.025840519 -0.014385884 0.028555635 -0.020643843 -0.023167571 0.021777995
-0.006119722 -0.006919623 -0.030557044 0.021252243 -0.0040123686 -0.023339884 0.013267004 -0.021742824
-0.0136918565 0.0016104063 -0.01132381 -0.0010211469 0.0074843178 -0.016071517 -0.028635753 0.006034983
0.0003276846 -0.008381027 -0.001472651 -0.024296522 0.027225997 0.02920363 -0.030458936 0.010792153
0.006862847 -0.016927103 -0.011533881 0.01628429 0.011133606 -0.028210372 -0.006252416 -0.0117109325
0.008155471 0.02609937 0.0070882044 -0.024916636 -0.011720711 0.007937418 -0.02071362 -0.006334883
0.015301392 0.02954304 0.01565353 -0.02646818 0.011995157 -0.023018708 -0.0027130775 0.023359595
-0.01651327 0.020832302 -0.0040303874 -0.007332129 -0.011050835 0.012613429 0.025937952 -0.026075672
0.011855615 -0.030642813 -0.029595051 0.012963508 0.010915137 -0.0011327104 0.030406699 -0.026704967
0.026563682 -0.010969268 -0.02392011 0.0014911545 0.006204683 -0.026660014 0.02679004 -0.0044453675
0.011218126 0.013999857 -0.023340123 0.01757 -0.030410415 0.005374631 -0.017945694 0.026371222
0.0020488927 0.0061234236 -0.015074456 -0.00058190187 -0.001422768 -0.017581848 -0.012053254 -0.023301454
0.015229839 0.024095614 0.0039603226 -0.030306606 -0.0092679905 -0.027144486 -0.0076146224 0.004410297
0.019877374 0.018429948 -0.016372625 -0.0050761425 0.010274777 -0.015621992 -0.028167466 0.002048889
-0.024939809 0.027593825 -0.008944752 -0.015190458 -0.0030265376 0.024474481 0.008747606 -0.004497635
-0.018332835 0.012813155 0.02619749 0.018980779 -0.016120914 -0.03058597 0.02162806 -0.010242078
-0.021909729 -0.0016799053 0.030286364 -0.0061915317 0.011905784 0.022072632 -0.012901986 -0.030229764
0.027207302 -0.027859814 -0.0066890786 -0.0045345235 0.030713066 0.026105221 0.022013107 0.02784144
-0.028752772 0.015417552 -0.010737476 -0.014691669 0.025014631 0.023269359 0.013503789 0.003207766
0.017104845 -0.0026936124 0.027645305 0.030223142 0.023814268 0.01610605 0.011431822 0.00021936005
-0.0077310465 0.008785381 0.009184692 -0.006797957 -0.026840733 0.0012482799 -0.013472875 0.0195065
-0.025898507 0.017378759 -0.026679793 -0.022304548 0.022590378 -0.017010689 -0.006650203 -0.0122041525
0.014075874 -0.016837709 0.015974957 -0.026709 -0.01475696 -0.028264826 -0.021751981 -0.0037811035
0.0038988367 -0.025299486 0.01210715 -0.014903225 -0.022408998 0.020372273 0.02783361 0.03246205
0.03294819 -0.011084165 0.01414316 0.020236425 0.0027638557 0.00629362 -0.018635688 0.00040624212
0.017074501 0.033213332 0.023575002 -0.002696351 -0.025299724 0.012521799 0.025335012 0.014283658
0.03584434 0.019361641 -0.020149449 0.026601434 0.019664235 0.0021289187 -0.020883298 0.013476852
00000000: c12c e03c 93f3 773b 9859 9dbb b9b0 4ebc
00000010: 17d6 31bc 7eb7 c7bc 89fc 8e3c 783e 033c
00000020: 73ca 89bc 73dd 76ba ffcc e13b 5ede ea3c
00000030: 67b7 4c3b 97fe 823b b20d d13c 7235 da3c
00000040: 446b f63c bae6 143c b88f ac3b 5123 97bb
00000050: bc0d 2dbc 0f29 afbc 7717 d6bb 4e12 09bb
00000060: b694 e3bb 5c24 3bbc 46d5 be3c a83b 9abc
00000070: fce2 e53c a940 d43c 03cc 7fbc ccd7 5cbb
00000080: 3b19 4cbc 76bc a23c 6fb4 2abb 9168 3f3b
00000090: 49b2 5f3c 2740 333c b6b2 ab3b 3fd9 1b3c
000000a0: 8823 5b3c 4e66 9fba 7faf d3bc c5b2 6bbc
000000b0: 82ed e93c 471d a9bc ebc9 bdbc c467 b23c
000000c0: f387 c8bb 01be e2bb c452 fabc 2f19 ae3c
000000d0: 307a 83bb 4933 bfbc d95d 593c 021e b2bc
000000e0: cf53 60bc 4514 d33a 8087 39bc 01d8 85ba
000000f0: 023f f53b 6aa8 83bc 8795 eabc 1bc1 c53b
00000100: 15cd ab39 9350 09bc f805 c1ba 8009 c7bc
00000110: 0e09 df3c 733c ef3c 0585 f9bc 92d1 303c
00000120: bce1 e03b b5aa 8abc 9af8 3cbc a266 853c
00000130: ba69 363c 7019 e7bc 11e1 ccbb 36df 3fbc
00000140: 869e 053c 59ce d53c 2b44 e83b f91d ccbc
00000150: 3a08 40bc f20b 023c 9caf a9bc da94 cfbb
00000160: b1b2 7a3c 3f04 f23c d53b 803c ccd3 d8bc
00000170: 5687 443c bb91 bcbc e3cd 31bb 9f5c bf3c
00000180: d646 87bc 81a8 aa3c 5711 84bb 5b42 f0bb
00000190: 900e 35bc 8ea8 4e3c d47b d43c a69c d5bc
000001a0: 0e3e 423c a306 fbbc 5271 f2bc e564 543c
000001b0: 67d5 323c 7477 94ba 7817 f93c 60c4 dabc
000001c0: 149c d93c 72b8 33bc 1bf4 c3bc d872 c33a
000001d0: a750 cb3b 1a66 dabc c976 db3c 72aa 91bb
000001e0: 3bcc 373c a85f 653c c933 bfbc f6ee 8f3c
000001f0: 431f f9bc ac1d b03b d902 93bc 7608 d83c
00000200: b746 063b 00a7 c83b dafa 76bc c68a 18ba
00000210: 2c7c baba cf07 90bc 037b 45bc b1e2 bebc
00000220: 9386 793c 2a64 c53c 98c5 813b 8f45 f8bc
00000230: c5d8 17bc 1d5e debc 1584 f9bb 4184 903b
00000240: e0d5 a23c 67fa 963c e21f 86bc c555 a6bb
00000250: 8a57 283c 62f3 7fbc 75bf e6bc a746 063b
00000260: 924e ccbc 720c e23c 028d 12bc 66e1 78bc
00000270: e058 46bb b57e c83c 1e52 0f3c e660 93bb
00000280: be2e 96bc 44ee 513c 1e9c d63c 947d 9b3c
00000290: 0210 84bc 6e8f fabc 542d b13c 64ce 27bc
000002a0: 087c b3bc 4530 dcba 1c1b f83c 55e2 cabb
000002b0: 7a10 433c aad1 b43c da62 53bc 69a4 f7bc
000002c0: d9e1 de3c 443a e4bc 0f30 dbbb 5796 94bb
000002d0: f899 fb3c 9eda d53c d554 b43c bb13 e43c
000002e0: ef8a ebbc e699 7c3c 3dec 2fbc 53b5 70bc
000002f0: 7ceb cc3c 629f be3c ff3e 5d3c 6239 523b
00000300: 761f 8c3c 5187 30bb 6878 e23c 8696 f73c
00000310: 2416 c33c d6f0 833c 894c 3b3c 0404 6639
00000320: b854 fdbb 8ff0 0f3c 647b 163c 65c1 debb
00000330: 19e1 dbbc 539d a33a 55bd 5cbc 18cc 9f3c
00000340: 1b29 d4bc e65d 8e3c 958f dabc 07b8 b6bc
00000350: 750f b93c 005a 8bbc f2e9 d9bb edf3 47bc
00000360: 7f9e 663c 3cef 89bc eadd 823c d5cc dabc
00000370: 2dc7 71bc a38b e7bc 3631 b2bc 64cc 77bb
00000380: a083 7f3b de40 cfbc 115d 463c a82c 74bc
00000390: 1393 b7bc c1e3 a63c 5003 e43c edf6 043d
000003a0: aef4 063d 5c9a 35bc b6b8 673c dcc6 a53c
000003b0: ce21 353b b63a ce3b dfa9 98bc e5fc d439
000003c0: d3df 8b3c b40a 083d 5d20 c13c 43b5 30bb
000003d0: 5e41 cfbc 3b28 4d3c 5f8b cf3c 0106 6a3c
000003e0: 84d1 123d 4e9c 9e3c 7510 a5bc 40eb d93c
000003f0: e416 a13c 5485 0b3b 7313 abbc 04ce 5c3c

shared_net.0.bias f4 [128]
0.058899958 0.03610477 0.018194241 0.025119044 -0.013359938 -0.017375639 -0.019783715 0.030048449
0.003032706 -0.014441736 -0.015479059 -0.005447164 0.0070165903 0.012336668 -0.0004558956 0.012760451
0.019247448 0.02003189 0.02605231 0.011810938 0.021108877 -0.01291754 -0.028042095 0.038827073
0.0045077116 0.021979151 0.008584603 0.004600941 0.007177087 -0.021112818 0.02129273 0.048656948
0.019031445 0.0001235028 -0.010482513 -0.012840429 0.016157696 -0.020434653 0.029678611 0.027066486
0.047279533 0.04905233 0.016523823 0.0149857765 0.027007744 -0.022987213 -0.025237437 0.021844994
0.016734779 -0.025466587 -0.002680327 0.03566034 -0.009579116 -0.00081974745 -0.003347386 0.028669437
0.033873413 0.0065267878 0.0028443972 0.01981086 -0.008354365 -0.016460313 -0.013567712 -0.025604684
-0.03412053 -0.007635734 0.02949146 0.044282965 0.005540452 -0.011740706 -0.02067756 0.018577002
0.029003149 0.00052117865 -0.0017547263 0.024612533 -0.027678233 0.019931236 0.00075070705 0.010620296
0.01712207 -0.032142967 -0.017429976 -9.110271e-05 -0.030693723 -0.0002554242 0.018811805 0.006134304
0.0029882423 0.005165895 0.019915426 -0.005314606 0.036315367 -0.0039360146 -0.02269625 0.011397063
0.007256875 0.010222595 0.025945174 -0.0024465094 0.0066178376 -0.0108879795 0.02481718 -0.030552138
0.023740526 0.044691745 -0.02362913 -0.017889 0.008730708 0.031756658 0.020525306 0.023371106
-0.016012961 -0.018261807 -0.021368707 -0.010209711 0.0059298305 -0.009833219 -0.029805787 -0.002758095
0.017191673 0.0008356203 0.0015772587 -0.026824052 0.008480045 0.009150008 -0.012904352 0.031098627
00000000: 1541 713d 98e2 133d 170c 953c 74c6 cd3c
00000010: a4e3 5abc 5b57 8ebc 7511 a2bc 2a28 f63c
00000020: 5dc0 463b 089d 6cbc e19b 7dbc 207e b2bb
00000030: 6deb e53b bc1f 4a3c 4605 efb9 3611 513c
00000040: d3ac 9d3c eb19 a43c a76b d53c aa82 413c
00000050: 86ec ac3c 17a4 53bc 89b8 e5bc 2309 1f3d
00000060: 6db5 933b 9f0d b43c 6fa6 0c3c 7ec3 963b
00000070: c52d eb3b caf4 acbc 176e ae3c 824c 473d
00000080: d5e7 9b3c 8880 0139 d9be 2bbc aa60 52bc
00000090: 255d 843c 9366 a7bc 8f20 f33c 89ba dd3c
000000a0: 2fa8 413d 19eb 483d f85c 873c e786 753c
000000b0: 583f dd3c ae4f bcbc bebe cebc 46f4 b23c
000000c0: 6017 893c 4e9f d0bc 6da8 2fbb 9410 123d
000000d0: b9f1 1cbc 52e4 56ba d15f 5bbb 2bdc ea3c
000000e0: d9be 0a3d aade d53b 1169 3a3b 624a a23c
000000f0: bfe0 08bc c7d7 86bc 1c4b 5ebc eac0 d1bc
00000100: f8c1 0bbd 2e35 fabb 1398 f13c 0e62 353d
00000110: ae8c b53b 175c 40bc fc63 a9bc cc2e 983c
00000120: 0398 ed3c b59f 083a d8fe e5ba 39a0 c93c
00000130: 76bd e2bc d546 a33c 19cb 443a c000 2e3c
00000140: 9543 8c3c 58a8 03bd 4fc9 8ebc 650e bfb8
00000150: 6771 fbbc 75ea 85b9 371b 9a3c 4602 c93b
00000160: 63d6 433b ab46 a93b ad25 a33c 2526 aebb
00000170: 6cbf 143d aff9 80bb 7ced b9bc bfba 3a3c
00000180: 14cb ed3b ac7c 273c f98a d43c 9e55 20bb
00000190: 72da d83b 7f63 32bc 664d cb3c 7a48 fabc
000001a0: 7e7b c23c b10e 373d e191 c1bc f48b 92bc
000001b0: 3e0b 0f3c 4513 023d b024 a83c c374 bf3c
000001c0: 9d2d 83bc c999 95bc 6d0d afbc a246 27bc
000001d0: 064f c23b 831b 21bc 442b f4bc 28c1 34bb
000001e0: 8dd5 8c3c 870d 5b3a 05bc ce3a 1dbe dbbc
000001f0: e3ef 0a3c eae9 153c c66c 53bc 8cc2 fe3c

shared_net.2.weight f4 [64, 128]
-0.01200847 0.049892806 -0.020858854 0.06431328 0.05127263 0.084779635 -0.069953114 0.06365607
-0.032012753 -0.0853266 0.07023451 0.07365631 -0.057307553 -0.021265667 -0.026444882 0.047704026
-0.0023429538 0.07211698 -0.07506833 -0.002839117 -0.027317617 -0.009015527 -0.054081738 -0.027958153
0.03071618 0.0456329 0.044132933 -0.040647686 -0.04923438 -0.060367383 -0.051625885 0.054529108
0.02689364 0.043427996 -0.05456647 -0.024363028 -0.013668728 0.055140533 0.015658723 0.04920088
-0.08720437 -0.047366124 -0.085395776 -0.005896555 -0.07147573 -0.03852894 0.029518567 -0.01603207
-0.08066872 0.043038603 -0.06706059 0.040189642 -0.017251674 0.08718633 0.009132095 -0.047995597
-0.06924649 -0.0021450534 0.051148057 -0.053845476 0.046575777 0.0611775 -0.06479012 -0.07058216
0.07876164 0.047350466 0.042806406 0.016690953 0.08427151 -0.072987385 0.017623873 0.015394989
0.06876234 -0.07378525 -0.010772365 -0.00094367843 -0.08148847 -0.07619817 -0.071813025 -0.036488317
-0.08256141 -0.05223988 0.017888017 -0.053189702 -0.030072387 0.03349255 -0.08018437 -0.038536306
-0.08671061 -0.037972633 -0.016487457 -0.01933178 -0.05642347 0.0070757708 0.026872747 0.06675092
0.0122486325 0.029374467 -0.045022897 -0.06576534 -0.04617049 0.08802825 -0.027704693 -0.01396069
-0.07283166 -0.07038543 0.022836046 0.051608026 -0.025061 -0.033043 -0.0013556428 -0.04073027
-0.03928399 0.04158443 -0.08087258 -0.015205635 -0.038841303 0.06720275 -0.00015091733 -0.021648949
-0.0706642 -0.04597419 0.056521684 0.0035601547 -0.055037536 -0.039953526 0.06394794 0.012422678
-0.08037136 -0.069306254 0.0074792025 0.055259824 -0.013500243 -0.06919414 -0.0005416186 -0.03777919
-0.036053576 -0.0086862445 0.0607288 0.02533209 -0.08077983 0.038892552 0.026509745 -0.056286294
0.075802736 0.080028705 -0.022197824 -0.02028415 0.0025908134 -0.06417095 -0.054742202 0.045505997
-0.017543552 -0.020384064 -0.056290973 0.02735754 0.062986076 0.031970356 0.047455363 -0.07373958
-0.07927833 0.0757951 -0.06126294 -0.056545023 -0.053178772 0.057087347 0.080870315 -0.024897406
0.020242848 -0.08916377 0.06400011 0.06922173 -0.054934464 0.0031389918 0.01295941 0.04271671
0.030836754 -0.07726233 -0.08373962 0.030673413 -0.079316765 0.03747326 0.07322201 -0.07270369
-0.058986977 -0.024846474 0.014593689 0.068668246 -0.04180145 0.07198028 -0.06427569 -0.0729687
0.051837496 0.08582482 0.06384813 0.02259311 -0.052090574 -0.03163533 -0.078196384 0.0036066647
-0.0043453593 0.07750277 -0.077730134 -0.012001227 0.04684387 -0.08034057 -0.032462623 -0.012954275
0.06677058 -0.0688157 0.06711623 0.07475562 0.0822033 0.025920616 0.009796447 0.08636906
0.050034445 0.0043121492 -0.07847229 -0.023590462 0.05800358 0.023996012 0.046972875 0.038891286
0.050687432 -0.020491472 0.031879906 -0.019514842 -0.042823844 -0.070495956 -0.015529703 0.05591693
0.018231785 -0.080176294 0.02277702 0.080406934 0.036478244 0.061788466 -0.07254953 0.027852576
0.05538354 0.048295513 -0.008458303 -0.03142649 0.08567877 0.037132617 0.020796055 0.07269472
0.013727692 -0.025981309 0.04535615 -0.0803049 -0.019867897 0.002529162 0.007920836 0.01552721
00000000: 2cbf 44bc 665c 4c3d 30e0 aabc aeb6 833d
00000010: 4003 523d f2a0 ad3d 9443 8fbd 1d5e 823d
00000020: ce1f 03bd b6bf aebd 1cd7 8f3d 1fd9 963d
00000030: 53bb 6abd 5635 aebc f0a2 d8bc 4c65 433d
00000040: 3e8c 19bb 11b2 933d 6dbd 99bd 7b10 3abb
00000050: 32c9 dfbc dcb5 13bc d084 5dbd 7f08 e5bc
00000060: 80a0 fb3c 90e9 3a3d bcc4 343d 307e 26bd
00000070: fda9 49bd ca43 77bd aa75 53bd ea59 5f3d
00000080: 0d50 dc3c 8ee1 313d 1781 5fbd f994 c7bc
00000090: cdf2 5fbc 0adb 613d b946 803c dd86 493d
000000a0: 3498 b2bd fb02 42bd fbe3 aebd e337 c1bb
000000b0: de61 92bd 86d0 1dbd ecd0 f13c b055 83bc
000000c0: a435 a5bd 3f49 303d 1057 89bd e59d 243d
000000d0: 6253 8dbc bf8e b23d c89e 153c 0897 44bd
000000e0: 1bd1 8dbd 0694 0cbb a080 513d 138d 5cbd
000000f0: 3ec6 3e3d 4295 7a3d afb0 84bd 618d 90bd
00000100: c84d a13d 90f2 413d c555 2f3d 77bb 883c
00000110: 8b96 ac3d 697a 95bd f15f 903c 443b 7c3c
00000120: 45d3 8c3d b91c 97bd 937e 30bc 3061 77ba
00000130: 6de3 a6bd c90d 9cbd b512 93bd c674 15bd
00000140: f515 a9bd 7cf9 55bd e489 923c 72dd 59bd
00000150: 5e5a f6bc 7c2f 093d b437 a4bd 3fd8 1dbd
00000160: 5595 b1bd 3189 1bbd b410 87bc ae5d 9ebc
00000170: 4c1c 67bd dedb e73b 3c24 dc3c b5b4 883d
00000180: 7dae 483c b9a2 f03c ee69 38bd fbaf 86bd
00000190: 451d 3dbd 2848 b43d f4f4 e2bc 61bb 64bc
000001a0: c428 95bd 3c26 90bd a912 bb3c f062 533d
000001b0: ba4c cdbc 1958 07bd d3af b1ba c9d4 26bd
000001c0: 40e8 20bd 6f54 2a3d 86a0 a5bd 0e21 79bc
000001d0: 0f18 1fbd 98a1 893d 903f 1eb9 2359 b1bc
000001e0: 64b8 90bd 6f4f 3cbd 4883 673d 7c51 693b
000001f0: 0a6f 61bd 4fa6 23bd 23f7 823d 7d88 4b3c
00000200: bd99 a4bd 70f0 8dbd 1914 f53b 2058 623d
00000210: 2030 5dbc a8b5 8dbd 69fb 0dba 5abe 1abd
00000220: eaac 13bd c050 0ebc c3be 783d 3e85 cf3c
00000230: e56f a5bd cc4d 1f3d f72a d93c 758c 66bd
00000240: 773e 9b3d 17e6 a33d 36d8 b5bc f22a a6bc
00000250: a3ca 293b 0f6c 83bd 5c39 60bd 7f64 3a3d
00000260: 7fb7 8fbc 7bfc a6bc 5d91 66bd eb1c e03c
00000270: d8fe 803d 59f3 023d 8e60 423d c704 97bd
00000280: ad5c a2bd 763a 9b3d d9ee 7abd c19b 67bd
00000290: fcd1 59bd 6cd4 693d 569f a53d a5f5 cbbc
000002a0: 54d4 a53c 7f9b b6bd 7d12 833d 1fc4 8d3d
000002b0: f602 61bd 8bb7 4d3b b553 543c b8f7 2e3d
000002c0: 5c9d fc3c b63b 9ebd ae7f abbd cf46 fb3c
000002d0: d470 a2bd 907d 193d 6cf5 953d ace5 94bd
000002e0: 549c 71bd d58a cbbc 5e1a 6f3c f0a1 8c3d
000002f0: ff37 2bbd 666a 933d f9a2 83bd 9d70 95bd
00000300: 8e53 543d ecc4 af3d cfc2 823d 3015 b93c
00000310: ed5c 55bd 0c94 01bd 6d25 a0bd cb5d 6c3b
00000320: 8463 8ebb c6b9 9e3d fa30 9fbd cba0 44bc
00000330: 5cdf 3f3d 9989 a4bd 87f7 04bd 2b3e 54bc
00000340: 04bf 883d 3fef 8cbd 3c74 893d 7919 993d
00000350: 345a a83d 7957 d43c 4781 203c 43e2 b03d
00000360: ebf0 4c3d ee4c 8d3b 14b6 a0bd c940 c1bc
00000370: 2995 6d3d 4993 c43c a166 403d 784c 1f3d
00000380: a09d 4f3d bbdd a7bc 8194 023d 97dd 9fbc
00000390: 0e68 2fbd 2f60 90bd 4c70 7ebc 2709 653d
000003a0: d35a 953c 7833 a4bd e096 ba3c 64ac a43d
000003b0: 366a 153d e715 7d3d d994 94bd 162b e43c
000003c0: dad9 623d 84d1 453d b294 0abc 10b9 00bd
000003d0: 5a78 af3d 5f18 183d 7d5c aa3c f8e0 943d
000003e0: 1dea 603c c1d6 d4bc 5fc7 393d e576 a4bd
000003f0: 00c2 a2bc 4cc0 253b 65c6 013c d765 7e3c

shared_net.2.bias f4 [64]
-0.052160136 0.0051904554 0.1233192 0.08123145 -0.07718871 -0.08281745 -0.08050421 0.12786627
-0.06531204 0.14431745 -0.07765929 0.042041454 0.03582696 0.0068364213 -0.020450525 -0.0076244664
-4.2568317e-06 0.05148578 0.08670492 -0.065681614 -0.041059934 -0.0051325536 0.065162174 -0.04765234
-0.070826925 0.05323258 0.058055047 0.030032419 0.12059352 -0.009741931 -0.03727399 -0.024393814
-0.07924027 0.032659616 0.0447401 0.040551588 -0.0606437 -0.008397069 -0.03829882 -0.054100983
-0.061188802 0.0069660167 0.057264965 0.026021192 -0.083024636 0.0897102 -0.05471095 -0.013461418
0.1222069 0.041548837 -0.060899757 -0.06987713 0.049478546 -0.035405584 -0.010338007 -0.094987
0.07435638 -0.08379171 0.16461994 -0.016324548 -0.03365744 -0.045139737 0.17082384 0.025859669
00000000: dea5 55bd b214 aa3b c78e fc3d ad5c a63d
00000010: 1d15 9ebd 329c a9bd 64df a4bd 60ef 023e
00000020: 52c2 85bd f4c7 133e d50b 9fbd a933 2c3d
00000030: 4abf 123d 0f04 e03b dc87 a7bc a9d6 f9bb
00000040: e8d5 8eb6 c1e2 523d 5992 b13d 1584 86bd
00000050: 762e 28bd fb2e a8bb bf73 853d 1a2f 43bd
00000060: b50d 91bd 680a 5a3d 21cb 6d3d 8c06 f63c
00000070: bcf9 f63d 9f9c 1fbc 9dac 18bd 89d5 c7bc
00000080: b948 a2bd 17c6 053d 6541 373d 6c19 263d
00000090: 8765 78bd dc93 09bc 39df 1cbd fe98 5dbd
000000a0: 1ca1 7abd 2f43 e43b ab8e 6a3d 652a d53c
000000b0: d208 aabd fbb9 b73d 9718 60bd 488d 5cbc
000000c0: 9c47 fa3d 1d2f 2a3d 0672 79bd be1b 8fbd
000000d0: 04aa 4a3d 7205 11bd be60 29bc 8b88 c2bd
000000e0: 2848 983d fd9a abbd 2192 283e 0fbb 85bc
000000f0: 62dc 09bd 72e4 38bd 72ec 2e3e a8d7 d33c

actor.0.weight f4 [32, 64]
0.067756 0.122971386 0.03288698 0.10215852 -0.071037546 0.06492452 0.09151215 -0.00041900828
0.03095273 0.008279584 -0.114988655 0.056503683 -0.10503855 -0.09970926 -0.089617565 -3.9309263e-05
-0.021997347 0.07431337 0.068839215 0.040845186 -0.046583742 -0.07064867 0.07689481 -0.08315022
0.089813575 -0.09908751 -0.048386697 -0.013527144 0.014676323 0.09145581 -0.04975508 -0.06227125
-0.11325349 -0.041820932 0.017115757 0.10001314 -0.12205687 0.073615745 0.122815594 0.054049816
-0.10852264 -0.11375581 -0.11370796 0.025181606 -0.041377008 0.10033568 0.0138607025 0.07585648
-0.0069688796 -0.045195494 0.09977843 0.09655051 0.09075598 -0.084911674 -0.025685955 0.07879694
0.11065905 -0.11335838 0.05458621 0.03829114 0.11925593 -0.09214493 -0.08418393 0.046907026
-0.005199969 0.11983868 0.08494372 0.017366404 -0.057752207 -0.012928739 0.026484808 -0.049438618
-0.08180189 0.058991384 -0.06134005 -0.03507285 0.07044494 0.04247482 0.11575094 0.037573412
0.06621908 -0.023702206 -0.047307737 -0.09763615 -0.073136866 0.034875005 -0.017827991 -0.08232616
0.09813818 0.07704371 -0.05859325 0.0536858 0.06694665 0.055245172 -0.082166575 0.08519675
0.035357624 -0.045821384 -0.09294762 0.07989122 0.059489712 0.03290187 -0.12201443 -0.028889801
-0.008011093 -0.0785931 0.048217565 0.08335753 0.020788953 -0.09852086 -0.054624304 -0.035450086
0.054024138 -0.11712144 -0.035822954 -0.040115684 -0.09730033 0.09663734 -0.104030095 -0.0029048896
0.022324605 -0.02704472 -0.10168494 0.033159316 0.093815535 -0.122300185 0.075077064 0.018383168
0.0883739 -0.013148398 0.078487314 -0.08067492 -0.05180554 -0.0005340278 -0.1162909 -0.072339766
-0.053277504 0.0048751137 0.002265796 -0.10434114 0.079703905 -0.043554537 0.032563344 0.05623476
0.07661778 0.04557452 0.10234572 -0.054556727 -0.018903598 0.063997686 0.07668375 0.01768127
-0.054367647 0.10608413 -0.114469066 0.06581965 0.032029267 -0.014369813 0.024284912 0.05730994
-0.07283005 -0.027501125 0.019875929 0.105733484 0.08483887 0.12476149 -0.09261797 -0.12428597
-0.06701043 0.019206136 0.09940904 0.07397537 -0.06932916 -0.042324144 -0.0016823411 0.0022566319
0.10418843 -0.08421784 -0.08987576 -0.1086846 -0.05232514 0.11534532 0.11288128 0.0686941
-0.09712061 0.075337626 0.10503901 0.0728111 -0.12008217 -0.11172915 -0.07748218 -0.07356704
-0.09970239 0.033528462 -0.11381112 0.040098414 -0.12274037 0.0057401955 -0.089726195 0.08851579
-0.104945466 -0.097084194 0.10805765 -0.064953625 -0.033340916 -0.1164013 -0.062800795 -0.079097986
-0.034249634 -0.051520318 0.080492035 0.078105226 0.09514603 0.07282263 0.05765599 0.09810896
0.11186388 0.059340417 -0.07399507 -0.12161529 0.057106018 0.0011806637 0.05425912 0.10268782
0.07637717 0.092904806 -0.09682126 0.016193688 0.058187112 -0.0133366585 0.07664201 0.007248208
0.08184394 -0.06734125 0.039588913 0.013094351 -0.047776043 -0.026864529 -0.03951603 0.11693175
0.052164808 -0.10749903 0.046200454 -0.091773465 0.067855954 -0.008270383 -0.03240131 -0.09778792
-0.083804145 -0.08441599 -0.064996645 0.058847934 0.023815677 0.12191105 0.014021039 0.03614086
00000000: a8c3 8a3d 6cd8 fb3d 7fb4 063d 7c38 d13d
00000010: 227c 91bd 26f7 843d b96a bb3d 57ae dbb9
00000020: 9490 fd3c 18a7 073c 2c7f ebbd 6870 673d
00000030: 741e d7bd 5e34 ccbd 6a89 b7bd 00e0 24b8
00000040: c833 b4bc 9c31 983d 93fb 8c3d 484d 273d
00000050: 98ce 3ebd 40b0 90bd 077b 9d3d aa4a aabd
00000060: 2ef0 b73d 64ee cabd 2131 46bd f4a0 5dbc
00000070: f674 703c 2f4d bb3d fccb 4bbd 2310 7fbd
00000080: 72f1 e7bd 6d4c 2bbd 5836 8c3c b0d3 cc3d
00000090: f4f8 f9bd dac3 963d be86 fb3d 5763 5d3d
000000a0: 1e41 debd cef8 e8bd b8df e8bd a849 ce3c
000000b0: f07a 29bd cb7c cd3d 0018 633c a45a 9b3d
000000c0: 335b e4bb e91e 39bd a258 cc3d 46bc c53d
000000d0: 45de b93d 2ce6 adbd 5a6b d2bc 4a60 a13d
000000e0: 36a1 e23d 7028 e8bd ca95 5f3d 2cd7 1c3d
000000f0: 743c f43d 7bb6 bcbd a068 acbd 9521 403d
00000100: 8064 aabb fb6d f53d f9f6 ad3d fd43 8e3c
00000110: 948d 6cbd 10d3 53bc abf6 d83c 2680 4abd
00000120: c087 a7bd f3a0 713d b43f 7bbd 8ca8 0fbd
00000130: 7045 903d 14fa 2d3d d40e ed3d 94e6 193d
00000140: de9d 873d 212b c2bc c2c5 41bd 76f5 c7bd
00000150: c8c8 95bd 18d9 0e3d 020c 92bc 9e9a a8bd
00000160: acfc c83d 18c9 9d3d 7aff 6fbd a4e5 5b3d
00000170: 531b 893d c348 623d f346 a8bd a27b ae3d
00000180: 28d3 103d 34af 3bbd 525b bebd 029e a33d
00000190: 7cab 733d 1cc4 063d b4e2 f9bd 4eaa ecbc
000001a0: f640 03bc 6bf5 a0bd c87f 453d 5ab7 aa3d
000001b0: 984d aa3c 4ec5 c9bd bcbd 5fbd 1c34 11bd
000001c0: 6a48 5d3d 5edd efbd 17bb 12bd 5850 24bd
000001d0: 6545 c7bd cce9 c53d bb0d d5bd f65f 3ebb
000001e0: 17e2 b63c e38c ddbc 3240 d0bd 10d2 073d
000001f0: 5c22 c03d 8578 fabd 01c2 993d 4c98 963c
00000200: 60fd b43d 616c 57bc f5bd a03d e438 a5bd
00000210: 0c32 54bd 00fe 0bba ec29 eebd df26 94bd
00000220: 8339 5abd 6bbf 9f3b c07d 143b cfb0 d5bd
00000230: cd3b a33d 3e66 32bd 2461 053d 6b56 663d
00000240: c8e9 9c3d 59ac 3a3d a29a d13d e076 5fbd
00000250: b8db 9abc 3811 833d 5f0c 9d3d 50d8 903c
00000260: 9cb0 5ebd a342 d93d c26e eabd 74cc 863d
00000270: 1f31 033d 5d6f 6bbc 27f1 c63c d4bd 6a3d
00000280: ec27 95bd 0a4a e1bc d8d2 a23c cc8a d83d
00000290: 00c0 ad3d f482 ff3d 7eae bdbd a589 febd
000002a0: c43c 89bd 3056 9d3c f796 cb3d 6680 973d
000002b0: 72fc 8dbd 155c 2dbd 0082 dcba 00e4 133b
000002c0: be60 d53d 677a acbd c810 b8bd 0896 debd
000002d0: e352 56bd 2b3a ec3d 4d2e e73d 7eaf 8c3d
000002e0: 2ce7 c6bd 9d4a 9a3d b11e d73d fc1d 953d
000002f0: a4ed f5bd 41d2 e4bd faae 9ebd 51aa 96bd
00000300: c430 ccbd 2455 093d ce15 e9bd 3c3e 243d
00000310: 4e5f fbbd 4018 bc3b 5ec2 b7bd c447 b53d
00000320: a6ed d6bd 14d4 c6bd 544d dd3d 6806 85bd
00000330: 7c90 08bd ce63 eebd b49d 80bd 20fe a1bd
00000340: 5849 0cbd f806 53bd 02d9 a43d a2f5 9f3d
00000350: ecdb c23d 0824 953d b028 6c3d 5aed c83d
00000360: e418 e53d f00e 733d ba8a 97bd 7011 f9bd
00000370: 00e8 693d 80c0 9a3a d03e 5e3d fe4d d23d
00000380: a26b 9c3d e044 be3d 3a4a c6bd a0a8 843c
00000390: 9c55 6e3d 0082 5abc 7cf6 9c3d 6082 ed3b
000003a0: cc9d a73d 36ea 89bd fc27 223d b089 563c
000003b0: d0b0 43bd 0013 dcbc 90db 21bd ea79 ef3d
000003c0: c4aa 553d 7428 dcbd b03c 3d3d baf3 bbbd
000003d0: 10f8 8a3d 8080 07bc 3cb7 04bd 0845 c8bd
000003e0: 82a1 abbd 4ae2 acbd f61c 85bd 880a 713d
000003f0: 1819 c33c 80ac f93d 80b8 653c 7008 143d

actor.0.bias f4 [32]
-0.10472625 -0.10866956 0.050471045 0.0077759624 -0.0048532644 0.041012153 0.09693432 0.028349463
0.027489385 -0.0037523655 -0.10757279 -0.12180405 -0.036172517 -0.08464767 0.112394206 -0.11041683
0.040926605 0.016866384 -0.08139041 0.037513882 -0.07088367 -0.0342952 -0.044581875 0.08839536
0.08342647 0.10721884 -0.118007705 -0.081638955 -0.031197801 -0.047042523 0.085141025 -0.0170334
00000000: b77a d6bd 258e debd baba 4e3d 80cd fe3b
00000010: 2208 9fbb 5cfc 273d 8085 c63d 223d e83c
00000020: 6b31 e13c 3fea 75bb 1f4f dcbd 6774 f9bd
00000030: a229 14bd c25b adbd ef2e e63d 3822 e2bd
00000040: a8a2 273d 5f2b 8a3c 04b0 a6bd 28a8 193d
00000050: 752b 91bd 2079 0cbd 7c9b 36bd a008 b53d
00000060: 7fdb aa3d 8d95 db3d 06ae f1bd 5332 a7bd
00000070: 8892 ffbc a9af 40bd 6b5e ae3d a189 8bbc
