logs/20250602_155832/best_model.pt (torch, 439605 bytes, 39 tensors)

shared_net.0.weight f4 [128, 30]
00000000: 0611 febc 9e45 9ebd d5d1 85be bed9 ca3c
00000010: d507 7ebe e52a 973d c5df 833d adad 953d
00000020: 99aa 32bd d0ae 803d 57b0 4ebd 7e8a c63d
00000030: 6ee4 993d cf2e cabd 9d98 2e3e 8d7c af3e
00000040: 97fe 103e af26 1bbe 5fa1 45bd 4d8f b93d
00000050: 6e01 c23d 0e1a a83d 947a 223e 5cf5 20bd
00000060: 53c9 ecbc c17f c03d 31d7 22bd 2224 433e
00000070: f271 85bd 41e1 a5bd d19c 3ebe 6f45 4b3d
00000080: dd6e 3dbe 118c 04be 8500 bf3d 8ada 90bc
00000090: ba8b 623c dc6f e53c 4730 033e 0a1d 0bbd
000000a0: 9676 263e 3f63 be3d 2034 64bd 380d 7e3e
000000b0: 23b1 c13c c659 753a ef89 693d c6bc a23d
000000c0: 8367 7ebe 8b76 333e d642 20bd d74a 1bbe
000000d0: 445a 57be d42d 643b 9920 17be 6b8b e7bd
000000e0: 3413 1dbc f1cd 8fbc 8ed9 8a3d ba93 283e
000000f0: 8de1 c53d 4098 093e 7587 48be 77b3 e23d
00000100: 16cf 2d3d 94ec 34bd 917b a4be aeea 3cbe
00000110: 0788 38be 5f06 97bd 8042 003d c8dc c33d
00000120: 711a 653d b387 1dbe 3075 abbe a5fb ac3d
00000130: 8ecc 333e 21b1 1fbe 2f9f 91be 8357 5dbe
00000140: 2441 46b9 2be3 ccbc 2482 febd 835d 0a3e
00000150: 4078 27be c3c2 36be 52aa 92bb 75c6 f7bd
00000160: cb58 c1bd 2f56 09be f0b6 a7bc ac4f 04be
00000170: 064e 013e 76ee 19be 7f28 a2be 0864 ccbb
00000180: d260 f03d 37a4 6f3c 8d03 89bb 606c e83d
00000190: a787 8d3e 1e01 643e e110 6d3c 8ac8 ce3d
000001a0: c924 aebd fe64 313e 31d7 40be a636 abbc
000001b0: 4d57 99bd 8338 e5bc 8daa 293e 100b aa3d
000001c0: e0c3 89bd 887e 91bd 25ec 53bd 288a 16be
000001d0: 938a 0b3e 4c97 90bd 0824 70bd 3315 fa3c
000001e0: 815e c33d 2ab6 b2bd 18b9 c5bd 5da5 32be
000001f0: 5c8f d73d f8e5 cc3d b0dd 60be 8558 4e3e
00000200: 18be e03d 7d7a 34be 791e 0ebd 7c4b c8bc
00000210: 04a2 193d b426 0cbb f88e 263e d6f2 a53d
00000220: 8063 a2bc 9b92 2b3e 99ef 0e3c e536 21bd
00000230: 4178 aa3d fea1 cb3d 27d9 7e3e 0d81 aa3d
00000240: 1fcc 8cbd a2d2 693e a32a 1f3e e1f0 2b3d
00000250: 2a9c 773d ab7c 523e 5c30 d13c c058 a63d
00000260: 4ce5 023d 255a 20be 8850 b13a cc67 16be
00000270: 147c d6bd 5651 663d ad99 373e 5837 963e
00000280: c100 073d 5c1f 39be db26 11be 40a5 093d
00000290: b2ec 633d bb19 bd3d 0f29 e4bd 388f 86be
000002a0: a8d0 9dbd 59ba b53d edb0 1c3e 14c6 a0be
000002b0: c464 c9bd 5008 15be f1e9 5bbe 00fd ac3e
000002c0: 1cfa 61bc 80a0 213d ab65 123e 62c3 3a3e
000002d0: ee66 6f3d c88a 013d e71a 703e 657b 8dba
000002e0: 2060 383d 75b1 5ebd 1d4c 61be e0be 4f3d
000002f0: d7da 14be 009a bbba dc03 c5be 88e5 adbd
00000300: 1e05 24be 0316 99bd 1241 fdbb 57a8 103e
00000310: c69c 46be 9304 4e3d fe38 4abd b7ec 2fbe
00000320: eaed 52be b92f e8bd 67c5 83bd fd50 50bd
00000330: 4d25 92bd 0090 6e3a cb89 b3bd 34cf a1bc
00000340: 83c8 e0bd bb67 47be 4fd5 0a3e d312 bdbc
00000350: b48b 363e e901 9cbd ac04 993d 5d48 8b3d
00000360: b25d 40bd ca26 cabd 5acb b33d 8758 123d
00000370: e36c 133e 8e97 a0bd 4dd8 273e b187 3d3e
00000380: f54b a23d 53d9 ba3d 242a 393e 463e e23d
00000390: 3bfc a23d c854 e1bd adbf 303e dffb f6bb
000003a0: 90ee c7bd ae33 a7bb cb9c b83d a403 903d
000003b0: a8be a43d 2b2e 97bc 1c36 493e da4d 863e
000003c0: 1e5d 5ebe 7874 803d 7124 753e 039e b83d
000003d0: 8f6b 2d3e deb1 b3bd 3483 5dbd c59a 183e
000003e0: 526d 90bc 8ae1 1dbd 42d2 11be 2747 ffbc
000003f0: 5b62 80be f142 d2bd 3226 47bd 70f6 f63c
-0.031013977 -0.07728122 -0.26136652 0.02476203 -0.24807675 0.07381228 0.06439165 0.07308517
-0.043619726 0.06283343 -0.05046114 0.09694384 0.07514273 -0.09872209 0.17050405 0.34274712
0.14159618 -0.15151475 -0.0482496 0.090605356 0.09472929 0.082080945 0.15867072 -0.039296493
-0.028904593 0.09399367 -0.039756004 0.19056752 -0.06515874 -0.080996044 -0.18614508 0.049626764
-0.18499322 -0.12944056 0.09326271 -0.017682333 0.013827259 0.02800744 0.12811385 -0.03396324
0.16256174 0.092962734 -0.055713773 0.2480973 0.023644036 0.00093593856 0.05701631 0.07946162
-0.24844174 0.1752569 -0.03912624 -0.15165268 -0.21030527 0.0034817355 -0.14758529 -0.11305889
-0.009587098 -0.017554255 0.067797765 0.16462603 0.09662161 0.13436985 -0.19582923 0.110693865
0.04243382 -0.04417093 -0.32125524 -0.18448898 -0.1802064 -0.07374262 0.03131342 0.09563595
0.05593342 -0.15383796 -0.33487844 0.08446435 0.175585 -0.15594913 -0.2844176 -0.21615414
-0.00018907018 -0.025010666 -0.12427166 0.13512234 -0.16354465 -0.17847733 -0.00447587 -0.120983995
-0.09440764 -0.13411783 -0.020472974 -0.12921017 0.1262742 -0.15032372 -0.3167152 -0.0062375106
0.11737217 0.014626554 -0.0041813315 0.11348796 0.27642557 0.22266051 0.014469356 0.100968435
-0.0850311 0.17323682 -0.18832089 -0.020900082 -0.074873544 -0.027981048 0.16568966 0.08302891
-0.06726813 -0.07104212 -0.051738877 -0.1470114 0.1362708 -0.070601076 -0.058628112 0.030527687
0.095395096 -0.08726151 -0.096544445 -0.17445894 0.105253905 0.100048006 -0.21959567 0.20150955
0.109737575 -0.1762485 -0.03469703 -0.024450056 0.037508026 -0.0021385374 0.16265476 0.08102958
-0.019822836 0.16755144 0.008724117 -0.039358992 0.08323718 0.09943007 0.24887525 0.08325396
-0.068748705 0.22834256 0.15543608 0.041977767 0.060451664 0.2055537 0.025535755 0.081223965
0.031956956 -0.15659387 0.0013528029 -0.14688033 -0.10472885 0.05622991 0.17929716 0.293391
0.032959703 -0.18078369 -0.14174978 0.03360486 0.055645652 0.09233423 -0.11140644 -0.26281142
-0.07705814 0.088734336 0.15301867 -0.31401122 -0.09833673 -0.14553952 -0.2147596 0.33786774
-0.013792541 0.039459705 0.14296596 0.18238595 0.05844777 0.031626493 0.23447762 -0.0010794221
0.045013547 -0.054368455 -0.22001691 0.050719142 -0.14536606 -0.0014312863 -0.38479507 -0.08491045
-0.16017577 -0.074749015 -0.0077287043 0.14126717 -0.19395742 0.05029733 -0.04937076 -0.17180143
-0.2059857 -0.113372274 -0.06434136 -0.050858486 -0.07136021 0.0009100437 -0.08766516 -0.019752122
-0.109757446 -0.19473164 0.13557933 -0.023080265 0.1782673 -0.07617552 0.07471594 0.068009116
-0.046964355 -0.0987068 0.087790206 0.035728958 0.14397006 -0.07841407 0.16391106 0.18508793
0.07924644 0.091234826 0.18082482 0.11047034 0.079582654 -0.11002499 0.17260619 -0.0075373496
-0.09762299 -0.0051025962 0.09014281 0.070319444 0.08044177 -0.018454632 0.19649547 0.2623127
-0.21715209 0.06272215 0.23939683 0.09014513 0.16935562 -0.0877416 -0.054080203 0.1490279
-0.017630253 -0.03854517 -0.14240363 -0.031161858 -0.2507504 -0.10266674 -0.04862041 0.030146807

shared_net.0.bias f4 [128]
00000000: 0f92 05bc 25cf ad3c 931c 243e 1e64 0bbd
00000010: c734 103e 18f5 f83d 76e5 89bd 36ea f9bd
00000020: 1a95 66bd a304 9dbb c958 7a3c cce3 9f3d
00000030: e15d b93d f990 0e3e 36b2 1e3e dd81 063e
00000040: 45df f43c d4b0 d03d f088 bdbd 25c6 c1bd
00000050: c609 9ebd acee 83bd 6583 efbb bab9 b93d
00000060: 8c48 173e 0000 0000 82be dd3d 43b9 50bd
00000070: 0025 4c3d 3f5a dcba 6fe9 8c3d 8146 033e
00000080: 9703 9f3c 8ca4 813d db02 c33d 7084 ce3d
00000090: bccb 54bc 938c eb3d 82e9 f1bd 9fee 0b3e
000000a0: 4d33 8cbb 9fea d53d bfce 58bd 1617 1c3e
000000b0: cb13 61bd ef4c 93bc 77f7 dd3d 9182 0d3e
000000c0: f9ec c83d 2718 563d 9a67 abbb 8088 74bd
000000d0: d59e 013e 169d d63d 73ab 0e3e b519 68bd
000000e0: ad4e d73d 844a 10bc ea52 1f3d 2791 323e
000000f0: f84b a33d 8f58 d5bd 410f b13c 8174 013e
00000100: c49a e33d 6fa4 b03d d09c 81bd eead a13d
00000110: 7606 e53d 393a 1b3e 4a56 42bd 772e f8bd
00000120: 704c b4bc 3aec 0c3e 51d1 edbc eab9 bf3d
00000130: 6adc 803d 5524 03bc 588e ad3d ffeb 88bc
00000140: 639b c2bd 2e7b 033e e61a dabd 27a4 83bd
00000150: 91b2 c83d 9096 a53d fcda b53d 1d0c 193e
00000160: 5377 173e d690 fdbc 1a6f 0b3e 0000 0000
00000170: 82a1 163e d9ac 54bd f3de 56bd 99f4 bc3d
00000180: 7468 1bbd a0e6 cd3d 51e7 63bd 22ab 0fbc
00000190: 3061 e73d 0000 0000 80ef 53bd eac9 d63d
000001a0: cdd3 b2bd 0c2f edbc b9e7 1c3d e49b aa3d
000001b0: ce7c 9c3d 3030 f03d 0000 0000 7083 c4bd
000001c0: 53b9 ae3d e14e e93d 971d dc3c 8eb2 0f3e
000001d0: c4ef 433d 1fb2 ae3d d947 fabd d555 9b3d
000001e0: 8c01 8abc 0000 0000 b842 fa3d ce58 dabc
000001f0: afd8 973d f078 dbbd 5d8d fcbc 9e13 ba3c
-0.008152499 0.021216938 0.16026525 -0.034031026 0.14082633 0.12156123 -0.06733219 -0.12202875
-0.056294538 -0.0047918125 0.015279957 0.07807121 0.09051109 0.1392249 0.1549767 0.13135476
0.02989162 0.10189977 -0.092546344 -0.09461621 -0.07716708 -0.064420074 -0.0073093646 0.09068628
0.14773768 0.0 0.10827352 -0.05095793 0.049839973 -0.0016811563 0.068804614 0.12819864
0.019410891 0.06330213 0.09522029 0.10083854 -0.012988027 0.11501422 -0.11812116 0.13665245
-0.0042785765 0.10445141 -0.052931543 0.15243182 -0.054950517 -0.01798102 0.10838216 0.13819338
0.09810824 0.052269127 -0.005230856 -0.05970049 0.12658246 0.104791805 0.1393259 -0.05666514
0.10513053 -0.008806828 0.038897432 0.17438184 0.07973474 -0.10417282 0.021613719 0.12642099
0.111135036 0.08625113 -0.06328738 0.078945026 0.11182873 0.15158929 -0.047445573 -0.121182375
-0.022009104 0.13761988 -0.029030474 0.09361632 0.06292041 -0.008004268 0.084744155 -0.016714094
-0.09502294 0.12839958 -0.10649662 -0.06427794 0.09799684 0.08085358 0.088796586 0.14946027
0.14791612 -0.030952852 0.136166 0.0 0.14710048 -0.051922653 -0.052458715 0.09226341
-0.03794141 0.10053754 -0.055640522 -0.008768829 0.11297834 0.0 -0.051742077 0.10487731
-0.08731804 -0.028953098 0.038306925 0.08330515 0.07640992 0.11727941 0.0 -0.09595382
0.085314415 0.11391998 0.026869578 0.14032957 0.04783608 0.08530068 -0.12220735 0.075847305
-0.01684644 0.0 0.12219757 -0.026653673 0.07414376 -0.10716426 -0.030829126 0.022714432

shared_net.2.weight f4 [128, 128]
00000000: 7f39 093e c374 01be 82b6 a4be 8de5 7cbe
00000010: b816 003e c731 1d3e f0b6 90bd e6b7 9a3d
00000020: 207f 1ebe 4e90 49be 99a1 6d3d 5947 3ebe
00000030: 19f4 4e3c f127 983d 50c0 9b3d 6a58 efbc
00000040: 076d c13d efa3 94be 0728 9cbd 7dc4 753c
00000050: 1286 6a3e bb68 a9be e65c 473c 28eb 8dbd
00000060: adaa 1b3d a4d4 9b3d eca5 0fbf a7f3 85be
00000070: 7afd 833d bad6 88bb 319b 40be 5d95 8a3d
00000080: 1af6 91bd 8f02 8d3e 8a62 49bd 6fa7 623d
00000090: fefb ce3c 0fb6 91bc c8b8 1abe efe0 75bd
000000a0: 3ec5 d4bb d9b8 8a3d ce3b 31bc a98c bfbc
000000b0: 4fa1 3b3d 6bfc 09be 8703 30bd 16f8 f13d
000000c0: 9cee b83d 54f3 043d ff08 35be f4df c8be
000000d0: fc10 12be 3aea c9bb c5da 2e3d 398e 26be
000000e0: fb10 3e3e 0694 5d3c 24a9 2f3e 7f98 d73d
000000f0: 836e 2f3e 19e8 00be 9a3f bf3d 5a05 4cbe
00000100: 2a5e b23d 7a23 17bd 2a76 0b3e 24c2 873e
00000110: 09f8 c53d bd88 53bc 899a 953c fd2a 11bd
00000120: a3de 83bd f124 053d 01d4 4c3e 6b05 fe3c
00000130: c45c e13d 41fb eabd aa53 f93d daa6 2fbc
00000140: 1f7c 40be 8ec4 3c3e bb6c 88be 44de 923d
00000150: 6c73 5a3e bc28 49bd 3f93 48be b40b cebd
00000160: 0e43 7f3d e517 83bd 35a1 fc3d 2adb 87bd
00000170: 5ea3 743c f896 253c 0f1f 1fbe bff2 8bbe
00000180: 3cc0 33be d472 ad3d a917 88bd 3d74 de3c
00000190: aad8 dbbc 721a 213d a116 763d 0225 023e
000001a0: db70 453d e2ff 42bd abc7 8dbb 8130 003d
000001b0: f989 6f3e 0933 073d b515 9bbd d649 9abc
000001c0: 53c2 003e 80b1 43bd 1a0d bc3d 35e2 2c3d
000001d0: c7f6 ea3d 9eb7 22bf d1b9 02be 96a8 2fbd
000001e0: c4d3 143c 9a0e 75be fc60 60be 8622 903c
000001f0: baab 9a3d e4a8 b0bd b035 d6bb 5584 c53c
00000200: 3a52 693e 0597 3c3d 752f 94be d7cf 3b3e
00000210: 8e2d efbd 1fd5 1bbe b2d7 2b3d 5ece 533d
00000220: 35c3 42bd 23d0 353e c603 0c3d a5e4 d63d
00000230: 6e35 65be 389d 9bbd b74b d33c 91bb babd
00000240: dcd1 b6bc 576b 0c3e 2f63 1b3e 0de7 8a39
00000250: 5a56 d93d 7e0c 8fbd 367e 1cbc 8c7b d8bc
00000260: 0ccc f3bd 81ec 47bd 329a 4cbe 5ae4 253e
00000270: ad3e 81be 75fa 9e3d 8cf4 d8bd c33e f63b
00000280: 9803 c33e 8cd8 483e f0e9 1b3e 8a1d 2bbd
00000290: 5439 4e3d e8c1 3e3e 3d1f 633e afce 15bc
000002a0: 962e 943d a624 54bd 428a 9c3c 889b bd3a
000002b0: 768e 8fbd 3fa6 fabd 04f2 c7bc 2cc9 ecbd
000002c0: c0c2 043c 8714 4cbc 1e25 583d 1b96 223e
000002d0: 52f5 67bc f7df c63c 2e7a 87bc e477 e93d
000002e0: 94de 383e 27a9 fabd f2e9 cebc 7527 16be
000002f0: 34ba abbd cb95 713e 6835 ba3d 7e1f dc3d
00000300: b547 90bd 5a0c 4d3d d385 a43e 6fcf 6dbe
00000310: 0e97 8c39 7ee3 37bd 78a7 1e3e 3ac4 483d
00000320: 9501 d8bd 46b3 9f3d a072 bf3d b9f2 6bbe
00000330: 7d2b a83d 23c5 163e 7fbf 0abc d1c5 8dbd
00000340: 7057 613e 6db1 09bc 496d 05bd 2fc0 00bc
00000350: 2892 c93d 7d28 f2bc b85a e03d 4836 243d
00000360: 6894 b53d 3f56 613e 2479 a3bb 195f 69be
00000370: 61c4 393d 99d9 243e 83fa 70bd 56ec 2ebc
00000380: 38a7 843e bde7 82bd ae3a 373e 96f7 36be
00000390: f128 2d3e 887a 45bb a4ff 25be a36d 843e
000003a0: 27ee ff3d 500c 11bd afc3 313e e979 5c3e
000003b0: 02a0 2f3e 98dc 0cbd ffef 933d 8d8b 743e
000003c0: 1bf5 ef3b ceb7 803e b327 803e faa3 28bd
000003d0: ef01 9dbc d98d 44be 3426 ac3c 778d 9f3e
000003e0: 13ab a7be 1191 c23d bb67 183e 59c0 07bd
000003f0: d76f 243e 2025 af3e bc23 293d e4d0 623d
0.1340084 -0.12642197 -0.32170492 -0.24696942 0.12508667 0.1535102 -0.070661426 0.07554607
-0.15478182 -0.19683954 0.05801544 -0.18581904 0.01263144 0.07429493 0.0760504 -0.029216964
0.094446234 -0.2903132 -0.07624822 0.01500046 0.22902706 -0.33087716 0.012168145 -0.06929618
0.038004566 0.07608917 -0.5611255 -0.26162454 0.06444831 -0.004175988 -0.18809201 0.0676677
-0.07127018 0.27541015 -0.04916624 0.05533546 0.025266644 -0.017787008 -0.15109551 -0.060028967
-0.0064932397 0.06773538 -0.010817481 -0.023382502 0.045808133 -0.13475196 -0.042972114 0.11814897
0.09029886 0.03245862 -0.17679213 -0.39233363 -0.14264292 -0.006161955 0.042689104 -0.16265191
0.18561165 0.013524061 0.17154366 0.10527133 0.17132 -0.12588538 0.09338303 -0.19923916
0.087093666 -0.036899067 0.13619295 0.26515305 0.096664496 -0.012911019 0.018262165 -0.035441387
-0.06438949 0.032505933 0.20002748 0.031008443 0.11004022 -0.11473704 0.12174161 -0.010720933
-0.18797348 0.18434355 -0.26645455 0.071713 0.21333092 -0.049111113 -0.1958742 -0.10060826
0.062319808 -0.06401042 0.12335435 -0.06633599 0.014931528 0.010106795 -0.15539192 -0.27333638
-0.175538 0.08469167 -0.06645138 0.027155036 -0.026836712 0.03933186 0.060080174 0.1270943
0.04820333 -0.04760731 -0.004326781 0.031296257 0.23392476 0.033007655 -0.075725 -0.018834036
0.12574129 -0.0477767 0.091821864 0.042207915 0.1147285 -0.6356143 -0.12766196 -0.042885385
0.009083692 -0.23931351 -0.21911997 0.017594587 0.075522855 -0.08625963 -0.006537162 0.024110952
0.22785273 0.04604246 -0.28942457 0.18341003 -0.11678611 -0.15218018 0.04195375 0.05171048
-0.047549445 0.17755179 0.034183286 0.10492829 -0.22383663 -0.075983465 0.02579294 -0.09117807
-0.022316866 0.13712822 0.15174554 0.00026493557 0.106121734 -0.069848046 -0.009551575 -0.0264261
-0.11904153 -0.048809532 -0.19980696 0.1620039 -0.2524313 0.07762615 -0.105935186 0.007514806
0.3808868 0.19613856 0.15225959 -0.041776218 0.05034764 0.18628657 0.22179885 -0.0091435155
0.07235448 -0.051792763 0.019108895 0.0014465908 -0.07009594 -0.1223874 -0.024407394 -0.11561808
0.008103073 -0.012456066 0.052769773 0.15877573 -0.01415761 0.024276717 -0.016537752 0.113998204
0.18053657 -0.122392945 -0.025258038 -0.14663489 -0.08385125 0.23592298 0.09092218 0.10748194
-0.07044927 0.050060607 0.3213335 -0.23223661 0.00026815425 -0.044894688 0.15493572 0.04901526
-0.10547177 0.077978656 0.09348035 -0.2304181 0.0821142 0.14723639 -0.008468508 -0.06922496
0.22006011 -0.008404118 -0.032574926 -0.00785832 0.0984233 -0.029560322 0.10954803 0.04009083
0.08866197 0.22005557 -0.0049888063 -0.22790183 0.045353297 0.16098632 -0.058832657 -0.010676464
0.25908828 -0.06391857 0.17893478 -0.17867884 0.16910149 -0.0030132849 -0.162108 0.25864896
0.12496596 -0.035412133 0.17359804 0.2153088 0.17150882 -0.034390062 0.0722351 0.2388136
0.00732292 0.25140232 0.25030288 -0.041172005 -0.019165961 -0.19194736 0.02101431 0.31162617
-0.32747707 0.095003255 0.1488332 -0.03314242 0.16058289 0.34208012 0.041293845 0.055374995

shared_net.2.bias f4 [128]
00000000: 8a91 973d 9c91 753d a4b1 a93d f9f6 3fbc
00000010: e082 84ba 5e1a a5bd 1754 b83d 0000 0000
00000020: e060 333d dfce 9cbc 2ba6 4ebc 8644 a23d
00000030: 8878 ea3d 7b78 2d3d fa34 82bc 848e 333d
00000040: 2ae1 cbbd 530e b93c 0000 0000 a549 763d
00000050: 5be7 70bd 974f f43d 0000 0000 d56b c83d
00000060: 47e7 b2bc 3f28 613d 307f a8bb 543b 8d3d
00000070: 519d 253d ce16 d2bc 16e6 e4bd 4097 5ebc
00000080: 4e8a 1e3e 1c20 033d 30c8 c83d c3cb 52bb
00000090: d7ba 5b3d 817b 1fbc 4e89 e2bd c338 9dbd
000000a0: f51c 13bc 320d a839 08d9 59bd 5576 2b3d
000000b0: 36d8 983d 1bae dd3c ee3f 223d 7987 e73d
000000c0: fc94 273d 76fe 29ba 309a 97bd 183a 493d
000000d0: 497d f83d 3b17 a23d c716 bc3d 3e55 df3d
000000e0: c368 2dbc eff8 beba 5e4a 8c3d bd4c 5b3d
000000f0: 0000 0000 c18f fd3c dba0 01bd d7c4 a83d
00000100: c31f be3b a527 1b3c e98f a43d 2639 f93d
00000110: 9ce2 863d 0000 0000 acb6 48ba f386 143d
00000120: 4ff1 303c a028 d3bd ec9e c23c c392 883d
00000130: d37d cc3d d3bf f33b ec3e cabb 620c fdbb
00000140: 5826 d43d ec21 3ebc 0e91 7f3d 3c8a 49ba
00000150: d003 953d 3b3c 71bd 231d eebd 731f ddba
00000160: 0000 0000 5d5e e13d 1251 8ebb 05a8 e53c
00000170: 3366 49bd 8d11 7b3d 4279 8cbb afa8 52bc
00000180: 3135 973d ff84 7fbc 176b 90bb b7e2 5c39
00000190: 2e34 9abb f1bd c33d 0b03 223d a15e d53d
000001a0: 1d45 7e3d 0000 0000 f59d ef3c 43c2 a2bd
000001b0: bdb9 c63d 1993 a4ba da7e a53d f374 babc
000001c0: 0000 0000 0a3e ac3c 3da9 393c 034d 8ebc
000001d0: 858b 78bb 0000 0000 845b 0d3d 0000 0000
000001e0: c3ad 603d 0000 0000 411a 953d 8e2b bd3d
000001f0: ec48 a03d 48c6 9abb d6f9 83ba c171 c33c
0.07400806 0.059953317 0.082858354 -0.011716598 -0.0010109805 -0.0806167 0.09000414 0.0
0.04379356 -0.019141613 -0.01261286 0.07923226 0.11448771 0.042351227 -0.015894402 0.043837085
-0.09955056 0.022589838 0.0 0.060128827 -0.058814388 0.11929243 0.0 0.09786192
-0.021838797 0.054970022 -0.005142115 0.068960816 0.04043323 -0.02564564 -0.11176698 -0.0135858655
0.15482447 0.032013044 0.09803808 -0.0032164908 0.05364498 -0.0097340355 -0.11061345 -0.07676842
-0.008979072 0.00032053288 -0.053185493 0.041860897 0.07463114 0.027060559 0.03961175 0.11305136
0.040913567 -0.0006484756 -0.07402456 0.04912767 0.12133271 0.07914587 0.09184032 0.109049305
-0.010584059 -0.0014570038 0.06850122 0.05353998 0.0 0.030952336 -0.031647544 0.08240669
0.005802126 0.009469901 0.08035261 0.12169103 0.06586191 0.0 -0.0007656615 0.03626151
0.01079972 -0.10310483 0.02375742 0.066686176 0.099849366 0.0074386387 -0.0061720517 -0.0077224234
0.10358876 -0.011604767 0.062394194 -0.000768814 0.07276118 -0.05889533 -0.11626651 -0.0016870335
0.0 0.110043265 -0.0043431604 0.02803422 -0.04916973 0.061296035 -0.004286916 -0.0128576
0.07383192 -0.015595674 -0.0044072974 0.00021065293 -0.0047059273 0.09557713 0.039553683 0.1041844
0.06207763 0.0 0.029250124 -0.07947209 0.097033955 -0.0012556046 0.08080836 -0.022760844
0.0 0.021025676 0.011331853 -0.017370706 -0.0037924957 0.0 0.034511104 0.0
0.054853212 0.0 0.07280398 0.09236823 0.07826409 -0.004723344 -0.0010068964 0.023857953

shared_net.4.weight f4 [64, 128]
00000000: 4cf6 93bb 8bb7 5d3d 6d1c 14be 6e81 ea3b
00000010: bca8 eabd 93d0 14be c1fc 903d 2671 023d
00000020: 12d8 723e 49d4 30be b2a7 103d 8504 f4ba
00000030: bd30 45bd a99c da3d e977 3f3e 8511 2bbe
00000040: 0639 d8bd da51 fc3c 81da 8e3d d856 f6bd
00000050: 5d53 a2bc 16ad 9d3d 6dc9 16bd d2f5 72be
00000060: 9ee6 0b3e 9d82 873e 6132 ebbc 5003 13be
00000070: b503 48bd b217 98bc 5a49 6f3d 3d5d 62bd
00000080: c00e 0bbe 5c8d 43bd 2ebb 54be 5966 1f3e
00000090: c012 9c3d 8d34 173e e62c d83b bb62 76be
000000a0: 660f f7bd b817 f93d 6471 493d ce23 f43d
000000b0: c30a dcbb 46d8 84bd 6d2f 94bd f173 34bc
000000c0: addc 5d3c b793 f5bd 38a8 7fbd f6f1 89be
000000d0: 6130 02b9 0877 303d c483 14bd 3451 053b
000000e0: 83aa 863e 70ce 22bd 6e77 fbbd e29f b63c
000000f0: d6dd 89be 4c29 ed3d c52d 9cbd 07eb 4f3e
00000100: cf36 863d a282 e6bc 02c1 b33d c8f1 abbe
00000110: 3bcb 413e 96d1 00bd aa3b 90bd eca4 9cbd
00000120: 1012 d63d f9a5 21bd c7ab 9fbd 9167 31bc
00000130: 84bb 0dbe c5aa 35be 0025 0cbe 747b 053c
00000140: a7ab 693e c637 a0bd 58e2 883d b358 363c
00000150: 248f 5e3d 3713 253d c088 fe3d dc87 8ebc
00000160: 7917 f1bc 38a0 2cbe 4d06 183d e2a4 38be
00000170: 887b 8a3d 55df c0bd 5701 d0bd 195d e4bc
00000180: c8fe cf3d 0766 88bd ff66 36be 28c1 4dbd
00000190: 372a 83be aa3e 2abd 9cf3 8bbc 94eb 3fbc
000001a0: 1981 c1bd 71c7 7dbe 261d 3ebe 1323 91be
000001b0: a4d5 dc3d 330f 563c 99cf 4f3d 7ba2 3ebc
000001c0: d00a c3bd e786 47be 5285 fabd c97f 80be
000001d0: 08fe 263d 3d8b b5bd 6f8a 87be 214a afbb
000001e0: 73aa f3bc 65bd 86bc 5862 403d 5ef4 4dbe
000001f0: 3c99 87bd 896d 05bd cc0d c5bc 125b da3d
00000200: a479 b43d 1d4e 333d 4b0e 31be 382a 033e
00000210: 5017 133e 027d 37be f891 1d3c a1f8 58be
00000220: 0fa0 5f3d 0079 263e b84d 2d3e 02b3 3e3e
00000230: 524c 2e3c 1d13 e9bd 9dff 493a 1a67 cbbd
00000240: 70e2 11be 180c 0cbe c08b 01be de4b ad3d
00000250: 6c9b ad3c 7894 6c3d 75c4 8a3d 6a6f 843c
00000260: 21f4 d13d 8677 07be 67db 423d a001 c93d
00000270: be3b da3c ab34 2abd 8a90 413e f280 0cbd
00000280: ffa9 86bd 87d8 4e3e 2952 723e e4e6 0e3d
00000290: b756 f3bc 76fe c13c 39ea 903c 1d02 01bd
000002a0: 428f b43d 9e32 c7bc 6abb b3bd 3817 2ebe
000002b0: aa63 15be e884 e93b 27b6 ac3d f350 a0be
000002c0: 4ee3 263e 1d66 a1bc fff7 04be 2787 713d
000002d0: 9176 5fbd 95ed 183e 0591 ba3b dcac bfbc
000002e0: f048 663e b164 2e3d 1ead 193c e415 b6bd
000002f0: f4c9 ae3c a375 35bd 2969 8dbd 65b4 b43d
00000300: 5b60 44be 6c21 15be 9e60 323e 0084 a13d
00000310: aa84 64bd 297b 33be 8405 e1bd 547b be3d
00000320: aa0a 483d 9d6c f4bd 8777 3fbd 40bc e73d
00000330: ec33 933e 0a13 0fbe 2e99 d6bc 0680 acbd
00000340: b681 c4bc 8e35 41bd 76ce 36be 5082 dd3d
00000350: c27c c13d 075b 94be b0a9 2e3d e194 1cbe
00000360: ad4f 1fbd 20d1 37be 8a16 1ebe 2364 04be
00000370: 3665 09be 5439 0e3d f71a 193e c557 663d
00000380: 96fc 103d e051 8e3e 24f0 243e 2d82 22bd
00000390: db6d d4bd 5323 0abd 36ea b7bc ab1c 89bc
000003a0: 3dd4 203e 6e62 2ebe 84ea 8f3e beb9 88be
000003b0: 3a5d 723e 659b 7e3e d909 a7bc 2dcf a63c
000003c0: 2b9f fa3d bcc0 0ebe 0d37 dcbd 753c 3c3d
000003d0: 590b 9e3d e6b5 253d 6184 283e 77d1 04bb
000003e0: e389 e03c e2dd 773e 265b 6cbe 0e82 e5bd
000003f0: 6dc6 dbbe 0979 5e3d 1c9a e1bd 37fa 43ba
-0.004515445 0.05413012 -0.14463969 0.0071565425 -0.11457965 -0.1453269 0.07079459 0.031846188
0.23715237 -0.1726848 0.035316177 -0.001861707 -0.048142184 0.10674412 0.18698086 -0.16705902
-0.10557751 0.030800749 0.0697527 -0.12028283 -0.019815141 0.07699029 -0.03681319 -0.23726586
0.13662192 0.26466838 -0.028710546 -0.14356732 -0.04883166 -0.018565986 0.058419563 -0.0552647
-0.13579845 -0.047742233 -0.20774528 0.15566386 0.07620764 0.1476614 0.006597149 -0.240611
-0.12063484 0.12162727 0.049180403 0.11920892 -0.00671515 -0.064865634 -0.07235608 -0.011013971
0.013541383 -0.11991065 -0.062416285 -0.26942414 -0.00012415789 0.043082267 -0.036258474 0.002034259
0.26301965 -0.039747655 -0.12278639 0.022293035 -0.2692706 0.115801424 -0.07625917 0.203045
0.06553423 -0.028138462 0.08777048 -0.33582902 0.18925183 -0.031449877 -0.0704263 -0.07648644
0.10452664 -0.039464924 -0.07796436 -0.010827915 -0.13841063 -0.17740925 -0.1368599 0.008147109
0.22819386 -0.07823138 0.06683797 0.011129546 0.05433573 0.040301528 0.12428427 -0.017398767
-0.029430138 -0.16857994 0.037115384 -0.18031648 0.06761843 -0.09417597 -0.101565056 -0.027876424
0.101560175 -0.06660085 -0.17812727 -0.050233036 -0.25618145 -0.041563667 -0.017083935 -0.011713881
-0.094484515 -0.24783112 -0.18565807 -0.28347072 0.10782936 0.013065147 0.05073509 -0.011635418
-0.09523547 -0.19485055 -0.1223246 -0.25097492 0.040769607 -0.08864448 -0.26472804 -0.005349413
-0.029744362 -0.016447732 0.046968788 -0.2011275 -0.06621024 -0.032575164 -0.02405443 0.106619015
0.088122636 0.043775667 -0.17290609 0.12809074 0.14364362 -0.1791878 0.009617321 -0.21188594
0.054596003 0.16257095 0.16924179 0.18622974 0.010638313 -0.11380599 0.0007705631 -0.099317744
-0.14246535 -0.13676488 -0.12650967 0.08461736 0.021192275 0.05775878 0.067757525 0.016166408
0.10251642 -0.13229188 0.04757252 0.09814763 0.026639815 -0.041554134 0.18902794 -0.03430266
-0.06575393 0.20199786 0.23664154 0.034888163 -0.029704435 0.023680907 0.017689811 -0.031496156
0.08816387 -0.024316128 -0.08775981 -0.17001045 -0.145888 0.0071264394 0.0843318 -0.3131176
0.16297647 -0.019702012 -0.12985228 0.058966782 -0.054556433 0.1493438 0.005693557 -0.023397855
0.22488761 0.042576496 0.009379653 -0.08890894 0.021336533 -0.04430164 -0.06904823 0.0882347
-0.19177382 -0.1456353 0.17419669 0.07886505 -0.05579058 -0.1752745 -0.1098738 0.09300867
0.048838295 -0.11934779 -0.04674485 0.11315203 0.2875055 -0.13972107 -0.026196089 -0.08422856
-0.023987632 -0.047170214 -0.17852196 0.10815871 0.09447624 -0.28975698 0.042642295 -0.15291168
-0.038894344 -0.17950869 -0.15438285 -0.12928824 -0.13417515 0.03472264 0.14951693 0.056236047
0.035397135 0.2779684 0.16107231 -0.039674927 -0.10372516 -0.033725094 -0.022450548 -0.016737303
0.15705962 -0.17029735 0.2810861 -0.2670421 0.23668376 0.24863966 -0.020390438 0.020362461
0.1223739 -0.1394071 -0.107526876 0.045956094 0.07717008 0.040456675 0.16456749 -0.0020266452
0.0274095 0.24205735 -0.23081645 -0.112064466 -0.42924824 0.054314647 -0.11015722 -0.00074759446

shared_net.4.bias f4 [64]
00000000: 0000 0000 6ba9 b93c b87d 94bd dc92 b1bb
00000010: 0fa7 85bd 24f4 2e3d 8d11 543d a258 cd3c
00000020: b48e 353d 1701 a1bc dca8 c93c 4cdf c23c
00000030: c581 57bd 0000 0000 57fa 193d afc2 173c
00000040: 4597 313b c86a 683d fc8f 92bb 4957 173d
00000050: 983b 813c 39ed 733c f121 c53c 7f17 8c3d
00000060: 36d6 19bc de91 debb 313c a53d 7454 4b3a
00000070: c4ef 643d 882f b03c d4c2 603d c1e7 ccbd
00000080: 3212 053e bf3f 833d e2a3 8e3d 03a7 ff3c
00000090: ea46 3dbd fe0d 103d ba84 fa3c 5a34 393c
000000a0: 184f 9cbb 34f1 b6bd 81a9 24bd 9130 8fbd
000000b0: 5fb7 9a3c 7d02 e63c 37cd 733d 6e13 af3d
000000c0: 7327 8a3d cd9a beba d139 c3bc 9546 52bc
000000d0: e134 403c a7d0 07bd 9c3d 8a3d 0000 0000
000000e0: 93e0 4e3d c101 9a3c 0000 0000 0000 0000
000000f0: b473 d4bb b6f2 ca3c 474a f33c 6c20 563a
0.0 0.022663793 -0.072505414 -0.0054191183 -0.065260045 0.0427133 0.05177455 0.025066677
0.044325545 -0.01965384 0.024616651 0.023788117 -0.052613992 0.0 0.03759226 0.009262725
0.002709822 0.05674246 -0.0044727307 0.036948476 0.015775487 0.014888101 0.024064036 0.06840419
-0.009389451 -0.006792291 0.08068121 0.000775642 0.05589272 0.02150704 0.054873303 -0.10005141
0.12995222 0.06408643 0.06964852 0.031207567 -0.046210207 0.035169594 0.030580867 0.0113039855
-0.004770171 -0.089327246 -0.040200714 -0.06991685 0.018886266 0.028077358 0.05952188 0.08548628
0.067458056 -0.0014541984 -0.02383128 -0.012834211 0.011731357 -0.03315797 0.06750032 0.0
0.05050714 0.018799664 0.0 0.0 -0.0064835194 0.024773937 0.029698504 0.00081682834

actor.0.weight f4 [32, 64]
00000000: 3028 193e 7739 8cbd 2cd6 69be d06e 853e
00000010: 9210 afbd 3094 1f3d 4f4a 843d 34f1 043d
00000020: 6236 5b3e d39f 303e 05d6 dfbc 98c3 c3bd
00000030: 336d 193d d6e5 15bd b8ca 93be e5b2 343e
00000040: e312 e2bd 02f2 5abe d892 933d 870f 26bd
00000050: 848a 32bd 77e4 bd3d 685c 50be 96a1 a43c
00000060: 1d40 56be e3c9 c4bd 517d 94bc 0607 203c
00000070: fd0a 653a 6192 37bd 58bd 80be 9aff 343d
00000080: 738e 023e 1c95 ac3c af0d 103d 3011 42be
00000090: 981e 83be 0ce7 f4bd be8c c23c 6ee7 f73b
000000a0: fcd0 af3e 55b4 2c3e db06 54bd d82f 8e3e
000000b0: d127 6a3e 2948 66bd 8bd3 b3be 9cd7 c13d
000000c0: 7abd b3be 4511 283e 4336 923e 45bf 003d
000000d0: 4ab8 06bd 9d44 8dbe 7058 3d3e 05aa 5fbe
000000e0: d45d 2dbc 3ca7 d3bd f764 c2be 3ae0 1a3e
000000f0: 40c3 973e 68a9 d53e 5142 203e bc8f b1bd
00000100: cec5 3cbe acee 263d 1e94 48be 84bd 3e3e
00000110: 2793 2abe f7ca d43e 8da3 f3be 953d 7bbe
00000120: f380 e6bd 6240 95bd 39fd 8bbe 8c26 9a3e
00000130: 41f6 e9bc cc89 a2be 74c3 42be 26e2 6f3d
00000140: 3c65 2c3d 5dad edbd 7547 a13d 70b0 5d3e
00000150: b018 8abe 29f4 82be 3d36 fa3c e382 1cbd
00000160: fb8d 7a3d 1ba1 80bd e43e 303e f52b 10be
00000170: 0295 1f3e 6019 ddbd 1668 693e fc82 81bd
00000180: 8471 213e 7f0b 8d3d a173 983e 2b5c 373e
00000190: f994 25bd 8230 24be 4a16 73be 5676 953d
000001a0: e936 103d d941 abbd effc d4bd 108a 4c3e
000001b0: 8f2e 98bd cdeb dcbd f1c7 963c 8029 163d
000001c0: a091 293d 8a6d eebb cad5 81be 4ee0 863e
000001d0: 9ec8 97be 1359 45be 8c0a 46bd 123a 4d3e
000001e0: 3513 2fbd 3a69 ecbd 94d1 0c3e 7015 ab3d
000001f0: 7d82 9a3e 121d 8c3d 82b2 f8bd 091b 973e
00000200: b607 f53d a3ac 9cbd 3a34 523e b626 9a3d
00000210: b086 be3d 1e2b 963b 584e 5b3e f9f5 64be
00000220: 3d38 36be d249 02be 00af d4bd bd22 80be
00000230: 0bef ea3c 3e5f 7fbd 82eb a73b 9ea9 97be
00000240: 2a3e 86be de65 813e c518 b63d 6cb5 83be
00000250: f92b 043e 61d5 0ebe 07fe 193e 5e6e 33be
00000260: c2ce a9be 06ca 3ebd 975b 443e d0f5 b0bc
00000270: 5730 6bbe 51c2 393e 36f3 4cbd c2d1 793e
00000280: 7211 293d dcd4 ce3c e7d4 af3d 75b8 2bbe
00000290: d059 7f3d a910 02be 8ed5 72bd d460 50be
000002a0: e366 773e 0013 db3d 0c7e 49be 03cc 263e
000002b0: fb9a 433e ea62 a63c 3647 95be 8492 7a3c
000002c0: 72d9 22be e14a 4ebe 3a93 01be b9ff bc3e
000002d0: 682f a4bd 9744 073e 05c3 c2be 326b 90ba
000002e0: 30ff 84bd f672 aebd 2722 f63e 7ea2 e4bd
000002f0: 52c5 073e 284f 81bd c48c 923c d531 abba
00000300: 06e6 343e 48e8 bc3c 2952 89bc 7ebb 23be
00000310: 3e95 6fbc 4510 56be 365a 24be 55d8 4fbe
00000320: 7033 7c3e f078 5cbe 39fd a53d 01a5 33be
00000330: 5443 9d3e 6c3f 003d 23fa 4abd bf0a 88be
00000340: 2e85 443e 464f 903e 0720 3c3e 0eae a43e
00000350: d283 8abe f6b7 3b3e 52c0 163e 0a6d 92bd
00000360: 10ed 563d de25 43bc 0452 89bc 32a2 2cbc
00000370: 9477 b7bd 48b4 1b3e 0a93 85be 8828 043e
00000380: f65a 4e3e deed ea3e a2c1 99bd c549 c63d
00000390: eb0f a2bd d494 9dbe 94e4 0cbe 95f0 8fbd
000003a0: c3ed 1ebd db66 b3bc f89f 323e cddb b6bd
000003b0: 5311 8fbd 853a f539 5ebb 37be 527f 013e
000003c0: c4e7 bf3d 46ee 23be 21f5 c5bd a461 a9be
000003d0: 9a75 353e 2575 0dbe 966e 0a3e 6e3a 02be
000003e0: 0313 7abe 229c 6cbb 76cd afbd 70cd 8fbe
000003f0: 4b61 a53d adcb 18bd 43ce 0ebe 54f2 5c3e
0.14956737 -0.06846898 -0.22835606 0.26061106 -0.085480824 0.038959682 0.06459486 0.03245659
0.21407464 0.17248468 -0.027323732 -0.09558791 0.037457656 -0.03659614 -0.288656 0.17646368
-0.110387586 -0.21381381 0.072057426 -0.04054215 -0.04358913 0.09272092 -0.2034775 0.020096581
-0.20922895 -0.09608819 -0.018126162 0.0097672995 0.0008737294 -0.044817332 -0.25144458 0.044189073
0.12749653 0.021067195 0.0351693 -0.18951869 -0.2560928 -0.11958131 0.023748752 0.0075654304
0.3433913 0.16865666 -0.05176435 0.27770877 0.22866751 -0.05622116 -0.35122332 0.09464952
-0.35105497 0.16412838 0.28557023 0.03143241 -0.032890595 -0.2759141 0.18490767 -0.21842201
-0.010581452 -0.10334632 -0.37967655 0.15124598 0.2964115 0.4173081 0.15650298 -0.08669993
-0.18434832 0.04075496 -0.19587752 0.18626982 -0.16657697 0.415611 -0.47585717 -0.2453521
-0.11255064 -0.07287671 -0.2734163 0.30107534 -0.028559806 -0.31745756 -0.19019872 0.05856528
0.042088732 -0.11605332 0.078749575 0.21649337 -0.2697196 -0.25576904 0.030543441 -0.03821076
0.06117056 -0.062807284 0.17211491 -0.14079268 0.15584186 -0.107958555 0.22793612 -0.063238114
0.15765959 0.06886958 0.29775718 0.17906253 -0.040425275 -0.1603413 -0.23738971 0.072979614
0.035208616 -0.08362169 -0.10399806 0.19974542 -0.07430755 -0.10787163 0.018405886 0.03666067
0.041398644 -0.0072762417 -0.2535842 0.26343006 -0.29645246 -0.1927226 -0.048349902 0.20041683
-0.042742927 -0.11543508 0.13751823 0.08353698 0.3017768 0.06841482 -0.12143423 0.29512814
0.11964361 -0.07650115 0.20527735 0.07526915 0.09303033 0.0045827767 0.21416605 -0.22359456
-0.1779489 -0.12723473 -0.10384941 -0.25026503 0.028678438 -0.06234669 0.0051245103 -0.29621595
-0.26219302 0.2527303 0.08891443 -0.2572435 0.12907399 -0.13948585 0.1503831 -0.1752257
-0.33165556 -0.046579383 0.19175564 -0.021601588 -0.22967659 0.18140532 -0.05003663 0.24396423
0.041276403 0.025247984 0.0858553 -0.16769584 0.06234151 -0.12701668 -0.059285693 -0.20349437
0.24160342 0.10696983 -0.1967699 0.16288762 0.19102089 0.020310838 -0.29155892 0.015293721
-0.15903261 -0.20145752 -0.12653819 0.3691385 -0.080168545 0.13209759 -0.38039413 -0.0011018275
-0.06493986 -0.08518021 0.4807293 -0.111638054 0.13258865 -0.06313926 0.017889388 -0.0013061116
0.17665872 0.02305998 -0.01676281 -0.15989491 -0.014622984 -0.20904644 -0.16050038 -0.20297368
0.24628997 -0.21530509 0.08104939 -0.17543413 0.3071543 0.031310484 -0.049554955 -0.265707
0.19191429 0.2818548 0.18371592 0.32164043 -0.27053696 0.18331894 0.14721802 -0.07149704
0.052472174 -0.011910884 -0.01676274 -0.010536717 -0.089583546 0.1520549 -0.26088744 0.12906086
0.20151886 0.45884603 -0.07507636 0.09682039 -0.07913192 -0.3077761 -0.1375907 -0.07028309
-0.038800966 -0.021899631 0.17443836 -0.089286424 -0.06985726 0.00046773642 -0.17942569 0.12646225
0.09370378 -0.16008863 -0.09665895 -0.33082306 0.17720643 -0.13814218 0.13518748 -0.12717602
-0.24421315 -0.0036103805 -0.085841104 -0.28086424 0.08075198 -0.037303615 -0.1394587 0.21576816

actor.0.bias f4 [32]
00000000: 9b4d e239 0250 5a3c b840 98bb 8895 a83c
00000010: c16f 19bb bfa8 283d 3b3a 92ba a975 873c
00000020: b44e 8d3b ade5 493d 5cf9 fe3c 18ea acbb
00000030: 6e1f 6cbc 7790 383c c861 9738 0000 0000
00000040: 2ffa 9eba 911a 013c f8ab eb3c c9b4 1b3d
00000050: 645a 12bc 5951 983b cb65 a83d 604f 563d
00000060: 8539 6cbc 80eb ed3c 1057 59bb 67c9 00bd
00000070: b421 5e3d 58a3 523d 2bea 3f3d 725f e03b
0.000431639 0.013324739 -0.004646387 0.020579115 -0.0023412558 0.041176554 -0.001115627 0.016535597
0.0043123607 0.0492913 0.031124763 -0.0052769296 -0.01441179 0.011264912 7.218454e-05 0.0
-0.0012129004 0.007879869 0.028768525 0.038014207 -0.008932684 0.0046483693 0.082225405 0.05232179
-0.014418011 0.02904296 -0.0033163466 -0.031442072 0.05423136 0.051425308 0.04685418 0.0068473155

actor.2.weight f4 [9, 32]
00000000: b658 9abe ca0d c13e a83f 873e 8465 8cbe
00000010: cc85 763e 2076 503d c0fb 6ebe 6ca0 f13d
00000020: 9980 1f3f 034b 43be 4f8b 273e 7a9e bbbd
00000030: f5a4 823e 84ae 033e 8b2f 143d 3cfb 1a3e
00000040: c42d f93c 9744 1dbe 5986 ddbd 8de9 efbd
00000050: 3641 35be 88dd 49bd cf36 193f 0754 0f3e
00000060: 9dad c7be b39b d0bd 32bd bbbe 4c07 f83d
00000070: 007d 6a3e fec4 cd3e a391 9ebe b464 d93e
00000080: fde1 86be 7444 ac3e 4c64 1d3f 4e81 11be
00000090: 6e21 08bd 4fa8 d4be f7e5 d6bd a449 803b
000000a0: 7668 1bbe 6606 dabd 04a9 a7be 2774 6abd
000000b0: f222 6e3e 367b 58be c6fb 293e ebf8 05bd
000000c0: ec30 b5bd 8395 f5bd c3d1 403e 2fd5 54be
000000d0: aee5 233e 6ccd 87be f474 1e3c 0c00 76be
000000e0: 2e8f edbc 74f1 f53e b124 a83e 5feb 883e
000000f0: 353d 58be 7ce5 b9bd b0f7 e73e 413b 88be
00000100: de62 37be c786 a33c 7981 183d 7372 8c3e
00000110: 8c3a cbbc 7924 713d 1c52 6a3e 54c8 663e
00000120: 64e2 8dbe b5b0 8ebe b73b be3d 4b04 0f3f
00000130: 9052 d23e f9f2 01be e780 133e 28ff 163e
00000140: 49f8 0e3f c2a6 123f 34e4 9c3e 66ee ac3b
00000150: 7d71 6dbd 4af4 ee3e 0ee8 d03d 2426 b13e
00000160: 3aa1 6bbe 11fa 1f3e 7c4f 6abe 667b 22be
00000170: 6289 1f3e 6441 6c3e 54ba 5b3e d1b2 763e
00000180: 7cd2 12be c983 5fbe 3589 84be a03a 6dbe
00000190: 1d6c 86bd 07b2 d7be a1d6 5c3e 5de9 01be
000001a0: c845 0d3f 35bf 003e 86fb 87bd 8d15 3e3d
000001b0: 4b25 703d fcf5 76be c01c 2b3d 8f41 d43d
000001c0: 1d81 9abe 27a6 f43d e75b 73bd d636 1ebf
000001d0: 2b19 1abd 06de 833e 2a3e 0abf 63ab f43c
000001e0: 7495 873e a750 a7be c3f5 ff3d 21f4 db3e
000001f0: b46b 89be 6296 4dbe 562f 933d 1905 a33e
00000200: d768 5fbe b6a5 c33e 7a69 c6be c083 0abe
00000210: 9351 5abd 1e96 03be e3c8 b8be 2408 c03e
00000220: b022 ca3d 00f7 163f ef5e edbd 2173 abbc
00000230: 55d6 6c3e 7970 8a3e abe9 773e eb71 51be
00000240: dc5f b33e d745 853e 8b04 31bd 1794 d83d
00000250: d02f 07be 4f92 11be be74 94be 71be 4a3d
00000260: 3c6b 94be 1aec 733d fd22 873e de23 0d3d
00000270: 514d 233e a8c3 52be e6b6 a7be 62cf 36be
00000280: 8960 fcbe 67cc 72be eab8 c8be 9fa8 cebc
00000290: 2207 dabc c23b 863d b6b7 693d 6e36 9fbe
000002a0: 879e 4cbe 3453 c43e 9927 e2bd b167 273e
000002b0: 5ef6 5a3d fee3 573d 1d21 953e e09d 08bf
000002c0: f7fd b9be 8db2 08be 8cc1 343e 1d43 24be
000002d0: 2dec cbbe 4fed 50be 762c 643e 8d21 48be
000002e0: 5dfe 483e 385c f83c 55b8 4fbe d796 85be
000002f0: 122d 93be 3af7 e33e b423 5b3e 0062 86bd
00000300: 7068 f9bd c9d0 9c3e b433 30be a851 adbe
00000310: c27c 9fbd fd08 91bd ed50 533d b732 b3be
00000320: 111e 47be 0193 95bd 0dff 1e3e 7578 86bd
00000330: c8ba bfbe e9ca 343d dfa2 053f 8d75 2cbd
00000340: 95ea 8c3e d02a b3be 63e7 843e 4863 80be
00000350: 0fbc 463e 1e83 053f e742 a33e 7e1c f1bd
00000360: 856b 97bd 3b6a dfbe 5da7 1abe 32c9 133e
00000370: 9ecc 933d 463a 04bf 0d03 073e a79c 4cbe
00000380: d3d8 c4be a7a9 cd3d 6c55 8a3e 79a2 2f3d
00000390: 30c2 2e3e c0a5 993e b688 a73d 48ce f6bd
000003a0: a554 aabc 9bca 1d3f fd44 e5bd af7a 0abe
000003b0: 4ac3 d7bd 4874 afbe fe57 f4be bb84 473d
000003c0: f0f1 9f3d 5fd9 dc3e d5b2 eabe d8ac 803e
000003d0: 9309 34be 24c4 783d 04f5 4b3e bb48 edbd
000003e0: 6bc6 703e 8aa0 d8be 8606 22be 43e3 703e
000003f0: d5ff c0be 8483 15be 46c8 f13e 5b66 5ebe
-0.30145806 0.37705833 0.26415753 -0.274212 0.24074477 0.050893903 -0.23338223 0.11798176
0.623056 -0.19071583 0.16361736 -0.091610864 0.25516477 0.12859541 0.036178153 0.15134901
0.03041733 -0.15358196 -0.108166404 -0.11714468 -0.17700657 -0.049283534 0.59849256 0.13996898
-0.38999644 -0.10185947 -0.36667782 0.12110767 0.22899246 0.40189356 -0.30970487 0.42459643
-0.2634429 0.33645976 0.61481166 -0.14209482 -0.033235006 -0.4153466 -0.10493081 0.0039150286
-0.15176567 -0.10645752 -0.32746136 -0.057239678 0.23255518 -0.21140751 0.1659995 -0.03270809
-0.08847222 -0.11991408 0.18830018 -0.20784448 0.16005585 -0.26523912 0.0096714385 -0.24023455
-0.028998937 0.48035777 0.32840493 0.26742074 -0.21117099 -0.09076974 0.45306158 -0.26607707
-0.17908809 0.019961728 0.03723285 0.27431068 -0.02480819 0.058872674 0.22882885 0.22537357
-0.27711785 -0.27869192 0.092887335 0.55865926 0.41078615 -0.12690343 0.14404641 0.14745772
0.55847603 0.572857 0.30642855 0.0052774427 -0.05796956 0.46670753 0.10200511 0.3459941
-0.23010722 0.15622737 -0.22881883 -0.15867385 0.15579751 0.2307182 0.21457797 0.2409165
-0.14338106 -0.21827616 -0.2588593 -0.23166895 -0.0656359 -0.42128012 0.2156625 -0.12686677
0.551846 0.1257294 -0.06639771 0.04640727 0.058629315 -0.24117273 0.041775465 0.10364067
-0.3017663 0.119457535 -0.059413817 -0.61802423 -0.03762166 0.25755328 -0.54001105 0.02986688
0.2648121 -0.3267872 0.12498047 0.42959693 -0.26839983 -0.20076898 0.07186763 0.31839827
-0.21817337 0.38212365 -0.38752347 -0.13526821 -0.05330045 -0.12850234 -0.36090764 0.3750621
0.09869897 0.5897064 -0.11590373 -0.020928921 0.23128636 0.27038935 0.24210231 -0.20453613
0.35034072 0.26029846 -0.043217223 0.10575121 -0.13201833 -0.14215969 -0.28995317 0.049498025
-0.28988063 0.059551336 0.2639388 0.034458034 0.15947463 -0.2058245 -0.32756728 -0.17852548
-0.492924 -0.23710786 -0.39203578 -0.02522689 -0.02661473 0.06554367 0.057059966 -0.31096214
-0.19982348 0.3834473 -0.11042709 0.16348149 0.05345761 0.052707665 0.29126826 -0.533659
-0.36326572 -0.13349362 0.17651957 -0.16041227 -0.39828625 -0.20403026 0.22282586 -0.19544049
0.19628282 0.03031741 -0.20285161 -0.26091644 -0.28745323 0.44524556 0.21400338 -0.06561661
-0.12178123 0.3062804 -0.17207223 -0.3385136 -0.077874675 -0.070817925 0.05159085 -0.3499963
-0.19445063 -0.073034294 0.15526982 -0.06565944 -0.3744719 0.044138823 0.52201647 -0.042104293
0.27522722 -0.349936 0.25957784 -0.25075746 0.19407676 0.52153194 0.3188698 -0.117730126
-0.073935546 -0.43635735 -0.15102907 0.14432219 0.07216762 -0.5165142 0.13184758 -0.19981633
-0.38446674 0.10042124 0.27018297 0.042879555 0.17066264 0.3000927 0.081803724 -0.12051064
-0.020792315 0.61637276 -0.11194799 -0.13523363 -0.10535295 -0.34268403 -0.47723383 0.048710566
0.07809818 0.4313459 -0.45839563 0.2513187 -0.17581777 0.06073393 0.19917685 -0.11586138
0.2351319 -0.42309982 -0.15822801 0.23524193 -0.37695184 -0.1460095 0.4722311 -0.21718733

actor.2.bias f4 [9]
00000000: d61f 373d 2ab0 ef3b 4f53 083c f376 67bd
00000010: 47a6 11bd 659f 5c3c b50e 8cb8 f227 2ab9
00000020: a2c7 2a3d
0.044708095 0.0073147016 0.008320644 -0.056509923 -0.035558965 0.013465737 -6.6784596e-05 -0.00016227344
0.04169429

critic.0.weight f4 [32, 64]
00000000: 0146 3dbe 4366 d43d a5db e73d 850b 0d3c
00000010: 255d 063e 3daf 393e bb66 633d fbcc b03e
00000020: 352f c2be 092d 14be 1429 d13c 5b38 2fbe
00000030: 3cd7 9abc dc58 403e c4c5 9f3c 456b 42be
00000040: 0ad5 943e 0bb4 773d 4489 03be 6884 3b3e
00000050: 2bff 2e3d d2fc bc3d f89a 3ebe 4fc3 bc3e
00000060: 0b64 51be 8e05 e33c d361 edbd e0d6 423e
00000070: 9f34 223e 332f 18be eb2a 10be 96c4 063e
00000080: 2af4 b83e 5c6e a1be 63d9 3d3e f2c4 013e
00000090: 0fd0 76be d1b1 863e 2d4c 793e ed70 99bd
000000a0: 7371 893d eef2 eb3d 39b5 543e 2fb5 333e
000000b0: 2bfb 7b3e e492 89be f4f4 8b3e 4412 9c3e
000000c0: 0f8b ab3c 1884 d73e 50b5 27be 5aff 4bbd
000000d0: 73cd 783e c232 3b3e dd73 a53a b363 abbe
000000e0: 16a8 453e f8b1 9d3c d049 2b3d 1bb9 e9bc
000000f0: 8389 71bc d357 1f3e a029 383e 9074 083e
00000100: 1a4b 473e b608 aa3e 7367 bcbd fa28 bbbd
00000110: 3323 81be c82f 51bd 5e00 afbd c43a f8bc
00000120: a19f ab3e 0abb bdbe d46e cabd e703 163d
00000130: e893 663e 6ada 8e3e e508 8fbe b6b9 cabd
00000140: 0b09 573e aaf2 123d 2bc6 58bc 5ec6 493e
00000150: dd22 9a3d 0db1 c1be 14d7 be3d 6431 b93d
00000160: ddfe 203e f970 4fbc be6d 8f3e 21d0 98be
00000170: 88fb ca3d b5b2 b2be fbdd a03e efc4 69be
00000180: 85c7 80bd 0852 50be 85c3 693d ccff fd3c
00000190: 6f87 b0be f308 5bbe 297a ac3e 43ac 93bd
000001a0: dfce ecbd 6b7d 463e bf1f 6ebe 5072 713e
000001b0: fdbf 8bbd 537e 09be 638e 03bd 224e c13e
000001c0: 5f6e 2f3d 769c 773d e006 a3be bd7b 653d
000001d0: a2a1 1c3e c435 0cbd b608 9a3d 8c36 72bd
000001e0: e4d7 9a3e ed5a 37be 2910 7cbe bd1f 353c
000001f0: defe 753e 4888 b43c 2ae5 87be bf11 77bd
00000200: 86cb 8e3e f865 853e 8530 f23d 1dd3 d4bb
00000210: 7703 b8bd d812 1abe 4b32 203e 5fa8 cfbd
00000220: 34a4 893e e45a 253e 3474 dc3d cb06 2c3e
00000230: b3bf b73d 0759 2abe 770f 343e f33f 41be
00000240: c3cd 88bd c12e 8a3d e116 b1be 1d22 d9bd
00000250: 0bec 293e fb92 7f3e 7b82 d53e 99df c03c
00000260: 3d50 4c3e 1433 a23e 5c35 7b3e 706c 8fbe
00000270: 18cb aa3c 40af fdbb 4872 23be 8952 2fbe
00000280: 7e98 a13e 43da 0d3e c011 0fbc 23f7 073e
00000290: f168 363d 0eb4 7f3c 4382 e73d 0a6c f03c
000002a0: 7ad1 afbc 36f0 3fbe 29d6 bfbd bb6f e2be
000002b0: 55e2 923e bc8f e9bd eb68 bd3d b36c 8dbe
000002c0: 413f 193e 823c 7b3e 1596 8bbe b229 68bc
000002d0: c41f ae3d 4b45 9cbe 20b3 87be 8bcb a33d
000002e0: a689 4e3d 352d 903d 9a86 2c3e 1252 863e
000002f0: e420 063e 2f86 a13e df48 47be b1a5 1f3e
00000300: 4cc6 7abd f737 ea3d 069e b8be 97ec cc3d
00000310: 4a21 3ebd 9bfa fc3b 5932 ea3e e805 7abb
00000320: eea3 bcbd 5829 453e 0b92 d03d edc0 82bd
00000330: efd6 4abe 2ae2 cb3c e471 4abe e9a3 083c
00000340: 5a21 dabe 3ce6 4fbe 9abb 753c ee94 63bd
00000350: 270c 813e d785 133e ff61 04bd dae5 aabe
00000360: 5eb7 47be 1d28 9ebd 574b 733d c7f4 dbbe
00000370: 7a5c 38bd 3c63 1abe 91af aebe ae48 22be
00000380: 430e 60bc 0936 dc3e 2981 babd cd41 703e
00000390: 4bef 17bd d152 703d 6c11 413e 0cf9 483e
000003a0: 2243 053e 422f 71be 1afd 7cbd 3432 4d3d
000003b0: 5ecf 853e 7279 ca3c 3b00 e6bd 74fe 283e
000003c0: 48e8 32be 9fe3 3d3d 02c6 e23d 6a6f 233e
000003d0: 80ae cf3a 6f33 ebbd f17e 533d 0186 9f3e
000003e0: f9b0 b33e 7801 403e 5355 643e 06bb 86bd
000003f0: 40b1 a33d ff61 de3d 8e89 2ebf 2dca 453c
-0.18483736 0.103710674 0.11321191 0.0086087035 0.1312147 0.18133254 0.055517893 0.34531388
-0.3792664 -0.14470305 0.025532283 -0.17111342 -0.01890146 0.18783897 0.019503482 -0.18986233
0.29068786 0.060474437 -0.12845331 0.18312228 0.042723816 0.09227909 -0.18613803 0.3686776
-0.2044832 0.02771261 -0.11590924 0.19027281 0.15840386 -0.14861755 -0.14078872 0.13160929
0.36123782 -0.3152951 0.18539958 0.12672785 -0.24102806 0.26307538 0.24345465 -0.07492242
0.06711092 0.115209445 0.20772256 0.17549585 0.24607532 -0.2686988 0.27335322 0.30482686
0.020940332 0.42092967 -0.16377759 -0.04980407 0.24297123 0.18281081 0.0012623031 -0.33474502
0.19302401 0.019249901 0.04181844 -0.028530648 -0.014742258 0.15560846 0.17984629 0.13325715
0.19462243 0.3320977 -0.09199419 -0.09138675 -0.25222167 -0.05107096 -0.08544992 -0.03030146
0.33520225 -0.37056762 -0.0988442 0.036624815 0.2251736 0.27901012 -0.27936473 -0.09898703
0.20999543 0.035875954 -0.013230841 0.19704577 0.07526181 -0.37830392 0.09318367 0.09042624
0.15722223 -0.012661212 0.28013414 -0.2984629 0.09911257 -0.34901968 0.31419358 -0.2282903
-0.06288055 -0.20343792 0.057071228 0.031005763 -0.34478328 -0.21390133 0.3368695 -0.07210591
-0.11562895 0.1938378 -0.23254298 0.23578763 -0.06823728 -0.13427095 -0.032118212 0.37754923
0.042829867 0.060451947 -0.31841183 0.05602621 0.15296033 -0.034230962 0.07521193 -0.05913405
0.30242836 -0.17905779 -0.2461554 0.01105493 0.24023005 0.02203764 -0.26542026 -0.06031966
0.2788965 0.26054358 0.118256606 -0.006494893 -0.08985036 -0.15046251 0.15644185 -0.10139536
0.2688309 0.16147953 0.107643515 0.16799466 0.089721106 -0.16635524 0.17584024 -0.18872051
-0.06679871 0.06747199 -0.34587768 -0.1060221 0.1659395 0.24958412 0.4170111 0.02354412
0.19952483 0.31679595 0.24532074 -0.2801242 0.020848796 -0.0077418387 -0.15961564 -0.17121328
0.31561655 0.13852791 -0.008732259 0.13277869 0.044533674 0.015606893 0.11304142 0.029348392
-0.02146219 -0.18743977 -0.0936702 -0.4422587 0.28688303 -0.11404368 0.09248527 -0.27621993
0.14965536 0.245348 -0.2726294 -0.014170097 0.085021526 -0.30521616 -0.2650385 0.07997807
0.05042424 0.070398726 0.16848221 0.2623449 0.13098484 0.31547686 -0.19461392 0.1559055
-0.061224267 0.11436456 -0.36058062 0.100060634 -0.046418466 0.007720304 0.45741537 -0.0038150493
-0.092109546 0.19254053 0.101841055 -0.06384454 -0.19808553 0.024888117 -0.19770008 0.0083398605
-0.4260357 -0.20302671 0.014998341 -0.055561952 0.25204584 0.14406525 -0.03232002 -0.33378488
-0.19503543 -0.07722495 0.05939802 -0.42960188 -0.045010068 -0.15076917 -0.34118322 -0.15848038
-0.013675275 0.43009976 -0.091066666 0.23462601 -0.037093442 0.05867273 0.18854302 0.19626254
0.1301389 -0.23553184 -0.061764814 0.050096706 0.2613477 0.024716113 -0.11230513 0.16503316
-0.17471421 0.046359655 0.11072923 0.1596047 0.0015844852 -0.114844196 0.051634733 0.31156924
0.35095957 0.1875056 0.22298174 -0.06578641 0.07992792 0.10858535 -0.6817864 0.012072128

critic.0.bias f4 [32]
00000000: eed4 5f3d adce 663d 0d58 63bc fdc5 103c
00000010: 9469 a43c c57a 80bc cd47 303d 29aa 03bd
00000020: c959 973b 612c 923c 70da 1eb9 4225 703c
00000030: a019 25bc b8db bf3b 116a e93c 27cd a33d
00000040: ae7b 4b3d 0000 0000 189a 0fbc a434 763c
00000050: 45d8 4f3c 3463 543d 1cab 3f3d eca1 4d3c
00000060: 8522 34bd 1974 12bc fa9c 22bc 034a 4c3d
00000070: 7c38 85bc 7dbe 70bc 9330 aabd 511f 4fbc
0.054646425 0.056349445 -0.013875973 0.008836267 0.020069875 -0.015683541 0.043037225 -0.0321447
0.0046188575 0.017843427 -0.00015149429 0.01465732 -0.01007691 0.00585505 0.02849296 0.07998114
0.049678497 0.0 -0.008764766 0.015027199 0.01268584 0.05185242 0.046794042 0.012550812
-0.043978233 -0.008938813 -0.009925121 0.04987527 -0.016262285 -0.014693853 -0.08310046 -0.012641744

critic.2.weight f4 [1, 32]
00000000: bdba 043e f6e6 583e ea83 07be 8c35 97be
00000010: a7da 3dbe 46a8 96be e030 ee3d 9047 26be
00000020: 4690 15be a61d 66be cdf5 45be aada ae3e
00000030: 5103 22be 664b 253f 9ddf 04bf d7a4 e83e
00000040: 68d2 1c3f e860 6ebe e137 7cbe f022 debe
00000050: 410e bbbe 884f ac3e ed5b ba3d 41a7 e4bd
00000060: 713b a23d d5c7 49be e467 5dbe 4d8e a83e
00000070: 35ce 183d 20f0 3cbe e973 af3e 04a3 173f
0.1296186 0.21181855 -0.13233915 -0.2953304 -0.1854044 -0.29425257 0.11630416 -0.16238236
-0.14605817 -0.22472247 -0.19332047 0.34151202 -0.15821578 0.64568174 -0.51903707 0.45438263
0.61258554 -0.23279154 -0.24630691 -0.4338603 -0.36534312 0.33654428 0.09099565 -0.11164714
0.07921494 -0.19705136 -0.21621662 0.32921067 0.03730603 -0.18450975 0.3426812 0.5923312
