logs/20250602_155832/checkpoint_episode_200.pt (torch, 431709 bytes, 39 tensors)

shared_net.0.weight f4 [128, 30]
-0.031013977 -0.07728122 -0.26136652 0.02476203 -0.24807675 0.07381228 0.06439165 0.07308517
-0.043619726 0.06283343 -0.05046114 0.09694384 0.07514273 -0.09872209 0.17050405 0.34274712
0.14159618 -0.15151475 -0.0482496 0.090605356 0.09472929 0.082080945 0.15867072 -0.039296493
-0.028904593 0.09399367 -0.039756004 0.19056752 -0.06515874 -0.080996044 -0.16015309 0.053987715
-0.17972365 -0.10344803 0.09762361 -0.025236348 0.011099522 0.029257901 0.12749735 -0.036540627
0.15578073 0.09120123 -0.058505915 0.24346909 0.017251492 -0.004598348 0.0903662 0.11042967
-0.22081071 0.1988721 -0.043045495 -0.1175919 -0.17772119 0.03267922 -0.122572035 -0.11500174
0.02476592 0.016495919 0.09882903 0.19172885 0.09045812 0.13190155 -0.20964573 0.10453037
0.03996563 -0.06994842 -0.3383412 -0.1878016 -0.17025383 -0.039527252 0.011882254 0.07860245
0.04648235 -0.15368573 -0.30548763 0.07594018 0.17324203 -0.1491722 -0.2777298 -0.18657349
-0.016048284 -0.029356036 -0.11751599 0.13598841 -0.14487962 -0.18327725 -0.0010644911 -0.09730812
-0.076279685 -0.11349103 0.031154184 -0.058262233 0.14471017 -0.09869666 -0.24576643 0.0006509105
0.12613308 0.022233719 0.0019747543 0.11918213 0.28460994 0.23387247 0.02572092 0.1105165
-0.07606535 0.1851991 -0.16835016 3.8765545e-05 -0.055630125 -0.009602146 0.17754804 0.103289254
-0.045277685 -0.051003054 -0.032750048 -0.13447744 0.15753858 -0.04677565 -0.036995035 0.05087401
0.0963043 -0.08571455 -0.073102035 -0.17355001 0.10680087 0.07739985 -0.23396996 0.19830008
0.08844019 -0.21217613 -0.08164357 -0.062457666 0.009875513 -0.04665843 0.109515354 0.03450962
-0.05070212 0.1519112 -0.027603127 -0.085463844 1.990149e-06 0.03555405 0.19963744 0.0106263235
-0.15112089 0.12579578 0.06786191 -0.02152867 -0.02425634 0.1055763 0.042311188 0.09704896
0.049846943 -0.13981824 0.017177796 -0.13665971 -0.08566087 0.086280786 0.17805953 0.2553325
0.016355408 -0.17903642 -0.12687375 0.019152021 0.0019369661 0.073716864 -0.09789444 -0.22522037
-0.07028706 0.05564522 0.08761253 -0.3440814 -0.1023455 -0.18391941 -0.29130125 0.22542496
-0.09650643 -0.01781851 0.05313877 0.0651993 0.057678174 0.022097964 0.21260968 -0.0018489668
0.035485152 -0.026336271 -0.19808032 0.06736543 -0.11923511 0.021502404 -0.35171077 -0.05632678
-0.13628098 -0.039450552 0.021560213 0.18185021 -0.1582093 0.07952948 -0.009204948 -0.13298579
-0.14718658 -0.06209756 -0.017961271 0.0062958016 -0.012228652 0.062039644 -0.02438748 0.035196327
-0.045821358 -0.12663755 0.13611099 -0.030652935 0.1734858 -0.07564362 0.06714327 0.06424016
-0.04882799 -0.09445151 0.085308515 0.0122456355 0.12863107 -0.08046303 0.17509106 0.19486037
0.063603915 0.07607967 0.18228191 0.13013633 0.10271643 -0.108720064 0.16312093 -0.0051054657
-0.0785365 0.0215004 0.098647855 0.049643174 0.0734679 -0.01608937 0.20616515 0.26516816
-0.19720864 0.07269805 0.21452598 0.110088624 0.17933185 -0.061355628 -0.029413683 0.16035688
0.008756448 -0.0029896968 -0.08520859 0.019163704 -0.22051324 -0.059294578 0.00063320936 0.112875134
00000000: 0611 febc 9e45 9ebd d5d1 85be bed9 ca3c
00000010: d507 7ebe e52a 973d c5df 833d adad 953d
00000020: 99aa 32bd d0ae 803d 57b0 4ebd 7e8a c63d
00000030: 6ee4 993d cf2e cabd 9d98 2e3e 8d7c af3e
00000040: 97fe 103e af26 1bbe 5fa1 45bd 4d8f b93d
00000050: 6e01 c23d 0e1a a83d 947a 223e 5cf5 20bd
00000060: 53c9 ecbc c17f c03d 31d7 22bd 2224 433e
00000070: f271 85bd 41e1 a5bd 2cff 23be 3922 5d3d
00000080: 7a09 38be 90dc d3bd e3ee c73d 75bc cebc
00000090: c5da 353c 44ae ef3c aa8e 023e a0ab 15bd
000000a0: fc84 1f3e b6c7 ba3d e6a3 6fbd f64f 793e
000000b0: 0053 8d3c bdad 96bb ea11 b93d f328 e23d
000000c0: 341c 62be 21a5 4b3e 7950 30bd 06d4 f0bd
000000d0: 8bfc 35be a5da 053d 0c07 fbbd 0886 ebbd
000000e0: e6e1 ca3c 7322 873c e066 ca3d 9154 443e
000000f0: 1b42 b93d 3311 073e 5fad 56be 0514 d63d
00000100: 00b3 233d 1e41 8fbd 0f3b adbe 104f 40be
00000110: 0557 2ebe 54e7 21bd c9ad 423c 52fa a03d
00000120: 4764 3e3d cb5f 1dbe e068 9cbe 8686 9b3d
00000130: 5c66 313e 99c0 18be 9a32 8ebe 1f0d 3fbe
00000140: b177 83bc 127c f0bc 39ac f0bd 8c40 0b3e
00000150: 535b 14be 08ad 3bbe 6586 8bba 7b49 c7bd
00000160: 8638 9cbd fc6d e8bd 0f37 ff3c 61a4 6ebd
00000170: e72e 143e 7921 cabd 32aa 7bbe dda1 2a3a
00000180: 0829 013e 7d23 b63c e16a 013b c315 f43d
00000190: 65b8 913e 447c 6f3e aeb4 d23c 7a56 e23d
000001a0: 26c8 9bbd d5a4 3d3e fc63 2cbe 3098 2238
000001b0: 6adc 63bd 5252 1dbc 27cf 353e 5189 d33d
000001c0: 1875 39bd 94e8 50bd ea24 06bd 74b4 09be
000001d0: cb51 213e d397 3fbd 1b88 17bd 4461 503d
000001e0: 303b c53d 1c8b afbd 85b6 95bd 18b7 31be
000001f0: 6aba da3d d083 9e3d d295 6fbe 2d0f 4b3e
00000200: 2120 b53d b344 59be be34 a7bd 9cd3 7fbd
00000210: e7cc 213c e91c 3fbd 9649 e03d f659 0d3d
00000220: 07ad 4fbd 9c8e 1b3e f41f e2bc ab07 afbd
00000230: 808e 0536 20a1 113d c26d 4c3e 081a 2e3c
00000240: 6fbf 1abe 9cd0 003e 2ffb 8a3d e55c b0bc
00000250: 3bb5 c6bc 6338 d83d 7f4e 2d3d 9bc1 c63d
00000260: 4f2c 4c3d 832c 0fbe 73b8 8c3c 86f0 0bbe
00000270: f76e afbd fbb3 b03d 3d55 363e f1ba 823e
00000280: c7fb 853c 5355 37be 31eb 01be b3e4 9c3c
00000290: cce1 fd3a def8 963d e17c c8bd 2ba0 66be
000002a0: aaf2 8fbd 3eec 633d 336e b33d 702b b0be
000002b0: 849a d1bd 5f55 3cbe 7025 95be cdd5 663e
000002c0: 2aa5 c5bd 20f8 91bc 0aa8 593d 3687 853d
000002d0: f33f 6c3d ca06 b53c 5ab6 593e 0859 f2ba
000002e0: e158 113d 2abf d7bc 91d5 4abe e3f6 893d
000002f0: 8a31 f4bd cf25 b03c 6f13 b4be e9b6 66bd
00000300: 3e8d 0bbe e796 21bd 0b9f b03c f136 3a3e
00000310: 9e01 22be 5ae0 a23d 5ad0 16bc 6d2d 08be
00000320: 14b8 16be 035a 7ebd 8423 93bc 034d ce3b
00000330: af5a 48bc 481d 7e3d 41c8 c7bc 062a 103d
00000340: 2daf 3bbd 46ad 01be ae60 0b3e dd1b fbbc
00000350: 43a6 313e 0beb 9abd 6982 893d 5890 833d
00000360: dcff 47bd cb6f c1bd 3bb6 ae3d eba1 483c
00000370: ddb7 033e cdc9 a4bd 124b 333e 7a89 473e
00000380: c542 823d a8cf 9b3d 1ca8 3a3e 7542 053e
00000390: fe5c d23d a0a8 debd 2c09 273e c04b a7bb
000003a0: bfd7 a0bd 9b21 b03c e307 ca3d a456 4b3d
000003b0: 5776 963d dbcd 83bc f51c 533e 1fc4 873e
000003c0: 10f1 49be b7e2 943d b3ac 5b3e 2576 e13d
000003d0: c5a2 373e 0a50 7bbd f7f4 f0bc 9834 243e
000003e0: 3477 0f3c caee 43bb d781 aebd 33fd 9c3c
000003f0: 39ce 61be dfde 72bd f6fd 253a 142b e73d

shared_net.0.bias f4 [128]
-0.008152499 0.044497024 0.13158357 -0.011997782 0.12635873 0.10923748 -0.076969184 -0.11473163
-0.05124258 0.0054991157 0.012403139 0.055477135 0.07441375 0.12049181 0.13473941 0.117451504
0.037409015 0.08338629 -0.07018284 -0.08218193 -0.0737602 -0.052129224 -0.0073093646 0.0628639
0.13396491 0.0 0.07510626 -0.069196895 0.04372941 -0.0016811563 0.052873336 0.10163102
0.02633399 0.057423342 0.07375916 0.11109145 -0.0010119672 0.11192781 -0.118938565 0.122933805
0.00036860828 0.087540954 -0.057183847 0.13529673 -0.04126341 -0.01798102 0.11405463 0.13220637
0.08746131 0.060063917 -0.005230856 -0.046047915 0.09552386 0.10910667 0.12213819 -0.07484836
0.08698113 -0.008806828 0.037025556 0.14306062 0.059100058 -0.11243083 0.04763959 0.11550725
0.092039555 0.06695565 -0.0714368 0.07962916 0.100478634 0.13687682 -0.028487504 -0.10162234
-0.015161913 0.12348759 -0.020160133 0.07446352 0.079878494 -0.008910285 0.06796543 -0.016714094
-0.09447958 0.109141886 -0.108394235 -0.052037485 0.08055228 0.09136656 0.06840922 0.13419518
0.116014175 -0.010589558 0.1146933 0.0 0.13538301 -0.05797339 -0.05483718 0.061976932
-0.051801916 0.09069814 -0.054505564 -0.008768829 0.08918633 0.0 -0.030985046 0.082611434
-0.08191189 -0.05247814 0.04839834 0.061952062 0.06791108 0.105303064 0.0 -0.09861541
0.0711198 0.08110554 0.018917643 0.112683825 0.051133625 0.06264775 -0.11372128 0.0
-0.01684644 0.0 0.11016791 -0.0049269767 0.062412076 -0.11484541 -0.0068667987 0.02101078
00000000: 0f92 05bc 8342 363d d8bd 063e 5892 44bc
00000010: 2f64 013e e6b7 df3d 05a2 9dbd 6bf8 eabd
00000020: bde3 51bd ed31 b43b 8936 4b3c fe3b 633d
00000030: 3c66 983d 69c4 f63d 21f9 093e 6a8a f03d
00000040: 323a 193d 6ec6 aa3d 05bc 8fbd 004f a8bd
00000050: 960f 97bd 7485 55bd 6583 efbb cabe 803d
00000060: 192e 093e 0000 0000 50d1 993d 1ab7 8dbd
00000070: 9c1d 333d 3f5a dcba b691 583d ed23 d03d
00000080: 61ba d73c bd34 6b3d 0b0f 973d ea83 e33d
00000090: fca3 84ba 683a e53d 1096 f3bd b8c4 fb3d
000000a0: c441 c139 ac48 b33d 9c39 6abd 3a8b 0a3e
000000b0: d203 29bd ef4c 93bc 7995 e93d 1b61 073e
000000c0: ea1e b33d 9505 763d 9a67 abbb bd9c 3cbd
000000d0: 03a2 c33d 5173 df3d 9623 fa3d 194a 99bd
000000e0: 2a23 b23d 844a 10bc 1ca8 173d 7c7e 123e
000000f0: e712 723d 2342 e6bd bb21 433d 118f ec3d
00000100: 3c7f bc3d 0b20 893d 754d 92bd 9d14 a33d
00000110: bec7 cd3d 7029 0c3e a05e e9bc 601f d0bd
00000120: ac69 78bc 10e7 fc3d dd26 a5bc 5480 983d
00000130: 5697 a33d 72fc 11bc 7631 8b3d ffeb 88bc
00000140: 837e c1bd c885 df3d ccfd ddbd 4225 55bd
00000150: 98f8 a43d 641e bb3d 221a 8c3d 766a 093e
00000160: d798 ed3d d37f 2dbc 52e4 ea3d 0000 0000
00000170: d8a1 0a3e 8175 6dbd f39c 60bd 86db 7d3d
00000180: 3f2e 54bd f2bf b93d 3a41 5fbd 22ab 0fbc
00000190: 53a7 b63d 0000 0000 5ad4 fdbc 2f30 a93d
000001a0: 6cc1 a7bd 51f3 56bd 563d 463d 72c1 7d3d
000001b0: f714 8b3d 22a9 d73d 0000 0000 e0f6 c9bd
000001c0: 42a7 913d a91a a63d 2cf9 9a3c c7c6 e63d
000001d0: 7e71 513d 774d 803d b4e6 e8bd 0000 0000
000001e0: 8c01 8abc 0000 0000 b79f e13d 7a72 a1bb
000001f0: cea3 7f3d 1234 ebbd e202 e1bb cd1e ac3c

shared_net.2.weight f4 [128, 128]
0.1340084 -0.116085954 -0.30833006 -0.2303509 0.114805005 0.14259513 -0.067541905 0.0829034
-0.15345998 -0.20496126 0.043900367 -0.114004724 0.023553174 0.0744948 0.07301336 -0.047294486
0.0945337 -0.2990216 -0.07485477 0.022615546 0.22640829 -0.32976252 0.012168145 -0.08523479
0.036451403 0.07608917 -0.46985173 -0.26440537 0.05580686 -0.004175988 -0.18804921 0.054758735
-0.06792675 0.27930218 -0.05140786 0.04915205 0.017843133 -0.017919954 -0.13662487 -0.04761483
-0.006489695 0.08619807 -0.009819344 -0.03709692 0.05120672 -0.13475196 -0.03742312 0.11493797
0.09103038 0.035135165 -0.17679213 -0.38860902 -0.12860386 0.045070015 0.0217074 -0.16387455
0.17503212 0.013524061 0.17533007 0.11376137 0.16072491 -0.12952164 0.10842803 -0.17950523
0.07492486 -0.04825686 0.13789126 0.27223042 0.09055672 -0.0026421486 0.025635483 -0.01503147
-0.054978114 0.03105337 0.20002748 0.021839734 0.10998576 -0.10650088 0.13446516 -0.010720933
-0.17400426 0.17172743 -0.22176509 0.07300339 0.22151679 -0.054430515 -0.17742173 -0.1041841
0.07243696 -0.06205094 0.119005516 -0.06633599 0.014575465 0.011656944 -0.15432018 -0.18422239
-0.1637704 0.07284826 -0.06639914 0.027155036 -0.040689792 0.03933186 0.062719025 0.11182646
0.0792158 -0.06215113 0.00045246418 0.016721547 0.23694593 0.03093988 -0.075725 0.012158369
0.11966368 -0.06181179 0.08358598 0.050420936 0.113741845 -0.5547499 -0.08712992 0.0405944
0.009083692 -0.23931351 -0.21559018 0.03607466 0.07196945 -0.08420474 -0.010807085 0.010542363
0.22785273 0.05317345 -0.28913143 0.14980656 -0.12950173 -0.17601259 0.010840427 0.040719725
-0.087726876 0.14883302 0.0059094396 0.045953486 -0.22183158 -0.076669805 0.015346414 -0.08121387
-0.040791392 0.12980798 0.1255315 -0.010092868 0.06716562 -0.09309803 -0.009551575 -0.051839393
-0.13455437 -0.048809532 -0.28315493 0.12738761 -0.28909537 0.07762615 -0.12067406 -0.029588282
0.33723828 0.18918832 0.13793749 -0.033210576 0.018267393 0.17613918 0.24887276 -0.011364067
0.07235448 -0.047429927 -0.015656402 -0.009409534 -0.090148024 -0.1223874 -0.054392282 -0.12544669
0.006464215 -0.031947225 0.052769773 0.13549249 -0.010930687 0.0017279136 -0.04906872 0.08457911
0.1559072 -0.122392945 -0.032843407 -0.14344236 -0.12493675 0.21072726 0.050970092 0.06923635
-0.08297017 0.020098636 0.2892078 -0.23862167 -0.009044997 -0.040475328 0.14813283 0.045129884
-0.1191557 0.07711705 0.09226918 -0.26467723 0.06714129 0.17302147 -0.010624936 -0.06922496
0.1745388 -0.020259028 -0.049260072 -0.041990995 0.1029462 -0.045417935 0.09702348 0.037352577
0.089699835 0.20308957 -0.02794199 -0.22790183 0.048124257 0.12628363 -0.09240578 -0.09076943
0.26572135 -0.035507694 0.14265022 -0.17867884 0.12954397 -0.0030132849 -0.18452573 0.23468648
0.12413222 -0.008836566 0.16297486 0.18439057 0.1684787 -0.046887785 0.0722351 0.22939691
-0.033201545 0.21996121 0.2171076 -0.03652312 -0.036137428 -0.2567505 -0.01497231 0.21234341
-0.32747707 0.095003255 0.14541918 -0.03310258 0.11895716 0.30983987 0.005127121 0.02754353
00000000: 7f39 093e 79be edbd 70dd 9dbe 1be1 6bbe
00000010: e31e eb3d 7504 123e 6953 8abd 42c9 a93d
00000020: 9d24 1dbe 5de1 51be dfd0 333d 4f7b e9bd
00000030: 96f2 c03c bb90 983d 0788 953d ddb7 41bd
00000040: e29a c13d 5c19 99be 754d 99bd 3d44 b93c
00000050: 93d7 673e a2d6 a8be e65c 473c 948f aebd
00000060: 114e 153d a4d4 9b3d 6890 f0be 2460 87be
00000070: bc95 643d bad6 88bb f98f 40be b24a 603d
00000080: 2e1d 8bbd b200 8f3e 0c91 52bd a953 493d
00000090: c32b 923c decc 92bc 64e7 0bbe c507 43bd
000000a0: 82a7 d4bb 9d88 b03d 50e1 20bc f1f2 17bd
000000b0: 23be 513d 6bfc 09be fc48 19bd 9964 eb3d
000000c0: 236e ba3d e4e9 0f3d ff08 35be c3f7 c6be
000000d0: bbb0 03be 569b 383d b8d3 b13c bbce 27be
000000e0: 9f3b 333e 0694 5d3c ba89 333e b9fb e83d
000000f0: 1295 243e 52a1 04be 840f de3d 38d0 37be
00000100: 3472 993d fca8 45bd 5e33 0d3e c961 8b3e
00000110: cd75 b93d e627 2dbb 8101 d23c 8e46 76bc
00000120: bb30 61bd a363 fe3c 01d4 4c3e 3ee9 b23c
00000130: 3740 e13d 221d dabd 3cb1 093e daa6 2fbc
00000140: 2c2e 32be 51d9 2f3e 6316 63be cd82 953d
00000150: 4cd5 623e 88f2 5ebd 0bae 35be 795e d5bd
00000160: d459 943d 2029 7ebd 2ab9 f33d 2adb 87bd
00000170: eecd 6e3c c4fc 3e3c 1c06 1ebe cba4 3cbe
00000180: 6eb3 27be 7831 953d 46fc 87bd 3d74 de3c
00000190: 57aa 26bd 721a 213d d572 803d 4505 e53d
000001a0: e53b a23d 2f92 7ebd b738 ed39 a0fb 883c
000001b0: f4a1 723e a275 fd3c b515 9bbd e533 473c
000001c0: 3b12 f53d 5c2e 7dbd 202f ab3d 2f86 4e3d
000001d0: 7cf1 e83d 1704 0ebf 2c71 b2bd 5046 263d
000001e0: c4d3 143c 9a0e 75be acc3 5cbe 06c3 133d
000001f0: b864 933d 8973 acbd 3310 31bc e0b9 2c3c
00000200: 3a52 693e 67cc 593d 0909 94be e466 193e
00000210: 1a9c 04be a53c 34be 0c9c 313c bac9 263d
00000220: 26aa b3bd af67 183e f9a3 c13b b939 3c3d
00000230: d127 63be 0f05 9dbd 876f 7b3c 7553 a6bd
00000240: e014 27bd 62ec 043e 548b 003e 8e5c 25bc
00000250: 218e 893d 2eaa bebd 367e 1cbc 8b55 54bd
00000260: 9fc8 09be 81ec 47bd aff9 90be e671 023e
00000270: 4f04 94be 75fa 9e3d f623 f7bd 2063 f2bc
00000280: 7faa ac3e 95ba 413e 7c3f 0d3e d007 08bd
00000290: 80a5 953c d45d 343e 80d8 7e3e 5a30 3abc
000002a0: 962e 943d e245 42bd db41 80bc 722a 1abc
000002b0: 879f b8bd 3fa6 fabd 71ca 5ebd 1975 00be
000002c0: c4d1 d33b 18db 02bd 1e25 583d 8bbe 0a3e
000002d0: a016 33bc 297b e23a 48fc 48bd d037 ad3d
000002e0: 23a6 1f3e 27a9 fabd cf86 06bd 8ee2 12be
000002f0: d7de ffbd e3c8 573e 04c6 503d cacb 8d3d
00000300: 44ec a9bd e5a5 a43c 0b13 943e 3d59 74be
00000310: 7831 14bc 75c9 25bd 22b0 173e 1dda 383d
00000320: e707 f4bd 8bef 9d3d a0f7 bc3d c683 87be
00000330: 5f81 893d 8a2c 313e 3614 2ebc d1c5 8dbd
00000340: 4dba 323e 43f6 a5bc eec4 49bd c0fe 2bbd
00000350: 75d5 d23d 2808 3abd 3fb4 c63d 04ff 183d
00000360: 8cb4 b73d b6f6 4f3e 9ae6 e4bc 195f 69be
00000370: f11d 453d 7f50 013e 3e3f bdbd 53e5 b9bd
00000380: a10c 883e 8470 11bd e612 123e 96f7 36be
00000390: 2da7 043e 887a 45bb 50f4 3cbe a751 703e
000003a0: 0939 fe3d 3ec7 10bc e2e2 263e e2d0 3c3e
000003b0: ae85 2c3e 680d 40bd ffef 933d 06e7 6a3e
000003c0: 58fe 07bd 833d 613e 7451 5e3e 4499 15bd
000003d0: d704 14bd cd74 83be 6b4e 75bc 8d70 593e
000003e0: 13ab a7be 1191 c23d c4e8 143e 9296 07bd
000003f0: d09f f33d 55a3 9e3e 6901 a83b f8a2 e13c

shared_net.2.bias f4 [128]
0.065494314 0.0438566 0.079173274 -0.0052046315 -0.0010109805 -0.08784805 0.08572289 0.0
0.033585902 -0.019141613 -0.0048761703 0.07827935 0.09203472 0.027462203 -0.0066528474 0.025484879
-0.09502121 0.0085680345 0.0 0.0396776 -0.059061684 0.09290469 0.0 0.08004975
-0.03295546 0.03980308 -0.005142115 0.055599913 0.0462208 -0.028314065 -0.101383835 -0.0135858655
0.13234068 0.049858678 0.08491113 -0.0032164908 0.05771394 -0.004086827 -0.091821216 -0.06609518
-0.006724734 -0.009134116 -0.063361876 0.029822247 0.061579168 0.023308119 0.022403477 0.09038663
0.053762972 0.0 -0.069012806 0.041982055 0.105051905 0.05427187 0.08416881 0.09660403
-0.010584059 -0.007369304 0.055464245 0.0621115 0.0 0.03319355 -0.02711221 0.078589216
-0.0026881965 0.009550458 0.064211175 0.097803384 0.051069144 0.0 -0.0007656615 0.022824205
0.015656615 -0.101565145 0.026081871 0.047991518 0.080209695 0.015633518 -0.0061720517 -0.0016448721
0.08301357 -0.011604767 0.045803845 -0.000768814 0.06686937 -0.06159301 -0.1096285 -0.0016870335
0.0 0.0846993 -0.0050538694 0.024091402 -0.047055073 0.057098914 0.00074838137 -0.0128576
0.064139664 -0.0076566776 -0.002738237 0.00021065293 -0.0047059273 0.0798727 0.013150401 0.072492994
0.047035694 0.0 0.03471618 -0.082258694 0.07612872 0.0 0.06915969 -0.018407172
0.0 0.020886138 0.010688076 -0.028144555 -0.0037924957 0.0 0.035618108 0.0
0.036688883 0.0 0.04402317 0.07923733 0.06720262 -0.004723344 -0.0022750748 0.014555751
00000000: e221 863d faa2 333d 9925 a23d 9d8b aabb
00000010: e082 84ba aee9 b3bd 7c8f af3d 0000 0000
00000020: 5f91 093d dfce 9cbc 48c8 9fbb ed50 a03d
00000030: b37c bc3d 6af8 e03c 2100 dabb aac5 d03c
00000040: 7b9a c2bd f160 0c3c 0000 0000 fb84 223d
00000050: aaea 71bd d044 be3d 0000 0000 20f1 a33d
00000060: 4efc 06bd 8e08 233d 307f a8bb bcbc 633d
00000070: 0652 3d3d e6f2 e7bc 54a2 cfbd 4097 5ebc
00000080: 5184 073e 9d38 4c3d e3e5 ad3d c3cb 52bb
00000090: 7465 6c3d caea 85bb c30c bcbd e95c 87bd
000000a0: 285b dcbb 42a7 15bc dfc3 81bd c94d f43c
000000b0: 703a 7c3d abf0 be3c 7f87 b73c a01c b93d
000000c0: 9036 5c3d 0000 0000 9656 8dbd 60f5 2b3d
000000d0: 7425 d73d 2e4c 5e3d b260 ac3d 55d8 c53d
000000e0: c368 2dbc 347a f1bb 7a2e 633d a168 7e3d
000000f0: 0000 0000 f6f5 073d 6d1a debc 62f3 a03d
00000100: 742c 30bb 8679 1c3c 2681 833d 244d c83d
00000110: e12d 513d 0000 0000 acb6 48ba d4f9 ba3c
00000120: 4d42 803c 6301 d0bd a6a9 d53c c192 443d
00000130: fb44 a43d dd11 803c ec3e cabb c098 d7ba
00000140: 0503 aa3d ec21 3ebc d09c 3b3d 3c8a 49ba
00000150: cff2 883d f448 7cbd e884 e0bd 731f ddba
00000160: 0000 0000 d476 ad3d ee9a a5bb 555b c53c
00000170: d2bc 40bd 8de0 693d 062f 443a afa8 52bc
00000180: a85b 833d dee4 fabb fe73 33bb b7e2 5c39
00000190: 2e34 9abb 4c94 a33d c874 573c 3577 943d
000001a0: 80a8 403d 0000 0000 8e32 0e3d 3f77 a8bd
000001b0: 60e9 9b3d 0000 0000 98a3 8d3d a3ca 96bc
000001c0: 0000 0000 6819 ab3c 0a1d 2f3c 698f e6bc
000001d0: 858b 78bb 0000 0000 4be4 113d 0000 0000
000001e0: 1547 163d 0000 0000 a451 343d 2e47 a23d
000001f0: 87a1 893d 48c6 9abb 6c19 15bb 3f7b 6e3c

shared_net.4.weight f4 [64, 128]
-0.004515445 0.05413012 -0.14463969 0.0071565425 -0.11457965 -0.1453269 0.07079459 0.031846188
0.23715237 -0.1726848 0.035316177 -0.001861707 -0.048142184 0.10674412 0.18698086 -0.16705902
-0.10557751 0.030800749 0.0697527 -0.12028283 -0.019815141 0.07699029 -0.03681319 -0.23726586
0.13662192 0.26466838 -0.028710546 -0.14356732 -0.04883166 -0.018565986 0.058419563 -0.0552647
-0.13579845 -0.047742233 -0.20774528 0.15566386 0.07620764 0.1476614 0.006597149 -0.240611
-0.12063484 0.12162727 0.049180403 0.11920892 -0.00671515 -0.064865634 -0.07235608 -0.011013971
0.013541383 -0.11991065 -0.062416285 -0.26942414 -0.00012415789 0.043082267 -0.036258474 0.002034259
0.26301965 -0.039747655 -0.12278639 0.022293035 -0.2692706 0.115801424 -0.07625917 0.203045
0.06553423 -0.028138462 0.08777048 -0.33582902 0.18925183 -0.031449877 -0.0704263 -0.07648644
0.10452664 -0.039464924 -0.07796436 -0.010827915 -0.13841063 -0.17740925 -0.1368599 0.008147109
0.22819386 -0.07823138 0.06683797 0.011129546 0.05433573 0.040301528 0.12428427 -0.017398767
-0.029430138 -0.16857994 0.037115384 -0.18031648 0.06761843 -0.09417597 -0.101565056 -0.027876424
0.101560175 -0.06660085 -0.17812727 -0.050233036 -0.25618145 -0.041563667 -0.017083935 -0.011713881
-0.094484515 -0.24783112 -0.18565807 -0.28347072 0.10782936 0.013065147 0.05073509 -0.011635418
-0.09523547 -0.19485055 -0.1223246 -0.25097492 0.040769607 -0.08864448 -0.26472804 -0.005349413
-0.029744362 -0.016447732 0.046968788 -0.2011275 -0.06621024 -0.032575164 -0.02405443 0.106619015
0.08780201 0.06525304 -0.16475487 0.12809074 0.14364362 -0.15582803 0.016198834 -0.21188594
0.054350007 0.16257095 0.18329008 0.18548816 0.02379679 -0.109888226 0.0007705631 -0.105659194
-0.14197774 -0.12841527 -0.12650967 0.09864952 0.041772094 0.05230446 0.067757525 0.013764893
0.11620029 -0.11155066 0.04757252 0.09721311 0.038084257 -0.026401477 0.19229037 -0.03430266
-0.06721146 0.21678044 0.24275267 0.034888163 -0.02890907 0.023680907 0.018343337 -0.024551798
0.08815767 -0.004014768 -0.071619116 -0.17517607 -0.12947012 0.019152025 0.08294148 -0.30043772
0.16791996 -0.024960741 -0.108874746 0.07590656 -0.05924849 0.14724801 0.017674314 -0.026296066
0.22488761 0.07793958 0.024974378 -0.080895014 0.021336533 -0.030722734 -0.05402691 0.09957237
-0.14625469 -0.1456353 0.17656885 0.07931414 -0.032325536 -0.1752745 -0.1098738 0.11095491
0.049879827 -0.11365768 -0.04126073 0.10547291 0.29795665 -0.112770945 -0.026196089 -0.07744236
-0.030406658 -0.047170214 -0.16785127 0.10815871 0.09129601 -0.27638718 0.042962205 -0.15291168
-0.038894344 -0.1660624 -0.13462828 -0.105863154 -0.13067 0.045311414 0.14951693 0.056236047
0.04454483 0.2779684 0.16107231 -0.039674927 -0.10372516 -0.032189626 -0.023641132 -0.011475079
0.16161059 -0.17029735 0.28469908 -0.26283434 0.25115848 0.25043076 -0.013190469 0.020623406
0.1223739 -0.125235 -0.102112494 0.068362355 0.07717008 0.040456675 0.17527063 -0.0020266452
0.04510834 0.24205735 -0.23019734 -0.11528208 -0.4330656 0.054314647 -0.09294976 0.0025900635
00000000: 4cf6 93bb 8bb7 5d3d 6d1c 14be 6e81 ea3b
00000010: bca8 eabd 93d0 14be c1fc 903d 2671 023d
00000020: 12d8 723e 49d4 30be b2a7 103d 8504 f4ba
00000030: bd30 45bd a99c da3d e977 3f3e 8511 2bbe
00000040: 0639 d8bd da51 fc3c 81da 8e3d d856 f6bd
00000050: 5d53 a2bc 16ad 9d3d 6dc9 16bd d2f5 72be
00000060: 9ee6 0b3e 9d82 873e 6132 ebbc 5003 13be
00000070: b503 48bd b217 98bc 5a49 6f3d 3d5d 62bd
00000080: c00e 0bbe 5c8d 43bd 2ebb 54be 5966 1f3e
00000090: c012 9c3d 8d34 173e e62c d83b bb62 76be
000000a0: 660f f7bd b817 f93d 6471 493d ce23 f43d
000000b0: c30a dcbb 46d8 84bd 6d2f 94bd f173 34bc
000000c0: addc 5d3c b793 f5bd 38a8 7fbd f6f1 89be
000000d0: 6130 02b9 0877 303d c483 14bd 3451 053b
000000e0: 83aa 863e 70ce 22bd 6e77 fbbd e29f b63c
000000f0: d6dd 89be 4c29 ed3d c52d 9cbd 07eb 4f3e
00000100: cf36 863d a282 e6bc 02c1 b33d c8f1 abbe
00000110: 3bcb 413e 96d1 00bd aa3b 90bd eca4 9cbd
00000120: 1012 d63d f9a5 21bd c7ab 9fbd 9167 31bc
00000130: 84bb 0dbe c5aa 35be 0025 0cbe 747b 053c
00000140: a7ab 693e c637 a0bd 58e2 883d b358 363c
00000150: 248f 5e3d 3713 253d c088 fe3d dc87 8ebc
00000160: 7917 f1bc 38a0 2cbe 4d06 183d e2a4 38be
00000170: 887b 8a3d 55df c0bd 5701 d0bd 195d e4bc
00000180: c8fe cf3d 0766 88bd ff66 36be 28c1 4dbd
00000190: 372a 83be aa3e 2abd 9cf3 8bbc 94eb 3fbc
000001a0: 1981 c1bd 71c7 7dbe 261d 3ebe 1323 91be
000001b0: a4d5 dc3d 330f 563c 99cf 4f3d 7ba2 3ebc
000001c0: d00a c3bd e786 47be 5285 fabd c97f 80be
000001d0: 08fe 263d 3d8b b5bd 6f8a 87be 214a afbb
000001e0: 73aa f3bc 65bd 86bc 5862 403d 5ef4 4dbe
000001f0: 3c99 87bd 896d 05bd cc0d c5bc 125b da3d
00000200: 8ad1 b33d 63a3 853d 80b5 28be 382a 033e
00000210: 5017 133e 6291 1fbe 6bb3 843c a1f8 58be
00000220: 1d9e 5e3d 0079 263e 65b0 3b3e 9cf0 3d3e
00000230: 7cf1 c23c 140d e1bd 9dff 493a d963 d8bd
00000240: 9d62 11be 4b7f 03be c08b 01be c208 ca3d
00000250: 3719 2b3d 343d 563d 75c4 8a3d 2586 613c
00000260: 6bfa ed3d ac74 e4bd 67db 423d ab17 c73d
00000270: 3dfe 1b3d e947 d8bc c4e7 443e f280 0cbd
00000280: 29a6 89bd b1fb 5d3e 2894 783e e4e6 0e3d
00000290: b7d2 ecbc 76fe c13c c444 963c da20 c9bc
000002a0: 028c b43d 518e 83bb 0bad 92bd 5b61 33be
000002b0: d193 04be b5e4 9c3c 39dd a93d f9d2 99be
000002c0: 36f3 2b3e 787a ccbc b9f9 debd e674 9b3d
000002d0: 8bae 72bd 2fc8 163e b9c9 903c d96a d7bc
000002e0: f048 663e c99e 9f3d 1197 cc3c 49ac a5bd
000002f0: f4c9 ae3c 3eae fbbc 524b 5dbd 99ec cb3d
00000300: cac3 15be 6c21 15be 77ce 343e 746f a23d
00000310: c867 04bd 297b 33be 8405 e1bd 543c e33d
00000320: ca4e 4c3d 5cc5 e8bd 0301 29bd 2e02 d83d
00000330: c68d 983e 74f4 e6bd 2e99 d6bc 1a9a 9ebd
00000340: 6217 f9bc 8e35 41bd 34e1 2bbe 5082 dd3d
00000350: 67f9 ba3d 9f82 8dbe 23f9 2f3d e194 1cbe
00000360: ad4f 1fbd 430c 2abe ffdb 09be c8ce d8bd
00000370: 5bce 05be 7698 393d f71a 193e c557 663d
00000380: a474 363d e051 8e3e 24f0 243e 2d82 22bd
00000390: db6d d4bd 45d9 03bd 0cab c1bc f801 3cbc
000003a0: 3f7d 253e 6e62 2ebe 14c4 913e 3992 86be
000003b0: d897 803e 7638 803e d61c 58bc 6bf2 a83c
000003c0: 2b9f fa3d 9b3d 00be 5b20 d1bd 9001 8c3d
000003d0: 590b 9e3d e6b5 253d 257a 333e 77d1 04bb
000003e0: 86c3 383d e2dd 773e dab8 6bbe 0319 ecbd
000003f0: c6ba ddbe 0979 5e3d 725c bebd 0ebe 293b

shared_net.4.bias f4 [64]
0.0 0.03538447 -0.06825366 -0.0054191183 -0.06206819 0.024596866 0.044498365 0.02152377
0.044148665 -0.009858871 0.030959126 0.023788117 -0.036364526 0.0 0.044137314 0.02693406
-0.011013902 0.065563075 0.0033465528 0.028936516 0.015775487 0.014888101 0.026853178 0.047168788
0.0012840136 0.0 0.06314163 -0.015707757 0.0415527 0.011330523 0.03728567 -0.08257679
0.10264235 0.076355465 0.05559291 0.03130886 -0.015339369 0.039962795 0.022621399 0.017997315
-0.014598102 -0.0798221 -0.039116852 -0.06881509 0.026358016 0.028077358 0.05819399 0.0629218
0.065463424 0.0066096196 -0.02383128 -0.016160337 0.028855845 -0.033975083 0.057298083 0.0
0.04517224 0.017377114 0.0 0.0 -0.0064835194 0.028613748 0.025327768 -0.0023661363
00000000: 0000 0000 4eef 103d 93c8 8bbd dc92 b1bb
00000010: 373b 7ebd 5e7f c93c eb43 363d 9e52 b03c
00000020: 3bd5 343d 1a87 21bc fe9d fd3c 4cdf c23c
00000030: f8f2 14bd 0000 0000 54c9 343d d1a4 dc3c
00000040: a773 34bc ef45 863d d751 5b3b 460c ed3c
00000050: 983b 813c 39ed 733c 32fb db3c 0f34 413d
00000060: 594c a83a 0000 0000 6650 813d 8ead 80bc
00000070: 2a33 2a3d a8a3 393c dcb8 183d 051e a9bd
00000080: 2736 d23d 4160 9c3d 64b5 633d b83d 003d
00000090: fa51 7bbc 07b0 233d 8350 b93c 1b6f 933c
000000a0: e12c 6fbc c579 a3bd fe38 20bd edee 8cbd
000000b0: c4ec d73c 7d02 e63c d25c 6e3d 25dd 803d
000000c0: b011 863d 8295 d83b d139 c3bc af62 84bc
000000d0: 1863 ec3c 7529 0bbd 65b1 6a3d 0000 0000
000000e0: 8706 393d 735a 8e3c 0000 0000 0000 0000
000000f0: b473 d4bb 6167 ea3c 2e7c cf3c 2e11 1bbb

actor.0.weight f4 [32, 64]
0.14956737 -0.068533584 -0.22835606 0.26061106 -0.085480824 0.036744796 0.06490686 0.038343586
0.20001099 0.17248468 -0.027936995 -0.09558791 0.037457656 -0.03659614 -0.28730914 0.17645016
-0.114702396 -0.21248278 0.072057426 -0.045889277 -0.04358913 0.09272092 -0.2034775 0.014913105
-0.2115388 -0.09608819 -0.025381485 0.009548393 0.00595076 -0.047821745 -0.25302994 0.044189073
0.11530177 0.02278861 0.02571574 -0.18951869 -0.24626136 -0.11958131 0.024517793 0.0075654304
0.34179348 0.16865666 -0.051734835 0.27770877 0.22866751 -0.05622116 -0.35473296 0.08940009
-0.35156545 0.16412838 0.28557023 0.03420215 -0.03142773 -0.2759141 0.17790926 -0.21842201
-0.020473218 -0.103683114 -0.37967655 0.15124598 0.2964115 0.4173081 0.15484768 -0.086222395
-0.18434832 0.031062735 -0.22301324 0.18626982 -0.172525 0.38807064 -0.4728753 -0.2654998
-0.12546985 -0.12115369 -0.28141662 0.30107534 -0.030193372 -0.31745756 -0.19656794 0.042497132
0.011042645 -0.12230629 0.07878209 0.18706124 -0.2697196 -0.25576904 0.030543441 -0.06315971
0.03168026 -0.062360488 0.1525704 -0.16239485 0.14395365 -0.121142425 0.20821089 -0.06456771
0.14453614 0.062378816 0.27896985 0.18006371 -0.06775809 -0.15508749 -0.24747123 0.08281726
-0.033936832 -0.08950029 -0.13692887 0.17099386 -0.07918967 -0.10787163 0.0059582526 0.012450753
0.036288176 -0.0072762417 -0.2535842 0.22959329 -0.29130006 -0.19270265 -0.06462057 0.20041683
-0.0589734 -0.119734414 0.13751823 0.08353698 0.3017768 0.06844796 -0.14936276 0.20811081
0.11964361 -0.07650115 0.20527735 0.07526915 0.09303033 0.0045827767 0.21416605 -0.22359456
-0.1779489 -0.12723473 -0.10384941 -0.25026503 0.028678438 -0.06234669 0.0051245103 -0.29621595
-0.26219302 0.2527303 0.08891443 -0.2572435 0.12907399 -0.13948585 0.1503831 -0.1752257
-0.33165556 -0.046579383 0.19175564 -0.021601588 -0.22967659 0.18140532 -0.05003663 0.24396423
0.041276403 0.025247984 0.0858553 -0.16769584 0.06234151 -0.12701668 -0.059285693 -0.20349437
0.24160342 0.10696983 -0.1967699 0.16288762 0.19102089 0.020310838 -0.29155892 0.015293721
-0.15903261 -0.20145752 -0.12653819 0.3691385 -0.080168545 0.13209759 -0.38039413 -0.0011018275
-0.06493986 -0.08518021 0.4807293 -0.111638054 0.13258865 -0.06313926 0.017889388 -0.0013061116
0.17665872 0.042036448 -0.04370263 -0.15989491 -0.03728192 -0.20040706 -0.16675265 -0.18418056
0.24673261 -0.22892414 0.08420887 -0.17543413 0.30677032 0.031310484 -0.038650118 -0.25771433
0.19939817 0.28238493 0.18418524 0.3202285 -0.27053696 0.18331894 0.14738244 -0.07001358
0.06321342 -0.012487491 -0.012547758 -0.0038305945 -0.056542937 0.1446301 -0.24560474 0.103629604
0.2009698 0.46071422 -0.07123076 0.09438165 -0.077102125 -0.31021258 -0.116547756 -0.06940715
-0.028951257 -0.038468525 0.14781673 -0.12221868 -0.06646751 0.00046773642 -0.1804627 0.13363904
0.08700377 -0.15160243 -0.09665895 -0.3203479 0.15557899 -0.16230479 0.1356016 -0.12717602
-0.23153692 -0.0013182041 -0.085841104 -0.28086424 0.08075198 -0.037392218 -0.12756605 0.26507184
00000000: 3028 193e 565b 8cbd 2cd6 69be d06e 853e
00000010: 9210 afbd b681 163d e3ed 843d 2a0e 1d3d
00000020: aecf 4c3e d39f 303e 20dc e4bc 98c3 c3bd
00000030: 336d 193d d6e5 15bd 2f1a 93be 5aaf 343e
00000040: 17e9 eabd 1695 59be d892 933d 65f6 3bbd
00000050: 848a 32bd 77e4 bd3d 685c 50be 1956 743c
00000060: a19d 58be e3c9 c4bd d5ec cfbc dd70 1c3c
00000070: 98fe c23b bce0 43bd 248d 81be 9aff 343d
00000080: 5623 ec3d 2eaf ba3c d1a9 d23c 3011 42be
00000090: f02b 7cbe 0ce7 f4bd 8ad9 c83c 6ee7 f73b
000000a0: 8eff ae3e 55b4 2c3e e8e7 53bd d82f 8e3e
000000b0: d127 6a3e 2948 66bd 8f9f b5be 6517 b73d
000000c0: 6300 b4be 4511 283e 4336 923e 8e17 0c3d
000000d0: 5dba 00bd 9d44 8dbe d82d 363e 05aa 5fbe
000000e0: 73b7 a7bc d057 d4bd f764 c2be 3ae0 1a3e
000000f0: 40c3 973e 68a9 d53e 6490 1e3e 5e95 b0bd
00000100: cec5 3cbe 4777 fe3c 955d 64be 84bd 3e3e
00000110: 65aa 30be 32b1 c63e b61c f2be 97ef 87be
00000120: 2b7b 00be 6d1f f8bd d715 90be 8c26 9a3e
00000130: 1758 f7bc cc89 a2be 1b49 49be 7911 2e3d
00000140: 36ec 343c b87b fabd 8158 a13d fb8c 3f3e
00000150: b018 8abe 29f4 82be 3d36 fa3c e159 81bd
00000160: 29c3 013d b66d 7fbd 6a3b 1c3e d64a 26be
00000170: 9668 133e 8519 f8bd 3c35 553e 133c 84bd
00000180: 4801 143e ee80 7f3d 23d5 8e3e 9f62 383e
00000190: c1c4 8abd 41cf 1ebe 1969 7dbe 189c a93d
000001a0: 5901 0bbd ee4b b7bd 1537 0cbe 0419 2f3e
000001b0: 322e a2bd cdeb dcbd 723d c33b 3efe 4b3c
000001c0: e9a2 143d 8a6d eebb cad5 81be 811a 6b3e
000001d0: 4825 95be d853 45be ca57 84bd 123a 4d3e
000001e0: 188e 71bd 5137 f5bd 94d1 0c3e 7015 ab3d
000001f0: 7d82 9a3e 722e 8c3d 8df2 18be 001b 553e
00000200: b607 f53d a3ac 9cbd 3a34 523e b626 9a3d
00000210: b086 be3d 1e2b 963b 584e 5b3e f9f5 64be
00000220: 3d38 36be d249 02be 00af d4bd bd22 80be
00000230: 0bef ea3c 3e5f 7fbd 82eb a73b 9ea9 97be
00000240: 2a3e 86be de65 813e c518 b63d 6cb5 83be
00000250: f92b 043e 61d5 0ebe 07fe 193e 5e6e 33be
00000260: c2ce a9be 06ca 3ebd 975b 443e d0f5 b0bc
00000270: 5730 6bbe 51c2 393e 36f3 4cbd c2d1 793e
00000280: 7211 293d dcd4 ce3c e7d4 af3d 75b8 2bbe
00000290: d059 7f3d a910 02be 8ed5 72bd d460 50be
000002a0: e366 773e 0013 db3d 0c7e 49be 03cc 263e
000002b0: fb9a 433e ea62 a63c 3647 95be 8492 7a3c
000002c0: 72d9 22be e14a 4ebe 3a93 01be b9ff bc3e
000002d0: 682f a4bd 9744 073e 05c3 c2be 326b 90ba
000002e0: 30ff 84bd f672 aebd 2722 f63e 7ea2 e4bd
000002f0: 52c5 073e 284f 81bd c48c 923c d531 abba
00000300: 06e6 343e 692e 2c3d 8701 33bd 7ebb 23be
00000310: edb4 18bd 8237 4dbe 35c1 2abe d499 3cbe
00000320: 79a7 7c3e 176b 6abe b375 ac3d 01a5 33be
00000330: 0011 9d3e 6c3f 003d 964f 1ebd 22f3 83be
00000340: 092f 4c3e c294 903e 0e9b 3c3e fdf4 a33e
00000350: d283 8abe f6b7 3b3e 6ceb 163e 4863 8fbd
00000360: 0a76 813d 5598 4cbc 1d95 4dbc b60a 7bbb
00000370: 9199 67bd ea19 143e cf7f 7bbe c23b d43d
00000380: 07cb 4d3e bce2 eb3e 6fe1 91bd 2b4b c13d
00000390: b8e7 9dbd 2fd4 9ebe 97b0 eebd 5625 8ebd
000003a0: 302b edbc 2c91 1dbd 455d 173e ca4d fabd
000003b0: 1e20 88bd 853a f539 37cb 38be acd8 083e
000003c0: 082f b23d ab3d 1bbe 21f5 c5bd a404 a4be
000003d0: 1950 1f3e 3a33 26be 25db 0a3e 6e3a 02be
000003e0: 0418 6dbe 97c7 acba 76cd afbd 70cd 8fbe
000003f0: 4b61 a53d 9528 19bd ada0 02be 7fb7 873e

actor.0.bias f4 [32]
0.0 -0.012926267 -0.004646387 0.026624253 -0.019847171 0.04311045 0.0026280654 0.000562001
0.00054089556 0.062431905 0.024947962 -0.0019707386 0.0027364893 0.009897903 -0.012214213 0.0
-0.0012129004 0.011270014 0.007494002 0.040264368 -0.010087785 -0.0029989956 0.07613341 0.027509809
-0.007708226 0.010064233 -0.0065103834 -0.02976827 0.03103241 0.046499107 0.029389754 0.0056965044
00000000: 0000 0000 b2c8 53bc b840 98bb 1b1b da3c
00000010: 8996 a2bc 9594 303d 9f3b 2c3b 4053 133a
00000020: e3ca 0d3a 99b8 7f3d ab5f cc3c 8227 01bb
00000030: ac56 333b d02a 223c 1f1e 48bc 0000 0000
00000040: 2ffa 9eba dda5 383c 3f90 f53b 40ec 243d
00000050: 3d47 25bc cc8a 44bb d5eb 9b3d 405c e13c
00000060: 4995 fcbb 74e4 243c 0e55 d5bb 96dc f3bc
00000070: ae37 fe3c d975 3e3d c8c2 f03c bea9 ba3b

actor.2.weight f4 [9, 32]
-0.29003775 0.3445154 0.26415753 -0.27951962 0.21421045 0.053318262 -0.23244515 0.044447947
0.5744285 -0.17603943 0.1499039 -0.092665225 0.2564399 0.11409467 0.05637014 0.15134901
0.03041733 -0.13803136 -0.11591045 -0.11559556 -0.20274119 -0.06418641 0.59916556 0.1386332
-0.3708028 -0.13770248 -0.33113813 0.13807927 0.22300814 0.40367806 -0.27466848 0.41209832
-0.26056302 0.39245054 0.61481166 -0.1284354 0.003503969 -0.4270943 -0.106276065 0.022398816
-0.15619919 -0.14947365 -0.33557856 -0.044766206 0.23389633 -0.17056581 0.12296429 -0.03270809
-0.08847222 -0.11557694 0.1861914 -0.22535054 0.18244469 -0.23992667 -0.012795492 -0.20712665
-0.06532571 0.5254621 0.295461 0.23688526 -0.17443219 -0.09880235 0.41312197 -0.23437992
-0.19057237 -0.00635827 0.03723285 0.24866633 -0.055592876 0.05179845 0.22577628 0.22868475
-0.25881827 -0.26947507 0.0852684 0.5402702 0.4188032 -0.1341596 0.15388379 0.14745772
0.55847603 0.53251237 0.29688352 0.00046960157 -0.0710696 0.4527146 0.103191644 0.33730376
-0.22010861 0.13050719 -0.20989591 -0.1554274 0.14490917 0.22301301 0.22806497 0.22657146
-0.14087936 -0.13312721 -0.2588593 -0.18651582 0.0050239307 -0.39844853 0.21511514 -0.12550259
0.5553359 0.13137746 -0.04399507 0.0640225 0.05775796 -0.2318367 0.042567704 0.10364067
-0.3017663 0.13598232 -0.040056475 -0.5980828 -0.0069604893 0.2821341 -0.52888083 0.052699927
0.27168894 -0.2593226 0.12379495 0.43887475 -0.24322693 -0.17808232 0.08475536 0.3599939
-0.21653503 0.34001204 -0.38752347 -0.1544206 -0.06904939 -0.1291586 -0.35842398 0.37814623
0.12363251 0.6263491 -0.12670375 -0.048136823 0.24273144 0.2590083 0.27237755 -0.20453613
0.35034072 0.25159624 -0.061298877 0.11717623 -0.14328255 -0.17678368 -0.27659988 0.020561595
-0.25510415 0.01453136 0.28970805 0.048766036 0.12141424 -0.21315213 -0.2965029 -0.20899482
-0.48485574 -0.1558629 -0.39203578 -0.0019658683 0.032100104 0.0673939 0.05889437 -0.27034724
-0.18129681 0.35398394 -0.084139414 0.18724291 0.038160536 0.08843139 0.27778983 -0.533659
-0.36326572 -0.12043367 0.219005 -0.19418971 -0.36026245 -0.15560086 0.22083952 -0.1643869
0.16862243 0.102204464 -0.22375035 -0.2702429 -0.2437273 0.46003738 0.17951366 -0.024286276
-0.12758298 0.32710066 -0.17207223 -0.3179121 -0.02776515 -0.07392353 0.050539955 -0.3474532
-0.2129704 -0.07206292 0.1488675 -0.06484159 -0.37185922 0.026778053 0.514075 -0.042104293
0.27522722 -0.3343848 0.24634555 -0.23325016 0.22061045 0.5156859 0.3076205 -0.13090283
-0.07770089 -0.4175404 -0.16558634 0.13307561 0.061367176 -0.5228015 0.13273934 -0.20246814
-0.37962994 0.1431912 0.27018297 0.056732316 0.21747394 0.30929726 0.08142439 -0.08781775
-0.0069011967 0.6258657 -0.091127545 -0.11685415 -0.10317266 -0.3250014 -0.4679658 0.048710566
0.07809818 0.4431124 -0.44328576 0.26100048 -0.14839213 0.07772731 0.21215016 -0.1079566
0.24306527 -0.37494034 -0.15820485 0.24212065 -0.36429062 -0.13997142 0.47440767 -0.19345884
00000000: d47f 94be 5364 b03e a83f 873e 321d 8fbe
00000010: fc59 5b3e 4064 5a3d 1a06 6ebe 0d0f 363d
00000020: bf0d 133f ae43 34be 6880 193e 44c7 bdbd
00000030: 174c 833e 77aa e93d 60e4 663d 3cfb 1a3e
00000040: c42d f93c 1858 0dbe 7562 edbd 5dbd ecbd
00000050: 639b 4fbe 2a74 83bd ea62 193f ddf5 0d3e
00000060: ddd9 bdbe e101 0dbe f08a a9be a764 0d3e
00000070: 3f5c 643e e4ae ce3e 59a1 8cbe 8dfe d23e
00000080: 8468 85be 47ef c83e 4c64 1d3f 9284 03be
00000090: d8a2 653b 1bac dabe 44a7 d9bd b97d b73c
000000a0: aef2 1fbe 9f0f 19be f4d0 abbe c55c 37bd
000000b0: 8582 6f3e cea8 2ebe b4d4 fb3d ebf8 05bd
000000c0: ec30 b5bd 9ab3 ecbd f5a8 3e3e 4bc2 66be
000000d0: c8d2 3a3e 56af 75be 2fa4 51bc 0219 54be
000000e0: 7cc9 85bd af84 063f aa46 973e 0d92 723e
000000f0: 5a9e 32be e358 cabd b984 d33e 4a01 70be
00000100: 6725 43be 0959 d0bb 7981 183d 63a2 7e3e
00000110: 5bb5 63bd 9d2a 543d e631 673e 562c 6a3e
00000120: d483 84be a3f8 89be 33a1 ae3d 264f 0a3f
00000130: 5f6d d63e 2261 09be b693 1d3e 28ff 163e
00000140: 49f8 0e3f bb52 083f 1e01 983e db34 f639
00000150: f08c 91bd 35ca e73e 2456 d33d 14b3 ac3e
00000160: 2764 61be ada3 053e f4ee 56be 5c28 1fbe
00000170: 1263 143e 865d 643e dd89 693e 5902 683e
00000180: ae42 10be 8052 08be 3589 84be 01fe 3ebe
00000190: c99f a43b 7201 ccbe 2547 5c3e c083 00be
000001a0: 7e2a 0e3f d087 063e 2d34 34bd 3a1e 833d
000001b0: 9c93 6c3d 9a66 6dbe 795b 2e3d 8f41 d43d
000001c0: 1d81 9abe f33e 0b3e 4212 24bd f41b 19bf
000001d0: d114 e4bb e173 903e bc64 07bf e1db 573d
000001e0: d01a 8b3e efc5 84be 3588 fd3d 31b4 e03e
000001f0: 7b10 79be 365b 36be 3894 ad3d 1f51 b83e
00000200: 5cbb 5dbe 0f16 ae3e 7a69 c6be 6f20 1ebe
00000210: c469 8dbd 2742 04be 5983 b7be 629c c13e
00000220: 0b33 fd3d 6a58 203f a1be 01be 1e2b 45bd
00000230: 978e 783e bc9c 843e 1275 8b3e eb71 51be
00000240: dc5f b33e 39d1 803e 8814 7bbd 17fa ef3d
00000250: a9b8 12be c806 35be 809e 8dbe ca70 a83c
00000260: 039d 82be f114 6e3c 9d54 943e e5be 473d
00000270: 07a8 f83d 8d44 5abe 3acf 97be bd02 56be
00000280: 033f f8be 869a 1fbe eab8 c8be ccd5 00bb
00000290: 667b 033d d005 8a3d 393b 713d f46a 8abe
000002a0: dfa5 39be 623d b53e 4951 acbd 9bbc 3f3e
000002b0: 394e 1c3d 841b b53d 783a 8e3e e09d 08bf
000002c0: f7fd b9be eea5 f6bd d942 603e abd9 46be
000002d0: 5274 b8be d555 1fbe c123 623e 0a55 28be
000002e0: 5cab 2c3e 9350 d13d d01e 65be 475d 8abe
000002f0: a693 79be 058a eb3e 6ed2 373e 03f4 c6bc
00000300: 1da5 02be bd79 a73e b433 30be 60c5 a2be
00000310: bd73 e3bc 3865 97bd fc02 4f3d 63e5 b1be
00000320: ea14 5abe b995 93bd b970 183e abcb 84bd
00000330: 5564 bebe a65d db3c 6b9a 033f 8d75 2cbd
00000340: 95ea 8c3e 7c34 abbe 0242 7c3e 21d9 6ebe
00000350: b5e7 613e fe03 043f 6f80 9d3e 640b 06be
00000360: a521 9fbd dbc7 d5be 778f 29be f944 083e
00000370: 265c 7b3d 52d6 05bf d2ec 073e cf53 4fbe
00000380: db5e c2be b7a0 123e 6c55 8a3e 2560 683d
00000390: 7db1 5e3e 365c 9e3e d5c1 a63d cbd9 b3bd
000003a0: 6f23 e2bb bc38 203f 14a1 babd 3b51 efbd
000003b0: 304c d3bd 9566 a6be 3799 efbe bb84 473d
000003c0: f0f1 9f3d a1df e23e 5af6 e2be dba1 853e
000003d0: 1bf4 17be 7f2f 9f3d e43d 593e 5a18 ddbd
000003e0: 1ae6 783e 2ef8 bfbe 7400 22be 7aee 773e
000003f0: 4d84 babe ab54 0fbe 90e5 f23e 131a 46be

actor.2.bias f4 [9]
0.0415046 -0.014475351 0.0033112038 -0.04103222 -0.024690809 0.019052103 -0.0070471982 0.011881241
0.010822501
00000000: ba00 2a3d 062a 6dbc c800 593b 6711 28bd
00000010: 6144 cabc 2813 9c3c 2fec e6bb 89a9 423c
00000020: dc50 313c

critic.0.weight f4 [32, 64]
-0.18483736 0.09520072 0.12431133 0.0086087035 0.12169588 0.1682897 0.06820371 0.33832943
-0.438302 -0.16700514 0.025836002 -0.17111342 -0.018466858 0.18783897 -0.0064226296 -0.18967248
0.25355926 0.049957905 -0.13269095 0.13282375 0.042723816 0.09227909 -0.18631965 0.33681962
-0.2267324 0.028075777 -0.16059087 0.19805548 0.15173884 -0.13676266 -0.16348849 0.1065473
0.32869563 -0.32103702 0.11777614 0.12658931 -0.20839901 0.2473559 0.20482293 -0.065082416
0.118494675 0.07480009 0.19787918 0.14803876 0.23777322 -0.2686988 0.26540077 0.2612871
0.016662745 0.41640493 -0.16377759 -0.060164835 0.23043753 0.15535839 -0.028200297 -0.33474502
0.13818961 0.026829973 0.04181844 -0.028530648 -0.014742258 0.15555114 0.17525056 0.15660095
0.19462243 0.3287819 -0.05382158 -0.09138675 -0.25407442 -0.06997246 -0.0166884 -0.043577977
0.27616724 -0.358464 -0.080968775 0.036624815 0.22581205 0.27901012 -0.3073017 -0.092733294
0.15715927 0.03682711 -0.013818602 0.13985299 0.07526181 -0.37830392 0.09318367 0.052529786
0.1245456 -0.012132661 0.23002091 -0.2819034 0.09115126 -0.3117011 0.28791198 -0.21559355
-0.092426896 -0.19401763 -0.012433308 0.031164285 -0.32297394 -0.20671768 0.29349566 -0.028835777
-0.07837964 0.19136246 -0.22279814 0.23531263 -0.07426101 -0.13427095 -0.0339062 0.32717448
0.061699368 0.060451947 -0.31841183 0.044513393 0.16895226 -0.034230962 0.052192826 -0.05913405
0.24551098 -0.12872298 -0.2461554 0.01105493 0.24023005 0.021693898 -0.27473944 -0.054975007
0.2788965 0.265791 0.12208464 -0.006494893 -0.084094554 -0.11206361 0.14590526 -0.07021988
0.32348293 0.17529082 0.10789065 0.16799466 0.089721106 -0.16635524 0.19786637 -0.18910232
-0.0026201862 0.08509056 -0.34271997 -0.040347084 0.1659395 0.24958412 0.41708127 0.07687641
0.24649915 0.31679595 0.29782224 -0.26596278 0.037137747 -0.0063116476 -0.11808199 -0.13787448
0.35494763 0.1508096 0.05758791 0.13281788 0.064671405 0.031593613 0.16158566 0.027534258
0.0026286845 -0.14301968 -0.08287359 -0.4194424 0.2914442 -0.11404368 0.112239376 -0.21784534
0.16087954 0.25067684 -0.2726294 0.014457732 0.09391318 -0.28477094 -0.2285402 0.07997807
0.11000131 0.06947076 0.16848221 0.2623449 0.13098484 0.3154922 -0.16391362 0.20122224
-0.061224267 0.11436456 -0.35784167 0.100060634 -0.033896685 0.026305815 0.47635677 0.010287964
-0.09154174 0.21482866 0.10893937 -0.06384454 -0.19808553 0.024888117 -0.19729592 0.008349596
-0.4260357 -0.18854201 0.014998373 -0.055561952 0.25204584 0.14406525 -0.03230431 -0.31544566
-0.19379397 -0.07722495 0.06285792 -0.40427095 -0.03433852 -0.119370036 -0.33203378 -0.15744722
0.0010062488 0.44688475 -0.089558505 0.23462601 -0.037093442 0.06995825 0.19366115 0.20744503
0.1301389 -0.235104 -0.03909133 0.058652904 0.2613477 0.024716113 -0.09476455 0.16672012
-0.1571851 0.05560086 0.11072923 0.1620365 0.008974611 -0.103284955 0.06549588 0.31156924
0.35188702 0.20912987 0.22298174 -0.06578641 0.07992792 0.10858535 -0.6663889 0.021706883
00000000: 0146 3dbe 98f8 c23d f096 fe3d 850b 0d3c
00000010: b13b f93d 2354 2c3e 63ae 8b3d 8439 ad3e
00000020: 1f69 e0be 6503 2bbe 06a6 d33c 5b38 2fbe
00000030: cf47 97bc dc58 403e ec74 d2bb 8139 42be
00000040: 85d2 813e a9a0 4c3d 23e0 07be f302 083e
00000050: 2bff 2e3d d2fc bc3d 94ca 3ebe 9f73 ac3e
00000060: 8a2c 68be 2cff e53c ef71 24be 0ecf 4a3e
00000070: 6d61 1b3e 830b 0cbe 8769 27be 7935 da3d
00000080: cb4a a83e f75e a4be 9e34 f13d a1a0 013e
00000090: 8d66 55be dd4a 7d3e 1abd 513e ee49 85bd
000000a0: 56ad f23d ca30 993d d7a0 4a3e 7997 173e
000000b0: d37a 733e e492 89be 9ce2 873e 6cc7 853e
000000c0: 4f80 883c 0733 d53e 50b5 27be 676f 76bd
000000d0: d1f7 6b3e 4516 1f3e 4f04 e7bc b363 abbe
000000e0: 9481 0d3e 88ca db3c d049 2b3d 1bb9 e9bc
000000f0: 8389 71bc cc48 1f3e e274 333e 005c 203e
00000100: 1a4b 473e 1a56 a83e 0474 5cbd fa28 bbbd
00000110: 0b16 82be b94d 8fbd 1db6 88bc d27e 32bd
00000120: cb65 8d3e 9888 b7be f5d2 a5bd e703 163d
00000130: 463b 673e 6ada 8e3e a656 9dbe f4ea bdbd
00000140: 5cee 203e 06d8 163d 6b67 62bc 9f35 0f3e
00000150: dd22 9a3d 0db1 c1be 14d7 be3d 7929 573d
00000160: c311 ff3d 12c8 46bc 9a8a 6b3e a455 90be
00000170: 83ad ba3d 4997 9fbe 3369 933e 8ec4 5cbe
00000180: 504a bdbd 8fac 46be 13b5 4bbc 3e4c ff3c
00000190: d75c a5be cdad 53be 1045 963e 0239 ecbc
000001a0: 8185 a0bd 85f4 433e 3225 64be cbf5 703e
000001b0: 2816 98bd 537e 09be 3ae1 0abd 6a83 a73e
000001c0: 7ab8 7c3d 769c 773d e006 a3be ad53 363d
000001d0: d201 2d3e c435 0cbd 25c8 553d 8c36 72bd
000001e0: 3b67 7b3e f5cf 03be 2910 7cbe bd1f 353c
000001f0: defe 753e 67b7 b13c a6aa 8cbe 792d 61bd
00000200: 86cb 8e3e c215 883e 8307 fa3d 1dd3 d4bb
00000210: c439 acbd 9b81 e5bd 3068 153e 71cf 8fbd
00000220: 8e9f a53e 707f 333e c6f5 dc3d cb06 2c3e
00000230: b3bf b73d 0759 2abe 7b9d 4a3e 0aa4 41be
00000240: 6eb7 2bbb f643 ae3d fe78 afbe fc42 25bd
00000250: 0bec 293e fb92 7f3e ad8b d53e 6171 9d3d
00000260: 466a 7c3e 1433 a23e 287c 983e 462c 88be
00000270: c01d 183d f0d1 cebb f8d4 f1bd f82e 0dbe
00000280: b2bb b53e d56d 1a3e 4de1 6b3d 6901 083e
00000290: 7172 843d 4e68 013d b676 253e 868f e13c
000002a0: 0246 2c3b c073 12be a1b9 a9bd 27c1 d6be
000002b0: 2d38 953e bc8f e9bd c2dd e53d d912 5fbe
000002c0: 9bbd 243e b758 803e 1596 8bbe 20e0 6c3c
000002d0: 8e55 c03d 7fcd 91be 7106 6abe 8bcb a33d
000002e0: 5e48 e13d b046 8e3d 9a86 2c3e 1252 863e
000002f0: e420 063e 3288 a13e f9d8 27be 340d 4e3e
00000300: 4cc6 7abd f737 ea3d 0637 b7be 97ec cc3d
00000310: 40d7 0abd 4b7f d73c 09e5 f33e d98e 283c
00000320: 3c7a bbbd 0bfc 5b3e 9b1b df3d edc0 82bd
00000330: efd6 4abe 2ae2 cb3c f107 4abe becc 083c
00000340: 5a21 dabe 2811 41be bcbb 753c ee94 63bd
00000350: 270c 813e d785 133e 8651 04bd 1882 a1be
00000360: ed71 46be 1d28 9ebd a7bb 803d 9afc cebe
00000370: 8ca6 0cbd 4778 f4bd 5500 aabe d839 21be
00000380: 1be4 833a 14ce e43e 736a b7bd cd41 703e
00000390: 4bef 17bd 4546 8f3d 1c4f 463e 786c 543e
000003a0: 2243 053e 1abf 70be 3b1e 20bd 073e 703d
000003b0: 5ecf 853e 7279 ca3c eb13 c2bd aeb8 2a3e
000003c0: 21f5 20be babd 633d 02c6 e23d e5ec 253e
000003d0: 3f0a 133c 1087 d3bd b422 863d 0186 9f3e
000003e0: 892a b43e 2426 563e 5355 643e 06bb 86bd
000003f0: 40b1 a33d ff61 de3d 7798 2abf a2d2 b13c

critic.0.bias f4 [32]
0.034352906 0.033947363 0.024977215 0.01688141 0.037549324 -0.0075507625 0.023648854 -0.0213118
0.0046188575 0.03408474 0.016480273 -0.019414004 0.003826218 -0.009081739 0.029095432 0.059763193
0.029560313 0.0 0.009524064 -0.0018753131 0.022331452 0.03185193 0.027096588 0.022637352
0.0 -0.01911497 0.01380785 0.029847255 -0.016262285 -0.014693853 -0.06967131 -0.005689223
00000000: a2b5 0c3d 640c 0b3d 049d cc3c e24a 8a3c
00000010: 52cd 193d 636c f7bb 3ebb c13c 1696 aebc
00000020: c959 973b 719c 0b3d a301 873c 1e0a 9fbc
00000030: 49c1 7a3b 93cb 14bc 8b59 ee3c 40ca 743d
00000040: 7828 f23c 0000 0000 d20a 1c3c 11cd f5ba
00000050: 73f0 b63c 2b77 023d aaf9 dd3c f871 b93c
00000060: 0000 0000 ff96 9cbc 523a 623c 3b82 f43c
00000070: 7c38 85bc 7dbe 70bc d5af 8ebd a96c babb

critic.2.weight f4 [1, 32]
0.10164307 0.13297999 -0.15142876 -0.2956418 -0.18539573 -0.2947756 0.09801157 -0.083198436
-0.14605817 -0.21655583 -0.20151813 0.25276312 -0.20047662 0.636994 -0.5118137 0.42170262
0.5887682 -0.23279154 -0.24124032 -0.4174882 -0.35814604 0.3069236 0.06748928 -0.16002977
0.11198844 -0.22933875 -0.22221355 0.30409852 0.03730603 -0.18450975 0.32690272 0.59291446
00000000: 3e2a d03d e82b 083e 2410 1bbe 5d5e 97be
00000010: 61d8 3dbe d4ec 96be 4aba c83d f163 aabd
00000020: 4690 15be d0c0 5dbe c55a 4ebe 2b6a 813e
00000030: be49 4dbe 0a12 233f 3906 03bf 68e9 d73e
00000040: 83b9 163f e860 6ebe b407 77be 03c1 d5be
00000050: eb5e b7be 1725 9d3e d237 8a3d d8de 23be
00000060: 325a e53d c7d7 6abe f38b 63be cdb2 9b3e
00000070: 35ce 183d 20f0 3cbe cb5f a73e 3ec9 173f
