logs/20250602_155832/final_model.pt (torch, 453043 bytes, 39 tensors)

shared_net.0.weight f4 [128, 30]
0	0xbcfe1106	-0.031013977
1	0xbd9e459e	-0.07728122
2	0xbe85d1d5	-0.26136652
3	0x3ccad9be	0.02476203
4	0xbe7e07d5	-0.24807675
5	0x3d972ae5	0.07381228
6	0x3d83dfc5	0.06439165
7	0x3d95adad	0.07308517
8	0xbd32aa99	-0.043619726
9	0x3d80aed0	0.06283343
10	0xbd4eb057	-0.05046114
11	0x3dc68a7e	0.09694384
12	0x3d99e46e	0.07514273
13	0xbdca2ecf	-0.09872209
14	0x3e2e989d	0.17050405
15	0x3eaf7c8d	0.34274712
16	0x3e10fe97	0.14159618
17	0xbe1b26af	-0.15151475
18	0xbd45a15f	-0.0482496
19	0x3db98f4d	0.090605356
20	0x3dc2016e	0.09472929
21	0x3da81a0e	0.082080945
22	0x3e227a94	0.15867072
23	0xbd20f55c	-0.039296493
24	0xbcecc953	-0.028904593
25	0x3dc07fc1	0.09399367
26	0xbd22d731	-0.039756004
27	0x3e432422	0.19056752
28	0xbd8571f2	-0.06515874
29	0xbda5e141	-0.080996044
30	0xbe63cab8	-0.222453
31	0x3dca8281	0.09888173
32	0xbe3981b6	-0.18115887
33	0xbe29ba00	-0.1657486
34	0x3e11f03a	0.14251795
35	0x3e05776a	0.13033834
36	0x3e24fbfa	0.16111746
37	0x3e35de82	0.17760661
38	0x3e88222f	0.2658858
39	0x3db248db	0.08705302
40	0x3e9b20eb	0.30298552
41	0x3e6d4e94	0.23174506
42	0x3dac854a	0.0842386
43	0x3ec0b733	0.3763977
44	0x3e0b218e	0.13587019
45	0x3e0a3fcd	0.135009
46	0x3e31dc6f	0.17369245
47	0x3e5fa5ac	0.21840543
48	0xbdf4b4a8	-0.1194852
49	0x3e94d157	0.29065964
50	0x3dc6c466	0.09705429
51	0xbccd599a	-0.02506714
52	0xbd4d2568	-0.0500845
53	0x3e2051e0	0.15656233
54	0xbc0b40eb	-0.008499364
55	0x3c135e5e	0.008994667
56	0x3ddc550a	0.107584074
57	0x3e1537df	0.14572094
58	0x3e6638fe	0.22482678
59	0x3e9ded22	0.3084498
60	0x3d9c7b8b	0.076407515
61	0x3dfa165a	0.122112945
62	0xbe5b9569	-0.21443714
63	0x3db94d75	0.09047977
64	0x3cf7354b	0.03017678
65	0xbda2cbda	-0.07949038
66	0xbebd4e8a	-0.36973983
67	0xbe75df3f	-0.24010943
68	0xbe72eb71	-0.23722626
69	0xbe0fa52f	-0.14027856
70	0xbc094ab3	-0.008379626
71	0x3d7bd5bc	0.06148313
72	0x3c63534f	0.013874843
73	0xbe551a1d	-0.20810743
74	0xbed6f98f	-0.41987273
75	0x3d8ac809	0.06776435
76	0x3e33af65	0.17547376
77	0xbe337271	-0.17524125
78	0xbea656fc	-0.3248824
79	0xbe9be50d	-0.3044819
80	0x3c81c7ca	0.015842337
81	0x3c8714b6	0.016489368
82	0xbde6531c	-0.112463206
83	0x3deda74a	0.116041735
84	0xbe81511c	-0.25257194
85	0xbe4ba835	-0.19888385
86	0xbc248e72	-0.010043727
87	0xbe2b9390	-0.1675551
88	0xbe2d580b	-0.16928117
89	0xbe8004b0	-0.25003576
90	0x3c111822	0.008855851
91	0xbe21cd7d	-0.15801044
92	0x3de5933c	0.11209723
93	0xbdf7cbf5	-0.120994486
94	0xbeb0e76d	-0.34551564
95	0xbc3c8ca9	-0.011508145
96	0x3de4c3c6	0.11170153
97	0x3c10c437	0.008835844
98	0xbc24a12f	-0.010048195
99	0x3ddc3286	0.10751824
100	0x3e88fe61	0.26756576
101	0x3e55ebee	0.20890781
102	0xba225d72	-0.0006193734
103	0x3dacacb8	0.08431381
104	0xbdd44d60	-0.103663206
105	0x3e1dc6d1	0.15407874
106	0xbe59f7df	-0.21285962
107	0xbd962fac	-0.073333114
108	0xbe05014a	-0.12988773
109	0xbdafd2a4	-0.085850984
110	0x3e15f7a6	0.14645252
111	0x3d66d939	0.056359503
112	0xbdfce8b4	-0.12349072
113	0xbe053fbf	-0.13012598
114	0xbde95229	-0.11392624
115	0xbe29f94e	-0.16599008
116	0x3ddbdc3c	0.10735366
117	0xbe059288	-0.13044178
118	0xbdf8e17f	-0.12152385
119	0xbd11cf00	-0.0355978
120	0x3dcba08b	0.099427305
121	0xbdb7b2e6	-0.08969669
122	0xbdb4f47a	-0.08835693
123	0xbe2e8450	-0.1704266
124	0x3dd292a0	0.10281873
125	0x3d956ca7	0.072961144
126	0xbe714a58	-0.23563516
127	0x3e4d15f5	0.20027907
128	0x3e167197	0.14691769
129	0xbdde5a8e	-0.10857116
130	0xbd5c1620	-0.053732038
131	0xbcbe58d5	-0.023235718
132	0x3d6b232f	0.0574066
133	0x3d67644e	0.056492142
134	0x3e75ff29	0.24023117
135	0x3db13a34	0.086536795
136	0x3b91088f	0.004426069
137	0x3e4f7e1d	0.20262952
138	0x3d9920fa	0.07476993
139	0x3d1bbf16	0.03802403
140	0x3df3c80e	0.11903392
141	0x3e202192	0.15637806
142	0x3e9eb154	0.30994666
143	0x3e2af688	0.16695607
144	0x3c263550	0.010144547
145	0x3e83af1e	0.2571954
146	0x3e540470	0.20704818
147	0x3db350b4	0.08755627
148	0x3e002f8e	0.1251814
149	0x3e8be94e	0.27326435
150	0x3d1e2632	0.038610645
151	0x3d8ed01c	0.069732875
152	0x3d19f083	0.037582885
153	0xbe12f6bb	-0.14351933
154	0xbc2619cb	-0.010137985
155	0xbe56329d	-0.20917745
156	0xbe1f4bd8	-0.15556276
157	0x3ca197e2	0.019725744
158	0x3e4193f4	0.18904096
159	0x3eb701ca	0.35743552
160	0x3979725a	0.0002378909
161	0xbe5ee808	-0.217682
162	0xbe2e803b	-0.17041104
163	0x3d61a940	0.05509305
164	0x3e16b4aa	0.14717355
165	0x3d9ddc1b	0.077079974
166	0xbe1924fc	-0.14955515
167	0xbe9f13b4	-0.3106972
168	0xbd9dbdfe	-0.07702254
169	0x3e2ea0e3	0.17053561
170	0x3e2d3884	0.1691609
171	0xbea6d7b3	-0.3258644
172	0xbdfcdf9b	-0.12347337
173	0xbe052088	-0.13000691
174	0xbdfed029	-0.12442047
175	0x3edc2bc6	0.43002146
176	0x3d69b534	0.057057574
177	0x3dc96518	0.09833735
178	0x3e6d2fb9	0.23162736
179	0x3ea10b2f	0.31453845
180	0x3d43531b	0.047686677
181	0x3ca46adb	0.020070484
182	0x3e67e41c	0.2264561
183	0xbc41fea0	-0.0118404925
184	0x3d090abb	0.0334575
185	0xbdbc7d4f	-0.09203588
186	0xbe873deb	-0.26414427
187	0x3b939ff4	0.004505152
188	0xbe425915	-0.18979295
189	0xbd26c324	-0.040713444
190	0xbedc4118	-0.43018413
191	0xbe164f38	-0.14678657
192	0xbe6463f1	-0.2230375
193	0xbe0286e5	-0.1274677
194	0xbd1847c4	-0.037177816
195	0x3d8d1af9	0.0688991
196	0xbe933486	-0.2875101
197	0xbd3b6e5d	-0.045759548
198	0xbe01aa7f	-0.12662695
199	0xbe5b5da0	-0.21422434
200	0xbe97b684	-0.29631436
201	0xbe663a4b	-0.22483175
202	0xbe2e70b8	-0.17035186
203	0xbe094391	-0.13404681
204	0xbddcd9f5	-0.107837595
205	0xbd5efee7	-0.054442313
206	0xbe2251b7	-0.15851484
207	0xbd99a550	-0.07502234
208	0xbe163330	-0.14667964
209	0xbe4e81d4	-0.20166713
210	0x3e0b8f09	0.13628782
211	0xbce65837	-0.028118236
212	0x3e2e4c96	0.17021403
213	0xbd9a8e48	-0.07546669
214	0x3d8eb337	0.06967776
215	0x3ddeb44f	0.10874235
216	0xbb0d96e2	-0.0021604826
217	0xbd85a2c9	-0.065251894
218	0x3deb84bc	0.114999264
219	0x3d8c4a62	0.06850125
220	0x3e4f4b63	0.20243602
221	0xbd11996d	-0.03554671
222	0x3e49b31d	0.19697233
223	0x3e5f1210	0.21784234
224	0x3e0373f4	0.12837201
225	0x3df32ac6	0.11873393
226	0x3e39f134	0.18158418
227	0x3ddc3629	0.10752518
228	0x3db2b959	0.087267585
229	0xbd939a86	-0.072072074
230	0x3e383d6d	0.17992182
231	0xbd083b48	-0.03325966
232	0xbdfd3541	-0.12363673
233	0xbc366038	-0.011131339
234	0x3e0f98d3	0.14023142
235	0x3e0eba0d	0.1393816
236	0x3e0271eb	0.12738769
237	0x3d0476d3	0.032339882
238	0x3e861cb6	0.2619378
239	0x3eb964b4	0.36209643
240	0xbe581a6c	-0.21103829
241	0x3d60f546	0.05492141
242	0x3e622188	0.22083104
243	0x3dc52352	0.096258774
244	0x3e256e97	0.16155468
245	0xbde136f5	-0.1099681
246	0xbdb026b8	-0.08601135
247	0x3dea8c53	0.11452546
248	0xbda46889	-0.08027751
249	0xbe0a09a0	-0.13480234
250	0xbe3a55d5	-0.18196805
251	0xbda65a05	-0.081226386
252	0xbe9c3bcb	-0.30514368
253	0xbe3c2616	-0.18373904
254	0xbe1f6a86	-0.15567979
255	0xbcde5cca	-0.027143855

shared_net.0.bias f4 [128]
0	0xbc05920f	-0.008152499
1	0x3cf04944	0.02933181
2	0x3e136cfd	0.14397044
3	0xbd45c97d	-0.048287857
4	0x3e13f8e2	0.1445041
5	0x3de22cae	0.11043678
6	0xbd7c7cd7	-0.061642494
7	0xbe13b924	-0.14426094
8	0xbd9ce1d9	-0.076602645
9	0xbbec5590	-0.0072123483
10	0x3cb77949	0.0223967
11	0x3e01ef78	0.12689006
12	0x3d947725	0.072492875
13	0x3e045a3e	0.1292505
14	0x3e145452	0.1448529
15	0x3e072adf	0.13199948
16	0x3cc41b03	0.023938661
17	0x3dc61984	0.096728355
18	0xbdb11a82	-0.08647634
19	0xbde2d863	-0.11076429
20	0xbd8fde4a	-0.0702482
21	0xbd9f0509	-0.07764632
22	0xbbef8365	-0.0073093646
23	0x3da8d4d2	0.08243717
24	0x3e09f2dd	0.13471551
25	0x00000000	0.0
26	0x3dcb0788	0.09913546
27	0xbd422052	-0.047394104
28	0x3d8e6d8c	0.06954488
29	0xbadc5a3f	-0.0016811563
30	0x3d6c155f	0.05763757
31	0x3e01e233	0.12683944
32	0x3d08c23f	0.033388373
33	0x3d1452d0	0.03621179
34	0x3dc695af	0.09696519
35	0x3db64ea5	0.08901719
36	0xbc97a067	-0.018509103
37	0x3de8dc8f	0.11370193
38	0xbdf998f0	-0.12187374
39	0x3de5ac26	0.11214475
40	0xbb8c334d	-0.0042785765
41	0x3dcbb187	0.0994597
42	0xbd436901	-0.04770756
43	0x3e223d5e	0.15843722
44	0xbd8507d9	-0.064956374
45	0xbc934cef	-0.01798102
46	0x3dbfd3b2	0.093665496
47	0x3e16a3a5	0.14710863
48	0x3dcb41f6	0.099246904
49	0x3baecd12	0.005334505
50	0xbbab679a	-0.005230856
51	0xbd501dfc	-0.050809845
52	0x3de62915	0.112383045
53	0x3db75ada	0.089528754
54	0x3e1d5255	0.15363438
55	0xbd65eaec	-0.056132242
56	0x3dd0f854	0.10203615
57	0xbc104a84	-0.008806828
58	0x3cf1ae70	0.029502124
59	0x3e2c4602	0.16823581
60	0x3da87e86	0.082272574
61	0xbde78efb	-0.11306568
62	0x3c9e9de8	0.019362405
63	0x3dc723d3	0.0972363
64	0x3dd1e79b	0.10249253
65	0x3da64c05	0.08119968
66	0xbd5eb816	-0.054374777
67	0x3d946365	0.072455205
68	0x3df0f5f2	0.1176566
69	0x3e152d6c	0.14568108
70	0xbceaff01	-0.028686048
71	0xbe26de7a	-0.16295806
72	0xbc2f9deb	-0.010718803
73	0x3e0d7fb6	0.13818249
74	0xbcedd151	-0.029030474
75	0x3dbcd012	0.09219374
76	0x3d8778d6	0.066148445
77	0x3a0e016b	0.00054170814
78	0x3d9cf635	0.07664148
79	0xbc88ebff	-0.016714094
80	0xbdcd3ddf	-0.100215666
81	0x3e0628cb	0.13101499
82	0xbdf7c045	-0.120972194
83	0xbd42224b	-0.047395986
84	0x3dc12dab	0.094325386
85	0x3dce17f0	0.100631595
86	0x3db5855f	0.08863329
87	0x3e1b7ca7	0.1518427
88	0x3e1261d8	0.14295137
89	0xbd22d803	-0.039756786
90	0x3e08aafe	0.13346478
91	0x00000000	0.0
92	0x3e21d99b	0.15805666
93	0xbd43aa05	-0.047769565
94	0xbd4039c2	-0.046930082
95	0x3dac8595	0.08423916
96	0xbd37df20	-0.044890523
97	0x3da52f2b	0.08065637
98	0xbd3d9a5f	-0.046289798
99	0xbc0fab22	-0.008768829
100	0x3df3c50b	0.11902817
101	0x00000000	0.0
102	0xbd265f9b	-0.04061852
103	0x3dd60609	0.1045037
104	0xbdcc1bbf	-0.0996623
105	0x3cb0bc70	0.021574229
106	0x3c1aeac6	0.009455388
107	0x3d7b836c	0.06140463
108	0x3dbed23b	0.09317442
109	0x3df0c002	0.117553726
110	0x00000000	0.0
111	0xbdbf8064	-0.093506604
112	0x3da56f51	0.080778725
113	0x3dc266e3	0.0949228
114	0x3d51a1df	0.051179763
115	0x3dffa41c	0.12482473
116	0x3d1414af	0.036152538
117	0x3da332b9	0.07968659
118	0xbdf02f39	-0.11727757
119	0x3dbb94a4	0.0915921
120	0xbc8a018c	-0.01684644
121	0x00000000	0.0
122	0x3ddcaef7	0.107755594
123	0xbcc91e77	-0.02455066
124	0x3d83bd32	0.064325705
125	0xbddf8699	-0.10914344
126	0xbd0d9f26	-0.034575604
127	0x3d4f4ec2	0.05061222

shared_net.2.weight f4 [128, 128]
0	0x3e09397f	0.1340084
1	0xbe18d051	-0.14923216
2	0xbea0d1f6	-0.31410187
3	0xbe6f4f8b	-0.23370187
4	0x3e07214f	0.131963
5	0x3e2608b0	0.16214252
6	0xbd80bcb2	-0.06285991
7	0x3d750e0c	0.05982785
8	0xbe1c9856	-0.15292487
9	0xbe3ef8bf	-0.18649577
10	0x3d4423c0	0.047885656
11	0xbe4334e5	-0.19063146
12	0xbc1ace1e	-0.009448556
13	0x3da959d6	0.08269088
14	0x3da9c634	0.08289757
15	0xbd864862	-0.06556775
16	0x3dc59371	0.09647263
17	0xbe991068	-0.2989533
18	0xbd873933	-0.06602707
19	0x3c9f7a10	0.019467384
20	0x3e7383cc	0.23780745
21	0xbea5b0cd	-0.3236145
22	0x3c475ce6	0.012168145
23	0xbd8b4a94	-0.06801334
24	0x3d283f50	0.041076005
25	0x3d9bd4a4	0.07608917
26	0xbf1734fe	-0.59065235
27	0xbe80ea00	-0.25178528
28	0x3d8cb1ea	0.06869872
29	0xbb88d6ba	-0.004175988
30	0xbe3a9181	-0.18219568
31	0x3da42a8c	0.08015928
32	0xbd57c5bf	-0.05267882
33	0x3e8f47d0	0.27984476
34	0xbd3718e2	-0.044701464
35	0x3d61a5c4	0.055089727
36	0x3cedd2c5	0.029031167
37	0xbbe00f20	-0.0068377405
38	0xbe25478e	-0.16140577
39	0xbd9447b1	-0.072402366
40	0xbbd4c53e	-0.0064932397
41	0x3d96c9b6	0.07362692
42	0xbb35e49d	-0.0027754672
43	0xbc795a61	-0.015219302
44	0x3d4b6a5d	0.049661983
45	0xbe09fc6b	-0.13475196
46	0xbd1292c4	-0.035784498
47	0x3de8e9f8	0.11372751
48	0x3dce7d7f	0.1008253
49	0x3c105cca	0.008811185
50	0xbe3508ff	-0.17679213
51	0xbec5bcc2	-0.38620573
52	0xbe0b2e9f	-0.13592003
53	0xba99a16b	-0.001172108
54	0x3d51dbb5	0.05123492
55	0xbe1d0e56	-0.153375
56	0x3e4f9f90	0.20275712
57	0x3c5d9406	0.013524061
58	0x3e36285e	0.17788836
59	0x3de4b714	0.11167732
60	0x3e362405	0.17787178
61	0xbe29482e	-0.1653144
62	0x3dd7c5a7	0.10535746
63	0xbe3ee24f	-0.18641017
64	0x3d9d5a75	0.07683269
65	0xbcd278ed	-0.025692428
66	0x3e15439b	0.1457657
67	0x3e89582a	0.26825076
68	0x3dda1f28	0.10650474
69	0xbb94b632	-0.004538321
70	0x3cf16898	0.02946882
71	0xbd400ce9	-0.046887312
72	0xbd7024f1	-0.05862898
73	0x3d2ac7d3	0.041694473
74	0x3e4cd401	0.20002748
75	0x3d22295d	0.03959023
76	0x3df181e8	0.11792356
77	0xbe022002	-0.12707523
78	0x3e074ea4	0.13213593
79	0xbc2fa6da	-0.010720933
80	0xbe8d169e	-0.27556318
81	0x3e40ebf5	0.1884001
82	0xbe895242	-0.2682057
83	0x3da5205e	0.08062814
84	0x3e5e2f1b	0.21697657
85	0xbd4010fc	-0.046891198
86	0xbe46c650	-0.19411588
87	0xbdaedfbe	-0.08538769
88	0x3d902bfd	0.0703964
89	0xbd6924cd	-0.05691986
90	0x3e02d76a	0.12777486
91	0xbd87db2a	-0.06633599
92	0x3cbb3c0a	0.022855777
93	0x3c8f7330	0.01751098
94	0xbe16d6e0	-0.14730406
95	0xbe9a4f9e	-0.30138868
96	0xbe59c984	-0.21268278
97	0x3da5b03e	0.08090256
98	0xbd73c2df	-0.059512015
99	0x3cde743d	0.027155036
100	0xbc436aeb	-0.011927347
101	0x3d211a72	0.03933186
102	0x3d8e51f0	0.06949222
103	0x3e0a51b2	0.13507727
104	0x3d508337	0.050906386
105	0xbd81142d	-0.06302676
106	0x3b2951a1	0.0025836008
107	0x3d1d2680	0.038366795
108	0x3e8197ff	0.25311276
109	0x3d1e5244	0.038652673
110	0xbd9b15b5	-0.075725
111	0xbcb03433	-0.021509266
112	0x3e13b2d3	0.14423685
113	0xbd47b48a	-0.04875616
114	0x3dd23e4c	0.102657884
115	0x3d498bd3	0.049205612
116	0x3dfc1663	0.123089574
117	0xbf29254c	-0.66072536
118	0xbe64b027	-0.22332822
119	0xbd85105a	-0.064972594
120	0x3c14d3c4	0.009083692
121	0xbe750e9a	-0.23931351
122	0xbe59462d	-0.21218176
123	0x3c69e130	0.01427488
124	0x3dbe416d	0.09289823
125	0xbda26c41	-0.07930804
126	0xbb992d74	-0.004674608
127	0x3d132200	0.035921097
128	0x3e69523a	0.22785273
129	0xbc449004	-0.011997227
130	0xbe991ccb	-0.2990478
131	0x3e2ae666	0.16689453
132	0xbe0873fb	-0.13325493
133	0xbe2c81ef	-0.1684644
134	0x3ce945bd	0.028475637
135	0x3d6cf9cc	0.057855412
136	0xbd8087ca	-0.062759
137	0x3e1d7c92	0.15379551
138	0x3d12bd33	0.035824966
139	0x3e184924	0.14871651
140	0xbe87bf50	-0.26513147
141	0xbd98ef8e	-0.074675664
142	0x3c905d09	0.017622488
143	0xbe198af6	-0.14994416
144	0xbd1fa478	-0.03897521
145	0x3e0eb220	0.13935137
146	0x3e16f76d	0.14742823
147	0xbc19f3b8	-0.009396486
148	0x3dcba2a9	0.09943134
149	0xbda01d33	-0.07818069
150	0xbc1c7e36	-0.009551575
151	0xbd7dba43	-0.06194521
152	0xbe0f73d5	-0.1400903
153	0xbd47ec81	-0.048809532
154	0xbe429f5d	-0.19006105
155	0x3e17aef6	0.14812836
156	0xbe862e10	-0.26207018
157	0x3d9efa75	0.07762615
158	0xbdf7e119	-0.12103481
159	0x3af7e68c	0.0018913313
160	0x3ec58ebd	0.38585463
161	0x3e415613	0.18880491
162	0x3e0f9af2	0.1402395
163	0xbda8ebc9	-0.082480974
164	0x3c8c7931	0.017147632
165	0x3e3ccc14	0.18437225
166	0x3e61e9a4	0.22061783
167	0xbcd30b43	-0.025762206
168	0x3d942e96	0.07235448
169	0xbd758c63	-0.059948336
170	0x3bdf5462	0.006815479
171	0x3ab499f2	0.001377879
172	0xbdab9b89	-0.08379275
173	0xbdfaa63f	-0.1223874
174	0xbcf7d63d	-0.030253524
175	0xbe0d8604	-0.13820654
176	0x3c684a55	0.014177878
177	0xbd41e5b6	-0.04733821
178	0x3d58251e	0.052769773
179	0x3e181c93	0.1485465
180	0xbca7e4f1	-0.02049491
181	0xbb524cc9	-0.0032089225
182	0xbd343760	-0.043998122
183	0x3dca84c0	0.09888601
184	0x3e3b2e83	0.18279462
185	0xbdfaa927	-0.122392945
186	0xbcf34b8e	-0.029699113
187	0xbe1cd617	-0.15316044
188	0xbd9ef240	-0.07761049
189	0x3e81df05	0.25365463
190	0x3da4dfe4	0.08050516
191	0x3dedbb7b	0.11608025
192	0xbd9461a1	-0.07245184
193	0x3d6a5fd0	0.05722028
194	0x3e9e6a8d	0.30940667
195	0xbe7c1f13	-0.24621229
196	0x3c24b928	0.01005391
197	0xbd4f7ac9	-0.050654206
198	0x3e1b8ed0	0.15191197
199	0x3d4d35c6	0.05010011
200	0xbdefbf8e	-0.11706458
201	0x3dacc462	0.084358945
202	0x3dbf72a0	0.09348035
203	0xbe7aaec5	-0.24480732
204	0x3d971a6a	0.07378085
205	0x3e06a1e7	0.13147698
206	0xbc4f505e	-0.012653438
207	0xbd8dc5d1	-0.06922496
208	0x3e8c0b3f	0.2735233
209	0xbcb3e65d	-0.021960432
210	0xbd58aa11	-0.052896563
211	0xbc8f3017	-0.017478986
212	0x3de046a4	0.10950974
213	0xbd5745e6	-0.052556895
214	0x3dd3011f	0.10302948
215	0x3cc2371e	0.023707923
216	0x3da440f7	0.080202036
217	0x3e5399d5	0.20664151
218	0xbcaf5302	-0.021401886
219	0xbe695f19	-0.22790183
220	0x3d3fd51e	0.046834104
221	0x3e182938	0.14859474
222	0xbd94ffbf	-0.07275342
223	0x3a883a1a	0.0010393292
224	0x3e7e49c7	0.24832831
225	0xbd7b4fa2	-0.06135524
226	0x3e2f3e6d	0.17113657
227	0xbe36f796	-0.17867884
228	0x3e28e1d1	0.16492392
229	0xbb457a88	-0.0030132849
230	0xbe2c2846	-0.16812238
231	0x3e860a77	0.2617986
232	0x3dde9e75	0.10870067
233	0xbcb2fa97	-0.021848006
234	0x3e234e61	0.15947868
235	0x3e5d937c	0.21638292
236	0x3e2bb583	0.1676846
237	0xbd461bba	-0.048366286
238	0x3d93efff	0.0722351
239	0x3e65c169	0.22437061
240	0x3c38a254	0.011269171
241	0x3e712f3e	0.23553178
242	0x3e79888e	0.24368498
243	0xbd38c995	-0.04511412
244	0xbcd15308	-0.025552288
245	0xbe35c245	-0.17749889
246	0xbcbc9c16	-0.023023646
247	0x3ec91b37	0.39278576
248	0xbea7ab13	-0.32747707
249	0x3dc29111	0.095003255
250	0x3e089306	0.13337335
251	0xbcaca719	-0.021075772
252	0x3e2d5440	0.1692667
253	0x3ea81236	0.32826394
254	0x3c8e0915	0.017338315
255	0x3d6fa56b	0.058507364

shared_net.2.bias f4 [128]
0	0x3db47b4f	0.08812582
1	0x3d4f2d9f	0.050580617
2	0x3da0ca59	0.07851095
3	0xbc3ff6f9	-0.011716598
4	0xba8482e0	-0.0010109805
5	0xbd9c9444	-0.07645467
6	0x3db24635	0.08704797
7	0x00000000	0.0
8	0x3d751403	0.059833538
9	0xbcae7b80	-0.021299124
10	0xbc1b972f	-0.009496494
11	0x3dc5946c	0.0964745
12	0x3de9c968	0.11415368
13	0x3ce553e0	0.027994096
14	0xbc8234fa	-0.015894402
15	0x3d0eb2b3	0.03483839
16	0xbdbcff8c	-0.09228429
17	0x3cfbed53	0.030752813
18	0x00000000	0.0
19	0x3d1590c1	0.036515
20	0xbd9b5221	-0.07584024
21	0x3dfaa2b0	0.122380614
22	0x00000000	0.0
23	0x3dde6b4a	0.108603075
24	0xbcb7eadd	-0.022450859
25	0x3d5a3ba4	0.053279534
26	0xbba87f30	-0.005142115
27	0x3d70b7b2	0.058768936
28	0x3d04311d	0.0322734
29	0xbcc8dda5	-0.02451975
30	0xbe016ef0	-0.12639976
31	0xbc5e9740	-0.0135858655
32	0x3e32b5a5	0.17452104
33	0x3d29872d	0.04138868
34	0x3dcd9787	0.10038667
35	0xbb52cbc3	-0.0032164908
36	0x3dad7d2b	0.084711395
37	0xbc1f7b81	-0.0097340355
38	0xbde59efd	-0.11211965
39	0xbdadf31d	-0.08493636
40	0xbc131cf5	-0.008979072
41	0xbc66ae30	-0.0140796155
42	0xbd3b376a	-0.045707144
43	0x3d2d906f	0.04237407
44	0x3d890301	0.06690026
45	0x3d6221e3	0.0552081
46	0x3d062f66	0.032760046
47	0x3ddbae7c	0.1072664
48	0x3d747e1a	0.059690572
49	0xbb6630b5	-0.0035124246
50	0xbd98f26c	-0.07468113
51	0x3d2895fe	0.04115867
52	0x3e0583e0	0.13038588
53	0x3da24d38	0.079248846
54	0x3dcf9730	0.101362586
55	0x3dde400d	0.108520605
56	0xbc2d68c3	-0.010584059
57	0x3be0c485	0.0068593645
58	0x3d8f1448	0.0698629
59	0x3d5d7935	0.05407067
60	0x00000000	0.0
61	0x3b1db8c2	0.0024066423
62	0xbd37ea03	-0.044900905
63	0x3d9964c9	0.07489926
64	0xbc0708c0	-0.008241832
65	0x3d1b7e7d	0.037962426
66	0x3da29028	0.07937652
67	0x3dd994b3	0.10624065
68	0x3d65810f	0.056031283
69	0x00000000	0.0
70	0xba48b6ac	-0.0007656615
71	0x3ce1de50	0.027571827
72	0x3c2a7810	0.010404602
73	0xbde6d52d	-0.11271129
74	0x3ce147a7	0.027499987
75	0x3d954a0c	0.07289514
76	0x3df0e577	0.11762517
77	0x3b3b11d6	0.0028544567
78	0xbbca3eec	-0.0061720517
79	0xbbfd0c62	-0.0077224234
80	0x3dcda4ce	0.100411996
81	0xbc88adeb	-0.016684493
82	0x3d339d3e	0.04385113
83	0xba498a3c	-0.000768814
84	0x3da74d87	0.08169084
85	0xbd22d99f	-0.03975832
86	0xbde13365	-0.10996131
87	0xbadd1f73	-0.0016870335
88	0x00000000	0.0
89	0x3dd01153	0.10159554
90	0x3c7d1f0b	0.015449296
91	0x3ce434d5	0.027857224
92	0xbd2ecb12	-0.04267413
93	0x3d959f5b	0.07305785
94	0xbbd68745	-0.006546887
95	0xbc52a8af	-0.0128576
96	0x3d896fd5	0.067107834
97	0x3b90185b	0.0043974346
98	0xbb906c60	-0.0044074506
99	0x3a0806ea	0.00051890186
100	0xbb9a342e	-0.0047059273
101	0x3def7240	0.11691713
102	0x3d2e1f26	0.042510174
103	0x3dd0fb5f	0.10204195
104	0x3d8f99b3	0.07011738
105	0x00000000	0.0
106	0x3d145127	0.036210205
107	0xbdb8c2ea	-0.09021552
108	0x3dce424d	0.100712396
109	0xbaa49319	-0.0012556046
110	0x3dab187a	0.08354278
111	0xbcba74f3	-0.022760844
112	0x00000000	0.0
113	0x3d0f32c3	0.03496052
114	0x3a96c770	0.0011503529
115	0xbcbc4a20	-0.022984564
116	0xbb788b85	-0.0037924957
117	0xbb833c58	-0.0040049963
118	0x3d03188e	0.03200584
119	0xbbeaaef6	-0.0071619703
120	0x3d361a53	0.0444587
121	0x00000000	0.0
122	0x3d1eb836	0.038749896
123	0x3dabca68	0.08388215
124	0x3d8809e4	0.066425115
125	0xbb9ac648	-0.004723344
126	0xbbde99da	-0.006793243
127	0x3d0f9c3c	0.035061106

shared_net.4.weight f4 [64, 128]
0	0xbb93f64c	-0.004515445
1	0x3d5db78b	0.05413012
2	0xbe141c6d	-0.14463969
3	0x3bea816e	0.0071565425
4	0xbdeaa8bc	-0.11457965
5	0xbe14d093	-0.1453269
6	0x3d90fcc1	0.07079459
7	0x3d027126	0.031846188
8	0x3e72d812	0.23715237
9	0xbe30d449	-0.1726848
10	0x3d10a7b2	0.035316177
11	0xbaf40485	-0.001861707
12	0xbd4530bd	-0.048142184
13	0x3dda9ca9	0.10674412
14	0x3e3f77e9	0.18698086
15	0xbe2b1185	-0.16705902
16	0xbdd83906	-0.10557751
17	0x3cfc51da	0.030800749
18	0x3d8eda81	0.0697527
19	0xbdf656d8	-0.12028283
20	0xbca2535d	-0.019815141
21	0x3d9dad16	0.07699029
22	0xbd16c96d	-0.03681319
23	0xbe72f5d2	-0.23726586
24	0x3e0be69e	0.13662192
25	0x3e87829d	0.26466838
26	0xbceb3261	-0.028710546
27	0xbe130350	-0.14356732
28	0xbd4803b5	-0.04883166
29	0xbc9817b2	-0.018565986
30	0x3d6f495a	0.058419563
31	0xbd625d3d	-0.0552647
32	0xbe0b0ec0	-0.13579845
33	0xbd438d5c	-0.047742233
34	0xbe54bb2e	-0.20774528
35	0x3e1f6659	0.15566386
36	0x3d9c12c0	0.07620764
37	0x3e17348d	0.1476614
38	0x3bd82ce6	0.006597149
39	0xbe7662bb	-0.240611
40	0xbdf70f66	-0.12063484
41	0x3df917b8	0.12162727
42	0x3d497164	0.049180403
43	0x3df423ce	0.11920892
44	0xbbdc0ac3	-0.00671515
45	0xbd84d846	-0.064865634
46	0xbd942f6d	-0.07235608
47	0xbc3473f1	-0.011013971
48	0x3c5ddcad	0.013541383
49	0xbdf593b7	-0.11991065
50	0xbd7fa838	-0.062416285
51	0xbe89f1f6	-0.26942414
52	0xb9023061	-0.00012415789
53	0x3d307708	0.043082267
54	0xbd1483c4	-0.036258474
55	0x3b055134	0.002034259
56	0x3e86aa83	0.26301965
57	0xbd22ce70	-0.039747655
58	0xbdfb776e	-0.12278639
59	0x3cb69fe2	0.022293035
60	0xbe89ddd6	-0.2692706
61	0x3ded294c	0.115801424
62	0xbd9c2dc5	-0.07625917
63	0x3e4feb07	0.203045
64	0x3d8636cf	0.06553423
65	0xbce682a2	-0.028138462
66	0x3db3c102	0.08777048
67	0xbeabf1c8	-0.33582902
68	0x3e41cb3b	0.18925183
69	0xbd00d196	-0.031449877
70	0xbd903baa	-0.0704263
71	0xbd9ca4ec	-0.07648644
72	0x3dd61210	0.10452664
73	0xbd21a5f9	-0.039464924
74	0xbd9fabc7	-0.07796436
75	0xbc316791	-0.010827915
76	0xbe0dbb84	-0.13841063
77	0xbe35aac5	-0.17740925
78	0xbe0c2500	-0.1368599
79	0x3c057b74	0.008147109
80	0x3e69aba7	0.22819386
81	0xbda037c6	-0.07823138
82	0x3d88e258	0.06683797
83	0x3c3658b3	0.011129546
84	0x3d5e8f24	0.05433573
85	0x3d251337	0.040301528
86	0x3dfe88c0	0.12428427
87	0xbc8e87dc	-0.017398767
88	0xbcf11779	-0.029430138
89	0xbe2ca038	-0.16857994
90	0x3d18064d	0.037115384
91	0xbe38a4e2	-0.18031648
92	0x3d8a7b88	0.06761843
93	0xbdc0df55	-0.09417597
94	0xbdd00157	-0.101565056
95	0xbce45d19	-0.027876424
96	0x3dcffec8	0.101560175
97	0xbd886607	-0.06660085
98	0xbe3666ff	-0.17812727
99	0xbd4dc128	-0.050233036
100	0xbe832a37	-0.25618145
101	0xbd2a3eaa	-0.041563667
102	0xbc8bf39c	-0.017083935
103	0xbc3feb94	-0.011713881
104	0xbdc18119	-0.094484515
105	0xbe7dc771	-0.24783112
106	0xbe3e1d26	-0.18565807
107	0xbe912313	-0.28347072
108	0x3ddcd5a4	0.10782936
109	0x3c560f33	0.013065147
110	0x3d4fcf99	0.05073509
111	0xbc3ea27b	-0.011635418
112	0xbdc30ad0	-0.09523547
113	0xbe4786e7	-0.19485055
114	0xbdfa8552	-0.1223246
115	0xbe807fc9	-0.25097492
116	0x3d26fe08	0.040769607
117	0xbdb58b3d	-0.08864448
118	0xbe878a6f	-0.26472804
119	0xbbaf4a21	-0.005349413
120	0xbcf3aa73	-0.029744362
121	0xbc86bd65	-0.016447732
122	0x3d406258	0.046968788
123	0xbe4df45e	-0.2011275
124	0xbd87993c	-0.06621024
125	0xbd056d89	-0.032575164
126	0xbcc50dcc	-0.02405443
127	0x3dda5b12	0.106619015
128	0x3dcc78fc	0.099840134
129	0x3c85781f	0.01629263
130	0xbe0b88fa	-0.13626471
131	0x3e032a38	0.12809074
132	0x3e131750	0.14364362
133	0xbe298d86	-0.16557893
134	0x3d2aec27	0.04172912
135	0xbe58f8a1	-0.21188594
136	0x3cc44567	0.023958875
137	0x3e298102	0.16553119
138	0x3e1723ef	0.14759801
139	0x3e5141f6	0.20435318
140	0x3cca0e2d	0.024664963
141	0xbddd9dd7	-0.10821121
142	0x3a49ff9d	0.0007705631
143	0xbdfdb565	-0.12388114
144	0xbe19c007	-0.15014659
145	0xbe4f9bcb	-0.20274274
146	0xbe018bc0	-0.12650967
147	0x3dbeaba5	0.09310082
148	0x3ce74bbd	0.028234357
149	0x3d91fe64	0.07128599
150	0x3d8ac475	0.067757525
151	0x3d3a2a1a	0.045450307
152	0x3e05f484	0.13081557
153	0xbe022187	-0.12708102
154	0x3d42db67	0.04757252
155	0x3da49362	0.080359235
156	0x3d76d909	0.060265575
157	0xbce9b67c	-0.028529398
158	0x3e5068de	0.20352504
159	0xbd0c80f2	-0.03430266
160	0xbd7d0b2f	-0.061778244
161	0x3e481551	0.19539382
162	0x3e77f0a3	0.2421289
163	0x3d0ee6e4	0.034888163
164	0x3d7a254a	0.061070718
165	0x3cc1fe76	0.023680907
166	0x3c90ea39	0.017689811
167	0xbd93d434	-0.07218209
168	0x3db48f42	0.08816387
169	0xbd927734	-0.071516424
170	0xbe09f5c3	-0.13472657
171	0xbe378d6b	-0.1792504
172	0xbdf26983	-0.11836531
173	0xbc90f89f	-0.017696677
174	0x3d73a655	0.0594848
175	0xbea3c4e9	-0.31986168
176	0x3e5b339b	0.21406405
177	0xbca1661d	-0.019702012
178	0xbdf2afa8	-0.1184991
179	0x3d4fdd5d	0.050748218
180	0xbd0e2786	-0.03470566
181	0x3e36d4a0	0.17854548
182	0x3d105b28	0.035243183
183	0x3c233396	0.0099610295
184	0x3e6648f0	0.22488761
185	0x3d73afcd	0.05949383
186	0x3d8186a3	0.06324508
187	0xbdefce14	-0.11709228
188	0x3caec9f4	0.021336533
189	0xbd2b8f6b	-0.04188482
190	0xbd84ebde	-0.064903006
191	0x3db9db71	0.09075058
192	0xbe58f0c9	-0.21185602
193	0xbdf4c106	-0.11950879
194	0x3e4381f3	0.1909254
195	0x3dd86511	0.10566152
196	0xbd942629	-0.07233841
197	0xbe337b29	-0.1752745
198	0xbde10584	-0.1098738
199	0x3dc730a0	0.09726071
200	0x3d480aaa	0.048838295
201	0xbe22ca4f	-0.15897487
202	0xbdd0fea6	-0.1020482
203	0x3dbc2efe	0.091886505
204	0x3ea2473c	0.31694973
205	0xbe095230	-0.13410258
206	0xbcd6992e	-0.026196089
207	0xbdac8006	-0.08422856
208	0xbbb753e9	-0.0055947197
209	0xbd40f1fe	-0.04710578
210	0xbe3ce1a1	-0.18445446
211	0x3ddd8250	0.10815871
212	0x3dfde0d5	0.12396399
213	0xbeb269bd	-0.34846297
214	0x3d0ea698	0.034826845
215	0xbe1c94e1	-0.15291168
216	0xbd1f4fad	-0.038894344
217	0xbe21ad77	-0.15788828
218	0xbe1695ae	-0.14705536
219	0xbd9fedd8	-0.07809037
220	0xbe28d8ec	-0.16488999
221	0x3d955f31	0.07293547
222	0x3e191af7	0.14951693
223	0x3d6657c5	0.056236047
224	0x3d6c3cb9	0.057675097
225	0x3eb63b27	0.35592005
226	0x3e24f024	0.16107231
227	0x3caad38e	0.02085283
228	0xbdd46ddb	-0.10372516
229	0x3a5af508	0.00083525525
230	0xbdb95023	-0.09048488
231	0x3b7e5873	0.0038810044
232	0x3dff897f	0.12477397
233	0xbe2e626e	-0.17029735
234	0x3e97473d	0.29546538
235	0xbea37222	-0.31923014
236	0x3e82f2f8	0.25575995
237	0x3e7e9b65	0.24863966
238	0x3b57dd59	0.003293833
239	0x3ca6cf2d	0.020362461
240	0x3dfa9f2b	0.1223739
241	0xbdf2875e	-0.118422255
242	0xbe01d8a0	-0.12680292
243	0x3d949c23	0.07256343
244	0x3d9e0b59	0.07717008
245	0x3d35795c	0.04430519
246	0x3e4d4549	0.20045961
247	0xbb04d177	-0.0020266452
248	0x3da332d4	0.07968679
249	0x3e77dde2	0.24205735
250	0xbe820735	-0.25396124
251	0xbdf8b8fc	-0.12144658
252	0xbed1a43b	-0.4094561
253	0x3d5e7909	0.054314647
254	0xbdd8dd51	-0.10589088
255	0xbc867d75	-0.016417244

shared_net.4.bias f4 [64]
0	0x00000000	0.0
1	0x3ce9f6ae	0.028560009
2	0xbdb6af5d	-0.08920167
3	0xbbb192dc	-0.0054191183
4	0xbd7d6401	-0.06186295
5	0x3d09c5bb	0.033635836
6	0x3d5d91c4	0.05409409
7	0x3cb44fbf	0.022010682
8	0x3d4946d2	0.049139805
9	0xbc75e4b0	-0.015008137
10	0x3d0354c5	0.032063264
11	0x3cc2df4c	0.023788117
12	0xbd5781c5	-0.052613992
13	0x39c7f7e9	0.00038140945
14	0x3d0b69bd	0.034036387
15	0x3d00cc94	0.0314451
16	0xbb18c061	-0.0023308026
17	0x3d2ca5b3	0.04215021
18	0x3d038e02	0.03211785
19	0x3d49ee08	0.04929927
20	0x3c813b98	0.015775487
21	0x3c73ed39	0.014888101
22	0x3cb71b5f	0.022351919
23	0x3d6f991b	0.058495622
24	0xb99ad800	-0.00029534101
25	0xbcaa3e62	-0.0207817
26	0x3d87455c	0.06605026
27	0xbc521075	-0.0128213065
28	0x3d1d6eab	0.03843562
29	0x3d0c0d21	0.03419221
30	0x3dae1b20	0.085012674
31	0xbdc80af7	-0.097677164
32	0x3e0a4bc2	0.13505462
33	0x3d5894b4	0.05287619
34	0x3da0e187	0.07855516
35	0x3d3a5d2d	0.045499016
36	0xbd3d46ea	-0.046210207
37	0x3d506e45	0.05088641
38	0x3d46fb8b	0.048579734
39	0x3c958b6e	0.018254962
40	0x3c0d3107	0.008617646
41	0xbdadf85f	-0.08494639
42	0xbd4ec0fc	-0.050477013
43	0xbdb297b3	-0.087203406
44	0x3d494051	0.049133603
45	0x3cff1203	0.031136518
46	0x3d9d8fb4	0.07693425
47	0x3da32fa0	0.07968068
48	0x3da1dc09	0.079032965
49	0x3c96ccef	0.018408267
50	0xbcc339d1	-0.02383128
51	0xbcebbd1e	-0.028776702
52	0x3c71e577	0.014764181
53	0xbd555ce0	-0.052090526
54	0x3d8efb44	0.06981519
55	0x00000000	0.0
56	0x3d2eb1f3	0.042650174
57	0x3d07b9aa	0.033136047
58	0xbbd47762	-0.006483958
59	0x00000000	0.0
60	0xbbd473b4	-0.0064835194
61	0x3c8f5888	0.01749827
62	0x3cb2d3dc	0.021829538
63	0x3bf9d7af	0.0076245884

actor.0.weight f4 [32, 64]
0	0x3e192830	0.14956737
1	0xbd8c3977	-0.06846898
2	0xbe69d62c	-0.22835606
3	0x3e856ed0	0.26061106
4	0xbdaf1092	-0.085480824
5	0x3d1f9430	0.038959682
6	0x3d844a4f	0.06459486
7	0x3d04f134	0.03245659
8	0x3e5b3662	0.21407464
9	0x3e309fd3	0.17248468
10	0xbcdfd605	-0.027323732
11	0xbdc3c398	-0.09558791
12	0x3d196d33	0.037457656
13	0xbd15e5d6	-0.03659614
14	0xbe93cab8	-0.288656
15	0x3e34b2e5	0.17646368
16	0xbde212e3	-0.110387586
17	0xbe5af202	-0.21381381
18	0x3d9392d8	0.072057426
19	0xbd260f87	-0.04054215
20	0xbd328a84	-0.04358913
21	0x3dbde477	0.09272092
22	0xbe505c68	-0.2034775
23	0x3ca4a196	0.020096581
24	0xbe56401d	-0.20922895
25	0xbdc4c9e3	-0.09608819
26	0xbc947d51	-0.018126162
27	0x3c200706	0.0097672995
28	0x3a650afd	0.0008737294
29	0xbd379261	-0.044817332
30	0xbe80bd58	-0.25144458
31	0x3d34ff9a	0.044189073
32	0x3e028e73	0.12749653
33	0x3cac951c	0.021067195
34	0x3d100daf	0.0351693
35	0xbe421130	-0.18951869
36	0xbe831e98	-0.2560928
37	0xbdf4e70c	-0.11958131
38	0x3cc28cbe	0.023748752
39	0x3bf7e76e	0.0075654304
40	0x3eafd0fc	0.3433913
41	0x3e2cb455	0.16865666
42	0xbd5406db	-0.05176435
43	0x3e8e2fd8	0.27770877
44	0x3e6a27d1	0.22866751
45	0xbd664829	-0.05622116
46	0xbeb3d38b	-0.35122332
47	0x3dc1d79c	0.09464952
48	0xbeb3bd7a	-0.35105497
49	0x3e281145	0.16412838
50	0x3e923643	0.28557023
51	0x3d00bf45	0.03143241
52	0xbd06b84a	-0.032890595
53	0xbe8d449d	-0.2759141
54	0x3e3d5870	0.18490767
55	0xbe5faa05	-0.21842201
56	0xbc2d5dd4	-0.010581452
57	0xbdd3a73c	-0.10334632
58	0xbec264f7	-0.37967655
59	0x3e1ae03a	0.15124598
60	0x3e97c340	0.2964115
61	0x3ed5a968	0.4173081
62	0x3e204251	0.15650298
63	0xbdb18fbc	-0.08669993
64	0xbe3cc5ce	-0.18434832
65	0x3d35713d	0.044297446
66	0xbe590fde	-0.21197459
67	0x3e3ebd84	0.18626982
68	0xbe4e9ea2	-0.20177701
69	0x3ed853d8	0.42251468
70	0xbef362c8	-0.47536302
71	0xbe7ccbff	-0.24687193
72	0xbdc8e72d	-0.09809718
73	0xbdbdfd73	-0.09276857
74	0xbe8806e7	-0.26567766
75	0x3e9a268c	0.30107534
76	0xbce9f641	-0.028559806
77	0xbea27c23	-0.31735334
78	0xbe34b38d	-0.17646618
79	0x3d4f4f6f	0.050612863
80	0x3d4ea45b	0.05044971
81	0xbdcec83a	-0.10096784
82	0x3d9aea2a	0.075641945
83	0x3e72f921	0.23727848
84	0xbe8a18b0	-0.2697196
85	0xbe82f429	-0.25576904
86	0x3cfa363d	0.030543441
87	0xbcac7fa4	-0.021056958
88	0x3d94b051	0.07260192
89	0xbd80df51	-0.06292594
90	0x3e3c51fa	0.18390647
91	0xbe0bb710	-0.13644052
92	0x3e270892	0.16311863
93	0xbdd24b04	-0.10268214
94	0x3e73e1dc	0.23816627
95	0xbdb3f7c7	-0.08787494
96	0x3e297764	0.1654945
97	0x3d9d3d2c	0.07677683
98	0x3ea1dffd	0.31616202
99	0x3e23ad52	0.15984085
100	0xbd2594f9	-0.040425275
101	0xbe21440a	-0.15748611
102	0xbe674336	-0.22584233
103	0x3da5517f	0.08072185
104	0x3d29fd70	0.041501462
105	0xbd40209a	-0.04690609
106	0xbe00f5cd	-0.12593766
107	0x3e35877f	0.17727469
108	0xbd527817	-0.051384058
109	0xbdf481d0	-0.11938822
110	0x3cd11c44	0.025526173
111	0x3d4e9e75	0.050444085
112	0x3d3b0579	0.045659516
113	0xbce9df3e	-0.028548833
114	0xbe81d5ca	-0.2535842
115	0x3e93464b	0.28764567
116	0xbe8b9ee8	-0.27269673
117	0xbe6887a0	-0.22707987
118	0xbd3c979d	-0.046043027
119	0x3e4d3a12	0.20041683
120	0xbccf9f2e	-0.025344457
121	0xbe000379	-0.12501325
122	0x3e0ca056	0.13733038
123	0x3dab1570	0.08353698
124	0x3e9a827d	0.3017768
125	0x3d8bf94a	0.068346575
126	0xbde2596a	-0.11052211
127	0x3ea62458	0.32449603
128	0x3df507b6	0.11964361
129	0xbd9caca3	-0.07650115
130	0x3e47b76a	0.1950356
131	0x3d9a26b6	0.07526915
132	0x3dadb8d1	0.084825166
133	0xbba22db5	-0.0049492964
134	0x3e514d86	0.20439729
135	0xbe64f5f9	-0.22359456
136	0xbe36383d	-0.1779489
137	0xbe0437c3	-0.12911896
138	0xbddba399	-0.10724563
139	0xbe8022bd	-0.25026503
140	0x3ceaef0b	0.028678438
141	0xbd7f5f3e	-0.06234669
142	0x3ba7eb82	0.0051245103
143	0xbe97a99e	-0.29621595
144	0xbe86afca	-0.2630599
145	0x3e7bdd69	0.2459618
146	0x3db5f638	0.08884853
147	0xbe83b56c	-0.2572435
148	0x3e042bf9	0.12907399
149	0xbe0ed561	-0.13948585
150	0x3e19fe07	0.1503831
151	0xbe388b5d	-0.18021913
152	0xbea9cec2	-0.33165556
153	0xbd3eca06	-0.046579383
154	0x3e445b97	0.19175564
155	0xbd074d9d	-0.033033002
156	0xbe727ab4	-0.2367962
157	0x3e305ac6	0.17222127
158	0xbd731706	-0.05934813
159	0x3e72b37b	0.23701279
160	0x3d0240b3	0.031799983
161	0x3c8815b6	0.016611915
162	0x3dafd4e7	0.0858553
163	0xbe2bb875	-0.16769584
164	0x3d7f59d0	0.06234151
165	0xbe07f909	-0.13278593
166	0xbd82e93b	-0.063921414
167	0xbe578523	-0.21046881
168	0x3e7425d8	0.23842561
169	0x3dd08f55	0.101835884
170	0xbe4f3369	-0.20234455
171	0x3e1f5cc5	0.15562733
172	0x3e439afb	0.19102089
173	0x3ca662ea	0.020310838
174	0xbe9a5c76	-0.30148667
175	0x3c7a9284	0.015293721
176	0xbe288ec5	-0.16460712
177	0xbe4e4ae1	-0.20145752
178	0xbe01933a	-0.12653819
179	0x3ebcffb9	0.3691385
180	0xbda42f68	-0.080168545
181	0x3e018c2b	0.12651126
182	0xbec64d2d	-0.38730755
183	0xba906b32	-0.0011018275
184	0xbd8f32ed	-0.06992135
185	0xbdc23cd9	-0.09484262
186	0x3ef62227	0.4807293
187	0xbde4a27e	-0.111638054
188	0x3e07c552	0.13258865
189	0xbd814f28	-0.06313926
190	0x3c087a34	0.008329917
191	0xbaab31d5	-0.0013061116
192	0x3e34e606	0.17665872
193	0x3d49c40d	0.049259234
194	0xbd16c577	-0.03680941
195	0xbe23bb7e	-0.15989491
196	0xbd0e245b	-0.03470264
197	0xbe532590	-0.20619798
198	0xbe2fcde5	-0.17168386
199	0xbe59033d	-0.21192642
200	0x3e88f503	0.2674943
201	0xbe6aad49	-0.22917666
202	0x3dca9505	0.098917045
203	0xbe33a501	-0.17543413
204	0x3e9d4354	0.3071543
205	0x3d003f6c	0.031310484
206	0xbd5059a7	-0.05086675
207	0xbe73a990	-0.23795152
208	0x3e59d690	0.21273255
209	0x3e8eee43	0.27916154
210	0x3e46d9a2	0.19418958
211	0x3ead3877	0.33832142
212	0xbe8a83d2	-0.27053696
213	0x3e3bb7f6	0.18331894
214	0x3e16bc56	0.14720282
215	0xbd85bd99	-0.065303035
216	0x3d8139d9	0.06309862
217	0xbc4325de	-0.011910884
218	0x3b2628f4	0.0025354
219	0xbb3cf5c7	-0.0028833018
220	0xbdb45fc3	-0.088073276
221	0x3e162722	0.14663365
222	0xbe7d3ee6	-0.24731025
223	0x3e117bbb	0.14207356
224	0x3e57d74e	0.21078226
225	0x3ee8354b	0.4535316
226	0xbd820cbc	-0.06350085
227	0x3e03da85	0.12876327
228	0xbda20feb	-0.07913192
229	0xbe9c1687	-0.30485937
230	0xbdf80096	-0.12109487
231	0xbd8127a9	-0.06306393
232	0xbd0b0b56	-0.033946358
233	0xbbf9449f	-0.007607057
234	0x3e1af3b0	0.15132022
235	0xbdbfe635	-0.093700804
236	0xbdb8b08c	-0.09018049
237	0x3c053ada	0.008131707
238	0xbe31c9b1	-0.17362095
239	0x3e11b573	0.14229374
240	0x3da1eeac	0.07906851
241	0xbe438d8c	-0.19096965
242	0xbdc5f521	-0.09665895
243	0xbeb6ac75	-0.3567845
244	0x3e297ff4	0.16552716
245	0xbe299f7b	-0.16564743
246	0x3e0ed907	0.13949977
247	0xbe023a6e	-0.12717602
248	0xbe64a1d4	-0.22327358
249	0xbca07952	-0.0195891
250	0xbdafc2fa	-0.08582111
251	0xbe8fcd70	-0.28086424
252	0x3da5614b	0.08075198
253	0xbd1795e3	-0.037008177
254	0xbe0c5e03	-0.13707738
255	0x3e483f59	0.19555415

actor.0.bias f4 [32]
0	0x39e24d9b	0.000431639
1	0x3cd4d8f3	0.025982356
2	0xbc47dbdc	-0.012198415
3	0x3cf8d80c	0.030376457
4	0x3ce5befa	0.028045166
5	0x3cfdb57a	0.030970324
6	0xba923a3b	-0.001115627
7	0x3c58cf47	0.0132330125
8	0x3c8fecf1	0.017569037
9	0x3d7982ea	0.060915865
10	0x3d186c39	0.037212584
11	0xba9aad5e	-0.0011800935
12	0x3c7c4b9e	0.015398888
13	0x3c7f1590	0.015569106
14	0xbcd01391	-0.025399955
15	0x00000000	0.0
16	0x3b37b866	0.0028033494
17	0x3cdd7c29	0.027036743
18	0x3cf33f87	0.029693378
19	0x3d5c3190	0.053758204
20	0x3ccc886e	0.024967398
21	0xbbdf4b96	-0.0068144305
22	0x3d866cca	0.065637186
23	0x3d3190b7	0.0433509
24	0xbbade1df	-0.005306467
25	0x3ce59d47	0.028029097
26	0xbcf44860	-0.029819667
27	0x3b97f24b	0.004637038
28	0x3d5b1728	0.05348888
29	0x3d1a8215	0.037721712
30	0x3cf2268a	0.029559392
31	0x3c931af7	0.017957194

actor.2.weight f4 [9, 32]
0	0xbe9a58b6	-0.30145806
1	0x3ec13f31	0.37743524
2	0x3e87451d	0.26419917
3	0xbe883fe7	-0.26611254
4	0x3e7a6fe4	0.24456745
5	0x3d487fbe	0.04894995
6	0xbe6efbc0	-0.23338223
7	0x3dedd746	0.11613326
8	0x3f26bee3	0.6513502
9	0xbe6fc1b0	-0.2341373
10	0x3e297d2c	0.16551656
11	0xbdde6c50	-0.10860503
12	0x3e38abf7	0.1803435
13	0x3e015413	0.12629728
14	0x3cc64336	0.02420197
15	0x3e1afb3c	0.15134901
16	0x3b4b8b3f	0.003105834
17	0xbe2168cb	-0.15762632
18	0xbdeb864e	-0.11500226
19	0xbdfc2ccd	-0.123132326
20	0xbe30f8cb	-0.17282407
21	0xbd430d94	-0.04762037
22	0x3f17d448	0.5930829
23	0x3e148953	0.1450551
24	0xbedbe96f	-0.42951533
25	0xbdca1108	-0.0986653
26	0xbec5e8ca	-0.38654166
27	0x3dd01a20	0.10161233
28	0x3e698f3f	0.2280855
29	0x3ece8e0a	0.40342742
30	0xbeae882d	-0.3408827
31	0x3edbebec	0.42953432
32	0xbe86e1fd	-0.2634429
33	0x3ea23ecc	0.31688535
34	0x3f1d6bf7	0.61492866
35	0xbe023e93	-0.12719183
36	0xbd155d8c	-0.036466166
37	0xbec7308c	-0.38904226
38	0xbdd6e5f7	-0.10493081
39	0x3b827aad	0.0039819092
40	0xbe20be3c	-0.15697569
41	0xbdabde5a	-0.083920196
42	0xbeb924e3	-0.36160955
43	0xbd834981	-0.06410504
44	0x3e95bd30	0.292459
45	0xbe6ed1b4	-0.23322183
46	0x3e2a1c76	0.1661242
47	0xbd05f8eb	-0.03270809
48	0xbdcbc3c0	-0.09949446
49	0xbe00e445	-0.12587078
50	0x3e2a6a7d	0.16642185
51	0xbe25d8fe	-0.16196057
52	0x3e08ebbf	0.1337118
53	0xbe95c49d	-0.29251567
54	0x3cf47aad	0.029843653
55	0xbe89f494	-0.2694441
56	0xbb12dfd3	-0.0022411242
57	0x3ef84bd3	0.4849535
58	0x3ea7914c	0.3272804
59	0x3e898790	0.26861238
60	0xbe73cbe5	-0.23808248
61	0xbd9364cd	-0.071969606
62	0x3ef44476	0.47708482
63	0xbe931fab	-0.28735098
64	0xbe3762de	-0.17908809
65	0x3c79c1e4	0.015243981
66	0x3d18c02e	0.03729265
67	0x3e91d660	0.28483868
68	0xbcafad7d	-0.02144503
69	0x3d80302d	0.06259189
70	0x3e6a521c	0.22882885
71	0x3e6e8c55	0.2329572
72	0xbe944fc3	-0.28967103
73	0xbe91190d	-0.28339425
74	0x3da5759f	0.08079075
75	0x3f13ebf2	0.577819
76	0x3ed36abf	0.41292378
77	0xbe0b86b7	-0.13625608
78	0x3de56012	0.111999646
79	0x3e16ff28	0.14745772
80	0x3f14901e	0.58032405
81	0x3f18150e	0.59407127
82	0x3e90a88e	0.28253597
83	0xbbd8468d	-0.006600207
84	0xbd6c4eb7	-0.057692256
85	0x3ee7dfab	0.45287833
86	0x3dc67666	0.096905515
87	0x3eb258de	0.34833425
88	0xbe81d469	-0.2535737
89	0x3e1580e2	0.14599946
90	0xbe6fd29c	-0.23420185
91	0xbe430e75	-0.19048484
92	0x3e1980eb	0.14990585
93	0x3e6a1093	0.22857885
94	0x3e3c5079	0.18390073
95	0x3e7e7c41	0.24852087
96	0xbe12d27c	-0.14338106
97	0xbe691b2b	-0.2276427
98	0xbe847dcd	-0.25877228
99	0xbe761ad8	-0.24033678
100	0xbdb45ba2	-0.0880654
101	0xbed28f18	-0.41124797
102	0x3e5cd6a1	0.2156625
103	0xbdfec6dd	-0.12440274
104	0x3f0e5385	0.5559619
105	0x3e02514d	0.12726326
106	0xbda1c36e	-0.078986034
107	0x3d8671cc	0.06564674
108	0x3d9229bc	0.071368665
109	0xbe722ec9	-0.2365066
110	0x3d481100	0.048844337
111	0x3dd4418f	0.10364067
112	0xbe8d4e24	-0.2759868
113	0x3df6547c	0.12027833
114	0xbd6acf1d	-0.057326425
115	0xbf1fb632	-0.62387383
116	0xbaf4f4fa	-0.0018688731
117	0x3e83b233	0.25721893
118	0xbf096e2a	-0.5368372
119	0x3d3fc834	0.046821788
120	0x3e8df66e	0.27727073
121	0xbeae79cd	-0.34077302
122	0x3e0da106	0.13830957
123	0x3edcb649	0.43107823
124	0xbe87e0fe	-0.26538843
125	0xbe545b8c	-0.20738047
126	0x3db111a8	0.08645946
127	0x3ea38ee6	0.3194496
128	0xbe5f68d7	-0.21817337
129	0x3ed8f7c2	0.42376524
130	0xbec665fb	-0.3874968
131	0xbe11da53	-0.1424344
132	0xbd276ccb	-0.040875237
133	0xbe1491bc	-0.14508718
134	0xbeb8c8e3	-0.36090764
135	0x3ebbded5	0.36693445
136	0x3ddacb81	0.106833465
137	0x3f037540	0.51350784
138	0xbdce9943	-0.10087826
139	0xbc957204	-0.018242843
140	0x3e41a8b8	0.18912017
141	0x3e9a22cb	0.3010467
142	0x3e820111	0.2539144
143	0xbe5171eb	-0.20453613
144	0x3ead84bc	0.3389033
145	0x3e8a8696	0.27055806
146	0xbc7d4f43	-0.015460792
147	0x3d3fe3fa	0.046848275
148	0xbdd2f98d	-0.10301504
149	0xbdeaee93	-0.11471286
150	0xbe99df15	-0.3005301
151	0x3d39b8b6	0.04534217
152	0xbea85ddb	-0.32884106
153	0x3d977cc6	0.073968455
154	0x3e7b8022	0.24560598
155	0x3d1d651a	0.038426496
156	0x3e42de50	0.19030118
157	0xbe52371e	-0.20528838
158	0xbeb9cd55	-0.36289468
159	0xbe3c6dfd	-0.18401332
160	0xbefc6089	-0.492924
161	0xbe90e1dd	-0.2829732
162	0xbec894f9	-0.39176157
163	0xbd6eb1bc	-0.05827497
164	0xbd6996be	-0.057028525
165	0x3d4b9814	0.04970558
166	0x3d69b7b6	0.057059966
167	0xbe9f31d7	-0.31092712
168	0xbe68db7a	-0.22739974
169	0x3ecc2f2f	0.39879748
170	0xbe091f5c	-0.13390869
171	0x3df92c49	0.1216665
172	0x3d9916b3	0.07475033
173	0x3cd8b415	0.026453057
174	0x3e92d17f	0.28675458
175	0xbf089de0	-0.533659
176	0xbeb40ce9	-0.351661
177	0xbe51ca55	-0.2048734
178	0x3e28434e	0.16431925
179	0xbe264645	-0.16237743
180	0xbef52c08	-0.47885156
181	0xbe748c95	-0.23881753
182	0x3e5c5b73	0.2151926
183	0xbe6239f1	-0.22092415
184	0x3e5922b1	0.2120464
185	0x3c64d3ca	0.01396651
186	0xbe3e01e4	-0.18555409
187	0xbe84cfd2	-0.25939804
188	0xbea484ea	-0.32132655
189	0x3edc5f47	0.4304144
190	0x3e665dd1	0.22496726
191	0xbdd91ad3	-0.106008194
192	0xbdf96870	-0.12178123
193	0x3e9e4ff6	0.3092038
194	0xbe300c80	-0.17192268
195	0xbeaf91ca	-0.34290916
196	0xbde50e47	-0.11184364
197	0xbd8adaeb	-0.067800365
198	0x3d5350ed	0.05159085
199	0xbeb28d13	-0.34873256
200	0xbe4cb6da	-0.19991627
201	0xbdcdee8e	-0.10055266
202	0x3e1c02a7	0.15235387
203	0xbd0708d4	-0.032967404
204	0xbec2d86b	-0.3805574
205	0x3d7b9de4	0.061429873
206	0x3f01d08f	0.5070886
207	0xbd2c758d	-0.042104293
208	0x3e7161df	0.23572491
209	0xbeb0f775	-0.34563795
210	0x3e83032a	0.2558835
211	0xbe9ef3cc	-0.31045377
212	0x3e52f763	0.20602183
213	0x3f087942	0.53310025
214	0x3ea529b5	0.32258382
215	0xbdbbbb4a	-0.09166582
216	0xbdd511bb	-0.104037724
217	0xbee3f19b	-0.44520268
218	0xbe300e28	-0.171929
219	0x3e012e5d	0.12615342
220	0x3dae6c22	0.085167184
221	0xbf033f57	-0.51268524
222	0x3dd46a36	0.10371821
223	0xbe40e1e4	-0.1883617
224	0xbec4d8d3	-0.38446674
225	0x3e1a075e	0.15041873
226	0x3e89f01d	0.26941004
227	0x3d49c6b0	0.04926175
228	0x3e56fff0	0.2099607
229	0x3e9f0bcf	0.31063697
230	0x3da788b6	0.081803724
231	0xbdf6a3b9	-0.12042946
232	0xbb83e60a	-0.0040252255
233	0x3f1f509c	0.62232375
234	0xbdba405c	-0.09094307
235	0xbdaa13a1	-0.08304525
236	0xbe1263d3	-0.14295892
237	0xbea5ed20	-0.32407475
238	0xbeee578b	-0.46551165
239	0x3d4784bb	0.048710566
240	0x3dc6c60e	0.09705745
241	0x3ef86a10	0.4851842
242	0xbee40dc8	-0.44541764
243	0x3e82f666	0.25578612
244	0xbe0fbdeb	-0.14037292
245	0x3d86a379	0.06574149
246	0x3e5573e1	0.20844986
247	0xbdcefc2b	-0.10106691
248	0x3e759faf	0.23986696
249	0xbeda8d7c	-0.4268607
250	0xbe1b918c	-0.1519224
251	0x3e7da389	0.24769415
252	0xbeb64a83	-0.35603723
253	0xbe0be6b7	-0.1366223
254	0x3ef44b6a	0.47713786
255	0xbe30c500	-0.1726265

actor.2.bias f4 [9]
0	0x3d02f259	0.031969402
1	0x3bcec0f0	0.006309621
2	0xbca015bb	-0.019541612
3	0xbd6a643c	-0.057224497
4	0xbcbecaa1	-0.02328998
5	0x3c4562ab	0.01204745
6	0xbbffe916	-0.0078097684
7	0x3c8abe58	0.016936466
8	0x3de96e18	0.11397952

critic.0.weight f4 [32, 64]
0	0xbe3d4601	-0.18483736
1	0x3d0a65ce	0.033788495
2	0x3dece0cf	0.11566316
3	0x3c0d0b85	0.0086087035
4	0x3e1551b0	0.14581943
5	0x3e38a9b3	0.18033485
6	0x3da7fe7b	0.08202835
7	0x3eb07ccf	0.3447022
8	0xbecf3f68	-0.40478063
9	0xbe2fbd92	-0.17162159
10	0x3ceb69de	0.028737005
11	0xbe2f385b	-0.17111342
12	0xbc9ad73c	-0.01890146
13	0x3e3caa6c	0.18424386
14	0x3bd62514	0.006535182
15	0xbe66e236	-0.2254723
16	0x3e8ca7c9	0.2747176
17	0x3d814917	0.06312769
18	0xbdff99bb	-0.12480494
19	0x3e24acb9	0.16081513
20	0x3d2eff2b	0.042723816
21	0x3dbcfcd2	0.09227909
22	0xbe3e8cc8	-0.18608391
23	0x3eb87e84	0.36034024
24	0xbe5516e6	-0.20809516
25	0x3ce061e1	0.027390422
26	0xbe0d5f38	-0.13805854
27	0x3e541709	0.20711912
28	0x3e2ff322	0.17182592
29	0xbe086bfd	-0.13322444
30	0xbe0f71c2	-0.14008239
31	0x3e692ad8	0.2277025
32	0x3eb56608	0.35429406
33	0xbe9d0619	-0.30668715
34	0x3e27e815	0.16397126
35	0x3d8d349b	0.06894799
36	0xbe76d00f	-0.24102806
37	0x3e8fb742	0.28069502
38	0x3e79bc8b	0.2438833
39	0xbd5d1c5d	-0.053982127
40	0x3ddbaffc	0.10726926
41	0x3e48d347	0.19611846
42	0x3e60fa85	0.21970566
43	0x3e5d16e6	0.21590766
44	0x3e586162	0.21130899
45	0xbe90cde7	-0.2828209
46	0x3e8d14ad	0.27554837
47	0x3e903b6e	0.2817034
48	0x3d03a4f0	0.03213972
49	0x3edb4d04	0.42832196
50	0xbe27b550	-0.16377759
51	0xbd546de2	-0.051862605
52	0x3e757f88	0.2397443
53	0x3e394d5c	0.18095917
54	0xbc380a12	-0.01123287
55	0xbeab63b3	-0.33474502
56	0x3e3499de	0.1763682
57	0x3d70d999	0.058801267
58	0x3d2b8f3a	0.04188464
59	0xbce9b91b	-0.028530648
60	0xbc718983	-0.014742258
61	0x3e1f56f2	0.15560511
62	0x3e342c8b	0.17595117
63	0x3e04fef2	0.12987879
64	0x3e474b1a	0.19462243
65	0x3e82ee02	0.2557221
66	0xbe0e7522	-0.1391187
67	0xbdbb28fa	-0.09138675
68	0xbe41c531	-0.18922879
69	0xbd57aaae	-0.052653007
70	0xbc5828b1	-0.013193295
71	0xbd06f4a9	-0.03294817
72	0x3e9d0b56	0.3067271
73	0xbeb9340c	-0.3617252
74	0xbd9efa43	-0.077625774
75	0x3d1603e7	0.036624815
76	0x3e6693e8	0.2251736
77	0x3e8e4b74	0.2779194
78	0xbe948700	-0.29009247
79	0xbe065923	-0.1311994
80	0x3e4ab885	0.19796951
81	0x3d3d2068	0.046173483
82	0x3d414bd0	0.04719144
83	0x3e320975	0.1738642
84	0x3d9a22dd	0.07526181
85	0xbec1b10d	-0.37830392
86	0x3dbed714	0.09318367
87	0x3daaaf3c	0.083342046
88	0x3e1d1930	0.1534164
89	0xbc57b7ed	-0.01316641
90	0x3e863622	0.26213175
91	0xbe8c2950	-0.2737527
92	0x3ddfda16	0.109302685
93	0xbea3c508	-0.3198626
94	0x3ea2a222	0.31764323
95	0xbe3a1d65	-0.18175276
96	0xbd84d422	-0.064857736
97	0xbe3f4ce6	-0.18681678
98	0x3d0809aa	0.03321234
99	0xbd185f99	-0.037200544
100	0xbeb0876f	-0.34478328
101	0xbe35ca50	-0.17752957
102	0x3eaf4d01	0.34238437
103	0xbd1d3198	-0.038377374
104	0xbd792365	-0.06082477
105	0x3e48cd13	0.1960948
106	0xbe69194d	-0.22763558
107	0x3e873610	0.26408434
108	0xbdda2582	-0.10651685
109	0xbe1b6335	-0.15174563
110	0xbccea81b	-0.025226643
111	0x3eb745ad	0.35795346
112	0x3d9969b1	0.07490862
113	0x3d92dba6	0.07170801
114	0xbea306e0	-0.31841183
115	0x3d62d3d0	0.05537778
116	0x3e22ad65	0.15886457
117	0xbcbd1af4	-0.023084141
118	0x3d89ab5d	0.06722138
119	0xbd72368c	-0.05913405
120	0x3e918273	0.28419837
121	0xbdc81ebf	-0.09771489
122	0xbe7bf594	-0.246054
123	0x3c351fbd	0.01105493
124	0x3e75fede	0.24023005
125	0x3cb42d59	0.02199428
126	0xbe8ac6ed	-0.27104893
127	0xbd821536	-0.06351702
128	0x3e8ecb86	0.2788965
129	0x3e9dbdf3	0.30808982
130	0x3df26a9e	0.11836742
131	0xbbd4d31d	-0.006494893
132	0xbd9485be	-0.07252072
133	0xbe0314ba	-0.12800875
134	0x3e2eb33d	0.17060561
135	0xbda2f8b2	-0.07957591
136	0x3e941816	0.28924626
137	0x3e53f29f	0.20698021
138	0x3dd865c7	0.105662875
139	0x3e2c06cb	0.16799466
140	0x3db7bfb3	0.089721106
141	0xbe2a5907	-0.16635524
142	0x3e4b7427	0.19868527
143	0xbe2092cf	-0.15681003
144	0xbd493122	-0.049119122
145	0x3da4fc6e	0.0805596
146	0xbea281c8	-0.3173964
147	0xbdad2cca	-0.084558085
148	0x3e29ec0b	0.1659395
149	0x3e7f92fb	0.24958412
150	0x3ed57ecf	0.4169831
151	0x3d350ec2	0.044203527
152	0x3e5357a6	0.20638904
153	0x3ea25bcd	0.31710663
154	0x3e84d4a8	0.25943494
155	0xbe892350	-0.26784754
156	0x3d33a924	0.043862477
157	0x3bd156f2	0.0063885385
158	0xbe0f3b2a	-0.13987413
159	0xbe8c18ae	-0.2736258
160	0x3eac7f6e	0.3369097
161	0x3e24c91a	0.16092339
162	0x3a84f1de	0.0010142883
163	0x3e3a44dd	0.18190332
164	0x3d3668f1	0.044533674
165	0x3d40d067	0.047073748
166	0x3e047dc9	0.12938608
167	0x3d317122	0.043320782
168	0xbc5d717e	-0.013515828
169	0xbe614296	-0.21998057
170	0xbd912c27	-0.070884995
171	0xbef43fa3	-0.477048
172	0x3ea03601	0.31291202
173	0xbdd26d3f	-0.10274743
174	0x3df4cfa2	0.11953665
175	0xbe82acd8	-0.25522494
176	0x3e21c45b	0.1579756
177	0x3e7b3405	0.24531563
178	0xbe8b9615	-0.2726294
179	0xbcf34c8c	-0.029699586
180	0x3dd3168e	0.10307036
181	0xbe8a5400	-0.27017212
182	0xbe71b786	-0.23605165
183	0x3da3cb8b	0.07997807
184	0x3d892627	0.0669673
185	0x3d82e61e	0.063915476
186	0x3e2c745f	0.16841267
187	0x3e865212	0.2623449
188	0x3e0620e4	0.13098484
189	0x3ea18600	0.31547546
190	0xbe31ccff	-0.17363356
191	0x3e122120	0.14270449
192	0xbd7ac64c	-0.061224267
193	0x3e18e170	0.14929748
194	0xbebbacb6	-0.36655205
195	0x3dccec97	0.100060634
196	0xbd8dd8a9	-0.0692609
197	0x3beb9e8c	0.007190531
198	0x3edfab9a	0.4368561
199	0xbc4bcde3	-0.012439224
200	0xbd55790a	-0.052117385
201	0x3e2c0a4c	0.16800803
202	0x3defbd05	0.117059745
203	0xbd82c0ed	-0.06384454
204	0xbe4ad6ef	-0.19808553
205	0x3ccbe22a	0.024888117
206	0xbe39ac2f	-0.18132089
207	0x3d12f934	0.03588219
208	0xbec89d4e	-0.39182514
209	0xbe558d08	-0.2085458
210	0x3c8789c1	0.016545178
211	0xbc19b6af	-0.009381934
212	0x3e810c27	0.25204584
213	0x3e1385d7	0.14406525
214	0xbd044842	-0.032295473
215	0xbea1ddc0	-0.31614494
216	0xbe2ade82	-0.16686442
217	0xbd9e281d	-0.07722495
218	0x3dc8550f	0.09781849
219	0xbee5dd0f	-0.44895217
220	0xbd57f520	-0.052724004
221	0xbe293cce	-0.16527101
222	0xbea46350	-0.3210702
223	0xbe23499d	-0.1594605
224	0xbb544b75	-0.0032393609
225	0x3ed7ae88	0.42125344
226	0xbd6ab614	-0.05730255
227	0x3e8de61f	0.2771463
228	0xbd17ef4b	-0.037093442
229	0x3d4958ff	0.04915714
230	0x3e58e913	0.21182661
231	0x3e440bee	0.19145176
232	0x3e054322	0.1301389
233	0xbe71c595	-0.23610528
234	0xbd9a9fec	-0.07550034
235	0x3d48aa4f	0.048990544
236	0x3e968689	0.29399517
237	0x3d2f51c0	0.042802572
238	0xbde3e18a	-0.111270025
239	0x3e5629d3	0.20914392
240	0xbe3b6350	-0.18299603
241	0x3d126eb4	0.035750106
242	0x3de2c602	0.11072923
243	0x3e2366a9	0.1595713
244	0x3b5eb219	0.0033980666
245	0xbdfd3859	-0.12364263
246	0x3d5e86f8	0.054327935
247	0x3e9f8601	0.31156924
248	0x3ec5d4d2	0.38638932
249	0x3e270344	0.1630984
250	0x3e645553	0.22298174
251	0xbd86bb06	-0.06578641
252	0x3da3b140	0.07992792
253	0x3dde61ff	0.10858535
254	0xbf306b09	-0.6891332
255	0x3c3a3c01	0.011366845
